round3/2025-04-18 18:13:59-weight-client-ce4110d4-6.pth (torch, 252478 bytes, 10 tensors)

conv1.weight f4 [6, 3, 5, 5]
0	0xbcb3aba2	-0.021932427
1	0xbcc6e8e2	-0.024280969
2	0xbdfa27ae	-0.122145995
3	0xbd6fced2	-0.05854685
4	0xbe859f83	-0.2609826
5	0xbd91ee8e	-0.07125579
6	0xbca9ad9f	-0.020712672
7	0xbe291057	-0.1651014
8	0xbde8aa59	-0.11360616
9	0xbd471269	-0.04860154
10	0x3d570ade	0.052500598
11	0xbbcb5a73	-0.0062058507
12	0xbde08d33	-0.109644316
13	0x3d943023	0.07235744
14	0xbcee81fa	-0.029114712
15	0x3e36636b	0.17811362
16	0x3e95ead1	0.29280713
17	0x3e442474	0.19154531
18	0x3e32e9ed	0.17472048
19	0xbcae2420	-0.02125746
20	0x3eff1142	0.49817854
21	0x3f12b085	0.573006
22	0x3ef5162b	0.47868475
23	0x3ec59eba	0.3859766
24	0x3efb949e	0.49136823
25	0x3e92f5be	0.2870311
26	0x3e5abf30	0.21361995
27	0x3e34f83a	0.17672816
28	0x3d06948c	0.03285651
29	0x3ddb98ee	0.107225284
30	0x3e712729	0.23550095
31	0x3ebc22c3	0.3674527
32	0x3e18cf13	0.14922743
33	0x3dac470f	0.08411991
34	0x3d9a05b7	0.07520621
35	0x3df2906d	0.11843953
36	0xbd75f7ff	-0.06005096
37	0x3dc41576	0.09574406
38	0xbdfcf5df	-0.12351584
39	0xbe2c9aef	-0.16855977
40	0x3c766784	0.0150393285
41	0xbcd988f7	-0.026554568
42	0xbe3d7e66	-0.18505248
43	0xbe913245	-0.28358665
44	0xbdf91955	-0.12163035
45	0xbe2948d3	-0.16531686
46	0xbdfc9dfa	-0.12334819
47	0xbe90389e	-0.28168195
48	0xbe8177af	-0.25286624
49	0xbe827472	-0.25479466
50	0x3f951a2f	1.1648616
51	0x3f9f3c32	1.2440245
52	0x3fa37a4b	1.2771696
53	0x3f8928d1	1.0715581
54	0x3f4b83b5	0.79497844
55	0x3fa5b137	1.2944707
56	0x3f92098d	1.1409165
57	0x3face83d	1.3508373
58	0x3f955e66	1.1669433
59	0x3f79442a	0.97369635
60	0x3fa76f38	1.3080816
61	0x3fa04b6f	1.252302
62	0x3f8bc5a8	1.0919695
63	0x3f8be75a	1.0929978
64	0x3f431c32	0.762149
65	0x3f670208	0.90237474
66	0x3f817483	1.0113682
67	0x3f73f383	0.95293444
68	0x3f518470	0.8184271
69	0x3f2cdcfd	0.675247
70	0x3f84554d	1.0338532
71	0x3f598e48	0.8498273
72	0x3f53e4ba	0.82770884
73	0x3f2bf3ab	0.6716868
74	0x3f0f99f3	0.5609428
75	0xbf44e1fc	-0.76907325
76	0xbf844dc8	-1.0336237
77	0xbf681c48	-0.90668154
78	0xbef4a2e7	-0.47780535
79	0xbe6e58d3	-0.23276071
80	0xbf7d61fb	-0.9897763
81	0xbf8bba6e	-1.0916269
82	0xbf9cf37c	-1.2261806
83	0xbf8b7594	-1.0895257
84	0xbf20b303	-0.6277315
85	0xbd5a4919	-0.053292368
86	0x3dc4635d	0.095892645
87	0xbebf4e7b	-0.37364563
88	0xbec4dc38	-0.38449264
89	0xbe72dc55	-0.23716862
90	0x3f4274e1	0.75959593
91	0x3f906565	1.1280943
92	0x3f5c82ab	0.86136883
93	0x3f272c3b	0.65301865
94	0x3eec568f	0.4615979
95	0x3f5eb7d0	0.86999226
96	0x3f925697	1.1432675
97	0x3f986002	1.1904299
98	0x3f320021	0.69531447
99	0x3f34fbc1	0.70696646
100	0xbf350124	-0.70704865
101	0xbf7d12a6	-0.9885658
102	0xbf6649a9	-0.89956146
103	0xbee325ca	-0.44364768
104	0xbdfe5469	-0.12418444
105	0xbf44abd4	-0.7682469
106	0xbf9d264f	-1.2277316
107	0xbf8f5a9a	-1.1199524
108	0xbf448228	-0.767611
109	0xbf1880bf	-0.5957145
110	0xbe084ccd	-0.13310547
111	0xbd9c7c22	-0.07640864
112	0xbe5645bb	-0.20925038
113	0xbedd655a	-0.43241388
114	0xbe853db8	-0.2602365
115	0x3ed67fa6	0.41894263
116	0x3f31115f	0.6916713
117	0x3f2cb048	0.67456484
118	0x3ed1c58c	0.4097103
119	0x3e26f011	0.16302516
120	0x3f21d76d	0.6321934
121	0x3f495100	0.7863922
122	0x3f7a4479	0.9776073
123	0x3f2b26b9	0.6685596
124	0x3e00c2d2	0.12574318
125	0xbec96aa9	-0.39339188
126	0xbf501f44	-0.8129771
127	0xbf33ac15	-0.7018445
128	0xbe92e0c3	-0.28687105
129	0x3de37280	0.111058235
130	0xbf399447	-0.7249188
131	0xbf499369	-0.78740555
132	0xbf79cf8b	-0.9758231
133	0xbf649c4b	-0.89300984
134	0xbee83b30	-0.45357656
135	0xbe2005b2	-0.15627173
136	0x3d1345a1	0.035955075
137	0xbe0afbab	-0.13572566
138	0xbe35564c	-0.17708701
139	0xbde73335	-0.11289064
140	0x3f323494	0.6961148
141	0x3f3f473c	0.7471807
142	0x3f1cc8eb	0.61244076
143	0x3f0fdd24	0.5619681
144	0x3e9d0c05	0.30673233
145	0x3f1d944f	0.61554426
146	0x3f2576a7	0.64634174
147	0x3f4b0f72	0.7932044
148	0x3f2bb0c1	0.6706658
149	0x3e1c9c70	0.15294051
150	0xbee9ce3b	-0.45665154
151	0xbf3c825b	-0.73636407
152	0xbf382177	-0.71926063
153	0xbf0ea091	-0.55713755
154	0xbf2f9bea	-0.6859728
155	0xbf25088b	-0.6446616
156	0xbf4524ac	-0.7700908
157	0xbf2556fd	-0.6458586
158	0xbf44cd80	-0.7687607
159	0xbf3a794a	-0.7284132
160	0xbeef0b46	-0.46688288
161	0xbf3f27c8	-0.74670076
162	0xbef6846c	-0.48147905
163	0xbf35b69a	-0.7098175
164	0xbf3fc2a8	-0.74906397
165	0xbf3b919d	-0.73269063
166	0xbf241cd0	-0.64106464
167	0xbefb1d6d	-0.49045888
168	0xbee6f56c	-0.45109117
169	0xbf2222bd	-0.63334256
170	0xbe88691c	-0.26642692
171	0xbeb6ebfb	-0.35726914
172	0xbe63d2a3	-0.2224832
173	0xbe9d5329	-0.3072751
174	0xbeaa3742	-0.33245283
175	0x3e6384db	0.22218649
176	0x3e8ac3ce	0.27102512
177	0x3eb0bcb2	0.34518963
178	0x3eae252a	0.3401273
179	0x3be3faa2	0.006957368
180	0x3e452549	0.19252504
181	0x3e73ecb4	0.23820764
182	0x3e9d51af	0.30726382
183	0x3e3965cf	0.18105243
184	0x3e1c59f9	0.15268697
185	0x3dee770d	0.11643801
186	0x3e635d08	0.22203457
187	0x3e8e7070	0.27820158
188	0x3e719d4f	0.23595165
189	0x3d33226a	0.04373399
190	0x3e6b722f	0.22992776
191	0x3ea56409	0.32302883
192	0x3f2bab04	0.67057824
193	0x3e972711	0.29521993
194	0x3e543455	0.20723088
195	0x3f03771b	0.51353616
196	0x3eb1dcb5	0.347387
197	0x3ec53f19	0.38524702
198	0x3f010e4c	0.5041244
199	0x3eaffe28	0.34373593
200	0x3e893335	0.2679688
201	0x3e23e502	0.16005328
202	0x3eb7ac66	0.35873717
203	0x3db1f94c	0.08690128
204	0x3db044a9	0.08606846
205	0x3e772eab	0.24138896
206	0x3ea8ee01	0.32994083
207	0x3dd9e948	0.10640198
208	0x3e9ff3fb	0.3124083
209	0x3e5f591f	0.21811341
210	0x3e983dc6	0.2973463
211	0x3e8833ef	0.26602122
212	0x3f082c68	0.5319276
213	0x3e6daca5	0.2321039
214	0x3e1d0453	0.15333681
215	0x3ec0514b	0.37562022
216	0x3e81bd25	0.25339618
217	0x3e9d1bc0	0.30685234
218	0x3e5d2844	0.21597391
219	0x3de37eef	0.11108195
220	0x3eabe05a	0.33569604
221	0x3ed90ad9	0.4239109
222	0x3edad974	0.4274403
223	0x3ec95780	0.3932457
224	0x3e56fb16	0.20994219
225	0xbeac7a70	-0.33687162
226	0xbeb1dd33	-0.34739074
227	0xbefef6ab	-0.49797568
228	0xbf1754f6	-0.59114015
229	0xbef377de	-0.4755239
230	0xbe59fbe6	-0.21287498
231	0xbe0b3afb	-0.13596718
232	0xbe9d471c	-0.30718315
233	0xbee98bd6	-0.456145
234	0xbecc79d5	-0.399367
235	0x3d8fe7de	0.07026647
236	0x3daa9b1b	0.08330365
237	0xbdd0f984	-0.10203841
238	0x3dc17dd4	0.09447828
239	0xbe0871d6	-0.13324675
240	0x3e9701f7	0.29493687
241	0x3ed63ed3	0.41844806
242	0x3eaa9391	0.3331571
243	0x3da5175b	0.08061095
244	0x3e061c50	0.13096738
245	0x3f0bfbd3	0.5468113
246	0x3f229208	0.63504076
247	0x3edcdbff	0.43136594
248	0x3f100255	0.5625356
249	0x3f16e67f	0.5894546
250	0x3e00c122	0.12573674
251	0x3e236792	0.15957478
252	0x3d85c2fb	0.0653133
253	0xbc2ca75a	-0.010537947
254	0xbbe693f2	-0.0070366794
255	0xbc8371b9	-0.016045438

conv1.bias f4 [6]
0	0xc0350d39	-2.828932
1	0xbe6b6d98	-0.22991025
2	0xbed507e1	-0.41607574
3	0xc008437a	-2.1291184
4	0xbfec0258	-1.8438215
5	0xbf866155	-1.0498453

conv2.weight f4 [16, 6, 5, 5]
0	0x3ce2a390	0.027665883
1	0x3e13532c	0.14387196
2	0x3da531d5	0.08066145
3	0x3de4fb9b	0.111808024
4	0x3e58fd17	0.21190296
5	0xbd7f3ea9	-0.062315617
6	0x3dfa25c9	0.12214238
7	0xbc8e5468	-0.017374232
8	0x3e05ade0	0.1305461
9	0xbd316718	-0.04331121
10	0xbe368d5c	-0.17827362
11	0xbe26c9df	-0.16287945
12	0xbe18e1e5	-0.14929922
13	0x3b2bd8b4	0.0026221694
14	0xbd81e819	-0.06343097
15	0xbdb2d364	-0.08731726
16	0xbea5145d	-0.32242098
17	0xbe903065	-0.28161922
18	0xbdfc43bb	-0.12317606
19	0xbc833bf7	-0.016019804
20	0xbdbbe125	-0.09173802
21	0xbda08b28	-0.07839042
22	0xbe75c0f2	-0.23999384
23	0xbea96243	-0.3308278
24	0xbe161f91	-0.14660479
25	0x3f027d39	0.50972325
26	0x3ef4601d	0.4772958
27	0x3edfa101	0.43677524
28	0x3e96987a	0.29413205
29	0x3e878f27	0.26476404
30	0xbd919eab	-0.07110342
31	0xbd3b9f72	-0.045806356
32	0x3e265e9b	0.16247027
33	0x3d93cf3b	0.072172605
34	0x3e0b37b0	0.13595462
35	0x3e94a9f7	0.29035923
36	0x3dfc6ccf	0.12325441
37	0x3e3cdc10	0.18443322
38	0x3e8a6f43	0.2703801
39	0x3ef35ede	0.47533315
40	0xbc6d2378	-0.014473788
41	0xbd41d3c9	-0.047321115
42	0x3d9a76aa	0.075421646
43	0xbe042a70	-0.12906814
44	0x3df7aca9	0.12093479
45	0xbd1b9bfd	-0.03799056
46	0x3d921d19	0.07134456
47	0x3e83f5cc	0.25773466
48	0x3bc90a4d	0.006135261
49	0xbe6a796b	-0.2289788
50	0xbc8c9646	-0.0171615
51	0x3d2012d5	0.03908046
52	0xbdaf3e30	-0.08556783
53	0xbcf00dda	-0.02930348
54	0x3d80f1bb	0.062961064
55	0xbe1a9166	-0.15094528
56	0xbc702c7c	-0.014659043
57	0xbd5e7b3f	-0.054316755
58	0xbc2be5d6	-0.010491809
59	0x3c2cd1c3	0.010548058
60	0xbe62f806	-0.22164926
61	0x3c44490c	0.011980306
62	0x3da1efff	0.07907104
63	0xbc84c95b	-0.016209295
64	0x3d08e7c4	0.033424154
65	0x3d7edb27	0.06222072
66	0x3ddc0bcd	0.10744438
67	0xbca2cded	-0.019873584
68	0xbdcf3953	-0.101183556
69	0xbcaa2474	-0.020769335
70	0x3de37f03	0.1110821
71	0x3e3beadd	0.18351312
72	0x3e5750ed	0.21026964
73	0x3dcad047	0.09903007
74	0xbdd24b67	-0.10268288
75	0xbd063e7a	-0.032774426
76	0xbda67201	-0.08127213
77	0x3e62d4f4	0.22151548
78	0x3e080558	0.13283288
79	0x3de1c434	0.11023751
80	0x3d65a1ac	0.056062385
81	0x3d51b1e4	0.05119504
82	0x3e24dea3	0.16100554
83	0x3e3e6792	0.18594196
84	0x3e197812	0.1498721
85	0xbd538a34	-0.051645473
86	0x3e0eda60	0.13950491
87	0x3e21d3a9	0.15803398
88	0x3e36f708	0.17867672
89	0x3dbf6a27	0.09346419
90	0xbde76650	-0.112988114
91	0x3ccb0fc9	0.0247878
92	0xbde6d674	-0.112713724
93	0x3d4b558f	0.049642142
94	0xbc3a2356	-0.011360964
95	0xbe23532f	-0.15949701
96	0xbe69932f	-0.22810052
97	0xbe87201a	-0.2639168
98	0xbe7f61b1	-0.2493961
99	0xbe513bfd	-0.2043304
100	0xbc76ad98	-0.015056036
101	0xbdc1e73a	-0.09467931
102	0x3d86c33f	0.06580209
103	0x3e006e0a	0.12541977
104	0x3e8ca835	0.27472082
105	0xba5dfeca	-0.00084684475
106	0x3d1804c6	0.037113927
107	0x3d9ad009	0.07559211
108	0x3d04ed0e	0.032452635
109	0x3e77a1ee	0.24182865
110	0xbe57c8a8	-0.21072638
111	0x3db9474e	0.090468034
112	0xbcf6737e	-0.030084368
113	0x3db989d0	0.09059489
114	0xbc24ab87	-0.010050661
115	0xbe7a5a2e	-0.24448463
116	0xbdfc2f41	-0.123137005
117	0xbe69b50d	-0.22822972
118	0xbe15be7c	-0.14623445
119	0xbdb2bdb5	-0.0872759
120	0xbe54e4a7	-0.20790349
121	0xbe75157f	-0.23933981
122	0xbeba876c	-0.36431444
123	0xbe9824e1	-0.29715636
124	0xbe6d926a	-0.23200384
125	0x3d9e9353	0.077429436
126	0xbbbdd451	-0.0057931324
127	0x3d8a8c0d	0.06764994
128	0x3c386f3f	0.011256992
129	0xbd05c208	-0.032655746
130	0xbdefefa7	-0.11715632
131	0x3be9700b	0.0071239523
132	0xbe2be4a1	-0.16786434
133	0xbe0c1c04	-0.13682562
134	0xbe0b9079	-0.1362933
135	0xbe13ea56	-0.14444861
136	0xbeba1171	-0.36341432
137	0xbe2ca035	-0.16857989
138	0xbd49f3ee	-0.049304895
139	0xbe0ce55a	-0.13759366
140	0xbe98257f	-0.29716107
141	0xbe6bd948	-0.23032105
142	0xbf086c27	-0.5329003
143	0xbec096f6	-0.37615174
144	0xbe6e813a	-0.23291484
145	0xbdd98063	-0.10620191
146	0xbe224d96	-0.15849909
147	0xbee82021	-0.45337012
148	0xbf07dfb2	-0.53075707
149	0xbeb5d866	-0.3551666
150	0xbeaf1077	-0.3419225
151	0xbe8ce38f	-0.27517363
152	0xbd95528e	-0.07291137
153	0xbe884a47	-0.2661917
154	0xbe03011a	-0.12793389
155	0xbde7b493	-0.11313739
156	0xbe3c7fd8	-0.18408144
157	0xbe4192cf	-0.1890366
158	0xbe114ca5	-0.14189394
159	0xbd8d27ed	-0.06892381
160	0xbdfa8d1c	-0.12233946
161	0xbdb33cfc	-0.08751866
162	0xbe2f3dfd	-0.1711349
163	0xbd801ede	-0.062558874
164	0xbe370a1a	-0.17874947
165	0xbdced842	-0.10099842
166	0xbd1f5423	-0.0388986
167	0x3d604e62	0.05476225
168	0x3daf9df7	0.08575051
169	0x3bc899c3	0.0061218455
170	0x3da4bf33	0.08044281
171	0x3d05da29	0.032678757
172	0xbd2c67d3	-0.042091202
173	0x3ba8a6bc	0.0051468294
174	0x3d06cd2b	0.032910507
175	0xbeb362ab	-0.35036215
176	0xbed4ab43	-0.41536912
177	0xbebf8bf5	-0.37411466
178	0xbe8790fe	-0.26477808
179	0xbe2ce179	-0.16882886
180	0xbea4e124	-0.3220302
181	0xbe906c84	-0.2820779
182	0xbee9cff7	-0.45666477
183	0xbebbd2ea	-0.36684352
184	0xbe90a204	-0.28248608
185	0xbf1a50bf	-0.6027946
186	0xbf218f4a	-0.63109267
187	0xbf2c574f	-0.6732072
188	0xbf1cc5e2	-0.61239445
189	0xbee87978	-0.45405173
190	0xbf187d5f	-0.595663
191	0xbf0bdc48	-0.54633
192	0xbf1abdca	-0.60445845
193	0xbf0482ed	-0.51762277
194	0xbec4aead	-0.38414517
195	0xbeeeb255	-0.46620432
196	0xbec14c5a	-0.37753564
197	0xbef5b803	-0.47991952
198	0xbea2c3a6	-0.31789893
199	0xbe89eca6	-0.2693836
200	0xbdb86b48	-0.09004837
201	0xbde59132	-0.112093344
202	0xbd9d8212	-0.076908246
203	0x3d2981df	0.04138362
204	0x3dd220c7	0.10260158
205	0xbe0f1428	-0.13972533
206	0xbd2d0b40	-0.042247057
207	0xbc1323fe	-0.008980749
208	0xbe03584a	-0.12826648
209	0x3d8df081	0.06930638
210	0xbec12414	-0.37722838
211	0xbe75bf57	-0.23998772
212	0xbdd4c85a	-0.103897765
213	0xbd37af77	-0.04484507
214	0xbd9b4848	-0.07582146
215	0xbdb00b5b	-0.08595916
216	0x3cd5915e	0.026070293
217	0xbe1afc6b	-0.15135352
218	0xbe2c1e54	-0.16808444
219	0xbcb32b50	-0.021871239
220	0xbe06ee70	-0.13176894
221	0x3d0fe60b	0.035131495
222	0xbc3c2b85	-0.011484985
223	0x3d41b904	0.047295585
224	0xbe2375f2	-0.15962961
225	0xbe36ff56	-0.1787084
226	0xbc7e1630	-0.01550822
227	0x3cd854ff	0.026407717
228	0xbd9be306	-0.07611661
229	0xbe2c9a51	-0.16855742
230	0xbd0f06ff	-0.03491878
231	0xbe0d5f98	-0.13805997
232	0xbdc69529	-0.09696419
233	0xbcad14c3	-0.021128064
234	0xbe9180fd	-0.28418723
235	0xbd1b5ab7	-0.03792831
236	0x3d11f7bf	0.03563666
237	0x3cd1c8ee	0.025608506
238	0x3bcabc28	0.0061869808
239	0xbc8933d6	-0.01674835
240	0xbb2e9be1	-0.0026643204
241	0x3c3d3f4c	0.011550736
242	0x3d30dafa	0.043177582
243	0xbd2e158b	-0.042501014
244	0xbd07ec7b	-0.03318451
245	0xbc99f363	-0.018792814
246	0x3c82ae0a	0.015952129
247	0x3de77eb9	0.11303467
248	0x3d9e645d	0.077339865
249	0xbde3602b	-0.11102327
250	0xbd8f1776	-0.06986897
251	0xbd07a37c	-0.033114895
252	0xbdd6be82	-0.10485555
253	0xbe6a1fbd	-0.2286367
254	0xbe525978	-0.20541942
255	0xbdf9bb00	-0.121938705

conv2.bias f4 [16]
0	0xbda884d1	-0.08228458
1	0xbe349beb	-0.17637603
2	0x3e883f85	0.26610962
3	0xbde85cb2	-0.11345805
4	0xbf0d15e0	-0.55111504
5	0x3e491ae0	0.19639158
6	0xbeca0c98	-0.39462733
7	0x3c8c9f04	0.017165668
8	0xbea710b5	-0.32629934
9	0xbdad955b	-0.08475753
10	0xbe237d60	-0.15965796
11	0xbf1229bd	-0.5709494
12	0xbe1273e0	-0.14302015
13	0x3f4d16e0	0.8011303
14	0xbebe22f6	-0.37136048
15	0xbec8ab64	-0.3919326

fc1.weight f4 [120, 400]
0	0xbc5c3429	-0.01344017
1	0xbc4610d7	-0.012088976
2	0x3c4930a5	0.012279664
3	0xbda8d795	-0.08244244
4	0x3c7de9da	0.015497649
5	0xbd611511	-0.05495173
6	0xbd85d290	-0.06534302
7	0x3d7a31c2	0.06108261
8	0xbb578fed	-0.0032892183
9	0xbc41e21a	-0.011833692
10	0xbd7bea8c	-0.06150298
11	0xbde6f8aa	-0.11277898
12	0xbd204f5c	-0.039138183
13	0xbcf7b666	-0.030238342
14	0x3d3fbcbd	0.046810854
15	0xbdae0636	-0.084972784
16	0x3cb05afc	0.02152776
17	0x3b475bce	0.003041971
18	0x3d0b6227	0.034029152
19	0x3df56120	0.11981416
20	0x3df2d38a	0.11856754
21	0x3cc1f603	0.023676878
22	0x3d2e45bd	0.042546976
23	0x3d1ce3d3	0.038303208
24	0x3d768884	0.060188785
25	0xbc501254	-0.012699682
26	0xbd1cf1fa	-0.038316704
27	0x3c82a173	0.015946126
28	0x3d7d9522	0.061909802
29	0xbe0d48de	-0.13797328
30	0x3daa7607	0.08323293
31	0x3d427087	0.047470596
32	0x3cab9189	0.02094342
33	0xbd7a87e2	-0.061164744
34	0xbdbcf437	-0.09226268
35	0xbd6bd19e	-0.057572953
36	0x3d0d3f90	0.034484446
37	0xbbca17ab	-0.006167372
38	0xbbc17db6	-0.0059048785
39	0xbd5fef1d	-0.054671396
40	0x3d8997ac	0.06718382
41	0x3d48ab46	0.048991464
42	0xbd5d9f04	-0.054106727
43	0xbbd4b035	-0.006490732
44	0xbb034802	-0.0020031934
45	0xbd20f01a	-0.03929148
46	0xbd80f4b1	-0.06296671
47	0xbbd29fca	-0.0064277397
48	0xbcd52e9e	-0.026023205
49	0xbd098bd0	-0.0335806
50	0x3d9b04fe	0.075693116
51	0xbd6e7440	-0.058216333
52	0x3ca78f47	0.020454062
53	0xbcb05cdb	-0.021528652
54	0x3ce9b7d3	0.028530037
55	0xbce184e2	-0.027529184
56	0xbd139fa1	-0.036040906
57	0xbb04ce68	-0.002026463
58	0xbd4e8bb0	-0.050426185
59	0xbca1992c	-0.019726358
60	0x3b00dc5c	0.0019662594
61	0xbd1394a7	-0.036030438
62	0xbd7c59b0	-0.06160897
63	0xbd836fe6	-0.06417827
64	0xbd8e89b5	-0.06959859
65	0x3d3fb990	0.046807826
66	0x3d79e73f	0.06101155
67	0x3d502cf1	0.05082411
68	0x3d01ffd8	0.031738132
69	0xbd442382	-0.047885425
70	0x3d2988d3	0.04139025
71	0x3cf1b82c	0.029506765
72	0x3d77c776	0.060492955
73	0x3d101b98	0.035182565
74	0x3c5612bc	0.01306599
75	0xbd62cb9f	-0.05536997
76	0x3b0d61e6	0.0021573245
77	0x3c0b8a15	0.008516808
78	0xbc6a126f	-0.0142866215
79	0xbc6b9924	-0.014379773
80	0x3cb3b902	0.021938805
81	0xbd36f604	-0.044668213
82	0xbc4b1d72	-0.012397157
83	0x3d40c8fe	0.04706668
84	0x3de4c681	0.11170674
85	0x3c0548a7	0.008134997
86	0xbccd03a7	-0.025026156
87	0x3c3e129d	0.011601117
88	0x3d84c010	0.064819455
89	0x3bd028f3	0.006352538
90	0xbd1eae5f	-0.038740512
91	0xbd79f240	-0.061022043
92	0xbc143799	-0.009046459
93	0xbcebc039	-0.028778182
94	0x3cd328a6	0.025776219
95	0x3d2f564c	0.04280691
96	0xbd415d2e	-0.047208004
97	0xbc4849a2	-0.012224587
98	0x39c331dd	0.0003723045
99	0xbc0148f1	-0.007890926
100	0x3d022afe	0.03177928
101	0x3b308e02	0.0026940112
102	0x3da889c3	0.08229401
103	0xbce12ceb	-0.027487239
104	0xbd32b29b	-0.043627363
105	0xbc47bb47	-0.0121906465
106	0xbc862d10	-0.01637891
107	0x3d62cecc	0.055372998
108	0xbd2d5121	-0.0423137
109	0x3d698e78	0.057020634
110	0xbd0889d4	-0.03333457
111	0xba5e5bf6	-0.0008482331
112	0x3d139285	0.036028404
113	0xbcbabc38	-0.022794828
114	0x3be58f1f	0.0070055868
115	0x3aeb3196	0.0017943855
116	0xbcbd542b	-0.023111423
117	0x3c456282	0.012047412
118	0xbdc156c1	-0.09440375
119	0xbd2d0537	-0.0422413
120	0x3d3d9e29	0.04629341
121	0x3c8964dd	0.016771728
122	0x3d3e52cd	0.046465684
123	0xbd9b032b	-0.075689636
124	0xbe132c63	-0.14372401
125	0x3d0a3080	0.03373766
126	0x3d7dfcbf	0.062008616
127	0x3cca7408	0.024713531
128	0x3b5b9d44	0.0033510486
129	0x3cf4ac2d	0.029867256
130	0xbb01f1f3	-0.001982805
131	0x3c682081	0.014167906
132	0xbd17403d	-0.036926497
133	0xbcf8aa9c	-0.03035479
134	0xbcf0089d	-0.029300982
135	0xbb6c2973	-0.0036035448
136	0x3d9afb20	0.075674295
137	0x3cf7e500	0.030260563
138	0x3c3eefbc	0.011653837
139	0xbce3bbdd	-0.027799541
140	0x3c96dff9	0.018417345
141	0xbd49bad2	-0.04925043
142	0x3c1878bd	0.00930613
143	0xbdaa16af	-0.08305108
144	0xbd87890a	-0.06617935
145	0xbc6b7e24	-0.014373336
146	0x3db6d92c	0.08928141
147	0x3c45d83c	0.01207548
148	0x3c50b484	0.012738351
149	0xbcc5263e	-0.024066087
150	0x3d9c8913	0.07643332
151	0x3d189315	0.037249643
152	0x3d083e2c	0.033262417
153	0xbcd5c59f	-0.02609521
154	0xbda73bf2	-0.081657305
155	0xbcdd6c92	-0.02702931
156	0x3ceb34c0	0.028711677
157	0x3d724be9	0.059154425
158	0xbccda804	-0.02510453
159	0xbd5b520a	-0.053545035
160	0x3d0409f7	0.032236066
161	0x3d8dad18	0.06917781
162	0x3d0eb2ff	0.034838673
163	0x3d500ac1	0.050791506
164	0x3d41b705	0.04729368
165	0x3c2a74ee	0.010403855
166	0x3c0b5556	0.008504232
167	0xbdbb1e7e	-0.09136675
168	0x3b954116	0.004554878
169	0xbd7932f3	-0.060839605
170	0xbd1db75f	-0.038504954
171	0xbd311654	-0.043234184
172	0xbd2ca525	-0.04214968
173	0xbdc8924d	-0.0979353
174	0xbd86cbe3	-0.06581857
175	0x3c4e8517	0.012604973
176	0x3e10f19a	0.14154664
177	0x3e377166	0.17914352
178	0x3cd905ec	0.026492082
179	0x3d0edb3f	0.034877058
180	0x3e06e4b6	0.13173184
181	0x3dc53168	0.09628564
182	0x3dcc27ba	0.09968515
183	0x3d64fcd9	0.055905197
184	0xbdee920d	-0.11648951
185	0x3d9a3e98	0.0753147
186	0x3cc87b99	0.024472998
187	0x3c35453d	0.011063871
188	0x3d17652f	0.03696173
189	0xbd2a7b15	-0.041621286
190	0x3dc7af9c	0.09750292
191	0x3cca28b9	0.024677621
192	0xbddd2572	-0.10798158
193	0xbc6f5a90	-0.014608994
194	0xbcde312a	-0.027123053
195	0x3de38dd1	0.11111034
196	0x3cdde994	0.027088918
197	0x3d0e2133	0.03469963
198	0xbda5f426	-0.08103208
199	0xbdeda68e	-0.116040334
200	0xbcaa08dd	-0.02075618
201	0x3d3cda3c	0.046106562
202	0xbd948c4f	-0.07253324
203	0xbd0233af	-0.03178757
204	0x3c5d54d2	0.013508992
205	0xbd173104	-0.03691198
206	0xbd08071b	-0.0332099
207	0x3c16c459	0.009202086
208	0x3d6d399f	0.05791628
209	0xbc408e1e	-0.011752633
210	0x3bfa2ee1	0.007634983
211	0x3c9dcdbb	0.019263139
212	0xbda7d96d	-0.081957676
213	0xbd0162e9	-0.03158847
214	0xbd13134b	-0.03590707
215	0x3d11c4f3	0.035588216
216	0x3d2b15ea	0.041768946
217	0x3d85e71a	0.0653822
218	0xbdab486e	-0.08363424
219	0xbdf7f526	-0.12107305
220	0x3da303ed	0.07959733
221	0x3dc571d2	0.0964085
222	0xbd989142	-0.07449581
223	0xbdad831d	-0.084722735
224	0xbda067ee	-0.07832323
225	0xbc8dfb6e	-0.017331805
226	0xbcaac87d	-0.020847553
227	0xbd8bbcd5	-0.06823126
228	0x3d76b3f7	0.06023022
229	0xbd3b4e52	-0.04572899
230	0x3d02be53	0.03191979
231	0x3dcea313	0.10089698
232	0xbd5f2706	-0.054480575
233	0xbc6a76e2	-0.01431057
234	0xbcfff00a	-0.03124239
235	0x3c7aee2c	0.015315574
236	0xbcd83f72	-0.02639744
237	0x3c86e7d8	0.016467974
238	0xbc74e6c2	-0.014947595
239	0xbdf8a2fa	-0.1214046
240	0x3db58842	0.0886388
241	0x3daf0e44	0.08547643
242	0x3cc97a56	0.024594467
243	0x3bae9c6b	0.005328705
244	0x3a11d72c	0.0005563374
245	0x3d8e17d3	0.06938138
246	0x3dbb2e11	0.09139646
247	0xbd97c049	-0.07409722
248	0x3bc84956	0.006112258
249	0xbe03484c	-0.12820548
250	0xbb6225a8	-0.0034507308
251	0xbb6bc044	-0.0035972754
252	0xbe0b912e	-0.136296
253	0xbd220394	-0.039554194
254	0xbc219b18	-0.009863637
255	0x3c95a6e7	0.018268062

fc1.bias f4 [120]
0	0x3c353c53	0.011061746
1	0x3da33f63	0.079710744
2	0xbceb7c4a	-0.02874579
3	0xbd16822d	-0.03674524
4	0x3cc5db5f	0.024152456
5	0x3d8ff576	0.0702924
6	0x3dbec70c	0.09315309
7	0x3cf93d67	0.030424787
8	0xbd9bf2b3	-0.076146506
9	0x3b998c61	0.004685924
10	0xbdb1d4ff	-0.08683204
11	0x3dd7122e	0.105015144
12	0xbbdd9b47	-0.0067628953
13	0x3dcc6fb3	0.099822424
14	0x3d144b86	0.036204837
15	0xbc261213	-0.010136145
16	0xbd2841fd	-0.041078556
17	0x3da5de7f	0.080990784
18	0x3cdfc88a	0.027317304
19	0xbcda6d01	-0.026663305
20	0xbdb4737b	-0.08811089
21	0xbd857bbc	-0.06517741
22	0xbd39918d	-0.045304824
23	0xbd9a42e4	-0.075322896
24	0xbd61f17a	-0.05516193
25	0xbde95192	-0.113925114
26	0xbdcafad9	-0.09911127
27	0xbc97f304	-0.018548496
28	0xbc5221f6	-0.01282548
29	0xbc910df4	-0.017706849
30	0xbdbb5552	-0.09147133
31	0xbc5cfbb0	-0.013487741
32	0x3dd0ded6	0.101987526
33	0xbda6f5c0	-0.08152342
34	0x3ce9bc89	0.028532283
35	0x3d0b663a	0.034033038
36	0x3d52e043	0.051483404
37	0x3e4f2431	0.2022865
38	0x3da7ef3d	0.08199928
39	0xbd57c0fe	-0.052674286
40	0x3dafb9aa	0.085803345
41	0x3c75cd7d	0.0150026055
42	0xbd3cebb4	-0.04612322
43	0x3da87083	0.08224585
44	0xbdbfbbce	-0.09361993
45	0x3d9b8f11	0.07595647
46	0xbdecad90	-0.11556542
47	0xbd0fa76a	-0.035071768
48	0xbe902837	-0.28155681
49	0xbc845373	-0.016153073
50	0x3d942f1b	0.07235547
51	0x3ded979a	0.11601181
52	0x3d0394e4	0.032124415
53	0xbd8ca8b3	-0.06868114
54	0x3dafe365	0.08588294
55	0x3bf1933a	0.007372287
56	0xbe3657dc	-0.17806953
57	0xbd995bc3	-0.07488205
58	0x3c7688e2	0.015047284
59	0xbda0d99d	-0.078540064
60	0x3e1fd644	0.1560908
61	0xbd104cf0	-0.035229623
62	0xbdcb93fa	-0.09940334
63	0x3d378e67	0.04481354
64	0xbc978271	-0.018494816
65	0x3e0df346	0.13862333
66	0xbd8e968f	-0.069623105
67	0xbcac178e	-0.021007326
68	0x3e31f402	0.17378238
69	0x3cc02911	0.023457082
70	0xbcdae305	-0.02671958
71	0xbd9139b4	-0.07091084
72	0xbdc79857	-0.097458534
73	0xbd714438	-0.05890295
74	0xbd7902e5	-0.060793776
75	0xbc907287	-0.017632736
76	0x3df3ab99	0.11897964
77	0xbe0c7dc4	-0.13719851
78	0x3cdc4cf6	0.026892167
79	0xbe3e285c	-0.18570083
80	0x3da08fdd	0.0783994
81	0xbd285349	-0.041095052
82	0x3dbed70f	0.09318363
83	0xbd0bc396	-0.034122072
84	0x3d91093a	0.07081838
85	0xbcda8041	-0.026672484
86	0xbc933a98	-0.017972276
87	0x3ca4f783	0.020137554
88	0xbb373969	-0.0027957803
89	0xbdd39c0a	-0.103324965
90	0x3e0044b3	0.12526207
91	0x3d5d5dd6	0.054044567
92	0x3cfecdaa	0.031103928
93	0xbd90865a	-0.070568755
94	0xbd61250a	-0.054966964
95	0x3e6d91f2	0.23200205
96	0xbde09367	-0.10965615
97	0xbd3d2023	-0.046173226
98	0x3dbddb7d	0.0927038
99	0xbdb4d3bf	-0.0882945
100	0xbcd52461	-0.026018323
101	0xbdb717d6	-0.08940093
102	0x3d3dbd48	0.04632309
103	0x3e403765	0.18771131
104	0xb9a13a76	-0.0003075187
105	0xbdf7bef4	-0.12096968
106	0xbcd2a1fd	-0.025712008
107	0x3e2e0048	0.16992295
108	0xbd927ac0	-0.07152319
109	0x3d534aca	0.051584996
110	0xbcd70595	-0.026247779
111	0xbcd8a56d	-0.026446069
112	0x3d1c73dc	0.03819643
113	0xbe1f1d52	-0.15538529
114	0x3d1cab4d	0.038249303
115	0x3d05b9d9	0.03264794
116	0x3ced2205	0.028946886
117	0xbd21e885	-0.03952839
118	0x3c8c840c	0.017152809
119	0xbc98df79	-0.018661248

fc2.weight f4 [84, 120]
0	0xbd59e0fa	-0.05319307
1	0xbd9b8a4e	-0.07594739
2	0x3c06abb6	0.00821965
3	0xbe5fede0	-0.21868086
4	0xbed8329a	-0.42226106
5	0x3df9bd57	0.12194317
6	0xbe249fde	-0.1607661
7	0x3dd9ce97	0.10635107
8	0x3e0b2fb3	0.13592415
9	0xbe6f974b	-0.23397557
10	0x3d2b64e0	0.04184425
11	0xbe977ca3	-0.29587278
12	0x3b8f1862	0.0043669203
13	0x3e1e9c79	0.15489377
14	0xbd1aa5ea	-0.037755884
15	0xbe010e58	-0.12603128
16	0xbd828e5b	-0.063748084
17	0xbd452546	-0.04813125
18	0x3d6f6198	0.058442682
19	0x3ea704ca	0.3262084
20	0x3d410616	0.047124945
21	0x3c1b97d0	0.009496644
22	0x3db2268a	0.08698757
23	0xbda51464	-0.0806053
24	0x3df492b0	0.11942041
25	0x3df0edc5	0.11764101
26	0x3b51e422	0.0032026847
27	0xbdfada36	-0.12248652
28	0x3d99fbab	0.07518705
29	0xbdf3befa	-0.1190166
30	0x3ca6de6e	0.020369735
31	0xbce01f2f	-0.02735862
32	0xbdea35b1	-0.11436022
33	0xbcbd3ca5	-0.023100207
34	0xbbc8196f	-0.0061065475
35	0xbe18d72e	-0.14925835
36	0xbe842d3f	-0.2581577
37	0xbdf0f802	-0.11766054
38	0xbe81f0d1	-0.2537904
39	0x3e1c583c	0.15268034
40	0x3d3aca45	0.045603056
41	0x3eb61356	0.35561627
42	0xbcb58300	-0.022157192
43	0xbe591307	-0.21198665
44	0x3d52a048	0.051422387
45	0x3e29b72a	0.16573778
46	0xbbed6fb6	-0.007245983
47	0x3daf3308	0.08554655
48	0x3ed2462b	0.4106916
49	0x3d6c8ade	0.05774962
50	0xbe429bb3	-0.19004707
51	0xbc85f598	-0.01635246
52	0x3e2fbc28	0.1716162
53	0xbe3b26b0	-0.18276477
54	0x3e516d76	0.20451912
55	0xbe3eb84b	-0.1862499
56	0xbd8a1a04	-0.06743243
57	0xbd353b98	-0.044246286
58	0xbe9aeb89	-0.30257824
59	0xbd05278a	-0.03250841
60	0xbe288919	-0.16458549
61	0xbcb5145f	-0.02210444
62	0x3e95d3f6	0.29263276
63	0x3d70b8f8	0.05877015
64	0x3d7162ef	0.05893224
65	0xbd599bc4	-0.053127065
66	0xbe1c9558	-0.15291345
67	0xbd6295c2	-0.0553186
68	0x3d8bc52a	0.068247154
69	0xbe6a3b29	-0.2287413
70	0xbd8dce3e	-0.06924103
71	0xbe2d1cc3	-0.16905503
72	0xbe6facc7	-0.23405753
73	0xbe701e3e	-0.23449036
74	0x3dfcc685	0.12342552
75	0xbd0ca33e	-0.034335367
76	0xbc9dda80	-0.019269228
77	0x3df962b3	0.121770285
78	0x3dc85f30	0.097837806
79	0x3e34a61c	0.1764149
80	0xbd204abc	-0.039133772
81	0xbde2b19d	-0.11069033
82	0xbd613493	-0.05498178
83	0x3e5c9b4f	0.2154362
84	0xbdc4b57e	-0.096049294
85	0x3d13b801	0.03606415
86	0xbdab72ac	-0.08371481
87	0xbd75d551	-0.060017888
88	0x3defdef7	0.11712449
89	0x3e00163a	0.12508479
90	0x3e51b352	0.20478562
91	0xbc4f8f49	-0.012668439
92	0xbdad8dfa	-0.084743455
93	0xbd325090	-0.04353386
94	0x3dc55fe9	0.09637434
95	0xbe8981c3	-0.26856813
96	0x3ea624a3	0.32449827
97	0x3dd9a313	0.10626807
98	0xbe01b383	-0.12666135
99	0x3db168ef	0.086625926
100	0x3dd6fefc	0.10497853
101	0x3dbb92cc	0.09158859
102	0xbe6837e0	-0.22677565
103	0xbd19f0ef	-0.037583288
104	0x3e4e9feb	0.20178191
105	0xbe4e2e5a	-0.20134869
106	0xbdc59ff6	-0.09649651
107	0x3d284379	0.041079972
108	0x3c8016c2	0.015635852
109	0x3df7cc50	0.120995164
110	0x3bda64fd	0.006664871
111	0xbdf57c06	-0.11986546
112	0xbe241a6d	-0.16025706
113	0xbd464fb9	-0.048415873
114	0xbcd0a6da	-0.025470186
115	0xbe8f4cc7	-0.27988264
116	0xbe1f900a	-0.1558229
117	0x3e215d87	0.15758334
118	0xbe0dd536	-0.13850865
119	0xbdb4c955	-0.088274635
120	0xbd563026	-0.05229201
121	0xbde82a45	-0.11336187
122	0xbd75e990	-0.060037196
123	0xbcb2292e	-0.021748152
124	0x3c1fecf0	0.00976108
125	0x3dd6ef4e	0.104948625
126	0xbd8814df	-0.06644606
127	0xbd224fb6	-0.0396268
128	0x3e68857d	0.22707172
129	0x3c55d48d	0.013051164
130	0xbe223d8a	-0.15843788
131	0xbe44400f	-0.19165061
132	0xbdd56e37	-0.104214124
133	0xbdfd0c06	-0.12355809
134	0x3c2d0af0	0.01056169
135	0xbd860257	-0.06543415
136	0xbd8e3de7	-0.06945401
137	0x3c1d413f	0.009598075
138	0x3c155825	0.009115254
139	0xbd970bd0	-0.073753
140	0xbd898060	-0.06713939
141	0xbdcd56d9	-0.100263305
142	0x3d70cb99	0.058787916
143	0x3d11e481	0.03561831
144	0x3db788b2	0.089616194
145	0xbc3ad515	-0.011403342
146	0xbad974a1	-0.0016590544
147	0xbd2c227b	-0.04202507
148	0xbe0c7f87	-0.13720523
149	0x3de08db6	0.10964529
150	0x3c925e23	0.017867154
151	0x3cc337d3	0.02383033
152	0xbbb5c95a	-0.0055476846
153	0x3d99f8a1	0.07518125
154	0x3da972d0	0.08273852
155	0xbd86f538	-0.065897405
156	0xbcbccc26	-0.023046564
157	0x3b8a715c	0.0042249393
158	0xbd3d90c5	-0.04628064
159	0xbd42cb55	-0.047557194
160	0xbdae4f73	-0.085112475
161	0x3c9cf3c2	0.019159202
162	0xbd8acacd	-0.067769624
163	0xbcfd91d2	-0.030953322
164	0x3e36972d	0.17831106
165	0x3c3b7b8e	0.011443032
166	0x3b9d8345	0.0048069083
167	0x3e08684f	0.1332104
168	0xbdbf5a79	-0.09343428
169	0x3e1ac566	0.15114364
170	0x3e0120cd	0.12610169
171	0xbca0df40	-0.019637704
172	0xbe29db7a	-0.1658763
173	0xbcb33086	-0.021873724
174	0x3d769677	0.06020209
175	0x3bee68eb	0.007275691
176	0x3db06e51	0.08614791
177	0x3ce958fb	0.028484812
178	0x3e037e35	0.12841113
179	0x3e904470	0.28177214
180	0x3e28a656	0.16469702
181	0xbaac1040	-0.0013127401
182	0xbc9224a5	-0.01783974
183	0x3b83d385	0.004023018
184	0xbe05aa5d	-0.1305327
185	0x3e38aa9c	0.18033832
186	0x3e6bc6d5	0.23025067
187	0x3cc190a8	0.023628548
188	0xbe420515	-0.18947251
189	0xbd919581	-0.07108594
190	0xbe01c05c	-0.12671036
191	0x3e17fc15	0.14842255
192	0xbe0dd3a8	-0.13850272
193	0x3d8aa687	0.06770044
194	0xbdca06bc	-0.09864566
195	0x3dbef267	0.09323578
196	0x3ddc09d7	0.10744064
197	0xba5a5618	-0.0008328869
198	0xbde873bc	-0.113501996
199	0x3d303926	0.04302325
200	0x3df34423	0.118782304
201	0x3d32a80c	0.043617293
202	0x3cc68aa0	0.024236023
203	0x3d73a706	0.059485458
204	0xbd00c940	-0.031441927
205	0x3b0578d9	0.002036622
206	0x3d468003	0.048461925
207	0xbd9b8589	-0.07593829
208	0x3cfccb10	0.030858546
209	0x3b9ee5d1	0.0048491736
210	0x3c9dad10	0.019247562
211	0x3c850115	0.016235868
212	0x3da58be0	0.0808332
213	0xbd816d5e	-0.06319688
214	0xbd3372aa	-0.043810524
215	0x3e21605f	0.15759419
216	0xbe08674b	-0.13320653
217	0x3daf8364	0.08569983
218	0xbb8978ce	-0.0041953092
219	0x3d8a5603	0.06754687
220	0x3e465c65	0.19371183
221	0x3db56d19	0.08858699
222	0x3dcb3ea7	0.09924059
223	0xbe1afeef	-0.15136312
224	0xbe1e4a91	-0.15458132
225	0x3e3cc771	0.18435456
226	0xbca2cc08	-0.01987268
227	0xbe1db34c	-0.15400428
228	0x3e16d8bd	0.14731117
229	0xbdb39112	-0.08767904
230	0x3e2a5b91	0.16636492
231	0xbdc5e3ad	-0.09662566
232	0xbbd134d8	-0.0063844733
233	0xbd40029e	-0.046877496
234	0xbe26c5dd	-0.16286416
235	0x3e2b1686	0.16707811
236	0x3d043f76	0.032287084
237	0x3d201f18	0.039092153
238	0x3bbbaa19	0.0057270643
239	0x3cb1d805	0.021709451
240	0xbce94b42	-0.028478269
241	0x3cf27f24	0.029601641
242	0xbe0254dd	-0.12727685
243	0xbdfb7ef5	-0.122800745
244	0xbddc6dd7	-0.10763138
245	0x3d16ed78	0.03684756
246	0xbe1fed0f	-0.15617774
247	0xbd5955b3	-0.053060245
248	0xbdb1822f	-0.08667409
249	0xbb78a1eb	-0.0037938308
250	0x3c834439	0.016023742
251	0xbe56d4fd	-0.20979686
252	0xbd61e2a1	-0.05514777
253	0x3e13724e	0.14399073
254	0x3dc4c37d	0.09607599
255	0xbdbeae0b	-0.0931054

fc2.bias f4 [84]
0	0xbb77cf20	-0.0037812665
1	0xbd357d8c	-0.044309184
2	0x3e0c2745	0.13686855
3	0xbe2fff76	-0.17187294
4	0x3d8ac3f6	0.06775658
5	0x3ecef534	0.4042145
6	0xbe90d31a	-0.28286058
7	0xbe0778cc	-0.13229674
8	0x3c3d35dd	0.011548487
9	0x3e52d1af	0.205878
10	0x3b6a4e8a	0.003575238
11	0x3dbddb56	0.09270351
12	0x3e191f49	0.1495334
13	0xbe18dc7a	-0.14927855
14	0xbdf54d7d	-0.1197767
15	0xbb256a32	-0.00252403
16	0xbdda54ff	-0.10660743
17	0x3e555e30	0.20836711
18	0x3e136ac7	0.14396201
19	0xbe221e1a	-0.15831795
20	0xbe0b43e2	-0.13600114
21	0x3e3d5a07	0.18491374
22	0x3d853213	0.065036915
23	0xbd827b01	-0.063711174
24	0xbde294be	-0.110635266
25	0x3d316a57	0.043314304
26	0x3e9421b1	0.28931955
27	0x3e03aeb1	0.12859608
28	0x3cac94f9	0.02106713
29	0x3d07d6a5	0.033163685
30	0xbc201c17	-0.009772322
31	0xbd7abb43	-0.061213743
32	0x3eb1a769	0.34698036
33	0x3df219e3	0.11821344
34	0xbd45e536	-0.048314296
35	0xbdaa8f40	-0.08328104
36	0xbddcfa1d	-0.10789893
37	0x3e7724a9	0.24135078
38	0xbc5a22b2	-0.013313936
39	0xbe11f7c1	-0.14254667
40	0x3e2a4bf3	0.16630535
41	0x3d5ed87d	0.054405678
42	0xbd41c362	-0.047305472
43	0x3d4b22f7	0.049593892
44	0xbe30f3c3	-0.17280488
45	0xbd077e82	-0.03307963
46	0xbe0db294	-0.13837653
47	0xbccfc450	-0.025362164
48	0xbd679c8a	-0.05654577
49	0xbd782d27	-0.060589936
50	0x3edeeca7	0.43539926
51	0x3e0fa980	0.14029503
52	0xbd0dc337	-0.03461
53	0xbe270770	-0.16311431
54	0xbd37fa33	-0.044916343
55	0xbc875cb6	-0.0165237
56	0x3da2a47c	0.07941529
57	0xbdd9ad29	-0.10628731
58	0x3e84150c	0.25797307
59	0xbdafd763	-0.08586004
60	0xbe2ecde0	-0.17070723
61	0x3d8f6fcb	0.07003745
62	0xbe0c2d1d	-0.13689084
63	0xbe334578	-0.17506969
64	0x3d9d96e4	0.07694796
65	0xbbf4d1a9	-0.0074712825
66	0x3e99ed14	0.3006369
67	0xbd09a765	-0.033606905
68	0x3e9d3330	0.30703115
69	0x3b574459	0.0032847135
70	0x3d004adc	0.03132139
71	0xbe4b34ca	-0.19844356
72	0x3deaf5f9	0.11472697
73	0xbdabfe1e	-0.083980784
74	0xbe469653	-0.19393282
75	0xbcf6cfe9	-0.030128436
76	0x3e919119	0.28431013
77	0xbd194020	-0.03741467
78	0xbe0be84e	-0.13662836
79	0x3d116c4e	0.035503678
80	0xbe2f6cb1	-0.17131306
81	0xbe616109	-0.22009672
82	0x3d9dbf19	0.077024646
83	0x3bea3705	0.007147672

fc3.weight f4 [10, 84]
0	0x3e83559e	0.25651258
1	0x3e6cdd6a	0.23131338
2	0xbe39770a	-0.18111816
3	0x3d007242	0.031358965
4	0xbd150857	-0.036384907
5	0xbeeb3f26	-0.45946616
6	0x3ef4742a	0.47744876
7	0x3dd80045	0.105469264
8	0xbf10b3ac	-0.5652416
9	0xbef28366	-0.47365874
10	0xbbb76411	-0.0055966456
11	0x3ecce589	0.4001887
12	0x3d995de0	0.07488608
13	0xbe2380b3	-0.15967064
14	0xbe9199ec	-0.28437746
15	0xbe855927	-0.2604458
16	0x3e040593	0.12892751
17	0xbf26f668	-0.65219736
18	0x3e42bb27	0.19016705
19	0x3d6a0d9e	0.057141893
20	0x3e023e11	0.12718989
21	0xbcdd46f1	-0.027011367
22	0x3dea65cd	0.11445198
23	0xbe3b1598	-0.18269956
24	0xbd96e643	-0.07368138
25	0xbdf2e123	-0.11859348
26	0xbdef3120	-0.11679292
27	0xbdc98bb6	-0.09841101
28	0x3ea12ae7	0.31478044
29	0x3dc676e7	0.096906476
30	0x3dc2283c	0.0948033
31	0x3e225762	0.15853646
32	0xbeb96c3f	-0.36215398
33	0x3e142d1d	0.14470334
34	0x3e88c3f2	0.26711994
35	0x3e0b9556	0.13631186
36	0xbdec1c5f	-0.11528849
37	0xbe8ff39f	-0.28115556
38	0xbda14ffe	-0.078765854
39	0xbd8bf0d8	-0.06833047
40	0xbdfdca0b	-0.12392052
41	0xbda0bc73	-0.07848444
42	0x3e9395b9	0.28825167
43	0xbdc425ba	-0.09577508
44	0x3d64f8cf	0.055901345
45	0x3ca02af3	0.01955173
46	0x3c98c334	0.018647768
47	0x3ebf0629	0.37309387
48	0xbc0f8a63	-0.008761021
49	0xbe0d16b9	-0.137782
50	0xbe85b76a	-0.26116496
51	0xbcade086	-0.021225225
52	0x3ce9e891	0.02855328
53	0xbe7304c4	-0.23732287
54	0xbe9b8066	-0.30371398
55	0xbc5511ef	-0.013004764
56	0xbdbdc8d2	-0.09266819
57	0x3e8e9233	0.27845916
58	0xbe4fdc87	-0.20298968
59	0xbe2a01ea	-0.16602293
60	0x3f01df61	0.50731474
61	0xbd790742	-0.060797937
62	0xbee8b33d	-0.45449248
63	0xbe03fa7e	-0.12888524
64	0xbc29fa8a	-0.010374675
65	0xbdfeedd4	-0.12447706
66	0xbed7ba25	-0.42134205
67	0x3d548f3a	0.051894404
68	0xbf022f87	-0.5085377
69	0xbceffc44	-0.029295094
70	0xbe08e0d9	-0.13367023
71	0x3df573a3	0.119849466
72	0x3e8f79af	0.28022525
73	0x3dc7b314	0.09750953
74	0x3e9e8e3b	0.30967888
75	0x3d80ff2c	0.0629867
76	0xbdbfbbd9	-0.09362001
77	0x3b220985	0.0024724912
78	0x3d94e43d	0.072700955
79	0xbe2d5df0	-0.16930366
80	0x3e8d5843	0.276064
81	0x3e784580	0.24245262
82	0x3e32679a	0.17422333
83	0x3e857ec5	0.2607328
84	0xbeae9889	-0.3410075
85	0xbd5119bc	-0.051049933
86	0xbcf4f25c	-0.029900722
87	0xbea04ee8	-0.313102
88	0x3e4ad8fe	0.19809338
89	0xbf0ee89d	-0.5582369
90	0xbe3b562a	-0.18294588
91	0xbe08c907	-0.13357936
92	0xbe38ea45	-0.18058117
93	0x3e7b16c6	0.24520406
94	0xbdc8def7	-0.09808152
95	0xbe824ab6	-0.25447625
96	0x3f2bfdd5	0.6718419
97	0x3daafd0d	0.08349047
98	0x3f0ca2d1	0.5493594
99	0x3ea62eaa	0.32457477
100	0x3e10bbe6	0.14134178
101	0xbf263ee2	-0.649397
102	0x3c280b1d	0.010256556
103	0xbda8e12d	-0.08246074
104	0x3e9b39e2	0.303176
105	0x3ec0a7fb	0.3762816
106	0xbe436760	-0.19082403
107	0xbdfa5bce	-0.122245416
108	0x3eb0a29a	0.34499055
109	0x3e648796	0.22317347
110	0xbec8ca58	-0.39216876
111	0xbdf21fa8	-0.11822444
112	0xbe4ece0e	-0.20195791
113	0xbc978168	-0.018494323
114	0x3c7bb8bf	0.015363871
115	0x3f25076e	0.6446446
116	0xbe095054	-0.13409549
117	0xbf110d22	-0.56660664
118	0xbe12e6b3	-0.14345817
119	0xbd18e3f7	-0.03732678
120	0xbc3eb05b	-0.011638726
121	0x3c068b63	0.008211943
122	0x3e8b6a43	0.2722951
123	0x3e38b541	0.18037893
124	0x3f3fadd7	0.74874634
125	0x3e45decd	0.19323273
126	0x3dbfe09d	0.093690135
127	0xbe9680a4	-0.2939502
128	0x3e51f8dc	0.20505089
129	0xbd9c20df	-0.07623457
130	0x3dfb458d	0.12269125
131	0xbd145e8f	-0.03622299
132	0x3d0805d9	0.0332087
133	0x3e03a8ad	0.12857313
134	0x3e3bd3d3	0.18342523
135	0x3f2b8e7d	0.67014295
136	0xbdc3b504	-0.0955601
137	0xbe7f031e	-0.24903533
138	0xbdabf56b	-0.08396419
139	0x3b8f59de	0.0043747267
140	0x3ed3d3d4	0.4137255
141	0x3e8963f3	0.26834068
142	0xbdc11f36	-0.09429781
143	0x3e210450	0.15724301
144	0xbec3a9aa	-0.3821538
145	0xbe82e4bf	-0.25565144
146	0x3e950582	0.29105765
147	0x3dad2371	0.084540255
148	0x3d2463d5	0.04013427
149	0x3e2fe144	0.17175776
150	0xbedb22bf	-0.42799947
151	0xbd2fd965	-0.042931933
152	0xbed0aea9	-0.40758255
153	0x3eeb81cb	0.45997462
154	0xbe47b55b	-0.19502775
155	0x3e9f342c	0.3109449
156	0x3f4b4f5c	0.7941797
157	0x3e174c25	0.1477514
158	0xbdd7ef9a	-0.10543747
159	0x3ddfd2d2	0.10928883
160	0x3ca01e92	0.019545827
161	0x3de42fc0	0.1114192
162	0xbe5dbc95	-0.2165397
163	0xbe19dce3	-0.15025668
164	0xbe31a2ec	-0.17347306
165	0xbe89486b	-0.26813063
166	0xbe9eeb7a	-0.3103903
167	0x3d9b33ab	0.07578214
168	0xbc9f8925	-0.019474575
169	0x3d805b3d	0.06267402
170	0x3d91613d	0.07098625
171	0xbe0340f1	-0.12817742
172	0xbe43388e	-0.19064543
173	0x3de4fd12	0.11181082
174	0xbd55dbaf	-0.05221146
175	0xbe2281fe	-0.158699
176	0xbe7f138f	-0.24909805
177	0xbd43e567	-0.047826197
178	0x3d602155	0.054719288
179	0x3e7e9c35	0.24864276
180	0xbda2bf11	-0.07946599
181	0xbe30b7ae	-0.17257568
182	0x3d866f33	0.06564178
183	0xbbdda892	-0.00676448
184	0x3d79c528	0.06097904
185	0x3e306923	0.17227606
186	0xbde38f94	-0.1111137
187	0x3d8909f2	0.0669135
188	0xbdb6d837	-0.089279585
189	0x3d88791b	0.06663724
190	0x3e12e615	0.14345582
191	0xbd441a4d	-0.047876645
192	0xbde30e24	-0.110866815
193	0xbe018397	-0.12647854
194	0x3d63cbde	0.055614345
195	0x3e31929f	0.17341088
196	0xbe1af28b	-0.15131585
197	0xbd8a22e5	-0.06744937
198	0x3d02bc41	0.031917814
199	0xbb72829e	-0.0037004123
200	0x3ca19399	0.0197237
201	0xbd5a001b	-0.053222757
202	0xbc9c417a	-0.01907419
203	0xbd976525	-0.07392339
204	0x3c9a0cc0	0.018804908
205	0xbe0bf08f	-0.13665985
206	0x3ca629d9	0.020283626
207	0x3ce8c524	0.028414316
208	0x394c4fd7	0.00019484699
209	0x3e31c9af	0.17362092
210	0xbd3507bd	-0.044196833
211	0xbe381d5d	-0.17979951
212	0xbcddf31d	-0.027093465
213	0xbe442fe0	-0.19158888
214	0x3d9f2ed5	0.077726044
215	0xbd0594cb	-0.032612603
216	0x3dfc58e8	0.12321645
217	0x3db203e3	0.086921476
218	0xbe15bee2	-0.14623597
219	0xbd230405	-0.039798755
220	0xbc3378cf	-0.010954096
221	0xbe07adaa	-0.13249841
222	0x3bed9311	0.0072501977
223	0x3e52da3b	0.20591061
224	0x3dc499b4	0.09599629
225	0xbddd817f	-0.10815715
226	0xbdca6b0e	-0.098837
227	0x3d6aea94	0.057352617
228	0xbe02b2ee	-0.12763569
229	0xbbb62bd5	-0.0055594244
230	0xbe341d8d	-0.17589398
231	0x3e08d085	0.13360794
232	0xbc74d801	-0.0149440775
233	0x3dc3a0a1	0.09552122
234	0x3cc47c41	0.02398503
235	0x3c894c43	0.016759997
236	0x3e76aceb	0.240894
237	0x3e5bd745	0.21468838
238	0x3da1af6f	0.078947894
239	0x3e289a6e	0.1646516
240	0x3cb025d9	0.021502422
241	0x3d9374ad	0.071999885
242	0x3d4d1cf3	0.050076436
243	0x3cec2fb7	0.028831346
244	0xbda40a3f	-0.08009767
245	0xbe3336bc	-0.17501348
246	0xbe22acf7	-0.15886293
247	0xbcb5066e	-0.022097792
248	0xbdc53f9a	-0.09631272
249	0x3c343daf	0.011001035
250	0x3e1ac5ef	0.15114568
251	0xbe02acdd	-0.12761255
252	0xbe6b36e5	-0.2297016
253	0x3e4904a6	0.1963068
254	0xbe1e2488	-0.15443623
255	0x3d9c64f7	0.07636445

fc3.bias f4 [10]
0	0xbf573091	-0.8405848
1	0xbd9403be	-0.07227276
2	0x3d87f441	0.066383846
3	0x3effd909	0.49970272
4	0x3efa1ace	0.48848575
5	0xbee0cbee	-0.43905586
6	0x3f55f8a6	0.8358253
7	0xbf09f164	-0.5388396
8	0xbc80d15d	-0.015724832
9	0xbd5f1e71	-0.05447239
