round3/2025-04-18 18:13:55-weight-client-97021157-9.pth (torch, 252478 bytes, 10 tensors)

conv1.weight f4 [6, 3, 5, 5]
-0.90427077 -0.7134727 -0.5924646 -0.591177 -0.7864898 -0.8326529 -0.7160015 -0.7880488
-0.7204644 -0.6710258 -0.78915954 -0.67764914 -0.7615733 -0.5528747 -0.6641407 -0.5598395
-0.44541582 -0.5023111 -0.53811884 -0.75331444 -0.3497157 -0.27722695 -0.16724631 -0.3961048
-0.34534737 -0.21125363 -0.11257074 -0.20152305 -0.15390848 -0.23798943 -0.19233644 -0.02997436
-0.09817331 -0.11138855 -0.027056819 -0.3458559 -0.31558037 -0.15466663 -0.320825 -0.27056947
-0.21602888 -0.17979331 -0.3675097 -0.4201074 -0.29150084 -0.4742642 -0.24342963 -0.43438584
-0.33479726 -0.40961477 0.86006576 0.75013036 1.0110599 0.76588446 0.77623737 0.71264267
0.77348435 0.9922967 1.0027643 0.6878898 0.98424786 0.92238814 0.8616483 0.83891064
0.6211955 0.6930834 0.74318606 0.9112654 0.8475324 0.616557 0.8388082 0.58920443
0.7069561 0.651879 0.61001176 -0.5048754 -0.20886958 -0.48140457 -0.2089745 -0.3143354
-0.15619321 -0.14426999 -0.2332383 -0.2835599 -0.2664428 0.28886518 0.3676192 -0.09795594
0.11716869 -0.14875168 0.695861 0.79579043 0.6318254 0.4984099 0.3824379 0.82023585
0.69186276 0.7365301 0.5602448 0.59886765 0.19821307 0.3797423 0.4110321 0.4218458
0.30959997 0.2550439 0.22385013 0.21110943 0.3020626 0.15052326 0.59666556 0.43559358
0.48402378 0.24286282 0.45603403 0.3952987 0.482206 0.65931237 0.2454624 0.2999041
0.46346077 0.4245761 0.72138923 0.45301667 0.32999852 -0.20743877 -0.21564817 -0.13734329
0.05944936 0.09840852 -0.2810553 -0.21351919 -0.19509837 -0.22441001 -0.27397376 -0.11780325
-0.093335845 -0.20387153 0.029839063 -0.1375222 0.030900085 0.029884048 0.04073959 -0.03929281
-0.19934118 0.06452286 -0.19347025 0.06723537 -0.022065742 -0.116348185 -0.12151945 -0.436771
-0.0928571 -0.1634776 -0.3030237 -0.17440864 -0.40743038 -0.2744616 -0.3008152 -0.4311442
0.045217548 -0.33959386 0.055672284 -0.22027741 -0.37871256 -0.23636648 -0.3176592 0.11648484
-0.26839602 -0.55769134 0.3331895 -0.02502707 -0.01337208 0.12843575 -0.10350281 0.7283825
0.5613025 0.6155302 0.53239053 0.234838 0.70954275 0.4696596 0.77919394 0.63516164
0.5066979 0.58199745 0.47091362 0.794265 0.6516092 0.27673143 0.55939275 0.500011
1.0010809 0.5861744 0.28950554 0.89742434 0.5176057 0.7148434 0.6889008 0.5077055
-0.3634129 -0.45789754 -0.3297776 -0.40703416 -0.64146465 -0.55144835 -0.44253936 -0.33669403
-0.30506766 -0.6155847 -0.39059547 -0.6834663 -0.2649053 -0.4798143 -0.7374882 -0.39346144
-0.78543895 -0.56715614 -0.6638329 -0.73804367 -0.47687837 -0.64027184 -0.5877996 -0.5506705
-0.6938918 -0.13914835 -0.087072685 -0.098855816 -0.1514553 -0.070748195 -0.106985174 -0.023062428
0.014649619 -0.13052773 -0.25341496 0.07072537 0.17652105 0.012770117 0.14791556 -0.0629038
0.25769156 0.28509787 0.2278952 0.103465945 0.08830863 0.4509988 0.26834044 0.3212288
0.2779038 0.33393314 0.44293362 0.5450907 0.6170977 0.40852535 0.45504135 0.41841885
00000000: 4a7e 67bf 26a6 36bf c3ab 17bf 6057 17bf
00000010: 6557 49bf be28 55bf e04b 37bf 91bd 49bf
00000020: 5b70 38bf 59c8 2bbf 5c06 4abf 6a7a 2dbf
00000030: 78f6 42bf 3289 0dbf 2005 2abf a451 0fbf
00000040: 8b0d e4be 7697 00bf 28c2 09bf 37d9 40bf
00000050: f00d b3be b1f0 8dbe 9e42 2bbe 40ce cabe
00000060: 5fd1 b0be df52 58be 7d8b e6bd 0f5c 4ebe
00000070: 2f9a 1dbe 80b3 73be d8f3 44be ca8c f5bc
00000080: 170f c9bd ae1f e4bd 43a6 ddbc 0614 b1be
00000090: c093 a1be ee60 1ebe 2d43 a4be 1588 8abe
000000a0: ad36 5dbe bd1b 38be 3b2a bcbe 5118 d7be
000000b0: 993f 95be c2d2 f2be 9e45 79be d267 debe
000000c0: 8c6a abbe 07b9 d1be 452d 5c3f 8b08 403f
000000d0: 696a 813f 0111 443f 7eb7 463f c06f 363f
000000e0: 1203 463f 2807 7e3f 955a 803f 8c19 303f
000000f0: abf7 7b3f a121 6c3f fc94 5c3f d9c2 563f
00000100: ab06 1f3f ea6d 313f 7141 3e3f b048 693f
00000110: e2f7 583f aed6 1d3f 22bc 563f 1ad6 163f
00000120: 13fb 343f 8be1 263f bb29 1c3f 843f 01bf
00000130: e8e1 55be a97a f6be 69fd 55be 92f0 a0be
00000140: 1df1 1fbe 83bb 13be 05d6 6ebe c32e 91be
00000150: 316b 88be 23e6 933e 9538 bc3e 209d c8bd
00000160: 23f6 ef3d 5c52 18be f223 323f ecb8 4b3f
00000170: 4fbf 213f 952f ff3e e7ce c33e fafa 513f
00000180: eb1d 313f 3d8d 3c3f 346c 0f3f 644f 193f
00000190: 5ef8 4a3e 956d c23e cd72 d23e 2cfc d73e
000001a0: e383 9e3e 1d95 823e f838 653e 122d 583e
000001b0: f3a7 9a3e c522 1a3e 13bf 183f 1f06 df3e
000001c0: f7d1 f73e 08b1 783e 4b7d e93e 9764 ca3e
000001d0: b4e3 f63e b2c8 283f 7f5a 7b3e 088d 993e
000001e0: bb4a ed3e 0a62 d93e f7ac 383f cdf1 e73e
000001f0: 91f5 a83e d46a 54be e0d2 5cbe b8a3 0cbe
00000200: 2c81 733d 688a c93d 7be6 8fbe c6a4 5abe
00000210: dec7 47be bdcb 65be 4a46 8cbe d542 f1bd
00000220: dd26 bfbd b3c3 50be 0d71 f43c 9fd2 0cbe
00000230: 2d22 fd3c 64cf f43c 8ede 263d 7ff1 20bd
00000240: 1820 4cbe 9024 843d 111d 46be b3b2 893d
00000250: 37c3 b4bc f547 eebd 30df f8bd 73a0 dfbe
00000260: dd2b bebd ac66 27be ec25 9bbe 2e98 32be
00000270: b79a d0be 3b86 8cbe 7304 9abe efbe dcbe
00000280: 0936 393d 3fdf adbe 9f08 643d 6790 61be
00000290: 9de6 c1be 0e0a 72be 3aa4 a2be 9b8f ee3d
000002a0: 346b 89be dcc4 0ebf d097 aa3e 9205 cdbc
000002b0: 9216 5bbc a984 033e 48f9 d3bd 4777 3a3f
000002c0: 85b1 0f3f 6393 1d3f bf4a 083f 5f79 703e
000002d0: 98a4 353f 3977 f03e 4179 473f f499 223f
000002e0: f4b6 013f c9fd 143f 971b f13e f354 4b3f
000002f0: dccf 263f beaf 8d3e 5d34 0f3f b900 003f
00000300: 6b23 803f 870f 163f 123a 943e 9abd 653f
00000310: cf81 043f faff 363f ce5b 303f fdf8 013f
00000320: 4111 babe 8c71 eabe 9cd8 a8be c866 d0be
00000330: 0737 24bf b82b 0dbf 8594 e2be 2963 acbe
00000340: d431 9cbe f596 1dbf 21fc c7be a6f7 2ebf
00000350: aba1 87be 38aa f5be 07cc 3cbf c773 c9be
00000360: 8712 49bf 2531 11bf f4f0 29bf 6ef0 3cbf
00000370: 6729 f4be dbe8 23bf 097a 16bf bef8 0cbf
00000380: e5a2 31bf e87c 0ebe 2a53 b2bd eb74 cabd
00000390: 1917 1bbe 6ee4 90bd 0b1b dbbd 6bed bcbc
000003a0: f504 703c 10a9 05be 9bbf 81be 76d8 903d
000003b0: efc1 343e c139 513c 2d77 173e b5d3 80bd
000003c0: 26f0 833e 59f8 913e 5c5d 693e f4e5 d33d
000003d0: 28db b43d 51e9 e63e eb63 893e 1a78 a43e
000003e0: 6849 8e3e 49f9 aa3e 32c8 e23e 108b 0b3f
000003f0: 1dfa 1d3f 3c2a d13e 2efb e83e ff3a d63e

conv1.bias f4 [6]
-2.9921892 -1.6597862 -0.48761997 -1.6016271 -1.959874 -1.7629544
00000000: 0780 3fc0 e073 d4bf 53a9 f9be 1e02 cdbf
00000010: 27dd fabf 7da8 e1bf

conv2.weight f4 [16, 6, 5, 5]
-0.09836146 0.08683994 -0.03473562 0.013757213 -0.11206987 -0.09264467 -0.0534646 -0.08727976
-0.17210598 -0.43663377 -0.20024545 -0.19741106 -0.23144592 -0.2770486 -0.21061754 -0.1676584
-0.2227457 -0.15176247 -0.0876417 0.063716374 0.0869321 0.063161805 0.15077637 0.14243966
0.1449171 -0.40914398 -0.58113927 -0.6811955 -0.73128104 -0.6183464 -0.44630823 -0.68154657
-0.6726128 -0.6500441 -0.43073106 -0.11961171 -0.22539951 -0.20308499 -0.12679948 -0.14303783
0.18153034 0.35068318 0.37350368 0.27591482 0.35977882 0.9062983 0.8263572 0.6331563
0.69852555 0.509733 -0.1711977 -0.13814789 -0.37296134 -0.3362053 -0.2458333 -0.07384325
-0.0767609 -0.18415292 -0.19660756 -0.1273459 -0.16517971 -0.020951275 0.12398831 0.07857579
0.00039435222 0.1382376 0.2335294 0.22353551 0.0794325 0.18815216 0.29185152 0.37570602
0.34539765 0.24412684 0.17270288 -0.28773338 -0.46269786 -0.4142127 -0.46319523 -0.33896694
-0.29839674 -0.46017075 -0.4226791 -0.50683004 -0.3315196 -0.14359832 -0.10161529 -0.20037243
-0.119231984 -0.071493275 -0.051345743 0.11414538 0.124752134 0.10164439 0.058789205 0.36349723
0.24542677 0.27079135 0.29281676 0.18943669 0.13374479 0.043001536 0.08147095 0.124162704
0.11458267 0.039383452 -0.048244607 0.1043162 -0.019221608 0.15745336 -0.185932 -0.033198263
-0.038180362 -0.018070776 -0.08651607 -0.18600081 -0.06767945 -0.14862585 0.0014688396 -0.022782285
-0.16466081 -0.1112186 -0.038571797 -0.14238687 -0.080250934 -0.41232458 -0.37159485 -0.34988725
-0.49095455 -0.49628112 -0.45524552 -0.5163115 -0.4971472 -0.45004138 -0.46077365 -0.2978027
-0.38791683 -0.09574438 -0.17310628 -0.18142453 0.014626627 -0.063343495 -0.03847026 -0.14264466
-0.062816754 0.23861751 0.19024044 0.11233983 0.057645056 0.08714322 -0.09381328 -0.21121475
-0.14318131 -0.15005973 -0.24405964 0.14286911 0.048287775 -0.16639675 -0.18197593 -0.15288441
0.05618099 0.033376895 0.033047367 0.034840405 -0.15936293 0.0059787715 0.028597564 0.1200762
0.14218426 -0.022069678 0.17822097 0.0610294 -0.05488307 0.21688868 0.108193345 -0.064280815
-0.113634 -0.19333549 -0.12529084 0.046648122 -0.034731835 -0.116742834 -0.1354939 -0.18671115
-0.098266125 -0.116765715 -0.27814826 -0.15207918 -0.26674816 -0.07682465 -0.18922138 -0.12764694
-0.24633022 -0.08106607 -0.01701393 -0.1258717 0.023512946 -0.15489599 -0.065683186 -0.0025815552
-0.105837084 -0.020840406 0.025492882 0.026702557 -0.009368912 -0.035104547 -0.10816342 0.07700146
0.010318303 -0.00312853 -0.27910188 -0.11239331 -0.04214651 -0.14667605 -0.15116659 -0.050375983
0.0108561 -0.07586374 -0.12451706 0.055046998 -0.041190255 -0.068568565 0.010275471 0.11409347
-0.11937752 -0.13861185 0.0021224413 0.073275186 -0.10544531 -0.11098724 -0.039927278 -0.15521215
-0.06784402 -0.014922065 -0.117536284 -0.024003468 0.009841805 -0.07976629 -0.010168783 0.017290886
-0.059225075 0.02265248 -0.033995397 0.0022641832 -0.12171122 -0.07080424 -0.08020622 -0.079875655
0.07806983 0.073618785 0.028875256 -0.0044189356 -0.09689545 -0.09132317 -0.16215326 -0.08898027
00000000: bc71 c9bd 23d9 b13d f046 0ebd ef65 613c
00000010: e384 e5bd 7dbc bdbd b2fd 5abd bbbf b2bd
00000020: 8d3c 30be 768e dfbe 250d 4dbe 2026 4abe
00000030: 2900 6dbe 50d9 8dbe 20ac 57be a5ae 2bbe
00000040: 7317 64be 9f67 1bbe 7e7d b3bd bb7d 823d
00000050: 7509 b23d fa5a 813d 1f65 1a3e b4db 113e
00000060: 2665 143e 527b d1be 8bc5 14bf d462 2ebf
00000070: 3c35 3bbf f34b 1ebf 8382 e4be d679 2ebf
00000080: 5a30 2cbf 4a69 26bf c888 dcbe fcf6 f4bd
00000090: 21cf 66be 83f5 4fbe b9d7 01be 8278 12be
000000a0: 17e3 393e bf8c b33e e03b bf3e b544 8d3e
000000b0: ee34 b83e 2a03 683f 258c 533f 8816 223f
000000c0: 92d2 323f dd7d 023f 734e 2fbe a476 0dbe
000000d0: caf4 bebe 1a23 acbe b9bb 7bbe 213b 97bd
000000e0: d234 9dbd 9592 3cbe 7e53 49be f766 02be
000000f0: df24 29be 02a2 abbc 95ed fd3d 58ec a03d
00000100: 0fc1 ce39 288e 0d3e 5522 6f3e 7ee6 643e
00000110: 82ad a23d f6aa 403e 906d 953e 8a5c c03e
00000120: f6d7 b03e 63fc 793e 06d9 303e ca51 93be
00000130: bce6 ecbe b013 d4be ed27 edbe 138d adbe
00000140: 75c7 98be 809b ebbe 6569 d8be 9dbf 01bf
00000150: f0bc a9be 700b 13be ad1b d0bd 6e2e 4dbe
00000160: e62f f4bd 116b 92bd ea4f 52bd 0ec5 e93d
00000170: 0c7e ff3d ef2a d03d f3cc 703d 4f1c ba3e
00000180: 2851 7b3e 2aa5 8a3e 14ec 953e b1fb 413e
00000190: 65f4 083e 6122 303d 3eda a63d 0449 fe3d
000001a0: 52aa ea3d 8b50 213d 239c 45bd bba3 d53d
000001b0: a276 9dbc 743b 213e f564 3ebe e7fa 07bd
000001c0: 0363 1cbd 2a09 94bc 562f b1bd ff76 3ebe
000001d0: 869b 8abd 6031 18be 1486 c03a eaa1 babc
000001e0: d89c 28be 94c6 e3bd 76fd 1dbd ddcd 11be
000001f0: 9a5a a4bd 351c d3be ae41 bebe 6c24 b3be
00000200: 655e fbbe 8f18 febe f115 e9be fe2c 04bf
00000210: 148a febe d36b e6be 86ea ebbe 9879 98be
00000220: 099d c6be a115 c4bd c642 31be 5ac7 39be
00000230: 85a4 6f3c 3cba 81bd fe92 1dbd 7111 12be
00000240: 12a6 80bd 2658 743e 64ce 423e 6d12 e63d
00000250: 391d 6c3d 2578 b23d 2d21 c0bd ae48 58be
00000260: 1f9e 12be 42a9 19be c5ea 79be 484c 123e
00000270: 67c9 453d e963 2abe e657 3abe bb8d 1cbe
00000280: 0a1e 663d 36b6 083d ad5c 073d d0b4 0e3d
00000290: 0930 23be 92e9 c33b 7045 ea3c 83ea f53d
000002a0: c098 113e 78cb b4bc 8f7f 363e f7f9 793d
000002b0: 12cd 60bd 1118 5e3e 7994 dd3d a9a5 83bd
000002c0: f1b8 e8bd bdf9 45be 3e4c 00be 1a12 3f3d
000002d0: f842 0ebd de16 efbd eabe 0abe 3531 3fbe
000002e0: c03f c9bd dd22 efbd 7369 8ebe a5ba 1bbe
000002f0: 3793 88be 3e56 9dbd 40c3 41be e1b5 02be
00000300: fd3d 7cbe f805 a6bd cc60 8bbc 83e4 00be
00000310: 399e c03c 0e9d 1ebe e884 86bd 4f2f 29bb
00000320: 1dc1 d8bd 80b9 aabc 73d6 d03c 52bf da3c
00000330: 1180 19bc c9c9 0fbd c884 ddbd f1b2 9d3d
00000340: 190e 293c 0608 4dbb 71e6 8ebe 772e e6bd
00000350: d2a1 2cbd 3f32 16be 6acb 1abe 0c57 4ebd
00000360: c9dd 313c 735e 9bbd cd02 ffbd f678 613d
00000370: 1db7 28bd ad6d 8cbd 735a 283c d6a9 e93d
00000380: 347c f4bd 44f0 0dbe a818 0b3b 4d11 963d
00000390: b6f3 d7bd 474d e3bd c98a 23bd efef 1ebe
000003a0: cef1 8abd ad7b 74bc ddb6 f0bd eca2 c4bc
000003b0: 863f 213c 825c a3bd f89a 26bc 9ea5 8d3c
000003c0: fe95 72bd b291 b93c c23e 0bbd b162 143b
000003d0: bb43 f9bd d001 91bd 2943 a4bd d995 a3bd
000003e0: 13e3 9f3d 72c5 963d cd8b ec3c b8cc 90bb
000003f0: 1f71 c6bd a407 bbbd 810b 26be 4a3b b6bd

conv2.bias f4 [16]
-0.15941276 -0.2993183 0.13166732 -0.4805595 -0.8436637 0.020209406 -1.4201102 0.016050873
-0.06976899 0.77316314 -0.56498027 0.03301798 0.02814431 0.45900843 -0.44355518 -0.34337392
00000000: 193d 23be 4040 99be ccd3 063e e50b f6be
00000010: 58fa 57bf 328e a53c 2cc6 b5bf 1f7d 833c
00000020: 0be3 8ebd 05ee 453f 8ca2 10bf dd3d 073d
00000030: e58e e63c 2703 eb3e aa19 e3be b5ce afbe

fc1.weight f4 [120, 400]
0.10125132 0.06511891 -0.08254699 -0.11781808 -0.022219516 -0.0043900954 0.0115474835 -0.005318864
-0.082540356 -0.10356901 -0.021525228 -0.10651542 0.016848084 -0.059469804 0.059262164 0.07145014
-0.013671244 -0.03709348 0.011082575 0.11896494 0.1948777 0.0035151683 0.035096083 0.18835522
0.24403864 -0.09679014 -0.06443546 -0.022326063 0.017402584 -0.04932118 0.060537573 -0.04166572
0.06605772 -0.0010352954 -0.007858591 -0.0025547394 0.068829395 0.027792579 0.07447827 -0.025238235
0.07529788 0.039940964 0.032336567 0.07313823 -0.009875479 0.025107605 0.0035456917 0.0152330445
-0.021279436 -0.023094947 -0.056924816 -0.06048864 -0.036185082 -0.028625263 0.04811937 -0.12525997
-0.08715556 0.017384999 0.053203933 0.0066566253 -0.13091014 0.028426884 -0.002274281 0.009468534
-0.071021296 -0.031162987 -0.02774399 0.06452419 0.022027632 -0.027838092 0.077338114 0.028371288
0.044306673 0.026003914 0.031895846 0.114909105 0.15704899 0.023189014 0.06599429 0.017251825
0.1903036 -0.01073894 0.04817668 0.08106139 0.07679677 -0.004490879 -0.014959261 -0.14777772
-0.1058306 -0.14005841 -0.14082204 -0.14222103 -0.13408707 -0.1630288 -0.17215526 -0.07196795
-0.072890006 -0.0057215337 -0.06414299 -0.06869854 -0.09876701 -0.009707955 0.048819248 -0.13997997
-0.1762528 -0.03494407 0.12034445 0.18603551 0.1679161 0.11442173 0.016775591 0.20659111
0.22406228 0.05786257 0.057271946 -0.07428558 0.040933736 0.10103939 -0.04375778 -0.08745371
-0.069666296 -0.11019938 -0.018038692 -0.15736863 -0.22973956 -0.09246992 -0.0021927585 0.00499337
0.03947363 -0.014144167 -0.053553052 -0.0046862653 0.0008828989 0.020552099 -0.03210018 -0.016114729
0.05326655 0.020087754 -0.0039054374 -0.053900767 0.0046125017 -0.037405033 0.079887904 -0.026351115
-0.044209678 -0.019842172 0.045075558 0.008892572 -0.022281006 -0.018905576 -0.04880525 -0.053075388
-0.032157205 -0.020999214 -0.0939875 -0.15502538 -0.07829289 -0.005881158 -0.0028284786 -0.02815467
-0.077015676 0.05601757 0.031633798 0.06628348 0.05117625 0.012434281 0.062252384 -0.060104337
0.010442252 -0.09896566 -0.16757967 -0.07388707 -0.11267135 -0.14283587 -0.021991853 -0.01589922
0.02242923 0.032542795 0.04363594 0.081761904 0.027578712 0.034086388 -0.055136245 0.044833247
-0.058419295 -0.0009963737 -0.019555248 -0.030908013 -0.042046834 -0.040687483 -0.051823024 0.018109765
-0.070880756 -0.037320536 -0.00914585 -0.006830416 -0.022679798 0.0884655 0.026494795 -0.008249104
-0.12550041 0.06558952 -0.036340673 0.11838672 -0.063461624 0.004839574 0.1269908 0.16798088
0.16543755 0.04269591 -0.037270345 0.1280128 0.12592612 0.12268971 -0.029587323 -0.046256766
0.053112432 0.110698156 -0.019221278 -0.0661536 -0.117678985 -0.09604054 -0.14215931 -0.124954
-0.10871338 0.15574819 0.10726001 0.011649432 0.02581074 0.04753341 0.06906419 -0.09453518
-0.14847164 -0.15656053 -0.1394746 -0.1748834 -0.27907094 -0.1496254 -0.21936154 -0.25894493
-0.20962131 -0.1376001 -0.049607493 -0.08716076 -0.02277831 -0.086666614 -0.017655147 -0.059394
0.07241248 0.0841097 0.065005034 0.07160259 -0.06027344 0.04967988 -0.03988089 0.0022977025
00000000: da5c cf3d 105d 853d 650e a9bd 9b4a f1bd
00000010: b405 b6bc cada 8fbb a831 3d3c dd49 aebb
00000020: eb0a a9bd fd1b d4bd ad55 b0bc c224 dabd
00000030: fe04 8a3c 9c96 73bd e2bc 723d 7354 923d
00000040: 5afd 5fbc 55ef 17bd b093 353c e4a3 f33d
00000050: 058e 473e bd5e 663b e9c0 0f3d 31e0 403e
00000060: 44e5 793e e939 c6bd bdf6 83bd 26e5 b6bc
00000070: dd8f 8e3c 0105 4abd 3ff6 773d ada9 2abd
00000080: 4549 873d c0b2 87ba 52c1 00bc 6a6d 27bb
00000090: 6df6 8c3d 43ad e33c 1088 983d 6ac0 cebc
000000a0: c635 9a3d 2399 233d 5973 043d 7fc9 953d
000000b0: c3cc 21bc 77ae cd3c d65e 683b 0594 793c
000000c0: 3652 aebc 9d31 bdbc ff29 69bd f0c2 77bd
000000d0: cf36 14bd 877f eabc d118 453d 2644 00be
000000e0: 9d7e b2bd fc6a 8e3c 5eec 593d d21f da3b
000000f0: 4f0d 06be 7fdf e83c 1b0c 15bb e921 1b3c
00000100: 9d73 91bd 8549 ffbc 5d47 e3bc 4225 843d
00000110: 4b73 b43c b60c e4bc 7263 9e3d e76a e83c
00000120: ea7a 353d 2906 d53c 38a5 023d 7755 eb3d
00000130: 73d1 203e e3f6 bd3c 0428 873d b353 8d3c
00000140: f2de 423e 61f2 2fbc e954 453d 8403 a63d
00000150: a047 9d3d 3928 93bb b017 75bc 0b53 17be
00000160: b7bd d8bd 796b 0fbe a733 10be 64a2 11be
00000170: 1f4e 09be 06f1 26be 7849 30be ef63 93bd
00000180: 5b47 95bd b47b bbbb 665d 83bd d2b1 8cbd
00000190: 5c46 cabd 1d0e 1fbc b1f6 473d e956 0fbe
000001a0: 9d7b 34be 8321 0fbd 2777 f63d 1880 3e3e
000001b0: 33f2 2b3e f155 ea3d f76c 893c 9f8c 533e
000001c0: 9570 653e 4d01 6d3d fd95 6a3d 0a23 98bd
000001d0: 22aa 273d bded ce3d 5c3b 33bd ee1a b3bd
000001e0: 34ad 8ebd 36b0 e1bd e1c5 93bc 3e25 21be
000001f0: d940 6bbe df60 bdbd 62b4 0fbb 6c9f a33b
00000200: 1aaf 213d f0bc 67bc 725a 5bbd 3e8f 99bb
00000210: 5872 673a e05c a83c 7a7b 03bd 0903 84bc
00000220: 072e 5a3d 138f a43c 5ef2 7fbb 0dc7 5cbd
00000230: 7824 973b 0536 19bd 459c a33d 4bde d7bc
00000240: 3515 35bd 0d8c a2bc 26a1 383d 26b2 113c
00000250: a886 b6bc dedf 9abc 04e8 47bd 9465 59bd
00000260: 46b7 03bd 8b06 acbc 857c c0bd f9be 1ebe
00000270: 0658 a0bd bbb6 c0bb ff5d 39bb 9fa4 e6bc
00000280: 65ba 9dbd ae72 653d 7192 013d a2bf 873d
00000290: 309e 513d 28b9 4b3c 5bfc 7e3d f72f 76bd
000002a0: fb15 2b3c 82ae cabd 019a 2bbe 1b52 97bd
000002b0: 3dc0 e6bd 9143 12be 4228 b4bc 153f 82bc
000002c0: 81bd b73c 984b 053d 99bb 323d c972 a73d
000002d0: c0ec e13c 2b9e 0b3d 8bd6 61bd 11a3 373d
000002e0: 1249 6fbd c198 82ba 5432 a0bc cd32 fdbc
000002f0: 4d39 2cbd eba7 26bd 6144 54bd ee5a 943c
00000300: ee29 91bd 6bdd 18bd 7ad8 15bc afd1 dfbb
00000310: fcca b9bc 662d b53d 9d0b d93c 4027 07bc
00000320: 2e83 00be cc53 863d f5d9 14bd bd74 f23d
00000330: 2bf8 81bd 4a95 9e3b e009 023e 2e03 2c3e
00000340: 7668 293e e8e1 2e3d caa8 18bd ca15 033e
00000350: c7f2 003e be44 fb3d 1d61 f2bc bc77 3dbd
00000360: 6c8c 593d b7b5 e23d f175 9dbc 8a7b 87bd
00000370: ae01 f1bd e7b0 c4bd 3692 11be e2e7 ffbd
00000380: 1fa5 debd 747c 1f3e 23ab db3d 42dd 3e3c
00000390: 0c71 d33c 65b2 423d 8771 8d3d a99b c1bd
000003a0: f308 18be 6751 20be 6ed2 0ebe a214 33be
000003b0: 63e2 8ebe 6737 19be 50a0 60be 6e94 84be
000003c0: f8a6 56be 0ae7 0cbe 3a31 4bbd 5781 b2bd
000003d0: 9499 babc 447e b1bd 87a1 90bc 1f47 73bd
000003e0: ff4c 943d b541 ac3d 5c21 853d 61a4 923d
000003f0: 48e1 76bd 217d 4b3d 255a 23bd 0d95 163b

fc1.bias f4 [120]
-0.026263354 0.015137567 -0.039958104 -0.10798464 -0.01776209 0.009644158 0.02151152 -0.112645544
0.007471717 -0.03760706 -0.13701712 0.09182691 -0.011256026 0.13142124 0.054244813 -0.015820466
0.024031427 0.013157895 -0.053314522 0.056031026 -0.086028986 -0.03741049 -0.06423403 -0.15584093
-0.03557961 0.051891975 -0.05067278 0.035722543 -0.077516444 0.1063038 -0.096087866 -0.03310951
0.03381281 -0.07882616 0.017720835 -0.060000412 -0.035945445 -0.038248546 0.0466552 -0.053006433
0.231396 -0.10059546 -0.15459852 0.12000381 -0.0070650447 -0.03640612 -0.08441301 -0.03942572
0.07673125 -0.012939627 0.03178865 0.0032566912 0.03905895 -0.028910311 0.23856704 0.03044046
-0.12387224 -0.07503389 0.08271745 0.037034653 0.105502345 -0.0005472188 -0.039021615 0.05392413
-0.03851581 0.11188388 -0.03359369 -0.090254605 0.087270066 0.12715994 -0.0155603895 -0.08587377
-0.037608724 -0.026962426 0.026410801 0.12570007 0.022060206 0.0003660452 -0.056186933 -0.0078986455
0.15207596 0.020401454 0.032426134 -0.060483385 0.10994341 0.10301156 0.05742242 -0.005538626
0.042482875 -0.04161597 -0.01106697 -0.045379784 0.1359426 -0.09162685 0.006888116 0.03250173
0.109005004 0.016634552 0.01936649 -0.16282661 -0.043738984 -0.08457399 0.015331469 0.27301323
-0.023525488 -0.050848015 -0.11667704 -0.026406145 -0.01810059 0.07883458 -0.09681312 -0.002211026
0.035760585 -0.035430834 0.03990322 -0.067884855 -0.115847446 -0.1004758 0.17076856 0.008188703
00000000: 3f26 d7bc 8f03 783c 1cab 23bd 0d27 ddbd
00000010: cd81 91bc 8802 1e3c ed38 b03c b5b2 e6bd
00000020: 4ed5 f43b dc09 1abd 374e 0cbe bf0f bc3d
00000030: 326b 38bc 4a93 063e cf2f 5e3d ec99 81bc
00000040: 8edd c43c 3694 573c 5460 5abd ca80 653d
00000050: f72f b0bd be3b 19bd 228d 83bd c494 1fbe
00000060: edbb 11bd ae8c 543d 438e 4fbd cd51 123d
00000070: f1c0 9ebd cfb5 d93d b7c9 c4bd d69d 07bd
00000080: 4d7f 0a3d 9c6f a1bd 492b 913c fec2 75bd
00000090: 883b 13bd 82aa 1cbd 8619 3f3d 461d 59bd
000000a0: 13f3 6c3e fe04 cebd 134f 1ebe 8fc4 f53d
000000b0: e481 e7bb 951e 15bd bae0 acbd dd7c 21bd
000000c0: 4625 9d3d bb00 54bc d134 023d 366e 553b
000000d0: 47fc 1f3d 51d5 ecbc eb4a 743e 465e f93c
000000e0: bbb0 fdbd 5eab 99bd c467 a93d a6b1 173d
000000f0: 9d11 d83d 3b73 0fba 21d5 1fbd 8cdf 5c3d
00000100: c1c2 1dbd 6023 e53d 8999 09bd 68d7 b8bd
00000110: a6ba b23d 3736 023e 01f1 7ebc 96de afbd
00000120: 9b0b 1abd 4ee0 dcbc 775b d83c 85b7 003e
00000130: 9bb7 b43c c1e9 bf39 4524 66bd 5269 01bc
00000140: cdb9 1b3e f320 a73c 44d1 043d 6dbd 77bd
00000150: 032a e13d baf7 d23d c533 6b3d 5d7d b5bb
00000160: 8602 2e3d 8275 2abd 3d52 35bc 27e0 39bd
00000170: 8934 0b3e dca6 bbbd b4b5 e13b 8920 053d
00000180: 043e df3d 2f45 883c 79a6 9e3c 05bc 26be
00000190: a627 33bd 2135 adbd d730 7b3c 64c8 8b3e
000001a0: 86b8 c0bc 0246 50bd 5ff4 eebd b351 d8bc
000001b0: b047 94bc 0674 a13d f545 c6bd dce6 10bb
000001c0: b179 123d ec1f 11bd 8f71 233d 3707 8bbd
000001d0: 6d41 edbd 42c6 cdbd f4dd 2e3e e929 063c

fc2.weight f4 [84, 120]
-0.037153758 -0.06097365 -0.08474019 -0.1786013 -0.2711598 0.008838413 -0.1664029 0.07274584
0.057380162 0.04135091 -0.07855562 0.03818522 0.13878457 -0.0450511 -0.10073762 0.028050257
-0.0054117655 0.040756095 0.04309521 0.22222719 0.048218254 0.019848302 -0.028934048 -0.19716932
0.053756647 -0.06317765 -0.062416624 -0.12279148 -0.0025480224 0.035775676 -0.08094446 -0.039623283
0.045673795 -0.023452416 -0.050320685 -0.02853439 -0.12886783 -0.039770525 -0.15600435 0.016964948
0.03712366 -0.024884697 -0.033799287 -0.041030217 0.054519672 0.10705705 -0.090671025 -0.0063854586
0.102678664 0.1001371 -0.06580579 0.015077994 0.14045952 -0.14746252 0.18169162 -0.085868984
-0.20499209 -0.01597487 -0.09004539 0.039061226 0.055265456 -0.14058383 -0.022622986 -0.0109688165
-0.16062555 -0.056766953 0.042066224 -0.14317197 -0.08252916 -0.036937077 0.035101634 -0.034620583
-0.1659488 -0.017170047 0.03738933 0.05221634 -0.05602535 -0.00013549309 -0.04643338 0.065640435
-0.028725132 0.027775634 0.027319597 0.1470139 -0.017281925 0.19080321 -0.030791154 -0.012036272
0.050336696 -0.12060644 0.083903946 -0.012362353 -0.08182022 0.024066575 0.014224043 0.004001706
0.09290648 -0.0739979 -0.06442554 -0.012291526 0.020879682 -0.010008049 -0.07097401 0.19147891
-0.024997357 -0.016757643 0.061436996 0.13389851 -0.11207413 0.018898036 0.14124694 -0.02560842
0.03837483 0.006150886 0.10253917 -0.2381513 -0.040427797 -0.0037508784 0.042242963 -0.09378172
0.070588134 -0.12144576 0.025831701 0.06284022 0.06325337 0.15505631 -0.11515583 0.094348654
0.26676744 0.021519871 -0.17069201 -0.15430702 -0.06126967 0.021689964 0.111897 -0.091685236
-0.032234788 0.0052595595 -0.026650064 -0.042333145 -0.14250246 -0.07635118 0.011464818 0.111831985
0.18963133 0.056166008 0.060470775 -0.04841466 -0.045323417 0.0728042 0.13069527 0.087860554
-0.02737722 0.16966608 0.005588575 0.0040887776 -0.011011955 -0.11750212 -0.014354008 -0.03585929
-0.05974662 -0.07326977 -0.12490983 0.03979432 0.13682264 -0.16060099 0.0019040118 0.05338256
-0.091866955 0.12697822 0.13363485 0.04249056 0.033270672 0.044909135 0.06402797 0.016669562
-0.0111720385 -0.027722828 -0.02332615 0.06969085 0.05301781 -0.0923229 0.07968977 -0.04951807
0.10880128 0.03589126 0.04049358 -0.016650971 -0.16807127 0.0031395052 -0.16578914 -0.021141076
-0.118563905 0.011209036 -0.21743451 -0.049475506 0.10043912 -0.071283124 -0.13368942 -0.030544728
0.10459112 0.022040728 -0.07060231 0.18821177 -0.006693342 -0.1134988 0.053489976 0.051639978
-0.04511796 -0.09008296 -0.013680669 0.07964111 0.053465743 -0.077175446 0.043998625 0.05633709
-0.114140615 -0.0006110689 -0.006110465 -0.090808034 0.19162814 0.11279762 0.03636061 -0.097166784
-0.087422065 0.13950936 -0.04480974 -0.15325433 0.04847841 -0.0024975415 0.022609824 0.010384331
0.031635735 -0.1600894 -0.21806508 0.12349215 0.1711081 0.12789775 -0.1001677 0.1002725
-0.069220506 -0.06460602 -0.14277361 -0.1727042 -0.16974285 0.030148897 -0.18338321 0.069330364
-0.12420973 -0.02378312 0.02260714 -0.15532732 -0.17727257 0.052109826 0.04290069 -0.08404344
00000000: 8a2e 18bd 82bf 79bd 448c adbd 42e3 36be
00000010: 75d5 8abe fece 103c 8665 2abe c5fb 943d
00000020: 7607 6b3d 925f 293d c5e1 a0bd 1b68 1c3d
00000030: 8b1d 0e3e 8187 38bd 864f cebd a7c9 e53c
00000040: 2e55 b1bb ddef 263d 9a84 303d 868f 633e
00000050: 8180 453d e898 a23c 1907 edbc c1e6 49be
00000060: ee2f 5c3d 4963 81bd 93a8 7fbd 197a fbbd
00000070: b9fc 26bb 8489 123d 36c6 a5bd 064c 22bd
00000080: 7214 3b3d 481f c0bc 101d 4ebd f4c0 e9bc
00000090: eef5 03be 6be6 22bd 9bbf 1fbe 13fa 8a3c
000000a0: fb0e 183d feda cbbc 1f71 0abd 4d0f 28bd
000000b0: 0550 5f3d ba40 db3d bbb1 b9bd 1c3d d1bb
000000c0: 3149 d23d ae14 cd3d 30c5 86bd b109 773c
000000d0: 9fd4 0f3e 6a00 17be 5e0d 3a3e 14dc afbd
000000e0: 72e9 51be bbdd 82bc b869 b8bd aafe 1f3d
000000f0: 085e 623d 35f5 0fbe d753 b9bc 8db6 33bc
00000100: 067b 24be 7784 68bd a24d 2c3d ac9b 12be
00000110: 0c05 a9bd 554b 17bd bbc6 0f3d 50ce 0dbd
00000120: 7bee 29be 33a8 8cbc 8e25 193d cde0 553d
00000130: d67a 65bd 2613 0eb9 ee30 3ebd 7e6e 863d
00000140: f850 ebbc ba89 e33c 59cd df3c d08a 163e
00000150: d392 8dbc eb61 433e bb3d fcbc c933 45bc
00000160: da2d 4e3d 8200 f7bd d5d5 ab3d 778b 4abc
00000170: 5c91 a7bd 4427 c53c f60b 693c be20 833b
00000180: c145 be3d 368c 97bd 8af1 83bd 6662 49bc
00000190: de0b ab3c cdf8 23bc d25a 91bd 0c13 443e
000001a0: 42c7 ccbc 5347 89bc 5ca5 7b3d b11c 093e
000001b0: 1f87 e5bd 0ed0 9a3c 0aa3 103e c0c8 d1bc
000001c0: ed2e 1d3d 5f8d c93b 0e00 d23d efdd 73be
000001d0: 9e97 25bd 4cd1 75bb f506 2d3d a110 c0bd
000001e0: 8390 903d 8eb8 f8bd 019d d33c 60b2 803d
000001f0: fc8a 813d 15c7 1e3e d2d6 ebbd de39 c13d
00000200: be95 883e 714a b03c e3c9 2ebe a902 1ebe
00000210: e8f5 7abd 27af b13c 412a e53d 78c5 bbbd
00000220: a008 04bd 6258 ac3b 3c51 dabc 8565 2dbd
00000230: 2aec 11be 025e 9cbd efd6 3b3c 2b08 e53d
00000240: b72e 423e 540e 663d 34b0 773d 734e 46bd
00000250: 0ca5 39bd 5e1a 953d fbd4 053e 3cf0 b33d
00000260: 3146 e0bc f2bc 2d3e 5d20 b73b 27fb 853b
00000270: 7d6b 34bc f4a4 f0bd 132d 6bbc 31e1 12bd
00000280: dfb8 74bd 760e 96bd bad0 ffbd 5eff 223d
00000290: 3c1b 0c3e 9674 24be 0990 f93a aca7 5a3d
000002a0: be24 bcbd 9406 023e 93d7 083e 950a 2e3d
000002b0: d446 083d a4f2 373d 1921 833d 9b8e 883c
000002c0: ed0a 37bc fc1a e3bc 7b16 bfbc 14ba 8e3d
000002d0: 3429 593d ca13 bdbd 6434 a33d 76d3 4abd
000002e0: 35d3 de3d b702 133d 99dc 253d 9e67 88bc
000002f0: e01a 2cbe 28c0 4d3b a1c4 29be 0d30 adbc
00000300: a2d1 f2bd 1ba6 373c 27a7 5ebe d4a6 4abd
00000310: 06b3 cd3d e3fc 91bd e1e5 08be f038 fabc
00000320: de33 d63d c28e b43c f297 90bd 96ba 403e
00000330: d253 dbbb 0f72 e8bd 4e18 5b3d 7184 533d
00000340: 9ccd 38bd 6a7d b8bd e224 60bc e11a a33d
00000350: e5fe 5a3d 290e 9ebd e737 343d b8c1 663d
00000360: 8ec2 e9bd 2430 20ba 4c3a c8bb 90f9 b9bd
00000370: 2b3a 443e 7002 e73d ddee 143d 61ff c6bd
00000380: 570a b3bd 8bdb 0e3e 6b8a 37bd b4ee 1cbe
00000390: 4c91 463d cbad 23bb 3d38 b93c 0b23 2a3c
000003a0: 7994 013d 7aee 23be 744c 5fbe 74e9 fc3d
000003b0: f636 2f3e a1f7 023e b924 cdbd ab5b cd3d
000003c0: 7bc3 8dbd 2950 84bd 3f33 12be 5fd9 30be
000003d0: 12d1 2dbe d2fa f63c cfc8 3bbe 14fd 8d3d
000003e0: ac61 febd d1d4 c2bc 9c32 b93c 200e 1fbe
000003f0: f186 35be 1d71 553d a2b8 2f3d f81e acbd

fc2.bias f4 [84]
0.06020499 -0.023896284 0.14901267 -0.09044351 0.08775776 0.24159284 -0.28288895 -0.08665823
-0.04912219 0.06764183 -0.23873785 0.019004917 -0.056220993 -0.18468978 -0.16577782 0.39700565
0.04734695 0.096285835 0.23520264 -0.06675861 -0.057448715 -0.17638312 -0.118833475 -0.03199591
-0.019756425 -0.074170016 0.31984258 0.13824877 -0.029284976 0.028267829 -0.2166122 0.009528586
0.00862145 0.25795317 -0.07413015 -0.08742435 0.052629508 0.09259336 0.032267638 -0.18360993
0.18743867 0.32749084 -0.061495945 0.042607334 -0.15128799 -0.061206073 -0.14880854 -0.072242394
-0.029495949 -0.015395377 0.41794187 0.23465003 0.031092865 -0.17284004 -0.032245055 0.054650795
0.09225752 -0.019800527 0.09250255 0.062241033 -0.12699987 0.0055796434 -0.09044757 -0.20243086
0.042592727 0.0642124 0.24008319 0.04064073 0.0017290503 0.093595475 0.057209518 -0.07394078
0.11719228 0.00220926 -0.016963845 0.08952129 0.38998282 -0.04228882 0.08294948 0.040412653
-0.19621503 -0.056268577 -0.12294588 -0.029430218
00000000: 8299 763d 24c2 c3bc c796 183e 723a b9bd
00000010: 57ba b33d 1d64 773e d2d6 90be df79 b1bd
00000020: 5934 49bd cd87 8a3d b277 74be 33b0 9b3c
00000030: fc47 66bd 511f 3dbe a9c1 29be 5344 cb3e
00000040: e0ee 413d 8231 c53d f6d8 703e bdb8 88bd
00000050: 584f 6bbd c79d 34be f75e f3bd 250e 03bd
00000060: 3ad8 a1bc 73e6 97bd 68c2 a33e 1691 0d3e
00000070: 0ce7 efbc ef91 e73c 97cf 5dbe c91d 1c3c
00000080: fb40 0d3c 7012 843e 8cd1 97bd 8a0b b3bd
00000090: 0a92 573d 96a1 bd3d 122b 043d 3e04 3cbe
000000a0: ecef 3f3e e1ac a73e 2ce3 7bbd 0785 2e3d
000000b0: 3deb 1abe 38b3 7abd 4461 18be d2f3 93bd
000000c0: 7da1 f1bc e43c 7cbc 7afc d53e 1948 703e
000000d0: 77b6 fe3c fbfc 30be 6413 04bd 83d9 5f3d
000000e0: 83f1 bc3d b734 a2bc fa71 bd3d 74f0 7e3d
000000f0: 410c 02be 71d5 b63b 933c b9bd 094a 4fbe
00000100: b675 2e3d ca81 833d 5ed8 753e e576 263d
00000110: 4da1 e23a fcae bf3d 8754 6a3d 436e 97bd
00000120: 8202 f03d 3bc9 103b c3f7 8abc f056 b73d
00000130: d4ab c73e 0b37 2dbd 6be1 a93d bd87 253d
00000140: 98ec 48be e179 66bd 0dcb fbbd a417 f1bc

fc3.weight f4 [10, 84]
-0.08074942 0.055489093 -0.11592727 -0.07267092 -0.34963986 -0.36592668 0.006243727 0.62594223
-0.11458478 -0.08581169 0.37997904 0.2265527 -0.007995454 -0.17741229 -0.17693606 -0.48335946
0.15564504 -0.25868312 0.8984508 0.21429677 -0.2414391 0.20137845 0.017733034 -0.12685382
-0.14272735 -0.110664755 -0.37051645 -0.03190089 0.4071404 -0.0035483704 0.4606311 0.28849095
-0.36520168 -0.26375696 0.26640788 -0.002307251 -0.31393486 0.04819393 -0.005109483 0.2733589
0.49884677 -0.48479146 -0.27492484 -0.3290528 -0.08621166 0.018474218 0.005155305 0.77550113
0.17463325 -0.20647018 -0.24563256 -0.09907585 -0.07506778 0.5482469 -0.29143414 -0.21206503
-0.21136232 -0.2828868 -0.06732468 -0.033109386 0.35923347 -0.19306113 -0.21351981 -0.03430965
-0.19710527 0.23373058 -0.1211809 -0.1389448 -0.2303283 -0.16471958 0.058625624 -0.13227583
0.2958895 0.13298824 0.08492141 0.30729005 -0.6327311 -0.0201753 -0.2473613 -0.49545875
0.65540755 0.6809591 0.50885415 0.52002555 -0.0070141316 -0.18496883 0.07878118 -0.5073147
0.24922332 -0.00071419805 -0.035038814 0.3193017 -0.026493177 0.3362463 -0.2757483 -0.4412753
0.063777655 -0.16419205 0.65243495 -0.20456451 -0.32231358 -0.32573256 -0.6471034 -0.20088542
0.3015087 -0.21183804 -0.20700896 0.29714596 0.18415442 -0.097007126 -0.17611223 0.16029978
0.10068243 -0.22344568 0.21346852 -0.16305277 -0.337915 -0.77502775 -0.08905869 -0.059918765
-0.13701369 -0.33173427 -0.36890003 0.21292488 0.02910957 0.15724212 -0.072228126 0.105481215
0.21002573 -0.13290896 0.059544645 -0.15759185 0.1406001 0.07523128 0.6136621 0.2723494
-0.26491126 -0.38446298 -0.069020756 0.17334455 0.3465627 0.09388648 0.054418575 0.7162007
-0.23619191 -0.059591092 0.12763351 -0.08318614 0.49844864 0.36328512 -0.46652088 -0.22319978
-0.42996582 0.095988505 -0.109200716 0.57490367 -0.020230692 0.045695867 0.21674 -0.33831307
-0.055408403 -0.07134656 0.06605544 -0.031213429 -0.10124063 0.055363353 -0.313777 0.3932987
0.26144418 0.21550168 -0.02581103 -0.17280117 -0.10436477 -0.015612527 -0.056530774 -0.02399144
-0.046637975 -0.08500461 0.15806161 0.6306368 0.076588035 -0.08311058 -0.031639956 0.43440792
0.49707803 0.28204784 -0.028265283 0.1374433 -0.24009989 0.5642623 0.18330246 -0.010020598
0.15812187 0.11589717 0.5272253 0.119293205 -0.17775176 0.02135675 0.25590205 -0.13058326
0.121166356 0.34785149 -0.16774075 0.008357905 0.04485556 -0.053779162 -0.11438231 -0.23278815
0.14950076 0.19567221 -0.10176098 -0.1624499 0.23288769 -0.099548146 -0.12226645 -0.01878924
0.105873615 0.048939716 -0.20078057 -0.03335486 -0.060184576 -0.04991772 -0.010644115 0.16254002
0.18567954 -0.22436714 0.20652151 -0.082734786 -0.15537973 0.11977708 0.3633659 0.0840628
-0.11481408 0.1692161 -0.10135494 -0.099958405 1.0864182 0.03866922 0.121949546 0.05764538
-0.21617787 0.020926867 0.040233728 1.1122247 -0.12658755 -0.2394962 -0.23379582 -0.0697892
-0.11169255 0.011986953 0.5187262 -0.10100213 -0.20193668 0.122446746 -0.06529675 0.54707354
00000000: f45f a5bd 8848 633d 476b edbd 7ed4 94bd
00000010: ff03 b3be be5a bbbe 2e98 cc3b c03d 203f
00000020: 6dab eabd 0abe afbd 9d8c c23e 6efd 673e
00000030: 5dff 02bc 91ab 35be ba2e 35be e47a f7be
00000040: 6a61 1f3e 1d72 84be df00 663f 9d70 5b3e
00000050: d03b 77be 2736 4e3e de44 913c f8e5 01be
00000060: 1e27 12be 34a4 e2bd 55b4 bdbe 82aa 02bd
00000070: b574 d03e c78b 68bb d7d7 eb3e 16b5 933e
00000080: b7fb babe 270b 87be 9d66 883e 4035 17bb
00000090: 12bc a0be 0067 453d 736d a7bb b3f5 8b3e
000000a0: d868 ff3e 9636 f8be f3c2 8cbe 9c79 a8be
000000b0: bd8f b0bd 3e57 973c d5ed a83b 3e87 463f
000000c0: 0fd3 323e eb6c 53be 1a87 7bbe 47e8 cabd
000000d0: 23bd 99bd e959 0c3f db36 95be 9327 59be
000000e0: 5d6f 58be 8ad6 90be 86e1 89bd b59d 07bd
000000f0: 73ed b73e d1b1 45be f0a4 5abe 4788 0cbd
00000100: f7d5 49be 1257 6f3e b12d f8bd 8c47 0ebe
00000110: 2fdb 6bbe 40ac 28be 6c21 703d 5173 07be
00000120: d47e 973e 122e 083e 47eb ad3d 1f55 9d3e
00000130: aafa 21bf ac46 a5bc 484c 7dbe c5ac fdbe
00000140: cac8 273f 5653 2e3f 4444 023f 6520 053f
00000150: cdd6 e5bb 7868 3dbe 0758 a13d 60df 01bf
00000160: 6634 7f3e 0539 3bba dc84 0fbd 837b a33e
00000170: 3808 d9bc 7a28 ac3e e22e 8dbe d6ee e1be
00000180: dc9d 823d f621 28be fa05 273f 5c79 51be
00000190: 4906 a5be 6bc6 a6be 92a8 25bf e8b4 4dbe
000001a0: 595f 9a3e 12ec 58be 28fa 53be 8423 983e
000001b0: fa92 3c3e acab c6bd c456 34be a025 243e
000001c0: 9732 ce3d f2ce 64be 7e97 5a3e 4ef7 26be
000001d0: 3203 adbe 3868 46bf 6764 b6bd 616d 75bd
000001e0: 514d 0cbe 13d9 a9be 77e0 bcbe fb08 5a3e
000001f0: 3177 ee3c 1404 213e 57ec 93bd 8906 d83d
00000200: fc10 573e 4919 08be 16e5 733d c25f 21be
00000210: 79f9 0f3e db12 9a3d f618 1d3f 6171 8b3e
00000220: 73a2 87be 55d8 c4be c15a 8dbd 3c81 313e
00000230: ab70 b13e 8e47 c03d 03e6 5e3d ee58 373f
00000240: 4bdc 71be ca15 74bd 5cb2 023e 7f5d aabd
00000250: a934 ff3e 8200 ba3e d3db eebe 7c8e 64be
00000260: 7b24 dcbe 9f95 c43d a0a4 dfbd e32c 133f
00000270: d6ba a5bc 972b 3b3d 17f1 5d3e 5f37 adbe
00000280: ecf3 62bd 251e 92bd 1348 873d 4eb3 ffbc
00000290: 3f57 cfbd afc4 623d 61a7 a0be 725e c93e
000002a0: 03dc 853e 79ac 5c3e a771 d3bc caf2 30be
000002b0: 32bd d5bd afcb 7fbc d08c 67bd b289 c4bc
000002c0: 7607 3fbd e616 aebd e7da 213e 6a71 213f
000002d0: 30da 9c3d e135 aabd e698 01bd b76a de3e
000002e0: 0381 fe3e 9368 903e 988c e7bc f0bd 0c3e
000002f0: bfdc 75be 7e73 103f a4b3 3b3e 6f2d 24bc
00000300: b3ea 213e 7f5b ed3d 3df8 063f ff4f f43d
00000310: 8f04 36be 5af4 ae3c 9805 833e 9eb7 05be
00000320: 1126 f83d 9719 b23e 3bc4 2bbe 98ef 083c
00000330: 77ba 373d 8a47 5cbd 4641 eabd 0460 6ebe
00000340: ba16 193e 4c5e 483e 1068 d0bd 4459 26be
00000350: 1c7a 6e3e e6df cbbd d566 fabd e4eb 99bc
00000360: 44d4 d83d 0375 483d 6c99 4dbe 1b9f 08bd
00000370: 1a84 76bd 8676 4cbd a764 2ebc e470 263e
00000380: c722 3e3e 80c0 65be 607a 533e db70 a9bd
00000390: dd1b 1fbe b04d f53d 180b ba3e 1e29 ac3d
000003a0: a523 ebbd fc46 2d3e 2e93 cfbd feb6 ccbd
000003b0: c00f 8b3f 9e63 1e3d afc0 f93d 901d 6c3d
000003c0: bb5d 5dbe d26e ab3c 1fcc 243d 615d 8e3f
000003d0: 2ba0 01be 7e3e 75be 2c68 6fbe a4ed 8ebd
000003e0: 10bf e4bd ed64 443c 3ecb 043f 34da cebd
000003f0: 7dc8 4ebe 5cc5 fa3d 4dba 85bd 030d 0c3f

fc3.bias f4 [10]
-0.80701894 -0.13172051 0.16832408 0.3179123 0.3981998 -0.4105706 0.78845185 -0.50905925
0.13139842 -0.1507774
00000000: cb98 4ebf bee1 06be 265d 2c3e 67c5 a23e
00000010: d8e0 cb3e 4f36 d2be fbd7 493f b551 02bf
00000020: 4f8d 063e 6465 1abe
