round3/2025-04-18 18:26:06-weight-client-bdd9854e-4.pth (torch, 252478 bytes, 10 tensors)

conv1.weight f4 [6, 3, 5, 5]
00000000: c889 a2be 5032 17bf 246c 03be 71cc d2be
00000010: 0579 35bf c70f 1cbd 1119 97be 6e4c ad3d
00000020: da2a 7cbe c54a 05bf 2dd4 0abe 0872 d5be
00000030: a85c 15be a90a afbe 4957 32bf 4b8a 0c3d
00000040: c008 a0be de31 b83d d13c 31be 38e6 4abf
00000050: 604b ec3d b579 5d3e 3290 ae3e 64bf 85bd
00000060: a459 84be 036b de3e 0d74 9c3e 2dc0 3e3f
00000070: c7e1 da3e a691 333e 1e39 673f f09e 763f
00000080: b390 9e3f 64b6 5d3f e73a f53e 616c 5a3f
00000090: 5708 323f ae25 883f fb0c 633f 161b b63e
000000a0: 177f 4d3f a993 273f 634a 8c3f 1f25 2e3f
000000b0: fc0f ba3d 0b09 203f 2be1 6a3f 9e6b 893f
000000c0: 7baa 2f3f 17b9 983e a7e1 1fbf 481c c7be
000000d0: 6ea5 6dbc 4403 f4be 4ac6 28bf 513d 0abe
000000e0: 8354 a1bd afc7 f63d d893 24be 6ea4 33bf
000000f0: 77e0 b3be 5666 99be ecd7 acbd ba20 c7be
00000100: 1fd3 5abf d42b cebe bb5e 03bf 9148 4dbe
00000110: d5dd 15bf eb05 98bf cb63 1fbf 5a84 b2be
00000120: 3e58 77be bb0d 40bf fcbe 92bf 237b 753e
00000130: ae95 83be d785 a93e 47d0 383e 1207 6ebd
00000140: 6a79 c83d 0392 f8be 37c2 743e bbb4 b13e
00000150: 8708 a5be 46f4 d7bc 2427 fbbe 0e45 2b3e
00000160: 3ff3 173f bd82 0cbf 5cc7 29be 3f49 b13d
00000170: 54d6 69be 0212 31be ae29 d6be 28c9 88be
00000180: 7178 543e 6c84 f5bc 9e95 90be 32ad 31be
00000190: 49c4 7e3f b9ae 2c3f 6050 a13f f0a5 aa3f
000001a0: fe89 6d3f da2f 563f 1d63 113f 7e8e 973f
000001b0: f26a d03f 394e 2d3f 69fe 4c3f e708 023f
000001c0: 5e88 a43f 2391 d93f 81aa 043f c895 343f
000001d0: 512e 693f 85e5 633f 2bbf 603f 5c5e 083f
000001e0: 25a8 b33e 44e3 863f 526b 643f 27e8 513f
000001f0: 41fa 203f a4f5 44bf f84e 89bf 8049 f4be
00000200: 0abf dbbe 01f3 54bf 58cd 56bf 421e a4bf
00000210: d968 c4be 793f d0be 8fdf 92bf 86a8 88bf
00000220: c0d4 a3bf f554 35bf 868c 98be 6afc b0bf
00000230: c4bc 9fbf ddde 6dbf 74ec 93bf 688f 8ebf
00000240: 6cc5 bbbf 7b6f c3bf 6b06 87bf a67b 86bf
00000250: 6d8d a1bf 9ecd babf 1ba4 333f 3cf9 7f3f
00000260: 510b 883f 6e53 283f 92df 0a3e 8563 603f
00000270: 1ece 643f 141c 583f 73dd 153f 3d76 7a3e
00000280: 0703 803e 8849 933d dfb6 1dbe 5065 21be
00000290: fbc7 f63d e865 f9be d3b4 b5bf dff4 c9bf
000002a0: a9e4 9bbf 4823 03bf 2517 3fbf 758d aebf
000002b0: e61c d4bf 1e55 9bbf 634e fbbe ac03 b63e
000002c0: 615d 473f 0827 503f 8df5 4e3e 0b22 7cbe
000002d0: eda5 003f 3b94 213f e0dc 1b3f 1a4d c93d
000002e0: 249f 6abe 5396 55be dca9 b2be 3d26 e8be
000002f0: 73ec 0dbf c373 e6be 7733 93bf 6b40 d5bf
00000300: c084 e9bf 5803 bdbf 0324 60bf 4f2f 92bf
00000310: 3393 e3bf a650 dcbf 0165 bcbf 60b9 5ebf
00000320: 93b8 ad3f 9162 d93f 961c d43f 8262 ab3f
00000330: 7c33 c53e 48c7 b23f 0592 cf3f ad30 c53f
00000340: 6c5d 993f f2af 2f3f bd49 813f c0c4 3b3f
00000350: 47e0 2e3f 5de6 193f af72 fa3e c0db 81be
00000360: 8086 29bf 9e9a 28bf 8e80 f5be d273 f3bc
00000370: e21f 50be 8c2c 33bf 8678 2dbf 117b e8be
00000380: bce9 36be bf67 1abf c295 3cbe 6f59 663d
00000390: 0082 9dbe 1320 07bf 1540 553e 546e 143f
000003a0: 812f f33e 8e8e 3e3e 4b29 f23d 266c b93e
000003b0: beb0 5b3e d172 7a3e 82e3 6c3d 5771 b73d
000003c0: 681d a7be 3bb5 12bf 6fd5 f6be 8652 65be
000003d0: 3497 babd f12e 97be d92f 11bf 0238 febe
000003e0: 5b08 c2be ccdd 1abe e3c1 6ebe ad55 b93e
000003f0: f1de 043f 742d de3e df49 39bd 662f 2d3f
-0.31745744 -0.59061146 -0.12834221 -0.411716 -0.70887786 -0.038100984 -0.29511312 0.084618434
-0.24625722 -0.52067214 -0.13557501 -0.4168856 -0.14586127 -0.3418782 -0.69664437 0.034311574
-0.31256676 0.089938864 -0.17308356 -0.79257536 0.11537814 0.21628459 0.34094387 -0.065306455
-0.2584964 0.43441018 0.3055729 0.74511987 0.4275038 0.17536029 0.9032153 0.9633627
1.2387909 0.8660643 0.478965 0.85321623 0.69543976 1.0636499 0.8869168 0.3556754
0.8027205 0.65459687 1.0960201 0.6802539 0.0908508 0.625138 0.9174983 1.0735967
0.6861951 0.29828712 -0.62453693 -0.38888764 -0.014504774 -0.4765874 -0.65927565 -0.13499953
-0.078774475 0.120498054 -0.16072023 -0.70172775 -0.3513219 -0.2996089 -0.08439621 -0.38892156
-0.85478395 -0.40267813 -0.5131642 -0.20047213 -0.58541614 -1.1876806 -0.62261647 -0.348666
-0.24154755 -0.7502095 -1.1464534 0.23972754 -0.25700134 0.33109924 0.18048202 -0.05811221
0.09788783 -0.48548898 0.23902212 0.347082 -0.32233068 -0.026361596 -0.490533 0.16725561
0.5935554 -0.5488699 -0.16579956 0.08656549 -0.22835666 -0.17292026 -0.41828674 -0.2671597
0.2074907 -0.02997037 -0.2823915 -0.17351225 0.9951826 0.67454106 1.2602654 1.333189
0.92788684 0.83666766 0.5679186 1.184036 1.6282637 0.67697483 0.800757 0.50794834
1.2854116 1.6997417 0.5182267 0.7054105 0.910863 0.89022094 0.877917 0.5326898
0.35089222 1.0538106 0.8922626 0.8199486 0.6288186 -0.7693732 -1.0727224 -0.47712326
-0.4291919 -0.83183295 -0.8390708 -1.2821734 -0.38361242 -0.40673426 -1.1474475 -1.0676429
-1.2799301 -0.7083276 -0.2979471 -1.3827031 -1.2479482 -0.9291819 -1.1556535 -1.1137514
-1.4669623 -1.5268396 -1.0548834 -1.0506485 -1.2621285 -1.4593999 0.7017228 0.99989676
1.0628453 0.65752304 0.13561848 0.87651855 0.8937701 0.84417844 0.5854103 0.24459167
0.2500231 0.07191759 -0.15401791 -0.15761304 0.12049862 -0.4871056 -1.4195808 -1.5777854
-1.2179157 -0.5122571 -0.7464469 -1.3636919 -1.6571319 -1.2135351 -0.49083242 0.35549676
0.7787686 0.81309557 0.20210858 -0.24622361 0.5025318 0.63116807 0.60883904 0.09829159
-0.2291227 -0.20858125 -0.34895217 -0.45341673 -0.5543892 -0.45010194 -1.1500081 -1.6660284
-1.8243637 -1.4766645 -0.8755495 -1.1420687 -1.7779297 -1.7212112 -1.4718324 -0.8700161
1.3571953 1.6983205 1.6571224 1.3389437 0.38515842 1.3967066 1.6216437 1.540548
1.1981635 0.68627846 1.0100628 0.7334709 0.6831097 0.6011713 0.48915622 -0.25362968
-0.66220856 -0.6586093 -0.47949642 -0.029718313 -0.20324662 -0.6998985 -0.6776203 -0.45406392
-0.178626 -0.60314554 -0.18416503 0.056237634 -0.30763245 -0.52783316 0.20825227 0.5798085
0.4749718 0.18609068 0.11824282 0.36215323 0.2145414 0.24457861 0.057834156 0.08957165
-0.32639623 -0.57307786 -0.48209712 -0.22394761 -0.09110871 -0.29528 -0.56713635 -0.49652106
-0.37897 -0.15123671 -0.2331615 0.36198178 0.5190268 0.43394053 -0.045236465 0.6765045

conv1.bias f4 [6]
00000000: 4c0c f0bf 15c3 debf 409e 2ebf cc6e 89c0
00000010: 6b5e 10c0 5f87 ae3f
-1.8753753 -1.7403284 -0.6821022 -4.294775 -2.2557628 1.3635062

conv2.weight f4 [16, 6, 5, 5]
00000000: 6299 2fbe f35a a9be 70bd f6be 3435 edbe
00000010: 3cd4 22bf 78c9 01be 6ec5 cfbe 4da4 c4be
00000020: e46c 94be c125 d8be 3043 6ebd 25e6 12be
00000030: d7c6 d7bc 014a a93d 0679 633d 2929 e03e
00000040: 64c5 973e 6930 863e 7fcf ba3e 44fd b93e
00000050: 61cb 023f 9796 d43e e2b9 de3e 8363 d73e
00000060: 691b f43e 24ae 23be c27f 09be 5cec dd3d
00000070: dd42 f33d a98e 73bd bb03 b3bc 64c4 47bd
00000080: 2642 273d a15e 46be dd69 b6be fb21 2dbe
00000090: 84ce 10be ca8d 63be eff3 b9be d6d7 90be
000000a0: 0d89 323d 40b4 013e 3a8e 663e c35d 063e
000000b0: fe55 813e 9dbe d23e 09f4 f33e cb46 f13e
000000c0: 4de4 a23e ff91 d73e 1cc7 93bd 36e0 0ebe
000000d0: 0f79 36be 6355 29bd 90f2 633e b6c7 2d3e
000000e0: da65 363e 0524 9c3d 70b3 f23d b442 083e
000000f0: 9565 48bd ad8d 6bbd 39f1 83bc 88aa bfbd
00000100: 7d32 78be e9b4 eebd e27c 63bd b18e c9bc
00000110: 00c0 8abd 636f 85be 8099 efbd 2664 f43d
00000120: fbc7 8a3e 935f 703e bea7 473c 1def eabc
00000130: 805b dcbe 9c4a f7be f571 afbe 865f 6fbe
00000140: 0985 febe 35df 18bf 2aae 1dbf bc69 ddbe
00000150: 3d98 28be 478c 3fbf 0410 37bf cb2d 1cbf
00000160: 3b4a d6be 3116 adbe ffbf 68be 62f7 67be
00000170: 3f98 87be 47b8 1bbe d84e eb3d 2e5e 3a3e
00000180: 883f 6a3d 60e4 4b3d 273f 183e a2f3 f63e
00000190: 796c edbe 1cbe 1fbf cf4f 44bf cacf 2bbf
000001a0: 3103 43bf 2ae7 55bf 914d 75bf 40e3 82bf
000001b0: 5095 5bbf 349d 3dbf c074 f3be 0b83 21bf
000001c0: 703e b3be d8b0 6abe ecc7 27be 6c4b ba3e
000001d0: 762a b53e 065e b13e 79e8 ad3e 5e8e f63e
000001e0: 7b91 383f 8ff0 0d3f da97 1c3f 29e6 0f3f
000001f0: c861 183f c1c5 ad3d 64e3 573e 009b 763e
00000200: 884a 4d3d 5a58 b8bd 9950 0c3e ced7 cf3d
00000210: 7d33 b6bd 3db7 d5bd 258b 59bd 7a90 69be
00000220: ad3f a4be 95a3 95be b9f2 88be 24e4 29be
00000230: d160 11bf 9eee fbbe 552c f1be f972 d1be
00000240: cf0f 8bbe 694f d3be f6e6 8ebe 2e21 acbe
00000250: ce1d 84be 159c 8dbe d497 9a3d 9237 423e
00000260: 57b8 3f3e 4538 f6bc bcfa 04bf 5275 553e
00000270: 9ab3 ae3d 5fb4 983e a97b 0a3e 688f 10bf
00000280: dcbb a13c 8fa1 5f3b a276 9d3e 6d7b 003e
00000290: 32b7 4abf 6262 6abc de47 ab3c d557 963e
000002a0: ff9a cfbb 95be 2bbf d968 09be 17c6 0abe
000002b0: 92c5 5dbe ebc3 ddbe 8f84 24bf 97cd 543d
000002c0: 7d03 3bbe a7ae 53be c537 cdbe 9755 65bf
000002d0: 1e44 cc3e 0d1d 993e 72bd 9b3e 52bd 11be
000002e0: a585 32bf abdd b53e ce00 823e d708 cf3e
000002f0: ea43 b8bc 6ba1 21bf afb7 f53e fe95 cd3e
00000300: 2720 a03e 21f3 0e3c d84b 9fbe f3ac 963e
00000310: 52c9 0d3e dabf 493d cf68 7ebe c58b edbe
00000320: ebc3 29bf d446 f5be a783 16bf 0818 1abf
00000330: e3c6 20bf 49ec 0bbf bfc1 11bf 06fe 25bf
00000340: e606 48bf df04 33bf bfa6 05bf 059a febe
00000350: 7fc1 f8be 7aed b6be a586 83be afc0 38be
00000360: 8b0f 3ebd 3772 52be 1b53 1dbe 93b7 5d3d
00000370: 2584 21bf c0e4 22bf 25f7 38bf 03ba 24bf
00000380: aee1 e0be 5634 84bf 811f 71bf 927d b4be
00000390: f124 2d3e 4f6f f83e ef9d 80bf 56f6 81bf
000003a0: 8045 9bbe a5fc 023f 0fbd 253f cc5a 92bf
000003b0: 8d43 a0bf 8ceb 27bf 71c0 b63e 1ad0 0d3f
000003c0: 3fb1 75bf 3255 60bf c83a d8be 5d90 2e3e
000003d0: 7e68 b33e 0a38 63bf f112 1bbf 9f31 d5be
000003e0: 9187 4ebe 780c 033c 92f6 afbe dc0d 2cbe
000003f0: 4126 89be dcdf 89be 1d5c 2cbf 12d7 a4bd
-0.17148355 -0.330772 -0.48191404 -0.46329653 -0.63605094 -0.1267451 -0.40580314 -0.38406602
-0.28989327 -0.42216304 -0.058169544 -0.14345606 -0.026339931 0.08266068 0.05553534 0.43781403
0.29642785 0.2620881 0.36486432 0.3632604 0.5109158 0.4152114 0.43501192 0.4206811
0.47677162 -0.15984398 -0.13427642 0.108360976 0.118779875 -0.059462223 -0.021852365 -0.048771277
0.04083457 -0.19372036 -0.35627642 -0.16907494 -0.1414128 -0.22222057 -0.3631892 -0.2828967
0.043587733 0.12666416 0.22515193 0.13121705 0.2526092 0.4116105 0.47647122 0.47124323
0.31814805 0.42103574 -0.072157115 -0.13952717 -0.17819618 -0.041341197 0.22260499 0.16970715
0.17812291 0.07624058 0.11850631 0.13306695 -0.048925 -0.05750816 -0.016106235 -0.09358698
-0.2423801 -0.116555996 -0.05553902 -0.024604173 -0.06774902 -0.26061544 -0.116992 0.11933164
0.27105698 0.23473959 0.012185989 -0.028678471 -0.4303856 -0.4829911 -0.3426663 -0.23376283
-0.49710873 -0.59715587 -0.6159388 -0.4324473 -0.16464324 -0.7482342 -0.7150881 -0.61007375
-0.41853508 -0.33805993 -0.2272949 -0.22652963 -0.26483342 -0.15207015 0.114896476 0.18199989
0.057189494 0.049778342 0.1486784 0.48232752 -0.4637182 -0.6239946 -0.7668428 -0.67113936
-0.76176745 -0.83555853 -0.9582148 -1.0225601 -0.8577471 -0.74068 -0.4755001 -0.6309058
-0.35008574 -0.22919023 -0.16384858 0.36385667 0.35383958 0.34642047 0.33966425 0.48155493
0.72096986 0.5544519 0.6116921 0.5621057 0.595242 0.08484984 0.21082836 0.24082565
0.050119907 -0.09001227 0.1370262 0.10148583 -0.08896539 -0.104353406 -0.053111214 -0.2280902
-0.3207983 -0.29226366 -0.26747683 -0.16590935 -0.56788355 -0.49205488 -0.47104135 -0.4090803
-0.27160498 -0.41271523 -0.27910584 -0.33619064 -0.2580399 -0.27658144 0.0754849 0.18966511
0.18722664 -0.030056128 -0.5194509 0.20845535 0.0853035 0.29825112 0.13523735 -0.5646882
0.019742899 0.0034123396 0.30754572 0.12547083 -0.79185784 -0.014305683 0.020908292 0.29363886
-0.0063356156 -0.6708768 -0.13418902 -0.13552128 -0.21657398 -0.43313536 -0.6426477 0.05195388
-0.1826305 -0.20672093 -0.4008161 -0.89583725 0.3989572 0.29904976 0.30417973 -0.14232376
-0.69735175 0.35520682 0.2539124 0.40436432 -0.022493321 -0.6313693 0.47991702 0.40153497
0.3127453 0.008724959 -0.31112552 0.29428825 0.13846329 0.04925523 -0.24844669 -0.46395698
-0.6631457 -0.479056 -0.58794636 -0.6019292 -0.6280348 -0.5465742 -0.5693626 -0.64840734
-0.78135526 -0.6992931 -0.5220756 -0.49726883 -0.48585126 -0.35728055 -0.25688663 -0.18042253
-0.04640154 -0.20551382 -0.15363733 0.05413015 -0.6309226 -0.63630295 -0.7225211 -0.6434633
-0.4392218 -1.0328472 -0.94188696 -0.35252053 0.16908623 0.48522422 -1.0048198 -1.0153301
-0.30326462 0.51166755 0.64741606 -1.1433959 -1.2520615 -0.6559379 0.35693696 0.5539566
-0.9597358 -0.8763 -0.42232347 0.17047258 0.3504066 -0.88757384 -0.6057578 -0.4163942
-0.20168902 0.007998578 -0.34367806 -0.16802162 -0.26786998 -0.26928604 -0.67328054 -0.08048834

conv2.bias f4 [16]
00000000: d97d 8ebe 4664 923e f7ec 1bbf 60ba 003f
00000010: 5c64 a3bf ef36 72bf 3f91 f03e 9dd1 403f
00000020: cb11 e2be 4a49 0ebf b8ef 0dbe 16a5 63be
00000030: 85cf 49bf 2d4b 8c3e 2464 c33d 68fc 503d
-0.2783039 0.28592128 -0.60908455 0.50284386 -1.2765002 -0.9461507 0.46985814 0.75319844
-0.441542 -0.5558058 -0.13860977 -0.22230944 -0.78832275 0.27401105 0.09540585 0.051021963

fc1.weight f4 [120, 400]
00000000: bd13 923b a8e4 8dbd c49e 7fbc 9b90 fa3b
00000010: 401d a3bd 6a17 45bd 9aa9 71be a3f2 92bd
00000020: 160c 96bd ece6 a3bd d5f9 d8bd 9e7b 01be
00000030: 33d7 8bbd 33db e7bd 7e05 45bd 03ba ddbc
00000040: 2427 523b 6a44 8e3c e765 1a3e 1353 0b3e
00000050: d45d 043e 0831 d63d 756c 263e 4ab2 a53d
00000060: 2da9 823e 00c3 113d 7048 093b 6569 a3bd
00000070: 97f3 1ebd b2d1 8bbe efc8 88bc 87ae 96bd
00000080: 4e7a 68bd a61f d4bd 789a 2abe 7aaa 1bbe
00000090: 5c02 14be 619a 9d3d 0ec1 1ebc af56 fdbd
000000a0: e16d cebd 82b1 e5bc f7a8 2bbd 3e74 e4ba
000000b0: bf64 44be 8692 b9bd 056b 98bd e7d1 b1bd
000000c0: 6ab1 9fbc 065c 91bd a062 2dbe ebb0 2fbe
000000d0: 4f7f 83be 4e91 5bbe c356 7fbe 37c3 3c3b
000000e0: 3718 313d 0352 e83c 67cc e13b 40f9 0b3c
000000f0: c5e2 cd3d c80f 5a3e 3221 2a3e 4e80 033d
00000100: 3c16 fabd 4992 963e 0866 8b3e 2120 c03e
00000110: 60a4 153d d0b9 ab3a 52be 3d3e e3ef 933e
00000120: 4b88 963e aba4 e23d adcf d53c 89bb 183c
00000130: 11cc 183c 1b54 72bd 54ce bcbc 1f76 e0bc
00000140: 2430 b73c b32b e6bb 5214 8ebb 7a8a 8c3d
00000150: 273c 093d ba63 3b3d c422 b3bc 19c9 fc3c
00000160: 0a25 2fbd 86d5 8abd 7a42 adbc 8efd 7dbd
00000170: 042d fdbc 971b 3fbd fc95 0e3d 86bd 5b3b
00000180: 8a13 21bd 1003 57bd 38cd 293c 8cdd ab3d
00000190: 76c3 0ebe 20a3 08be 3898 17be 904d 1ebe
000001a0: 05a6 89bd 9cf8 e8bd 845a 58be d30d 59be
000001b0: 7063 e7bd 880c fcbc c20c 89bd 84f3 abbd
000001c0: d282 2ebe 0c4a 2dbe e2d4 93bd d967 953d
000001d0: b056 a23c 565b 6cbc 6078 8f3d 7d8d 013e
000001e0: db23 0c3e 8c29 993d be28 7a3d 688e 243e
000001f0: f03a ec3d 1e8b ea3c 9d27 903d 678f 30b9
00000200: 0c7a 2dbb fffd ecbc 6bfd ca3a 4757 f23c
00000210: 9cb9 463c 761e 0cbd 153d 08be d7a2 94bd
00000220: f961 aebd 53b7 2dbd 89c1 f33c a3a4 2d3d
00000230: 5f8c e0bd e896 58be e1f7 c8bd 2ad8 fdbd
00000240: c9a6 b8bd 6b0c a03d 1070 353b f115 f5bd
00000250: a887 2bbe 4630 babd 0131 723d d70a c3bd
00000260: 5632 eb3d 525e b73e f7a9 563e 2221 0dbc
00000270: 2d5e 37bd 55c2 8d3e 26fb 433e a4d0 abbb
00000280: ccdc 2d3d a704 e33c 5b23 6a3d 38ac 9d3d
00000290: f412 923d a7eb 1a3e 7974 4b3d a36b 0d3d
000002a0: a788 9539 16ab 443e 3d06 5a3d 81d7 363d
000002b0: 470c 453e 4311 b4bd 7771 903e c69b d1bd
000002c0: 690e 053c 5956 4cbd efb3 a7bd 49f7 51be
000002d0: d391 e0bd 1a6d 503d 0e13 823d 4a67 30bd
000002e0: 9147 4abe 8c5d 8cbd 0a0f 313e 617a 5b3c
000002f0: efe9 fabd 1cc6 91be 3242 07bd a364 9c3d
00000300: 4fe5 7f3c 571a ef3a 2126 11be 8ba6 39bd
00000310: d922 263d bac7 dabd 5833 26be 14cf 4abe
00000320: 6967 adbd 4295 47bb 95eb b2bd 60f2 90bc
00000330: 60c6 e7bd 690d cebd 8714 be3c 1e27 1e3d
00000340: b393 733c 43cf 473d 5629 48bd cf54 59bd
00000350: 6d50 7ebc 0916 523d 5892 223d 3a91 bc3c
00000360: 1f92 323d 58ee 38bd fde3 82bd 3220 a1bc
00000370: c191 50bd f80a c13d dc29 543d cce5 a8bb
00000380: ecd0 db3c 31e5 0dbd 0346 87bd 2394 c9bd
00000390: 8224 86bd 4c17 443d 9e38 133e 3163 163e
000003a0: 04ca fa3c babb ed3d d0e5 963d 15b4 323e
000003b0: d329 1e3e 9473 0b3e a8e6 853d e0d3 fc3d
000003c0: 5efb 0c3e 041f 383d 2961 f23b a0f1 b93d
000003d0: 9f5c d93d 7ec0 8a3d a068 1c3e 64f8 623e
000003e0: c66e 3a3e f653 403e 3b76 073d 17bc 913b
000003f0: 8901 393e a47a 2fbe 8028 81bd 96b7 6f3d
0.0044579194 -0.06928378 -0.0156018175 0.007646633 -0.07964563 -0.048118033 -0.23599854 -0.071751855
-0.07326524 -0.08003029 -0.10594527 -0.12644812 -0.06828155 -0.11321106 -0.04810094 -0.027066236
0.0032066787 0.017366607 0.15077935 0.13605909 0.12926418 0.10458571 0.1625231 0.080906466
0.25519696 0.035586357 0.0020947717 -0.07979087 -0.038806524 -0.27308422 -0.016697375 -0.07357507
-0.056757264 -0.10357599 -0.16660488 -0.1520175 -0.14454025 0.07695461 -0.0096895825 -0.12370049
-0.100795515 -0.028038744 -0.041909184 -0.0017429662 -0.19179057 -0.0906115 -0.07442287 -0.08682614
-0.019493777 -0.0709763 -0.16932154 -0.17157333 -0.25683066 -0.21442148 -0.2493544 0.002880288
0.043235984 0.028359419 0.0068908217 0.008543313 0.100530185 0.21295083 0.16614226 0.032104783
-0.12211272 0.29408482 0.2722628 0.37524512 0.036533713 0.0013101641 0.18529633 0.28893957
0.29400858 0.11066564 0.026100004 0.009322056 0.009325997 -0.05916224 -0.023047604 -0.027400075
0.022361822 -0.0070242523 -0.0043359185 0.0686235 0.03350463 0.045749404 -0.021867163 0.03085761
-0.042759933 -0.067790076 -0.021149863 -0.062009387 -0.030905254 -0.04665717 0.034811005 0.0033529713
-0.039325275 -0.052493155 0.010363869 0.08391866 -0.1394175 -0.13343477 -0.1480416 -0.15459275
-0.06721119 -0.113755435 -0.21128279 -0.2119668 -0.11298263 -0.030767694 -0.066918865 -0.08396056
-0.17042091 -0.16922778 -0.072183385 0.07295198 0.019816726 -0.014426073 0.070053816 0.1265163
0.13685553 0.074786276 0.06107401 0.16069949 0.11534679 0.02863079 0.07038806 -0.0001683809
-0.002647045 -0.028929709 0.0015486901 0.029582633 0.012129214 -0.034208737 -0.13304551 -0.07257622
-0.085147806 -0.04241116 0.02975537 0.042393338 -0.10964274 -0.21151316 -0.09812904 -0.12394746
-0.09016187 0.078148685 0.0027685203 -0.119670756 -0.16750968 -0.09091239 0.059128765 -0.09523552
0.1148421 0.35814148 0.20963274 -0.0086138565 -0.044767547 0.27687326 0.19138774 -0.0052433778
0.042446896 0.02771218 0.057162624 0.07698864 0.07132521 0.15128957 0.049671624 0.03452648
0.0002852131 0.19205889 0.053228606 0.044639114 0.19242965 -0.08792355 0.28211567 -0.102347896
0.008121111 -0.049887035 -0.081886165 -0.20504488 -0.10965314 0.050885297 0.06351291 -0.043067254
-0.19753863 -0.0685378 0.17290893 0.013395877 -0.122516505 -0.28471458 -0.033022113 0.076363824
0.015618636 0.0018242103 -0.14174701 -0.045324843 0.040560577 -0.10682626 -0.16230524 -0.19805557
-0.084669895 -0.0030453955 -0.0873634 -0.017693698 -0.11317134 -0.100611515 0.023203148 0.038611524
0.014866757 0.048781645 -0.048867546 -0.053059395 -0.015522105 0.051290546 0.039690346 0.023018468
0.043596383 -0.045149177 -0.063911416 -0.019668672 -0.05092025 0.0942592 0.051797733 -0.005154347
0.02683302 -0.034642402 -0.066051506 -0.09842708 -0.06549932 0.04787378 0.14377066 0.14686276
0.030613907 0.116080716 0.07368052 0.17451508 0.15445642 0.13618308 0.06538135 0.123450994
0.13767764 0.044951454 0.0073968363 0.090792894 0.10613369 0.06774996 0.15274286 0.22165066
0.18206319 0.18782029 0.033071738 0.004447471 0.18066992 -0.17136627 -0.06306553 0.05852469

fc1.bias f4 [120]
00000000: 83eb ff3d 6500 efbc 89bf 843c 7b6b 2e3e
00000010: bb65 6bbd 0831 88bd 0722 62bd b430 213e
00000020: 6c23 13bd d925 7ebd a562 89bd 77d8 3dbd
00000030: 482f c8bc 93da 11be 0058 ed3d d08c 8ebd
00000040: 7422 f73b ea0f 9e3c 17f5 12be f585 363d
00000050: ef58 923d 08ab 07be 7d2a 27bd 3d5b e03d
00000060: df8a dc3d fa9d 8b3c c39e d7bd 6e92 91bd
00000070: ba55 bdbd f37d fa3d 88b4 21bd 1f75 fcbb
00000080: 6e48 81bd 42b2 c9bd 3ab7 0dbe 6e3a 103d
00000090: e425 203d e273 c5bd 90bf 18bc 417d a43c
000000a0: 9d7e 01bd adab c6bd 55e0 b6bd ab9b 0abe
000000b0: 336e 3f3e 9fac 9dbd f9f2 c7bc dfb8 48bd
000000c0: 9fa8 90bd 4b66 4bbe 0e99 f73d c4ba 983d
000000d0: f88e 68bc c941 52bd cf32 09bd 3b5f db3d
000000e0: 8fde 1dbd 2c56 b8bd 2c99 50bd fcfe 30bd
000000f0: b488 b3bb a57d 3abe 137a d3bc 9a75 cb3d
00000100: dad1 443c ba8b c1ba d3e8 1dbd 9343 a23d
00000110: 1346 193e 5169 523c 56aa b8bd fddc e43d
00000120: eacd 2b3d 2666 743e 9627 853d fe9a b1bd
00000130: 8f55 0e3e a709 f53d b4ee 09be 5698 50bd
00000140: 6af6 7dbd 76c1 9f3c 64bb 1b3e a589 2bbe
00000150: 4b42 2ebe 9fb2 9d3b 388b 253d 1907 dfbd
00000160: 471a 813d 7b09 c23c 9c7c 4d3e c3d2 4dbe
00000170: b723 153e 0292 393e 0664 b8bd a484 423a
00000180: 18e3 573e f44a 7abd 8e3d f43b 1a98 01be
00000190: c206 2bbe 1324 3ebd 644d 013e f6ea 0bbd
000001a0: aacc 333c 09f2 f6bc 9f96 61bd a203 4d3d
000001b0: 65bf 1c3d 72de 113e 8300 19be 757f 6abd
000001c0: 9c99 6e3c 64d0 0fbe d670 80bd 8dbc 9bbd
000001d0: 3001 17bd 5d3b 9d3d 4fd3 2abd 8228 11bb
0.12496092 -0.029174993 0.016204612 0.17033188 -0.057470065 -0.06649977 -0.055208232 0.15741235
-0.035922453 -0.062047813 -0.06708268 -0.046349015 -0.024436608 -0.14243536 0.1158905 -0.069604516
0.007541949 0.019294698 -0.14351307 0.044561345 0.07145869 -0.13248837 -0.040812004 0.10954902
0.10768675 0.017043103 -0.10528328 -0.07108007 -0.09244867 0.12231054 -0.03947881 -0.0077043916
-0.06312643 -0.09848453 -0.13839427 0.035211973 0.039098635 -0.096412435 -0.009323016 0.020079257
-0.03161489 -0.09700713 -0.08929507 -0.13535945 0.18694381 -0.076989405 -0.02440785 -0.04900443
-0.07063412 -0.1986324 0.1208974 0.07457498 -0.014194243 -0.05133227 -0.03349572 0.10711523
-0.038542327 -0.09000811 -0.050927326 -0.043211922 -0.0054789428 -0.18211992 -0.025815045 0.0993454
0.012012923 -0.0014766373 -0.038552117 0.07923045 0.14968137 0.012842492 -0.09016864 0.11174963
0.04194442 0.23867092 0.06501691 -0.086721405 0.13899826 0.11964732 -0.13469964 -0.05092653
-0.062002577 0.019501429 0.15208203 -0.16751726 -0.17017476 0.004812553 0.040415972 -0.10890026
0.0630384 0.023686161 0.20067066 -0.2009993 0.14564405 0.18122104 -0.09003453 0.00074202777
0.21082723 -0.061106637 0.007453627 -0.12655678 -0.16701797 -0.04642112 0.12627178 -0.034159623
0.010974089 -0.030144708 -0.055075284 0.050052293 0.038268466 0.14245012 -0.14941601 -0.05725046
0.0145629905 -0.14044338 -0.06271522 -0.076043226 -0.036866367 0.07677338 -0.041705426 -0.0022149389

fc2.weight f4 [84, 120]
00000000: 50b1 3abe f785 93be 52cd 19be 5456 2f3e
00000010: e088 4cbd 7206 57bd 1f0a 8ebd 5059 52be
00000020: 46ec 3fbd cc79 a6bd 1132 fdbd 8685 3abe
00000030: 1473 133d 41fc 223e 4f90 ccbd 18b9 c83d
00000040: 921c 2cbe 2df7 3c3d 1ad2 b8bd 9b52 1cbe
00000050: 0862 a2be f697 cebd b752 76be 7250 22be
00000060: 177b 7abc 265c 10be 786b f8bd 31eb b5bd
00000070: f9fe e93d a5a8 1fbe 6884 383e 7aa2 e6bc
00000080: 4d9e afbd 561d 1b3e 1d73 e83d 8d23 0bbe
00000090: df25 293d 5075 043d cd9f 9cbd d27d 963d
000000a0: 8849 69bd 274d 93bd 3225 cc3d a4bc 39bb
000000b0: dd2c c0be 1bd7 1fbe 9ab6 713e 92bf c0bd
000000c0: 6a91 503e 55e3 6f3d 969c 473d 29a8 dfbd
000000d0: 1586 2abe 08fe 51be 4679 60bc 1107 1e3e
000000e0: b834 a33c f571 193e 1133 143e 4512 05bb
000000f0: 63ae 1dbe b5eb d83d aa03 12bd aaf0 66be
00000100: 713d 8fbd 6576 31be 9e1b fa3c 7d50 77be
00000110: b63b 0ebe 9b4f 4e3d 552c 8bbd e833 29be
00000120: 14f8 bcbd 491a 06be 1b3f 5bbc 177a bbbd
00000130: 0b16 05be 71aa ca3b 2609 43be 5bb4 f2bc
00000140: d251 78bc f42c 74bd e6f1 50be ae6d dfbd
00000150: 9244 58be 6c87 9abd 35ee 9bbc 4725 c8bd
00000160: 62a4 9bbd 3f09 a13c bcd4 00be d53c edbb
00000170: 510a 773d c6a0 a3bd f206 f0bd 2f7e f0bd
00000180: ad98 18be bffa e33c 54a4 223d fb00 a4bc
00000190: 5d42 763d 687b 75bd f5f7 d2bd 8010 b9be
000001a0: 6cd4 bcbc d35b 393d 522d 84bd 5ff1 283e
000001b0: 1412 733d a2a7 11be 90cd 19bd b481 82bd
000001c0: 8a3a 43bd c78c 3abe 0d51 733e 0c64 b9bc
000001d0: 515b 9bbd a2dc 89be 7fe1 30be 0f90 34bd
000001e0: 749d 1bbe c1d6 543d 6b79 7e3d fa47 393d
000001f0: 37d9 4e3d 4280 c73a 9db2 ffbc 78b1 babc
00000200: c3a3 093d 30f5 283e 20bb f83d b11a 9bbd
00000210: 3c6e ca3d 4e0d d0bd 0ccc 67bd 07a1 ccbd
00000220: f169 72bc 3c91 cfbc 87a0 1d3e 154b 3d3e
00000230: cb4c 3fbe c993 95bd a838 fe3b b84a a5bc
00000240: d1ef 51bd 0f93 4fbd 5504 df3d e898 94bb
00000250: 67c1 a3bd 0110 e7bc 3eb2 6f3d 0d70 683d
00000260: ef2c 82be f459 7fbd 8275 2f3e b513 dd3d
00000270: 39a4 2cbd 215f 983d 5340 1bbe d6a1 95bd
00000280: c332 6bbd 4d17 033d a2bd 47bc 8e84 2dbd
00000290: ea9e 6fbe ed48 f63d 2ab0 45be 8eaf 213d
000002a0: fd99 d7bd 7972 933d f250 0fbe b7b8 a1bd
000002b0: 0d56 85bd c702 a33d 8840 e73c b8db d03c
000002c0: 5096 adbd 4247 483d 4a25 8d3c 7250 aa3d
000002d0: 07e8 cdbd 4d67 b1bd 6e3d 903c 236e 8e3c
000002e0: 9bb4 c6bc be2c 44be e3bd 5fbd 4f33 13bd
000002f0: 59be 48bc abf4 493d fe43 e6bd 9e33 263d
00000300: 993d 283d a32c 1fbe 1130 d3bd 01d4 053e
00000310: ef29 01bd ba80 99bd 356d d43c 6f2c 4b3d
00000320: f70d 43be 44ef c6bd 2ab6 7ebd aaca 503c
00000330: 2a64 983c 9dcd 30bc efa2 5dbd 88f7 ccbd
00000340: 0cf1 b4ba 72fa 263b 3517 083d f9ad 0b3c
00000350: 224f 703d 4e4d 0bbe c445 ef3d 70ff a2bc
00000360: 113b e9bd 8ec1 693c c47c 19bd 876b 9bbd
00000370: 57f0 ebbc 511d d7bc 6ce4 2d3d e711 6fbd
00000380: 236b a1bc fd11 b9bd 32e3 32bd e0da 07be
00000390: 216b 1abe 125a d3bd 48bd 5cbd 99a0 453c
000003a0: c52b cbbd 6f80 c73c 1a65 efbd d2de 52bd
000003b0: 3c55 3ebe 4886 0bbe 4ea4 383d 32e0 e4bd
000003c0: b4d9 dabd 95f9 9f3d 07b1 973e 7e60 e5bd
000003d0: fb3b 953d 8ddc 31bd 1f13 823d 211b a9be
000003e0: f382 3abd 864d 753e b599 91be d3b6 433d
000003f0: 44e1 323d 6582 86be efba 73be 10b7 2ebd
-0.18231702 -0.28813145 -0.1501973 0.17122775 -0.04993522 -0.05249638 -0.06935524 -0.20541883
-0.046856187 -0.081287 -0.12363065 -0.18214998 0.03599842 0.1591654 -0.09988462 0.09800929
-0.16807774 0.046134163 -0.09024449 -0.15265886 -0.31715417 -0.10087578 -0.2405499 -0.15851
-0.015288136 -0.14097652 -0.12129873 -0.0888275 0.11425585 -0.15591677 0.18019259 -0.028153647
-0.08575115 0.1514791 0.11350081 -0.1358778 0.041295882 0.03233844 -0.07647667 0.07348217
-0.05695489 -0.0719245 0.09968032 -0.0028341198 -0.37534228 -0.156094 0.23604813 -0.09411539
0.20367971 0.05856641 0.048733316 -0.10920746 -0.1665271 -0.20507061 -0.013700789 0.15432383
0.0199226 0.14984877 0.14472605 -0.002030508 -0.15398555 0.105918325 -0.035648026 -0.22552744
-0.06994141 -0.1733032 0.030530747 -0.24151798 -0.13889965 0.050368886 -0.06795565 -0.16523707
-0.09227005 -0.13095964 -0.013381745 -0.09154146 -0.1299669 0.006184869 -0.19046459 -0.029627016
-0.015156226 -0.059613183 -0.20404777 -0.109095916 -0.21119907 -0.07545361 -0.019034484 -0.09772735
-0.07599713 0.01965773 -0.12581152 -0.0072399178 0.060312573 -0.079896495 -0.11720075 -0.117428176
-0.14901991 0.027829526 0.039707497 -0.020019999 0.060121883 -0.059932142 -0.103012 -0.361454
-0.02305051 0.045253586 -0.06453957 0.16498326 0.059343413 -0.14224103 -0.037549555 -0.06372395
-0.04766325 -0.18217765 0.23761387 -0.022630714 -0.075857766 -0.26926142 -0.1727352 -0.044082697
-0.15196782 0.051962618 0.062127512 0.045234658 0.05050012 0.0015220719 -0.0312131 -0.022789702
0.03360344 0.16499782 0.12145066 -0.0757345 0.09884307 -0.10158788 -0.05659108 -0.09991651
-0.014795766 -0.025337808 0.15393268 0.18485673 -0.18681638 -0.073035784 0.007758219 -0.02017723
-0.051254097 -0.050677355 0.10889498 -0.0045348294 -0.07995873 -0.028205873 0.058519594 0.056747485
-0.25424907 -0.062341645 0.1713467 0.107947744 -0.042148802 0.074400194 -0.15161256 -0.073062584
-0.057421457 0.032004643 -0.012191208 -0.042362742 -0.23400465 0.12025628 -0.19305483 0.039474063
-0.10527418 0.07199568 -0.13995722 -0.0789656 -0.065105535 0.07959514 0.028229013 0.025495395
-0.084759355 0.04889608 0.017229695 0.08316125 -0.10054021 -0.08662281 0.017607417 0.017386502
-0.024256041 -0.19157693 -0.05462445 -0.035937604 -0.012252414 0.0493056 -0.11243437 0.04057657
0.04107437 -0.15544371 -0.10311902 0.13069154 -0.03153413 -0.07495256 0.02593098 0.049602922
-0.19048296 -0.09713605 -0.062185444 0.012743631 0.01860245 -0.0107912095 -0.054110464 -0.1000815
-0.0013804748 0.0025478867 0.033225257 0.008525365 0.058669217 -0.13603708 0.116832286 -0.019897193
-0.11388219 0.014267338 -0.0374725 -0.075888686 -0.028801126 -0.026259096 0.04245417 -0.058366682
-0.019704407 -0.09036634 -0.0436737 -0.13267088 -0.15079929 -0.10319914 -0.05389145 0.012062215
-0.09920458 0.024353234 -0.116892055 -0.05148203 -0.18587202 -0.13625443 0.04507857 -0.11175574
-0.10686055 0.07811276 0.2962725 -0.11200045 0.07286831 -0.043423224 0.06351303 -0.3302851
-0.04553504 0.23955354 -0.28437582 0.047781777 0.04367186 -0.26271358 -0.23801778 -0.04265505

fc2.bias f4 [84]
00000000: 1a29 4dbe e4eb 89be 5c06 a4bd 4603 aebd
00000010: 6873 b43b c5c9 f0bd dd66 d3bd 4a28 813e
00000020: 95b1 1b3f 3752 ea3d c102 c0bd aa7d 1dbc
00000030: 0687 283e e408 86bd 351b 763e 81bf ebbd
00000040: 3630 54be d105 a03e 4aff 01be cfd2 62bd
00000050: 9ad1 293e a22e e3bc 2e14 0ebd a8d2 d2bd
00000060: c74a 1bbe 62ce acbd abc1 683e 30af 173e
00000070: c9f4 e5bd ad7d c03d 5959 9e3d 0dee bb3d
00000080: 28d9 a0be d288 19be c356 02be 2377 913d
00000090: ed2c aa3d a5cd 213e d1ae 413e 718f 47bc
000000a0: 8bf1 bb3d a41f 17bd b999 90be 5266 95bd
000000b0: ee8f 093e bef4 9f3d 98a6 34bb 9966 0abd
000000c0: 9bfb 5b3e e690 92bd 20b9 64bd 4e0e 72bd
000000d0: adf9 903e f92d 323d ebb4 4bbd 8df8 49bd
000000e0: 37ab 00be 4ce3 43be cbae a3bd 64e4 b2be
000000f0: 737a 62bd fd01 95bd da45 423d a085 09be
00000100: 5af4 28bc f60e 52bc 3b00 02bb 8d0a 97be
00000110: a8be c23d 5470 193e b89c 15bc c833 04bd
00000120: 41e5 413e d5c6 ffbd 20cd e4bd 289b 243d
00000130: 2ee6 8c3d d7ef b03c ffcf ac3d 36ed 0f3c
00000140: 952a 0fbe 7203 433c 6582 06bc d350 973e
-0.2003521 -0.26937783 -0.080090255 -0.08496718 0.0055069216 -0.117572345 -0.10322354 0.2522605
0.60817844 0.114414625 -0.09375525 -0.00961248 0.16457757 -0.065446645 0.24033816 -0.11511136
-0.20721516 0.31254438 -0.12695041 -0.055376824 0.16583863 -0.027732197 -0.034687214 -0.10294086
-0.15165244 -0.08437802 0.22730128 0.14812922 -0.1122833 0.09398971 0.077318855 0.09176264
-0.31415677 -0.14993599 -0.1272841 0.07102802 0.0830935 0.15801103 0.18914343 -0.012180195
0.0917693 -0.03689541 -0.2824228 -0.07294907 0.13433811 0.07810353 -0.0027565118 -0.03378925
0.21482699 -0.071565434 -0.05584061 -0.059095673 0.28315488 0.043500874 -0.049733084 -0.049309302
-0.12565313 -0.19129676 -0.079923235 -0.34939873 -0.055292558 -0.0727577 0.047429897 -0.1342988
-0.010312164 -0.01282095 -0.0019836563 -0.29500237 0.09509021 0.14984256 -0.009131603 -0.032275945
0.1893511 -0.12489096 -0.11171937 0.04018703 0.06879841 0.02159874 0.084381096 0.008784583
-0.13981088 0.011902677 -0.008209799 0.2955385

fc3.weight f4 [10, 84]
00000000: 0d8f 14be 3850 14be b2b3 573f 8da7 ed3c
00000010: 4f5e 0bbd 5e0b 333f 6532 a8be e47a 07bf
00000020: b348 e9be 0cac 42be 37d7 b33e 6df2 31be
00000030: cf57 3bbe 9116 44be dacd e83d 797d 443d
00000040: b903 38be db86 463e a2c9 8d3e 7a0b cdbe
00000050: 0db3 e1be ddfa a2be 184a 87be 6d0d 83be
00000060: 7a13 0c3e 5a3b c3be 4dda 54bc cc92 b6be
00000070: 13fa e2be fd6b 23bf cd76 c0be b071 a93d
00000080: 1ac5 bebc b258 e3be d2c0 36be 9602 863e
00000090: e259 10be 5a53 efbd db45 2dbe 6219 b43e
000000a0: ab99 a2bc e258 cd3e bd2e 283e 30d5 2f3f
000000b0: 1365 933e 4563 3bbe e4f0 b73d be64 26be
000000c0: 1345 0bbe ac1a b33e df7f 863e 61b3 02bd
000000d0: 2597 d5bd 1d64 d8be 14cf aebe be08 823e
000000e0: 7b41 153b 7793 1cbe b423 2f3e 2686 073c
000000f0: b84b f0bb 98b8 a03e 9673 293e 03f0 e2be
00000100: 1e91 37bd 4b27 7abe b7ba 9d3e 749e 9fbe
00000110: fd0e b8be d026 813e 3637 0d3f 86ef 9c3f
00000120: c27a 5dbe bae6 fbbd db9a 7e3e dda4 963e
00000130: e36b 32be 1931 b13e 357b 23bd fa81 a8be
00000140: f6b2 0d3f 94f3 5fbd 4178 bdbd 52d0 8d3c
00000150: 0e5e e03e cba0 273e 2fd6 d53d 75c2 063e
00000160: 00a8 6c3f f1da f2bc 7f66 1dbe 9ce7 843f
00000170: ffcc bbbe a52f 80bc 3a07 0cbd abe1 24be
00000180: 6321 f3be b712 de3d 3096 263e e385 a9be
00000190: 5eac 273f 693b b4be 8179 35bd b145 433f
000001a0: e85a d73d e39f acbe 84b6 b93e 8170 cf3e
000001b0: 9365 d4bc 9a56 0ebe 279a 32be aaaf ba3e
000001c0: 6edb 9f3e e7cf 60bd cba5 d23d 54a7 c33d
000001d0: 7f5e 8bbd 6f9d 403c 43b8 8abe b815 acbe
000001e0: 2111 f4be f4ae abbe 2bb0 e7bd af4e 483e
000001f0: f2d5 96be bf7a 4dbd e195 9cbe 6e0c fa3d
00000200: 3167 9cbe 57d5 b3be c1bf ab3e 08c8 ecbe
00000210: c3cc 4fbe 40ba 243d 9228 093e 18f1 063f
00000220: 8f38 adbd dd47 1f3f 7c54 87be f3d8 03be
00000230: a8a7 1d3f d8c6 7dbe 1cde fb3c 24e0 603e
00000240: e5ea 96bd 61c6 5abe 2f6e 5dbe 1aca ba3e
00000250: 2400 973e d1bb e93d 571b f0be c922 b43f
00000260: d032 1a3f a870 d3be d034 f4bd 1ab7 21be
00000270: 72e1 76be 30ac 0abf 74ce 3fbe 6ddc d0be
00000280: 118e a6bd 50a4 b0bd 68d3 afbe 8920 963e
00000290: b518 58be a8c4 01be d192 0c3e 1471 68be
000002a0: ae85 49bd ad5a f9bd 5ced adbd fe5f da3e
000002b0: 20c5 923e b4c1 ed3c 49eb 69bd 3617 b9be
000002c0: acdc d93c 992f 9a3e 1ca2 23be 1c37 9b3e
000002d0: 65ed 8dbe 40bc d9bd 6784 febd 5710 7ebd
000002e0: 34ce 0d3f e44f 3abd 601e e6bd 36ee 3fbd
000002f0: b748 b63e 719c b83e cf4c 0abe 9c7e d63c
00000300: 3b3c 79be 0c09 bdbd 6eb7 e1be 0b6d 43be
00000310: fbda e33c 164f 27be 0c40 56bd 7044 d2bd
00000320: d7bf 423f 824e 82be 67cb 2a3e e774 58be
00000330: 16bb 263f 2bbf 293e 889a e6bd 6901 0cbd
00000340: 5de5 d43d bdcb 86be 2274 393e 80e1 ac3e
00000350: 7c08 1b3f 0281 9fbd 6c46 193e dc7b 4bbe
00000360: 2ae0 a2bd 587a 633e 7929 89be fb95 63bd
00000370: 6b5d 82be 84c2 b53e 9d47 15bd a338 b4be
00000380: 4058 51be dc7e 40be 714e 33bd 1f82 753d
00000390: 68d6 eabd 625e fb3d 6fec 243e 9f16 d7be
000003a0: ec2f 80be 943b 56be 5c22 73bd 7406 f9bd
000003b0: b637 d9bd e927 833e 2c6d 8bbe f60c 763e
000003c0: 2345 ffbd 3fe3 5fbe cc8b c5bd 561a 23be
000003d0: 3f2f 8dbd f502 dfbd d9e9 5d3e c472 f8bc
000003e0: 2371 e73d f0e4 473e cc09 83bd 878e 04be
000003f0: 847c 32be b302 56bc 1997 60be 0d2e 5cbd
-0.14507695 -0.14483726 0.8425857 0.029010559 -0.034025487 0.6993922 -0.32850948 -0.5292189
-0.45563278 -0.19010943 0.35125133 -0.17377634 -0.18295215 -0.19149233 0.11367388 0.047971223
-0.1797017 0.19387381 0.27692896 -0.40047818 -0.44081917 -0.31832018 -0.26423717 -0.2559618
0.13679305 -0.3813122 -0.0129915 -0.35658872 -0.44331416 -0.6383665 -0.37590638 0.08273637
-0.023287345 -0.44403607 -0.17846993 0.26173848 -0.14096788 -0.1168582 -0.16921179 0.35175616
-0.019848665 0.40106875 0.16424079 0.68684673 0.2878805 -0.18299587 0.08981493 -0.16249368
-0.13600568 0.34981287 0.26269433 -0.03190935 -0.10429219 -0.4226388 -0.34142363 0.25397295
0.0022774625 -0.15290628 0.17103463 0.00827173 -0.007333245 0.31390834 0.16547999 -0.4432374
-0.04481613 -0.24429052 0.30806515 -0.31175578 -0.35948935 0.25224924 0.5516237 1.2260597
-0.2162886 -0.12299867 0.2486376 0.29422656 -0.17423968 0.3460777 -0.03991242 -0.32911664
0.553512 -0.054675654 -0.09251452 0.017311249 0.43821758 0.16369931 0.10441243 0.13160117
0.9244385 -0.029645415 -0.1537113 1.0383182 -0.36679837 -0.015647719 -0.03418658 -0.1610171
-0.4748641 0.10843413 0.1626823 -0.3310996 0.65497386 -0.35201576 -0.04430533 0.76278216
0.10515386 -0.33715734 0.3627206 0.4051552 -0.02592734 -0.13900223 -0.17441617 0.36462146
0.312221 -0.05488577 0.10285529 0.095534 -0.06805133 0.011756285 -0.27093706 -0.3361032
-0.47669318 -0.33531916 -0.11312898 0.19561265 -0.29460102 -0.050165888 -0.305831 0.12209402
-0.3054748 -0.35123703 0.33544734 -0.46246362 -0.20292954 0.040216684 0.13394383 0.5271163
-0.08458053 0.6221903 -0.26431644 -0.12875728 0.6158395 -0.24782884 0.030745558 0.21960503
-0.07369021 -0.21364738 -0.21624063 0.36482316 0.29492295 0.11412776 -0.4689586 1.4073116
0.60233784 -0.41296887 -0.11924136 -0.15792504 -0.24109438 -0.5416899 -0.187311 -0.40793172
-0.08132566 -0.0862509 -0.34340978 0.29321697 -0.21103175 -0.12672675 0.13727881 -0.22699386
-0.049199753 -0.12175498 -0.08492538 0.4265136 0.2866602 0.029023029 -0.05710915 -0.3615052
0.026594482 0.3011444 -0.15979809 0.30315483 -0.2772018 -0.10631609 -0.124275975 -0.0620273
0.55392766 -0.045486346 -0.11236262 -0.046858035 0.35602352 0.36056855 -0.13505863 0.026183419
-0.24339382 -0.09230241 -0.44085258 -0.19084565 0.027814379 -0.16338763 -0.052307174 -0.1026696
0.76073974 -0.25450522 0.16679154 -0.21138345 0.6512922 0.16576831 -0.11259943 -0.034181032
0.1039531 -0.26327315 0.18110707 0.33765793 0.6055982 -0.07788278 0.1496827 -0.19871467
-0.07952912 0.22214639 -0.26789454 -0.055562954 -0.25461897 0.35499966 -0.03644525 -0.3519946
-0.20443821 -0.18798393 -0.04377598 0.059938546 -0.11466676 0.122738615 0.16105817 -0.42009446
-0.2503656 -0.20921165 -0.05935894 -0.12159434 -0.10606329 0.25616387 -0.2723173 0.24028382
-0.12464359 -0.21864031 -0.09645805 -0.15928015 -0.06893777 -0.10889236 0.21671237 -0.030328162
0.11300876 0.19520926 -0.06398353 -0.12944995 -0.17430311 -0.013062167 -0.21932639 -0.053754855

fc3.bias f4 [10]
00000000: 1db6 3ebf fd23 efbe f103 403e 0325 4e3f
00000010: eaf3 773f c9b1 36bf 1987 263f c087 31bf
00000020: c464 c03e 213f 8bbe
-0.7449663 -0.46707144 0.18751504 0.80525225 0.9685656 -0.7136503 0.6504989 -0.69347763
0.37576878 -0.271966
