round3/2025-04-18 18:26:11-weight-client-73d6de26-c.pth (torch, 252478 bytes, 10 tensors)

conv1.weight f4 [6, 3, 5, 5]
0	0x3e1ab68f	0.15108703
1	0x3d061d2b	0.03274266
2	0x3ea9ebf2	0.33187824
3	0xbd10afde	-0.03532397
4	0xbf09448f	-0.5362024
5	0xbe14dbb5	-0.14536937
6	0xbf065a9d	-0.52482015
7	0xbec506fa	-0.38481885
8	0xbf3de350	-0.74174976
9	0xbf862a9b	-1.0481752
10	0xbf51869d	-0.8184603
11	0xbfb82aa8	-1.4388018
12	0xbfb613f0	-1.4224834
13	0xbfb64c28	-1.4241991
14	0xbfc0392a	-1.5017445
15	0xbe8c974e	-0.27459186
16	0xbf1de50d	-0.6167763
17	0xbe8e32b6	-0.27773064
18	0xbed453f3	-0.41470298
19	0xbf3e3bf3	-0.74310225
20	0x3f307182	0.689232
21	0x3f872cc9	1.0560542
22	0x3f9ee5b7	1.2413853
23	0x3f4759c8	0.7787137
24	0x3eb30db7	0.349714
25	0x3f2f0653	0.68369025
26	0x3f15a640	0.584568
27	0x3f5448d7	0.82923645
28	0x3edec506	0.43509692
29	0xbdf65071	-0.12027062
30	0x3f02b552	0.5105792
31	0x3eb30fba	0.34972936
32	0x3ed8034a	0.4219001
33	0x3dbd667d	0.09248064
34	0xbebecbcc	-0.3726486
35	0xbe2644df	-0.1623721
36	0xbf3f6acb	-0.7477233
37	0xbf21c47e	-0.6319045
38	0xbf21df95	-0.63231784
39	0xbf4786c7	-0.7794003
40	0x3e0efffd	0.1396484
41	0x3d1c20f0	0.03811735
42	0x3eba8bfa	0.3643492
43	0x3db70300	0.08936119
44	0xbe5b49a8	-0.21414816
45	0x3f7aed9f	0.9801883
46	0x3fbcc80e	1.4748552
47	0x3fd2b95a	1.6462815
48	0x3f8f1ca0	1.1180611
49	0x3f2c161d	0.6722124
50	0x3e889c59	0.26681784
51	0x3ed36a1b	0.4129189
52	0x3f40bf2d	0.7529171
53	0x3e2087ab	0.15676753
54	0xbe865937	-0.2623994
55	0x3e0f5028	0.13995421
56	0x3da5fa79	0.081044145
57	0x3db61bcb	0.0889202
58	0xbe4702b9	-0.19434632
59	0xbf46f86c	-0.7772281
60	0xbf39b2a0	-0.72538185
61	0xbf93e03c	-1.1552806
62	0xbf8b4f4e	-1.0883577
63	0xbf89b0a1	-1.0757028
64	0xbf99c75c	-1.2013965
65	0xbed28a33	-0.41121063
66	0xbf14f444	-0.5818522
67	0xbea37608	-0.31925988
68	0xbec715b0	-0.38883734
69	0xbf392a61	-0.7233029
70	0x3e6d0782	0.23147395
71	0x3f47db0c	0.78068614
72	0x3f84945e	1.0357778
73	0x3ee06685	0.43828216
74	0xbd7405f1	-0.05957598
75	0xbf1ef66c	-0.6209476
76	0xbf6fcea2	-0.9367467
77	0xbed83468	-0.42227483
78	0xbf0ba87c	-0.5455396
79	0xbf1a2dfd	-0.6022642
80	0xbf2b57eb	-0.6693103
81	0xbf7cf23d	-0.98807126
82	0xbf0a8987	-0.541161
83	0xbee3f0b3	-0.44519576
84	0xbf46b3c1	-0.7761803
85	0xbf3e6492	-0.7437221
86	0xbf78c1c9	-0.9717069
87	0xbf082a2f	-0.5318937
88	0xbebedc4c	-0.37277448
89	0xbf686a89	-0.9078756
90	0xbf65db22	-0.89787495
91	0xbf1689c6	-0.58803976
92	0xbf1f5b52	-0.6224872
93	0xbf2ef07d	-0.68335706
94	0xbf424921	-0.75892836
95	0xbf58e3b7	-0.84722465
96	0xbed935f7	-0.42423984
97	0xbee1bc4c	-0.44088972
98	0xbf216ac4	-0.63053536
99	0xbf1b0fdf	-0.6057109
100	0x3cc7c434	0.02438555
101	0xbd91c9d9	-0.071185775
102	0x3ed3d505	0.41373459
103	0x3f0386f3	0.5137779
104	0x3e4a8b05	0.19779594
105	0x3d91af6b	0.071135364
106	0x3c9163a7	0.017747713
107	0x3ed49b1c	0.4152459
108	0x3f2b6544	0.66951394
109	0x3de62b3b	0.11238714
110	0xbc8cb1c8	-0.017174616
111	0x3c6fa937	0.014627746
112	0x3f16fbfa	0.58978236
113	0x3f43e019	0.7651382
114	0x3d83eea8	0.064420044
115	0xbd823c38	-0.06359142
116	0x3e47b92d	0.19504233
117	0x3e9f689e	0.31134504
118	0x3eac04df	0.33597466
119	0x3c74c328	0.014939107
120	0xbe61d572	-0.22054079
121	0x3e7afdac	0.2451083
122	0x3e9330ed	0.28748265
123	0x3e91a8db	0.2844914
124	0x3dc24ab9	0.094869085
125	0xbe83d6a6	-0.257497
126	0xbea8895d	-0.329173
127	0x3e3260d9	0.17419757
128	0x3e8f866a	0.28032237
129	0xbe155775	-0.14584143
130	0xbe1bed64	-0.15227276
131	0xbe8680b0	-0.26270056
132	0x3ed01fd6	0.4064929
133	0x3ea77d40	0.32712746
134	0xbe20cbc2	-0.15702727
135	0xbe527954	-0.20554096
136	0xbe1d470f	-0.15359138
137	0x3e8d6c19	0.27621534
138	0x3ed17ed2	0.4091707
139	0xbe6f5935	-0.23373874
140	0xbea3b95d	-0.31977358
141	0x3cb03826	0.021511149
142	0x3c7b529a	0.015339518
143	0x3b930268	0.004486371
144	0xbea08163	-0.31348714
145	0xbefb1cd3	-0.4904543
146	0xbd8d7f4c	-0.069090456
147	0x3d57061c	0.05249606
148	0xbc6e068a	-0.014527926
149	0xbe96724f	-0.29384086
150	0xbebce5a7	-0.3689396
151	0xbe28926f	-0.1646211
152	0xbdad7a94	-0.084706455
153	0xbe21e4bd	-0.15809913
154	0xbf03775d	-0.5135401
155	0x3db0e2b9	0.08636994
156	0x3d380f4f	0.044936474
157	0x3e0f1474	0.13972646
158	0x3e1b3114	0.1515544
159	0xbc915e36	-0.017745119
160	0x3e95cb43	0.2925664
161	0x3e90eac7	0.2830412
162	0x3e38cb66	0.1804634
163	0x3e7748af	0.2414882
164	0x3eb95a31	0.36201623
165	0x3ea5ce12	0.32383782
166	0xbe004496	-0.12526163
167	0xbe467ded	-0.19383974
168	0xbc87b2f1	-0.016564818
169	0x3e8ac609	0.27104214
170	0x3e31d0e5	0.17364843
171	0xbd256ba8	-0.040385872
172	0xbe999a73	-0.30000648
173	0xbe316314	-0.17322952
174	0x3e3e9b2b	0.1861388
175	0x3d1b350e	0.037892394
176	0x3eb9a22b	0.36256537
177	0x3ed0b07a	0.4075964
178	0x3d95cd94	0.073146015
179	0xbef09d29	-0.46994904
180	0x3deb5baf	0.11492097
181	0x3e7fcdc3	0.24980836
182	0x3e8dab93	0.27669963
183	0x3af38891	0.0018580129
184	0xbeb82699	-0.35966948
185	0xbc013cad	-0.007888001
186	0x3c46e7c2	0.012140216
187	0xbca1892e	-0.019718733
188	0xbe4a11f5	-0.19733413
189	0xbeb86c9d	-0.36020365
190	0xbf05453a	-0.52058756
191	0xbf2ea27b	-0.68216676
192	0xbf55af26	-0.8347038
193	0xbf4a92b1	-0.79130083
194	0xbf235298	-0.63797903
195	0xbf3d4a83	-0.7394182
196	0xbf7e2c1c	-0.99286056
197	0xbf809f0b	-1.0048536
198	0xbf889cd2	-1.0672858
199	0xbf6ee8ce	-0.9332398
200	0x3f95cf06	1.1703804
201	0x3fc80665	1.5626951
202	0x3fd1020e	1.6328752
203	0x3fb444af	1.408346
204	0x3ec29c18	0.38009715
205	0x3f9ca1aa	1.2236836
206	0x3fc7ed06	1.5619209
207	0x3fce2a35	1.610663
208	0x3fa9eeda	1.3276017
209	0x3f4432b9	0.76639897
210	0x3fa989b0	1.3245144
211	0x3fa67f99	1.300769
212	0x3fae228c	1.3604293
213	0x3f8f4a76	1.1194599
214	0x3f3a5495	0.7278531
215	0x3f10651b	0.56404275
216	0x3f02df98	0.51122427
217	0x3f0004c4	0.5000727
218	0x3ebea4b1	0.37235025
219	0x3eba4c12	0.36386162
220	0x3f04d257	0.51883453
221	0x3e8b73cf	0.27236792
222	0x3e169312	0.1470454
223	0x3e194d23	0.14970832
224	0xbd8cb4bc	-0.0687041
225	0xbf16a990	-0.5885248
226	0xbeacc2d0	-0.3374238
227	0xbe50d415	-0.20393403
228	0xbf109b67	-0.56487125
229	0xbf5f358a	-0.8719107
230	0x3d09a075	0.03360029
231	0x3e83bcda	0.2573002
232	0x3e3759b5	0.17905314
233	0xbbc78a2a	-0.0060894685
234	0xbe52b82e	-0.20578071
235	0x3e1382d0	0.1440537
236	0xbd605330	-0.054766834
237	0xbdaba437	-0.08380931
238	0xbe5ac1fa	-0.21363059
239	0xbe80fc10	-0.25192308
240	0xbee815f5	-0.45329252
241	0xbf4bb9d7	-0.79580444
242	0xbf44394b	-0.7664992
243	0xbf01793b	-0.5057561
244	0xbed973a7	-0.42471048
245	0xbf1fc7ec	-0.6241443
246	0xbf661eaf	-0.8989057
247	0xbf66cddc	-0.90157866
248	0xbf467f23	-0.77537745
249	0xbf06cf58	-0.5266013
250	0xbeecc4c0	-0.46243858
251	0xbe3cafcf	-0.1842644
252	0xbe33410d	-0.17505284
253	0xbe8b1033	-0.27160797
254	0xbf309941	-0.68983847
255	0x3e487651	0.19576384

conv1.bias f4 [6]
0	0x3e7249fc	0.23661035
1	0xc0014e8a	-2.0204186
2	0xc083b80a	-4.1162157
3	0xc07e8a55	-3.977193
4	0xbf6786d0	-0.9044008
5	0x400138a9	2.0190833

conv2.weight f4 [16, 6, 5, 5]
0	0xbe22db95	-0.15904076
1	0xbd915a2e	-0.070972785
2	0x3d0a83b1	0.033816997
3	0x3c73c6d2	0.014878945
4	0xbeb0c63b	-0.34526238
5	0x3d27fbde	0.041011684
6	0x3aeac199	0.001791048
7	0x3dd31ff7	0.10308831
8	0xbba9126e	-0.0051596677
9	0xbea5df44	-0.323969
10	0xbe626c4a	-0.22111621
11	0xbe3bb52a	-0.18330827
12	0xbdafe4ad	-0.08588538
13	0xbdb64c00	-0.089012146
14	0xbe2e731c	-0.17036098
15	0x3da47beb	0.08031448
16	0xbc9c1b94	-0.019056119
17	0xbdf8919c	-0.12137148
18	0x3c21f6bc	0.009885486
19	0x3d0cdac7	0.03438833
20	0xbc75651d	-0.014977721
21	0xbaec53ba	-0.0018030324
22	0xbc9021c9	-0.017594235
23	0x3cad3af3	0.021146273
24	0x3de90d8e	0.113795385
25	0xbe91e934	-0.28498232
26	0xbe88cd16	-0.26718968
27	0x3ca11e97	0.019667907
28	0x3de1a57c	0.11017892
29	0x3e11361e	0.141808
30	0xbeaeeec7	-0.34166548
31	0xbe70fa63	-0.23533015
32	0x3cc2694a	0.023731846
33	0x3d839028	0.0642398
34	0xbd242cb8	-0.04008171
35	0xbec7a433	-0.38992462
36	0xbe55edbf	-0.20891474
37	0xbd3b28ae	-0.045693092
38	0xbdbb409f	-0.09143185
39	0xbb088f7c	-0.0020837476
40	0xbe33e9be	-0.17569634
41	0x3d118fa4	0.035537377
42	0x3e1c19d1	0.15244223
43	0x3dec75b0	0.115458846
44	0x3deae0f7	0.1146869
45	0x3e80eac9	0.25179127
46	0x3ea34ad8	0.3189304
47	0x3ea7a309	0.32741573
48	0x3e2a5cc1	0.16636945
49	0x3e43ed68	0.19133532
50	0xbee628a0	-0.4495287
51	0xbf145d4b	-0.57954854
52	0xbeb67926	-0.35639304
53	0x3d9a97f7	0.07548516
54	0x3ebb695e	0.36603826
55	0xbf4a00b0	-0.789073
56	0xbf29776e	-0.6619786
57	0xbdaae710	-0.08344853
58	0x3eccea32	0.40022427
59	0x3f0d4e97	0.55198044
60	0xbf48b8b1	-0.78406817
61	0xbf003fd9	-0.50097424
62	0x3df784eb	0.12085899
63	0x3eaaedef	0.33384654
64	0x3e89826a	0.2685731
65	0xbf5786ca	-0.84190047
66	0xbf0518ea	-0.5199114
67	0xbd366aa5	-0.044535298
68	0x3dbdcd22	0.092676416
69	0xbd8d1495	-0.06888691
70	0xbf28abba	-0.65887034
71	0xbe7319ed	-0.23740359
72	0x3a39bebf	0.00070856133
73	0xbd7c0d49	-0.061536107
74	0xbd7f6726	-0.06235423
75	0xbe011612	-0.12606075
76	0xbede36ca	-0.43401176
77	0xbe7ce8dd	-0.24698205
78	0x3db3bffa	0.08776851
79	0x3e46d9b2	0.19418982
80	0xbf272f45	-0.653065
81	0xbf19d562	-0.6009122
82	0xbe68bd33	-0.22728424
83	0x3e8c87d9	0.27447394
84	0x3eeffe50	0.46873713
85	0xbf5a58e1	-0.8529187
86	0xbf11c226	-0.5693687
87	0xbe2ae091	-0.16687228
88	0x3e3e5ab1	0.18589284
89	0x3e62b4c9	0.22139277
90	0xbefed03b	-0.49768242
91	0xbe9cfa51	-0.30659726
92	0xbdcff74a	-0.101545885
93	0x3d99804f	0.07495176
94	0x3e875953	0.26435336
95	0xbe46e833	-0.19424514
96	0xbe9120ad	-0.28345242
97	0xbe11a322	-0.14222386
98	0xbd33dc12	-0.043911047
99	0x3ea0f566	0.31437224
100	0xbf09bcd0	-0.5380373
101	0xbf446ee5	-0.7673171
102	0xbf11070b	-0.5665137
103	0xbe2adadc	-0.1668505
104	0xbd615b39	-0.055018637
105	0xbf7d8918	-0.99037313
106	0xbf8ed92e	-1.1160028
107	0xbf171b29	-0.5902582
108	0xbe58468d	-0.21120663
109	0x3c6e6074	0.014549363
110	0xbf3f598b	-0.74746007
111	0xbf51439c	-0.8174379
112	0xbe314b4c	-0.1731388
113	0x3e092b52	0.13395432
114	0x3e7f955a	0.24959317
115	0xbe824edb	-0.25450787
116	0xbdbd09e2	-0.092304006
117	0x3df6cbdc	0.12050602
118	0x3e8d6777	0.27618
119	0x3f0b3972	0.5438453
120	0x3d926f1c	0.07150099
121	0x3ddf9290	0.109166265
122	0x3e998d88	0.29990792
123	0x3ec2a60c	0.3801731
124	0x3f079809	0.5296636
125	0xbd81c06e	-0.06335531
126	0x3eb780c2	0.35840422
127	0x3f2ade3d	0.6674536
128	0x3e3afaf9	0.18259801
129	0xbe5b5fb7	-0.21423231
130	0x3de178eb	0.110093914
131	0x3f54ea55	0.8317006
132	0x3eeff453	0.46866092
133	0xbe700275	-0.23438437
134	0xbed13f9b	-0.4086884
135	0x3d1092fa	0.035296418
136	0x3f21e33d	0.63237363
137	0x3cadbb85	0.02120758
138	0xbf182824	-0.5943625
139	0xbef308c0	-0.47467613
140	0xbd5990a3	-0.053116452
141	0x3ebd2e48	0.36949372
142	0xbeccf37f	-0.40029523
143	0xbf10084d	-0.56262666
144	0xbf09aaa1	-0.53775984
145	0x3cda7c38	0.02667056
146	0x3e512325	0.20423563
147	0xbeab4e3f	-0.33458135
148	0xbe9877e7	-0.29778978
149	0xbef8891d	-0.4854211
150	0xbd40600e	-0.046966605
151	0x3e1bbad5	0.1520799
152	0x3db77a44	0.08958867
153	0xbd7bd0cf	-0.061478432
154	0xbe2290d8	-0.15875566
155	0x3e5c06fd	0.21487041
156	0x3e090b5a	0.13383237
157	0x3e5b9232	0.21442488
158	0x3e5c46d3	0.21511392
159	0xbe0d0bfa	-0.137741
160	0x3e1276b9	0.14303102
161	0x3e20ef0c	0.15716189
162	0x3e800f26	0.25011557
163	0x3e1bfbce	0.15232775
164	0xbed01f08	-0.40648675
165	0x3d9c1205	0.076206245
166	0x3e726761	0.23672248
167	0x3ecdc4c8	0.40189195
168	0x3de234fd	0.11045263
169	0xbed09d0e	-0.40744823
170	0xbe20a8a1	-0.15689327
171	0x3c6a6040	0.014305174
172	0x3c3eb072	0.0116387475
173	0xbe429978	-0.19003856
174	0xbeae9ba9	-0.34103134
175	0x3da1c772	0.07899369
176	0xbdb365cc	-0.087596506
177	0xbdd3330e	-0.10312472
178	0xbe5188a8	-0.20462286
179	0xbee46954	-0.4461161
180	0x3e55b302	0.20869067
181	0x3e3d1950	0.18466687
182	0x3e18abf0	0.14909339
183	0xbdd06347	-0.10175186
184	0xbee3f49b	-0.44522557
185	0x3dde6cde	0.108606085
186	0x3e058dd5	0.13042386
187	0x3ddeb766	0.10874824
188	0xbdd4b5ca	-0.10386236
189	0xbedfa39e	-0.43679518
190	0x3e68260b	0.22670762
191	0x3e395d5c	0.1810202
192	0x3d2e8c0f	0.04261404
193	0xbdbe964e	-0.09306012
194	0xbe306fc6	-0.17230138
195	0x3d8ca658	0.06867665
196	0xbc9c7916	-0.019100707
197	0xbdce4bf4	-0.10073081
198	0xbe8f93a8	-0.2804234
199	0xbe82fe8d	-0.25584832
200	0xbea9f185	-0.33192077
201	0xbe592059	-0.21203746
202	0xbec54981	-0.38532642
203	0xbecd74dc	-0.4012822
204	0xbed0a975	-0.40754285
205	0xbed4f1d8	-0.41590762
206	0xbecb33db	-0.39688
207	0xbebae4e8	-0.36502767
208	0xbef2beb2	-0.47411114
209	0xbeed73ab	-0.4637731
210	0xbeec13d5	-0.4610888
211	0xbedd7a0c	-0.43257177
212	0xbee24e8f	-0.4420056
213	0xbea955e3	-0.3307334
214	0xbe72a876	-0.23697075
215	0xbe493664	-0.19649655
216	0xbdffd432	-0.12491645
217	0xbe8f00d7	-0.27930328
218	0xbe4eb3af	-0.20185731
219	0xbd872075	-0.065979876
220	0xbedcb833	-0.43109283
221	0xbec1f25b	-0.37880215
222	0xbf069af1	-0.5258017
223	0xbee6ab2b	-0.45052466
224	0xbebae940	-0.3650608
225	0xbf0fde7c	-0.5619886
226	0xbf0c9672	-0.5491706
227	0xbd16201b	-0.036651712
228	0x3e840bd4	0.25790274
229	0x3edc81e9	0.43067864
230	0xbf261656	-0.6487783
231	0xbf2db9d3	-0.6786167
232	0xbd03940c	-0.03212361
233	0x3efc5716	0.4928519
234	0x3f07fd73	0.5312111
235	0xbf3d848f	-0.74030393
236	0xbf497a57	-0.787023
237	0xbe9c1d4e	-0.30491108
238	0x3ecc3f99	0.3989227
239	0x3f0a5976	0.54042757
240	0xbf1f472c	-0.62217975
241	0xbef1355d	-0.47111025
242	0xbe2970bb	-0.1654691
243	0x3e93622e	0.28785843
244	0x3ec5440c	0.38528478
245	0xbee7830c	-0.45217168
246	0xbe4932f4	-0.19648343
247	0xbde8f87c	-0.1137552
248	0xbd62b3a9	-0.05534712
249	0x3da68211	0.08130277
250	0xbe8d32fa	-0.27577955
251	0xbe17c7fb	-0.1482238
252	0xbe5e3612	-0.21700314
253	0xbe45214d	-0.19250984
254	0xbeee105f	-0.46496865
255	0xbe240ca7	-0.16020451

conv2.bias f4 [16]
0	0xbeff5826	-0.4987194
1	0x3e82f353	0.25576267
2	0xbf1dc1d4	-0.61623883
3	0x3ecede4d	0.40403977
4	0xbf7495ff	-0.95541376
5	0xbeda8eb9	-0.42687014
6	0x3e5c54db	0.21516745
7	0x3ea6f634	0.32609713
8	0xbf8846e2	-1.0646632
9	0xbe5682bf	-0.20948313
10	0xbf258138	-0.646503
11	0xbdb151e5	-0.08658198
12	0x3ea44cce	0.32089847
13	0xbf380bf3	-0.71893233
14	0x3d990ac6	0.07472758
15	0x3f1dad33	0.61592406

fc1.weight f4 [120, 400]
0	0xbe9d46bb	-0.30718026
1	0xbd73d7e9	-0.05953208
2	0x3dcbb503	0.099466346
3	0xbd88e0f4	-0.066835314
4	0xbe1ce4be	-0.15321633
5	0xbda23b4b	-0.079214655
6	0xbd910b9d	-0.07082293
7	0xbdf5ed40	-0.120081425
8	0xbdc71e0c	-0.09722528
9	0xbe194543	-0.14967827
10	0x3e01f0d2	0.12689522
11	0xbea4281d	-0.32061854
12	0xbe533d13	-0.20628767
13	0xbe55ab54	-0.20866138
14	0xbe944fd3	-0.2896715
15	0x3e391a93	0.18076544
16	0xbe1dc001	-0.15405275
17	0xbe5968b0	-0.21231341
18	0xbe99902c	-0.29992807
19	0xbe2247b2	-0.15847662
20	0x3ea791e1	0.32728484
21	0x3dc5ef25	0.09664754
22	0xbe3bc27d	-0.1833591
23	0xbe852807	-0.260071
24	0xbc4fc9e9	-0.0126824165
25	0xbdd311fc	-0.103061646
26	0xbdabc2d6	-0.083867714
27	0xbdcdbfeb	-0.10046371
28	0xbd9874f9	-0.07444186
29	0xbe82bba5	-0.25533786
30	0xbdde67c1	-0.10859633
31	0xbe13a452	-0.14418152
32	0xbdf706b3	-0.12061825
33	0xbe1279bb	-0.14304249
34	0xbe2ff5aa	-0.17183557
35	0xbe1ce424	-0.15321404
36	0xbded657d	-0.11591623
37	0xb9523843	-0.0002004812
38	0xbd43a246	-0.047762178
39	0xbe03f863	-0.12887721
40	0xbd064f7e	-0.032790653
41	0xbd1efba2	-0.038814195
42	0xbccbfb9e	-0.024900254
43	0x3d9426cf	0.07233965
44	0xbdac01f1	-0.08398808
45	0x3d48d3f0	0.049030244
46	0xbc89aebf	-0.016806958
47	0x3d15af28	0.036543995
48	0x3d71e574	0.059056714
49	0x3c4bde51	0.012443141
50	0xbdd9e1ef	-0.106387965
51	0xbd7e3d62	-0.062070258
52	0xbde69642	-0.11259128
53	0xbe0992e9	-0.13434948
54	0xbd9982c9	-0.074956484
55	0xbcda502a	-0.026649553
56	0x3caed1c4	0.021340258
57	0x3b21f313	0.0024711534
58	0xbc817ce1	-0.015806617
59	0x3d3af12a	0.04564015
60	0x3d5f34ae	0.0544936
61	0x3dd18e17	0.102321796
62	0x3d503aa8	0.05083719
63	0x3c7c235c	0.01538929
64	0xbd96131e	-0.07327865
65	0x3e04c3b2	0.12965277
66	0x3e150403	0.14552312
67	0x3e2368ae	0.15957901
68	0x3d3e879b	0.046516042
69	0xbd756a96	-0.0599161
70	0x3e048c94	0.12944251
71	0x3e00f9ef	0.12595342
72	0x3dba01c1	0.09082366
73	0x3d973a3d	0.07384155
74	0xbd2fc955	-0.042916615
75	0x3d2f6a5c	0.04282604
76	0x3c8f7a0d	0.017514253
77	0xbd4b8b65	-0.049693484
78	0xbd404f7a	-0.046950795
79	0xbc207f4b	-0.009795974
80	0x3c671930	0.014105126
81	0x3c315737	0.010824016
82	0xbd52d0a3	-0.051468503
83	0x3d25d85b	0.040489536
84	0x3ca9f841	0.02074826
85	0x3b8f2378	0.004368242
86	0xbd7f14b3	-0.0622756
87	0xbbd01e10	-0.00635124
88	0xbd530edf	-0.051527854
89	0xbcabac9d	-0.020956332
90	0xbd39552a	-0.045247234
91	0xbd1483b8	-0.03625843
92	0xbd0710ad	-0.032974888
93	0xbd5b282e	-0.053505115
94	0xbbc48e3d	-0.0059984014
95	0xbd1a486e	-0.03766673
96	0xbcff5970	-0.031170577
97	0xbd199b2f	-0.03750151
98	0x3c13f7fc	0.009031292
99	0x3ca10303	0.019654756
100	0x3d8759a8	0.066088974
101	0x3d1c7504	0.038197532
102	0xbc0303b2	-0.0079964865
103	0xbc2c2c3a	-0.010508591
104	0xbd8323aa	-0.06403287
105	0xbe7d68c6	-0.24746999
106	0xbe956a3a	-0.29182607
107	0xbe43159d	-0.19051214
108	0xbe42c916	-0.1902202
109	0xbe8f1d13	-0.2795187
110	0xbe9e740f	-0.3094792
111	0xbe390c03	-0.18070988
112	0xbdf20a2d	-0.11818347
113	0xbe549ebe	-0.2076368
114	0xbdca7789	-0.09886081
115	0x3da2bbe2	0.07945992
116	0x3d97477f	0.07386684
117	0x3dee6513	0.11640372
118	0x3eaeb949	0.34125736
119	0x3ed295ef	0.41130015
120	0x3eb4f469	0.3534272
121	0x3eaf306a	0.34216624
122	0x3f1a7716	0.6033796
123	0x3f3431f9	0.7038875
124	0x3f594f0a	0.8488623
125	0x3e34b353	0.17646532
126	0x3e545b49	0.20737948
127	0x3d669506	0.056294464
128	0x3b9453c3	0.0045265867
129	0xbc746ce6	-0.014918542
130	0x3b9fd8ce	0.00487814
131	0xbd7323b0	-0.059360206
132	0xbded5e17	-0.11590212
133	0xbd427405	-0.047473926
134	0xbe06aaf7	-0.13151155
135	0x3d5fcf19	0.054640863
136	0x3c6614b3	0.014043021
137	0xbd034a17	-0.03205308
138	0x3c0078c9	0.007841297
139	0x3dacff89	0.08447177
140	0xbc37f21b	-0.011227156
141	0xbd2f7720	-0.042838216
142	0x3d978c07	0.07399755
143	0x3dc5e143	0.09662106
144	0x3e42ede2	0.19036058
145	0x3d92cd0d	0.071680166
146	0x3da703c0	0.08155012
147	0xbae28bd2	-0.0017284101
148	0xbc9b74dc	-0.018976621
149	0x3d1ac727	0.037787583
150	0x3d484a30	0.048898876
151	0xbcde84de	-0.027162965
152	0x3d174823	0.03693403
153	0x3e23d9d5	0.16001065
154	0x3df60da6	0.12014322
155	0x3d0d043f	0.034427878
156	0x3d3a64f0	0.045506418
157	0x3e04df2f	0.12975763
158	0x3df38986	0.11891465
159	0xbcc30016	-0.023803752
160	0x3ca4e7af	0.020130007
161	0x3d56c4f6	0.05243393
162	0x3d709da0	0.058744073
163	0x3c900652	0.017581139
164	0x3cd44ed6	0.025916498
165	0x3d68d9df	0.056848403
166	0xbaa39e9d	-0.0012483184
167	0xba821c7b	-0.0009926701
168	0x3ce8ae8c	0.028403543
169	0x3dffe45b	0.12494727
170	0x3cafb187	0.021446956
171	0x3cd6f55b	0.026240041
172	0x3da8bd6a	0.08239253
173	0xbd3b08b1	-0.045662586
174	0x3e2aadf6	0.16667923
175	0x3e985fac	0.29760492
176	0x3e9cc37e	0.306179
177	0x3e7b4628	0.24538481
178	0x3e42059e	0.18947455
179	0x3e2cc78d	0.16872998
180	0x3e875f93	0.26440105
181	0x3e19a4ae	0.15004227
182	0x3ded5c46	0.115898654
183	0x3e1b18a9	0.15146126
184	0x3de04917	0.10951441
185	0x3e5d2176	0.21594796
186	0x3e139bcb	0.14414899
187	0x3d6c40a7	0.057678845
188	0x3c9b7ad2	0.018979464
189	0xbd647ed8	-0.05578503
190	0x3d8d5cfc	0.06902501
191	0xbcecf17e	-0.028923746
192	0xbd73650b	-0.059422534
193	0x3d2ce1d0	0.04220754
194	0xbd3ce04f	-0.046112355
195	0x3df95168	0.1217373
196	0xbba7a47f	-0.005116045
197	0xbdd2eb5f	-0.102988
198	0xbdd8faab	-0.10594686
199	0xbd92ef48	-0.071745455
200	0xbd17571e	-0.036948316
201	0x3d6d9744	0.058005586
202	0xbde3bc56	-0.111199066
203	0xbdb34294	-0.08752933
204	0xbdfc557a	-0.12320991
205	0x3dfc8adb	0.12331172
206	0x3e4c7414	0.19966155
207	0x3e88a679	0.2668951
208	0x3eaa6425	0.3327953
209	0x3ed34ef0	0.41271162
210	0x3df7f0e6	0.121064946
211	0x3d0d6ff6	0.034530602
212	0x3e834094	0.25635207
213	0x3eba5c2c	0.36398447
214	0x3e9c87fe	0.30572504
215	0x3ce31cce	0.027723696
216	0x3d898ea3	0.06716659
217	0x3d9bfd47	0.07616668
218	0xbd1ab42f	-0.037769493
219	0x3db6b3bd	0.08921001
220	0xbe2f978f	-0.17147659
221	0xbdb34ddc	-0.08755085
222	0xbe4dcc0d	-0.2009737
223	0xbe880c20	-0.2657175
224	0xbe660a1e	-0.22464797
225	0x3d5ef2fa	0.05443094
226	0x3d1799ec	0.037012026
227	0x3cb66fd3	0.022270119
228	0x3da6f8fa	0.08152957
229	0x3e69c6e2	0.22829774
230	0xbc916ad6	-0.017751139
231	0xbc810f10	-0.015754253
232	0xbd401ef6	-0.046904527
233	0x3d4eea2c	0.050516292
234	0x3e7eed24	0.2489515
235	0xbdfc6d7c	-0.1232557
236	0xbd20ec8f	-0.0392881
237	0x3c6db781	0.014509083
238	0x3c27ccc9	0.010241696
239	0x3e059747	0.13045989
240	0xbd2c851a	-0.042119123
241	0xbcfab89a	-0.030605603
242	0xbc85a612	-0.01631454
243	0x3d8f66d4	0.07002035
244	0x3e75fe7e	0.24022862
245	0xbc9017c1	-0.017589452
246	0x3e659ba9	0.22422661
247	0x3eaad7fa	0.33367902
248	0x3e8f88a2	0.2803393
249	0x3eabad7f	0.33530805
250	0x3cffc408	0.031221405
251	0xbcaf479e	-0.021396454
252	0x3e4b4de1	0.19853927
253	0x3bef9ee5	0.007312643
254	0x3c10677f	0.008813738
255	0xbd376f3a	-0.04478381

fc1.bias f4 [120]
0	0x3d16bd63	0.036801707
1	0x3d050cc0	0.032482862
2	0xba3dccc7	-0.0007240292
3	0x3e03c8ed	0.12869616
4	0xbd53e9ab	-0.051736515
5	0x3bf47400	0.0074601173
6	0xbdd2d3b8	-0.102942884
7	0x3e1c7dd2	0.15282372
8	0x3da96b60	0.08272433
9	0x3c933277	0.0179684
10	0xbcdcf47e	-0.026972052
11	0xbd3cabd2	-0.046062298
12	0xbd069e1e	-0.032865636
13	0xbe0274d2	-0.12739876
14	0xbd2539dd	-0.040338386
15	0xbe6a99c8	-0.22910225
16	0xbd733b0d	-0.059382487
17	0xbe28a8b8	-0.16470611
18	0xbde77eba	-0.11303468
19	0x3d3747c9	0.044746194
20	0x3db45575	0.08805362
21	0x3cdf7bdd	0.027280742
22	0xbd892762	-0.06696965
23	0x3db17662	0.08665158
24	0x3dc74a37	0.09730952
25	0x3cc46640	0.023974538
26	0xbe219523	-0.15779547
27	0xbd900f78	-0.070342004
28	0xbdb1004c	-0.08642635
29	0xbdc132ac	-0.09433493
30	0x3d4be9de	0.04978358
31	0xbc89f5d7	-0.016840858
32	0x3dc21727	0.09477072
33	0xbe06b327	-0.13154279
34	0xbde8e18d	-0.113711454
35	0x3de6c8f7	0.112688
36	0x3d7ad3f8	0.061237305
37	0xbdbc26a3	-0.09187057
38	0x3d0de11b	0.034638505
39	0x3c18676b	0.0093020005
40	0x3ced192d	0.028942669
41	0xbd364406	-0.044498466
42	0xbdc7ba70	-0.09752357
43	0xbde62e7c	-0.11239335
44	0x3e76a753	0.24087267
45	0xbd1d8e00	-0.0384655
46	0x3d8531e8	0.065036595
47	0xbcda6fdf	-0.026664672
48	0xbdc4ebcc	-0.09615287
49	0xbdeca90d	-0.115556814
50	0x3d8760be	0.06610249
51	0x3d3d8bee	0.046276025
52	0xbd6d6b50	-0.05796367
53	0x3d2d33db	0.04228578
54	0xbdf2ac6c	-0.11849293
55	0x3dae17d4	0.085006386
56	0x3daffde1	0.085933454
57	0x3ce01218	0.027352378
58	0xbdc44222	-0.09582926
59	0x3dbc28ed	0.091874935
60	0x3cec0194	0.028809346
61	0xbe16ed9f	-0.14739083
62	0xbda198b1	-0.07890452
63	0x3ddf97f1	0.109176524
64	0x3db4f629	0.08836014
65	0x3d3a4253	0.045473408
66	0xbd92340f	-0.07138836
67	0x3cbc5768	0.022990897
68	0x3e0e56c7	0.1390029
69	0x3d08dce4	0.033413783
70	0xbdd35308	-0.10318571
71	0xbd119ff1	-0.035552923
72	0x3dd0aab1	0.10188807
73	0x3e3fe674	0.18740255
74	0x3cb46d4a	0.02202477
75	0xbd7b5d0f	-0.061368044
76	0x3e34b451	0.1764691
77	0x3d909638	0.07059902
78	0xbdc4e2b6	-0.09613554
79	0xbd4054a1	-0.04695571
80	0xbb42caf6	-0.0029723025
81	0x3de4df1d	0.11175368
82	0xbdd6ba17	-0.104847126
83	0xbe50b401	-0.20381166
84	0xbd7a34a6	-0.061085366
85	0x3d9897c7	0.07450824
86	0xbb1caa64	-0.0023905272
87	0xbdaa9605	-0.08329395
88	0xbbfd051c	-0.0077215564
89	0x3d02b501	0.0319109
90	0x3d869c73	0.06572809
91	0xbe5a996a	-0.21347585
92	0x3dc0126b	0.09378513
93	0x3df89e30	0.12139547
94	0xbe3f6cf1	-0.18693902
95	0xbd7da101	-0.061921123
96	0x3e261f1b	0.16222803
97	0x3d2abf1f	0.041686174
98	0x3ca693be	0.02033412
99	0xbd8f617d	-0.07001016
100	0xbdf974d3	-0.121804856
101	0xbd981b2b	-0.07427057
102	0x3da52880	0.080643654
103	0xbd6d8083	-0.057983886
104	0x3c607014	0.0136985965
105	0xbdedf81f	-0.11619591
106	0xbdfbac60	-0.12288737
107	0x3ccb7f47	0.024840964
108	0x3d893e35	0.06701318
109	0x3e557445	0.20845135
110	0xbe282de8	-0.16423762
111	0xbdb53b5d	-0.08849213
112	0xb9712c2d	-0.00023000008
113	0xbdc72a56	-0.09724872
114	0xbdffa3ed	-0.12482438
115	0xbc67f8ff	-0.014158486
116	0x3bc764d5	0.006085018
117	0x3d956f21	0.07296587
118	0xbd631c36	-0.055446826
119	0x3d0560db	0.03256307

fc2.weight f4 [84, 120]
0	0xbcf2b465	-0.029627034
1	0xbdb57922	-0.08860995
2	0xbe0ac78b	-0.13552682
3	0x3d9973fa	0.07492824
4	0xbdaf05e4	-0.085460454
5	0x3db996ed	0.0906199
6	0xbd9c9c48	-0.07646996
7	0xbdf6c031	-0.12048376
8	0x3c3bd34e	0.011463953
9	0x3d75e08f	0.06002861
10	0x3d2dc592	0.042424746
11	0xbd4649a8	-0.048410088
12	0xbd2ca126	-0.04214587
13	0x3e169809	0.14706434
14	0xbe0c3965	-0.1369377
15	0x3d28b1aa	0.04118506
16	0xbe3959ac	-0.18100613
17	0x3c7dd139	0.015491777
18	0xbd69afd5	-0.057052452
19	0xbdcd639d	-0.10028765
20	0xbe5c6c44	-0.21525675
21	0x3da12d46	0.07869963
22	0xbdcdc1c2	-0.10046722
23	0xbd6c02a3	-0.057619702
24	0xbd25cea0	-0.040480256
25	0x3c8fd6ef	0.017558543
26	0xbdbd60a2	-0.09246947
27	0xbdc22471	-0.09479607
28	0x3da69fc4	0.081359416
29	0xbe43e2ef	-0.19129537
30	0xbc9f05db	-0.019411972
31	0xbe2255dd	-0.15853067
32	0xbb0a5227	-0.0021106096
33	0x3dfbb52c	0.12290415
34	0x3d67b0ca	0.056565084
35	0xbdb89edf	-0.09014677
36	0x3cd8dd7e	0.026472803
37	0x3d1f81f2	0.038942285
38	0xbd667a54	-0.056269005
39	0x3de82665	0.11335448
40	0xbd527884	-0.051384464
41	0xbdcb91fb	-0.09939953
42	0x3db676b2	0.08909358
43	0x3cdc2e55	0.026877562
44	0xbea819b4	-0.3283211
45	0xbe168fd3	-0.14703302
46	0x3e8df2a3	0.2772418
47	0xbcb05c89	-0.0215285
48	0x3dfa5f0c	0.1222516
49	0x3dbe6e64	0.09298399
50	0x3cd018a1	0.025402369
51	0xbc490472	-0.012269126
52	0xbd9779ad	-0.07396255
53	0xbe2bd45c	-0.16780227
54	0xbd6a0949	-0.05713776
55	0x3de604f7	0.11231416
56	0x3e09e1f6	0.13465104
57	0x3dad0668	0.084484875
58	0x3dfd64bc	0.12372729
59	0x3e015288	0.1262914
60	0xbe04f7cf	-0.12985156
61	0x3e23ac14	0.15983611
62	0x3d93a191	0.07208551
63	0xbdd1bbab	-0.10240873
64	0x3de07141	0.109591015
65	0xbdc9982e	-0.09843479
66	0x3e2ea1c6	0.17053899
67	0xbe4b1914	-0.19833785
68	0xbd89f3cc	-0.06735954
69	0x3db13261	0.08652187
70	0xbda12c9f	-0.07869839
71	0xbe4a8cc9	-0.19780268
72	0xbdcf0d24	-0.10109928
73	0xbd171f98	-0.036895365
74	0xbd9592f7	-0.07303422
75	0xbd5e3276	-0.054247342
76	0xbe19df9f	-0.15026711
77	0x3d9d20eb	0.07672294
78	0xbda5d3c2	-0.0809703
79	0xbd3566af	-0.04428738
80	0x3cb18df6	0.021674138
81	0xbd921a2b	-0.071338974
82	0xbe3f5609	-0.18685164
83	0xbe9c099a	-0.30476075
84	0xbe1ecef4	-0.15508634
85	0xbdff97a8	-0.12480098
86	0xbbe71e91	-0.0070532043
87	0xbdad605a	-0.08465643
88	0xbd6a713e	-0.057236902
89	0x3d469776	0.04848429
90	0xbd921ae8	-0.07134038
91	0x3d4cdb22	0.05001367
92	0xbc5873d8	-0.013211213
93	0xbc876e53	-0.016532099
94	0xbcf4b9ab	-0.02987369
95	0xbe067537	-0.13130651
96	0xbe1382de	-0.1440539
97	0x3dadcd8c	0.084864706
98	0xbdbb9265	-0.09158782
99	0xbd5312fc	-0.051531777
100	0x3e56c2fb	0.20972817
101	0xbda93b42	-0.08263256
102	0xbda8a7d2	-0.08235134
103	0xbe5e0e1f	-0.21685074
104	0x3ca1d5be	0.01975524
105	0x3d3af369	0.04564229
106	0xbd748395	-0.0596958
107	0x3dd9e013	0.10638442
108	0x3d13be3b	0.03607009
109	0xbe56327d	-0.20917697
110	0x3dc7f34a	0.097632006
111	0x3c42dac6	0.01189298
112	0xbccf758f	-0.025324611
113	0xbe1de5f4	-0.15419751
114	0x3e4b83c2	0.1987448
115	0xbd961174	-0.07327548
116	0xbbe9b8c8	-0.0071326233
117	0xbe671e06	-0.22570047
118	0xbdd5bdcd	-0.10436592
119	0x3c14435b	0.009049262
120	0xbdf14dcf	-0.11782419
121	0x3ad49c3e	0.001622088
122	0x3de1f37c	0.11032769
123	0x3da5a885	0.08088783
124	0x3bddc870	0.006768279
125	0xbcbbf6db	-0.022944858
126	0xbc49c498	-0.012314938
127	0xbd6bf222	-0.057603963
128	0x3bf0a18f	0.007343478
129	0x3e3b4a45	0.1829005
130	0x3bf7c7cf	0.007561661
131	0xbdb780fe	-0.0896015
132	0x3d9f226d	0.07770238
133	0xbb2e9b52	-0.002664287
134	0x3c857e4e	0.016295578
135	0x3bbcc3d8	0.005760651
136	0xbb55a3c5	-0.0032598835
137	0x3ca3b93c	0.019985788
138	0x3d446802	0.047950752
139	0x3d971203	0.07376482
140	0xbe263965	-0.16232832
141	0xbd9fc1a3	-0.07800605
142	0xbc8e68a1	-0.017383875
143	0x3da6163f	0.08109712
144	0xbc8ff96d	-0.01757499
145	0xbd98f1e0	-0.07468009
146	0x3e0e0a8a	0.13871208
147	0x3cdfa993	0.027302539
148	0xbc59bcdc	-0.0132896565
149	0x3ca28ac1	0.019841554
150	0x3d391e44	0.04519488
151	0x3dff4951	0.12465156
152	0xbe6e2685	-0.23256882
153	0xbd23753d	-0.03990673
154	0x3e071b28	0.13193953
155	0x3dd5cc50	0.1043936
156	0xbd443ea5	-0.047911305
157	0x3d4ae52b	0.049534958
158	0xbd871f67	-0.065977864
159	0xbd2daeee	-0.042403154
160	0xbe26bb7e	-0.1628246
161	0xbcc03dbb	-0.023466935
162	0xbd23a413	-0.039951395
163	0x3da9bfcc	0.082885355
164	0xbe3f7207	-0.18695842
165	0x3dcd1ef3	0.10015669
166	0xbe463243	-0.19355111
167	0xbce168ba	-0.027515758
168	0xbdf5ca3b	-0.12001463
169	0xbd11dd29	-0.035611305
170	0xbd1f3fe8	-0.038879305
171	0xbd482e7c	-0.048872456
172	0xbdc53b47	-0.09630447
173	0x3d3a8619	0.04553804
174	0x3c07dec9	0.008292862
175	0xbc3356c7	-0.010945982
176	0xbcc2ffe1	-0.023803653
177	0xbd630b24	-0.055430546
178	0x3ca9c8cb	0.020725628
179	0x3d94654a	0.07245882
180	0xbc86fc66	-0.016477775
181	0xbd62b97a	-0.055352665
182	0xbabd31d7	-0.0014434409
183	0x3e080e86	0.1328679
184	0xbd0ffc9c	-0.035153016
185	0xbe558620	-0.20851946
186	0xbd38cd1b	-0.04511748
187	0xbc4668c0	-0.012109935
188	0xbce2dc84	-0.02769304
189	0x3c11278c	0.008859526
190	0xbdac619d	-0.08417056
191	0x3e425c42	0.18980506
192	0xbc22cb57	-0.009936175
193	0xbda17778	-0.07884115
194	0xbd73bbb7	-0.05950519
195	0x3dafce35	0.08584253
196	0x3d1676a1	0.036734227
197	0xbc4bda64	-0.012442205
198	0x3da916b1	0.08256281
199	0x3d851ae7	0.06499272
200	0xbe0c62ec	-0.1370961
201	0xbe015918	-0.12631643
202	0x3d2172ce	0.039416127
203	0x3dbd48c8	0.092423975
204	0x3e19e201	0.1502762
205	0xbe15d286	-0.1463109
206	0x3b822926	0.0039721904
207	0xbd6c0f7f	-0.057631966
208	0xbc3ecd19	-0.011645579
209	0x3ccb2344	0.02479709
210	0x3da100a7	0.078614525
211	0x3d5f1919	0.054467294
212	0x3bbf9c74	0.005847508
213	0xbdbd2dbd	-0.092372395
214	0x3d364608	0.04450038
215	0x3c5392eb	0.012913446
216	0xbd26dde7	-0.040738966
217	0x3c119e93	0.008887905
218	0xbd6d919f	-0.058000203
219	0xbd4e9a4f	-0.05044013
220	0xbd5ffad5	-0.05468257
221	0x3cc53296	0.024071973
222	0x3d84494d	0.064592935
223	0x3d79603d	0.060882796
224	0xbd00f51e	-0.031483762
225	0xbe10184f	-0.14071773
226	0xbb4f6fcd	-0.0031652332
227	0xbde4e010	-0.11175549
228	0xbdbc6b38	-0.09200138
229	0xbdf1a3ba	-0.117988065
230	0xbc35e65a	-0.011102283
231	0x3d2195b0	0.039449394
232	0xbd4cb414	-0.049976423
233	0x3e04ab10	0.1295588
234	0xbc40e6fa	-0.011773819
235	0xbdcafd05	-0.09911541
236	0xbe646b96	-0.22306666
237	0xbdb2299e	-0.08699344
238	0x3d37efd1	0.04490644
239	0xbdf69f43	-0.120420955
240	0xbe240ede	-0.16021296
241	0xbe5b7bd4	-0.21433955
242	0x3cfbcc4b	0.030737063
243	0xbd63427c	-0.055483326
244	0x3c999f1e	0.01875263
245	0xbd87628e	-0.06610595
246	0x3dad10dd	0.08450482
247	0xbe6ed7a0	-0.23324442
248	0xbe283233	-0.164254
249	0x3dca1b8b	0.09868535
250	0xbe2211d0	-0.15827107
251	0x3cf12555	0.029436747
252	0xbc5dbfc7	-0.013534493
253	0x3c7b6ef4	0.0153462775
254	0x3d9bcebf	0.07607793
255	0x3df8a510	0.12140858

fc2.bias f4 [84]
0	0xbddb3289	-0.10702998
1	0xbe5949a8	-0.21219504
2	0xbca3e394	-0.020005979
3	0xbd313a9e	-0.043268792
4	0xbc02c541	-0.007981599
5	0x3d9f1eb5	0.07769529
6	0xbda677c1	-0.0812831
7	0x3e1c8c4e	0.15287897
8	0x3eb75afa	0.35811597
9	0x3c83d54b	0.016092917
10	0xbbd6c663	-0.0065544113
11	0xbb847348	-0.004042063
12	0x3d3e7933	0.046502303
13	0x3d64e728	0.05588451
14	0x3dbdbc1c	0.09264395
15	0xbe2660fd	-0.16247936
16	0xbdd28e47	-0.102810435
17	0x3eb158d2	0.34638077
18	0xbda89fa9	-0.08233578
19	0xbd885ad2	-0.066579476
20	0x3e15527f	0.14582251
21	0xbdb1af43	-0.08676007
22	0xbdf1048c	-0.117684454
23	0xbd86209c	-0.065491885
24	0xbce95e7c	-0.028487436
25	0xbdf4958f	-0.119425885
26	0x3e005ea7	0.12536107
27	0xbb741593	-0.0037244305
28	0xbe38c81a	-0.18045083
29	0x3d8ea440	0.06964922
30	0x3da4c7e9	0.08045942
31	0xbe2a9acb	-0.16660611
32	0xbe6f5b94	-0.23374778
33	0xbd9a658a	-0.07538898
34	0xbbca8b46	-0.0061811535
35	0x3ecde00e	0.40210003
36	0x3e240625	0.16017969
37	0x3de8c4ee	0.11365686
38	0x3ccf8207	0.025330557
39	0x3c6b6b68	0.014368869
40	0x3d0eb86f	0.03484386
41	0xbd4c79e4	-0.04992093
42	0xbe905c9a	-0.2819565
43	0xbe003dc7	-0.12523566
44	0xbda85cee	-0.0822085
45	0x3d5047b4	0.05084963
46	0xbe2b78b9	-0.16745271
47	0xbde4ef93	-0.11178508
48	0x3e5e083d	0.2168283
49	0xbcaa7c63	-0.020811265
50	0xbd105a99	-0.03524265
51	0xbdb45ab1	-0.088063605
52	0x3ed8f5a8	0.4237492
53	0xbcd39f86	-0.025832903
54	0x3d91a035	0.07110635
55	0x3d2fd6ad	0.04292934
56	0xbd261afb	-0.040553074
57	0xbdf371f3	-0.118869685
58	0xbd6c1edd	-0.05764662
59	0xbea1cd2e	-0.31601852
60	0xbe38486e	-0.1799638
61	0xbd3abfa5	-0.045592923
62	0x3de8f645	0.11375097
63	0xbdf67ee1	-0.12035919
64	0x3e38dfe5	0.18054159
65	0x3c4d175c	0.012517776
66	0xbcb5d167	-0.022194577
67	0xbe3468c9	-0.17618097
68	0x3e95d0f5	0.29260984
69	0x3dd6e6d0	0.10493243
70	0xbcb55248	-0.022133961
71	0x3cb1bd1b	0.021696618
72	0x3e29e57c	0.16591448
73	0xbde08c0c	-0.10964212
74	0xbde99fe9	-0.114074536
75	0xbdc9e6db	-0.09858485
76	0x3d95a3d8	0.07306641
77	0xbcf10ca5	-0.029424975
78	0x3de5b4b3	0.11216106
79	0x3e35165a	0.17684308
80	0x3e050ae9	0.12992443
81	0x3cf9ea62	0.03050727
82	0xbdaf980b	-0.08573922
83	0x3de3afa4	0.11117485

fc3.weight f4 [10, 84]
0	0xbe40f9f3	-0.18845348
1	0xbe5488b4	-0.20755273
2	0xbe58494a	-0.21121708
3	0xbd993059	-0.07479925
4	0x3e4a218d	0.19739361
5	0x3eefcc3d	0.4683551
6	0xbe60d993	-0.21957998
7	0xbd9203df	-0.071296446
8	0xbeafbb93	-0.34322795
9	0xbe42b606	-0.19014749
10	0xbd701f1b	-0.058623414
11	0xbdbd0b97	-0.09230726
12	0x3e37615c	0.17908233
13	0x3d83bca9	0.064324684
14	0xbc6a21f8	-0.014290325
15	0x3d902f55	0.07040278
16	0xbf028036	-0.50976884
17	0x3e335640	0.1751337
18	0xbde2d1a8	-0.11075145
19	0x3c576c51	0.013148383
20	0xbf04af4d	-0.5182999
21	0xbde80858	-0.113297164
22	0xbe83c23c	-0.25734127
23	0xbe2dfac7	-0.16990195
24	0xbd23f77b	-0.040030938
25	0xbf040e20	-0.51584053
26	0xbe32e3c9	-0.17469706
27	0xbe9a0cd0	-0.300879
28	0x3e52041d	0.20509382
29	0xbecc6684	-0.39921963
30	0xbe3ebcdf	-0.18626736
31	0x3dd3bb96	0.103385136
32	0x3ee39c1c	0.4445504
33	0xbf168d8f	-0.5880975
34	0xbe9f3dc0	-0.311018
35	0xbdd4fd61	-0.10399891
36	0x3e31add8	0.17351472
37	0x3d74ec9a	0.059795953
38	0xbe0db2b7	-0.13837706
39	0x3daa3061	0.08310009
40	0x3e0d1eed	0.13781328
41	0x3e9c7d14	0.30564177
42	0x3e721dc1	0.23644163
43	0x3c97b5f1	0.018519374
44	0xbc16d807	-0.009206778
45	0xbe68db6f	-0.22739957
46	0xbcb1f302	-0.02172232
47	0xbe0765ab	-0.13222377
48	0x3df2785a	0.118393615
49	0x3d9f86b3	0.07789364
50	0x3e73096c	0.23734063
51	0x3ca3a5b4	0.019976474
52	0xbe8c327f	-0.27382275
53	0xbef17293	-0.47157726
54	0xbdc1547c	-0.09439942
55	0x3e4f7fca	0.20263591
56	0xbe514c08	-0.2043916
57	0x3eb44260	0.3520689
58	0x3e0adb47	0.1356021
59	0x3e277417	0.16352879
60	0xbea55815	-0.32293764
61	0x3e0d39dd	0.13791604
62	0xbe68ae90	-0.2272284
63	0xbeedc443	-0.46438798
64	0xb99bd549	-0.00029722814
65	0xbdd0192b	-0.101610504
66	0xbe5d6784	-0.2162152
67	0xbdc340ca	-0.09533842
68	0xbf272862	-0.65295994
69	0x3e1fc12d	0.15601034
70	0xbdb3b7ce	-0.08775292
71	0x3f76e049	0.9643598
72	0xbe622f8b	-0.22088449
73	0xbd7af90f	-0.061272677
74	0x3ed1cf00	0.4097824
75	0x3eeeeaed	0.4666361
76	0x3e9ed336	0.31020516
77	0x3d1084d4	0.035282925
78	0x3da3eddc	0.080043525
79	0xbeba4fb5	-0.36388937
80	0x3e97fbc8	0.2968428
81	0xbd8b78d5	-0.06810156
82	0x3d3621ba	0.044465758
83	0x3e850913	0.25983486
84	0x3d9ef713	0.077619694
85	0x3d6b70fd	0.0574808
86	0xbe654e63	-0.22393183
87	0x3db30cb0	0.08742654
88	0xbd967da7	-0.07348185
89	0xbd852d91	-0.06502832
90	0xbd89b53b	-0.0672402
91	0x3f2f91f8	0.68582106
92	0x3d6b7ada	0.057490207
93	0x3ece1129	0.40247467
94	0xbd6fc9c5	-0.05854203
95	0xbe210a70	-0.15726638
96	0xbea608b2	-0.3242851
97	0x3db6ffcd	0.08935509
98	0x3ee6f5ad	0.4510931
99	0x385eb73d	5.309958e-05
100	0x3f1fee60	0.62473106
101	0xbddc5259	-0.10757894
102	0xbe472e1a	-0.1945118
103	0x3e829507	0.25504324
104	0x3df6292d	0.120195724
105	0xbd7de811	-0.061988894
106	0x3eeb7a3c	0.45991695
107	0x3dfd5b60	0.12370944
108	0xbceb7b0b	-0.028745195
109	0xbe9c8786	-0.30572146
110	0xbd937871	-0.07200707
111	0x3eb8fcfc	0.36130512
112	0x3ee3078e	0.443417
113	0xbe0c8eb3	-0.1372631
114	0x3ec38ba4	0.38192475
115	0x3e29c5d6	0.16579375
116	0xbe915b66	-0.28390044
117	0x3c02a6e8	0.007974364
118	0xbef29854	-0.47381842
119	0xbed6e073	-0.41968116
120	0xbf0eb336	-0.55742204
121	0xbe10ff6e	-0.14159939
122	0x3c5dfef0	0.013549551
123	0x3d9a8182	0.07544233
124	0xbe4076ce	-0.1879532
125	0xbe163f45	-0.14672573
126	0xbcfb287c	-0.030658953
127	0x3e0135c3	0.12618165
128	0x3e0a3e93	0.13500433
129	0xbedb0c0d	-0.42782632
130	0x3eb3f625	0.3514873
131	0xbc7a0be3	-0.015261623
132	0xbed9da70	-0.42549467
133	0xbea9f3bd	-0.3319377
134	0x3d2bcc64	0.04194297
135	0x3e2dd85f	0.1697707
136	0xbe9fe2d4	-0.31227744
137	0x3e2eb171	0.17059876
138	0xbeabcebb	-0.3355616
139	0xbf05a04a	-0.52197707
140	0x3dc6a2f6	0.09699051
141	0xbe7f77d0	-0.24948049
142	0x3d4e0320	0.05029595
143	0xbe1c38bd	-0.15256019
144	0xbe36afac	-0.17840451
145	0xbec61d07	-0.3869402
146	0xbec1cfb4	-0.37853777
147	0x3e070551	0.13185622
148	0x3b15c894	0.002285515
149	0xbced5e67	-0.028975679
150	0xbe9b3cec	-0.30319917
151	0x3f4d401e	0.8017596
152	0x3e47400c	0.19458026
153	0xbeb1be56	-0.34715527
154	0x3e42f3d2	0.19038323
155	0xbec69922	-0.38788706
156	0xbcb7ada9	-0.022421675
157	0xbde882ca	-0.11353071
158	0xbe0ef537	-0.1396073
159	0xbe9bff30	-0.3046813
160	0xbe3db1af	-0.18524812
161	0x3dcac387	0.09900575
162	0xbd68e1ab	-0.05685584
163	0x3eb150a7	0.34631845
164	0xbe2c5f0c	-0.16833133
165	0xbdd8a7e9	-0.10578901
166	0x3e384b89	0.17997564
167	0xbe16d5d7	-0.14730011
168	0xbe017efc	-0.12646097
169	0xbd6ae29d	-0.05734502
170	0x3eb80d19	0.35947493
171	0x3e61794c	0.22018927
172	0x3e52ff7a	0.20605269
173	0xbe2d5ca9	-0.16929878
174	0x3c576eb7	0.013148955
175	0xbea85960	-0.32880688
176	0xbe33e6a1	-0.17568447
177	0x3ed2fb1e	0.41207212
178	0xbe60f101	-0.21966936
179	0x3e2454ec	0.1604802
180	0xbe57d49e	-0.21077201
181	0xbeb85514	-0.3600241
182	0xbdbe96ac	-0.09306082
183	0xbe4b097e	-0.1982784
184	0x3ea56b67	0.32308504
185	0x3e581da9	0.21105064
186	0x3e8da2a6	0.27663153
187	0x3eefdbd7	0.46847412
188	0x3e8e5ac7	0.27803633
189	0x3ea63eac	0.3246969
190	0xbe36296a	-0.17789236
191	0xbc9d164d	-0.019175673
192	0xbeba2bcc	-0.3636154
193	0xbdfaba01	-0.12242509
194	0xbef8da5a	-0.4860409
195	0xbe091b04	-0.13389212
196	0xbe7e7b82	-0.24851802
197	0xbe7c11da	-0.24616185
198	0x3e7dd5fa	0.24788657
199	0xbebadb8a	-0.3649562
200	0x3e89013f	0.26758763
201	0x3e89cf58	0.26916003
202	0x3e3c0b3e	0.18363664
203	0xbe3f5ba6	-0.18687305
204	0x3ee65f6c	0.44994676
205	0x3e0d0db7	0.13774763
206	0xbcd10598	-0.025515363
207	0x3b950d26	0.0045486866
208	0x3e113dcd	0.14183731
209	0x3e33e7e5	0.1756893
210	0x3e9bd80e	0.30438274
211	0x3eaf8c23	0.34286603
212	0x3e7185ed	0.23586245
213	0xbd124d13	-0.035718035
214	0xbe41ea3e	-0.18937013
215	0x3dda19f7	0.10649484
216	0x3f25a8ac	0.647105
217	0x3e1274a2	0.14302304
218	0xbed8d9d4	-0.4235369
219	0xbdcee8a9	-0.1010297
220	0xbe83517c	-0.25648105
221	0x3ef66351	0.48122647
222	0x3d4954e0	0.04915321
223	0x3e1404b4	0.14454919
224	0xbe661f0c	-0.22472781
225	0x3e58796a	0.21140066
226	0xbd66f9bb	-0.056390505
227	0x3ea31d9f	0.31858537
228	0xbda04f93	-0.078276776
229	0x3d54e273	0.05197377
230	0x3d5934a2	0.05302871
231	0xbe88c2b8	-0.2671106
232	0xbd0115bd	-0.031514872
233	0xbebb8d34	-0.36631167
234	0x3e01a400	0.12660217
235	0xbdf3cb13	-0.11903968
236	0x3e5b57cf	0.21420215
237	0x3ed08f0c	0.40734136
238	0x3d5bb925	0.053643364
239	0x3f828bba	1.0198891
240	0xbe3c712d	-0.18402548
241	0xbdd756da	-0.105146125
242	0x3ec5fa37	0.3866746
243	0xbe8eba2e	-0.2787642
244	0xbe4402b4	-0.19141656
245	0xbe1a5eca	-0.15075222
246	0xbe2266a8	-0.15859473
247	0xbdbbbc26	-0.09166746
248	0xbddde48c	-0.108346075
249	0x3da74660	0.0816772
250	0x3d82624c	0.06366405
251	0xbeb005fc	-0.34379566
252	0x3d44b63c	0.048025355
253	0xbd5131af	-0.051072773
254	0xbea7b97d	-0.32758704
255	0x3dece579	0.11567206

fc3.bias f4 [10]
0	0xbf2c1c47	-0.6723065
1	0xbf0c99ee	-0.5492238
2	0x3e46ff5f	0.19433354
3	0x3f4c5ac8	0.7982602
4	0x3f85eea3	1.0463451
5	0xbf36f65a	-0.7146965
6	0x3f3dcf81	0.7414475
7	0xbf3fa59a	-0.7486206
8	0x3ed5ea07	0.4178011
9	0xbead1ea3	-0.33812436
