round1/2025-04-18 18:01:57-weight-client-2f83fcfb-8.pth (torch, 252478 bytes, 10 tensors)

conv1.weight f4 [6, 3, 5, 5]
-0.09176039 -0.25800514 -0.15835935 -0.1702388 -0.13448541 -0.13008952 -0.13277017 -0.11193881
-0.13728365 -0.064931914 -0.19480251 -0.14140995 -0.05883901 -0.11936635 -0.097312085 -0.20261945
-0.057927307 -0.15191449 -0.18953168 -0.0928436 -0.15242663 -0.1780231 -0.091075376 -0.09827459
0.021385644 -0.09705254 -0.09385248 -0.12539907 -0.09456098 -0.17317656 -0.14195792 -0.11795535
0.017037356 -0.021369968 -0.036330823 -0.079111084 -0.06609966 -0.038528774 0.052430097 -0.091492996
-0.033371788 -0.03224351 -0.0997584 0.056976218 -0.05136031 -0.00079773273 -0.044055354 -0.07608321
-0.016422613 -0.18260299 0.2838449 0.32178795 0.3712663 0.29105878 0.28379217 0.3045589
0.36266035 0.25417042 0.26273835 0.2800263 0.24764489 0.30122066 0.33510137 0.19350712
0.28082496 0.25261804 0.330744 0.26476657 0.216164 0.25777826 0.20208217 0.27532738
0.22730462 0.242073 0.11673628 0.1421861 -0.019986682 -0.08481834 0.010823744 -0.09025302
-0.058487147 -0.060390264 -0.021401526 0.06976406 0.05227304 0.03574491 0.11346388 0.12855127
-0.023338515 0.016190479 0.039861273 0.018232372 0.10236788 0.16640677 0.16790822 0.19521853
0.13574916 0.13199964 0.04365363 0.1795669 0.08340779 0.100143515 0.26084614 0.27681938
0.24098353 0.23473735 0.11986289 0.07232674 0.10273383 0.05859239 0.12142061 -0.0015195757
0.182499 0.14958124 0.09924459 0.10194317 0.008816176 0.054850146 -0.042989988 -0.011503608
0.08432542 0.10311327 0.027852306 0.032421775 0.10990811 0.12079427 0.043081477 0.1586979
0.1436887 -0.01374629 0.0010983928 0.057477176 -0.051762115 0.03394206 -0.07977475 0.0036017802
-0.023960918 -0.06162179 -0.099890865 0.01321364 -0.06568375 -0.13207407 -0.006892869 -0.066883124
-0.055980034 -0.12887965 -0.105115 -0.06657755 -0.071815126 -0.21358582 0.17058037 0.22168456
0.09347864 -0.059335265 0.087460324 0.099793 0.03840115 0.013700769 0.06225785 -0.04201694
0.038303345 -0.13898355 -0.1587935 0.042170864 -0.017598927 -0.19598277 0.024617137 -0.13739006
-0.135615 0.08674382 -0.06335098 -0.15116063 -0.082545064 -0.14808564 0.08199326 0.16609737
0.11101331 0.034537796 0.07394376 0.14256656 0.1404101 0.14606677 -0.014941779 -0.10430705
-0.07402906 0.07127352 -0.049402095 -0.13827966 0.09067696 0.0002782714 -0.18449105 -0.07525352
-0.14989948 0.028167076 0.05540136 -0.15347221 0.04278729 0.08022422 0.070765726 -0.013540102
0.13860552 0.0152262915 0.13712269 -0.034167703 0.026971124 -0.043057054 0.044626437 0.12457736
-0.037408013 0.12941943 0.040086754 -0.10099389 -0.05091475 -0.107799485 -0.029323297 -0.1514972
0.024724964 0.034370624 -0.006179911 -0.09515465 -0.1224897 -0.042755805 -0.097295545 0.0045758313
-0.08797728 -0.14484155 -0.19225428 -0.061155092 -0.22956915 -0.1542006 -0.15686972 -0.06467133
-0.2051257 -0.14875653 -0.25529712 -0.14658119 -0.22571228 -0.17121725 -0.16945903 -0.23437774
-0.0938095 -0.19190359 -0.04380319 -0.2201195 -0.18063542 -0.17379564 -0.18858622 -0.072928496
-0.15122522 -0.08347541 -0.105476126 0.04447871 -0.021822868 -0.019668669 -0.031115577 -0.14483847
00000000: dfec bbbd 4019 84be f428 22be 1453 2ebe
00000010: 8bb6 09be 3036 05be e7f4 07be 2d40 e5bd
00000020: 1694 0cbe 06fb 84bd 4f7a 47be c5cd 10be
00000030: 2c01 71bd 5876 f4bd 8f4b c7bd 797b 4fbe
00000040: 2f45 6dbd 798f 1bbe 9814 42be c924 bebd
00000050: ba15 1cbe b04b 36be ba85 babd 3044 c9bd
00000060: f230 af3c 7bc3 c6bd bb35 c0bd 9d68 00be
00000070: 30a9 c1bd 3255 31be 6b5d 11be 9392 f1bd
00000080: ed91 8b3c 1210 afbc a1cf 14bd fe04 a2bd
00000090: 425f 87bd 59d0 1dbd f1c0 563d ae60 bbbd
000000a0: dbb0 08bd c511 04bd 224e ccbd e55f 693d
000000b0: 305f 52bd f01e 51ba 6373 34bd 84d1 9bbd
000000c0: b788 86bc 47fc 3abe 1e54 913e 64c1 a43e
000000d0: 9e16 be3e a805 953e 354d 913e 25ef 9b3e
000000e0: 9eae b93e a022 823e a485 863e 9b5f 8f3e
000000f0: 9f96 7d3e 9839 9a3e 6892 ab3e bb26 463e
00000100: 4ac8 8f3e 2757 813e 4757 a93e 7c8f 873e
00000110: 185a 5d3e 83fb 833e a1ee 4e3e b6f7 8c3e
00000120: 8bc2 683e fce1 773e 6e13 ef3d 3c99 113e
00000130: 1cbb a3bc 3db5 adbd 1356 313c 93d6 b8bd
00000140: 3890 6fbd c85b 77bd 4152 afbc 76e0 8e3d
00000150: 411c 563d 4169 123d c05f e83d f2a2 033e
00000160: 6a30 bfbc e5a1 843c 9345 233d 0e5c 953c
00000170: 40a6 d13d 8966 2a3e 22f0 2b3e 5ee7 473e
00000180: d401 0b3e ea2a 073e 26ce 323d 63e0 373e
00000190: b4d1 aa3d 0b18 cd3d a08d 853e 45bb 8d3e
000001a0: 63c4 763e fd5e 703e ad7a f53d 0b20 943d
000001b0: 1d66 d23d 93fe 6f3d 5eab f83d 802c c7ba
000001c0: 05e1 3a3e d32b 193e bf40 cb3d 95c7 d03d
000001d0: b971 103c 8caa 603d 4516 30bd a179 3cbc
000001e0: ceb2 ac3d 0d2d d33d 852a e43c b2cc 043d
000001f0: 8117 e13d fc62 f73d 3476 303d b481 223e
00000200: 2123 133e 1e38 61bc f2f7 8f3a 306d 6b3d
00000210: 8304 54bd d406 0b3d f260 a3bd d80b 6c3b
00000220: b049 c4bc 2167 7cbd 9593 ccbd 067e 583c
00000230: 3485 86bd 6d3e 07be 93dd e1bb 05fa 88bd
00000240: 524b 65bd 07f9 03be 8846 d7bd cf59 88bd
00000250: cf13 93bd 3eb6 5abe 9fac 2e3e 4701 633e
00000260: bb71 bf3d 8909 73bd 661e b33d 4660 cc3d
00000270: 864a 1d3d 3179 603c 1602 7f3d f419 2cbd
00000280: f8e3 1c3d b451 0ebe c39a 22be 5bbb 2c3d
00000290: a02b 90bc b5af 48be e1a9 c93c fbaf 0cbe
000002a0: a9de 0abe bea6 b13d 29be 81bd dac9 1abe
000002b0: 630d a9bd c3a3 17be 15ec a73d 6e15 2a3e
000002c0: f25a e33d 8177 0d3d d36f 973d f8fc 113e
000002d0: aac7 0f3e 8792 153e 5dce 74bc ef9e d5bd
000002e0: 8c9c 97bd daf7 913d da59 4abd 2f99 0dbe
000002f0: d8b4 b93d f4e4 9139 39eb 3cbe 841e 9abd
00000300: 407f 19be a4be e63c 89ec 623d d227 1dbe
00000310: ba41 2f3d 994c a43d 9fed 903d 4ed7 5dbc
00000320: 9bee 0d3e b277 793c e469 0c3e 6ff3 0bbd
00000330: 8cf2 dc3c 985c 30bd 36ca 363d 6a22 ff3d
00000340: 2539 19bd 8786 043e 0232 243d e2d5 cebd
00000350: fc8b 50bd fac5 dcbd 6937 f0bc 1522 1bbe
00000360: 028c ca3c 36c8 0c3d da80 cabb 71e0 c2bd
00000370: e1db fabd b620 2fbd e342 c7bd dbf0 953b
00000380: 6f2d b4bd 5851 14be 4ede 44be c37d 7abd
00000390: 2d14 6bbe c3e6 1dbe 75a2 20be 6772 84bd
000003a0: 790c 52be a253 18be 4eb6 82be 6119 16be
000003b0: 1f21 67be 9353 2fbe ab86 2dbe b800 70be
000003c0: 321f c0bd 6082 44be f96a 33bd 0267 61be
000003d0: 7ef8 38be 7cf7 31be bf1c 41be 895b 95bd
000003e0: c9da 1abe 28f5 aabd de03 d8bd 4f2f 363d
000003f0: dfc5 b2bc 3020 a1bc 18e6 febc 8950 14be

conv1.bias f4 [6]
-0.80465025 -0.6375549 0.118675746 -0.8856296 0.009791755 0.13016766
00000000: 8ffd 4dbf cc36 23bf 450c f33d 9fb8 62bf
00000010: 996d 203c ac4a 053e

conv2.weight f4 [16, 6, 5, 5]
-0.03826284 0.016546283 0.006849722 0.0087231295 0.044283718 -0.06480831 -0.01156818 0.05937985
0.07477139 0.08254728 0.022659196 0.06860381 -0.078067176 0.03861374 -0.0086884005 0.03305296
-0.07743253 -0.076359406 -0.026043214 0.018358918 -0.029371997 -0.037765205 -0.026226018 -0.019979505
-0.016590334 -0.05652138 0.041919325 0.034084443 -0.07504506 -0.0658466 -0.037359733 -0.011824928
-0.060293484 -0.036104117 0.022329362 0.034120183 0.0008581396 0.0580415 -0.07652771 0.012363202
0.073631 -0.039570726 -0.05082409 0.027669791 -0.078700416 -0.047211267 0.0032242895 -0.05532097
-0.02082175 -0.046106722 0.015079838 0.0034870126 0.017090175 0.073461585 -0.073655404 -0.002442669
-0.052028403 -0.015171642 -0.07872967 -0.06941175 -0.038592737 0.062286917 0.06620815 0.06942987
-0.04787292 -0.037084263 0.06063661 -0.05236355 -0.04572369 0.016752476 -0.009673682 0.078612976
0.05724118 -0.040752124 0.018857956 0.027391033 0.026336696 -0.05172371 -0.007245055 -0.068629935
-0.022198822 0.02199912 0.0018304425 0.027562324 0.0335626 0.028553804 0.02051885 0.0562356
0.021270106 -0.05168988 0.009840482 -0.046432532 0.060892597 -0.01597339 0.07707199 -0.06807242
-0.029150965 0.054221753 -0.0056103254 -0.0095879715 -0.008943788 -0.051210232 0.0018576725 -0.02705388
-0.049901277 0.06789813 0.0307294 -0.06749462 -0.0059033716 0.0006712834 0.06720175 0.0021167872
-0.0013982716 -0.048041154 -0.056537736 0.028834416 0.060829103 -0.03821593 -0.077273965 0.031715613
0.055879958 -0.04058896 -0.036349542 0.012100331 -0.0059889457 -0.035643816 -0.06660447 -0.019126007
0.051891863 -0.017626321 -0.048395112 0.06363809 0.076439925 0.010376559 -0.038262766 -0.0052086087
0.024621015 -0.02861874 0.0054441164 0.045065463 0.03501826 0.061715595 -0.0069760988 -0.0063749934
0.042743687 -0.039945696 -0.014847794 0.021964217 0.011052987 0.0018477235 0.11044274 0.16892582
0.1721859 0.10070328 0.26348072 0.07484887 0.1585222 0.15246807 0.1712328 0.22303349
0.17473745 0.14170033 0.09460051 0.08217781 0.14087474 0.08172205 0.12008544 0.09640873
0.15604423 0.14382897 0.16627724 0.15618 -0.018210413 0.04325855 0.061014146 -0.0582302
0.012253692 -0.023185143 -0.02133482 0.050656952 -0.03721463 0.024562128 -0.057999123 0.04079937
0.123241104 0.08926021 0.10325313 0.024307253 0.11293255 0.16082588 0.019456252 0.034871414
0.06536649 0.012266076 0.003222159 -0.032076586 -0.068865724 -0.008839047 -0.040837165 -0.09380137
0.028374711 0.07356452 -0.013612426 0.054290395 -0.06903559 0.018614829 0.03160799 0.011124149
-0.03954671 -0.06996139 -0.07179371 -0.016077222 0.028725907 0.029823018 -0.095904276 -0.0790409
-0.04017537 -0.044540275 -0.006397526 -0.11009532 0.058303725 0.032462955 0.04755225 -0.06195118
0.03706614 0.15693234 0.08027208 0.1214666 0.17564815 0.27699023 0.16681997 0.1274395
0.16087513 0.18380749 0.13608703 0.10165532 0.11683734 0.13117068 0.1930667 0.14611222
0.1572901 0.05134289 0.16663599 0.11501936 0.16269936 0.06531528 0.117959365 0.10600599
0.102182046 0.05157703 -0.03026185 0.03420747 -0.04496561 0.016518053 0.027536988 0.02427445
00000000: 7fb9 1cbd 128c 873c a273 e03b 75eb 0e3c
00000010: d862 353d 38ba 84bd 7788 3dbc 4938 733d
00000020: be21 993d 8c0e a93d c79f b93c 2880 8c3d
00000030: afe1 9fbd 7129 1e3d cb59 0ebc 8a62 073d
00000040: f294 9ebd 5262 9cbd 9458 d5bc 7165 963c
00000050: 8b9d f0bc b0af 1abd f2d7 d6bc 0fac a3bc
00000060: 74e8 87bc f682 67bd 99b3 2b3d 219c 0b3d
00000070: 39b1 99bd 95da 86bd 8506 19bd 58bd 41bc
00000080: 4df6 76bd e9e1 13bd 11ec b63c 9bc1 0b3d
00000090: c6f4 603a edbc 6d3d 8fba 9cbd 078f 4a3c
000000a0: dacb 963d ea14 22bd ec2c 50bd c2ab e23c
000000b0: af2d a1bd 9a60 41bd 9a4e 533b 3e98 62bd
000000c0: 6092 aabc 67da 3cbd 6d11 773c 5d86 643b
000000d0: b200 8c3c 0773 963d a5d8 96bd 2f15 20bb
000000e0: bc1b 55bd 7b92 78bc 053d a1bd bf27 8ebd
000000f0: 6b13 1ebd 9120 7f3d 2398 873d 3f31 8e3d
00000100: 6516 44bd abe5 17bd 185e 783d 297b 56bd
00000110: c448 3bbd 7d3c 893c 5d7e 1ebc d7ff a03d
00000120: ba75 6a3d b3eb 26bd 007c 9a3c 2963 e03c
00000130: 0ec0 d73c 3edc 53bd ed67 edbb da8d 8cbd
00000140: 4eda b5bc 8037 b43c 75eb ef3a 62ca e13c
00000150: f078 093d abe9 e93c 2617 a83c 4d57 663d
00000160: a53e ae3c c5b8 53bd f939 213c 0a30 3ebd
00000170: 846a 793d a0da 82bc ebd7 9d3d 8e69 8bbd
00000180: 01ce eebc a117 5e3d d2d6 b7bb de16 1dbc
00000190: f788 12bc d2c1 51bd 257d f33a 19a0 ddbc
000001a0: 4865 4cbd 2d0e 8b3d 39bc fb3c 9f3a 8abd
000001b0: 1271 c1bb 11f9 2f3a 12a1 893d ccb9 0a3b
000001c0: 3646 b7ba cdc6 44bd 1d94 67bd 2736 ec3c
000001d0: f027 793d 4f88 1cbd d041 9ebd 3be8 013d
000001e0: 62e2 643d 9c40 26bd 42e3 14bd 7740 463c
000001f0: eb3e c4bb 40ff 11bd ed67 88bd 25ae 9cbc
00000200: 908c 543d 1365 90bc f439 46bd b054 823d
00000210: 898c 9c3d 7102 2a3c 6bb9 1cbd faac aabb
00000220: 03b2 c93c d971 eabc 8f64 b23b 9096 383d
00000230: 4f6f 0f3d 7ec9 7c3d c297 e4bb 52e5 d0bb
00000240: 0114 2f3d 199e 23bd 2944 73bc 4dee b33c
00000250: 9617 353c 502f f23a ce2f e23d e4fa 2c3e
00000260: 8051 303e 853d ce3d f2e6 863e 5d4a 993d
00000270: a553 223e 9720 1c3e a757 2f3e e462 643e
00000280: 60ee 323e e419 113e eabd c13d d74c a83d
00000290: 7841 103e e45d a73d 5bef f53d f171 c53d
000002a0: 0fca 1f3e e747 133e 9544 2a3e a6ed 1f3e
000002b0: 012e 95bc e12f 313d f8e9 793d ca82 6ebd
000002c0: b6c3 483c c5ee bdbc 5cc6 aebc aa7d 4f3d
000002d0: 5e6e 18bd 8436 c93c 7d90 6dbd 3d1d 273d
000002e0: d565 fc3d 0fce b63d 6176 d33d 0120 c73c
000002f0: 2e49 e73d 8aaf 243e b862 9f3c 54d5 0e3d
00000300: dede 853d a7f7 483c dc2a 533b bd62 03bd
00000310: 7909 8dbd a6d1 10bc df44 27bd ef1a c0bd
00000320: 1572 e83c ffa8 963d a706 5fbc 9b5f 5e3d
00000330: 8862 8dbd 207e 983c 6177 013d 1042 363c
00000340: bbfb 21bd eb47 8fbd 9508 93bd 61b4 83bc
00000350: 9852 eb3c 674f f43c 7669 c4bd 32e0 a1bd
00000360: ee8e 24bd dd6f 36bd 56a2 d1bb a879 e1bd
00000370: e3cf 6e3d e0f7 043d 26c6 423d 85c0 7dbd
00000380: aad2 173d dfb2 203e b065 a43d 7bc3 f83d
00000390: 1cdd 333e aad1 8d3e dbd2 2a3e 807f 023e
000003a0: 73bc 243e 0838 3c3e 665a 0b3e aa30 d03d
000003b0: 6a48 ef3d 9b51 063e 47b3 453e 719e 153e
000003c0: a810 213e ec4c 523d a0a2 2a3e 458f eb3d
000003d0: a99a 263e 04c4 853d ae94 f13d ab19 d93d
000003e0: d244 d13d 7042 533d b3e7 f7bc 221d 0c3d
000003f0: dc2d 38bd de50 873c 4095 e13c 36db c63c

conv2.bias f4 [16]
-0.0030930308 -0.22007205 -0.050206747 -0.068656266 -0.13099508 -0.023195263 0.29633343 -0.056301273
-0.05499043 -0.13295949 -0.23546349 0.35303596 -0.055692323 0.14926282 -0.046948086 -0.049232546
00000000: 72b4 4abb 915a 61be 97a5 4dbd a89b 8cbd
00000010: 9323 06be fe03 bebc 04b9 973e 2a9c 66bd
00000020: a53d 61bd 8826 08be 571d 71be 21c1 b43e
00000030: a21d 64bd 5ad8 183e a34c 40bd 11a8 49bd

fc1.weight f4 [120, 400]
0.015490007 -0.0040672985 0.035679113 0.0032444284 0.0014871105 0.042702116 0.026910005 -0.042620126
0.041186783 0.035123706 -0.019453626 -0.0122879 0.03635808 0.021613112 -0.026290908 0.0114575
0.04482524 -0.031999663 -0.024052778 -0.028332679 0.024302177 0.04887494 0.032892793 0.034238823
0.04143516 -0.10322822 0.016218133 -0.016566008 -0.04664864 -0.04953993 0.013165149 0.011199806
-0.021055823 -0.03703191 0.006394574 0.028707441 -0.007466936 -0.009702889 -0.014442505 -0.05689885
-0.06443993 0.02727861 0.04092786 0.014346016 0.014002688 0.019241955 0.025728619 0.050126996
-0.014520831 0.044855032 -0.041066665 0.034585632 -0.04767028 0.046857122 0.010305068 0.029422043
-0.029560443 0.012902661 0.024878645 -0.007705695 -0.009613472 -0.019666892 0.0042460747 0.03996765
-0.04787004 0.04855721 0.041813828 -0.048076354 0.0024520634 0.048603736 -0.011645324 -0.049785145
-0.044482548 0.0029103358 0.033269495 -0.0024201346 -0.047673978 -0.0076418975 0.0045344452 0.032651428
-0.02422096 -0.0146476915 0.010328901 0.031255312 0.035839867 -0.02704208 0.04801367 0.025345812
-0.043172233 0.046817772 -0.033755217 -0.031089341 0.010115548 0.0031765779 0.011454391 -0.02770893
0.046369497 -0.048402462 -0.005046934 -0.0006359114 -0.03077695 0.004575104 0.054322608 0.045633875
0.021142034 0.007951797 -0.017637137 -0.041336138 0.04280974 -0.004177868 -0.0073517226 0.008477101
-0.03147587 -0.018733405 -0.027133068 -0.04044723 0.030292952 0.019861218 0.00846051 0.009215107
-0.057613987 0.041487347 0.0110506425 0.049430147 0.009932628 -0.02792038 -0.0008390605 0.032733954
0.008677149 -0.037750352 0.04639772 -0.018456716 0.049139056 0.029316863 -0.048227508 0.01956159
-0.005434139 -0.03913212 0.034125324 0.0061661787 0.03811431 0.03629622 0.025427274 0.008207618
-0.015689787 -0.0046187853 0.011178174 0.03645757 0.016125716 0.017596416 0.008561386 0.031017143
0.06275972 -0.04225739 -0.004491 0.014021042 0.009556558 -0.013314647 0.010167122 0.014343697
0.00015714983 0.023914138 0.021059442 0.0112567395 0.021573994 -0.022846367 -0.038980994 -0.009042679
0.028536415 -0.043667357 0.006642712 -0.015576478 -6.974618e-05 -0.004873333 -0.082694404 0.023611229
0.030192137 0.007225982 -0.04648586 0.040543962 0.04034413 -0.015733823 0.037899777 0.029942079
0.027778208 -0.019717216 -0.028114611 0.0028853624 -0.010152241 0.037135165 -0.0043598814 0.016730139
0.017880036 0.011609463 -0.028009394 -0.04768578 0.045970026 0.04137331 0.041881755 0.010667638
0.039551433 0.039754957 0.045766976 -0.05394305 0.018553331 -0.034345813 -0.018724676 -0.030416865
0.03953546 -0.050604764 0.06046028 0.009020073 0.0105468 0.023520734 0.02906613 0.02080713
-0.012687657 0.041414935 -0.04074678 -0.03400275 -0.020130204 -0.011833718 0.004473381 -0.05608391
0.023289442 -0.03712128 -0.017246628 0.039267678 -0.052698363 -0.05766087 -0.05358398 0.022595232
0.06365547 0.03317568 0.0066693774 -0.013575783 -0.029710494 0.015108595 0.046965018 -0.041127283
-0.062146083 -0.011107855 -0.0071468004 0.03227811 0.03284657 -0.052910347 -0.04490817 -0.01314901
0.048400603 0.020371228 -0.071721904 0.035107054 -0.042861443 0.045085356 -0.05139135 0.006146074
00000000: ccc9 7d3c f946 85bb 4324 123d 7aa0 543b
00000010: 26eb c23a 6ae8 2e3d 5f72 dc3c 7192 2ebd
00000020: 79b3 283d e0dd 0f3d 365d 9fbc 3053 49bc
00000030: 36ec 143d fb0d b13c 0860 d7bc 3db8 3b3c
00000040: ac9a 373d 1412 03bd 550a c5bc ef19 e8bc
00000050: 5c15 c73c 1731 483d 98ba 063d 023e 0c3d
00000060: eab7 293d 5169 d3bd e4db 843c 70b5 87bc
00000070: a512 3fbd 62ea 4abd a3b2 573c 647f 373c
00000080: 437d acbc c6ae 17bd 9389 d13b de2b eb3c
00000090: 33ad f4bb def8 1ebc 42a0 6cbc c50e 69bd
000000a0: 15f9 83bd 6477 df3c f9a3 273d 8d0b 6b3c
000000b0: 886b 653c 4ea1 9d3c d3c4 d23c f751 4d3d
000000c0: c8e8 6dbc e9b9 373d 8535 28bd aaa9 0d3d
000000d0: e941 43bd 41ed 3f3d 97d6 283c 7f06 f13c
000000e0: be28 f2bc af65 533c 4dce cb3c 0e80 fcbb
000000f0: d381 1dbc 761c a1bc a822 8b3b 1eb5 233d
00000100: 6013 44bd ede3 463d fa44 2b3d b6eb 44bd
00000110: ccb2 203b b614 473d 07cc 3ebc 82eb 4bbd
00000120: 5533 36bd 55bb 3e3b 9845 083d 1f9b 1ebb
00000130: ca45 43bd e268 fabb af95 943b 81bd 053d
00000140: 096b c6bc dffc 6fbc 8d3a 293c 9205 003d
00000150: d3cc 123d 5a87 ddbc fba9 443d 05a2 cf3c
00000160: 5ed5 30bd fec3 3f3d e942 0abd 13af febc
00000170: afbb 253c 222e 503b 33ab 3b3c d7fd e2bc
00000180: f1ed 3d3d a941 46bd c060 a5bb 4bb3 26ba
00000190: f11f fcbc c1ea 953b 6281 5e3d 96ea 3a3d
000001a0: 0f32 ad3c 4148 023c c27b 90bc 1550 29bd
000001b0: 4459 2f3d 7fe6 88bb b8e6 f0bb 8ae3 0a3c
000001c0: d8ec 00bd cc76 99bc 2b46 debc ffab 25bd
000001d0: ed28 f83c feb3 a23c f39d 0a3c f6fa 163c
000001e0: a5fc 6bbd a3ee 293d c10d 353c 4477 4a3d
000001f0: 76bc 223c 48b9 e4bc 66f4 5bba 0a14 063d
00000200: 9a2a 0e3c 1da0 1abd 890b 3e3d 8a32 97bc
00000210: 0946 493d eb29 f03c 358a 45bd a13f a03c
00000220: dd10 b2bb 0049 20bd ffc6 0b3d a80d ca3b
00000230: c01d 1c3d 58ab 143d dc4c d03c 3f79 063c
00000240: de87 80bc 2e59 97bb a924 373c 8854 153d
00000250: 141a 843c 5c26 903c 0e45 0c3c aa17 fe3c
00000260: 2b88 803d 1616 2dbd 3d29 93bb 83b8 653c
00000270: 1c93 1c3c ad25 5abc 0094 263c d301 6b3c
00000280: 96c8 2439 95e7 c33c da84 ac3c 306e 383c
00000290: f2bb b03c 4e28 bbbc 89aa 1fbd bf27 14bc
000002a0: 33c5 e93c 8bdc 32bd 1bab d93b 7c34 7fbc
000002b0: b244 92b8 7bb0 9fbb af5b a9bd 566c c13c
000002c0: 8055 f73c eec7 ec3b f567 3ebd 6d11 263d
000002d0: e33f 253d 38e4 80bc cc3c 1b3d 1749 f53c
000002e0: 208f e33c 0086 a1bc 9d50 e6bc 5918 3d3b
000002f0: 9655 26bc 0b1b 183d 56dd 8ebb a50d 893c
00000300: 2779 923c 9e35 3e3c f573 e5bc 2a52 43bd
00000310: 114b 3c3d 0f77 293d 348c 2b3d 51c7 2e3c
00000320: af00 223d 18d6 223d 2776 3b3d 63f3 5cbd
00000330: 28fd 973c 32ae 0cbd 7e64 99bc ca2c f9bc
00000340: efef 213d f146 4fbd 33a5 773d eec8 133c
00000350: 7ccc 2c3c 8eae c03c 181c ee3c b773 aa3c
00000360: e4df 4fbc b5a2 293d 18e6 26bd 7846 0bbd
00000370: 19e8 a4bc 36e2 41bc 7195 923b 3eb8 65bd
00000380: 80c9 be3c 7c0c 18bd cd48 8dbc 25d7 203d
00000390: 3dda 57bd ce2d 6cbd e07a 5bbd a319 b93c
000003a0: cd5d 823d 39e3 073d cb8a da3b f66c 5ebc
000003b0: 6c63 f3bc 0a8a 773c 645e 403d 1575 28bd
000003c0: e48c 7ebd b8fd 35bc b52f eabb 0d36 043d
000003d0: 208a 063d 85b8 58bd a1f1 37bd f26e 57bc
000003e0: b63f 463d 90e1 a63c efe2 92bd 6acc 0f3d
000003f0: 7b8f 2fbd 6cab 383d bc7f 52bd 0165 c93b

fc1.bias f4 [120]
-0.027231444 -0.07961021 -0.025808265 0.0847262 -0.07592462 -0.04322552 0.012576934 -0.033887982
0.10370566 -0.037262082 -0.001660058 0.05830492 -0.04388518 0.015625399 0.07605043 -0.02990024
0.06669304 -0.013709044 -0.035421647 0.023705093 0.032988116 0.0121569205 0.016181998 -0.034897953
0.033831403 -0.016710343 0.0063830726 -0.0060096025 0.043580282 -0.11389066 0.04263839 -0.018901601
-0.017233998 -0.021345736 -0.0071165003 -0.056765255 -0.014673979 -0.0062347692 0.005253274 0.02342055
-0.013708037 -0.0099236695 0.025455406 0.11698288 0.031407166 0.02736485 0.018857855 -0.06014156
-0.045307618 -0.063376755 0.06453689 0.0939453 -0.011434167 -0.030430494 -0.02467065 -0.0018310907
0.013810757 0.14973785 0.0050220746 -0.10664597 -0.0016553638 0.053765386 0.022027053 -0.03830681
0.048939243 -0.0070780157 -0.018004306 -0.002897994 0.003044921 -0.014369739 0.045994535 0.043423843
0.014466721 -0.013934423 0.028011732 -0.04472333 0.14216445 0.053639878 -0.038907316 0.04829674
-0.021143248 -0.00094571407 0.074967764 0.034019567 -0.060104832 0.07990427 -0.01912578 -0.042680196
0.024755124 0.06118924 0.004178226 -0.032998893 0.014596749 -0.051005714 0.066198364 -0.003507377
-0.016443895 0.02688267 -0.049890883 0.04371353 -0.022096744 -0.009661614 0.043899924 -0.048759196
-0.035017926 -0.01103729 -0.0067268177 -0.06417937 -0.016351866 -0.017929457 -0.043211643 -0.015961623
-0.038512353 -0.06688551 0.046297275 0.03657284 -0.05817036 -0.023929812 -0.016792338 0.07449383
00000000: 7a14 dfbc ae0a a3bd db6b d3bc ee84 ad3d
00000010: 5e7e 9bbd 3e0d 31bd 7c0f 4e3c 20ce 0abd
00000020: a263 d43d 20a0 18bd 4e96 d9ba 24d1 6e3d
00000030: f2c0 33bd d600 803c 54c0 9b3d 59f1 f4bc
00000040: 5c96 883d e69b 60bc 4a16 11bd 2f31 c23c
00000050: 8c1e 073d d22d 473c 1c90 843c 28f1 0ebd
00000060: cc92 0a3d 21e4 88bc 1829 d13b 33ec c4bb
00000070: 3d81 323d 823f e9bd 98a5 2e3d 88d7 9abc
00000080: 502e 8dbc 41dd aebc 8831 e9bb af82 68bd
00000090: 216b 70bc 094d ccbb a823 ac3b 74dc bf3c
000000a0: ad97 60bc e396 22bc db87 d03c b894 ef3d
000000b0: cda4 003d 402c e03c ca7b 9a3c ff56 76bd
000000c0: 7b94 39bd accb 81bd eb2b 843d 6566 c03d
000000d0: 5f56 3bbc 5f49 f9bc 1a1a cabc 3501 f0ba
000000e0: 8346 623c e154 193e 3790 a43b 3469 dabd
000000f0: cbf8 d8ba 1839 5c3d 1472 b43c 9ae7 1cbd
00000100: 8474 483d b3ee e7bb c47d 93bc 45ec 3dbb
00000110: 4c8d 473b 0e6f 6bbc c464 3c3d 33dd 313d
00000120: d305 6d3c 354d 64bc dc78 e53c cf2f 37bd
00000130: 8f93 113e 7db5 5b3d 475d 1fbd cdd2 453d
00000140: 9b34 adbc cce9 77ba b388 993d 1a58 0b3d
00000150: 7c30 76bd daa4 a33d abad 9cbc 6ed1 2ebd
00000160: 42cb ca3c 92a1 7a3d 80e9 883b d929 07bd
00000170: 3427 6f3c 5eeb 50bd 0293 873d 06dc 65bb
00000180: 59b5 86bc 0c39 dc3c 625a 4cbd f50c 333d
00000190: 3b04 b5bc bf4b 1ebc 68d0 333d b9b7 47bd
000001a0: f56e 0fbd c0d5 34bc a36c dcbb 7970 83bd
000001b0: 59f4 85bc cce0 92bc b1fe 30bd f3c1 82bc
000001c0: 21bf 1dbd 45fb 88bd 36a2 3d3d 67cd 153d
000001d0: 0b44 6ebd 7408 c4bc 1690 89bc 3990 983d

fc2.weight f4 [84, 120]
-0.04322541 0.11855733 -0.0022090424 -0.115748174 -0.0036890644 -0.0073266304 -0.09098058 0.009717773
0.006732428 -0.053523168 0.06958902 -0.08097127 0.024961105 -0.05175319 -0.025135813 -0.054421432
0.038772088 -0.04234119 -0.008186262 0.078379415 -0.047042426 -0.10336153 -0.09017505 0.08538413
0.02346699 0.022713177 0.03388398 -0.010547894 -0.07738607 0.14399399 -0.0740468 -0.021801991
0.042781454 -0.0583312 -0.08104341 0.08748647 -0.08666591 -0.033752307 -0.043194823 0.044063706
0.0710582 -0.019039586 -0.03357422 -0.15300423 -0.020936733 0.06164256 -0.085212186 -0.03221788
0.07068676 -0.099638134 -0.015497778 0.043116216 -0.07802361 -0.00543623 0.07914414 0.05306319
0.04972025 -0.03637275 -0.04590948 0.07883713 -0.060084123 0.009755817 0.07815024 0.047944948
0.0874202 -0.06253423 0.054116193 0.09757828 0.02267617 0.014825637 -0.038283776 -0.030238757
-0.04432222 -0.012020739 -0.057272468 -0.06453897 -0.10839997 0.10558141 0.094502315 0.050885398
0.028752284 0.024046196 0.0105512 -0.026674869 0.0026199282 -0.08452298 -0.019851161 0.071418524
-0.06115785 0.007083504 0.12756559 0.12649654 0.013894999 0.0861862 0.111746505 0.11657928
0.036894552 0.06760953 0.034538116 0.02773424 -0.088651195 -0.088433 -0.008137571 -0.052812956
0.008255393 0.018246658 -0.0320932 -0.025011567 0.008979718 -0.026629118 -0.0014139655 0.14371678
0.049357325 0.07941081 -0.015795676 -0.027690208 -0.074300334 -0.04298881 -0.112836234 -0.038065985
-0.083325684 -0.06830301 -0.06870684 0.020688504 0.03765211 0.07525048 0.038338955 -0.054258063
-0.023650067 -0.081752434 0.083016224 0.057394538 0.0638565 0.04264307 0.028570097 -0.03740117
0.055868402 0.0038839187 -0.07400242 -0.030470114 0.039705772 -0.06610118 -0.08252796 0.00059794117
0.049688894 0.03567615 0.03729794 -0.022009348 -0.016292155 -0.0899538 0.063425586 -0.090144314
0.013674775 -0.0069433562 0.020504188 -0.002256407 -0.039367862 0.041692775 0.006626511 0.016581515
0.0038799793 -0.078680284 -0.046628404 0.011865457 0.08226945 -0.09665563 -0.04577413 0.05848878
0.0628398 -0.03908669 -0.03147309 -0.06611481 -0.052870058 0.060724232 -0.030960577 -0.026324907
-0.06663453 -0.060153008 0.056157615 -0.06575619 0.013363177 0.05046913 -0.075825974 0.08006901
-0.07578169 0.079605676 -0.04563621 0.051627375 0.010911711 0.057194553 -0.044297464 0.02828464
-0.069686525 -0.02953957 -0.05521256 0.07935827 -0.05587114 -0.0730421 0.07999305 0.06561488
-0.001893331 -0.0029758373 0.0579852 0.078954056 0.048875716 0.0825692 -0.08123382 0.029371759
-0.06897495 0.06818345 0.087586686 -0.026190124 0.016527938 -0.034049593 0.036519207 0.05635022
0.0033629679 -0.04914248 -0.051146008 0.010510718 -0.06015054 -0.009503617 0.004025236 -0.068583384
0.052226625 0.06555175 0.02393405 0.069800794 0.04782796 -0.040246934 -0.06496867 0.066141166
0.0071153846 0.021583837 0.0005262842 -0.08923316 0.089076295 0.020669943 -0.06657231 0.044624493
-0.08625896 -0.012059189 -0.04546489 0.09197815 0.04591378 -0.01586659 0.10293068 -0.0089763915
0.035100013 -0.036182936 0.016673408 -0.09836578 -0.013876514 0.050940014 0.11628708 0.05706514
00000000: 210d 31bd 2fce f23d 95c5 10bb 610d edbd
00000010: 3bc4 71bb 3b14 f0bb 0754 babd 4b37 1f3c
00000020: b39b dc3b 1c3b 5bbd b084 8e3d 44d4 a5bd
00000030: 3b7b cc3c 27fb 53bd 9fe9 cdbc 02e9 5ebd
00000040: 7bcf 1e3d f56d 2dbd ac1f 06bc 6385 a03d
00000050: 8faf 40bd 36af d3bd b2ad b8bd e0dd ae3d
00000060: d83d c03c fc10 ba3c eec9 0a3d 13d1 2cbc
00000070: 967c 9ebd 2973 133e d9a5 97bd 179a b2bc
00000080: 9b3b 2f3d b2ec 6ebd 16fa a5bd 1b2c b33d
00000090: e67d b1bd dc3f 0abd 0eed 30bd 257c 343d
000000a0: f686 913d e8f8 9bbc 1f85 09bd 24ad 1cbe
000000b0: 8383 abbc e97c 7c3d ba83 aebd e5f6 03bd
000000c0: 38c4 903d 140f ccbd 64ea 7dbc a19a 303d
000000d0: d8ca 9fbd 6722 b2bb 5316 a23d ca58 593d
000000e0: 76a7 4b3d 98fb 14bd 940b 3cbd 5c75 a13d
000000f0: c51a 76bd ddd6 1f3c 3c0d a03d ec61 443d
00000100: 5d09 b33d f211 80bd f1a8 5d3d 1fd7 c73d
00000110: 60c3 b93c 3be7 723c 73cf 1cbd 45b7 f7bc
00000120: 378b 35bd a2f2 44bc 8996 6abd 022d 84bd
00000130: ce00 debd 113b d83d 6e8a c13d 356d 503d
00000140: e989 eb3c 87fc c43c f1de 2c3c 4185 dabc
00000150: 1ab3 2b3b 621a adbd e79e a2bc e043 923d
00000160: a780 7abd bd1c e83b 8ea0 023e 4f88 013e
00000170: daa7 633c 6482 b03d 5adb e43d 1ec1 ee3d
00000180: be1e 173d de76 8a3d d777 0d3d eb32 e33c
00000190: c28e b5bd 5c1c b5bd 7253 05bc 6652 58bd
000001a0: a141 073c 047a 953c 2974 03bd 0fe5 ccbc
000001b0: ab1f 133c 4f25 dabc cf54 b9ba 7e2a 133e
000001c0: e82a 4a3d 22a2 a23d ef65 81bc 93d6 e2bc
000001d0: c62a 98bd 0915 30bd af16 e7bd 14eb 1bbd
000001e0: a8a6 aabd 73e2 8bbd 2cb6 8cbd f07a a93c
000001f0: 1939 1a3d ec1c 9a3d 4f09 1d3d b43d 5ebd
00000200: c9bd c1bc d26d a7bd 6904 aa3d 8916 6b3d
00000210: 32c7 823d 80aa 2e3d d60b ea3c f831 19bd
00000220: 44d6 643d 5889 7e3b 958e 97bd 769c f9bc
00000230: 85a2 223d 0e60 87bd 6b04 a9bd 27bf 1c3a
00000240: 9586 4b3d 2821 123d bac5 183d f34c b4bc
00000250: 2077 85bc b339 b8bd 46e5 813d 959d b8bd
00000260: 2a0c 603c 1885 e3bb 66f8 a73c 3ae0 13bb
00000270: 3240 21bd 0bc6 2a3d 3423 d93b f5d5 873c
00000280: 4047 7e3b 2123 a1bd 6dfd 3ebd 5567 423c
00000290: e37c a83d 63f3 c5bd a77d 3bbd ee91 6f3d
000002a0: 27b2 803d 5d19 20bd ede9 00bd 3467 87bd
000002b0: 468e 58bd f9b9 783d 09a1 fdbc 55a7 d7bc
000002c0: af77 88bd 0063 76bd 8705 663d 2eab 86bd
000002d0: 3af1 5a3c b8b8 4e3d a64a 9bbd 39fb a33d
000002e0: 6e33 9bbd 4d08 a33d 09ed 3abd 3a77 533d
000002f0: 08c7 323c d644 6a3d 4271 35bd 30b5 e73c
00000300: cfb7 8ebd f8fc f1bc 9126 62bd 9786 a23d
00000310: 23d9 64bd 1997 95bd 65d3 a33d 1861 863d
00000320: a529 f8ba 4406 43bb e481 6d3d aab2 a13d
00000330: e731 483d 0a1a a93d eb5d a6bd 0b9d f03c
00000340: bd42 8dbd c4a3 8b3d a660 b33d ac8c d6bc
00000350: 9965 873c 9677 0bbd 2a95 153d 7dcf 663d
00000360: 3d65 5c3b a049 49bd 7a7e 51bd 2635 2c3c
00000370: 6a60 76bd 0fb5 1bbc 20e6 833b 7275 8cbd
00000380: 96eb 553d ff3f 863d 5711 c43c b8f3 8e3d
00000390: 40e7 433d f8d9 24bd 4b0e 85bd 0575 873d
000003a0: 2c28 e93b 96d0 b03c 56f6 093a e0bf b6bd
000003b0: a26d b63d 0354 a93c 1057 88bd 2cc8 363d
000003c0: 8aa8 b0bd e893 45bc 6439 3abd 0a5f bc3d
000003d0: 1610 3c3d a7fa 81bc 52cd d23d b711 13bc
000003e0: 08c5 0f3d 8f34 14bd ac96 883c 0074 c9bd
000003f0: 515a 63bc 7aa6 503d ec27 ee3d 23bd 693d

fc2.bias f4 [84]
-0.06879525 -0.08118385 0.11716178 -0.0678357 -0.0961944 -0.030981628 -0.049000535 -0.038684662
-0.067019954 -0.015809419 -0.010007214 -0.039931614 -0.0046401527 -0.009110399 -0.0006341664 -0.043103073
0.22554393 -0.075611725 0.03470454 -0.0798519 0.047787573 0.20767404 -0.08591829 -0.017889451
0.0037507166 0.07352549 -0.070994504 0.049367804 0.005927828 -0.036143254 0.0266615 0.020936573
0.050004207 0.067023456 -0.031046374 0.10186792 0.0013664197 -0.043404017 0.015591232 -0.033776823
0.023664884 0.035527624 -0.053031486 0.19515526 0.007844331 0.007096273 -0.09873191 0.08862519
-0.071958356 0.15769625 -0.053609386 0.15951209 -0.022385594 0.20357874 -0.015771838 0.07222804
0.21795624 0.084316775 -0.009186987 0.055251744 -0.08645202 0.16563183 0.053287357 -0.06646574
0.088870615 -0.00826679 -0.035256892 0.060145944 -0.15812574 0.17687745 -0.10499559 -0.10179432
-0.0795467 -0.011477413 -0.034062922 0.12150778 -0.04274771 -0.05298186 0.10976504 0.0022400743
-0.026682923 0.094189525 -0.08739671 0.051114656
00000000: 86e4 8cbd b843 a6bd 84f2 ef3d 72ed 8abd
00000010: 9201 c5bd 2fcd fdbc c9b4 48bd cf73 1ebd
00000020: c241 89bd c182 81bc 4cf5 23bc 558f 23bd
00000030: 6c0c 98bb c843 15bc 303e 26ba d98c 30bd
00000040: fdf4 663e 52da 9abd 5926 0e3d 6589 a3bd
00000050: e7bc 433d 81a8 543e eef5 afbd e68c 92bc
00000060: 95ce 753b 8894 963d 9165 91bd e535 4a3d
00000070: 3a3e c23b f30a 14bd 3869 da3c 2d83 ab3c
00000080: 36d1 4c3d 9843 893d f754 febc 21a0 d03d
00000090: 7019 b33a 69c8 31bd 5e72 7f3c 9159 0abd
000000a0: dcdc c13c 6a85 113d 8b37 59bd c8d6 473e
000000b0: 8285 003c da87 e83b f533 cabd 2081 b53d
000000c0: e75e 93bd 207b 213e 8495 5bbd 2357 233e
000000d0: fe61 b7bc f276 503e f133 81bc 4bec 933d
000000e0: ec2f 5f3e 46ae ac3d 0485 16bc a74f 623d
000000f0: c20d b1bd 649b 293e d843 5a3d 311f 88bd
00000100: cc01 b63d 6e71 07bc 8869 10bd 985b 763d
00000110: b7eb 21be 5d1f 353e ee07 d7bd 8a79 d0bd
00000120: 61e9 a2bd c20b 3cbc 9085 0bbd 12d9 f83d
00000130: 3918 2fbd 8203 59bd 7ecc e03d 36ce 123b
00000140: 2596 dabc 70e6 c03d 0cfd b2bd 9a5d 513d

fc3.weight f4 [10, 84]
0.04066999 0.04116198 -0.01747477 0.04814739 0.05568686 -0.10157795 0.09166997 0.041178297
0.02085356 -0.07031077 -0.061436307 0.0049430425 0.039017294 0.3964233 -0.025800817 0.06915854
-0.28731146 -0.0662292 0.19669561 -0.09120226 -0.056028 0.0047747027 -0.043703515 0.057530772
0.20458828 0.058240328 0.19068407 0.1242452 -0.098853275 0.09691522 0.031787124 -0.12157408
-0.13849953 -0.09858476 0.04652913 -0.17198388 -0.115897804 0.20056884 -0.053801585 -0.02055102
0.031615872 0.04034169 -0.14756368 -0.23778675 0.03321285 0.114042945 0.31905076 -0.07987107
-0.01108991 -0.15078777 -0.045292787 -0.16395997 -0.104013644 -0.28782544 -0.09523112 -0.20013262
-0.33098993 -0.120234124 -0.044073958 -0.13164829 0.025722 -0.16203357 0.10064414 0.032500673
-0.05881526 -0.17248926 0.029698659 -0.004250217 0.068507485 -0.36107212 0.09653123 -0.103737846
0.036021452 -0.048798125 0.054475743 -0.06966789 -0.08260917 -0.024258276 -0.11919279 0.25557238
-0.07270681 -0.023102298 -0.08133779 -0.071373545 -0.032985304 -0.0965989 -0.06370837 0.0056612925
0.10582195 -0.11591482 0.10436479 0.0145003935 0.07964639 0.007850999 0.04327275 0.21958359
0.08378284 -0.090721846 -0.25587586 -0.018766869 -0.075803384 0.012501245 0.09142141 0.08437169
0.016270136 -0.08419674 -0.045673296 -0.026901128 0.10960891 -0.049942512 -0.020742793 0.038799554
0.060985815 -0.08049552 -0.073089264 -0.07260674 0.124616735 0.4009344 -0.038556255 -0.11752322
0.22279797 0.055955622 0.12834086 -0.032069784 -0.23136315 -0.039240114 -0.06305057 -0.2157816
-0.0084697185 -0.15764144 -0.18146533 0.19654071 -0.0020222843 0.06232331 0.06390982 -0.12347315
0.20361227 0.2581798 -0.010254612 -0.32748643 -0.07187916 0.3513911 0.0037298484 0.023159705
0.11533994 0.17417386 0.1485848 0.16729985 0.18547401 0.25634524 -0.0016038631 -0.112352654
-0.01617408 0.10905513 -0.103448935 0.0077804932 -0.08352306 -0.08885499 0.02103938 -0.022164322
0.008052705 0.0014443458 -0.07275991 -0.016601043 0.1033777 -0.05593012 -0.118436106 0.27309057
-0.003512335 0.02955935 -0.010999264 -0.07188783 -0.001333299 0.06907495 -0.056411523 -0.018432897
-0.033090297 -0.059747163 -0.09409068 0.008336702 -0.054919362 -0.016513513 -0.09847396 0.014533411
0.06579975 0.109343566 0.048754096 -0.016875453 -0.037351668 0.09322435 -0.0073076105 0.06720064
-0.11275922 -0.042044163 -0.11679594 0.09892796 -0.095749795 0.0479101 0.061549876 -0.08526567
-0.103657804 -0.055446807 0.037780397 0.05647438 0.01999873 -0.11342843 -0.07317272 0.028895896
-0.021797894 -0.018989185 -0.11927968 -0.08709572 -0.08704207 -0.08834178 -0.11726584 0.0902894
0.01932739 0.08426091 0.10748629 -0.0031246417 -0.08548566 -0.012149073 0.039082084 -0.025305793
0.031188319 -0.065442756 -0.024566043 0.029082526 0.083144724 0.060842168 -0.14724067 -0.009911062
0.05570482 0.07357936 0.10654305 0.08619878 0.030098327 0.04182592 -0.067784205 0.06758868
0.06117983 -0.05651756 -0.09741139 -0.043103803 -0.07270646 -0.066686615 0.03528439 -0.03829068
-0.018129356 -0.022163592 0.008669055 -0.06096428 -0.14481555 0.07624466 -0.11351492 -0.0005806569
00000000: 9395 263d 7799 283d 4027 8fbc 3336 453d
00000010: e817 643d 1a08 d0bd 77bd bb3d 93aa 283d
00000020: 16d5 aa3c 18ff 8fbd a3a4 7bbd 3ff9 a13b
00000030: 99d0 1f3d fff7 ca3e 3c5c d3bc fea2 8d3d
00000040: 7d1a 93be 2da3 87bd 936a 493e 40c8 babd
00000050: 9e7d 65bd 1c75 9c3b 7502 33bd 63a5 6b3d
00000060: 977f 513e 698d 6e3d af42 433e 4474 fe3d
00000070: 9673 cabd 7d7b c63d 3733 023d d5fb f8bd
00000080: d2d2 0dbe cfe6 c9bd 5495 3e3d 8b1c 30be
00000090: d45b edbd eb61 4d3e 0d5f 5cbd 9d5a a8bc
000000a0: a57f 013d 543d 253d ef1a 17be 5f7e 73be
000000b0: 330a 083d 598f e93d 9f5a a33e 7293 a3bd
000000c0: 74b2 35bc 1c68 1abe ee84 39bd 1fe5 27be
000000d0: 1b05 d5bd db5d 93be 8908 c3bd 91ef 4cbe
000000e0: 8377 a9be 4f3d f6bd e586 34bd cfce 06be
000000f0: f2b6 d23c 21ec 25be 841e ce3d 6d1f 053d
00000100: 45e8 70bd 06a1 30be 9a4a f33c 6845 8bbb
00000110: a74d 8c3d 72de b8be 2ab2 c53d 8274 d4bd
00000120: 3b8b 133d 8be0 47bd f521 5f3d 0aae 8ebd
00000130: ff2e a9bd 4bb9 c6bc 591b f4bd 62da 823e
00000140: 4fe7 94bd 0841 bdbc 6d94 a6bd 4b2c 92bd
00000150: 991b 07bd a5d5 c5bd 8979 82bd 5d82 b93b
00000160: 2eb9 d83d c064 edbd 35bd d53d 0f93 6d3c
00000170: a61d a33d 7aa1 003c c43e 313d 85da 603e
00000180: 5696 ab3d 60cc b9bd 2902 83be fabc 99bc
00000190: ce3e 9bbd 06d2 4c3c 263b bb3d 11cb ac3d
000001a0: f348 853c 576f acbd ec13 3bbd c15f dcbc
000001b0: a37a e03d 8590 4cbd caec a9bc 48ec 1e3d
000001c0: 43cc 793d d6da a4bd d3af 95bd d8b2 94bd
000001d0: 0f37 ff3d 4647 cd3e 2aed 1dbd 04b0 f0bd
000001e0: 2725 643e b931 653d c96b 033e 9b5b 03bd
000001f0: 76ea 6cbe 3eba 20bd a820 81bd daf5 5cbe
00000200: 93c4 0abc c26c 21be 0cd2 39be f841 493e
00000210: 4d88 04bb ba46 7f3d 27e3 823d 7edf fcbd
00000220: bc7f 503e 2530 843e f602 28bc 4dac a7be
00000230: 6235 93bd 89e9 b33e 7970 743b 6cb9 bd3c
00000240: 5937 ec3d a25a 323e 9d26 183e a750 2b3e
00000250: e6ec 3d3e af3f 833e b738 d2ba 2619 e6bd
00000260: 817f 84bc 4c58 df3d 09dd d3bd 82f3 fe3b
00000270: 230e abbd 9bf9 b5bd c75a ac3c f491 b5bc
00000280: 7eef 033c 3450 bd3a 2603 95bd e9fe 87bc
00000290: b0b7 d33d fb16 65bd a18e f2bd 87d2 8b3e
000002a0: 342f 66bb 7326 f23c 4236 34bc ed39 93bd
000002b0: 17c2 aeba 2b77 8d3d c50f 67bd 9600 97bc
000002c0: b189 07bd 71b9 74bd 9db2 c0bd aa96 083c
000002d0: 20f3 60bd 5947 87bc b7ac c9bd 8b1d 6e3c
000002e0: 05c2 863d 85ef df3d 60b2 473d 643e 8abc
000002f0: 10fe 18bd 68ec be3d ae74 efbb 7da0 893d
00000300: 4eee e6bd 8036 2cbd b632 efbd be9a ca3d
00000310: 7818 c4bd 623d 443d b91b 7c3d c59f aebd
00000320: 8b4a d4bd 311c 63bd 9ebf 1a3d ae51 673d
00000330: 60d4 a33c 2a4d e8bd 94db 95bd 16b7 ec3c
00000340: 7f91 b2bc 358f 9bbc e848 f4bd 3e5f b2bd
00000350: 1d43 b2bd 89ec b4bd 1329 f0bd a6e9 b83d
00000360: 7954 9e3c fc90 ac3d c621 dc3d cac6 4cbb
00000370: 1b13 afbd e80c 47bc 8914 203d 184e cfbc
00000380: a57e ff3c da06 86bd ba3e c9bc 7a3e ee3c
00000390: c847 aa3d a335 793d 42c6 16be 0262 22bc
000003a0: bd2a 643d c7b0 963d 3e33 da3d fc88 b03d
000003b0: c490 f63c a851 2b3d 72d2 8abd ef6b 8a3d
000003c0: b497 7a3d f57e 67bd 9f7f c7bd 9d8d 30bd
000003d0: 20e7 94bd fe92 88bd 5d86 103d b0d6 1cbd
000003e0: 0484 94bc 6c90 b5bc a708 0e3c aeb5 79bd
000003f0: 874a 14be 2926 9c3d 837a e8bd 3a37 18ba

fc3.bias f4 [10]
-0.31444368 -0.0022920093 0.088271596 0.10765319 0.14549945 -0.16084544 0.2904816 -0.08027758
-0.08055609 -0.04170454
00000000: c3fe a0be 8935 16bb bdc7 b43d 4779 dc3d
00000010: cffd 143e abb4 24be 01ba 943e 9268 a4bd
00000020: 97fa a4bd 61d2 2abd
