round1/2025-04-18 18:20:32-weight-client-b8e76fc7-8.pth (torch, 252478 bytes, 10 tensors)

conv1.weight f4 [6, 3, 5, 5]
-0.57635325 -0.34381595 0.47220084 0.036857862 0.054074682 -0.43360013 -0.11908738 0.4753601
0.13481294 0.25132626 -0.3358647 -0.078889646 0.48776168 0.20851378 0.30525178 0.04080589
-0.11727107 0.6109961 0.539192 0.4374417 0.23656966 0.25983655 0.4502232 0.5411316
0.5460691 -0.26950085 0.058017366 0.7463146 0.59969586 0.47556686 -0.047826637 0.47915068
1.0098931 0.67476404 0.83058345 0.13122757 0.31860036 0.81076765 0.74255794 0.7103453
0.21756713 0.30822223 0.95142615 0.73779947 0.72155 0.29421753 0.35396224 0.84141684
0.8353402 0.78328633 -1.5819024 -1.0453382 -0.48028725 -0.8934689 -0.8705897 -1.3521122
-0.8579892 -0.6418413 -0.8205689 -0.8350433 -1.2661451 -1.1199154 -0.80846125 -1.015416
-0.9463277 -1.2888998 -1.2561338 -0.6722921 -0.8446968 -0.99215126 -1.1940061 -1.1758763
-0.7624633 -0.9374258 -0.9875328 0.105916366 0.0075962516 0.06826463 -0.10024544 -0.08868237
0.050426237 -0.021279339 0.005478458 -0.088229954 0.035796203 -0.11256617 -0.1111805 -0.061752718
-0.017963832 0.08345251 0.06844394 0.11004258 0.008622975 0.10227094 -0.029951887 -0.054776993
-0.04369445 -0.047374398 0.071145296 -0.023807384 -0.095962696 0.048838045 -0.06864997 -0.081947416
-0.05782699 -0.110293105 0.038420767 -0.116027206 0.06169295 0.023224829 -0.10549364 0.0011029692
0.00053555454 -0.059397865 0.047457833 0.023510013 -0.022008907 -0.006554996 0.058425397 -0.08351536
-0.111510254 -0.0092156995 -0.075287364 0.050273824 -0.090192564 -0.048768166 -0.07133441 -0.063115075
0.039806195 -0.10651455 0.023212824 -0.06931795 0.08575952 -0.10567132 0.016545964 0.03133801
0.02949726 -0.104691766 -0.034691595 0.020710906 -0.008873465 -0.06534265 -0.07532517 0.00962922
-0.063338906 0.04715693 0.053230025 -0.034303386 0.036771975 0.055027377 0.038061444 -0.028728949
-0.06595481 -0.1190605 -0.011904622 0.003132135 -0.09245007 -0.021264551 0.10571449 -0.05890728
-0.11558219 -0.003764436 -0.04401344 0.0109316865 0.08145829 0.06380386 0.063903086 -0.08381601
-0.01897524 -0.10551184 0.06425232 0.052088406 -0.03362785 0.057277776 0.026483374 -0.03965946
0.0259712 0.10048536 -0.011554828 0.001074231 0.06090892 0.0028588863 0.10393966 -0.010400783
-0.068967 -0.12026185 -0.08166655 -0.077896565 -0.10412906 -0.079633944 -0.041468002 -0.027266633
0.009506241 -0.091199525 -0.09026727 -0.06817561 0.0747931 0.076153845 0.024320262 0.029608076
0.031584565 -0.0711454 -0.086993024 0.04032893 -0.060553327 -0.021254888 -0.09744513 -0.049832128
-0.06034084 -0.10876666 0.07020094 -0.033138826 -0.019584319 -0.021712476 -0.08896423 -0.101233006
0.020930015 0.0437485 0.052183475 0.019107183 0.04575243 0.028380591 0.022649266 -0.033925157
-0.08618542 -0.7869179 -0.6980638 -0.57077944 -0.7299034 -0.7209285 -0.40412366 -0.11769747
-0.06331265 -0.32145593 -0.21287988 -0.14733021 -0.0001115324 0.26389992 0.032185 -0.12880908
0.1904638 0.16288649 0.32194936 0.36246115 0.08018541 0.14499246 0.26543543 0.1509432
0.19100931 0.058668025 -0.41297314 -0.0010275446 -0.0009930182 -0.04471262 -0.09692562 0.15387438
00000000: e38b 13bf a508 b0be 4fc4 f13e 45f8 163d
00000010: 6a7d 5d3d d600 debe 16e4 f3bd 6662 f33e
00000020: 670c 0a3e d6ad 803e 75f6 abbe e590 a1bd
00000030: e6bb f93e a384 553e f649 9c3e 1424 273d
00000040: d12b f0bd 3e6a 1c3f 7d08 0a3f 5cf8 df3e
00000050: 513f 723e 4c09 853e a883 e63e 9a87 0a3f
00000060: 2fcb 0b3f 04fc 89be 9ea3 6d3d 790e 3f3f
00000070: ab85 193f 807d f33e dde5 43bd 3d53 f53e
00000080: 2d44 813f 56bd 2c3f 1ea1 543f 8560 063e
00000090: 961f a33e 788e 4f3f 4718 3e3f 31d9 353f
000000a0: ebc9 5e3e 4ecf 9d3e aa90 733f 6de0 3c3f
000000b0: 80b7 383f aea3 963e 8a3a b53e 1867 573f
000000c0: dbd8 553f 7485 483f c77b cabf a4cd 85bf
000000d0: 36e8 f5be 61ba 64bf f7de 5ebf 0312 adbf
000000e0: 2ea5 5bbf b64f 24bf ce10 52bf 66c5 55bf
000000f0: 0b11 a2bf 6359 8fbf 51f7 4ebf 27f9 81bf
00000100: 8842 72bf abfa a4bf fec8 a0bf 561b 2cbf
00000110: 0d3e 58bf a0fd 7dbf 31d5 98bf 1d83 96bf
00000120: cb30 43bf 23fb 6fbf f3ce 7cbf aeea d83d
00000130: fae9 f83b 54ce 8b3d 7b4d cdbd 1a9f b5bd
00000140: be8b 4e3d 0252 aebc a384 b33b e8b1 b4bd
00000150: 0a9f 123d 1889 e6bd 9ab2 e3bd 6bf0 7cbd
00000160: e328 93bc 26e9 aa3d 562c 8c3d 015e e13d
00000170: 6147 0d3c 6d73 d13d a95d f5bc d75d 60bd
00000180: f4f8 32bd a80b 42bd a0b4 913d b407 c3bc
00000190: 1788 c4bd 670a 483d 5b98 8cbd 0cd4 a7bd
000001a0: fedb 6cbd 5ae1 e1bd 185f 1d3d ac9f edbd
000001b0: bfb1 7c3d ff41 be3c 0d0d d8bd 8191 903a
000001c0: 7564 0c3a 2d4b 73bd 2563 423d 1298 c03c
000001d0: 064c b4bc 4bcb d6bb 784f 6f3d 1a0a abbd
000001e0: 7d5f e4bd 72fd 16bc 4330 9abd edeb 4d3d
000001f0: e1b6 b8bd 21c1 47bd c617 92bd 7a42 81bd
00000200: d20b 233d 4d24 dabd d228 be3c 92f6 8dbd
00000210: b0a2 af3d 346a d8bd 678b 873c 495c 003d
00000220: 3da4 f13c a368 d6bd c618 0ebd eba9 a93c
00000230: 0262 11bc 5ed2 85bd 1544 9abd e0c3 1d3c
00000240: d4b7 81bd a027 413d ba07 5a3d b581 0cbd
00000250: 369e 163d 6364 613d 51e6 1b3d f958 ebbc
00000260: 5113 87bd fed5 f3bd 9b0b 43bc 8144 4d3b
00000270: 7656 bdbd ff32 aebc d780 d83d c348 71bd
00000280: 5bb6 ecbd c2b4 76bb 7047 34bd d11a 333c
00000290: 9bd3 a63d 99ab 823d 9fdf 823d baa7 abbd
000002a0: f671 9bbc 9716 d8bd b896 833d a75a 553d
000002b0: 5bbd 09bd 1a9c 6a3d a9f3 d83c f571 22bd
000002c0: 8ec1 d43c 45cb cd3d 7650 3dbc 36cd 8c3a
000002d0: a27b 793d 275c 3b3b 51de d43d 0c68 2abc
000002e0: 923e 8dbd d84b f6bd cb40 a7bd 3c88 9fbd
000002f0: 9e41 d5bd 1f17 a3bd 5ada 29bd 465e dfbc
00000300: 11c0 1b3c d1c6 babd 0cde b8bd a79f 8bbd
00000310: 202d 993d 8cf6 9b3d 493b c73c a38c f23c
00000320: d15e 013d aeb4 91bd 6629 b2bd f32f 253d
00000330: c406 78bd bb1e aebc 5091 c7bd c61c 4cbd
00000340: f527 77bd 0ec1 debd 83c5 8f3d 94bc 07bd
00000350: 4b6f a0bc 5dde b1bc e132 b6bd 4053 cfbd
00000360: 6c75 ab3c a131 333d 57be 553d ab86 9c3c
00000370: e666 3b3d 6a7e e83c f48a b93c 1bf5 0abd
00000380: fb81 b0bd 7473 49bf 4fb4 32bf 9a1e 12bf
00000390: f3da 3abf c58e 38bf 4ce9 cebe 5f0b f1bd
000003a0: 10aa 81bd df95 a4be 2ffd 59be bbdd 16be
000003b0: 80e6 e9b8 e41d 873e 6bd4 033d 87e6 03be
000003c0: f108 433e b7cb 263e 8cd6 a43e 8294 b93e
000003d0: 4038 a43d e778 143e 27e7 873e db90 1a3e
000003e0: f297 433e e24d 703d 3771 d3be adae 86ba
000003f0: 2928 82ba 9524 37bd f180 c6bd 3f91 1d3e

conv1.bias f4 [6]
-0.569912 0.046068426 -0.06581893 -3.3848681 0.13535541 0.47694045
00000000: c1e5 11bf 3fb2 3c3d 13cc 86bd aea1 58c0
00000010: 9c9a 0a3e 8a31 f43e

conv2.weight f4 [16, 6, 5, 5]
-0.0768775 0.029804235 -0.019225046 -0.042959817 -0.03630869 -0.029270045 -0.06124264 -0.052776016
-0.0044873115 -0.06071595 -0.04971502 -0.06926239 0.026734069 -0.011973947 -0.06429014 0.040393885
0.023813345 -0.06836245 -0.09049445 -0.16411933 -0.06596019 -0.08239244 -0.093990415 -0.12026923
-0.13049778 0.046919342 0.00840109 0.06670405 -0.010081622 0.068776265 0.0093818065 -0.010147472
0.05628918 -0.0048835524 0.037334185 -0.043755252 0.0008734506 -0.04967523 -0.0068834582 -0.04288556
0.05281358 -0.013249917 0.07279459 -0.037210073 0.07600373 0.054509696 0.059973672 0.07734585
-0.05394602 0.04786008 -0.020919492 0.073855005 -0.053921632 0.070849724 0.03612797 -0.04616364
-0.018988783 -0.044113684 -0.018833954 0.06249382 0.073023975 -0.07825522 0.020415358 -0.009505417
-0.017461488 0.06265038 0.03303993 0.05785379 -0.02900113 0.019594846 0.06553195 -0.07662399
0.059499934 0.00083848264 -0.04069604 0.1184423 0.029811105 0.015703294 0.025918754 0.09820644
0.016404692 0.100809835 0.03619337 0.03577516 0.07057042 -0.119575955 -0.14168902 -0.11506256
-0.06661914 -0.14761004 0.059480064 0.029855201 -0.0081376415 -0.09612639 0.04180452 0.032435887
0.059458513 0.084623896 0.06397123 0.12370057 0.031285558 0.03647161 -0.08545688 -0.056958724
-0.03614204 -0.0024768964 0.008706372 -0.017774148 0.027904607 -0.049275786 -0.021921989 -0.04085598
-0.069409534 -0.024303177 -0.09412391 0.03762853 0.06932109 -0.03177899 -0.07301004 0.039961815
0.078651324 -0.016010461 0.0064148824 -0.026451034 0.030152887 -0.15223853 -0.11198479 -0.017326456
-0.084663615 -0.09298148 0.097432666 0.19062841 0.12675013 0.19616817 0.15703522 0.17543477
0.15710156 0.11769238 0.09770055 0.037134726 -0.15810314 -0.11717227 -0.12248897 -0.1398098
-0.1319241 -0.045393527 -0.02201893 -0.14245549 -0.12505622 -0.003950383 0.30640024 0.4877101
0.4877878 0.04748126 -0.4335366 0.3418669 0.28748834 0.49264646 0.11517995 -0.58055115
0.19766374 0.19951534 0.5054949 0.11035151 -0.73597467 0.14555131 0.2094826 0.25847033
-0.06750816 -0.5803354 0.07984215 0.12829372 0.037062794 -0.3002068 -0.53074944 0.030857181
0.07593046 -0.057530854 -0.07688155 -0.019598812 -0.0629141 0.050919674 0.044308532 -0.02641253
0.026302356 0.028089236 -0.032502208 -0.014255034 -0.0350825 -0.031746075 0.0577854 -0.007124899
-0.07081293 0.019338522 -0.0041193124 -0.013274941 -0.06253424 -0.057594027 0.028660439 -0.060248878
0.069532745 0.06301204 -0.06278879 -0.00036517347 -0.06273847 0.07816087 0.07431484 -0.0067114523
0.001963511 -0.03997945 -0.065793045 0.045059495 0.025248025 -0.027735388 0.08165213 -0.042117465
0.06419595 -0.06884851 -0.060337927 -0.0776998 0.030732948 -0.0019827343 -0.015499794 0.023373147
0.02200249 -1.1008301 -0.8148797 0.016685776 0.9627139 1.0877974 -1.2772852 -1.2007475
-0.03324276 1.0424695 1.2379054 -1.1562065 -1.203776 -0.317305 0.84245026 0.95675725
-0.98375404 -0.9244546 -0.16131878 0.6267764 0.86260104 -0.8571488 -0.59701365 -0.07633587
0.33157218 0.54047406 0.046116658 0.041437138 -0.050252285 -0.118027724 -0.19832118 0.19443844
00000000: f371 9dbd 0328 f43c d87d 9dbc a2f6 2fbd
00000010: 6cb8 14bd bcc7 efbc 90d9 7abd aa2b 58bd
00000020: 4c0a 93bb 4ab1 78bd faa1 4bbd 71d9 8dbd
00000030: 6801 db3c 602e 44bc 8daa 83bd 0f74 253d
00000040: 3414 c33c 9d01 8cbd 2755 b9bd e60e 28be
00000050: 2316 87bd 5ebd a8bd 0c7e c0bd b74f f6bd
00000060: 36a1 05be 7f2e 403d baa4 093c 229c 883d
00000070: 632d 25bc 92da 8c3d 26b6 193c 9541 26bc
00000080: 7c8f 663d 3506 a0bb bbeb 183d b538 33bd
00000090: 47f8 643a 4178 4bbd a28e e1bb c5a8 2fbd
000000a0: 0d53 583d 2e16 59bc 5415 953d 9769 18bd
000000b0: d8a7 9b3d 8f45 5f3d f4a6 753d 8067 9e3d
000000c0: 80f6 5cbd ee08 443d 5b5f abbc 4b41 973d
000000d0: eedc 5cbd a919 913d ecfa 133d 1616 3dbd
000000e0: 5d8e 9bbc 8db0 34bd aa49 9abc 85f9 7f3d
000000f0: 988d 953d 4644 a0bd 1c3e a73c 9cbc 1bbc
00000100: 650b 8fbc d84e 803d e154 073d 18f8 6c3d
00000110: c793 edbc 5f85 a03c 9d35 863d 0aed 9cbd
00000120: 34b6 733d 9ecd 5b3a e4b0 26bd e091 f23d
00000130: 6b36 f43c 32a4 803c 9153 d43c 7520 c93d
00000140: 2263 863c 6375 ce3d 803f 143d f988 123d
00000150: 3987 903d 3de4 f4bd ed16 11be eba5 ebbd
00000160: 9e6f 88bd 1627 17be 5ea1 733d e592 f43c
00000170: be53 05bc eadd c4bd 373b 2b3d 7edb 043d
00000180: c58a 733d 4b4f ad3d 5903 833d b956 fd3d
00000190: 4925 003d 4163 153d 0404 afbd 8d4d 69bd
000001a0: ad09 14bd 6d53 22bb 2ca5 0e3c 179b 91bc
000001b0: 3498 e43c 68d5 49bd be95 b3bc 9a58 27bd
000001c0: 9626 8ebd 7517 c7bc 09c4 c0bd 6020 1a3d
000001d0: 37f8 8d3d b02a 02bd 4a86 95bd 00af 233d
000001e0: f213 a13d 5f28 83bc ef33 d23b d7af d8bc
000001f0: 3003 f73c 6be4 1bbe 4858 e5bd 36f0 8dbc
00000200: 1e64 adbd 136d bebd c78a c73d 1834 433e
00000210: c9ca 013e 4fe0 483e d7cd 203e 2ca5 333e
00000220: 3bdf 203e b408 f13d 3a17 c83d 951a 183d
00000230: cae5 21be 04f8 efbd 7fdb fabd 4d2a 0fbe
00000240: 1c17 07be 90ee 39bd 0b61 b4bc dadf 11be
00000250: bd0e 00be 3772 81bb 7ee0 9c3e 23b5 f93e
00000260: 53bf f93e b67b 423d 82f8 ddbe 2e09 af3e
00000270: ac31 933e 283c fc3e 77e3 eb3d 009f 14bf
00000280: 5d68 4a3e c04d 4c3e 1d68 013f f9ff e13d
00000290: d668 3cbf 670b 153e 9b82 563e 3956 843e
000002a0: b841 8abd dc90 14bf 4884 a33d 6e5f 033e
000002b0: 28cf 173d b5b4 99be 32df 07bf 33c8 fc3c
000002c0: 6e81 9b3d 79a5 6bbd 1374 9dbd b08d a0bc
000002d0: 1cd9 80bd 2691 503d dd7c 353d 175f d8bc
000002e0: 0a78 d73c 661b e63c 0921 05bd f28d 69bc
000002f0: abb2 0fbd 2c08 02bd 62b0 6c3d fc77 e9bb
00000300: 5f06 91bd d26b 9e3c 4cfb 86bb 237f 59bc
00000310: f411 80bd b7e7 6bbd 4cc9 ea3c 87c7 76bd
00000320: 2f67 8e3d 750c 813d 6997 80bd c174 bfb9
00000330: 077d 80bd ce12 a03d 6132 983d beeb dbbb
00000340: 40ae 003b 7ec1 23bd 81be 86bd 4e90 383d
00000350: f2d4 ce3c 5335 e3bc 3b39 a73d 5d83 2cbd
00000360: 2b79 833d 7300 8dbd e724 77bd 1321 9fbd
00000370: aac3 fb3c c3f0 01bb d9f2 7dbc 0b79 bf3c
00000380: 913e b43c 00e8 8cbf f59b 50bf 9cb0 883c
00000390: 6b74 763f f23c 8b3f 157e a3bf 18b2 99bf
000003a0: 8f29 08bd a46f 853f af73 9e3f 93fe 93bf
000003b0: 5515 9abf cd75 a2be d2aa 573f 0bee 743f
000003c0: 4ed7 7bbf 0fa9 6cbf c030 25be 6b74 203f
000003d0: 6cd3 5c3f 1b6e 5bbf e3d5 18bf fb55 9cbd
000003e0: d4c3 a93e 825c 0a3f d2e4 3c3d fdb9 293d
000003f0: 57d5 4dbd 85b8 f1bd b514 4bbe df1a 473e

conv2.bias f4 [16]
0.03383287 -0.20842995 -0.041426964 -0.3907489 0.13027054 -0.053724285 -0.12919705 -0.39613426
-0.09412083 -0.06592373 -0.00985449 0.015054885 -0.112688854 0.3608557 -0.39443505 0.076216295
00000000: 5694 0a3d a96e 55be 52af 29bd 3d10 c8be
00000010: a465 053e ff0d 5cbd 3b4c 04be 1cd2 cabe
00000020: 6cc2 c0bd 0503 87bd ba74 21bc c4a8 763c
00000030: 6ac9 e6bd 14c2 b83e 64f3 c9be 4a17 9c3d

fc1.weight f4 [120, 400]
0.036645666 -0.007364502 -0.010213644 0.035412367 -0.009335758 0.011916809 -0.028523153 0.018002013
-0.042182732 0.02295481 -3.8712755e-05 -0.0010712707 0.03148172 -0.03446688 0.030548636 -0.047715615
-0.021277474 0.0027926117 -0.045656208 0.02917638 0.0031401708 0.030081548 -0.0009840508 -0.0622299
-0.040197045 -0.04230623 -0.12809242 -0.1941714 -0.15868224 -0.29134506 -0.0891537 -0.11210806
-0.17064252 -0.19141448 -0.23099263 -0.14458075 -0.10941429 0.018100677 0.010355827 -0.10364731
-0.044507746 0.030588036 0.09410435 0.14020437 -0.06784734 -0.10455067 -0.027041348 -0.051107753
0.07081106 -0.11756851 -0.15275711 -0.09746914 -0.25651067 -0.19079728 0.016167393 -0.1022876
0.029381368 -0.022737645 0.051763393 0.18611343 -0.032552063 0.06059478 0.05944509 0.009106274
-0.108433135 0.14479011 0.20071268 0.17120427 -0.044584982 -0.19527368 0.14754577 0.22537579
0.18009895 0.13246411 -0.18958482 0.009263586 -0.036592502 -0.14127019 -0.08248043 -0.040613957
-0.036147904 -0.045225773 -0.06306963 0.0073328796 -0.0063236416 0.025202543 0.035202466 0.06509098
0.032948576 0.046655156 0.053226914 0.089803495 0.035425823 0.0010683885 0.08988344 0.026448976
0.06599889 0.04959586 0.066658035 0.15222992 -0.0486387 0.014392217 0.004938652 0.022334548
0.053144444 -0.06384371 -0.101617455 -0.030795885 -0.024610097 0.04922817 -0.070378885 -0.026212411
-0.044613082 -0.015082768 0.008137663 0.06464428 0.021978749 0.022936413 0.05816924 0.05211483
0.13700686 0.19624965 0.15227933 0.1627503 0.13646753 0.012990985 0.0070801005 -0.009647755
0.0017057905 -0.04747294 0.0072891926 -0.018517807 -0.035732843 -0.038075957 -0.056985248 -0.0451026
-0.040788934 0.03221639 -0.047289517 -0.014047904 -0.047814075 -0.047454774 0.08197636 -0.041233685
-0.0736211 -0.011625382 0.0014579993 -0.033275012 -0.03562273 -0.040326376 -0.009810047 0.02583185
0.08592908 0.052023474 0.008139321 -0.011346386 0.084904574 0.051897906 0.09830911 0.06322191
0.008030488 0.0360009 0.06236116 0.07495234 0.03319511 0.050946284 0.009837226 -0.01425607
0.014364911 0.038200907 0.04941748 -3.5553992e-05 0.0014100154 -0.015613196 0.04148916 -0.08553214
-0.06968967 -0.11203768 -0.03957275 -0.08372398 -0.12793188 -0.11789529 -0.061020475 -0.07422295
-0.14414617 0.012106244 0.061312642 -0.06469297 -0.039244235 -0.10308409 -0.026230853 0.031652503
0.04785177 0.14045542 0.017713528 0.044018347 -0.013260891 -0.05035135 -0.018205335 0.064492024
0.009891009 0.018935157 0.03968094 0.042670134 -0.04452491 -0.067315094 0.062105782 0.081946895
0.04753057 0.06546346 -0.061404765 -0.05063066 -0.007744656 0.013232355 -0.014752982 0.055361748
0.059293788 0.0020025377 -0.035071276 0.016625497 -0.002616966 0.05985445 0.020156158 0.020647235
0.004342238 -0.015867747 -0.0450573 -0.045652084 0.08482608 0.108875185 0.014288434 0.08075511
0.1388414 0.20492578 0.20171371 0.12867305 0.04312465 0.00019758647 0.03562157 0.002641424
0.18127799 0.0354589 -0.042862352 -0.04514516 0.041589774 0.15805973 0.1362007 0.13448161
0.061737765 0.030873831 0.020451352 0.018636953 0.120246045 0.041923027 0.01201662 -0.033855915
00000000: c419 163d ec51 f1bb 2157 27bc 8f0c 113d
00000010: 02f5 18bc b83e 433c 63a9 e9bc f578 933c
00000020: cdc7 2cbd ba0b bc3c 815f 22b8 e169 8cba
00000030: faf2 003d 252d 0dbd 2241 fa3c 7371 43bd
00000040: 194e aebc 4004 373b 0102 3bbd 4e03 ef3c
00000050: 53cb 4d3b 946d f63c 44fb 80ba c8e4 7ebd
00000060: a8a5 24bd 4c49 2dbd a92a 03be ded4 46be
00000070: 997d 22be 2e2b 95be 3796 b6bd e998 e5bd
00000080: eabc 2ebe 2802 44be 5589 6cbe fa0c 14be
00000090: 9914 e0bd df47 943c 7dab 293c 0a45 d4bd
000000a0: c14d 36bd c393 fa3c c8b9 c03d bc91 0f3e
000000b0: 8cf3 8abd a91e d6bd d185 ddbc 5d56 51bd
000000c0: 6405 913d c2c7 f0bd 5c6c 1cbe e79d c7bd
000000d0: 5e55 83be 5d60 43be 7b71 843c 297c d1bd
000000e0: 32b1 f03c 4c44 babc da05 543d 8594 3e3e
000000f0: 5055 05bd 3b32 783d b27c 733d 7b32 153c
00000100: 3112 debd dc43 143e a087 4d3e 2c50 2f3e
00000110: be9e 36bd d3f5 47be 3d16 173e e9c8 663e
00000120: dc6b 383e aca4 073e 8622 42be 4cc6 173c
00000130: 05e2 15bd 22a9 10be 80eb a8bd d25a 26bd
00000140: d30f 14bd a93e 39bd a62a 81bd a748 f03b
00000150: 8d36 cfbb 9075 ce3c 7630 103d 6b4e 853d
00000160: 16f5 063d 7a19 3f3d 7704 5a3d e5ea b73d
00000170: ab1a 113d 2b09 8c3a cf14 b83d 86ab d83c
00000180: 6d2a 873d 0725 4b3d 0284 883d 29e2 1b3e
00000190: 6039 47bd 55cd 6b3c 6ad4 a13b f1f6 b63c
000001a0: fdad 593d 7ec0 82bd d01c d0bd a747 fcbc
000001b0: 1d9b c9bc 7aa3 493d ce22 90bd 69bb d6bc
000001c0: 35bc 36bd b71d 77bc d553 053c 3864 843d
000001d0: c70c b43c 25e5 bb3c de42 6e3d 5c76 553d
000001e0: 874b 0c3e abf5 483e 1def 1b3e 04a8 263e
000001f0: 25be 0b3e 24d8 543c 3000 e83b 9e11 1ebc
00000200: d594 df3a fc72 42bd 2eda ee3b a8b2 97bc
00000210: 9a5c 12bd 89f5 1bbd 5d69 69bd 81bd 38bd
00000220: 4c12 27bd 55f5 033d a7b2 41bd 2e29 66bc
00000230: b1d8 43bd f05f 42bd 39e3 a73d a7e4 28bd
00000240: a9c6 96bd 6378 3ebc 571a bf3a 614b 08bd
00000250: 24e9 11bd 452d 25bd 52ba 20bc 519d d33c
00000260: 96fb af3d 9116 553d c95a 053c 31e6 39bc
00000270: 73e2 ad3d e692 543d 4956 c93d 7d7a 813d
00000280: 4f92 033c ae75 133d 6a6e 7f3d 9d80 993d
00000290: 98f7 073d 0dad 503d 512c 213c 4b92 69bc
000002a0: ce5a 6b3c 8e78 1c3d fc69 4a3d cf1f 15b8
000002b0: 44d0 b83a 7ece 7fbc 8af0 293d 7a2b afbd
000002c0: 75b9 8ebd 0374 e5bd 0917 22bd 7a77 abbd
000002d0: 9300 03be 1673 f1bd 9bf0 79bd 3402 98bd
000002e0: 0e9b 13be 4559 463c f722 7b3d bf7d 84bd
000002f0: 90be 20bd c01d d3bd 16e2 d6bc 0ea6 013d
00000300: 3800 443d 8cd3 0f3e f61b 913c 954c 343d
00000310: 3544 59bc 383d 4ebd 5b23 95bc 6514 843d
00000320: e60d 223c e71d 9b3c 7b88 223d e1c6 2e3d
00000330: c15f 36bd 7fdc 89bd a262 7e3d c6d3 a73d
00000340: 6aaf 423d b511 863d 9083 7bbd 1862 4fbd
00000350: e2c6 fdbb 85cc 583c 7eb6 71bc 00c3 623d
00000360: 0bde 723d 023d 033b e6a6 0fbd 3232 883c
00000370: 6781 2bbb f129 753d 871e a53c 6424 a93c
00000380: 5549 8e3b 14fd 81bc 018e 38bd aefd 3abd
00000390: 4cb9 ad3d f4f9 de3d 091a 6a3c ef62 a53d
000003a0: 712c 0e3e 10d8 513e 0a8e 4e3e dec2 033e
000003b0: 79a3 303d 372f 4f39 ece7 113d be1b 2d3b
000003c0: f0a0 393e 5a3d 113d 6f90 2fbd 22ea 38bd
000003d0: 0a5a 2a3d 69da 213e 3278 0b3e 8cb5 093e
000003e0: bde0 7c3d 1eeb fc3c 9889 a73c 86ac 983c
000003f0: 8f43 f63d 7bb7 2b3d 5be1 443c 80ac 0abd

fc1.bias f4 [120]
0.09323649 0.050771963 -0.07725357 -0.05544407 0.03927763 0.033082973 -0.14188378 0.053489164
0.032911118 0.085609645 -0.029506754 -0.11316504 -0.027550189 -0.025932064 -0.041279156 -0.055066068
-0.05184724 -0.049727518 -0.030503387 0.0908513 0.017393883 0.021253143 0.05125655 0.15675433
0.13960072 0.041301742 -0.048069578 -0.013036187 -0.14327107 -0.0696 0.018685812 -0.031925008
-0.039280195 -0.07066512 -0.05206215 0.11120666 -0.014393149 -0.02733176 0.00062777736 0.06960432
-0.108473144 -0.07553062 -0.03628807 -0.0050209975 0.023131134 -0.0054645627 -0.035583574 -0.017080234
-0.028271234 -0.1085162 0.101493284 0.08110353 -0.016743684 -0.20027514 0.10324092 0.00031565496
-0.012932392 -0.028770052 0.038029537 0.038505364 0.121899955 0.03272136 -0.045943856 0.082525864
-0.044027083 -0.0155793205 -0.0041531813 -0.023093631 0.07002513 0.09804678 0.003322395 0.016076578
0.0794057 0.1366186 0.010966754 -0.055683725 -0.039862882 -0.01621665 0.06456091 -0.09143415
-0.01652652 0.015057523 -0.0060058995 -0.030571638 -0.03438755 0.049895544 0.057382938 -0.09279827
0.03889717 0.027840521 -0.07134107 -0.01608363 0.026138615 0.11539396 -0.067772865 0.022511316
0.08344075 -0.02211046 0.054947246 -0.08277781 -0.22013046 -0.011445912 -0.023953876 -0.03117404
0.072087854 -0.036038626 0.039496817 0.09944733 -0.010765799 0.026808057 -0.046331696 0.05905006
0.025957229 -0.0833096 -0.05270188 -0.051885035 -0.1388078 0.08635062 -0.045270197 -0.089435056
00000000: c6f2 be3d 43f6 4f3d 1f37 9ebd 5219 63bd
00000010: 95e1 203d 0382 073d fb49 11be 7417 5b3d
00000020: cfcd 063d 1c54 af3d 26b8 f1bc 13c3 e7bd
00000030: efb0 e1bc 7b6f d4bc 5514 29bd f58c 61bd
00000040: c65d 54bd 15af 4bbd 3de2 f9bc 3f10 ba3d
00000050: 9e7d 8e3c 121b ae3c 63f2 513d 3584 203e
00000060: 7ef3 0e3e 042c 293d 9be4 44bd bb95 55bc
00000070: a7b5 12be 728a 8ebd fd12 993c ccc3 02bd
00000080: 45e4 20bd e0b8 90bd 1f3f 55bd 51c0 e33d
00000090: 3ed1 6bbc dbe6 dfbc 6d91 243a b68c 8e3d
000000a0: 2b27 debd ccaf 9abd cda2 14bd 2e87 a4bb
000000b0: 817d bd3c 1310 b3bb 15c0 11bd d9eb 8bbc
000000c0: 1399 e7bc be3d debd b6db cf3d 9c19 a63d
000000d0: 0d2a 89bc ed14 4dbe fa6f d33d 7e7e a539
000000e0: 62e2 53bc 2caf ebbc dcc4 1b3d cdb7 1d3d
000000f0: afa6 f93d d506 063d a02f 3cbd 5203 a93d
00000100: be55 34bd 6840 7fbc 6917 88bb db2e bdbc
00000110: 5669 8f3d c0cc c83d 8abc 593b 07b3 833c
00000120: 759f a23d bfe5 0b3e e6ad 333c 9e14 64bd
00000130: 4347 23bd c8d8 84bc 8338 843d d441 bbbd
00000140: a062 87bc d4b3 763c 23cd c4bb 5f71 fabc
00000150: f6d9 0cbd 455f 4c3d 5f0a 6b3d 050d bebd
00000160: a452 1f3d ce11 e43c 441b 92bd d1c1 83bc
00000170: a620 d63c ab53 ec3d 80cc 8abd a769 b83c
00000180: fce2 aa3d ff20 b5bc 5d10 613d 6a87 a9bd
00000190: e169 61be a287 3bbc eb3a c4bc b360 ffbc
000001a0: cca2 933d 3d9d 13bd 6ac7 213d 0bab cb3d
000001b0: 0963 30bc 929c db3c 4ec6 3dbd 7ade 713d
000001c0: 41a4 d43c 399e aabd eddd 57bd 6785 54bd
000001d0: a223 0ebe 98d8 b03d 3e6d 39bd ba29 b7bd

fc2.weight f4 [84, 120]
-0.079180814 -0.3290341 -0.12501049 0.26988515 0.08241024 -0.046871968 -0.14584215 -0.13780019
0.13629021 0.043811902 0.13639708 -0.15467632 -0.0076301 0.14728126 -0.092134364 0.14996254
-0.066225216 0.27911732 -0.16867831 -0.276421 -0.29932472 -0.13487516 -0.34371015 -0.14569196
0.024251128 -0.040827796 -0.2572825 -0.08466602 0.44122526 -0.09692977 0.18598293 0.05696973
-0.03144894 0.08444828 0.1741697 -0.03561222 0.08138272 0.011591625 -0.1948556 0.12716639
0.16763318 -0.018720565 0.07695048 0.05999504 -0.35288787 -0.009273731 0.47460344 -0.09692651
0.48976678 0.22092563 0.10771684 -0.12485663 -0.005782221 -0.19126472 0.16058539 0.2973824
-0.085032545 0.22266832 0.21875113 0.051541194 -0.17170222 -0.033037424 0.021535724 -0.054604262
-0.105805635 -0.019929143 -0.056838445 -0.24829867 -0.037368726 0.05419731 -0.0039033676 -0.18819916
-0.11421507 -0.10110047 -0.10326772 -0.010513174 -0.11604484 0.070227146 -0.036386598 -0.019808605
-0.023123033 0.048299026 -0.09811552 -0.01907169 -0.10607393 -0.07231964 -0.047094695 -0.20331039
0.030628705 0.1599347 0.0064203423 0.052085396 0.20279333 -0.07461981 -0.055932444 -0.1424911
-0.15682988 -0.047620095 0.14907753 -0.098052144 0.18360624 0.0034263004 -0.1602377 -0.25543374
-0.059034664 -0.035398062 -0.08115096 0.11134254 0.113938615 -0.041455008 -0.07905889 -0.045067333
-0.15150279 -0.17321469 0.39473572 -0.07296179 0.07678272 -0.095536724 -0.03852484 -0.17590953
-0.15235297 0.0027161124 0.10018983 0.010762895 -0.065395005 -0.050748747 0.29194814 -0.027559103
0.061893325 -0.08356187 -0.09957278 -0.011179242 0.07886548 0.020152805 -0.030796211 -0.03922039
-0.015074767 -0.111661576 0.07218877 0.24050973 -0.10166206 -0.12214731 -0.13346408 0.17713895
-0.011667091 0.011223158 0.12041005 -0.040624805 -0.119277805 0.026556008 0.0041267104 0.015469681
-0.021549042 0.0074182665 -0.008711046 0.06894006 -0.030062897 -0.03561731 -0.11909544 -0.0070524286
0.13258608 -0.022579355 0.020061478 -0.04991931 -0.11758229 0.0945297 -0.037483905 0.10241633
0.031937785 0.030255865 -0.112340115 -0.054491304 0.01430546 0.114570834 0.024306916 0.012384926
0.023279434 -0.037398327 0.009980375 0.030987324 0.17602573 -0.06846998 -0.048201554 0.0341882
0.004971226 -0.032200675 -0.047815498 0.11762062 0.050172474 -0.013250922 -0.00027992035 0.029563544
-0.106351845 -0.024834983 -0.00013718114 0.01472902 0.012186114 0.0328176 -0.010850207 0.16397582
0.0025622037 -0.08338978 0.056473315 -0.028487068 0.073574156 0.08127163 -0.07392353 0.09312942
-0.06743958 0.025353532 0.008370699 0.05438733 0.05741245 -0.071569294 0.16934171 -0.11473589
0.051033106 0.15735774 0.075000115 0.027908567 -0.05073621 -0.069501415 0.27957627 -0.02181643
-0.12852506 -0.0044261087 -0.0730212 -0.051522255 0.0037652182 -0.020714533 0.00513001 -0.10952068
0.029534355 0.28408855 -0.13670193 -0.0019796665 0.060014833 -0.124740124 -0.0109674875 -0.0541748
0.031650566 0.06398888 0.053328756 0.027169272 0.045502663 0.08169305 0.030229066 -0.044802275
0.0845363 -0.05737053 -0.0032480508 -0.0285137 0.0061429334 -0.04649485 -0.08085438 0.050155617
00000000: 8d29 a2bd 2877 a8be c002 00be 632e 8a3e
00000010: b3c6 a83d d2fc 3fbd a557 15be 7e1b 0dbe
00000020: a98f 0b3e 1c74 333d adab 0b3e 7863 1ebe
00000030: eb05 fabb e6d0 163e f1b0 bcbd c88f 193e
00000040: 16a1 87bd 77e8 8e3e 02ba 2cbe 0e87 8dbe
00000050: 1741 99be b71c 0abe c7fa afbe 4630 15be
00000060: 4daa c63c 0c3b 27bd 88ba 83be 6165 adbd
00000070: 47e8 e13e 1e83 c6bd 4f72 3e3e 1759 693d
00000080: 9bd0 00bd 38f3 ac3d 8b59 323e 1fde 11bd
00000090: fcab a63d cdea 3d3c 3a88 47be e837 023e
000000a0: 08a8 2b3e df5b 99bc 3798 9d3d 5cbd 753d
000000b0: b8ad b4be d9f0 17bc 39ff f23e 6881 c6bd
000000c0: b6c2 fa3e 543a 623e a69a dc3d d5b4 ffbd
000000d0: c978 bdbb e6da 43be 7f70 243e 8242 983e
000000e0: 8b25 aebd 2a03 643e 4c00 603e dc1c 533d
000000f0: b5d2 2fbe 4052 07bd b06b b03c b8a8 5fbd
00000100: a0b0 d8bd 7142 a3bc 6ecf 68bd 0242 7ebe
00000110: f30f 19bd 00fe 5d3d a4cf 7fbb 48b7 40be
00000120: 97e9 e9bd c30d cfbd 077e d3bd 733f 2cbc
00000130: eba8 edbd 40d3 8f3d 1d0a 15bd a845 a2bc
00000140: 846c bdbc 33d5 453d caf0 c8bd 3c3c 9cbc
00000150: 4a3d d9bd 521c 94bd 5ee6 40bd 9930 50be
00000160: 0de9 fa3c ecc5 233e bc61 d23b 7f57 553d
00000170: 0ea9 4f3e 45d2 98bd 6b19 65bd 30e9 11be
00000180: 0398 20be 4a0d 43bd c8a7 183e 90cf c8bd
00000190: 4603 3c3e c88b 603b 5a15 24be 36c8 82be
000001a0: 55ce 71bd 8ffd 10bd 7932 a6bd 8f07 e43d
000001b0: a658 e93d bacc 29bd a1e9 a1bd 8698 38bd
000001c0: 8c23 1bbe 315f 31be cd1a ca3e fe6c 95bd
000001d0: 4240 9d3d c2a8 c3bd 39cc 1dbd a121 34be
000001e0: 6b02 1cbe ce00 323b 5330 cd3d db56 303c
000001f0: d1ed 85bd ebdd 4fbd 3a7a 953e a1c3 e1bc
00000200: db83 7d3d 7c22 abbd d0ec cbbd 2429 37bc
00000210: 3a84 a13d 7f17 a53c 5648 fcbc 8fa5 20bd
00000220: 28fc 76bc d3ae e4bd b5d7 933d 2f48 763e
00000230: 3334 d0bd 5e28 fabd cfaa 08be ea63 353e
00000240: 5427 3fbc 56e1 373c 8b99 f63d 3266 26bd
00000250: ec47 f4bd fc8b d93c 5b39 873b 8b74 7d3c
00000260: 9e87 b0bc ee14 f33b c6b8 0ebc 7230 8d3d
00000270: 7746 f6bc 75e3 11bd 4fe8 f3bd 0f18 e7bb
00000280: a5c4 073e 57f8 b8bc f857 a43c 3178 4cbd
00000290: fcce f0bd ca98 c13d b988 19bd a7bf d13d
000002a0: 32d1 023d 26db f73c 9312 e6bd 4632 5fbd
000002b0: 7361 6a3c 1da4 ea3d 4c1f c73c 25ea 4a3c
000002c0: 83b4 be3c fd2e 19bd ba84 233c 21d9 fd3c
000002d0: 1740 343e fd39 8cbd fe6e 45bd ed08 0c3d
000002e0: abe5 a23b dbe4 03bd 2fda 43bd 14e3 f03d
000002f0: a781 4d3d 651a 59bc 46c2 92b9 3f2f f23c
00000300: ffce d9bd bc72 cbbc 48d8 0fb9 fd51 713c
00000310: 44a8 473c bf6b 063d 11c5 31bc 47e9 273e
00000320: a5ea 273b 43c8 aabd 9050 673d b65d e9bc
00000330: 0cae 963d be71 a63d 3865 97bd a3ba be3d
00000340: c31d 8abd 36b2 cf3c 4225 093c 40c5 5e3d
00000350: 5129 6b3d ec92 92bd ea67 2d3e a6fa eabd
00000360: 1708 513d 6322 213e a999 993d 82a0 e43c
00000370: c6d0 4fbd c256 8ebd 9f24 8f3e 5fb8 b2bc
00000380: 139c 03be e408 91bb 248c 95bd 0009 53bd
00000390: e1c1 763b 86b1 a9bc a519 a83b 614c e0bd
000003a0: 08f2 f13c 0e74 913e 97fb 0bbe 4bbd 01bb
000003b0: 1dd2 753d c077 ffbd fab0 33bc 65e6 5dbd
000003c0: 06a4 013d 9a0c 833d 416f 5a3d 1892 de3c
000003d0: 0061 3a3d b04e a73d f2a2 f73c 9782 37bd
000003e0: 5e21 ad3d 5cfd 6abd 40dd 54bb 9095 e9bc
000003f0: a94a c93b 6271 3ebd fb96 a5bd fa6f 4d3d

fc2.bias f4 [84]
-0.031497966 -0.1487702 -0.023005545 0.03351623 0.011516603 -0.003492526 0.002119692 0.08135355
0.26484293 0.0009971092 -0.00083931984 0.047464743 -0.012631283 -0.07690913 0.08194709 -0.10922174
-0.033234093 -0.015180416 -0.137542 0.06824779 0.13299412 0.024221353 0.012480477 0.04090145
-0.049789205 -0.09788379 0.25032362 0.03501359 -0.06641884 0.08940588 0.2203154 -0.016833814
-0.19962661 -0.05330692 -0.0030837627 0.026178688 0.18681219 0.27860412 -0.030121477 0.030232927
0.01275239 0.0462071 -0.30086204 0.093563765 0.119040646 0.0045355144 -0.09031037 -0.1083767
-0.09226996 0.05814737 -0.00069763523 0.009097171 0.16317034 0.0803312 0.09520639 0.0021566662
0.04085351 -0.012688584 0.020110387 -0.1704077 -0.051953837 0.030364426 0.058594167 -0.058558516
0.092429996 -0.087747626 -0.006046491 -0.095912516 0.047806308 0.083709046 -0.027546227 0.03294484
0.07860052 -0.055792246 -0.087823644 -0.097984634 0.07265149 0.029789032 -0.006101896 0.16652016
-0.035799056 -0.039403148 -0.072341844 0.059479553
00000000: 0304 01bd 3757 18be 2076 bcbc 5048 093d
00000010: 22b0 3c3c dde2 64bb 88ea 0a3b b19c a63d
00000020: 7e99 873e 6fb1 823a cd05 5cba 646a 423d
00000030: 71f3 4ebc 8982 9dbd e0d3 a73d a6af dfbd
00000040: 7920 08bd 48b7 78bc cfd7 0cbe 7fc5 8b3d
00000050: 9c2f 083e dc6b c63c ea7a 4c3c 4788 273d
00000060: c4ef 4bbd 4c77 c8bd 6b2a 803e 696a 0f3d
00000070: 9a06 88bd 6e1a b73d 5c9a 613e 11e7 89bc
00000080: eb6a 4cbe 5b58 5abd f418 4abb b074 d63c
00000090: b24b 3f3e 33a5 8e3e 51c1 f6bc 0bab f73c
000000a0: 66ef 503c a843 3d3d 970a 9abe 5c9e bf3d
000000b0: 95cb f33d a79e 943b a5f4 b8bd 9af4 ddbd
000000c0: 08f8 bcbd f02b 6e3d 82e1 36ba 4d0c 153c
000000d0: 2016 273e af84 a43d 91fb c23d db56 0d3b
000000e0: 0356 273d c7e3 4fbc 8abe a43c 5b7f 2ebe
000000f0: 8ccd 54bd d1be f83c 7000 703d 0edb 6fbd
00000100: f04b bd3d 07b5 b3bd a521 c6bb c86d c4bd
00000110: 8cd0 433d a66f ab3d a0a8 e1bc 2bf1 063d
00000120: 4ff9 a03d 6986 64bd e2dc b3bd 2bac c8bd
00000130: 4eca 943d 2108 f43c 6af2 c7bb 4384 2a3e
00000140: 08a2 12bd 3265 21bd f627 94bd d5a0 733d

fc3.weight f4 [10, 84]
-0.115346745 -0.088258564 -0.016838368 -0.23500589 -0.08177492 0.3628545 -0.13386793 -0.12051538
-0.60048485 0.083048016 0.3181037 -0.07308395 0.5148751 -0.009143115 -0.1539492 0.12045512
0.13960122 0.46222073 -0.10983999 -0.06621923 -0.31626946 0.04905098 -0.40241632 -0.025701024
0.15699442 -0.2505262 -0.08154508 -0.035991393 -0.28383285 -0.041032348 -0.008714445 0.1594214
-0.32424068 -0.30546182 -0.012176162 0.066648275 0.10456193 0.06029922 -0.12841207 0.6610983
0.13606213 0.28432283 0.3494155 0.20394376 0.09017883 -0.2137504 -0.08527643 -0.29915807
-0.25981686 -0.039257 0.019404314 0.25717106 -0.35216177 -0.1791878 -0.3625527 -0.19014223
-0.108909704 -0.5118703 -0.077619724 0.18588077 -0.1403955 0.368454 0.4043792 -0.16078645
0.3280321 0.5478335 -0.0878868 0.23003156 0.11995332 -0.060343552 -0.19630116 0.34806484
-0.08362634 -0.17791924 0.2618399 0.41431066 -0.00490116 -0.17280087 0.24121457 -0.26203814
-0.0052763033 0.002344715 0.032952454 -0.19522898 0.88686866 -0.09594547 -0.08853872 -0.005063889
-0.16136369 -0.056530952 -0.12932451 -0.124892645 -0.5849501 -0.08659824 -0.19275582 -0.11401909
-0.30395094 0.0851218 0.091858506 -0.18173222 -0.055683006 -0.33704218 0.29419208 0.42143533
-0.18846765 -0.3201865 0.71498454 -0.16134065 0.02416079 -0.32478693 -0.06314499 0.056156226
0.57942814 0.39503613 -0.1640882 -0.05463944 -0.3550757 0.3010697 -0.21586792 -0.049540196
-0.2996713 -0.21221323 -0.0859233 0.082520336 0.0934632 0.016508264 0.23731488 0.21469347
-0.12515594 -0.025558947 0.44470814 -0.015672674 -0.054579582 0.38162956 -0.017555824 0.090988144
0.06639235 0.32077262 0.11650771 -0.117408074 0.2181012 0.42637357 0.052491758 -0.2872522
-0.13334022 -0.31264716 -0.22043039 -0.09865019 0.27232847 0.61028296 0.040045064 0.7947595
0.47719446 -0.016070986 -0.09409904 -0.12540111 -0.17054605 0.042554945 -0.060231924 -0.058712896
-0.24890046 0.14595886 -0.28080416 -0.22776523 -0.085070565 0.07747181 0.26819006 -0.2633002
-0.08878156 -0.14666112 0.0032037746 0.032877382 -0.09753889 -0.03877933 0.2734132 -0.33211577
0.0029458902 -0.036239184 0.14209871 0.66950727 -0.04055464 0.03003796 -0.15253465 -0.2999408
0.08743966 -0.08634142 -0.19623217 -0.1341373 0.021036478 0.097869106 -0.20939893 -0.033967495
0.016904162 -0.20085093 -0.5437673 0.043929223 0.14358154 -0.076392755 0.12565716 -0.010880122
0.40860128 -0.15476161 0.2875231 0.010462382 0.341804 0.49604246 0.01801279 0.049468085
-0.04814865 -0.1043583 -0.040729847 0.2689955 0.3092577 0.0010200886 0.03013195 -0.04359819
-0.21071021 -0.12929516 -0.16386251 -0.03307944 -0.10901048 -0.022467874 -0.049109444 -0.13172722
0.030251944 0.030593442 0.009543587 0.016979696 -0.08670423 -0.23138262 -0.025407894 -0.010882051
-0.44764993 -0.19641614 -0.0073458515 -0.10769713 -0.024181204 -0.088461824 -0.079045035 -0.2416254
-0.11480598 -0.12953377 0.16994907 0.05856046 -0.0059329965 -0.1372255 0.33317617 -0.1780953
0.44243044 -0.040666882 -0.027431967 -0.15586342 -0.17049901 -0.12238528 0.025002625 -0.09688772
00000000: ea3a ecbd e8c0 b4bd 9ef0 89bc 62a5 70be
00000010: 9c79 a7bd 11c8 b93e ad14 09be c4d0 f6bd
00000020: 60b9 19bf 1415 aa3d 7dde a23e 0aad 95bd
00000030: dbce 033f 01cd 15bc dca4 1dbe 2db1 f63d
00000040: 9ff3 0e3e 32a8 ec3e caf3 e0bd f39d 87bd
00000050: 12ee a1be aee9 483d 8309 cebe f48a d2bc
00000060: 25c3 203e f844 80be 1b01 a7bd b66b 13bd
00000070: 8a52 91be 8911 28bd 08c7 0ebc 5d3f 233e
00000080: e002 a6be 7e65 9cbe 867e 47bc e47e 883d
00000090: 9124 d63d 51fc 763d 747e 03be bd3d 293f
000000a0: df53 0b3e c392 913e 97e6 b23e a2d6 503e
000000b0: aeaf b83d 63e1 5abe 69a5 aebd 3f2b 99be
000000c0: b706 85be f3cb 20bd ccf5 9e3c edab 833e
000000d0: 8c4e b4be 027d 37be 82a0 b9be a5b4 42be
000000e0: 0d0c dfbd ef09 03bf 17f7 9ebd 8757 3e3e
000000f0: d7c3 0fbe 01a6 bc3e ca0a cf3e 34a5 24be
00000100: d3f3 a73e d13e 0c3f fffd b3bd 658d 6b3e
00000110: 16aa f53d cd2a 77bd 2c03 49be 8e35 b23e
00000120: 4944 abbd 7630 36be e10f 863e 8720 d43e
00000130: e999 a0bb b6f2 30be f400 773e dd29 86be
00000140: d7e4 acbb caa9 193b 27f9 063d 1bea 47be
00000150: d309 633f 0f7f c4bd ca53 b5bd fbee a5bb
00000160: 863c 25be 008d 67bd a56d 04be b7c7 ffbd
00000170: 4abf 15bf 6b5a b1bd c861 45be d782 e9bd
00000180: 759f 9bbe 5754 ae3d 5020 bc3d 0318 3abe
00000190: dd13 64bd cb90 acbe 58a0 963e 5fc6 d73e
000001a0: aafd 40be 7cef a3be 3a09 373f 7c36 25be
000001b0: d9ec c53c 794a a6be 2952 81bd 1204 663d
000001c0: 6755 143f 2d42 ca3e bd06 28be 9bcd 5fbd
000001d0: 7bcc b5be cf25 9a3e 7b0c 5dbe a9ea 4abd
000001e0: 846e 99be 6d4e 59be 8ef8 afbd 6c00 a93d
000001f0: a269 bf3d 573c 873c ac02 733e 9bd8 5b3e
00000200: e128 00be ff60 d1bc c9b0 e33e fb63 80bc
00000210: d78e 5fbd f364 c33e 3bd1 8fbc fe57 ba3d
00000220: b6f8 873d 4f3c a43e 989b ee3d a573 f0bd
00000230: ec55 5f3e a34d da3e 9901 573d b812 93be
00000240: 578a 08be 4a13 a0be 81b8 61be 1c09 cabd
00000250: a36e 8b3e 813b 1c3f 4b06 243d 5c75 4b3f
00000260: d552 f43e 4da7 83bc ffb6 c0bd 2669 00be
00000270: a0a3 2ebe 184e 2e3d c0b5 76bd ef7c 70bd
00000280: c3df 7ebe 3d76 153e 90c5 8fbe 4a3b 69be
00000290: 7a39 aebd 8aa9 9e3d 3550 893e 49cf 86be
000002a0: 1bd3 b5bd 552e 16be 6bf6 513b 6faa 063d
000002b0: 78c2 c7bd 13d7 1ebd d1fc 8b3e 140b aabe
000002c0: d60f 413b 8a6f 14bd 5382 113e d464 2b3f
000002d0: 9f1c 26bd 2b12 f63c 0b32 1cbe d791 99be
000002e0: 9113 b33d c5d3 b0bd 16f1 48be 4a5b 09be
000002f0: b154 ac3c 996f c83d ac6c 56be 8021 0bbd
00000300: 997a 8a3c deab 4dbe 5534 0bbf 21ef 333d
00000310: 0a07 133e ce73 9cbd 45ac 003e 8a42 32bc
00000320: 3034 d13e d479 1ebe 3a36 933e 696a 2b3c
00000330: ef00 af3e 47f9 fd3e 8f8f 933c 0c9f 4a3d
00000340: 8537 45bd ceb9 d5bd 57d4 26bd c7b9 893e
00000350: 0657 9e3e 7eb4 853a 47d7 f63c 0494 32bd
00000360: 6bc4 57be f365 04be 93cb 27be 4f7e 07bd
00000370: e340 dfbd 8c0e b8bc fc26 49bd 80e3 06be
00000380: edd2 f73c 199f fa3c b55c 1c3c 0119 8b3c
00000390: fd91 b1bd 91ef 6cbe 3724 d0bc a14a 32bc
000003a0: 5f32 e5be 5021 49be 78b5 f0bb 5090 dcbd
000003b0: a917 c6bc 792b b5bd 5de2 a1bd a66c 77be
000003c0: 661f ebbd 80a4 04be 2107 2e3e 18dd 6f3d
000003d0: 9569 c2bb d784 0cbe 1196 aa3e 9d5e 36be
000003e0: 3e86 e23e 5192 26bd 01b9 e0bc a99a 1fbe
000003f0: 4b97 2ebe 22a5 fabd 4ed2 cc3c 126d c6bd

fc3.bias f4 [10]
-0.23769744 -0.12231359 0.08219625 0.33938017 0.5956565 -0.26658946 0.36925215 -0.28478298
0.16563709 -0.06070643
00000000: f566 73be 8c7f fabd 8256 a83d 3dc3 ad3e
00000010: f27c 183f 6a7e 88be 9e0e bd3e 13cf 91be
00000020: c59c 293e 4ea7 78bd
