round1/2025-04-18 17:52:31-weight-client-3526347c-2.pth (torch, 252478 bytes, 10 tensors)

conv1.weight f4 [6, 3, 5, 5]
0	0xbe3555f2	-0.17708567
1	0x3dd820a3	0.105531
2	0xbd8db8b1	-0.06919993
3	0xbc222e7d	-0.009898779
4	0x3db35104	0.08755687
5	0x3d90f95c	0.070788115
6	0x3b496d6d	0.003073539
7	0x3d89053a	0.0669045
8	0xbd1faa91	-0.038981024
9	0x3c742e98	0.014903687
10	0xbcaeaa92	-0.021321569
11	0x3e1e62a6	0.15467319
12	0x3def8fc0	0.1169734
13	0xbc2b7143	-0.010464015
14	0x3e4aaf2b	0.19793384
15	0x3db34562	0.08753468
16	0x3e3226a7	0.17397557
17	0x3e3ccd46	0.1843768
18	0x3c68ecbd	0.014216599
19	0x3e8edd53	0.27903232
20	0x3e3930a2	0.18084958
21	0x3e53c6ca	0.20681301
22	0x3e580bec	0.21098298
23	0x3e333601	0.1750107
24	0x3e585bec	0.21128815
25	0x3da1f0e8	0.07907277
26	0x3e25a44b	0.16175954
27	0x3dcf3d0e	0.10119067
28	0x3dbc750b	0.09202012
29	0x3e7727d8	0.24136293
30	0xbca9b3bb	-0.020715585
31	0x3e5edcbc	0.21763891
32	0x3e181749	0.14852633
33	0x3e347f1f	0.17626618
34	0x3e42bf87	0.19018374
35	0xbd45673a	-0.048194148
36	0x3e0dff9c	0.13867038
37	0x3cd618e3	0.026134914
38	0x3e035f1c	0.1282925
39	0x3e46d19d	0.19415899
40	0xbbb87cec	-0.005630126
41	0x3e49aedb	0.19695608
42	0x3dbd8248	0.09253365
43	0x3e5079ab	0.20358913
44	0x3e532072	0.20617846
45	0x3d0bb37e	0.034106724
46	0x3d62f3c0	0.05540824
47	0x3d46dd95	0.04855116
48	0x3d7ba9d5	0.06144126
49	0x3e621015	0.22076447
50	0xbe76a3e4	-0.24085957
51	0xbcf94028	-0.0304261
52	0xbdc25cf4	-0.09490386
53	0xbdfd0e3f	-0.12356233
54	0xbe31dccc	-0.17369384
55	0xbe836a76	-0.2566716
56	0xbd09abda	-0.033611156
57	0xbe08d7da	-0.13363591
58	0xbe02d4d6	-0.12776503
59	0xbe160383	-0.14649777
60	0xbe8ecc5d	-0.27890292
61	0xbe3dc89e	-0.1853356
62	0xbdeee716	-0.1166517
63	0xbdd787cb	-0.10523947
64	0xbdc93105	-0.09823803
65	0xbe04c240	-0.12964725
66	0xbe026b1e	-0.12736174
67	0xbe5299f3	-0.2056654
68	0xbe5693ac	-0.2095477
69	0xbe00abd8	-0.12565553
70	0xbe41ede3	-0.18938403
71	0xbe047c48	-0.12938035
72	0xbdbb7e57	-0.09154957
73	0xbd8869b5	-0.06660787
74	0xbc55a57e	-0.013039945
75	0xbba9032b	-0.0051578484
76	0xbdc27218	-0.09494418
77	0xbdfa731d	-0.12228987
78	0x3d5b8a81	0.053598884
79	0x3c83e812	0.01610187
80	0xbde2de85	-0.110775985
81	0xbb31ab47	-0.0027110146
82	0xbdc62709	-0.09675414
83	0x3d38d663	0.04512633
84	0xba754421	-0.00093561603
85	0xbc6a58db	-0.014303411
86	0xbd400d6e	-0.046887808
87	0x3e032998	0.12808836
88	0x3e01c163	0.12671427
89	0x3e11c1fb	0.14234154
90	0x3c1d87a9	0.009614863
91	0x3e0c9888	0.13730061
92	0x3e157b04	0.14597708
93	0x3e0f5dbb	0.14000599
94	0x3e49fe59	0.19725932
95	0xbce2234c	-0.027604721
96	0x3dfd56fb	0.12370106
97	0x3e32d83f	0.17465304
98	0xbc3999e4	-0.011328194
99	0x3d7f93ef	0.06239694
100	0xbdf00d84	-0.11721328
101	0xbe409e1f	-0.18810318
102	0xbe1229d5	-0.1427377
103	0xbd8b16a3	-0.06791427
104	0xbdf44441	-0.11927081
105	0xbdd8ebe7	-0.1059187
106	0xbe4830ac	-0.19549817
107	0xbe4dc449	-0.20094408
108	0xbdfd70a5	-0.12375001
109	0xbdd5a904	-0.10432628
110	0xbc33390d	-0.010938895
111	0xbd16ff53	-0.03686459
112	0xbd62c888	-0.055367023
113	0xbdb53df4	-0.08849707
114	0x3dd744df	0.10511183
115	0xbdadf4dc	-0.08493969
116	0x3db561a8	0.08856517
117	0x3de74133	0.11291733
118	0x3ddfee58	0.10934132
119	0x3cac35b9	0.02102171
120	0xbd1d8d1c	-0.03846465
121	0xbb80fb4a	-0.003936206
122	0x3e0fe31d	0.1405148
123	0x3911cfa0	0.00013905624
124	0x3b04ff15	0.0020293642
125	0xbdf96e8a	-0.12179287
126	0xbe072ac1	-0.13199903
127	0xbd4838f9	-0.04888246
128	0x3d638db8	0.055555075
129	0xbd8612b0	-0.06546533
130	0xbe2c1754	-0.16805774
131	0xbbf0fd44	-0.0073544104
132	0xbe2db460	-0.16963339
133	0xbdb74301	-0.08948327
134	0xbb62b4af	-0.003459256
135	0x3d05e5a1	0.032689694
136	0xbd955a97	-0.07292669
137	0x3d93e8ff	0.07222175
138	0xbdcab6f6	-0.09898178
139	0x3dcf5a25	0.101246156
140	0xbdb1a7aa	-0.086745575
141	0x3cae4755	0.021274248
142	0xbd37f563	-0.044911753
143	0x3d41a2c8	0.04727438
144	0x3e2773da	0.16352788
145	0x3dea23ff	0.11432647
146	0x3dbf417b	0.09338661
147	0x3c06bc8a	0.008223662
148	0x3d1fb808	0.038993865
149	0xbc87f49f	-0.016596137
150	0xbebd5d6f	-0.36985347
151	0xbe99bad0	-0.3002534
152	0xbe9a344f	-0.30118033
153	0xbe962a6b	-0.29329237
154	0xbe8676b4	-0.26262438
155	0xbe95c2c6	-0.29250163
156	0xbe7c55c7	-0.24642096
157	0xbe0b9f8b	-0.1363508
158	0xbe83d31a	-0.25746995
159	0xbe19dc37	-0.15025412
160	0xbdd44ad2	-0.10365833
161	0xbe3c77a5	-0.18405016
162	0xbdb579de	-0.08861135
163	0xbdd9822c	-0.106205314
164	0xbe52a274	-0.20569783
165	0x3d74f427	0.059803154
166	0x3db5eb52	0.088827744
167	0x3d576328	0.052584797
168	0xbbc0ab7f	-0.005879819
169	0xbe308cf2	-0.17241266
170	0xbc898118	-0.01678519
171	0x3d0b1ed5	0.03396495
172	0xbb56ff72	-0.0032806066
173	0x3d461654	0.048361138
174	0x3ce462e1	0.02787918
175	0xbc8c6423	-0.017137593
176	0xbcdda02d	-0.027053917
177	0x3e0322d0	0.12806249
178	0x3d9afaf3	0.07567396
179	0xbcf78b9a	-0.030217934
180	0x3d763fde	0.060119502
181	0x3cf36626	0.029711794
182	0x3e03dc76	0.12877068
183	0xbd183a0f	-0.037164744
184	0xbdc8ff5c	-0.09814331
185	0x3d6f92a2	0.05848945
186	0x3db5b5a8	0.08872539
187	0x3d80a0e6	0.06280689
188	0x3d99a7c7	0.07502704
189	0x3d31b2c6	0.043383382
190	0x3cdc3808	0.026882187
191	0xbd8b9f92	-0.06817545
192	0xbc9664e4	-0.018358655
193	0xbe34b1c7	-0.17645942
194	0x3b3ba28f	0.0028630828
195	0xbbcbed3d	-0.0062233494
196	0xbd8d8706	-0.06910519
197	0xbd7d17a6	-0.06179013
198	0xbe286a88	-0.16446888
199	0xbe701aad	-0.23447676
200	0x3ed6acdb	0.41928753
201	0x3f006928	0.50160456
202	0x3f07191a	0.52772677
203	0x3f0c77fa	0.5487057
204	0x3ef489b9	0.47761324
205	0x3ee67310	0.4500966
206	0x3ef992d4	0.48744833
207	0x3ee998bb	0.45624337
208	0x3ef89876	0.48553818
209	0x3ef8b97e	0.4857902
210	0x3e77bb66	0.2419258
211	0x3ecca8ca	0.39972526
212	0x3ef9a954	0.48762
213	0x3edd92e9	0.43276146
214	0x3ec0578f	0.37566802
215	0x3e652da8	0.22380698
216	0x3e9e229c	0.3088578
217	0x3e8ec8fe	0.2788772
218	0x3e7996d8	0.24373949
219	0x3e3dd615	0.18538697
220	0x3ebd8377	0.37014362
221	0x3e8e2034	0.27758944
222	0x3ec288e3	0.3799506
223	0x3e9a66a4	0.30156434
224	0x3df972ad	0.12180076
225	0xbe04b5c4	-0.12959963
226	0xbd99f5a4	-0.07517555
227	0xbde4f0d7	-0.11178749
228	0xbd6aa95a	-0.057290412
229	0xbd81d602	-0.06339647
230	0xbde901a2	-0.113772646
231	0xbb27083d	-0.0025487088
232	0x3d1ff4f5	0.03905197
233	0xbdafb5f5	-0.085796274
234	0xbd5b34f5	-0.0535173
235	0xbd9bee6c	-0.07613835
236	0xbe126768	-0.14297259
237	0x3d97e1e0	0.07416129
238	0xbdb2716d	-0.087130405
239	0xbd97f329	-0.07419426
240	0xbdab8dfe	-0.08376692
241	0xbde94826	-0.11390714
242	0x3d92c390	0.07166207
243	0xbde489be	-0.11159085
244	0xbdb91985	-0.090380706
245	0x3e0263ce	0.12733385
246	0x3da75de2	0.081722036
247	0x3e018330	0.126477
248	0xbd78c82e	-0.06073778
249	0xbdbc56fe	-0.0919628
250	0x3ea79fad	0.3273901
251	0x3ebf5ab1	0.3737388
252	0x3e4685cc	0.19386977
253	0x3e8abf63	0.2709914
254	0x3e969c92	0.2941633
255	0x3e113a5c	0.14182419

conv1.bias f4 [6]
0	0xbee69333	-0.4503418
1	0xbcd9e98e	-0.026600625
2	0xbf9efbc6	-1.2420585
3	0xbec05576	-0.37565202
4	0x3ed570c5	0.416876
5	0xbd5516d7	-0.052023735

conv2.weight f4 [16, 6, 5, 5]
0	0x3e26dbbb	0.16294758
1	0x3dd0e991	0.10200799
2	0x3e2fe1c3	0.17175965
3	0x3e78ef5e	0.24310061
4	0x3e690974	0.22757512
5	0x3e3bf824	0.18356377
6	0x3e551264	0.20807797
7	0x3e2d072c	0.16897267
8	0x3e2eb038	0.1705941
9	0x3d0384bd	0.03210901
10	0x3d303781	0.043021683
11	0x3c01e5c1	0.007928313
12	0x3dbafa02	0.091297165
13	0xbd4950f5	-0.049149472
14	0xbc24a675	-0.010049452
15	0xbc877ef1	-0.016540023
16	0xbddfbe59	-0.10924978
17	0xbe193beb	-0.14964263
18	0xbd9a3967	-0.0753048
19	0xbdafe9d9	-0.08589525
20	0xbe5592e5	-0.20856817
21	0xbe5e401a	-0.2170414
22	0xbe6c73db	-0.2309107
23	0xbe2d98ca	-0.16952816
24	0xbe40e22f	-0.18836282
25	0x3db3ffaf	0.08789002
26	0x3db01455	0.08597628
27	0x3d45df03	0.048308384
28	0xbb1576a8	-0.002280632
29	0x3e038510	0.12843728
30	0xbcc66e30	-0.024222463
31	0x3cfe6ab3	0.031056738
32	0x3d1b49fb	0.03791235
33	0x3d3f1022	0.046646245
34	0x3d4f396f	0.050591882
35	0x3c03ac7b	0.008036728
36	0x3def08d7	0.11671608
37	0x3cae0eb6	0.02124725
38	0x3abc0975	0.001434608
39	0xbd25b462	-0.04045523
40	0xbd226d08	-0.03965476
41	0xbd246566	-0.040135764
42	0x3d9a6bc0	0.07540083
43	0x3c198d24	0.009372029
44	0x3df07a38	0.117420614
45	0x3d6fbba3	0.058528554
46	0x3ce12e88	0.027488008
47	0xbc5dcc5f	-0.013537495
48	0x3e0f32a9	0.13984169
49	0x3c274f0a	0.0102117155
50	0x3c1705c6	0.009217685
51	0xbbcf32f5	-0.006323213
52	0x3c57cfee	0.013172133
53	0x3db2ec17	0.08736437
54	0x3e01e30d	0.12684269
55	0x3e238579	0.15968885
56	0x3dcc0922	0.099626794
57	0x3e22e2fe	0.15906903
58	0x3e346fdf	0.176208
59	0x3e302c9d	0.17204519
60	0x3db4f413	0.08835616
61	0x3e3319f6	0.17490372
62	0x3e07fdc8	0.13280404
63	0x3e1b510c	0.15167636
64	0xbd92edb5	-0.07174245
65	0x3e21c95e	0.15799472
66	0xbd9bd6d3	-0.07609334
67	0xbd9b4948	-0.07582337
68	0xbe79fb7c	-0.2441234
69	0xbe92d6be	-0.2867946
70	0x3d500d3f	0.050793882
71	0xbdf2fa6f	-0.11864173
72	0xbeb23bf7	-0.34811375
73	0xbeca93a7	-0.39565775
74	0xbed5df09	-0.41771725
75	0x3e372fcc	0.17889327
76	0x3dd86581	0.10566235
77	0x3e4b256e	0.19838497
78	0x3d98972a	0.07450707
79	0x3def1f69	0.11675913
80	0x3c22ebf3	0.00994395
81	0x3de2ec25	0.11080197
82	0x3e457a84	0.19285017
83	0x3df0ab67	0.117514424
84	0x3de78eca	0.11306532
85	0xbcb838a9	-0.022487955
86	0xbc0bac78	-0.0085250065
87	0xbd018c80	-0.031628132
88	0xba241766	-0.000625959
89	0xbd5f3997	-0.05449828
90	0xbdacd3cc	-0.084388345
91	0xbe31da06	-0.17368326
92	0xbe623b36	-0.220929
93	0xbe6b4ed2	-0.22979286
94	0xbe28d924	-0.16489083
95	0xbdcb527f	-0.09927844
96	0xbe6c3373	-0.23066501
97	0xbe94c700	-0.29058075
98	0xbe3593c3	-0.17732148
99	0xbe22706c	-0.15863198
100	0x3e571f60	0.21008062
101	0x3e578611	0.21047236
102	0x3e90e7d9	0.28301886
103	0x3ea107a7	0.3145115
104	0x3e8b4819	0.27203444
105	0x3e57dc81	0.2108021
106	0x3e0a48e0	0.13504362
107	0x3e4856c0	0.19564342
108	0x3e134c8a	0.14384666
109	0xbbcfe3c1	-0.006344289
110	0x3b89e65b	0.0042083687
111	0x3da990e0	0.08279586
112	0xbaeb7e9b	-0.0017966809
113	0xbe101fd7	-0.14074646
114	0xbe315b6a	-0.17320028
115	0xbe62de68	-0.22155154
116	0xbe805dd4	-0.25071585
117	0xbe9b3040	-0.3031025
118	0xbe89e003	-0.2692872
119	0xbda15c3e	-0.07878922
120	0xbe935f61	-0.28783706
121	0xbe36e424	-0.17860466
122	0xbe5a18aa	-0.21298471
123	0xbe3c8e3d	-0.18413635
124	0xbd45c65b	-0.04828487
125	0x3d9e821a	0.07739659
126	0xbbca60d5	-0.006176094
127	0xbd6fba20	-0.058527112
128	0x3d6e9db0	0.05825585
129	0x3da47d42	0.080317035
130	0x3da899f5	0.0823249
131	0xbcdb42b7	-0.02676521
132	0xbc3649cc	-0.011125993
133	0x3d3ffefb	0.046874028
134	0x3db33d38	0.08751911
135	0x3d59823a	0.05310271
136	0x3d783c36	0.060604297
137	0x3d73a68e	0.05948501
138	0x3dbe1bb2	0.09282626
139	0x3db9cd9b	0.09072419
140	0x3d8549e4	0.06508234
141	0xbb21d995	-0.002469634
142	0xbcd89179	-0.026436554
143	0x3d25bba5	0.040462155
144	0x3cfb157a	0.03064989
145	0xbd711d14	-0.05886562
146	0xbdcc79a3	-0.09984138
147	0xbd9a3dc6	-0.075313136
148	0xbd998430	-0.07495916
149	0x3acb6371	0.0015517307
150	0xbe14aa06	-0.14517984
151	0xbdc58ba5	-0.09645776
152	0xbcd35bb6	-0.025800567
153	0x3cca97dd	0.024730617
154	0x3c05c8a7	0.008165515
155	0x3c9ac779	0.018893944
156	0xbdc6c0ee	-0.09704767
157	0xbb484d3c	-0.0030563613
158	0x3d2c9f11	0.042143885
159	0xbd5213df	-0.05128848
160	0x398729a4	0.0002578023
161	0x3b90fe6b	0.0044248602
162	0xbd3d15f6	-0.04616352
163	0xbda69510	-0.081339
164	0xbd98a229	-0.074528046
165	0xbcd7bfe2	-0.026336614
166	0xbc8b05f3	-0.01697061
167	0xbd15ea2b	-0.036600273
168	0x3c0d6855	0.008630832
169	0x3d0b4aff	0.03400707
170	0xbd706761	-0.05869234
171	0xba03b81b	-0.0005024687
172	0x3d2f8b20	0.04285729
173	0x3d7f82f1	0.062380735
174	0xbd75850f	-0.059941348
175	0xbbe17583	-0.0068804636
176	0x3d5f32e5	0.054491896
177	0x3d847efb	0.06469532
178	0x3ca1d48a	0.019754667
179	0xbd006ab5	-0.031351764
180	0xbd35e5fc	-0.044408783
181	0x387cc7ae	6.0267448e-05
182	0xbc6cbd50	-0.0144494325
183	0x3da8e1e1	0.08246208
184	0x3d34fd3d	0.04418682
185	0x3d5d9ce0	0.054104686
186	0x3d5d14b5	0.053974826
187	0x3d4a90b3	0.049454402
188	0x3d314b32	0.043284602
189	0xbce74d88	-0.028235212
190	0x3dbd6c94	0.09249225
191	0xbd49fa31	-0.049310867
192	0xbd778489	-0.06042913
193	0x3db3190f	0.08745014
194	0xbd4dbbef	-0.050228056
195	0x3da0f6bd	0.078595616
196	0xbc7d4453	-0.015458184
197	0xbcf6cde0	-0.030127466
198	0x3d9e1047	0.077179484
199	0x3c4b0cdb	0.012393202
200	0xbea203ed	-0.3164362
201	0xbeb2b862	-0.34906298
202	0xbe79dcc8	-0.24400628
203	0xbe1d4922	-0.15359929
204	0xbd95e0ff	-0.07318305
205	0xbdaf4006	-0.085571334
206	0xbe34bebb	-0.17650883
207	0xbdd0c180	-0.10193157
208	0xbddb1a09	-0.10698325
209	0xbdb220fc	-0.086976975
210	0x3d9f16ce	0.077680215
211	0x3ddd04db	0.10791942
212	0x3e10ee72	0.1415346
213	0x3c92effd	0.017936701
214	0x3dd1af37	0.10238498
215	0x3e3c64bc	0.18397802
216	0x3da5cb9d	0.08095477
217	0x3e4fec0e	0.20304891
218	0x3d97a4f5	0.0740451
219	0x3e45d102	0.19318011
220	0x3d9bb57a	0.07602973
221	0x3e04238a	0.12904182
222	0x3d714739	0.058905814
223	0x3dec8d75	0.11550418
224	0x3d85140e	0.06497966
225	0xbdc1f6e4	-0.09470919
226	0xbd0905db	-0.03345285
227	0xbcc7ed37	-0.024405105
228	0xbd203826	-0.039116047
229	0xbce6349b	-0.028101256
230	0xbdd269d3	-0.102740906
231	0xbd688ea9	-0.056776676
232	0xbc8dd88b	-0.01731517
233	0xbdc759fb	-0.09733959
234	0xbd985273	-0.07437601
235	0xbafcc2fe	-0.0019284186
236	0xbd07a75d	-0.033118594
237	0x3c8f3f7b	0.017486325
238	0xbbff0fe3	-0.0077838763
239	0x3bb28ce7	0.005448926
240	0x3dad8ed1	0.08474506
241	0x3da05c11	0.0783006
242	0x3d17fec2	0.03710819
243	0x3d66ebb4	0.056377128
244	0x3b6483be	0.0034868564
245	0x3dab052f	0.08350598
246	0xbcec5263	-0.028847879
247	0x3da8e63c	0.08247039
248	0x3db16aba	0.086629346
249	0xbc212fa3	-0.009838018
250	0x3c538d95	0.012912174
251	0x3d9e0a9b	0.077168666
252	0xbd08de96	-0.0334154
253	0x3cdbf919	0.026852177
254	0xbc8debf0	-0.017324418
255	0xba56d06f	-0.0008194511

conv2.bias f4 [16]
0	0x3e68e9d2	0.22745445
1	0xbd3cc983	-0.046090614
2	0xbe5762ce	-0.21033785
3	0xbd918ef9	-0.07107348
4	0x3c994187	0.018708004
5	0xbdc1a389	-0.0945502
6	0xbc8b2320	-0.016984522
7	0x3e3e305d	0.18573137
8	0xbe20e761	-0.15713264
9	0xbdfb808e	-0.12280379
10	0xbe0c8531	-0.13722683
11	0x3cb24784	0.021762617
12	0x3e084304	0.13306814
13	0x3d6d15e0	0.05788219
14	0xbea096b9	-0.31364992
15	0xbd4492dd	-0.047991622

fc1.weight f4 [120, 400]
0	0x3d01b530	0.031666934
1	0xbbe2c454	-0.006920377
2	0x3d005755	0.031333286
3	0xbc72933b	-0.01480561
4	0x3ca9ee95	0.020743648
5	0x3d51af7c	0.051192746
6	0x3d247f48	0.040160447
7	0x3d233c13	0.039852213
8	0x3d0870da	0.03331075
9	0x3cf23ba7	0.02956946
10	0x3c90127d	0.01758694
11	0xbc38e0a4	-0.011284027
12	0xbc0bd7b8	-0.008535318
13	0x3d318e8f	0.043348845
14	0x3cd076f9	0.025447356
15	0x3d03788c	0.032097384
16	0x3a81a599	0.0009891271
17	0x3c9a98b7	0.018871648
18	0xbd174da5	-0.036939282
19	0xbc1095e3	-0.008824798
20	0xbd279e32	-0.04092235
21	0xbce2bf5a	-0.027679134
22	0xbcee5c7d	-0.029096836
23	0xbd3484a9	-0.044071827
24	0xbc517396	-0.0127839055
25	0xbd2f3e06	-0.04278376
26	0x3bb5a349	0.0055431467
27	0xbbc744fc	-0.0060812216
28	0x3c043ad5	0.008070667
29	0xbd3cb7da	-0.046073772
30	0x3c292dfa	0.010325903
31	0x3c7931f9	0.015209668
32	0x3cf6e888	0.030140176
33	0xbc933acd	-0.017972374
34	0x3d43acd5	0.047772247
35	0xbc1ea5ed	-0.0096831145
36	0xbcfca1fb	-0.030838957
37	0x3c34fe98	0.011047028
38	0xbb36d908	-0.0027900357
39	0x3bc396f9	0.005968925
40	0x3d350add	0.044199813
41	0xbd2a4429	-0.04156891
42	0x3c6f90dd	0.01462194
43	0x3cd8c26c	0.026459895
44	0xbd02cd47	-0.03193405
45	0x3d5202fe	0.051272385
46	0x3c819619	0.015818642
47	0x3c22db36	0.009939959
48	0x3d28287e	0.04105424
49	0x3cac23a8	0.021013096
50	0xbd157b7c	-0.036494717
51	0xbb395df5	-0.0028284763
52	0xbc814cd3	-0.015783703
53	0x3d29e5c7	0.0414789
54	0xbd49a8c4	-0.049233213
55	0x3d07351b	0.03300963
56	0xbb9dd424	-0.004816549
57	0x3d1c909f	0.03822386
58	0x3d3217c1	0.043479685
59	0x3c84dd5f	0.01621884
60	0x3d189af0	0.037257135
61	0x3d00d1d7	0.03145012
62	0xbce6a64a	-0.028155465
63	0x3b7e4e8c	0.0038804142
64	0x3c69cfd5	0.014270742
65	0x3d536bfc	0.051616654
66	0x3d492742	0.049109705
67	0xbb82678c	-0.003979629
68	0xbb1c1908	-0.002381863
69	0xbc512d35	-0.012767126
70	0xbd2ebcc9	-0.04266051
71	0x3d451c56	0.048122726
72	0x3caa38f0	0.020779103
73	0xbd349f38	-0.044097155
74	0x3be2ef2c	0.006925484
75	0xbd320fff	-0.043472286
76	0x3cda4526	0.0266443
77	0xbb185980	-0.0023246706
78	0xbd2b2f9a	-0.041793443
79	0x3c993368	0.01870127
80	0xbcd7b0d9	-0.026329445
81	0x3bb3ca1b	0.0054867393
82	0x3d385738	0.045005053
83	0xbcfdd075	-0.03098319
84	0xbab74017	-0.0013980892
85	0x3caa4153	0.020783102
86	0x3c47eeac	0.0122029
87	0x3d3001de	0.04297053
88	0x3cee6814	0.029102363
89	0x3d4204ed	0.04736798
90	0xbcd7be46	-0.026335847
91	0x3d2a0fac	0.041518852
92	0x3bc9b8cc	0.0061560627
93	0xbd1ac7b9	-0.037788127
94	0xbd2c1689	-0.04201368
95	0x3d2e68a3	0.042580258
96	0xbd018840	-0.03162408
97	0x3b4808b9	0.0030522777
98	0xbd3a35d2	-0.045461483
99	0xbce0484b	-0.027378222
100	0x3c6cb709	0.014447936
101	0xbd130364	-0.035891905
102	0x3b5e4e36	0.003392113
103	0x3cdb0b69	0.02673884
104	0x3d4a6131	0.049409095
105	0x3d3e26e6	0.046423815
106	0xbc231f60	-0.009956211
107	0xbc06b31c	-0.008221414
108	0xbd1e8e30	-0.03870982
109	0xbba48f25	-0.005021947
110	0x3c905fd1	0.017623814
111	0x3d1054dc	0.03523718
112	0x3ca5c25f	0.020234285
113	0x3c4c63e8	0.012474991
114	0xbcb388ae	-0.02191576
115	0xbd2d63aa	-0.042331375
116	0xbcd7b493	-0.026331222
117	0xbc98cd37	-0.018652542
118	0x3ce9e3dc	0.028551035
119	0xbd2fd9c0	-0.042932272
120	0x3cff18a8	0.031139687
121	0x3adc8bf0	0.0016826373
122	0x3c6510bc	0.013981041
123	0x3c9cfb0f	0.019162683
124	0xbc98c9d7	-0.018650932
125	0x3d0f0b93	0.034923147
126	0xbd008a93	-0.031382155
127	0x3c52eb6e	0.012873514
128	0x3d2deee7	0.042464163
129	0xbcca0fcd	-0.024665738
130	0xbd24e71c	-0.040259466
131	0x3d352fec	0.044235155
132	0xbbc9eb5c	-0.00616209
133	0x3ae34036	0.0017337862
134	0xbbb891d4	-0.0056326184
135	0x3c1f8901	0.009737254
136	0xbd254b33	-0.04035492
137	0xbc5761f7	-0.013145915
138	0xbcd0bd5d	-0.02548092
139	0xbce13587	-0.027491344
140	0x3b2eb926	0.002666065
141	0xbd429c52	-0.04751236
142	0xbd486007	-0.048919704
143	0xbb225828	-0.0024771784
144	0xbcbc2697	-0.02296762
145	0x3cb59369	0.022165017
146	0xbd323c05	-0.04351427
147	0x3c818823	0.015811985
148	0x3c3837f5	0.01124381
149	0x3ca01ea6	0.019545864
150	0xbd4b80ca	-0.04968337
151	0x3ce0a477	0.027422173
152	0xbc30660b	-0.010766516
153	0xbd277465	-0.040882487
154	0xbc3bb5c8	-0.011456914
155	0x3b3a0a42	0.0028387462
156	0x3bda698c	0.006665414
157	0x3cb8eff8	0.022575364
158	0xbd2419a0	-0.0400635
159	0xbd417599	-0.04723129
160	0xbc44bb21	-0.012007506
161	0xbbb941ea	-0.0056536095
162	0x3cc32eff	0.02382612
163	0xbae8998e	-0.0017745958
164	0xbbf884bd	-0.007584183
165	0x3c98060c	0.01855757
166	0xbd03fc50	-0.032223046
167	0xbcb207ad	-0.021732176
168	0xbc9a8b44	-0.018865235
169	0xbcc79d73	-0.02436707
170	0xbc5cf0ec	-0.013485175
171	0xbcd848fe	-0.026401993
172	0xbcf91743	-0.0304066
173	0xbc1613f2	-0.009160029
174	0x3cdb70e9	0.026787238
175	0xbc931410	-0.017953902
176	0xbd03b955	-0.03215917
177	0xbc68eff5	-0.014217366
178	0xbcd919ab	-0.026501497
179	0xbb0b8d25	-0.0021293845
180	0xbab82450	-0.0014048908
181	0xbd3018a5	-0.042992253
182	0xbadd5a94	-0.0016887956
183	0xbd2e38d2	-0.042534657
184	0xbd6edd9c	-0.058316812
185	0x3d01fc80	0.031734943
186	0x3d419d1a	0.047268964
187	0xbd253656	-0.040335022
188	0x3d341252	0.043962784
189	0xbc6ca3f2	-0.0144433845
190	0xbcbeaeb8	-0.023276672
191	0xbb4be2f4	-0.0031110616
192	0x3c8f7540	0.017511964
193	0xbc3814f8	-0.011235468
194	0x3d0d149b	0.03444348
195	0x3d0a16e8	0.03371325
196	0x3a5f90d3	0.00085283554
197	0x3d32576b	0.0435404
198	0xbd012e99	-0.03153858
199	0xbb5467b4	-0.0032410445
200	0xbce337da	-0.027736593
201	0x3d4dcc10	0.050243437
202	0xbb75dd70	-0.003751602
203	0xbc5d3c4c	-0.013503145
204	0xbbab55f3	-0.005228752
205	0x3ca3697e	0.019947764
206	0xbcf9f937	-0.030514343
207	0x3c1070bf	0.008815943
208	0xbb762731	-0.003755998
209	0x3d1015c2	0.035177
210	0xbd27376f	-0.04082435
211	0x3d544c58	0.05183062
212	0x3cbf4688	0.023349062
213	0xbc5d23e7	-0.013497329
214	0xbadec429	-0.0016995716
215	0xbd1cb88b	-0.03826193
216	0x3d26fcc5	0.040768404
217	0xbd4b044f	-0.049564656
218	0xbd5e32cd	-0.054247666
219	0xbd6175da	-0.055044033
220	0xbcd583cf	-0.026063828
221	0xbc5ad890	-0.013357297
222	0xbd4391a4	-0.047746316
223	0x3c50d27c	0.012745496
224	0x3c894fdc	0.016761713
225	0xbc3784e0	-0.011201113
226	0x3cc75712	0.02433351
227	0x3d03cd34	0.03217812
228	0xbcf4afe6	-0.029869031
229	0xbcf5d66d	-0.030009473
230	0xba6008de	-0.0008546243
231	0x3ce7ab0d	0.028279806
232	0xbceeb978	-0.029141173
233	0x3d5ad6a8	0.05342737
234	0x3d4f9beb	0.050685804
235	0x3c1ece00	0.009692669
236	0xbc0e0ff9	-0.0086708
237	0x3cc90ac1	0.02454126
238	0x3b10f11d	0.002211637
239	0x3cfe8c12	0.03107265
240	0x3a9af965	0.0011823593
241	0xbbccb470	-0.0062470958
242	0x3ccc8fd5	0.024970928
243	0x3760cf1a	1.339966e-05
244	0x3b0cf7a4	0.002150991
245	0xbcdbae2e	-0.026816454
246	0x3d03d88f	0.03218895
247	0x3c8f283c	0.01747524
248	0xbab3d50b	-0.0013720108
249	0x3d30f200	0.04319954
250	0xbb1f96c6	-0.0024351343
251	0xbce90d39	-0.028448688
252	0xbcb3202a	-0.021865923
253	0x3cb47189	0.022026794
254	0xbd010fe0	-0.03150928
255	0x3d184fd5	0.03718551

fc1.bias f4 [120]
0	0x3c985652	0.018595848
1	0xbc05e970	-0.008173332
2	0xbcbe719d	-0.023247534
3	0x3dd3291a	0.10310574
4	0x3c0de292	0.008659976
5	0xbc664dc4	-0.014056627
6	0x3b598bc1	0.0033194872
7	0xbd057c4f	-0.032589253
8	0xbd8d6bf8	-0.06905359
9	0xbd12f3df	-0.035877105
10	0x3c1a76f7	0.0094277775
11	0x3d8b5cbc	0.06804797
12	0xbd67d1dc	-0.056596622
13	0xbabf9182	-0.0014615508
14	0xbc024a01	-0.007952214
15	0xbd1d8e15	-0.038465578
16	0xbd1429f2	-0.036172815
17	0xb80e00e5	-3.385627e-05
18	0xbbb09ea6	-0.005390006
19	0xbd3c6f45	-0.046004552
20	0xbad00690	-0.0015871096
21	0xbd0eefe0	-0.03489673
22	0xbd255b92	-0.04037053
23	0x3d42a079	0.04751632
24	0x3d17384f	0.036918934
25	0x3dc37b3c	0.095449895
26	0x3c853ab5	0.016263345
27	0xbb84718d	-0.0040418566
28	0x3b8028e7	0.003911126
29	0xbc47fe05	-0.012206559
30	0x3cf03e79	0.029326664
31	0x3cd02e9e	0.025412854
32	0xbcec6812	-0.028858218
33	0xbc228226	-0.009918725
34	0xbc0cd6be	-0.00859612
35	0x3d78480b	0.06061558
36	0xbd0a9e86	-0.033842586
37	0x3cc6ab97	0.024251742
38	0x3cdeedaa	0.027212936
39	0xbb7b2224	-0.003831991
40	0x3cf047f3	0.029331183
41	0x3d140357	0.036135998
42	0x3d21c7b9	0.03949711
43	0xbd0e51ea	-0.034746088
44	0x3bbee221	0.0058252965
45	0x3cfa7267	0.03057213
46	0x3d556334	0.05209656
47	0xbc90efc1	-0.017692449
48	0x3cb65c81	0.022260906
49	0xbaba30f5	-0.0014205264
50	0xbcb20e02	-0.021735195
51	0x3d470620	0.048589826
52	0x3d03ce50	0.032179177
53	0x3d0b2edd	0.03398024
54	0xbcd0cf13	-0.025489366
55	0x3d24649b	0.040135007
56	0x3d9affd9	0.0756833
57	0xbb55b755	-0.0032610495
58	0x3cf5d128	0.03000696
59	0xbad64027	-0.0016346023
60	0xbcad0f62	-0.0211255
61	0xbcf31f8f	-0.029678134
62	0xbd003c7f	-0.031307694
63	0xbc2cb195	-0.010540386
64	0xbc5cb1bb	-0.013470109
65	0xbd10e3bc	-0.035373434
66	0xbd505a48	-0.05086735
67	0x3daad2a9	0.083409615
68	0xbd14c95e	-0.03632485
69	0x3ca29c63	0.019849962
70	0x3b92c7ba	0.0044793757
71	0xbbb99bcb	-0.005664324
72	0xbd5e0203	-0.054201137
73	0xbd6dcf83	-0.058059227
74	0xbbb7da76	-0.0056107594
75	0x3d2285fa	0.03967855
76	0x3c27b1d2	0.010235267
77	0x3d3f3101	0.046677593
78	0xb9ccf57d	-0.00039092815
79	0x3d956236	0.07294123
80	0xbbba7720	-0.0056904703
81	0x3d053275	0.032518823
82	0xbcac5911	-0.021038564
83	0xbad7c4dd	-0.0016461868
84	0xbce74010	-0.02822879
85	0x3db070ed	0.08615289
86	0xbd19907b	-0.037491303
87	0xbbd1af90	-0.0063991025
88	0xbd0d9771	-0.034568254
89	0xbd32f4e8	-0.043690592
90	0xbcfa3aa5	-0.030545542
91	0xbd5cc71e	-0.05390083
92	0x3bcc2c58	0.006230872
93	0xbd04a67f	-0.032385346
94	0x3ccc855e	0.024965938
95	0xbcc9c134	-0.02462826
96	0xbb4b70f1	-0.003104266
97	0x3d16b5d9	0.036794517
98	0x3c87164c	0.016490124
99	0xbd38df8d	-0.04513507
100	0x3c7ed524	0.015553746
101	0x3d43391d	0.04766189
102	0xbd23fba6	-0.040034913
103	0x3beaaa27	0.007161397
104	0xbc3d1cca	-0.011542508
105	0xbcd99b23	-0.026563233
106	0x3d40092a	0.04688374
107	0xbd2933d9	-0.04130921
108	0xbd5a476c	-0.05329077
109	0x3cdcfc0b	0.026975652
110	0x3d118864	0.035530463
111	0xbd305a2e	-0.043054752
112	0xbc47f5eb	-0.0122046275
113	0x3ced26bd	0.028949136
114	0x3d3415ec	0.04396622
115	0xbd0ae23d	-0.033907164
116	0xbce2dd61	-0.027693452
117	0xb7282e05	-1.0024295e-05
118	0xbca61ae4	-0.020276494
119	0x3d65f77f	0.056144234

fc2.weight f4 [84, 120]
0	0x3bba5f9f	0.0056876685
1	0x3d158145	0.036500234
2	0xbd1ffdb6	-0.039060317
3	0x3d97d970	0.0741452
4	0x3db33626	0.08750562
5	0x3d9e73aa	0.07736905
6	0xbd323b98	-0.043513864
7	0xbd0c16bf	-0.03420138
8	0x3c979307	0.018502725
9	0x3d2e1d9e	0.042508714
10	0xbd841619	-0.06449527
11	0xbc9aac05	-0.018880853
12	0xbcb83470	-0.022485942
13	0x3dafceb8	0.0858435
14	0xbda9d41b	-0.08292409
15	0x3ccfb2a4	0.025353737
16	0x3bd036a7	0.0063541713
17	0xbc71e494	-0.01476397
18	0xbd8a1f5c	-0.067442626
19	0x3d46a6a3	0.04849876
20	0x3ddbd648	0.1073423
21	0x3acc7818	0.0015599756
22	0x3d68d661	0.056845073
23	0x3d3e13c9	0.046405587
24	0xbc9e781f	-0.019344388
25	0x3c112752	0.008859472
26	0xbdf064ea	-0.11737998
27	0x3d85ea46	0.06538825
28	0xbd83be61	-0.06432796
29	0xbd5c6b9a	-0.053813554
30	0x3c940ec9	0.018073456
31	0xbd73b4b3	-0.0594985
32	0x3d1fc88e	0.039009623
33	0x3da88d7e	0.082301125
34	0x3db9b4e7	0.090677075
35	0x3d5597e2	0.0521468
36	0xbd0f52d1	-0.03499109
37	0x3d4bae8f	0.04972702
38	0x3d2fbfe5	0.042907614
39	0xbc7b98c5	-0.015356247
40	0x3c4333d3	0.011914211
41	0x3d872e73	0.06600656
42	0xbc2b90e4	-0.010471556
43	0x3c4af020	0.012386352
44	0x3cbe4c17	0.023229642
45	0x3b3f707a	0.0029211328
46	0xbccc341c	-0.024927191
47	0x3ddbb5de	0.10728048
48	0x3c7d7e68	0.015472032
49	0xbd716e3e	-0.058943026
50	0xbd0a655c	-0.03378807
51	0x3da73cd5	0.081659
52	0xbd7c5311	-0.061602656
53	0xbd8566db	-0.06513759
54	0x3d004fe8	0.031326205
55	0xbdca48bf	-0.098771565
56	0xbd9ae3e0	-0.07562995
57	0x3d48d1a9	0.049028073
58	0x3da8dcd8	0.082452476
59	0xbd67107e	-0.056412213
60	0xbd8c2c65	-0.06844405
61	0x3d5ad20c	0.053422973
62	0x3d408e0d	0.04701047
63	0xbcedca24	-0.029027052
64	0x3ce5874d	0.028018618
65	0x3d6cb8c8	0.05779341
66	0xbc824fdf	-0.015907226
67	0xbd46fbe4	-0.048580065
68	0x3d683fec	0.056701586
69	0x3db0eaaf	0.08638512
70	0xbcd51c7a	-0.026014555
71	0x3c6d33e4	0.014477704
72	0x3b9c4597	0.004769038
73	0x3c9d11bd	0.019173497
74	0x3d91c884	0.071183234
75	0xbdb07df4	-0.08617774
76	0xbdb8a093	-0.09015002
77	0xbda9584a	-0.08268793
78	0xbcf7ea08	-0.030262962
79	0x3dc0352d	0.093851425
80	0xbd274d89	-0.040845428
81	0xbd115014	-0.03547676
82	0x3cd2b6ed	0.025721991
83	0x3da936d6	0.08262412
84	0x3dc694fe	0.09696387
85	0x3af24afc	0.0018485482
86	0xbdb815e2	-0.08988549
87	0xbd63fbca	-0.055660047
88	0x3d8a1379	0.06741995
89	0x3dc7e86b	0.09761127
90	0x3c91ddf3	0.017806029
91	0xbd9a8c38	-0.07546276
92	0xbcc3ea3e	-0.023915406
93	0xbd6012c6	-0.054705404
94	0xbcba23a5	-0.022722075
95	0x3d6dbd0a	0.05804161
96	0xbdd7e9d2	-0.105426446
97	0xbd99203a	-0.0747685
98	0x3d32406f	0.04351848
99	0x3dbea77e	0.0930929
100	0x3d276cde	0.04087531
101	0x3d75e8e7	0.060036566
102	0x3db6c473	0.089241885
103	0xbd6d9888	-0.058006793
104	0xbdc33e3b	-0.09533354
105	0x3de85b01	0.113454826
106	0x3cb2f636	0.021845918
107	0xbafeb438	-0.0019432371
108	0x3dd8f876	0.10594265
109	0xbda18267	-0.078862004
110	0x3d1ac351	0.037783924
111	0x3db4019b	0.08789369
112	0xbd8d2fee	-0.068939075
113	0x3db402b3	0.08789577
114	0x3d0dbdb2	0.034604736
115	0xba82f444	-0.000999101
116	0xbd9d350e	-0.07676135
117	0x3d3f2d72	0.0466742
118	0xbc290c6f	-0.010317906
119	0xbbff62dc	-0.0077937674
120	0x3d188dde	0.03724467
121	0xbcdf7ec8	-0.027282134
122	0xbd0ff506	-0.035145782
123	0x3d8caa32	0.068684
124	0x3d9c47b0	0.07630861
125	0xbd8202fa	-0.06348224
126	0x3d8ad46c	0.067787975
127	0x3d733df0	0.05938524
128	0xbc7a38b0	-0.015272304
129	0x3d4fb1f6	0.050706826
130	0xbcfddd85	-0.030989418
131	0x3d301181	0.042985443
132	0x3d1680cf	0.036743935
133	0xbcbdc6ee	-0.023166146
134	0xbca816f9	-0.020518767
135	0xbdab62ad	-0.0836843
136	0x3d5f108d	0.054459143
137	0x3d4b9601	0.0497036
138	0xbd0400d8	-0.032227367
139	0x3d06d65d	0.032919277
140	0xbda6cb3f	-0.08144235
141	0xbcb5c2fa	-0.022187699
142	0x3ce84d80	0.028357267
143	0x3d1cfbc1	0.03832603
144	0xbdacff4d	-0.08447132
145	0x3d96d291	0.07364381
146	0xbd03c12d	-0.03216665
147	0xbd587003	-0.052841198
148	0xbd8255d8	-0.0636403
149	0x3d2c211c	0.042023763
150	0x3c870ccd	0.016485596
151	0xbd8383a9	-0.064215966
152	0xbda3831b	-0.07983991
153	0x3cfb340d	0.030664468
154	0xbcd1a49e	-0.02559119
155	0xbd1a1700	-0.03761959
156	0xbd74a784	-0.059730068
157	0x3d7bc34e	0.061465554
158	0xbd61d009	-0.05513004
159	0x3cc6fc50	0.024290234
160	0x3cbc8731	0.023013683
161	0x3d69a6d4	0.057043865
162	0x3d2b76e5	0.041861434
163	0xbd42242f	-0.04739779
164	0xbcd1ad51	-0.025595339
165	0x3d917fde	0.07104467
166	0xbca6e541	-0.020372989
167	0xbc2426bc	-0.010019001
168	0x3cccbe67	0.024993135
169	0xbc7b6e80	-0.0153461695
170	0xbd9f01df	-0.07764029
171	0x3d3e4821	0.046455506
172	0x3ca2c634	0.019869901
173	0x3dac157d	0.08402536
174	0x3d0a3fa9	0.033752117
175	0xbb9745bf	-0.0046164687
176	0x3d2373ea	0.039905466
177	0x3dab0d7c	0.08352181
178	0x3cd098db	0.025463512
179	0x3d617fdb	0.055053573
180	0x3c816964	0.015797324
181	0x3cb49725	0.022044728
182	0xbd677912	-0.056511946
183	0x3d0c7c9e	0.03429853
184	0xbd344e39	-0.04401991
185	0xbd987d39	-0.07445759
186	0xbd8becd1	-0.068322785
187	0xbc8b436d	-0.016999925
188	0xbda1e8d5	-0.07905737
189	0x3d5c0f58	0.05372557
190	0xbd89ed2a	-0.067346886
191	0xbd1e54bc	-0.038655028
192	0xbcbb6815	-0.022876779
193	0x3d2449c2	0.040109403
194	0xbd6005c3	-0.054692995
195	0xbd5c1bea	-0.05373756
196	0xbd986cd5	-0.07442633
197	0x3bc29d2c	0.0059391465
198	0x3d2c5b18	0.04207906
199	0xbdb35141	-0.08755732
200	0xbd59c103	-0.053162586
201	0xbc101179	-0.008793228
202	0x3d422eb3	0.047407817
203	0xbc6dcd78	-0.01451432
204	0xbb5592aa	-0.003258864
205	0xbcc5ce17	-0.024146123
206	0xbd99e233	-0.07513847
207	0x3da3ecfb	0.08004185
208	0xbda6b2b0	-0.08139551
209	0xbcba9822	-0.02277762
210	0xbc818b84	-0.015813597
211	0xbd3e62d6	-0.046480976
212	0x3cee4611	0.029086145
213	0x3d8b0fb6	0.06790106
214	0x3d6b098e	0.05738216
215	0x3d843107	0.06454664
216	0x3d3b7cd1	0.04577333
217	0x3ba3c9cf	0.0049984227
218	0xbd84d8d5	-0.0648667
219	0x3d0b3208	0.03398326
220	0xbdab2876	-0.08357327
221	0xbd42e922	-0.047585614
222	0x3c72bbea	0.01481531
223	0xbd8e2285	-0.06940178
224	0xbd9e1037	-0.077179365
225	0x3cbe7a18	0.023251578
226	0x3cebc904	0.028782375
227	0x3db6d376	0.08927052
228	0xbc2d7be9	-0.0105886245
229	0x3d5fb2fc	0.054614052
230	0x3cea84c9	0.02862777
231	0xbc94a0f1	-0.01814315
232	0x3dae7550	0.08518469
233	0xbd2e5a23	-0.04256643
234	0xbd807ce9	-0.06273825
235	0x3da42550	0.08014929
236	0x3cc12c7f	0.023580788
237	0x3cbfab61	0.02339715
238	0xbdc742d8	-0.09729546
239	0x3d096d1a	0.033551313
240	0xbd82f50e	-0.06394397
241	0xbd8fcceb	-0.07021507
242	0xbbf838d8	-0.0075751357
243	0x3c64b8bf	0.0139600625
244	0xbd250673	-0.040289354
245	0xbcd421a0	-0.02589494
246	0x3c7f0481	0.015565039
247	0xbca381ae	-0.019959297
248	0xbd8258e5	-0.063646115
249	0xbd4ac9ea	-0.049508967
250	0x3d42007d	0.047363747
251	0xbd8038d1	-0.06260837
252	0x3d799c02	0.060939796
253	0xbd8e4506	-0.06946759
254	0x3d80cc2b	0.06288942
255	0x3c6da234	0.014504004

fc2.bias f4 [84]
0	0xbb8dcc1c	-0.0043273102
1	0xbd37607e	-0.044769756
2	0x3c7711c7	0.015079922
3	0x3d7a6462	0.06113089
4	0xbc0126ec	-0.007882815
5	0x3db87665	0.09006957
6	0x3df08ed0	0.11745989
7	0xbcb9dff2	-0.022689793
8	0x3d06c2e5	0.03290071
9	0x3d80c77f	0.06288051
10	0x3cd682e6	0.026185464
11	0xbd2a61d5	-0.041597206
12	0x3ce77e75	0.028258542
13	0x3d8d90a6	0.06912355
14	0xbd117440	-0.035511255
15	0x3d6f545b	0.058430057
16	0xbd120555	-0.035649616
17	0xbd45eb80	-0.048320293
18	0x3d3f7125	0.046738762
19	0xbb44c97a	-0.0030027316
20	0xbd5fc07c	-0.054626927
21	0xbddcd7db	-0.10783359
22	0xbc9ef938	-0.019405946
23	0x3e2b55d9	0.16731967
24	0x3df76804	0.12080386
25	0xbcbae443	-0.022813922
26	0x3d035561	0.032063846
27	0xbd37165d	-0.04469906
28	0xbd57b270	-0.052660406
29	0x3c175b5c	0.00923809
30	0xbc084cb7	-0.0083190715
31	0x3d10ce0e	0.03535276
32	0x3bb7a540	0.005604416
33	0xbda6475d	-0.0811908
34	0x3c54a5a6	0.012978947
35	0xbdb13cc7	-0.086541705
36	0xbda64381	-0.08118344
37	0x3c6dba97	0.0145098185
38	0xbcfc1e8f	-0.03077629
39	0xbd466151	-0.048432652
40	0x3ce0540c	0.027383827
41	0x3dc707ed	0.097183086
42	0x3d80c3f7	0.06287377
43	0xbd194710	-0.037421286
44	0x3d0030a6	0.031296395
45	0xbd0579ed	-0.03258698
46	0x3cd638e6	0.026150178
47	0xbd89dc25	-0.06731442
48	0xbdaae3a5	-0.08344201
49	0x3e283a67	0.16428529
50	0xbc413879	-0.011793249
51	0xbd8b6619	-0.06806583
52	0x3d0ea7d0	0.034828007
53	0xbdada8ad	-0.08479438
54	0xbb7d08ac	-0.0038609905
55	0xbcd385f5	-0.025820712
56	0x3cc54695	0.024081508
57	0xbd79443c	-0.06085609
58	0x3d393d8c	0.04522471
59	0x3deed604	0.11661914
60	0x3d6fe4f5	0.05856796
61	0xbd95499a	-0.07289429
62	0xbd843ce1	-0.06456924
63	0xbd9bce97	-0.07607763
64	0xba04c219	-0.0005064323
65	0xbc99fa59	-0.018796133
66	0xbcceebad	-0.025258863
67	0xbd280ce7	-0.04102793
68	0x3b177853	0.002311249
69	0x3bc76f07	0.0060862335
70	0x3d6e26c5	0.058142442
71	0x3d0cbeb4	0.034361556
72	0x3dbe8854	0.09303346
73	0xbe1d49a2	-0.1536012
74	0x3dc4dc2d	0.09612308
75	0x3d069566	0.03285732
76	0x3d8b7f42	0.06811382
77	0xbcde4c49	-0.027135985
78	0x3cb1fc71	0.021726819
79	0x3dcfdacc	0.10149154
80	0x3d9df200	0.077121735
81	0x3d0b6546	0.03403213
82	0x3e1fe617	0.15615116
83	0x3c705b9c	0.014670279

fc3.weight f4 [10, 84]
0	0x3daf3e5d	0.08556817
1	0x3d77f39f	0.06053507
2	0x3d9cb502	0.07651712
3	0x3dd38b68	0.10329324
4	0x3c6d5f1a	0.014488006
5	0xbe33470f	-0.17507575
6	0xbe994f08	-0.2994311
7	0x3da40f70	0.08010757
8	0x3de8c416	0.113655254
9	0xbe502233	-0.20325546
10	0xbd72fa31	-0.059320632
11	0x3e744ffb	0.23858635
12	0x3c92bec7	0.017913235
13	0x3d89e314	0.06732765
14	0x3ce264b9	0.027635919
15	0xbda3235a	-0.07965727
16	0xb9e25da4	-0.00043175847
17	0x3e3c7ba6	0.18406543
18	0xbe790529	-0.24318375
19	0x3e92a758	0.28643298
20	0x3d092ba7	0.033488896
21	0x3e51b999	0.20480956
22	0xbe6d32de	-0.23163936
23	0xbe2e4be6	-0.1702114
24	0xbea627f1	-0.32452348
25	0x3e887275	0.26649824
26	0xbdc33282	-0.09531118
27	0x3eb1ff5c	0.34765136
28	0x3e2cab6d	0.16862269
29	0x3dcbf8c3	0.09959557
30	0x3d7f9527	0.062398102
31	0x3d798090	0.060913622
32	0xbd1bb58f	-0.038014945
33	0xbddac843	-0.10682728
34	0xbd12c937	-0.035836425
35	0x3e92b9bd	0.28657332
36	0x3e44902d	0.19195624
37	0xbd678091	-0.056519095
38	0x3dc34f45	0.09536604
39	0xbd74948f	-0.05971199
40	0xbd43d969	-0.04781476
41	0x3d9b93e4	0.07596567
42	0xbb0d6717	-0.002157634
43	0xbd89f1b7	-0.067355566
44	0xbe1952da	-0.14973012
45	0xbd0dadbc	-0.034589514
46	0xbd1f9f72	-0.03897042
47	0xbdadc0ba	-0.08484025
48	0xbdf016a9	-0.11723072
49	0xbe4c89ea	-0.19974485
50	0xbe5c58b6	-0.21518216
51	0x3dced3e9	0.100990124
52	0xbc3663f6	-0.011132231
53	0x3c884a19	0.016636895
54	0xbc814af6	-0.015782814
55	0x3da1bc3c	0.07897231
56	0xbc25c533	-0.010117817
57	0x3db79881	0.08964635
58	0x3e73bba0	0.23802042
59	0xbdddf57e	-0.108378395
60	0x3d1bf761	0.038077716
61	0x3cd96a45	0.026539931
62	0x3d7f3750	0.06230861
63	0x3de17180	0.110079765
64	0x3d1d0e9b	0.038344007
65	0xbc6b8e44	-0.0143771805
66	0x3dfc916f	0.12332427
67	0xbcc88bd8	-0.024480745
68	0xbe04a486	-0.12953386
69	0xbeb39fad	-0.3508276
70	0x39cade77	0.00038694192
71	0xbdb9e68b	-0.09077176
72	0xbd944653	-0.07239976
73	0x3e4ce38d	0.20008679
74	0x3d3b582a	0.045738377
75	0xbe9041ce	-0.28175205
76	0xbe0d4acc	-0.13798064
77	0x3c55e650	0.013055399
78	0x3daa2896	0.083085224
79	0x3e46ad94	0.19402152
80	0xbb3e7e13	-0.0029066845
81	0x3e437de5	0.19090994
82	0xbd144fb3	-0.03620882
83	0xbbe4a59f	-0.0069777514
84	0x3e09348a	0.13398948
85	0x3dd37ca1	0.103265055
86	0x3d8d6284	0.06903556
87	0xbe0a5356	-0.13508353
88	0xbd9ab359	-0.07553739
89	0x3a9fd152	0.001219312
90	0x3ea077aa	0.31341296
91	0xba3d3a70	-0.00072184857
92	0xbd8455d4	-0.06461683
93	0xbea9557b	-0.3307303
94	0xbd9694b5	-0.07352582
95	0xbe0416e2	-0.12899354
96	0x3d042a6d	0.032267023
97	0xbdab526b	-0.08365329
98	0x3e2797fd	0.16366573
99	0x3e7e10d3	0.24811105
100	0x3e88c753	0.26714572
101	0x3e7430c3	0.23846726
102	0x3ddb4654	0.107067734
103	0xbd3e0c52	-0.04639847
104	0xbd3a25fc	-0.04544638
105	0xbd346fe7	-0.04405203
106	0x3cb74423	0.022371357
107	0xbc464c21	-0.0121031115
108	0xbdefd41b	-0.11710378
109	0xbe8df912	-0.27729088
110	0x3e9f2a9b	0.31087193
111	0xbe094d77	-0.13408457
112	0x3d4d9823	0.050193917
113	0xbdd4f70a	-0.103986815
114	0x3b7baed4	0.0038403766
115	0x3d148f17	0.036269274
116	0x3d28f688	0.041250736
117	0x3c8c036c	0.017091475
118	0x3ec0b955	0.37641397
119	0xbd95a141	-0.07306147
120	0xbe2a5ef6	-0.16637787
121	0xbd414027	-0.04718032
122	0x3d01d6a4	0.031698838
123	0x3db793d9	0.089637466
124	0x3e5f8a72	0.21830156
125	0x3e58ca48	0.21170914
126	0xbdcced36	-0.10006182
127	0x3d9e028a	0.07715328
128	0xbe46b73b	-0.19405834
129	0x3cac09de	0.021000799
130	0xbdc453bc	-0.095862836
131	0x3de3c629	0.111217804
132	0xbd7f7819	-0.062370393
133	0xbeb3d512	-0.35123497
134	0xbd58a2b7	-0.052889552
135	0x3de443d2	0.11145748
136	0xbd4b5b1b	-0.04964743
137	0x3d48f2fe	0.04905986
138	0xbcfe5dd6	-0.031050604
139	0xbd85a882	-0.06526281
140	0x3de05aec	0.10954842
141	0x3b3768cf	0.0027986055
142	0xbd956ce0	-0.07296157
143	0xbd9638aa	-0.073350266
144	0x3cd82605	0.026385317
145	0x3d9691d5	0.07352034
146	0xbc6b6b0f	-0.0143687865
147	0xbd8ee83a	-0.069778875
148	0x3e48e726	0.19619426
149	0x3d96790a	0.07347305
150	0xbc91e041	-0.017807128
151	0xbd3cfba6	-0.04613843
152	0x3e787c69	0.24266209
153	0x3d4ab654	0.049490288
154	0x3cfe9159	0.031075167
155	0xbe5cb40d	-0.21553059
156	0x3e77909c	0.24176258
157	0xbe33f5c7	-0.17574225
158	0xbd71997d	-0.05898427
159	0xbe36390d	-0.177952
160	0x3bdea344	0.006794365
161	0x3d5b992b	0.05361287
162	0xbcc6fe77	-0.02429126
163	0x3e6195c8	0.22029793
164	0xbd519a74	-0.05117269
165	0x3cfefb76	0.031125765
166	0x3ddf561b	0.10905095
167	0xbdb47339	-0.088110395
168	0xbb33e412	-0.0027449173
169	0x3b6c4929	0.003605435
170	0xbc100b43	-0.0087917475
171	0xbc9a7ac7	-0.018857373
172	0xbd47ca56	-0.048776947
173	0x3dad31a4	0.08456734
174	0xbbb604c3	-0.005554767
175	0x3c52cfa2	0.012866886
176	0x3db6491a	0.08900662
177	0x3d3310f9	0.04371736
178	0xbd122514	-0.03567989
179	0xbd9c01de	-0.07617544
180	0xbd06c7d0	-0.0329054
181	0x3cd79001	0.026313784
182	0x3cdd12d1	0.026986511
183	0xbd8f93da	-0.07010622
184	0xbd4673f5	-0.04845043
185	0xbda7acf9	-0.08187289
186	0xbe0f7552	-0.14009598
187	0x3d947999	0.072497554
188	0x3cfe38d1	0.031032952
189	0x3e576314	0.21033889
190	0x3d84286a	0.06453021
191	0x3d412f1a	0.04716406
192	0xbd0e8f9d	-0.03480493
193	0xbc8552ab	-0.01627477
194	0xbde16ae0	-0.11006713
195	0xbd4f5d19	-0.050625894
196	0xbce897db	-0.028392723
197	0x3ba3e0a7	0.005001146
198	0xbcc06fd2	-0.02349082
199	0x3d04dd22	0.03243745
200	0x3d39f3c1	0.045398477
201	0xbae49bf3	-0.0017441496
202	0x3db53d9e	0.08849643
203	0x3b5b3055	0.0033445556
204	0x3e3ae2a9	0.18250526
205	0xbda8b78e	-0.08238135
206	0x3d6fb6b1	0.058523837
207	0xbcfb0ef9	-0.030646788
208	0x3bf84eaf	0.007577739
209	0xbc8a2544	-0.016863473
210	0x3d088ce5	0.033337492
211	0x3cc0adeb	0.02352043
212	0x3e256d50	0.1615498
213	0x3c04e536	0.008111289
214	0xbd98a155	-0.07452647
215	0xbd9bc69b	-0.0760624
216	0x3d446d21	0.047955636
217	0x3e006085	0.1253682
218	0x3db60cc7	0.08889156
219	0xbc0ab827	-0.008466757
220	0x3db5e5ff	0.08881759
221	0xbdafe825	-0.085892
222	0xbd80fd8a	-0.06298359
223	0x3d2dd03a	0.04243491
224	0xbbec7ef0	-0.0072172806
225	0xbdbd813d	-0.09253166
226	0xbe0152da	-0.12629262
227	0x3e0d240a	0.13783279
228	0xbd370a4f	-0.044687565
229	0x3d11eda7	0.035627034
230	0x3dce9f15	0.10088936
231	0xbddac796	-0.10682599
232	0xbb8860ea	-0.0041619437
233	0xbd7c433f	-0.06158757
234	0xbcb2bd15	-0.021818677
235	0x3ddf03c4	0.1088939
236	0xbc645a2c	-0.013937514
237	0xbd2b5a50	-0.041834176
238	0xbcd9d17d	-0.02658915
239	0x3e200184	0.15625578
240	0x3cde46ca	0.027133364
241	0x3d9df9b7	0.07713645
242	0xbcd94a25	-0.026524613
243	0xbd566e1d	-0.052351106
244	0xbe108877	-0.14114557
245	0xbd4e177c	-0.050315365
246	0xbd01d79b	-0.031699758
247	0x3bb033d2	0.005377271
248	0x3d1e56ff	0.038657185
249	0x3c96954f	0.018381743
250	0xbc46e5a3	-0.012139711
251	0x3cb0c7d2	0.021579657
252	0xbd93f8fa	-0.07225223
253	0x3cba9c13	0.0227795
254	0xb83fe711	-4.5753146e-05
255	0x3db9fae1	0.090810545

fc3.bias f4 [10]
0	0xbe3f17a3	-0.1866136
1	0x3cd144c5	0.025545487
2	0x3d8a3bba	0.06749673
3	0x3e02142e	0.1270301
4	0x3e2ee000	0.17077637
5	0xbe80bb86	-0.2514307
6	0x3e155190	0.14581895
7	0xbda64442	-0.08118488
8	0xbdc935f5	-0.098247446
9	0x3c1bec06	0.009516722
