round1/2025-04-18 17:23:55-weight-client-a74d794b-1.pth (torch, 252478 bytes, 10 tensors)

conv1.weight f4 [6, 3, 5, 5]
0	0x3d8e64f7	0.06952851
1	0xbc7212ed	-0.01477502
2	0xbd8a8f1d	-0.06765578
3	0x3ddd2663	0.10798337
4	0xbde35523	-0.11100223
5	0xbd2c57a9	-0.042075787
6	0x3c5152c5	0.012776081
7	0xbd92339f	-0.07138752
8	0xbbcad82d	-0.006190321
9	0xbdc91724	-0.09818867
10	0xbdb9dda5	-0.090754785
11	0x3c5f15b3	0.013616013
12	0xbda0a61a	-0.07844181
13	0xbdba7855	-0.09104983
14	0x3ca76d73	0.020437932
15	0xbbfc4928	-0.0076991506
16	0xbde41c08	-0.11138159
17	0x3d8066ed	0.062696315
18	0xbcfba9f0	-0.030720681
19	0x3dbba225	0.09161786
20	0x3bb62a38	0.005559232
21	0x3d98326f	0.074314944
22	0xbd3623fe	-0.04446792
23	0x3c9f936b	0.019479474
24	0xbd818e77	-0.06326001
25	0x3de82e8e	0.113370046
26	0xbdc28f79	-0.095000215
27	0xbde55e41	-0.11199618
28	0xbdadb748	-0.08482224
29	0x3b6e0f0f	0.0036324894
30	0xbce3f968	-0.027828887
31	0x3d721a20	0.059106946
32	0x3cbc929a	0.023019124
33	0xbde9ec1c	-0.114219874
34	0x3ca5daa6	0.020245861
35	0xbd65f01c	-0.05613719
36	0xbcb578ab	-0.022152266
37	0xbd1c9974	-0.03823228
38	0x3d398bb5	0.04529925
39	0x3b1b72a5	0.0023719457
40	0x38374cdf	4.370219e-05
41	0x3ba5c90a	0.005059366
42	0xbdbfc6bd	-0.09364078
43	0x3cd75590	0.026285917
44	0x3d9c9c2f	0.07646977
45	0x3dab9a94	0.08379093
46	0xbcc6e33c	-0.024278276
47	0xbd20969a	-0.039206125
48	0x3b7f7f83	0.0038985915
49	0xbd7cce7b	-0.061720353
50	0xbcadb495	-0.021204272
51	0x3d08cdee	0.033399515
52	0x3cdec8be	0.02719533
53	0xbceb1934	-0.028698541
54	0xbc4bfd28	-0.012450494
55	0xbdb8354a	-0.08994539
56	0xbd290057	-0.04126009
57	0x3deae322	0.114691034
58	0xbdbb5ff7	-0.09149163
59	0xbdbb1015	-0.09133927
60	0x3d310e6c	0.043226644
61	0x3dbbfa9d	0.0917866
62	0xbd87a0e0	-0.06622481
63	0xbd2c0df0	-0.04200548
64	0x3d3c9919	0.046044443
65	0xbddcf002	-0.10787965
66	0xbcbe7537	-0.023249252
67	0xbc00cc0d	-0.0078611495
68	0xbd9381a1	-0.07202459
69	0xbd6f535d	-0.05842911
70	0xbddcdea4	-0.10784653
71	0xbb2781c9	-0.0025559536
72	0xbd8d3d7e	-0.06896494
73	0xbc374203	-0.011185172
74	0x3d537c2d	0.051632095
75	0xbdf81792	-0.12113871
76	0xbe7e4489	-0.24830832
77	0xbe3ed25a	-0.1863493
78	0xbe63a2ec	-0.22230119
79	0xbe736df9	-0.2377242
80	0xbe41d319	-0.18928184
81	0xbe526c5f	-0.20549153
82	0xbde9028d	-0.1137744
83	0xbd4fd451	-0.05073959
84	0xbdd4d60a	-0.10392387
85	0xbc7abdac	-0.01530401
86	0xbd8f2f30	-0.06991422
87	0xbe0d89e2	-0.1382213
88	0xbce9511c	-0.028481059
89	0xbdde310b	-0.10849198
90	0x3da68c32	0.08132209
91	0xbdfcdde0	-0.12347007
92	0x3ce039de	0.027371343
93	0x3d9d2d32	0.07674636
94	0xbd399b9a	-0.04531441
95	0xbc3a896a	-0.011385301
96	0x3d227d5f	0.039670344
97	0x3df60a16	0.120136425
98	0x3e32e0c1	0.1746855
99	0x3e391066	0.18072662
100	0x3e74079e	0.2383103
101	0x3e5140a7	0.20434819
102	0x3ec570a6	0.38562506
103	0x3eb6ea7d	0.35725775
104	0x3ea4ee19	0.32212904
105	0x3eacf5d6	0.33781308
106	0x3e853483	0.26016626
107	0x3eb10688	0.34575295
108	0x3ec76a9f	0.38948533
109	0x3e5a827a	0.21338835
110	0x3ebfccc0	0.374609
111	0x3ea2c6f4	0.31792414
112	0x3e69c9b1	0.22830845
113	0x3eddcdbf	0.43321034
114	0x3ed47caf	0.41501376
115	0x3e98d2f8	0.29848456
116	0x3e909048	0.28235078
117	0x3ebc5764	0.36785424
118	0x3edc8a46	0.43074244
119	0x3ebb812a	0.36621982
120	0x3ea95152	0.33069855
121	0x3eacbcb4	0.3373772
122	0x3ea099d8	0.31367373
123	0x3eb1953e	0.34684175
124	0x3ebd6986	0.3699457
125	0xbe60ad45	-0.21941097
126	0xbe443c7d	-0.191637
127	0xbb8c5f36	-0.004283811
128	0xbd0f7acc	-0.035029218
129	0xbe11f4f2	-0.14253595
130	0xbdd7ea12	-0.10542692
131	0xbe3f3e79	-0.18676175
132	0xbe4f9aef	-0.20273946
133	0xbe1a7039	-0.15081872
134	0xbd3a887e	-0.045540325
135	0xbe2d2c5d	-0.16911454
136	0xbe8cb73e	-0.27483553
137	0xbd974aa2	-0.07387282
138	0xbe1f84ab	-0.15577953
139	0xbd4d81d5	-0.050172646
140	0xbe8328cf	-0.25617072
141	0xbe217927	-0.15768872
142	0xbe347ff0	-0.1762693
143	0xbe23ad46	-0.15984067
144	0xbe7d1f56	-0.24718985
145	0xbe030d8f	-0.12798141
146	0xbe8b6f39	-0.27233294
147	0xbdb417d0	-0.087936044
148	0xbe9594f8	-0.29215217
149	0xbe57e539	-0.21083535
150	0xbd08f558	-0.033437103
151	0xbd82d62a	-0.06388505
152	0xbdb9dd8d	-0.090754606
153	0xbe5aca70	-0.21366286
154	0xbdf5109b	-0.11966058
155	0x3d4f745b	0.050648075
156	0x3d86ab0c	0.06575593
157	0x3da2312e	0.079195365
158	0xbde45a69	-0.11150057
159	0xbdf9dcfb	-0.12200352
160	0x3d44edf3	0.04807849
161	0xbcdcea4c	-0.02696719
162	0xbd133354	-0.035937622
163	0x3da808bf	0.08204793
164	0xbd87406b	-0.066040836
165	0x3e19e1cb	0.1502754
166	0x3e244209	0.16040815
167	0x3dea3038	0.11434978
168	0x3dd5b79f	0.104354136
169	0x3d2f34c5	0.042774934
170	0x3db13aa4	0.08653763
171	0x3e1ecfcb	0.15508954
172	0x3e3acb12	0.18241528
173	0x3d249c35	0.040188033
174	0x3de2f32a	0.11081536
175	0xbcfbdf10	-0.030746013
176	0xbd78be07	-0.0607281
177	0x3dc82094	0.09771839
178	0x3d39496b	0.045236032
179	0xbda0ed4a	-0.07857759
180	0xbd3bd398	-0.04585609
181	0x3ddae9db	0.10689136
182	0x3d91e52e	0.07123791
183	0xbbe873ba	-0.007093874
184	0x3d5228b3	0.051308345
185	0xbb0d4341	-0.002155498
186	0x3d856269	0.06512911
187	0x3e0e5981	0.1390133
188	0x3dcab70b	0.09898194
189	0x3b47a943	0.0030465878
190	0x3d55d385	0.052203674
191	0x3d8e23ec	0.06940445
192	0xbd7f3d50	-0.06231433
193	0x3d2e4f19	0.042555902
194	0xbdb5dd7e	-0.08880137
195	0xbdfba249	-0.12286813
196	0x3cf06005	0.02934266
197	0xbe009413	-0.12556486
198	0xbcab13d5	-0.02088348
199	0xbe2e0848	-0.16995347
200	0x3e5053c5	0.20344456
201	0x3e169b10	0.14707589
202	0x3e51613a	0.20447245
203	0x3cd3191d	0.02576881
204	0x3dce18e7	0.100633435
205	0x3e63866e	0.2221925
206	0x3d19b47b	0.037525635
207	0x3d4b6f5e	0.049666755
208	0x3e03f2f7	0.12885652
209	0x3de068aa	0.10957463
210	0x3bb37e10	0.0054776743
211	0x3e0c3fb3	0.13696174
212	0x3cccfcd4	0.025022902
213	0x3cd56d02	0.026052956
214	0x3b5c2f90	0.0033597685
215	0x3e1a82f1	0.15089013
216	0x3dd972a0	0.10617566
217	0x3e05176a	0.12997213
218	0x3e0f697e	0.14005086
219	0x3dfee903	0.12446787
220	0x3dd40ff5	0.10354606
221	0x3a8f1941	0.001091756
222	0x3cc3b260	0.023888767
223	0xbd3c877d	-0.04602765
224	0xbd743386	-0.05961945
225	0xbe7387e2	-0.23782304
226	0xbe247b74	-0.16062719
227	0xbe86ce53	-0.26329288
228	0xbe80cd02	-0.2515641
229	0xbe906af6	-0.28206605
230	0xbda907d9	-0.0825345
231	0xbdb68aba	-0.08913179
232	0xbb0a5822	-0.002110966
233	0xbd77c715	-0.060492594
234	0xbe3afbe5	-0.18260153
235	0xbd738ec0	-0.05946231
236	0xbdb5023b	-0.08838316
237	0x3d371a3e	0.04470276
238	0x3d085cc4	0.033291593
239	0x3d7dbb86	0.061946414
240	0x3e2f1d4b	0.17101018
241	0x3e0f9f0d	0.14025517
242	0x3cc53c41	0.024076583
243	0x3d9012a5	0.07034806
244	0xbd1d76d7	-0.038443413
245	0x3d9dc737	0.07704013
246	0x3d90e744	0.070753604
247	0x3e737327	0.23774396
248	0x3e1010c5	0.14068897
249	0x3e573077	0.21014582
250	0x3e0d1b20	0.13779879
251	0x3e34a986	0.17642793
252	0x3dd6ac72	0.1048211
253	0x3e6d23e1	0.23158218
254	0x3dae2033	0.08502235
255	0x3e18387c	0.14865297

conv1.bias f4 [6]
0	0x3da32381	0.07965756
1	0xbe1464f3	-0.14491634
2	0xbf4353d7	-0.76299804
3	0xbf153d89	-0.5829702
4	0x3f1111b4	0.5666764
5	0xbf6ea236	-0.93216264

conv2.weight f4 [16, 6, 5, 5]
0	0x3cf2a159	0.029617952
1	0x3caddafc	0.021222584
2	0xbcd951d5	-0.026528278
3	0x3c4ffabf	0.01269406
4	0xbd6ff8d2	-0.058586903
5	0x3d9e4fb0	0.07730043
6	0xbda0d0bd	-0.07852314
7	0x3c624f52	0.013812857
8	0x3c5014f7	0.012700311
9	0xbd3bce59	-0.045851085
10	0xb9119b45	-0.0001388612
11	0xbd8fa3b3	-0.07013645
12	0x3d987eff	0.074460976
13	0x3d4c2bc6	0.049846433
14	0x3c9ab5a1	0.018885436
15	0xbd1e9245	-0.038713712
16	0xbd669c8c	-0.05630164
17	0x3d86798b	0.06566151
18	0x3be3979c	0.0069455635
19	0xbd808890	-0.06276047
20	0x3bba498f	0.0056850384
21	0x3c15b3e0	0.009137124
22	0xbc0e21e5	-0.008675073
23	0x3d8ac7e4	0.06776407
24	0x3d83694d	0.06416569
25	0xbe47b55e	-0.1950278
26	0x3d23277e	0.039832585
27	0x3dbce56c	0.09223446
28	0x3d923043	0.071381114
29	0x3e2a2938	0.16617286
30	0xbe2002e6	-0.15626106
31	0x3d92f1f1	0.07175053
32	0x3da3e578	0.08002752
33	0x3dcf4b52	0.10121788
34	0x3cccf2d3	0.025018131
35	0xbd8eae0d	-0.06966791
36	0x3dc8cfdc	0.09805271
37	0x3d87556d	0.066080905
38	0x3df1bba5	0.118033685
39	0x3e1f21bd	0.15540214
40	0x3c3ff9c7	0.011717266
41	0x3db58481	0.08863164
42	0x3e10c128	0.14136183
43	0x3e1a7c27	0.15086423
44	0x3de2e5e9	0.11079008
45	0xbda994f5	-0.082803644
46	0x3d911adc	0.07085201
47	0x3df7f01d	0.12106345
48	0x3d654622	0.055975087
49	0x3d9a74a5	0.075417794
50	0xbe2f708a	-0.17132774
51	0xbd9bbbc6	-0.07604174
52	0xbd42fb6d	-0.04760306
53	0x3c930789	0.017947929
54	0x3e321c2e	0.17393562
55	0xbdbd62c4	-0.09247354
56	0xbe006f56	-0.12542471
57	0x3da840ea	0.082155064
58	0x3d9eee32	0.07760276
59	0x3d8cac25	0.068687715
60	0xbe14f050	-0.14544797
61	0xba6dacd1	-0.0009066584
62	0x3dacca66	0.08437042
63	0x3c82f4b3	0.015985822
64	0x3d1d25ed	0.038366247
65	0xbe0c6fe2	-0.13714555
66	0xbc1a9e1b	-0.009437109
67	0x3d873282	0.066014305
68	0xbd2cc85c	-0.042183265
69	0xbb82232d	-0.0039714784
70	0xbe2e7a77	-0.17038904
71	0xbd3c87ae	-0.04602783
72	0xbd1b3cd6	-0.037899815
73	0xbc54e2dc	-0.012993541
74	0xbd690eae	-0.056898765
75	0xbe71b214	-0.23603088
76	0xbd7df048	-0.06199673
77	0x3d9970f2	0.07492246
78	0x3e0d2b46	0.13786039
79	0x3df17263	0.11789396
80	0xbe367367	-0.1781746
81	0xbd200b30	-0.03907317
82	0x3dde4bb6	0.108542845
83	0x3bf44510	0.007454522
84	0x3e1c681a	0.15274087
85	0xbe2fa152	-0.17151383
86	0x3cafa408	0.02144052
87	0x3dde9f47	0.108702235
88	0x3d2e8dd8	0.04261574
89	0x3dfcfcfb	0.1235294
90	0xbe15227d	-0.14563937
91	0x3cb5c55e	0.022188839
92	0x3a6d7665	0.00090584747
93	0x3c595eff	0.013267278
94	0x3df51124	0.1196616
95	0xbd974608	-0.07386404
96	0xba96c071	-0.0011501444
97	0x3c776e2f	0.015101953
98	0xbcb7831c	-0.022401385
99	0x3dbed9ed	0.0931891
100	0xbd0612e9	-0.032732878
101	0xbd59c1b9	-0.053163264
102	0x3c3e5c4e	0.011618687
103	0xbd25fbac	-0.040523216
104	0x3dddca5e	0.10829614
105	0xbda58c6e	-0.080834255
106	0xbd25b5e5	-0.04045667
107	0xbc5a1e8d	-0.013312948
108	0xbd8bcd49	-0.068262644
109	0x3ce9163f	0.02845299
110	0xbe08e816	-0.13369784
111	0xbe00c627	-0.12575589
112	0xbd5d3f40	-0.054015398
113	0xbcf59efd	-0.029983038
114	0xbd1b28f8	-0.037880868
115	0x3d49044a	0.049076356
116	0x3d960267	0.07324677
117	0xbba430fe	-0.005010723
118	0x3db85a67	0.09001618
119	0x3dd4c045	0.10388235
120	0xbc7da80a	-0.015481958
121	0xbc95da9a	-0.018292714
122	0x3dd60b36	0.10451357
123	0x3e0f8221	0.14014484
124	0x3d7cde8b	0.06173567
125	0xbe793c2f	-0.24339364
126	0xbe1f773f	-0.15572833
127	0x3d65e353	0.056124996
128	0x3d117f6f	0.03552192
129	0x3e006427	0.12538205
130	0xbd8b5b1c	-0.06804487
131	0xbd088514	-0.03333004
132	0xbcd9eaae	-0.026601162
133	0x3cd98df4	0.026556946
134	0xbcbb7d16	-0.022886794
135	0xbd7f217a	-0.062287785
136	0xbe033452	-0.12812927
137	0xbc9427ea	-0.018085439
138	0x3d6b03b7	0.05737659
139	0x3b91c0c4	0.0044480283
140	0xbe2a1024	-0.1660772
141	0xbd78d90c	-0.060753867
142	0xbc6e7953	-0.014555293
143	0xbd561223	-0.05226339
144	0xbda7e93d	-0.081987835
145	0xbe45d14a	-0.19318119
146	0xbdfe0fb6	-0.124053404
147	0xbdadb534	-0.084818274
148	0xbe0b6519	-0.13612784
149	0xbdd10534	-0.102060705
150	0x3d4c2c0e	0.0498467
151	0x3cc447e9	0.02396007
152	0x3cb7c515	0.022432843
153	0x3d762b0e	0.060099654
154	0x3cf9fc4a	0.030515809
155	0x3c9d1c5d	0.019178564
156	0xbd90dfc4	-0.0707393
157	0x3d4dbe39	0.05023024
158	0x3d9a00bc	0.07519671
159	0x3d40996a	0.047021307
160	0x3d2dbfa8	0.042419106
161	0xbd15d8b3	-0.036583614
162	0x3d1b3b2f	0.03789824
163	0xbd08a968	-0.033364683
164	0xbd90eaff	-0.07076072
165	0xbc2bee20	-0.010493785
166	0x3c60868a	0.013703952
167	0x3cb67ae2	0.022275392
168	0xbcb58457	-0.022157831
169	0xbd8e1a09	-0.069385596
170	0xbd8844eb	-0.0665377
171	0x3af35a19	0.001856628
172	0x3d8af93e	0.067858204
173	0x3cad2887	0.021137489
174	0x3c560fdd	0.013065306
175	0x3e0f8780	0.14016533
176	0x3e95743b	0.2919024
177	0x3e705ab3	0.23472099
178	0x3e971d9c	0.29514778
179	0x3e912868	0.2835114
180	0x3e46b6ef	0.19405721
181	0x3e6ffefb	0.23437111
182	0x3e82160f	0.25407454
183	0x3e35a553	0.17738847
184	0x3e088120	0.13330507
185	0x3d9e7c48	0.077385485
186	0x3d9e0e14	0.07717529
187	0x3db3a5f4	0.087718874
188	0xbd87c4a2	-0.066293016
189	0x3ce565da	0.028002668
190	0xbe5032ce	-0.2033188
191	0xbe7219c7	-0.23642646
192	0xbea79c3c	-0.32736385
193	0xbeae4ac2	-0.3404141
194	0xbe080956	-0.13284811
195	0xbe9ad7e3	-0.30242833
196	0xbebacf20	-0.3648615
197	0xbee4575e	-0.44597906
198	0xbec95c41	-0.39328197
199	0xbdf1288b	-0.11775311
200	0x3d6edae4	0.05831422
201	0x3dc15461	0.09439922
202	0x3d60a909	0.054848704
203	0x3d929143	0.07156613
204	0x3e040f48	0.12896454
205	0x3db9b7f9	0.09068293
206	0x3d5a1eb6	0.053251944
207	0x3e22bf56	0.15893301
208	0x3e16a0a3	0.14709716
209	0x3e294f61	0.16534187
210	0x3d904bb6	0.07045691
211	0x3e0d2d8e	0.13786909
212	0x3cef9390	0.029245168
213	0x3dd0e012	0.10198988
214	0xbce5822d	-0.028016174
215	0xbdabd64e	-0.08390485
216	0xbdfc867b	-0.123303376
217	0xbe2e2e72	-0.17009905
218	0xbd55980e	-0.052146964
219	0xbdd61ddb	-0.10454913
220	0x3c10e0d2	0.008842664
221	0xbe46ca33	-0.1941307
222	0xbe966ca7	-0.2937977
223	0xbe756d04	-0.23967367
224	0xbe3590ee	-0.17731068
225	0x3d5e9575	0.054341752
226	0x3db3e4dd	0.087838866
227	0x3e2542ec	0.1613881
228	0x3e8f7bc2	0.28024107
229	0x3e051b6a	0.12998739
230	0x3de9c9a9	0.11415417
231	0x3e2a1e12	0.16613033
232	0x3e7b3eed	0.24535723
233	0x3e3bc2d3	0.18336038
234	0x3e262754	0.1622594
235	0x3d45f727	0.048331406
236	0x3df53aed	0.1197413
237	0x3e17ae52	0.14812592
238	0x3d77112f	0.060319122
239	0xbd7a31ce	-0.061082654
240	0xbdd585ca	-0.10425909
241	0xbe2c25ba	-0.16811267
242	0xbe8a7558	-0.2704265
243	0xbe8af161	-0.27137282
244	0xbe237f90	-0.1596663
245	0xbe70cc44	-0.23515421
246	0xbec32013	-0.38110408
247	0xbebfe2bb	-0.3747767
248	0xbe966f86	-0.2938196
249	0xbe0cd597	-0.13753353
250	0x3e0b8013	0.13623075
251	0x3e027454	0.12739688
252	0x3e4df16d	0.20111628
253	0x3e1d69a1	0.15372325
254	0x3d94b2a6	0.07260637
255	0x3e3496ca	0.17635646

conv2.bias f4 [16]
0	0xbbde7b67	-0.006789613
1	0x3cfabd43	0.030607825
2	0x3e075b34	0.13218385
3	0xbd710fa9	-0.058852825
4	0xbab9e6e6	-0.0014183193
5	0xbdb81b70	-0.08989608
6	0xbd85b5a6	-0.06528787
7	0xbd8426f4	-0.06452742
8	0xbe3628e7	-0.1778904
9	0x3befb1ee	0.007314912
10	0xba5c349e	-0.00084001746
11	0xbe09a71b	-0.13442652
12	0xbd10aa61	-0.035318736
13	0xbe25e8d0	-0.16202092
14	0x3d94c2d5	0.07263724
15	0xbe151e12	-0.14562252

fc1.weight f4 [120, 400]
0	0x3d936acc	0.07198104
1	0x3d6da462	0.058018096
2	0x3d82a6f4	0.063795
3	0x3cdabfca	0.02670278
4	0x3c57e808	0.013177879
5	0x3d34c68d	0.044134665
6	0x3da1c07c	0.078980416
7	0x3d17e47e	0.03708314
8	0xbc0c0917	-0.008547089
9	0xbd247aba	-0.040156104
10	0x3da9c6ad	0.082898475
11	0x3d484a7f	0.04889917
12	0x3bf0b78a	0.0073460983
13	0xbd37ee7e	-0.04490518
14	0xbd826349	-0.063665934
15	0x3d265348	0.040606767
16	0x3d2b27b0	0.041785896
17	0x3cfa1e55	0.030532042
18	0xbce4ab14	-0.027913608
19	0xbcf34bb2	-0.02969918
20	0x3d6e5447	0.058185842
21	0xbcaebf16	-0.021331351
22	0x3d0b0214	0.03393753
23	0x3d004a4c	0.031320855
24	0x3c9117ff	0.017711638
25	0xbcb5be2e	-0.022185411
26	0x3d8fe644	0.070263416
27	0xbbddf1eb	-0.0067732236
28	0x3d000fb4	0.031264976
29	0xbd23232e	-0.03982847
30	0x3b1b3f02	0.0023688679
31	0xbd670ece	-0.056410603
32	0xbd55cbb1	-0.05219621
33	0xbd6c07b9	-0.057624552
34	0xbd85de28	-0.065365136
35	0xbc393e04	-0.01130629
36	0xbd11d098	-0.03559932
37	0xbd91b759	-0.07115049
38	0xbc94e10e	-0.01817372
39	0xbb8dbeb9	-0.0043257144
40	0x3d0a4f96	0.033767305
41	0xbcbb0a0d	-0.022831941
42	0xbc4d9471	-0.012547598
43	0xbc523fd8	-0.012832604
44	0xbd2174ed	-0.03941815
45	0xbd1d0a2b	-0.038339775
46	0x3d564f13	0.052321505
47	0x3d970b07	0.0737515
48	0xbbfd8272	-0.0077364976
49	0xbb74f348	-0.0037376452
50	0x3ca7663f	0.020434497
51	0x3d300e72	0.042982526
52	0x3d35f933	0.044427108
53	0xbc7fb2fa	-0.015606636
54	0xbd0e7d19	-0.03478727
55	0xbd547620	-0.051870465
56	0xbd2b2db1	-0.04179162
57	0x3d597ad4	0.053095654
58	0x3be19683	0.0068843975
59	0xbba0f6a9	-0.0049122167
60	0xbd00b903	-0.03142644
61	0x3d15654b	0.036473554
62	0x3d1f8ac8	0.03895071
63	0x3d1f091d	0.03882705
64	0x3d054de0	0.03254497
65	0x3ce31334	0.027719118
66	0xbc9eb746	-0.019374501
67	0xbd69048d	-0.056889106
68	0xbd42c2d1	-0.047549073
69	0xbd6d242a	-0.057895817
70	0x3b81acec	0.0039573815
71	0xbbcc3ef1	-0.006233089
72	0xbc91a691	-0.01777962
73	0xbccf35ab	-0.025294146
74	0xbd35d746	-0.044394754
75	0x3cce0981	0.025151016
76	0xbc3a412f	-0.01136808
77	0x3d6f9da0	0.058499932
78	0xbcb10c90	-0.021612436
79	0x3d08ba13	0.03338058
80	0x3a9488d7	0.0011332285
81	0xbaca2a70	-0.0015424024
82	0x3b04c74c	0.0020260392
83	0xbbd5eb7d	-0.0065283165
84	0x3b06d24a	0.002057212
85	0x3cf44c2a	0.029821474
86	0xbd8b04cc	-0.06788024
87	0x3be6d443	0.0070443465
88	0x3c39e5d4	0.011346299
89	0xbc19394d	-0.0093520405
90	0x3d0470db	0.03233419
91	0xbd33126a	-0.043718733
92	0x3ae0d73e	0.0017153991
93	0x3b011018	0.001969343
94	0x3b2015f5	0.002442715
95	0xbc07f207	-0.00829745
96	0x3c637df3	0.013885009
97	0x3d9d55d7	0.07682388
98	0x3d42ab44	0.047526613
99	0x3d15316f	0.036424097
100	0xbd6a4439	-0.05719397
101	0x3b1bd075	0.0023775373
102	0x3d9302a3	0.07178237
103	0x3dc00733	0.09376373
104	0x3de17e44	0.110104114
105	0x3c04d77a	0.008108014
106	0x3d0eeda7	0.03489461
107	0x3d55d993	0.052209448
108	0x3ca47efa	0.020080078
109	0x3d9256e1	0.07145477
110	0xbd41a5ee	-0.047277384
111	0x3d1f3a10	0.038873732
112	0x3bc69f1f	0.006061449
113	0x3d790734	0.060797885
114	0x3d90cbf7	0.07070153
115	0xbd8d32e0	-0.06894469
116	0x3cead7fe	0.028667446
117	0x3d32b156	0.043626152
118	0x3c1b46ed	0.009477359
119	0x3d278053	0.040893864
120	0xbd68c952	-0.05683262
121	0xbcb6992d	-0.022289837
122	0xbcf7e2d4	-0.030259527
123	0x3d122cd8	0.035687298
124	0x3d820c48	0.06349999
125	0xbd614ad7	-0.055003013
126	0x3d33d0f6	0.043900453
127	0x3cdcdbaa	0.026960213
128	0x3d30232b	0.04300229
129	0x3d512cf9	0.05106828
130	0x3caeaa5a	0.021321464
131	0x3d16828f	0.036745604
132	0x3d83c9db	0.06434985
133	0xbc8c33e4	-0.017114587
134	0x3ccc7c8f	0.024961738
135	0x3c1beac2	0.00951642
136	0x3c0781ce	0.008270694
137	0xbd80d423	-0.06290462
138	0x3c93571d	0.017985875
139	0xbc7fffd9	-0.015624964
140	0xbc429403	-0.011876109
141	0x3c791b25	0.015204226
142	0x3c272e7c	0.010203954
143	0x3ba48395	0.0050205686
144	0xbc8aca68	-0.016942218
145	0xbd51de46	-0.051237367
146	0xbd465374	-0.04841943
147	0x3d3afbf5	0.04565044
148	0x3c51ac2b	0.012797396
149	0x3c618527	0.013764656
150	0x3d225d7a	0.039639927
151	0xbc53cbee	-0.012927039
152	0x3c657059	0.014003837
153	0x3d3e1207	0.04640391
154	0x3c16b63e	0.009198723
155	0x3b8b6695	0.004254172
156	0x3d47ace3	0.048748862
157	0x3ceca80c	0.028888725
158	0xbbf4116c	-0.007448366
159	0xbcf9d5eb	-0.030497512
160	0xbd4743e0	-0.048648715
161	0xbc754c72	-0.014971839
162	0x3bd28efa	0.0064257355
163	0xbd497cf2	-0.049191423
164	0x3cf8ef61	0.030387582
165	0x3d3b1328	0.045672566
166	0x3d219885	0.039452095
167	0xbd36b06c	-0.044601843
168	0xbc5fae4c	-0.013652395
169	0x3ccacf04	0.024756916
170	0xbd4696f4	-0.048483804
171	0x3b832b51	0.0040029665
172	0xbc19972e	-0.009374423
173	0xbc99d95c	-0.018780403
174	0x3b60a3ba	0.0034277276
175	0x3d2f0d95	0.042737562
176	0x3cfdc90d	0.030979658
177	0xbd0298be	-0.031883948
178	0xbd3b2f80	-0.045699596
179	0x3d174de3	0.036939513
180	0xbc579f78	-0.013160579
181	0x3b98332c	0.004644772
182	0x3d32be86	0.04363873
183	0xbd432cc0	-0.0476501
184	0xbcd97136	-0.026543241
185	0x3cb74eae	0.022376385
186	0xbd11e906	-0.03562262
187	0x3d2e8e30	0.04261607
188	0x38f964f5	0.0001189205
189	0xbc58909e	-0.013218073
190	0xbcb5a6ed	-0.022174323
191	0xbd032831	-0.03202075
192	0x3d01be9c	0.03167592
193	0xbc246f50	-0.010036305
194	0xbaa74d24	-0.0012764079
195	0xbd220b83	-0.03956176
196	0xbbf28957	-0.007401626
197	0x3cb4b52d	0.022059048
198	0xbbc037fa	-0.005866048
199	0x3c4e4ff9	0.012592309
200	0xbd1f0dde	-0.038831584
201	0x3d0bd62c	0.034139797
202	0xbc06ebf8	-0.00823497
203	0x3d1db282	0.038500316
204	0x3b079ee1	0.0020694064
205	0x3d0b1db5	0.033963878
206	0x3c64056d	0.013917309
207	0x3c94952f	0.018137543
208	0x3d84a7fb	0.06477352
209	0x3b765f72	0.003759351
210	0xbd4aa310	-0.049471915
211	0xbc0bb597	-0.008527181
212	0x3d59f7fb	0.05321501
213	0xbb62a12d	-0.0034580932
214	0x3b4b5ea4	0.0031031752
215	0xbc3be7f4	-0.011468876
216	0xbb03e6b2	-0.0020126519
217	0x3d31835e	0.043338172
218	0x3c802871	0.015644284
219	0x3ac29415	0.0014845157
220	0xbcdcadc8	-0.026938334
221	0x3cb3cad8	0.02194731
222	0x3b6724b9	0.003526969
223	0x3c9c5572	0.019083712
224	0xbd193014	-0.037399366
225	0x3d89965f	0.06718134
226	0x3cdbbf92	0.026824746
227	0x3c9cf433	0.019159412
228	0xbb5d908a	-0.0033808076
229	0xbd962d1f	-0.07332825
230	0x3c19927b	0.009373303
231	0x3ca5afde	0.020225462
232	0xbd067cae	-0.032833748
233	0xbb96ad5e	-0.0045983037
234	0xbb7a78c0	-0.0038218945
235	0x3d467891	0.048454825
236	0x3ceb81cb	0.028748414
237	0xbcee52c1	-0.029092195
238	0x3c9087c6	0.017642867
239	0xbca99a68	-0.02070351
240	0x3c9bfc50	0.01904121
241	0x3c9002e3	0.017579501
242	0xbd20c5bc	-0.039251074
243	0x3cf6b1b4	0.030114032
244	0xbd67463e	-0.056463473
245	0xbcdf2774	-0.027240492
246	0x3cd86865	0.026416967
247	0xbd15cedf	-0.03657424
248	0xbd36cb88	-0.044627696
249	0x3a4f0002	0.00078964245
250	0x3d2a398e	0.041558795
251	0x3cf39a3e	0.029736634
252	0xbb3894cd	-0.0028164864
253	0xbd20313e	-0.03910946
254	0xbd04b822	-0.032402165
255	0x3d3ac6b0	0.04559964

fc1.bias f4 [120]
0	0x3ca93dde	0.020659383
1	0x3c45419a	0.012039566
2	0x3d42d16d	0.047563005
3	0xbcb19274	-0.02167628
4	0x3d8ea903	0.0696583
5	0xbd3ce5eb	-0.046117704
6	0x3ba69506	0.005083683
7	0xbd0ab7c0	-0.033866644
8	0x3cb0f4a0	0.021601021
9	0xbc26c414	-0.010178585
10	0x3cc660d3	0.024216091
11	0x3d67ccf5	0.056591947
12	0xbd3bf1ca	-0.045884885
13	0x3c0028ff	0.007822274
14	0x3d30933f	0.043109175
15	0x3bd702f8	0.006561633
16	0xbcbaf3e8	-0.022821382
17	0x3d71558c	0.058919474
18	0xbbb56d85	-0.0055367374
19	0xbcf5a6ea	-0.029986817
20	0xbd1f68dc	-0.03891836
21	0x3be36924	0.006940024
22	0x3d7db849	0.061943326
23	0xbd2fcb98	-0.04291877
24	0x3ce41e59	0.027846502
25	0xbcd1b2c1	-0.025597932
26	0xbd32b020	-0.043624997
27	0x3d5a99d3	0.053369354
28	0xbd0ef20e	-0.03489881
29	0x3cf9f162	0.030510608
30	0xbcf81000	-0.030281067
31	0x3ce63033	0.028099155
32	0xbcc1a210	-0.023636848
33	0xbd471381	-0.048602585
34	0xbcdda945	-0.027058253
35	0xbce56585	-0.02800251
36	0x3d5443ec	0.051822588
37	0x3c99abd6	0.018758696
38	0x3d3415d5	0.043966133
39	0x3d4d8e42	0.050184496
40	0xb9665b91	-0.0002196862
41	0x3a51c6de	0.0008002351
42	0xbc16e1b2	-0.009209083
43	0x3ba14b48	0.0049223043
44	0x3dde6915	0.108598866
45	0x3aafed9f	0.0013422257
46	0xbd43898a	-0.04773859
47	0xbd081bc6	-0.03322961
48	0x3c320d90	0.010867491
49	0x3d1288c2	0.035774954
50	0x3be3a9d1	0.006947734
51	0x3820ec15	3.836684e-05
52	0xbc165f83	-0.009178045
53	0xbb7c1a83	-0.003846795
54	0x3ce5f4f6	0.028070908
55	0xbc64816c	-0.013946872
56	0x3c60d62b	0.013722937
57	0x3c70d9e9	0.014700391
58	0x3cd3fb21	0.025876584
59	0xbc7b6338	-0.01534348
60	0xba86933b	-0.0010267267
61	0xbcec6d39	-0.028860675
62	0x3cc5fda1	0.024168791
63	0x3c8184a3	0.015810316
64	0xbd86efa7	-0.06588679
65	0xbd6983d2	-0.05701048
66	0xbd1dbf4b	-0.03851251
67	0xbd67b2fc	-0.056567177
68	0xbc913a02	-0.017727856
69	0xbd13ceee	-0.036086015
70	0xbbea6480	-0.007153094
71	0x3b57d0a3	0.0032930754
72	0x3d692a13	0.05692489
73	0x3cff39a8	0.031155422
74	0xbcbca23d	-0.02302658
75	0xbd2dad9f	-0.042401906
76	0xbccd5093	-0.025062835
77	0x3c10169b	0.008794452
78	0x3c9631c7	0.018334283
79	0xbc388206	-0.011261469
80	0x3d97dcc3	0.07415154
81	0x3c9c2961	0.0190627
82	0x3b1e477f	0.0024151502
83	0x3d0db67e	0.034597866
84	0x3d3e8be2	0.04652012
85	0xbc3a863d	-0.011384544
86	0x3bc1f753	0.005919376
87	0xbd862fe4	-0.06552103
88	0xbcd13d86	-0.025542032
89	0x3d4f99e2	0.050683863
90	0xbd141483	-0.036152374
91	0xbc7765a0	-0.015099913
92	0x3cd55d0c	0.026045345
93	0x3c46b7be	0.0121287685
94	0xbd64642a	-0.055759586
95	0x3d0f96fd	0.035056103
96	0x3c15ea85	0.009150152
97	0x3d1a6277	0.03769156
98	0x3d18cfb4	0.037307456
99	0x3d217c0f	0.039424952
100	0x3d2f0ec7	0.042738702
101	0x3d88794c	0.066637605
102	0x3c9a56c2	0.018840197
103	0xbc5411af	-0.012943669
104	0xbd9aea75	-0.075642504
105	0x3d1760e1	0.036957625
106	0x3c91f5f6	0.017817479
107	0x3c84f8cf	0.016231922
108	0x3d197e57	0.037474003
109	0x3d5bfcdb	0.05370794
110	0xbd4e1b11	-0.05031878
111	0x3cd719bf	0.026257394
112	0xbd4562a3	-0.04818977
113	0x3cd77dd8	0.026305124
114	0xbd043472	-0.03227658
115	0xbd3f0f36	-0.046645366
116	0x3cbc8b49	0.023015635
117	0x3d1b568d	0.037924338
118	0x3d2f7be9	0.04284278
119	0xbb6c1cf8	-0.003602801

fc2.weight f4 [84, 120]
0	0xbd018a5c	-0.03162609
1	0x3ce5bfd9	0.028045582
2	0x3cccdb90	0.02500704
3	0x3cd2c236	0.025727373
4	0xbd4a7054	-0.04942353
5	0x3d392530	0.04520148
6	0x3bc97379	0.0061477986
7	0xbbf01135	-0.00732627
8	0x3db92e20	0.09042001
9	0xbd80775f	-0.06272768
10	0xbd8c5870	-0.068528056
11	0x3d8e1c1c	0.06938955
12	0x3cb9e182	0.022690538
13	0x3d474a9b	0.048655134
14	0xbd9558f8	-0.0729236
15	0xbca77b91	-0.020444663
16	0x3d4c16ed	0.04982655
17	0xbd98d239	-0.07461972
18	0x3ddf3040	0.10897875
19	0xbda5bb9c	-0.08092424
20	0x3cab5525	0.020914624
21	0x3da1bd67	0.07897454
22	0x3c80ef13	0.015739
23	0x3da8018c	0.0820342
24	0xbbcf9073	-0.0063343584
25	0x3d81cb54	0.0633761
26	0x3d084e5a	0.033277847
27	0xbd373d0e	-0.04473596
28	0x3d58c6c4	0.052923933
29	0x3d649240	0.055803537
30	0xbc904acf	-0.017613797
31	0xbdb6cc23	-0.08925655
32	0x3d7a9068	0.061172873
33	0xbc43708f	-0.0119286915
34	0xbd67a3fd	-0.056552876
35	0x3d6dbcff	0.05804157
36	0xbdf694f3	-0.120401286
37	0xbd0b78fb	-0.034050923
38	0x3db34892	0.08754076
39	0xbb7ce1bc	-0.0038586697
40	0x3cdad9e8	0.026715234
41	0x3c30067c	0.0107437335
42	0x3d214790	0.039374888
43	0x3d1073aa	0.035266556
44	0xbc0d5867	-0.008627034
45	0xbd645558	-0.055745453
46	0xbd000ed5	-0.031264145
47	0x3d58b230	0.052904308
48	0x3cc018a3	0.023449248
49	0x3d8f5d2e	0.070001945
50	0x3c8ee3d3	0.01744262
51	0xbd69e0d8	-0.057099193
52	0xbbf0b688	-0.007345978
53	0x3cf73573	0.030176854
54	0x3d473c31	0.048641387
55	0xbdc2e70f	-0.09516727
56	0xbc621be1	-0.013800592
57	0xbd132274	-0.03592153
58	0xbd0c7f5a	-0.03430114
59	0xbd502f6e	-0.050826482
60	0xbd2a3369	-0.041552935
61	0xbd8bdd5a	-0.06829329
62	0xbe05ade0	-0.1305461
63	0xbbbc6481	-0.0057492857
64	0x3d083109	0.03324989
65	0xbd7df7aa	-0.06200377
66	0xbdb7716f	-0.089571826
67	0x3c9487be	0.018131133
68	0x3d253602	0.04033471
69	0x3d43718a	0.0477157
70	0xbd402a15	-0.046915133
71	0x3d4968f1	0.049172346
72	0x3da29c15	0.079399265
73	0xbdd67d7e	-0.104731545
74	0x3d03e4d8	0.032200664
75	0x3d50bc20	0.05096066
76	0x3d43c0fc	0.047791466
77	0x3c8f0741	0.017459514
78	0xbdf1f733	-0.11814728
79	0xbcb5de0f	-0.022200612
80	0xbdbf9ae5	-0.09355716
81	0x3d4d06d2	0.050055332
82	0xbd8bbae1	-0.06822754
83	0xbd667b19	-0.05626974
84	0xbde78459	-0.1130454
85	0x3d3a30b7	0.045456614
86	0x3d1c8d93	0.038220953
87	0x3dc11cfa	0.09429355
88	0xbd68d883	-0.056847107
89	0x3cdbc0cd	0.026825333
90	0xbd0df3cc	-0.03465633
91	0x3d3641ea	0.044496454
92	0xbd909f60	-0.07061648
93	0x3b5fbb40	0.003413871
94	0x3d70b3d5	0.05876525
95	0xbcb5c5e6	-0.022189092
96	0x3d98ea41	0.074665554
97	0x3b41bb83	0.0029561229
98	0x3b6971b1	0.0035620744
99	0x3b838797	0.0040139663
100	0x3bcafcf6	0.006194706
101	0xbd9964f5	-0.07489959
102	0xbd16c9ff	-0.036813732
103	0xbd383e0c	-0.044981048
104	0x3d68d0df	0.05683982
105	0xbc810ba6	-0.015752625
106	0x3da05eba	0.07830568
107	0xbcdede4b	-0.027205607
108	0x3cef5920	0.029217303
109	0x3a8a7ede	0.0010566374
110	0x3b0ad7c9	0.0021185747
111	0x3d4984b6	0.04919883
112	0x3b8a5844	0.004221948
113	0xbc3fbe37	-0.011703066
114	0x3d285d42	0.041104563
115	0xbd0ab9e6	-0.033868693
116	0xbda2edbe	-0.07955502
117	0x3db990bc	0.09060809
118	0xbd3fb607	-0.046804454
119	0xbd675da1	-0.056485776
120	0x3da5842d	0.08081851
121	0xbd963c33	-0.07335701
122	0x3ce557b4	0.027995922
123	0x3cbe8728	0.023257807
124	0x3d47b91e	0.048760526
125	0x3dccceee	0.10000406
126	0xbc72f61f	-0.014829188
127	0xbcd5cfa4	-0.026099987
128	0xbd09d740	-0.033652544
129	0xbd7decde	-0.061993472
130	0xbd8d2e9b	-0.06893655
131	0x3d887457	0.06662815
132	0x3d9a90fe	0.07547186
133	0xbdac6555	-0.08417765
134	0x3d83cd93	0.064356945
135	0xbd2b7c53	-0.04186661
136	0x3d7b3ac5	0.061335344
137	0x3d5e46f3	0.05426688
138	0xbd9f7e38	-0.07787746
139	0x3d668d7f	0.056287285
140	0xbc8f591f	-0.017498551
141	0x3b3adc11	0.0028512517
142	0xbc8a103d	-0.016853446
143	0x3cf2605b	0.029586961
144	0x3d74501a	0.059646703
145	0xbd1f48b9	-0.038887713
146	0x3cc23852	0.023708496
147	0x3da5b240	0.08090639
148	0xbd83d094	-0.064362675
149	0x3d7573f7	0.059925046
150	0x3d86d8bb	0.06584307
151	0xbd77b705	-0.060477275
152	0xbd564602	-0.05231286
153	0x3dbc8081	0.09204198
154	0xbd48fb7c	-0.04906796
155	0xbd118f15	-0.035536844
156	0xbd8d693c	-0.069048375
157	0x3c331721	0.010930807
158	0xbd86da38	-0.06584591
159	0xbd2a9fe2	-0.041656382
160	0x3da4ff49	0.08056504
161	0x3d7c90c2	0.06166149
162	0xbdb95394	-0.090491444
163	0xbd61634a	-0.05502633
164	0x3d3d7e8f	0.046263274
165	0xbc47d87c	-0.01219761
166	0xbd3e8f37	-0.0465233
167	0x3cb59bad	0.022168959
168	0xbcc4c8b3	-0.024021482
169	0x3d86047c	0.06543824
170	0xbdafc6b8	-0.085828245
171	0x3ccfaa53	0.025349772
172	0xbdc02c3d	-0.09383438
173	0x3cd9f6b9	0.026606904
174	0x3d6dae67	0.05802765
175	0x3c000de4	0.007815812
176	0x3d8328fd	0.06404302
177	0xbd6fd802	-0.05855561
178	0xbd2381bc	-0.039918646
179	0xbda6bc0b	-0.08141335
180	0xbc6fbb6a	-0.014632085
181	0xbd54741a	-0.051868536
182	0xbc690f1b	-0.014224793
183	0x3c7ea066	0.015541172
184	0x3d9b2d5f	0.07577013
185	0xbb5cc6b2	-0.0033687768
186	0xbc8cc24e	-0.017182495
187	0x3db3a6fa	0.087720826
188	0xbd8e9b1d	-0.06963179
189	0xbd84272b	-0.06452783
190	0xbc5edac6	-0.013601964
191	0xbd6c15e0	-0.05763805
192	0x3c9d281f	0.01918417
193	0x3c85da1e	0.016339358
194	0x3d54740d	0.051868487
195	0xbd2a6767	-0.04160252
196	0x3db8f224	0.0903056
197	0xbd64b743	-0.055838834
198	0x3d19dcc9	0.037564073
199	0xbccaea99	-0.024770068
200	0xbd891e1a	-0.066951945
201	0xbc32b2fd	-0.010906932
202	0x3bda6411	0.006664761
203	0xbda612db	-0.08109065
204	0x3d11f2f3	0.035632085
205	0x3b95f0cf	0.0045758258
206	0xbda8ec6e	-0.082482204
207	0x3d8e1b6c	0.06938824
208	0xbda085f4	-0.078380495
209	0x3d0bef51	0.034163777
210	0x3d8ad72c	0.06779322
211	0xbc8e87a5	-0.017398665
212	0x3c8cea6f	0.01720163
213	0x3cd258aa	0.025677044
214	0xbd90d629	-0.07072098
215	0xbd5d330f	-0.05400377
216	0xbda0bd69	-0.07848627
217	0xbc8012bd	-0.015633935
218	0xbd91fc11	-0.07128156
219	0x3d3da3c1	0.046298746
220	0x3d3e1130	0.04640311
221	0xbda5ff86	-0.08105378
222	0xbda64a2d	-0.08119617
223	0x3da979ba	0.082751706
224	0x3d89b214	0.06723419
225	0xbdb30224	-0.08740643
226	0xbd98c5b6	-0.07459585
227	0xbda9f518	-0.08298701
228	0x3c73dff0	0.014884934
229	0xbd0bde51	-0.034147564
230	0x3da1d8d0	0.07902682
231	0x3ac05fa7	0.0014676944
232	0x3da65783	0.0812216
233	0xbc93e4cc	-0.018053435
234	0x3d60bb0d	0.054865886
235	0xbc401106	-0.011722809
236	0x3d2b250d	0.04178338
237	0xbc9a9708	-0.018870845
238	0xbd93cdfa	-0.07217021
239	0x3c8b213f	0.016983626
240	0x3aa4051d	0.0012513731
241	0xbc801c98	-0.015638635
242	0x3d83d07d	0.0643625
243	0x3c5e90fb	0.013584371
244	0xbcf9cfa4	-0.030494519
245	0xbd270963	-0.040780436
246	0xbd87ceb8	-0.06631225
247	0xbb4903c3	-0.0030672408
248	0x3d76663d	0.060156096
249	0x3a96ceb8	0.0011505699
250	0xbc5466a3	-0.012963924
251	0x3d2cafdf	0.04215991
252	0xbb72d78b	-0.0037054743
253	0x3d902784	0.07038787
254	0xbdb359f3	-0.08757391
255	0xbd827a1e	-0.06370948

fc2.bias f4 [84]
0	0xbd5fe88a	-0.054665126
1	0xbdc8493b	-0.097795926
2	0xbd309989	-0.043115173
3	0x3d9efb81	0.07762814
4	0xbda31c7a	-0.07964416
5	0xbd174001	-0.036926273
6	0x3da5b2d6	0.08090751
7	0x3da86883	0.08223059
8	0x3c2a1c8e	0.0103827845
9	0xbd69e453	-0.057102513
10	0x3dcd595b	0.10026809
11	0xbd0da426	-0.034580372
12	0xbd3eed81	-0.04661322
13	0x3d201b33	0.03908844
14	0xbc40fe9b	-0.011779453
15	0xbd0d8630	-0.0345518
16	0xbd9b3f9e	-0.075804934
17	0xbba4ac9d	-0.00502546
18	0xbb12c0b9	-0.0022392704
19	0xbca8599e	-0.020550545
20	0x3c458fc2	0.0120582
21	0xbd46b592	-0.048513003
22	0xbd74d412	-0.05977256
23	0xbd29451d	-0.041325677
24	0x3d3a15ee	0.04543107
25	0x3d475a7b	0.048670273
26	0x3d9cf399	0.0766365
27	0x3dbfee6d	0.09371648
28	0xbc659f35	-0.014015009
29	0xbd9d5b5b	-0.0768344
30	0xbd9ba2e4	-0.07599428
31	0xbd6ff72b	-0.058585327
32	0xbcd757ca	-0.026286978
33	0xbd6b3af4	-0.05742927
34	0x3db16fa1	0.0866387
35	0xbc208696	-0.009797713
36	0xbd4c0f38	-0.0498192
37	0xbd9901bf	-0.07471036
38	0x3d095321	0.033526544
39	0x3d563e1c	0.052305326
40	0x3d8b6abb	0.068074666
41	0x3c9d6474	0.019212939
42	0x3e1cf7aa	0.15328851
43	0x3e20b012	0.15692165
44	0x3dd5a868	0.104325116
45	0x3c0d2c6e	0.00861655
46	0x3d9c84c9	0.07642514
47	0xbc5bdb49	-0.013418981
48	0x3b830511	0.0039984067
49	0x3cc1e660	0.023669422
50	0xbd93c518	-0.07215327
51	0x3d76919b	0.060197454
52	0x3dcdbdf6	0.10045998
53	0x3c6c0d6b	0.014407496
54	0x3c93ebcf	0.018056778
55	0x3dba16b6	0.09086363
56	0xbccb64c3	-0.02482832
57	0x3dad7804	0.08470157
58	0x3db4ed8e	0.088343725
59	0x3e434013	0.19067411
60	0xbcd27fe8	-0.025695756
61	0xbb1f53b0	-0.0024311356
62	0x3d7af7d2	0.061271496
63	0xbb05ef96	-0.0020436994
64	0xbd71ba0b	-0.059015315
65	0xbd570fb8	-0.052505225
66	0x3db02c75	0.086022295
67	0xbc4dc6de	-0.012559621
68	0x3dae2868	0.08503801
69	0x3de9dfc9	0.11419637
70	0xbd891c98	-0.06694907
71	0xbd52df91	-0.05148274
72	0x3d652a7c	0.05594872
73	0x3d181ce2	0.03713692
74	0xbd39a2d7	-0.04532131
75	0x3defd3fd	0.117103554
76	0xbd9d6e84	-0.07687095
77	0xbcf0ee86	-0.029410612
78	0xbd122a7b	-0.035685044
79	0x3da8ff12	0.08251776
80	0xbc4a6cc6	-0.012355035
81	0x3dae8208	0.08520895
82	0x3c1fe9d1	0.009760336
83	0xbd554516	-0.05206784

fc3.weight f4 [10, 84]
0	0xbe159e85	-0.14611252
1	0x3d1c21cd	0.038118172
2	0xbe19c1ca	-0.15015331
3	0x3e236110	0.15954995
4	0xbd4a122a	-0.04933373
5	0xbd254d85	-0.04035713
6	0x3da1d6dc	0.07902309
7	0xbd8d5ca2	-0.06902434
8	0x3ec4564b	0.38347086
9	0x3d9280a0	0.071534395
10	0x3d4a57ad	0.04940002
11	0xbc4850dd	-0.012226311
12	0xbde3f273	-0.11130228
13	0x3db5b711	0.08872808
14	0x3e1bc9d9	0.15213718
15	0xbd94a0e0	-0.07257247
16	0x3df7aedc	0.12093899
17	0x3d000365	0.031253237
18	0x3e102fe1	0.14080764
19	0xbdd3c437	-0.103401594
20	0x3d8ad3ee	0.06778704
21	0x3e10d0ef	0.14142202
22	0xbdbfdbdb	-0.09368106
23	0xb795768f	-1.7817392e-05
24	0xbdf82c6b	-0.12117847
25	0x3e00d223	0.12580161
26	0xbe06bed1	-0.13158728
27	0xbdbc9fed	-0.09210191
28	0x3cc21e9e	0.02369624
29	0x3d857832	0.06517066
30	0x3c7d08e5	0.015444015
31	0xbcee9373	-0.029123044
32	0xbe172996	-0.14761958
33	0x3ea53a0c	0.3227085
34	0xbe84584b	-0.25848612
35	0xbdfd928a	-0.12381466
36	0xbd6b3e18	-0.057432264
37	0xbdd9d504	-0.10636333
38	0x3ac2c133	0.0014858603
39	0xbbea1f13	-0.0071448176
40	0xbe118f45	-0.14214809
41	0xbe501b96	-0.20323023
42	0xbe5b6025	-0.21423395
43	0xbbee659c	-0.0072752964
44	0xbdc00b75	-0.09377185
45	0x3dd8028f	0.10547363
46	0x3bcfd2af	0.006342254
47	0x3e267cf0	0.16258597
48	0x3e30d6b7	0.17269407
49	0xbd1f23a6	-0.038852356
50	0xbcaeaec1	-0.021323564
51	0xbdacca3e	-0.08437012
52	0xbe859521	-0.2609034
53	0xbe238e4a	-0.15972248
54	0x3e5f110f	0.21783851
55	0xbe21d639	-0.15804376
56	0x3dd9eb84	0.10640624
57	0x3decfe02	0.11571886
58	0x3daa6a2b	0.08321031
59	0xbe94c483	-0.29056177
60	0x3ed607e5	0.41802898
61	0x3e6c13d5	0.2305444
62	0xbd0a7dd8	-0.03381142
63	0xbd187dc7	-0.037229326
64	0xbcd83c08	-0.026395813
65	0x3999ca00	0.00029332936
66	0xbe2dafcd	-0.16961594
67	0x3dbf558f	0.09342491
68	0xbdd2eebf	-0.102994435
69	0xbe53d8c6	-0.20688161
70	0x3d2d488c	0.042305514
71	0x3d3d880e	0.04627233
72	0xbd9e2ed4	-0.077237755
73	0x3d2089e6	0.03919401
74	0xbcb98339	-0.02264558
75	0xbdbad552	-0.09122719
76	0x3d845b71	0.064627536
77	0xbd31fd94	-0.04345472
78	0x3d3d8a0f	0.04627424
79	0xbdb29e8f	-0.08721649
80	0x3d127810	0.03575903
81	0xbe1f2633	-0.15541916
82	0x3e217a02	0.15769199
83	0xbdbe925b	-0.09305259
84	0x3c8d7b65	0.017270753
85	0x3dcd209f	0.100159876
86	0xbe79ef4f	-0.24407695
87	0xbe44e31b	-0.19227259
88	0x3e3925f4	0.18080884
89	0xbd7de293	-0.061983656
90	0xba94e1be	-0.001135878
91	0x3dafff4e	0.085936174
92	0xbde54eaf	-0.11196648
93	0xbe62ae60	-0.22136831
94	0xbc7227ea	-0.014780024
95	0x3cb17ef0	0.021666974
96	0x3e62b2d1	0.22138526
97	0x3e6cb60b	0.23116319
98	0x3df336ec	0.1187571
99	0xbde4fe19	-0.11181278
100	0xbdfb4813	-0.122696064
101	0x3e90a42e	0.2825026
102	0x3e07aabc	0.13248724
103	0xbdb7c937	-0.089739256
104	0x3db95ef3	0.09051313
105	0x3daa9423	0.08329036
106	0xbd960931	-0.07325972
107	0xbd908503	-0.0705662
108	0xbd9b6b24	-0.07588795
109	0x3e5d6026	0.21618709
110	0xbdceed17	-0.10103815
111	0xbe6c0fee	-0.23052952
112	0xbd5db50a	-0.05412773
113	0x3dda7d52	0.10668434
114	0x3df7a151	0.120913155
115	0xbe0093c8	-0.12556374
116	0xbdb06cc2	-0.08614494
117	0xbda36abf	-0.079793446
118	0x3c8f3a85	0.017483959
119	0x3d4bbe13	0.049741816
120	0x3d7bed2d	0.061505485
121	0xbdaeb893	-0.085312985
122	0xbd1f4914	-0.038888052
123	0x3d515f93	0.051116537
124	0x3d82b899	0.063828655
125	0xbd372dbb	-0.044721346
126	0xbeaf95b4	-0.34293902
127	0xbbfb55c2	-0.0076701352
128	0xbd491992	-0.04909665
129	0xbdce495a	-0.100725845
130	0x3e8d7326	0.27626914
131	0x3e4f6f6d	0.2025735
132	0x3c2a2630	0.010385081
133	0x3e12f5f2	0.14351633
134	0x3e3032da	0.17206898
135	0x3de64c09	0.11244971
136	0x3dec9740	0.11552286
137	0xbe18d1e7	-0.14923821
138	0xbcd2a704	-0.025714405
139	0xbd2d9b4d	-0.042384434
140	0x3e107a0c	0.14109057
141	0xbed28564	-0.41117394
142	0xbdff72a4	-0.12473038
143	0x3e511549	0.20418276
144	0xbdf81292	-0.12112917
145	0xbdd57884	-0.10423377
146	0x3cd592b9	0.02607094
147	0x3da54fac	0.08071837
148	0xbd608115	-0.054810602
149	0xbd62aab8	-0.05533859
150	0x3bbcb56f	0.0057589333
151	0x3ed655ce	0.4186234
152	0xbdd4f932	-0.10399093
153	0xbe09d6aa	-0.13460794
154	0xbdd0a1bb	-0.10187098
155	0x3d3fba59	0.046808574
156	0xbdb3fb86	-0.08788209
157	0x3d47573d	0.04866718
158	0xbd8f597f	-0.06999492
159	0xbd64a82b	-0.05582444
160	0x3ba4082d	0.0050058574
161	0xbd9a17e4	-0.07524088
162	0x3d88f213	0.06686797
163	0xbdbc22b7	-0.09186309
164	0xbd1ca8f8	-0.03824708
165	0xbd5a96ff	-0.053366657
166	0xbdd914cd	-0.105996706
167	0xbd3ce9f7	-0.046121564
168	0x3dd80dbc	0.105494946
169	0xbd942e27	-0.07235365
170	0x3e59594f	0.21225475
171	0x3e408757	0.18801628
172	0xbad20905	-0.0016024417
173	0xbdd6b8b6	-0.104844496
174	0xbdda6fd7	-0.10665863
175	0xbe5a402b	-0.2131354
176	0x3eae4bda	0.34042245
177	0xbd15c34b	-0.0365632
178	0xbdd93501	-0.10605813
179	0xbdc79b2b	-0.09746393
180	0xbde7cf31	-0.113188155
181	0x3c973f6e	0.018462863
182	0xbdf11ed5	-0.11773459
183	0x3d80041d	0.062507845
184	0x3d1c8d4b	0.038220685
185	0xbde3b79e	-0.111190066
186	0xbca49d84	-0.02009464
187	0x3d241d6d	0.040067125
188	0x3db36555	0.08759562
189	0xbe3b1268	-0.1826874
190	0xbbfd7d68	-0.007735897
191	0x3d93e9fa	0.07222362
192	0xbdc2044f	-0.09473478
193	0x3e19cc7e	0.15019414
194	0xbe07e70d	-0.13271733
195	0x3e029336	0.12751469
196	0xbd14550e	-0.036213927
197	0xbda08269	-0.07837374
198	0x3c9c3768	0.019069389
199	0xbd53a6d8	-0.051672786
200	0x3d47e185	0.048799057
201	0xbc085550	-0.008321121
202	0x3dec7cc9	0.115472384
203	0x3d38205e	0.044952743
204	0xbda6e1b9	-0.08148522
205	0xbddc56f9	-0.10758776
206	0x3cec01ba	0.028809417
207	0x3c028e6a	0.0079685245
208	0xbe2e4a0f	-0.17020439
209	0xbbfe1619	-0.007754099
210	0x3e884247	0.26613066
211	0xbd3ce28c	-0.04611449
212	0xbc2ef025	-0.010677372
213	0xbd944bd7	-0.07241028
214	0x3e22ff29	0.15917648
215	0xbd97fc2a	-0.07421143
216	0x3e247bba	0.16062823
217	0xbd440137	-0.04785272
218	0xbd03daa4	-0.032190934
219	0x3cf38903	0.029728418
220	0x3e3b6ea2	0.18303922
221	0x3df72ba5	0.120688714
222	0x3ccecbf4	0.025243737
223	0xbcf029db	-0.029316833
224	0xbe20f3c7	-0.15717994
225	0x3dc11a56	0.09428851
226	0x3dfacb8c	0.12245855
227	0xbdf9724d	-0.12180004
228	0x3d2d8438	0.04236242
229	0xbdf892bc	-0.12137362
230	0xbc6da17c	-0.014503833
231	0xbd387bd5	-0.04503997
232	0x3d73abe8	0.059490114
233	0xbdf7f022	-0.121063486
234	0xbdc6e492	-0.09711565
235	0x3b6cbe56	0.0036124191
236	0x3df36fbc	0.11886546
237	0xbe28a1bc	-0.16467947
238	0x3dc157de	0.094405875
239	0xbd8e3913	-0.0694448
240	0x3d2eba66	0.042658232
241	0xbda80890	-0.08204758
242	0x3df4150a	0.119180754
243	0x3d4991b3	0.049211215
244	0x3c1e9ef8	0.009681456
245	0xbdf62fcb	-0.120208345
246	0xbd1b9ea7	-0.0379931
247	0x3d2ee4b4	0.042698577
248	0xbe3e56c3	-0.18587784
249	0x3b1c5c48	0.0023858715
250	0x3e9972ae	0.29970306
251	0xbdef363b	-0.116802655
252	0xbdb79cb7	-0.08965438
253	0xbd7973ee	-0.060901575
254	0x3dbc218e	0.091860875
255	0x3eda583d	0.42645445

fc3.bias f4 [10]
0	0xbdde1ea1	-0.10845686
1	0xbd5d8b15	-0.054087717
2	0x3e0cd9d3	0.13754968
3	0x3e3c2979	0.18375196
4	0x3dd643f8	0.10462183
5	0xbe64c492	-0.2234061
6	0x3d53bc57	0.051693287
7	0xbde0dc5a	-0.10979529
8	0x3d888241	0.06665469
9	0xbdd105bb	-0.10206171
