round1/2025-04-18 17:23:53-weight-client-fd68d8d4-7.pth (torch, 252478 bytes, 10 tensors)

conv1.weight f4 [6, 3, 5, 5]
0	0xbd06b302	-0.03288556
1	0xbe697e43	-0.22802071
2	0x3d0505dc	0.03247629
3	0xbdae4a1d	-0.0851023
4	0xbe3cea8f	-0.18448852
5	0xbe099627	-0.13436185
6	0xbd90ca1c	-0.07069799
7	0xbe12a6c0	-0.14321423
8	0xbe2b0751	-0.1670201
9	0xbea8cb67	-0.32967684
10	0xbdadeaf9	-0.08492083
11	0xbe845eb0	-0.2585349
12	0x3d552db7	0.05204555
13	0xbe43a481	-0.19105722
14	0xbe69121b	-0.22760813
15	0xbe167765	-0.14693983
16	0xbc054fcb	-0.0081367
17	0x3c889796	0.016673844
18	0xbe05c51f	-0.13063477
19	0xbe31e188	-0.1737119
20	0x3e419610	0.189049
21	0x3bd14618	0.0063865297
22	0x3d847423	0.06467464
23	0x3db1e3b1	0.08686007
24	0x3ddc7080	0.10763645
25	0x3e0dcf42	0.13848594
26	0x3d606a1f	0.054788705
27	0x3df5f684	0.1200991
28	0x3e31e3b7	0.17372023
29	0xbdc65d8f	-0.09685814
30	0x3e6f2b91	0.23356463
31	0x3db87549	0.09006745
32	0x3e1d9215	0.15387757
33	0x3e18eef1	0.14934899
34	0x3c90582d	0.01762017
35	0x3e3bce45	0.18340404
36	0xbb78f5d1	-0.0037988315
37	0x3e31560a	0.17317978
38	0x3db68fe3	0.08914163
39	0xbdbd1b90	-0.09233773
40	0x3dfe407e	0.12414645
41	0x3ea706d7	0.32622406
42	0x3e96263e	0.2932605
43	0x3e7c6e0b	0.24651353
44	0x3d445d2d	0.04794042
45	0x3ec2a11b	0.3801354
46	0x3ed20e74	0.41026652
47	0x3e267cfb	0.16258614
48	0x3e2a01d6	0.16602263
49	0x3ea7b6b3	0.32756576
50	0xbe21504e	-0.1575329
51	0xbddde535	-0.108347334
52	0xbe037a2f	-0.12839578
53	0xbddeced0	-0.1087929
54	0xbebe958b	-0.37223467
55	0xbc8bd2c7	-0.01706828
56	0xbe8dfce0	-0.2773199
57	0x3cacc15b	0.021088293
58	0xbde79df3	-0.11309423
59	0xbe0e0bb4	-0.13871652
60	0xbe5645f6	-0.20925125
61	0xbe805d97	-0.25071403
62	0x3ccda5e4	0.025103517
63	0xbe4c9df1	-0.19982125
64	0xbea30d00	-0.31845856
65	0xbddddc0e	-0.10832988
66	0xbd1686ea	-0.036749758
67	0xbd29e489	-0.041477714
68	0xbe298884	-0.16555983
69	0xbe55a2e3	-0.20862918
70	0xbc9cb684	-0.019129999
71	0x3dfa18c8	0.12211758
72	0xbdcc00df	-0.09961104
73	0xbe2c6343	-0.1683474
74	0x3d96fa0e	0.07371913
75	0xbb255102	-0.0025225286
76	0xbdc7a331	-0.09747923
77	0xbda8db82	-0.08244993
78	0xbe79d974	-0.24399358
79	0xbe80e72f	-0.2517638
80	0x3e33de7a	0.17565337
81	0x3e49292f	0.19644617
82	0xbbb9ade8	-0.005666483
83	0xbe1e2e13	-0.15447263
84	0xbe26c9fc	-0.16287988
85	0x3ddeba6c	0.10875401
86	0x3e862b8f	0.26205108
87	0x3e263a40	0.16233158
88	0xbd600cdc	-0.054699764
89	0xbd232cb8	-0.03983757
90	0x3e8d6d49	0.2762244
91	0x3e1d2cab	0.1534907
92	0x3e182d70	0.14861083
93	0xbdacc434	-0.0843586
94	0x3c6feb3e	0.014643488
95	0x3e108aa6	0.1411539
96	0xbc07a112	-0.008278148
97	0xbdfbede9	-0.12301237
98	0xbe364ccc	-0.17802733
99	0xbdb46780	-0.088088036
100	0xbd92bfe0	-0.071655035
101	0xbd745539	-0.059651587
102	0xbe4b1eed	-0.19836016
103	0xbe81f8d7	-0.25385162
104	0xbea3bb39	-0.31978777
105	0x3d9bb435	0.07602731
106	0x3de491e6	0.111606404
107	0xbe32aaac	-0.17447919
108	0xbe8c9eaf	-0.27464816
109	0xbdb78955	-0.08961741
110	0x3e8e8ac8	0.27840257
111	0x3e56c4bc	0.20973486
112	0x3e32ba6a	0.17453924
113	0x3d0a04f8	0.033696145
114	0xbe001e35	-0.12511523
115	0x3e0a1d61	0.1348777
116	0x3e5101cb	0.2041084
117	0x3e066398	0.1312393
118	0x3cacfdeb	0.021117171
119	0xbe1c0ab1	-0.15238453
120	0x3deecd42	0.116602436
121	0x3d1248c5	0.03571393
122	0xbdf835a0	-0.12119603
123	0xbe378c31	-0.17924573
124	0xbe1f4084	-0.15551955
125	0xbdf359ea	-0.11882384
126	0xbe4cbb51	-0.1999333
127	0xbde67eef	-0.112546794
128	0xbe4a2bb7	-0.19743238
129	0xbe1647a7	-0.1467577
130	0x3e0e55e1	0.13899948
131	0x3d3533f7	0.04423901
132	0xb8a6d281	-7.954706e-05
133	0xbe7d2c26	-0.24723873
134	0xbe86a44e	-0.2629723
135	0x3e83dffa	0.25756818
136	0x3dfe0b6b	0.124045216
137	0x3da047d9	0.07826204
138	0x3b5c1616	0.00335825
139	0xbe10beac	-0.14135236
140	0x3e6cde91	0.23131777
141	0x3e3d9342	0.18513206
142	0x3e2e6094	0.17029029
143	0x3d2091c9	0.03920153
144	0xbda76263	-0.08173063
145	0x3e374369	0.17896809
146	0x3e334b60	0.17509222
147	0x3d9b5abc	0.075856656
148	0xbde2fcb1	-0.11083353
149	0x3d40fa28	0.047113568
150	0xbeae6ed5	-0.34068933
151	0xbe8c8cb0	-0.27451086
152	0xbe919739	-0.28435686
153	0xbe872170	-0.26392698
154	0xbe914c7b	-0.28378662
155	0xbebd920e	-0.37025493
156	0xbe4ddfb9	-0.20104875
157	0xbe7604da	-0.24025288
158	0xbea1ecb9	-0.31625918
159	0xbe829745	-0.25506034
160	0xbe805d1d	-0.2507104
161	0xbea19fd3	-0.3156725
162	0xbe9e6d96	-0.30942982
163	0xbe907aba	-0.28218633
164	0xbdf0a36c	-0.1174992
165	0xbe5083b9	-0.20362748
166	0xbe3d9900	-0.18515396
167	0xbe6d238d	-0.23158093
168	0xbe6cbc66	-0.23118743
169	0xbe508afe	-0.20365521
170	0xbe00f198	-0.1259216
171	0xbe1db583	-0.15401272
172	0xbdf4da94	-0.11955753
173	0xbd92c969	-0.07167322
174	0xbe19aa11	-0.15006281
175	0xbde3031e	-0.11084579
176	0xbe3b0573	-0.18263797
177	0xbde5cce6	-0.11220722
178	0xbe4697a0	-0.19393778
179	0xbcf67e85	-0.030089626
180	0xbc31dd2f	-0.010855957
181	0xbd1fdafd	-0.039027203
182	0xbd2e1d81	-0.042508606
183	0x3a6eb5a5	0.00091060466
184	0xbe2d69b0	-0.16934848
185	0xbe107248	-0.14106095
186	0xbdf4da6d	-0.11955724
187	0x3d878165	0.06616477
188	0x3d90856d	0.07056699
189	0xbde959d9	-0.1139409
190	0xbd089cd2	-0.03335268
191	0xbd56ba03	-0.05242349
192	0xbb568ba0	-0.0032737032
193	0xbd2d6ebf	-0.042341944
194	0xbe1c0002	-0.15234378
195	0xbe41fd37	-0.1894425
196	0xbd8e64b6	-0.06952803
197	0xbd1512ce	-0.036394887
198	0xbc9c7941	-0.019100787
199	0xbd22143f	-0.03957009
200	0x3ebb7cdd	0.366187
201	0x3ecd9d48	0.4015906
202	0x3ed892b8	0.42299438
203	0x3ef12a93	0.47102794
204	0x3e9e69c3	0.30940065
205	0x3ee7c9a1	0.45271018
206	0x3ea91810	0.3302617
207	0x3edab85e	0.42718786
208	0x3ed426c5	0.4143583
209	0x3f0b2420	0.54352
210	0x3efa7083	0.48913965
211	0x3f012e0a	0.50460875
212	0x3f00cb01	0.5030976
213	0x3ee2c35c	0.44289672
214	0x3f030ebc	0.5119436
215	0x3ec84468	0.3911469
216	0x3ed84a01	0.4224396
217	0x3ef2da30	0.4743209
218	0x3ec83e17	0.3910987
219	0x3ef69b79	0.4816549
220	0x3ea7455e	0.3267011
221	0x3ecf29a7	0.40461466
222	0x3e8db5e0	0.27677822
223	0x3e910f10	0.28331804
224	0x3eca5dd6	0.39524716
225	0xbd91a2b1	-0.07111109
226	0xbd9d8990	-0.076922536
227	0x3dc80389	0.09766299
228	0xbdc1d92d	-0.09465251
229	0xbd7fc2b3	-0.06244154
230	0x3d8e6ae7	0.06953984
231	0xbd856ffc	-0.065155
232	0x3c6c23d7	0.014412842
233	0xbd085326	-0.03328242
234	0xbc413ed5	-0.0117947655
235	0x3e13722e	0.14399025
236	0x3e29adcf	0.16570209
237	0x3e04e953	0.12979631
238	0xbc0d24c8	-0.008614726
239	0x3dfd31d2	0.12363018
240	0x3d8b0a07	0.06789022
241	0x3df4de7f	0.119565
242	0xbbe8a945	-0.0071002566
243	0x3dc5785c	0.09642097
244	0x3e2755a0	0.16341257
245	0x3e708979	0.23489942
246	0x3df0ce86	0.11758141
247	0x3d8ae1d9	0.06781358
248	0x3dcb189c	0.09916803
249	0x3e077b72	0.13230684
250	0x3d2aaf57	0.041671123
251	0x3de7bc91	0.11315263
252	0x3e2ef9f7	0.17087542
253	0x3dbe9726	0.09306173
254	0x3cff4bb0	0.03116402
255	0x3dc18a5c	0.09450218

conv1.bias f4 [6]
0	0x3f150981	0.58217627
1	0x3ca2dc01	0.019880297
2	0xbf928c3a	-1.1449044
3	0xbf2b9309	-0.6702123
4	0xbd4f7924	-0.050652638
5	0x3c12f11a	0.008968616

conv2.weight f4 [16, 6, 5, 5]
0	0x3e05aaca	0.13053432
1	0x3c64a238	0.013954692
2	0x3d8b9f83	0.06817534
3	0x3d9a4970	0.07533538
4	0x3d600435	0.054691512
5	0x3d9e1f06	0.07720761
6	0x3d9c3967	0.07628136
7	0x3cf84ab8	0.030309066
8	0xbce8f148	-0.028435364
9	0xbdba724d	-0.091038324
10	0x3d9d4d14	0.07680717
11	0x3dd65127	0.10464697
12	0xbd75b047	-0.059982564
13	0x3cec2245	0.028824935
14	0xbcdda2c8	-0.02705516
15	0xbcc9d2f0	-0.024636716
16	0xbc5cadf7	-0.013469211
17	0xbb8e137c	-0.004335819
18	0x3c67c8d3	0.014147001
19	0x3d9ad715	0.07560555
20	0x39f2fe79	0.00046347434
21	0x3df8149b	0.12113305
22	0x3c9a1264	0.018807597
23	0x3dd5e046	0.104431674
24	0x3e0de433	0.13856582
25	0x3e12b555	0.14326985
26	0x3dc37387	0.095435195
27	0xbc78837e	-0.015168069
28	0x3d0b6ebf	0.034041163
29	0x3d8de16c	0.069277614
30	0x3df410b9	0.11917252
31	0x3d079b1b	0.033106904
32	0x3d400001	0.046875004
33	0x3dc536f9	0.09629626
34	0x3dbe3729	0.09287865
35	0x3e0c0e30	0.13677287
36	0x3dfa749e	0.12229274
37	0x3db6bebe	0.089231
38	0x3d5c489c	0.053780183
39	0x3d83f7a2	0.064437166
40	0x3d9fbf7f	0.07800197
41	0x3e5692c8	0.2095443
42	0x3e26bea2	0.16283658
43	0x3cd24701	0.025668623
44	0xbb946d93	-0.004529664
45	0x3db62699	0.08894081
46	0x3e6012ec	0.21882218
47	0x3e3b448b	0.18287866
48	0x3e24e741	0.16103841
49	0x3df73ab8	0.120717466
50	0xbd8af35c	-0.06784698
51	0x3d9d8608	0.0769158
52	0x3ba2a994	0.004964063
53	0x3d8ed31f	0.06973862
54	0x3ddd515a	0.10806532
55	0xbc5611ce	-0.013065768
56	0xbd0e4c27	-0.034740593
57	0x3c055504	0.008137945
58	0xbd65b02f	-0.056076225
59	0x3db5a52a	0.08869393
60	0x3d9b7fde	0.07592748
61	0xbcfe8881	-0.03107095
62	0xbd7a904d	-0.061172772
63	0xbdbfdecc	-0.09368667
64	0xbd50433c	-0.05084537
65	0x3d29b50f	0.041432437
66	0x3d194acc	0.037424847
67	0x3b9c091f	0.0047618295
68	0xbdf93c46	-0.12169699
69	0xbd8a120a	-0.06741722
70	0x3d0d29ab	0.034463566
71	0x3d5bfba8	0.053706795
72	0xbd8fd811	-0.07023633
73	0xbdd1535b	-0.10220977
74	0xbd0aaafd	-0.033854473
75	0xbba20a78	-0.0049450956
76	0x3de0702e	0.109588966
77	0x3d9c3353	0.07626977
78	0x3e06c57a	0.13161269
79	0x3d4745b9	0.048650477
80	0x3de7a34c	0.11310443
81	0xbc148dc4	-0.009067003
82	0xbd4bd250	-0.049761117
83	0xb9f50df8	-0.0004674045
84	0x3d9d2937	0.07673877
85	0x3e2bea2c	0.16788548
86	0x3de8e18a	0.11371143
87	0xbc5b5d94	-0.01338901
88	0xbdb0039e	-0.0859444
89	0xbde506a8	-0.1118291
90	0x3d81e464	0.0634239
91	0x3d8dbd79	0.06920905
92	0x3b4e8a12	0.0031515402
93	0xbe3d79e1	-0.18503524
94	0xbe59ba51	-0.2126248
95	0x3e0c9308	0.13727963
96	0xbc9e88b0	-0.019352287
97	0xbdbedd56	-0.0931956
98	0xbdd4b81a	-0.10386677
99	0xbe640922	-0.22269109
100	0x3cb47fa2	0.022033516
101	0x3c017e6b	0.007903676
102	0x3cce061c	0.025149398
103	0x3c2cb1f8	0.010540478
104	0x3c9af72b	0.018916687
105	0x3dd35a06	0.10319905
106	0x3d22b6dc	0.03972517
107	0xbd36864f	-0.04456168
108	0xbd568b17	-0.05237874
109	0xbcd530d2	-0.026024256
110	0x3db14a86	0.08656792
111	0xbc9620a5	-0.018326113
112	0xbd053164	-0.032517806
113	0xbd5ea713	-0.054358553
114	0xbd2fd546	-0.042928003
115	0x3d8a623a	0.067570165
116	0x3d51c02c	0.05120866
117	0xbda05dba	-0.07830377
118	0xbe40ba8b	-0.1882116
119	0xbe32adf9	-0.17449178
120	0xba5b527d	-0.0008366479
121	0xbc35fcfc	-0.011107679
122	0xbd8d12ca	-0.06888349
123	0xbe47fd7e	-0.19530293
124	0xbd888321	-0.06665636
125	0x3c6a2b2e	0.014292521
126	0xbad04644	-0.0015890081
127	0x3d712181	0.058869842
128	0x3c8f4605	0.017489443
129	0x3e0aa75e	0.13540408
130	0xbd4b73be	-0.049670927
131	0x3d835aee	0.06413828
132	0x3c72e6a3	0.014825496
133	0x3db3fcfd	0.08788488
134	0x3e15fe91	0.1464789
135	0x3dac99a3	0.084277414
136	0xbd2a31f3	-0.04155154
137	0x3d84e7ec	0.06489548
138	0x3b2aab61	0.0026042091
139	0x3dcfa2bd	0.10138462
140	0x3dc10a7b	0.09425827
141	0x3d246d75	0.04014345
142	0xbba0264f	-0.0048873792
143	0xbc251745	-0.010076349
144	0x3d7717a7	0.06032529
145	0x3cda307c	0.026634447
146	0x3d08e06a	0.033417143
147	0x3c372b0a	0.011179695
148	0x3d941d56	0.07232158
149	0x3b0cf52a	0.0021508434
150	0x3ddcbaa7	0.107777886
151	0x3d257c11	0.040401522
152	0x3e0787c0	0.13235378
153	0xbd407327	-0.046984818
154	0x3da0ac0c	0.07845315
155	0xbc58bfec	-0.0132293515
156	0x3d63d624	0.055624142
157	0x3dc49cdf	0.09600233
158	0xbc8ee841	-0.017444732
159	0x3d85c773	0.065321825
160	0x3e0f9795	0.14022668
161	0x3cdcb15b	0.026940038
162	0x3dea592a	0.11442788
163	0x3c6d7f14	0.01449563
164	0x3cc878b5	0.02447162
165	0x3d4970b3	0.049179744
166	0x3ac03961	0.0014665538
167	0x3dd8103c	0.105499715
168	0x3dae0c63	0.08498456
169	0x3d94b599	0.072611995
170	0x3d7ebd1d	0.06219207
171	0x3d725db0	0.05917138
172	0x3e019517	0.1265453
173	0x3e031dac	0.12804288
174	0x3e1bfd39	0.15233316
175	0xbd906d1b	-0.0705206
176	0xbde99d7c	-0.11406991
177	0xbcd91f3a	-0.026504148
178	0x3da8963f	0.08231782
179	0xbced17ac	-0.028941952
180	0xbc13cf63	-0.009021613
181	0xbd9844aa	-0.07434972
182	0x3cb14959	0.02164142
183	0xbde98ebe	-0.11404179
184	0xbd34f5ce	-0.04417973
185	0xbd8ddf6c	-0.0692738
186	0xbe4904ef	-0.19630788
187	0xbdfc0724	-0.123060495
188	0xbc76f867	-0.015073872
189	0xbdd15db6	-0.10222952
190	0xbe0581c8	-0.13037789
191	0xbe3a1a7d	-0.18174167
192	0xbe1fc80a	-0.15603653
193	0xbdeffd4e	-0.11718236
194	0xbdce3f7f	-0.10070705
195	0xbe51463b	-0.20436947
196	0xbde9afca	-0.11410482
197	0xbda80bdb	-0.08205386
198	0xbd811bac	-0.06304106
199	0x3c11b828	0.008894004
200	0xbe81894d	-0.25300065
201	0xbdf03f73	-0.11730852
202	0xbe701653	-0.23446016
203	0xbd9394b9	-0.07206101
204	0xbd7069f6	-0.058694802
205	0xbe0b66fc	-0.13613504
206	0xbe5ca01a	-0.21545449
207	0xbe4cd899	-0.200045
208	0xbda5596d	-0.08073697
209	0xbd784386	-0.06061127
210	0xbdcaed32	-0.09908523
211	0xbe4f72b8	-0.20258605
212	0xbe48dfaf	-0.19616579
213	0xbd4722c4	-0.04861714
214	0xbde61c0d	-0.11235819
215	0xbe58ccff	-0.2117195
216	0xbdaf1bff	-0.08550262
217	0xbe37161e	-0.17879531
218	0xbe3c95a8	-0.18416464
219	0xbe391405	-0.18074043
220	0xbe524a34	-0.20536119
221	0xbe1eefa1	-0.15521099
222	0xbe33ea58	-0.17569864
223	0xbe17fa5d	-0.148416
224	0xbe103092	-0.14081028
225	0xbd3b6131	-0.045746986
226	0xbc28974e	-0.01028998
227	0xbd07115c	-0.03297554
228	0xbdc8628d	-0.09784422
229	0xbd92a889	-0.07161052
230	0xbdbef1dd	-0.093234755
231	0xbd30b7b6	-0.04314395
232	0xbb6fe8a2	-0.0036607166
233	0x3d399d22	0.04531587
234	0xbdf7b280	-0.12094593
235	0xbd857516	-0.06516473
236	0x3c49ef8b	0.012325178
237	0x3b8938c0	0.0041876733
238	0xbd89f018	-0.067352474
239	0xbd34ef34	-0.044173434
240	0xbc9ed883	-0.01939035
241	0xbd20ebcb	-0.03928737
242	0x3d6f00a1	0.05835021
243	0x3d3421b9	0.043977473
244	0xbdfb6611	-0.12275327
245	0x3d35e2fc	0.044405922
246	0x3baae909	0.0052157682
247	0x3da548be	0.08070515
248	0xbcf2f0a6	-0.029655766
249	0xbdd23a10	-0.10264981
250	0xbdd52aa2	-0.10408522
251	0x3dc2f7a4	0.0951989
252	0xba6b0e2e	-0.00089666515
253	0x3aaa58a8	0.0012996392
254	0x3d148536	0.036259852
255	0x3df54b59	0.11977262

conv2.bias f4 [16]
0	0x3cdd976f	0.027049748
1	0x3e447033	0.19183426
2	0xbd7510bc	-0.059830412
3	0xbe500e60	-0.20317984
4	0xbc5a994f	-0.013342216
5	0xbe3d84a1	-0.18507625
6	0xbd947203	-0.072483085
7	0xbd99c0b6	-0.0750746
8	0xbcf5c633	-0.030001735
9	0xbd33f36a	-0.04393331
10	0xbcbc40f8	-0.022980198
11	0x3e272a24	0.16324669
12	0xbd513809	-0.05107883
13	0x3e2c4920	0.1682477
14	0x3dc9568c	0.09830961
15	0x3c86c7af	0.016452638

fc1.weight f4 [120, 400]
0	0x3cad6580	0.021166563
1	0x3b24c0e6	0.002513939
2	0x3d1e0f05	0.038588542
3	0x3cd66d3b	0.026175132
4	0x3d78e1fe	0.060762398
5	0xbb64ae0e	-0.0034893784
6	0x3ce1e143	0.027573233
7	0xbb7c9677	-0.0038541832
8	0xbb835686	-0.004008117
9	0x3d0e015e	0.034669273
10	0xbc0f2e7f	-0.008739113
11	0x3c72c1a9	0.01481668
12	0xbd241517	-0.040059175
13	0xbc0e8e68	-0.0087009445
14	0xbcb5d034	-0.022194006
15	0x3c828f35	0.015937427
16	0x3980e248	0.00024582655
17	0x3c221bf8	0.009894364
18	0x3d0e08cd	0.03467636
19	0x3ccd05e6	0.025027227
20	0x3d00fee7	0.031493094
21	0xbd0f7011	-0.035018984
22	0x3abc1eb1	0.0014352408
23	0x3cfa051a	0.03052001
24	0x3cfa2c73	0.030538773
25	0xbc2377de	-0.009977309
26	0x3d84f8f8	0.064927995
27	0xbc0eb15e	-0.00870928
28	0xbbd4a100	-0.0064889193
29	0xbc07e990	-0.008295432
30	0x3cd04bec	0.025426827
31	0x3c70118a	0.014652619
32	0xbbce8769	-0.0063027632
33	0x3cca037a	0.02465986
34	0xbd21acc3	-0.0394714
35	0xbc701ce6	-0.014655327
36	0xbd20769e	-0.039175622
37	0x3ca2cebf	0.019873975
38	0xbcf850aa	-0.030311901
39	0xbd6ab857	-0.057304706
40	0xbc3ab077	-0.011394612
41	0x3c92bc34	0.017912008
42	0xbd0bbc59	-0.03411517
43	0xbccbe047	-0.024887217
44	0xbc7c8d5f	-0.015414565
45	0x3d4eedbb	0.050519686
46	0xbc5dcabf	-0.013537108
47	0x3c29492c	0.010332387
48	0xbd4c1a84	-0.049829975
49	0xbcd144c5	-0.025545487
50	0xbcf68332	-0.030091856
51	0x3d303fc1	0.04302955
52	0xbca38423	-0.019960469
53	0x3d7f93c6	0.062396787
54	0x3caa1ddd	0.020766193
55	0x3d18e454	0.037327126
56	0x3a3279ad	0.0006808292
57	0xbd2be3cb	-0.041965287
58	0x3d1d6328	0.03842464
59	0xbd2bfba1	-0.04198802
60	0x3d22c51e	0.039738767
61	0xbc3643ab	-0.011124532
62	0x3ca313c2	0.019906882
63	0xbce062e1	-0.0273909
64	0xbd41bf84	-0.047301784
65	0x3ca7b2f1	0.020471068
66	0x3c5a0ecd	0.013309193
67	0xbcce0d64	-0.02515287
68	0x3c690f8f	0.014224901
69	0x3d58b972	0.05291123
70	0x3c562b46	0.013071841
71	0xbd077d0d	-0.033078242
72	0xbc5779a4	-0.01315156
73	0xbcb2bfd4	-0.021819986
74	0x3ce64317	0.028108163
75	0x3cb22c0a	0.021749515
76	0xbc82605e	-0.015915092
77	0x3c190456	0.009339413
78	0x3d20ffa5	0.0393063
79	0xbd3fa595	-0.04678877
80	0xbc3e1a04	-0.011602882
81	0xbc020fde	-0.007938353
82	0x3c88d7b7	0.016704423
83	0x3d32f8a8	0.04369417
84	0x3cedccba	0.029028285
85	0xbd2eb0f8	-0.04264924
86	0xbc87bbbb	-0.016569009
87	0xbaa6b9a1	-0.0012720117
88	0x3c4fcc29	0.012682953
89	0xbd28b41a	-0.041187383
90	0xbd136029	-0.035980377
91	0xbb64b5f3	-0.003489849
92	0x3c1ad236	0.009449532
93	0xbcc94369	-0.024568276
94	0xbd3d0cac	-0.046154663
95	0x3cff7c14	0.031187095
96	0x3aa2e9d7	0.0012429309
97	0x3d08815a	0.033326484
98	0x3d28088f	0.041023787
99	0x3ce75185	0.028237114
100	0x3cc260d2	0.023727808
101	0xbc286278	-0.010277383
102	0xbd10ad05	-0.035321254
103	0xbbb97099	-0.0056591746
104	0xbd3e7ae9	-0.046503935
105	0xbd3e7c05	-0.046504993
106	0xbd38a189	-0.045075927
107	0x3bd23ccb	0.0064159385
108	0x3d3e1e23	0.04641546
109	0x3c6cc170	0.014450416
110	0xbcb85f0b	-0.022506258
111	0xbc121093	-0.008915084
112	0xbb3d1e8d	-0.002885732
113	0x3d0184c4	0.031620756
114	0xbd5d85d0	-0.05408269
115	0xbcfaa8af	-0.030598013
116	0xbd03f129	-0.03221241
117	0xbd0232d2	-0.031786747
118	0x3c96a302	0.018388275
119	0x3cc3852c	0.023867212
120	0xbd5b343c	-0.05351661
121	0xbb135e7e	-0.0022486742
122	0x3a38aec4	0.0007045085
123	0xbcc1734e	-0.023614552
124	0xbc2ce74d	-0.010553193
125	0xbaabfc11	-0.0013121386
126	0x3d4d3e03	0.050107967
127	0x3d7898aa	0.060692467
128	0x3d846ee7	0.064664654
129	0x3d4614a9	0.048359547
130	0xbdc5dce5	-0.09661273
131	0xbd81452a	-0.0631202
132	0x3cb578ef	0.022152392
133	0x3d422039	0.04739401
134	0xbc2fdec5	-0.010734265
135	0xbdc8c07a	-0.09802337
136	0x3a8a8060	0.0010566823
137	0xbc961d9b	-0.018324664
138	0xbc418f5b	-0.011813964
139	0xbc564f91	-0.013080494
140	0xbcea4f58	-0.028602287
141	0x3beed528	0.007288594
142	0x3d1a9fe3	0.037750136
143	0x3d17b7b3	0.037040424
144	0x3c9962d0	0.018723875
145	0xbd9df673	-0.07713022
146	0xbd38c5af	-0.0451104
147	0xbd0249ed	-0.031808782
148	0x3cc4973c	0.023997895
149	0xbd1085d8	-0.035283893
150	0xbcd2c86d	-0.025730336
151	0xbd2faf27	-0.042891648
152	0xbd290bdf	-0.041271087
153	0x3d1c06c6	0.038092397
154	0xbcb933f8	-0.022607788
155	0xbd404e3c	-0.04694961
156	0xbc8c6be5	-0.017141292
157	0xbd48976e	-0.04897254
158	0xbd27e71d	-0.04099189
159	0x3d371e89	0.044706855
160	0x3d21f2f9	0.039538357
161	0x3ce84c2f	0.02835664
162	0xbce98f26	-0.028510641
163	0xbd108f9c	-0.035293207
164	0xbd3c90da	-0.04603658
165	0xbc7b7d9f	-0.015349775
166	0xbae0f442	-0.0017162638
167	0xbc2eb776	-0.010663858
168	0xbd45ebbe	-0.048320524
169	0x3ca2896a	0.019840915
170	0xbb28b651	-0.0025743435
171	0xbcb220f4	-0.021744229
172	0xba621cdf	-0.0008625518
173	0x3d1b27fc	0.03787993
174	0xbd30ca33	-0.043161582
175	0x3c679466	0.014134502
176	0x3b1c86c6	0.0023884042
177	0xbc537c27	-0.012908018
178	0x3bdf3f5f	0.0068129743
179	0x3d45bbd7	0.04827484
180	0xbc35828a	-0.011078486
181	0xbb4b3f2d	-0.0031012997
182	0x3c79126c	0.015202146
183	0xbcf87b01	-0.03033209
184	0x3d1ae94f	0.037820157
185	0x3d06a232	0.032869525
186	0xbcdcf5c6	-0.026972663
187	0xbd14ffae	-0.036376648
188	0x3cbc2e60	0.022971332
189	0xbcf0497a	-0.029331911
190	0x3cf3d7dd	0.029766018
191	0x3c8c4651	0.017123373
192	0xbc9981ee	-0.018738713
193	0x3c80a9a0	0.015705884
194	0x3c91800e	0.017761257
195	0x3b3dda27	0.002896914
196	0xbc92e2e8	-0.017930463
197	0xbc971ed2	-0.018447313
198	0x3c66cc97	0.014086864
199	0xbc7c381a	-0.015394235
200	0x3c0cfb88	0.008604892
201	0xbd1714b1	-0.036884967
202	0xbd13ae8d	-0.036055136
203	0xbd416e03	-0.047224056
204	0x3d1b8542	0.03796888
205	0xbd1870a0	-0.037216783
206	0xbc3ed66b	-0.011647801
207	0xbd307258	-0.043077797
208	0xbc6c013a	-0.014404589
209	0x3bd5ec2c	0.006528398
210	0x3c9bde2f	0.019026844
211	0x3d0de8fe	0.034646027
212	0x3b24d20f	0.0025149619
213	0x3d2d333a	0.04228518
214	0xbd058cc1	-0.032604937
215	0xbcabf629	-0.020991402
216	0x3cdc87d0	0.02692023
217	0x3c0a8085	0.008453493
218	0x3d30ec54	0.04319413
219	0x3ca36dbf	0.019949792
220	0x3c91c33d	0.017793292
221	0x3d30bdb1	0.043149654
222	0xbb650a08	-0.0034948606
223	0x3c85e8f8	0.01634644
224	0xbd242950	-0.04007846
225	0x3d3e3e83	0.046446335
226	0x3cc7ec6f	0.024404733
227	0x3b24f0f5	0.0025168036
228	0xbd1e66b6	-0.03867217
229	0xbb719b9f	-0.003686644
230	0x3d01da89	0.031702552
231	0xbcda7bc9	-0.026670353
232	0x3d0fd617	0.03511628
233	0x3d4b3b82	0.049617298
234	0xbcb8094b	-0.022465369
235	0xbd00b54b	-0.031422894
236	0x3b9c6b45	0.0047735297
237	0xbcb9b43e	-0.022668954
238	0xbc4d8f6e	-0.012546403
239	0x3d4b7482	0.049671657
240	0xbd55a92f	-0.0521633
241	0xbd32d987	-0.04366448
242	0x3c5033f2	0.012707697
243	0xbcf5641c	-0.029954962
244	0xbc6b43f2	-0.014359461
245	0x3d1722f4	0.03689857
246	0x3c980009	0.018554704
247	0xbc59ebdc	-0.013300862
248	0xbc74c772	-0.01494013
249	0xbce062c2	-0.027390841
250	0xbcf0e69f	-0.029406844
251	0x3d710e8c	0.058851764
252	0x3ca27065	0.019828985
253	0x3d1cec4e	0.038311295
254	0xbd299897	-0.041405287
255	0xbc998efa	-0.018744934

fc1.bias f4 [120]
0	0xbd1deaff	-0.038554188
1	0x3daf0fa4	0.08547905
2	0x3da7053c	0.08155295
3	0xbc4ea5a6	-0.012612736
4	0xbd3a2849	-0.045448575
5	0x3c284903	0.010271314
6	0xbcbac7c3	-0.022800332
7	0x3cbae8ce	0.022816088
8	0x3cd82e7e	0.026389357
9	0x3d212ca6	0.03934922
10	0xbcce6031	-0.025192352
11	0x3d84eeb4	0.064908415
12	0x3c1ee5ee	0.009698374
13	0xbc555217	-0.01302006
14	0xbd81c2a9	-0.063359566
15	0x3c06cb4f	0.0082271835
16	0x3d494838	0.04914114
17	0x3bde3416	0.0067811115
18	0x3d0cca9d	0.034372915
19	0x3d5e4abc	0.05427049
20	0xbba62d58	-0.0050713234
21	0x3c99f991	0.01879576
22	0x3c97d3e5	0.018533656
23	0xbd2bc4d5	-0.04193576
24	0xbc765272	-0.015034305
25	0x3d1bd93d	0.03804897
26	0xbc7b6f34	-0.015346337
27	0xbc34f618	-0.011045001
28	0xbd3c0bfb	-0.045909863
29	0xbd7395a4	-0.05946888
30	0x3bd74aa2	0.006570176
31	0xbb8fdb45	-0.0043901526
32	0xbccddadb	-0.025128772
33	0x3a85d7e5	0.0010211436
34	0xbccb9769	-0.024852471
35	0x3db285fc	0.08716962
36	0xbcedb481	-0.029016735
37	0xbd46b04c	-0.048507974
38	0x3ac2247f	0.0014811902
39	0x3ce54d39	0.027990924
40	0xbcd62d7a	-0.026144732
41	0xbd22c5e7	-0.039739516
42	0x3d2bae9c	0.041914567
43	0xbd409029	-0.04701248
44	0x3c98351c	0.018580012
45	0xbc11a135	-0.008888532
46	0x3d3fbb26	0.046809338
47	0x3c1ac37c	0.009446021
48	0xbd3ee705	-0.046607036
49	0xbce9a63e	-0.028521653
50	0xbd407121	-0.046982888
51	0x3cf70c78	0.030157313
52	0xbd5d6d6c	-0.05405943
53	0x3ba84ab0	0.0051358566
54	0x3d2a0695	0.041510183
55	0x3c5c4c5d	0.013445941
56	0xbd486020	-0.048919797
57	0xbb1511ed	-0.002274628
58	0xba572d2f	-0.0008208332
59	0xbd31c2df	-0.043398734
60	0xbd74f1bc	-0.05980085
61	0x3ce74365	0.028230378
62	0xbca9e30f	-0.020738153
63	0xbd9bc8b1	-0.07606638
64	0xbcd40ff8	-0.02588652
65	0xbcb1b58f	-0.02169302
66	0xbcb78466	-0.022402
67	0xbabb957b	-0.0014311516
68	0xbbdc48c9	-0.006722544
69	0x3d3c27a9	0.04593626
70	0xbcdeb526	-0.027185988
71	0x3c71f02a	0.014766732
72	0x3caf4a79	0.021397816
73	0x3d2b4a6d	0.041819025
74	0x3d09d42b	0.033649605
75	0xbc01416a	-0.007889131
76	0x3bc17ba2	0.0059046308
77	0x3c08f1ad	0.008358401
78	0x3d98f58f	0.074687116
79	0xbc8e82d5	-0.01739637
80	0x3c2a8211	0.010406987
81	0x3c42e384	0.011895064
82	0x3d1d45b1	0.03839654
83	0xbbb73abf	-0.00559172
84	0xbd1ee6b0	-0.03879422
85	0xbbfcbefd	-0.0077131973
86	0xbc8654bc	-0.016397826
87	0xbd800967	-0.06251793
88	0x3c58a021	0.013221771
89	0xbbce9d61	-0.006305382
90	0x3d34b7dd	0.04412066
91	0x3cb3a597	0.021929545
92	0x3ba10031	0.004913353
93	0x3d1d3463	0.038380038
94	0x3ca5b1e5	0.020226428
95	0xbd02aadc	-0.031901225
96	0x3d210b5f	0.039317485
97	0x3ce1fc15	0.027586022
98	0x3bbbd8ae	0.0057326173
99	0x3bba8b6a	0.005692889
100	0x3b304e6c	0.0026902212
101	0x3cd847f9	0.026401507
102	0x3d3bcb09	0.045847926
103	0xbc21f226	-0.009884393
104	0xbd644818	-0.055732816
105	0xbc292890	-0.010324612
106	0xbd67b988	-0.05657342
107	0x3bb3414c	0.0054704305
108	0xbd422981	-0.047402862
109	0x3c3a508c	0.011371743
110	0xbc59e263	-0.013298604
111	0xbc6f6f23	-0.014613899
112	0xbd1c32db	-0.038134437
113	0x3d39e268	0.045381933
114	0xbd318466	-0.043339156
115	0xbd09b445	-0.033619184
116	0xbd22a2ba	-0.03970597
117	0x3ca6c798	0.020358846
118	0xbcf124e2	-0.029436532
119	0x3cd8e676	0.02647708

fc2.weight f4 [84, 120]
0	0xbda3a339	-0.079901166
1	0x3dcd59ab	0.100268684
2	0xbce67c7c	-0.02813553
3	0x3ce788a2	0.028263394
4	0xbdbc0c40	-0.09182024
5	0xbc6bb7d5	-0.014387091
6	0x3db2f553	0.08738198
7	0x3d306e9a	0.043074228
8	0xbd7c6391	-0.06161839
9	0xbd5689f1	-0.052377645
10	0xbdba33f8	-0.090919435
11	0xbcd6f656	-0.026240509
12	0xbc7d6551	-0.01546605
13	0x3dadb81f	0.08482384
14	0x3bf5854f	0.0074926983
15	0xbd686e2c	-0.056745693
16	0xbda4676b	-0.08027538
17	0x3d0aff34	0.033934787
18	0x3dd50662	0.10401608
19	0x3d5a0303	0.05322553
20	0xbd6171a3	-0.055040013
21	0x3dbc7a38	0.09202999
22	0xbd798874	-0.060921147
23	0xbc0ae52f	-0.008477493
24	0x3d40f319	0.047106836
25	0xbd15417b	-0.0364394
26	0x3d836856	0.06416385
27	0x3dc8a23b	0.09796568
28	0x3da38c32	0.079857245
29	0x3ca2f627	0.019892765
30	0x3d6fd958	0.058556885
31	0x3dc9afab	0.09847959
32	0xbbbdc625	-0.005791443
33	0x3dded7b5	0.108809866
34	0x3cce6baa	0.025197823
35	0x3d5b266d	0.053503443
36	0x3d81187b	0.063034974
37	0x3c24a1e3	0.010048362
38	0xbd286e03	-0.04112054
39	0x3dbc37d6	0.09190337
40	0x3d7f82e0	0.06238067
41	0x3dd02964	0.10164145
42	0xbd2fa2b1	-0.042879764
43	0xbc10abee	-0.008830054
44	0x3dcd2e9f	0.10018658
45	0xbc8bc2bc	-0.01706063
46	0x3db01e94	0.08599582
47	0xbd3fba15	-0.04680832
48	0xbd19ba1d	-0.037531007
49	0xbd82c8b6	-0.06385939
50	0xbd866716	-0.06562631
51	0x3cecfc2c	0.028928839
52	0x3b241431	0.002503645
53	0x3bd8942a	0.0066094594
54	0x3d08d348	0.03340462
55	0x3bf4c3d0	0.0074696317
56	0x3c908906	0.017643463
57	0xbd93afae	-0.072112426
58	0x3d61edee	0.055158548
59	0xbceadec9	-0.028670685
60	0x3d1d68ff	0.03843021
61	0x3dda6ec9	0.10665662
62	0xbca8555e	-0.020548519
63	0x3d2858fb	0.041100483
64	0xbd9c181b	-0.07621785
65	0xbd450a07	-0.048105266
66	0xbda0cdc7	-0.07851749
67	0x39c03675	0.00036661667
68	0xbd9a9acf	-0.07549059
69	0x3dc280cc	0.09497222
70	0xbd203947	-0.039117124
71	0xbd2a23cb	-0.04153804
72	0x3bc1ac2c	0.005910417
73	0xbd330b80	-0.04371214
74	0xbda34b8c	-0.07973394
75	0x3d20cc35	0.039257247
76	0xbd0b94e9	-0.03407756
77	0xbc86db58	-0.016462013
78	0x3d324090	0.043518603
79	0x397b4250	0.00023961929
80	0x3c8fef12	0.017570052
81	0x3dbc5a8c	0.09196958
82	0x3b2f1b07	0.002671899
83	0x3d80061b	0.062511645
84	0xbd02b7ba	-0.031913497
85	0x3d0b22e9	0.03396884
86	0x3dbfa213	0.09357085
87	0xbd43f12c	-0.04783742
88	0xbd7b08c5	-0.06128766
89	0xbcc85450	-0.024454266
90	0x3d7b8ec6	0.061415456
91	0xbd5e15fd	-0.05422019
92	0xbcdca26e	-0.026932921
93	0x3d037954	0.03209813
94	0xbd1c74c0	-0.03819728
95	0x3d6eec5f	0.05833089
96	0x3d9ed738	0.077558935
97	0xbda2940e	-0.079383954
98	0x3d01e488	0.031712085
99	0xbd9b5a9d	-0.075856425
100	0xbd3b96e3	-0.045798194
101	0x3d8cd718	0.068769634
102	0x3cd7242c	0.026262365
103	0x3c1a0584	0.009400729
104	0xbbe20e44	-0.0068986733
105	0xbd1c0f0d	-0.03810029
106	0xbd82393b	-0.06358572
107	0x3cd0f472	0.025507186
108	0x3c3a7f7d	0.011382935
109	0x3d758494	0.05994089
110	0xbd8f206a	-0.06988604
111	0x3d8c4ebe	0.068509564
112	0x3a94cc8e	0.0011352466
113	0x3d540d2a	0.051770367
114	0x3dd15420	0.10221124
115	0xbd2eba57	-0.042658176
116	0x3c6b8d73	0.014376986
117	0xbda809e7	-0.08205014
118	0xbcbabeba	-0.022796024
119	0xbbf4aeee	-0.0074671423
120	0x3c3ce4ab	0.011529128
121	0x3d88f46e	0.06687246
122	0x3e0bfb99	0.13670196
123	0xbcfdbf14	-0.030974902
124	0x3d7a48e3	0.061104666
125	0x3d7c0db8	0.06153652
126	0xbd544e51	-0.0518325
127	0x3d3ee105	0.046601314
128	0xbd076fc4	-0.033065572
129	0xbdb8375c	-0.08994934
130	0x3db97105	0.0905476
131	0xbd9155c6	-0.07096438
132	0x3dbc69bc	0.09199855
133	0xbd8187fc	-0.06324765
134	0xbc722dbb	-0.014781411
135	0xbde66cbc	-0.11251208
136	0x3cfc3d0f	0.030790834
137	0xbd3ebb2d	-0.046565223
138	0x3daaf81e	0.08348106
139	0xbd1eb31c	-0.03874503
140	0xbd10277e	-0.035193913
141	0xbda8a816	-0.08235185
142	0xbd91de1d	-0.07122443
143	0xbd110650	-0.03540641
144	0x3d3843ea	0.044986643
145	0x3ddcf7f6	0.10789482
146	0x3b8ecd58	0.004357975
147	0x3e2f49db	0.17118017
148	0x3c8acafb	0.016942492
149	0x3cda326c	0.026635371
150	0xbd123db0	-0.03570336
151	0x3dd51c6c	0.10405812
152	0xbdbd7523	-0.09250858
153	0x3d8ef303	0.069799446
154	0xbcce8ac0	-0.025212646
155	0x3c8c5434	0.017129995
156	0xbdab3ffc	-0.083618134
157	0xbc27c6e4	-0.01024029
158	0x3d1fbbf6	0.038997613
159	0xbc4a6238	-0.012352519
160	0x3d0157f3	0.031578016
161	0xbd975c67	-0.07390671
162	0xbcc33280	-0.023827791
163	0xbc92e051	-0.017929228
164	0x3cb2f6c9	0.021846192
165	0xbd84f5fb	-0.064922296
166	0xbcd0918d	-0.025460029
167	0xbcbdc74f	-0.023166327
168	0x3d7981e0	0.060914874
169	0xbcecb094	-0.028892793
170	0x3d9f8eac	0.077908844
171	0xbd6b151d	-0.057393182
172	0x3dd714e6	0.10502033
173	0xbb37ef9d	-0.0028066405
174	0x3df81f84	0.12115386
175	0x3d4e59f0	0.05037874
176	0x3d4a2a14	0.049356535
177	0xbdb9dc96	-0.090752766
178	0xbdc25fd4	-0.09490934
179	0x3d87c91a	0.06630154
180	0xbd9ac4fa	-0.075571015
181	0xbb26cbf6	-0.002545116
182	0xbd85241d	-0.06501029
183	0xbd1747c3	-0.03693367
184	0x3d48d1a1	0.049028043
185	0xbde260e5	-0.110536374
186	0xbca165f2	-0.019701932
187	0xbca5c3c5	-0.020234952
188	0x3de98f13	0.11404242
189	0xbb8c5b81	-0.004283369
190	0xbcf81efc	-0.030288212
191	0x3e0c913f	0.13727282
192	0xba36cf1f	-0.00069736125
193	0x3dbec6ae	0.09315239
194	0x3c29636b	0.0103386445
195	0x3d655189	0.05598596
196	0xbe37bad3	-0.17942362
197	0x3e2d9b62	0.16953805
198	0xbcc60ae2	-0.024175111
199	0x3e0ac4c6	0.13551626
200	0xbd1fa314	-0.038973883
201	0x3dd2cd94	0.10293117
202	0x3d1215f7	0.03566548
203	0x3c062b90	0.008189097
204	0xbd9ccaf9	-0.076559015
205	0xbc7978bf	-0.015226542
206	0xbbce78c0	-0.0063010156
207	0xbe3a27b9	-0.18179215
208	0xbda8ef49	-0.08248765
209	0xbd8382f4	-0.06421462
210	0xbdd3cd52	-0.10341896
211	0xbda1c074	-0.07898036
212	0x3c49340c	0.012280475
213	0xbda9d155	-0.0829188
214	0x3bf3df7d	0.0074424134
215	0xbd9cb663	-0.07651975
216	0x3dd01163	0.10159566
217	0x3d9bad51	0.07601417
218	0xbb946011	-0.0045280536
219	0xbd9c06a0	-0.07618451
220	0xbda871e9	-0.08224852
221	0x3c84d5f3	0.0162153
222	0x3e11e7ff	0.14248656
223	0xbc9f78f7	-0.01946686
224	0xbdad7a13	-0.084705494
225	0x3dd2f4de	0.10300611
226	0xbd231eec	-0.03982441
227	0xbd68c2e3	-0.056826483
228	0xbd70d313	-0.058795046
229	0x3c272c74	0.01020347
230	0x3dc1a211	0.0945474
231	0xbd324b8b	-0.043529075
232	0x3cee3892	0.02907971
233	0x3c5e52c6	0.013569539
234	0x3d674973	0.05646653
235	0xbdb1e282	-0.08685781
236	0x3d949685	0.07255272
237	0xbb9661ff	-0.0045893188
238	0xbda0e768	-0.07856637
239	0xbbe3e723	-0.006955044
240	0xbd9bf4d1	-0.076150544
241	0x3d0752ce	0.033037953
242	0x3d21b0a7	0.03947511
243	0xbc3fefd7	-0.011714897
244	0xb727e600	-1.0007527e-05
245	0x3cced62a	0.025248606
246	0xbd359996	-0.044335924
247	0xbd53ce21	-0.05171025
248	0x3db06893	0.08613696
249	0x3cfbeafd	0.0307517
250	0xbc918448	-0.017763272
251	0x3d8040ea	0.062623814
252	0xbd10f3d5	-0.035388786
253	0x3d19a1bf	0.03750777
254	0x3d50e25e	0.05099713
255	0x3d205cdd	0.03915106

fc2.bias f4 [84]
0	0x3dde568d	0.10856352
1	0x3c05293d	0.008127508
2	0xbd889d29	-0.06670601
3	0xbd991c0b	-0.07476052
4	0xbabeb417	-0.001454952
5	0x3c42bc50	0.0118857175
6	0x3e15e133	0.14636688
7	0x3d0c3007	0.03422549
8	0xbcdc0428	-0.02685745
9	0xbd1c037d	-0.038089264
10	0x3d51c55b	0.051213603
11	0xbdb778f3	-0.08958616
12	0xbd07bfc8	-0.03314188
13	0x3d6424e6	0.05569925
14	0x3dadb379	0.08481497
15	0xbd1e943a	-0.03871558
16	0xbd622bef	-0.05521768
17	0x3c3455e9	0.011006811
18	0xbd8dd692	-0.06925692
19	0xbc3ec34c	-0.011643242
20	0x3d9d1eb5	0.076718725
21	0x3dc35c88	0.09539133
22	0x3d0108a4	0.03150238
23	0x3d224f3c	0.039626345
24	0x3cb2ce2a	0.021826822
25	0x3d443924	0.047906056
26	0xbcaa7c2a	-0.02081116
27	0xbd29f906	-0.041497253
28	0x3d3f178f	0.046653327
29	0x3d337160	0.043809295
30	0x3c55cedf	0.01304981
31	0x3d675232	0.056474872
32	0x3c8b2547	0.016985549
33	0xbd411295	-0.04713686
34	0xbd8f10ab	-0.06985601
35	0x3e0ecabb	0.13944523
36	0x3d9e08a5	0.077164926
37	0x3d732ac1	0.059366945
38	0xbcfcd1c0	-0.030861735
39	0xba43391e	-0.0007447171
40	0x39642bd6	0.00021760105
41	0xbca791d7	-0.020455284
42	0x3d77925c	0.060442314
43	0xbdd201f6	-0.1025428
44	0xbd918515	-0.071054615
45	0x3d4c50f6	0.049881898
46	0x3db93af9	0.09044451
47	0xbb94e4a9	-0.00454386
48	0x3dabd653	0.083904885
49	0xbc9780a9	-0.018493967
50	0x3c814899	0.015781688
51	0x3d9b12d9	0.07571954
52	0x3d8072c6	0.06271891
53	0x3d2ada98	0.041712373
54	0x3d9f830a	0.077886656
55	0xbd8df0f9	-0.069307275
56	0x3bba643b	0.005688218
57	0x3dd3d46b	0.1034325
58	0xbd94f6cd	-0.07273636
59	0x3d1382a5	0.036013264
60	0x3de2656d	0.11054502
61	0xbd6e649c	-0.058201417
62	0x3df84fd3	0.121246
63	0x3d382fb1	0.044967357
64	0xbc75ea5c	-0.015009489
65	0xbd482146	-0.048859857
66	0xbdc978fd	-0.0983753
67	0x3e03c75e	0.12869021
68	0xbde14b23	-0.11000659
69	0xbd186fd4	-0.037216023
70	0xbd5f9705	-0.054587383
71	0x3ce73b0a	0.028226394
72	0x3e3ccff1	0.18438698
73	0x3dd09ccd	0.101861574
74	0xbd4dc7ae	-0.050239258
75	0xbe1abbe0	-0.15110731
76	0xbdb8d687	-0.09025293
77	0x3d8c26e1	0.06843353
78	0x3db0228a	0.08600338
79	0x3cb83503	0.022486215
80	0xbd8f3999	-0.06993408
81	0x3d89fbc4	0.067374736
82	0x3d91e432	0.07123603
83	0x3e0f7687	0.14010058

fc3.weight f4 [10, 84]
0	0xbe222422	-0.15834096
1	0xbe1666b7	-0.1468762
2	0xbd588575	-0.05286165
3	0x3de11ffd	0.109924294
4	0x3d364ed8	0.044508785
5	0xbd2eb824	-0.04265608
6	0xbdd9eacd	-0.10640488
7	0x3d289f8b	0.041167777
8	0x3da64472	0.08118524
9	0x3cd58da7	0.026068522
10	0xbd1d9577	-0.03847262
11	0xbad0504b	-0.001589307
12	0xbe3289ec	-0.17435426
13	0x3ea5ef05	0.3240892
14	0x3d5d1751	0.053977314
15	0x3dc5ffd4	0.09667936
16	0x3dd7ab67	0.10530739
17	0xbd2df91f	-0.04247391
18	0xbdda8421	-0.10669733
19	0x3e54bb4f	0.20774578
20	0xbce518b1	-0.027965875
21	0xbe269e1b	-0.1627125
22	0x3d903ea6	0.07043199
23	0xbd158922	-0.036507733
24	0x3e4f012c	0.20215291
25	0xbda428ed	-0.080156185
26	0xbdce3ecf	-0.100705735
27	0xbc6e082e	-0.014528317
28	0xbd9f6dd8	-0.07784623
29	0x3d4527e0	0.04813373
30	0xbbac764f	-0.005263127
31	0xbca4ed4e	-0.020132687
32	0x3e9d635b	0.30739865
33	0x3e79a545	0.24379452
34	0xbd1f03b2	-0.038821883
35	0xbe8c6edd	-0.27428332
36	0x3db5c2a3	0.08875015
37	0x3e109470	0.14119124
38	0xbd2ec31c	-0.04266654
39	0xbd2c7826	-0.04210677
40	0x39957b34	0.00028511288
41	0x3dcb3237	0.09921687
42	0xbd1cce7e	-0.038282864
43	0xbd288320	-0.041140676
44	0x3e7dae9c	0.2477364
45	0xbda6ca59	-0.081440635
46	0xbe3c35cf	-0.18379901
47	0xbdc94451	-0.098274834
48	0xbe102b19	-0.1407894
49	0x3e0ed1cf	0.13947223
50	0xbe30f462	-0.17280725
51	0xbe102c7a	-0.14079466
52	0x3e85e3f2	0.2615047
53	0xbd879bc7	-0.06621509
54	0xbe1ada2f	-0.15122293
55	0x3affa237	0.00195033
56	0x3ea0ad0d	0.31382027
57	0xbe0a89aa	-0.13529077
58	0xbdd752b9	-0.10513825
59	0x3e6980f9	0.22803105
60	0xbd6fdff4	-0.058563188
61	0xbe333d16	-0.17503771
62	0xbe493c4b	-0.19651906
63	0x3d6afc78	0.05736968
64	0x3cce38a8	0.0251735
65	0x3bf8c36b	0.007591655
66	0x3ddf39a8	0.10899669
67	0xbe48fa4c	-0.1962673
68	0xbca93985	-0.02065731
69	0xbcb71f3e	-0.022353765
70	0x3d1b52d1	0.037920777
71	0xbdb03270	-0.0860337
72	0xbe839d9e	-0.2570619
73	0xbdd13327	-0.10214835
74	0x3e0cf503	0.1376534
75	0xbc6b300f	-0.01435472
76	0xbb89b3d8	-0.0042023472
77	0xbde26e45	-0.110561885
78	0xbd3b243e	-0.04568886
79	0xbd43919a	-0.04774628
80	0x3d8c5634	0.068523794
81	0xbd696637	-0.056982245
82	0xbe7ffafc	-0.24998087
83	0xbebb6445	-0.36599937
84	0x3e445fcd	0.1917717
85	0x3e4a4636	0.19753346
86	0x3d5f76d0	0.054556668
87	0x3d99afbf	0.07504224
88	0x3cf664c7	0.030077351
89	0xbc74ca08	-0.014940746
90	0xb9ac18b8	-0.00032824813
91	0x3bc58ab5	0.006028498
92	0xbd95eead	-0.073209144
93	0x3ceb9de1	0.028761806
94	0x3e4bafe0	0.1989131
95	0xbca8af26	-0.02059133
96	0x3db7b912	0.08970846
97	0x3d4ef82a	0.050529636
98	0xbd937f25	-0.07201985
99	0x3e1b8247	0.15186416
100	0x3bdd1834	0.00674727
101	0xbe61f76a	-0.22067037
102	0x3cf0b4e7	0.029383136
103	0x3e44d47a	0.19221678
104	0x3e80724a	0.25087196
105	0xbe273c64	-0.16331631
106	0x3dc6e7f0	0.09712207
107	0x3e964bfb	0.29354843
108	0xbdf07c7f	-0.11742496
109	0xbdd70b33	-0.10500183
110	0xbd132ab9	-0.035929415
111	0xbcf83d77	-0.030302746
112	0xbe23d82b	-0.1600043
113	0x3cf191c2	0.029488448
114	0x3d786ebc	0.06065248
115	0x3daab03c	0.08334395
116	0xbd36a41c	-0.0445901
117	0xbd89b96a	-0.06724818
118	0xbd5175c9	-0.05113772
119	0xbe1c656e	-0.15273067
120	0x3df44892	0.11927904
121	0xbd320e12	-0.04347045
122	0xbb90339d	-0.004400684
123	0x3d6ab656	0.057302795
124	0xbcf83b55	-0.03030173
125	0x3dd52b1a	0.104086116
126	0x3ca32e77	0.019919617
127	0xbe0daf3c	-0.13836378
128	0xbe35d349	-0.1775638
129	0xbd2808fe	-0.0410242
130	0x3ec1b2d7	0.37831756
131	0x3dd6fd3a	0.10497518
132	0xbe149876	-0.14511284
133	0x3e5c9df6	0.21544632
134	0xbd537300	-0.051623344
135	0x3d9b80b5	0.07592908
136	0x3d6d9b0d	0.058009196
137	0x3e3e27e5	0.18569906
138	0x3e8734e8	0.26407552
139	0x3d72a8d0	0.059243023
140	0xbdb034b0	-0.08603799
141	0xbd7eb94b	-0.062188428
142	0xbe0cff2c	-0.13769215
143	0xbdf0e289	-0.11761958
144	0xbd86ad8f	-0.065760724
145	0x3e3326d7	0.17495285
146	0x3dc5ef50	0.09664786
147	0xbdee0cce	-0.11623536
148	0xbdaeaf18	-0.0852949
149	0x3d4ba0d2	0.049713917
150	0xbe786b95	-0.2425979
151	0xbe9b928e	-0.3038525
152	0xbd36f734	-0.044669345
153	0xbc9dbc86	-0.019254934
154	0x3c41fed6	0.011840543
155	0xbd9061e1	-0.07049919
156	0x3e103779	0.14083661
157	0x3e92ffb3	0.28710708
158	0xbd06ec88	-0.032940418
159	0xbde9f8f1	-0.11424435
160	0x3d652238	0.055940837
161	0xbe35702a	-0.17718568
162	0xbd9c048e	-0.07618056
163	0x3dfe03de	0.12403081
164	0xbce71b99	-0.028211402
165	0x3dd6c995	0.104876675
166	0x3e640674	0.22268087
167	0xbd27f4a0	-0.041004777
168	0x3d1371df	0.035997268
169	0xbd9e274f	-0.07722341
170	0x3d695c42	0.05697275
171	0x3e059d69	0.13048328
172	0x3d898737	0.06715243
173	0xbb536ae9	-0.0032259768
174	0xbd0cab1a	-0.034342863
175	0x3dd142a6	0.1021779
176	0x3d753b09	0.059870753
177	0xbc907e1f	-0.017638264
178	0xbddefcbd	-0.1088805
179	0x3d869d20	0.06572938
180	0x3d20ad4c	0.03922777
181	0xbd8c693c	-0.06856009
182	0x3d997ec3	0.07494881
183	0x3dd997d5	0.10624663
184	0xbcc0270b	-0.023456117
185	0x3dbebd28	0.093134224
186	0x3da42737	0.08015292
187	0xbd539669	-0.051657114
188	0xbd12189f	-0.03566801
189	0x3d5b9d08	0.053616554
190	0x3d74fced	0.05981152
191	0xbd7123b3	-0.058871936
192	0xbc119d08	-0.008887537
193	0xbdae5f43	-0.085142635
194	0x3d1cb5f5	0.038259465
195	0xbdd1db52	-0.1024691
196	0xbd849351	-0.06473411
197	0xbd84c924	-0.06483677
198	0x3dbd18b2	0.09233226
199	0xbba8141c	-0.0051293503
200	0xbc6ad5ef	-0.014333232
201	0xbe0bb125	-0.13641794
202	0x3d2547ae	0.040351562
203	0x3dc95f73	0.098326586
204	0x3cf6a96c	0.030110084
205	0xbda8eb74	-0.08248034
206	0xbd529741	-0.05141378
207	0xbd0c0f02	-0.034194
208	0xbd24dedd	-0.0402516
209	0xbda6ba74	-0.08141032
210	0xbde11a6a	-0.10991366
211	0xbcbcfadd	-0.02306884
212	0x3d385d45	0.045010824
213	0xbd3e55b4	-0.04646845
214	0x3d8a0e5a	0.067410186
215	0xbd85a905	-0.065263785
216	0xbda034f7	-0.07822602
217	0xbd3adf14	-0.0456229
218	0x3d8c620e	0.0685464
219	0xbd3d341c	-0.046192273
220	0x3d80c164	0.06286886
221	0x3db411fa	0.08792491
222	0x3dbf0ecc	0.09328994
223	0x3d79dd7c	0.06100224
224	0xbd16dec5	-0.036833543
225	0xbdd17089	-0.102265425
226	0xbdaeb5e0	-0.08530784
227	0x3db33bf5	0.0875167
228	0xbc83c78f	-0.016086368
229	0x3d914c8a	0.07094677
230	0xbdecfae7	-0.11571293
231	0xbcec647a	-0.028856505
232	0xbd4c8e38	-0.049940318
233	0x3ca78294	0.020448007
234	0xbcbaa5e3	-0.02278418
235	0x3d976de3	0.07394006
236	0xbdd62111	-0.10455526
237	0x3dd35c5f	0.10320353
238	0xbd8af90b	-0.067857824
239	0x3c5bedbf	0.013423382
240	0x3d890ec5	0.0669227
241	0xbd0860ba	-0.03329537
242	0xbd6d890c	-0.057992026
243	0x3e1d64b9	0.15370454
244	0xbcd3efcc	-0.02587118
245	0xbdb3b060	-0.08773875
246	0x3d32747e	0.043568127
247	0x3dbdf2c2	0.09274818
248	0xbda11fc8	-0.0786739
249	0xbd2e0159	-0.042481754
250	0x3df8f65d	0.12156365
251	0xbc99db5f	-0.018781362
252	0xbd9b3828	-0.0757907
253	0xbdb5ceae	-0.08877312
254	0xbdd84f54	-0.10562006
255	0xbd21f034	-0.039535716

fc3.bias f4 [10]
0	0xbe078796	-0.13235316
1	0x3d0db5b8	0.03459713
2	0x3d4329e7	0.047647383
3	0x3df7f621	0.12107492
4	0x3d3efbe4	0.04662694
5	0xbda365da	-0.07978411
6	0x3dca2178	0.09869665
7	0xbdc51584	-0.096232444
8	0x3dc92b10	0.09822667
9	0x3dd67b20	0.10472703
