round1/2025-04-18 17:29:35-weight-client-c0b69bf3-4.pth (torch, 252478 bytes, 10 tensors)

conv1.weight f4 [6, 3, 5, 5]
000000 64 a0 e8 bd 26 da 59 be 23 70 1d 3d af ad 58 3e
       -0.11358717 -0.21274623 0.03843702 0.21160005
000010 af 88 f5 3d 5c e6 a0 be 2d 21 35 be d9 b4 05 3e
       0.11988961 -0.3142575 -0.17688437 0.13057269
000020 30 00 98 3e f5 4e 93 3e 82 19 d3 bd f9 83 25 be
       0.29687643 0.28771177 -0.103075996 -0.16163625
000030 0d a4 40 bd 7d 92 3c 3d c3 6c 1f 3e ab 58 95 bd
       -0.04703145 0.04603814 0.15568833 -0.07292303
000040 5b 2c aa bc 4c 91 a8 3c 2d fa b1 3d bb 95 83 3e
       -0.020773103 0.020577095 0.08690295 0.25700173
000050 dd 2f d2 bc 26 2a 58 3b d4 3e 03 be 32 1c 1e 3e
       -0.025657589 0.0032984107 -0.12816936 0.15440443
000060 36 27 70 3e 31 e7 09 be f7 fb 56 be 0b 97 57 bb
       0.23452458 -0.13467099 -0.20994554 -0.0032896425
000070 37 2f 86 3e e3 eb 20 3e 18 7f 2f be 4b 5d 95 bd
       0.26207897 0.15714984 -0.17138326 -0.07293185
000080 25 b2 65 3e 38 4e 88 3e 13 6e dc 3e 58 2f 14 be
       0.22431238 0.26622176 0.4305273 -0.14471185
000090 a0 d6 2f bd 47 a2 62 3e 9a 71 8e 3e 19 36 e3 3e
       -0.04292929 0.22132216 0.27821046 0.4437721
0000a0 0e 6c 96 bd 2a 23 22 3e d7 7f 36 3e ba 00 80 3e
       -0.073448285 0.15833727 0.17822205 0.25000554
0000b0 b1 2a e5 3e be 7c 83 3d d0 67 5c 3e b9 10 fa 3d
       0.44759133 0.06420277 0.21523976 0.12210221
0000c0 71 8e c2 3e ab 94 fc 3e 44 52 0e bf 21 4e 07 bf
       0.379993 0.49332175 -0.5559428 -0.5285359
0000d0 31 42 a0 be aa 14 ad bd 12 81 e9 bd b8 8d 0b bf
       -0.313005 -0.08451207 -0.11401571 -0.5451312
0000e0 11 1d b8 be 70 ec 06 be e6 eb 96 3c a0 25 0f be
       -0.35959676 -0.13176131 0.018423032 -0.13979197
0000f0 7c 14 b6 be f6 7b 96 be da f3 8b be bf c8 3c bd
       -0.35562503 -0.2939145 -0.2733448 -0.046089884
000100 70 a8 be 3c 55 56 d1 be 61 d6 12 be 5c c2 97 be
       0.023273677 -0.4088618 -0.14339592 -0.29640472
000110 68 ee 7c bc 1e cd e0 bd 20 23 36 be f7 67 33 be
       -0.0154377 -0.10976623 -0.17786837 -0.17520128
000120 4e 56 64 be bb aa 02 bc 8f 2c e7 bd c5 4c c1 3d
       -0.22298548 -0.007975276 -0.11287796 0.09438471
000130 1e ea 0a 3a c3 a3 94 3d 5d e8 22 3d e0 4c e7 bd
       0.00052991684 0.072577976 0.03977238 -0.112939596
000140 ef dd fc 3b ad 65 53 3c 8a 55 61 bd 2d a0 1f 3d
       0.0077168862 0.012902659 -0.055013217 0.038971115
000150 a0 28 95 3c cc 2a 5d 3d 0d 66 2c 3d 9d cc 38 3d
       0.018207848 0.053995892 0.04208951 0.04511701
000160 da d7 12 bc f8 59 e3 bd 81 d4 8b 3d 54 6b d7 bd
       -0.008962596 -0.111011446 0.06827641 -0.10518518
000170 30 b8 99 bd b4 79 81 bc 9b ed bd bd cb 2e 2d bd
       -0.07505834 -0.015805103 -0.09273835 -0.042280953
000180 d2 33 db bc c8 5a b7 3d 77 8b a9 bc e4 04 b4 bd
       -0.026758108 0.08952862 -0.020696385 -0.08789995
000190 7f 62 3a 3d 81 b8 5c bc 6c e6 8a bc d8 72 bf bd
       0.04550409 -0.0134717235 -0.016955577 -0.093480766
0001a0 66 1f d4 bd 1c b5 c0 bd 21 d2 b5 bd 48 44 1c bc
       -0.10357551 -0.09409544 -0.088779695 -0.009537764
0001b0 11 27 b9 bd c7 1a 05 3d d0 42 87 bd 76 3b 18 bc
       -0.090406545 0.03249624 -0.0660454 -0.00929152
0001c0 45 49 8a bc 5d de f6 bc 02 ac c4 bd 4b 0b 4c bd
       -0.01688064 -0.030135328 -0.096031204 -0.049815457
0001d0 27 43 0e 3c 84 14 bd 3c ee 72 1a bc 4a 48 89 3c
       0.008683003 0.023081072 -0.009426815 0.016758103
0001e0 2d fd 91 bd b6 ca 4e bd f5 f6 de 3d b3 7e 93 3c
       -0.071283676 -0.05048629 0.10886947 0.01800475
0001f0 6b bc 9e bd e5 ef 4b bd 0e 1c 08 3d 3e 56 82 bd
       -0.077507816 -0.049789328 0.03322988 -0.06364106
000200 da 1b c1 bd a2 40 71 3d 48 55 75 bd 66 35 64 3d
       -0.094291404 0.05889953 -0.059895784 0.055714987
000210 21 17 cb 3d 5f a6 11 3c c0 ec f9 bc 8d e3 0d bd
       0.09916521 0.008889764 -0.030508399 -0.034640837
000220 7b 24 b5 3d ab 54 54 3d b9 11 24 bc 4b c6 a3 bd
       0.08844849 0.05183856 -0.010013991 -0.07996806
000230 7a 42 23 3d c8 0b 87 bd 7c fd 97 bd fa 8d d1 bc
       0.03985832 -0.06594044 -0.07421395 -0.025580395
000240 d9 a0 6c 3d 97 0f 82 bd 08 2b ff bc f7 48 f0 3c
       0.057770584 -0.0635063 -0.031148449 0.029331667
000250 b4 f2 59 3d 98 45 72 3d 4a 4a ab 3b f0 78 1a bd
       0.053209975 0.0591484 0.005227362 -0.03771299
000260 bc 03 3f 3d 81 d4 02 be 52 39 76 3c 8e 30 1f bd
       0.04663442 -0.12776376 0.015028315 -0.038864665
000270 26 9a 8d bd c4 1c 13 3e 32 94 08 be 69 f4 83 bd
       -0.06914167 0.14366442 -0.13337782 -0.06443102
000280 8c 2b ad bd e5 b2 49 3d 0c fe af 3d 2e 8f 3d 3c
       -0.084555715 0.049242873 0.085933775 0.011569781
000290 ef d0 89 bd 8a 5e 17 bd 5f a0 16 3d bd 5b c9 3d
       -0.06729304 -0.036955394 0.036774036 0.09831951
0002a0 11 89 9e 3d 67 14 1d bd e3 49 4e bb 25 54 66 3e
       0.07740987 -0.038349535 -0.0031477145 0.22493036
0002b0 dc 34 06 3e 8e 99 ba 3d f8 30 80 3e 37 aa 70 3e
       0.13106102 0.091113195 0.2503736 0.23502432
0002c0 9b e2 87 3e 68 96 b5 3e 78 77 80 3e ea 39 c9 3e
       0.26540074 0.35466313 0.25091147 0.39301997
0002d0 4d 88 4e 3e 0f 70 8d 3e 43 2b 88 3e bb 67 b5 3e
       0.20169182 0.27624556 0.26595506 0.35430703
0002e0 2d e0 65 3e ba 33 ae 3e 34 5a b3 3e d7 1f f8 3e
       0.22448798 0.3402384 0.35029757 0.48461792
0002f0 6a f9 c1 3e 51 96 a3 3e 74 01 a5 3e 8b 16 d1 3e
       0.378856 0.3195062 0.3222767 0.4083751
000300 71 e0 a6 3e b6 9a 90 3e 05 6e 9a 3e 96 6f 63 3e
       0.3259311 0.28243035 0.30162063 0.22210535
000310 ec de e6 3e 3b 7a 32 3e 2d a5 62 3e 3c 53 de 3e
       0.4509195 0.1742944 0.22133322 0.43422878
000320 55 ec 9c be 1d 71 79 be 14 46 4c be a5 49 ac be
       -0.30649057 -0.24359556 -0.19948608 -0.33649936
000330 59 5d 66 be 14 af 24 be ff 68 a2 be 9a a2 5b bd
       -0.22496547 -0.16082412 -0.3172073 -0.053621866
000340 67 43 3e be 24 14 53 be 0d 77 a0 be f1 0a 13 be
       -0.185804 -0.20613152 -0.3134083 -0.14359643
000350 8d a8 3d be a1 ed 62 be ca f2 b8 be e3 db ac be
       -0.18521328 -0.2216096 -0.36122733 -0.3376151
000360 dc f5 55 be 83 2c a7 be 4f 9d 28 be 72 cd 26 be
       -0.20894569 -0.32651147 -0.16466258 -0.16289309
000370 dd 52 7c be 64 68 ff bd 16 90 a9 be a9 cf 99 be
       -0.24640985 -0.12471083 -0.3311774 -0.30041245
000380 f2 5e cd bd da fd a6 be 8b 98 75 be 5d 38 bb be
       -0.10027875 -0.32615548 -0.23983972 -0.3656644
000390 8f 8a b6 be 35 ec 8a be dd 72 24 be e1 9b 1b be
       -0.35652587 -0.27133337 -0.16059442 -0.15196182
0003a0 f4 d3 0b be cd 5f 0a be f2 cd 53 be 30 df 9e bd
       -0.13655072 -0.13513108 -0.2068403 -0.077574134
0003b0 3b e1 49 3b 45 86 c8 bc 68 f5 57 bd ef ac 10 be
       0.0030804414 -0.024478087 -0.052724272 -0.14128469
0003c0 aa 3f e2 3d b4 f3 73 3d cd 5c 87 3d c8 c6 13 3e
       0.11047299 0.059558585 0.06609497 0.14431298
0003d0 7b 09 df 3d 54 11 57 3d 6a de 30 3e 8f da 1c 3e
       0.1089048 0.05250676 0.17272344 0.15317748
0003e0 1d d8 30 3e e4 7a 3a 3e 2a da 11 be d1 e9 f5 bd
       0.1726994 0.18210942 -0.14243379 -0.120074876
0003f0 4f 7b 71 3d bf 82 9e 3d e8 ef 7e bc 88 43 77 3d
       0.058955487 0.077397816 -0.015560128 0.060367137

conv1.bias f4 [6]
000000 0e 0f fb 3e 4f 30 78 bd ea 55 61 be 3c d0 98 bf
       0.49034923 -0.060592946 -0.2200543 -1.1938548
000010 ea 7f a9 3d 99 bc a6 bd
       0.08276351 -0.08141441

conv2.weight f4 [16, 6, 5, 5]
000000 11 d9 27 be 70 0c 9e bd 20 8b 47 be 04 e9 ce bd
       -0.16391398 -0.07717216 -0.19486666 -0.10103038
000010 9d 13 66 be ff 0b 0d be a8 8a 96 bd da c1 37 be
       -0.2246842 -0.13774107 -0.07350665 -0.17945042
000020 c2 03 69 be cd 7b 6b be 90 4a 3b be 86 74 ca bd
       -0.2275534 -0.22996445 -0.18290162 -0.09885506
000030 42 9a f8 bd f7 e6 42 be ff 50 50 be 46 23 99 bd
       -0.12138797 -0.19033419 -0.20343398 -0.07477431
000040 97 35 31 be b7 4d 27 be be 56 2c be 32 c0 d8 bd
       -0.17305599 -0.1633824 -0.16829965 -0.10583533
000050 23 20 c5 3c 51 6b fa bc fd e3 e6 bd 4c 53 e3 bd
       0.024063176 -0.03056875 -0.11273954 -0.11099872
000060 47 c2 bf bd db 55 52 3d 02 3d a2 bd 41 0c a5 3d
       -0.09363227 0.05135141 -0.079217926 0.08058978
000070 8d 94 2d bd 4e c5 77 bd 2e f1 4c bd 59 8f 5a bd
       -0.042377997 -0.0604909 -0.050034694 -0.053359363
000080 07 3a 84 bd 45 22 35 bd 31 66 68 3c 49 f0 95 bd
       -0.0645638 -0.044222135 0.014184521 -0.073212214
000090 81 f0 27 3d 5f 99 0d 3d 1a cb a7 3c b7 b4 0c bd
       0.041000847 0.034570094 0.020482589 -0.03435203
0000a0 25 ca ff b9 db b7 4f bc f6 93 01 3d bc 8d 8e 3d
       -0.00048788 -0.012678112 0.031635247 0.069606274
0000b0 07 ce f2 3b 55 5b f4 bb a1 15 2c 3c 00 a4 df bc
       0.0074098143 -0.0074571767 0.010503204 -0.027299881
0000c0 3a d3 7b bb f1 ab 00 bd 53 4d ea 3c d6 7d 68 3c
       -0.0038425461 -0.031413976 0.028601324 0.014190158
0000d0 14 51 4f 3c bf 51 1b bd 23 ea 99 bd 53 86 31 bd
       0.012653608 -0.037919756 -0.07515361 -0.043340992
0000e0 4e ca 23 3d 0f 98 a9 bd 23 58 de bd f0 0b 45 bd
       0.039987855 -0.08280956 -0.108566545 -0.048107088
0000f0 89 da 91 bd 07 1b f4 bc 91 b1 16 3d ba c2 d5 3b
       -0.071217604 -0.029798044 0.036790434 0.0065234574
000100 6d b2 d2 bd 12 a5 45 3d cf 16 13 bc b0 af 2b 3d
       -0.10287938 0.048253126 -0.008977606 0.041915596
000110 54 8e 6a bd 99 36 bf bc f8 59 f0 3d 1d a1 3e ba
       -0.05726464 -0.023341464 0.1173591 -0.00072719326
000120 eb fc 92 3d 46 7f 27 3d 64 34 bd bc 23 d8 20 3e
       0.071771465 0.04089286 -0.02309627 0.1570745
000130 f6 40 04 3e f9 e1 81 3d b4 4c cd bd 01 14 2a be
       0.12915406 0.06341929 -0.100243956 -0.16609193
000140 ea 7f 46 3e 0b 0b b6 3d 7d 3a 7a 3b 87 1e 89 bd
       0.19384733 0.08888825 0.0038181834 -0.06695276
000150 18 c6 8f bd b6 33 52 3e dd 03 f6 3d 3a 8b b2 3d
       -0.07020205 0.20527539 0.120124556 0.087179616
000160 4f 7e 93 3d bc 69 b7 bc 74 b5 45 3e 44 79 a4 3d
       0.07201826 -0.022389285 0.193075 0.08030942
000170 43 be aa 3d 1c 40 be 3d 85 e6 05 bc 10 04 60 3e
       0.08337071 0.09289572 -0.008172636 0.2187655
000180 ea f0 7c 3e 55 24 23 3e a2 63 29 3e d2 a5 15 bd
       0.24701276 0.15931828 0.16541913 -0.03653509
000190 70 60 b0 bd ea 18 58 bd ea 9a b6 bd 5a 85 12 bd
       -0.08612144 -0.052758135 -0.08916266 -0.035771705
0001a0 57 41 7c bd 23 02 a6 bc 58 3c 7b 3c 6e 64 94 bc
       -0.06158575 -0.02026469 0.015334211 -0.018114295
0001b0 48 70 57 bd 1d 7e 8a 3b b8 5b c7 39 bc 3f 9e bd
       -0.052597314 0.0042264597 0.00038024574 -0.07727
0001c0 a3 9e 25 3c b0 fb 0a 3d 7c 40 9c bd e6 e0 24 3d
       0.010108623 0.033931434 -0.07629487 0.040253542
0001d0 76 bc 1d bd e2 f7 72 bc 75 ee 10 3c 68 f7 ce bd
       -0.03850981 -0.014829608 0.008845915 -0.10105783
0001e0 71 71 19 bd ad 0d 54 3d 9e 06 23 3d 20 7d 51 bd
       -0.0374617 0.051770855 0.039801233 -0.05114472
0001f0 30 d8 2c 3b c0 79 6d bd 7b b7 0e 3d 29 c5 ad 3b
       0.0026373975 -0.057977438 0.03484295 0.0053030443
000200 65 5f 97 bd 29 7f 3d bd e9 0a 68 3d 84 b3 19 bd
       -0.07391242 -0.046263848 0.05665103 -0.037524715
000210 1f 68 83 3d 90 73 66 3d 88 74 53 bd eb 3c 0e bd
       0.06416344 0.056262553 -0.051624805 -0.034726065
000220 cc 77 9f bd a4 04 1c 3c e5 9f 4e 3d fc 6e f4 3b
       -0.07786521 0.009522591 0.050445456 0.0074595194
000230 a4 0b 3c 3d 4f cf 71 bd 6f f9 93 3b e1 35 e4 bc
       0.04590954 -0.059035596 0.004515819 -0.027857723
000240 68 da 29 bd 0b af 85 bd e8 20 7a 3d bb 26 d0 bc
       -0.041468054 -0.065275274 0.061066538 -0.025409093
000250 e8 f8 9d bc ef 21 5d bd 35 27 3a be b6 1e 2d be
       -0.019283727 -0.05398744 -0.18179019 -0.16906247
000260 f8 eb d1 bc 47 58 06 be be ba 2d bd 10 34 ae bd
       -0.025625214 -0.13119613 -0.04241442 -0.08506024
000270 cb 49 66 bd 35 ca b7 bd 1c b2 07 be 8d 0d 31 bc
       -0.05622272 -0.08974115 -0.13251537 -0.010806453
000280 f2 1d 15 3d ad 1b 8f 3d 0e 1d 1a 3d c6 1b d5 bc
       0.03640551 0.069877006 0.037625365 -0.02601422
000290 8d 50 1b bd 81 02 ad 3d d9 4c 3a 3a 2a 9d df bc
       -0.037918616 0.08447743 0.0007106788 -0.027296621
0002a0 51 3a 86 3d bb f4 0e 3e 5b be 58 bd c3 f5 7a 3d
       0.06554092 0.13960545 -0.052915912 0.061269533
0002b0 27 2c ee 3d 35 49 84 3d 3d 5a e8 3d 2f 33 1c 3b
       0.11629515 0.06459276 0.113453366 0.0023834219
0002c0 fb 68 90 bd fb 05 af 3c 74 7d 4b bd e0 c0 8b 3d
       -0.070512734 0.021365156 -0.04968019 0.06823897
0002d0 fe c4 f9 3c 00 fc a6 bd 2a f8 fc bc 30 32 90 3c
       0.030489441 -0.08153534 -0.030880053 0.017602056
0002e0 02 29 27 3d d8 d1 05 bd 50 1b 9e 3d d3 48 60 bd
       0.040810592 -0.032670826 0.07720053 -0.05475695
0002f0 c6 be fa bc 4e 09 80 bd 9a 74 8a bd a8 e6 24 bc
       -0.030608546 -0.06251775 -0.06760521 -0.010064758
000300 8c 7b 24 bd 94 0f 89 3d 8d 5f 5e 3d 14 50 fc bc
       -0.040156886 0.066924244 0.054290343 -0.030799903
000310 8d ff ac bc f8 60 e9 3c 74 9e 40 bc 18 b4 4b bc
       -0.02111795 0.028488621 -0.011756528 -0.012433074
000320 a8 a4 aa bd ff cc 8f 3c 83 fd 0d be ea ea 0e 3b
       -0.08332187 0.017553804 -0.13866238 0.00218075
000330 7c 1b 6e 3d 94 6c 9f 3c 8e 17 06 3d fc 9f f9 bd
       0.05813168 0.019460954 0.032737307 -0.12188718
000340 ef a2 d1 bd 10 42 67 bd 92 c3 95 bd 90 b7 23 bd
       -0.10236155 -0.056459486 -0.07312693 -0.03996998
000350 6b 18 a5 bd c2 54 49 3d ef 10 b7 bd 64 59 c3 bd
       -0.08061298 0.049153097 -0.08938777 -0.09538534
000360 c6 1b eb bd 10 ce 8c bd 7b 12 6d 3d 1e 90 88 3d
       -0.11479907 -0.06875241 0.057878952 0.06668113
000370 8c 26 73 bd 5e 64 6d 3b fb 15 ac bd db 41 69 3c
       -0.059362933 0.0036223154 -0.0840263 0.014236893
000380 19 6e e5 ba 4e e7 94 3e d9 46 7d 3e 2e 4a 99 3e
       -0.0017504125 0.2908272 0.24734057 0.29939407
000390 54 4f 40 3e 8e 6c 7f 3e 75 f1 0a 3e b8 88 f6 3d
       0.18780261 0.24943754 0.13568671 0.12037796
0003a0 96 13 97 3d b2 f2 0d 3e 38 0c 88 3d 15 9d e2 bd
       0.073767826 0.13862112 0.066429555 -0.11065117
0003b0 f9 62 90 bd 9a 7c 1a bc 1b a3 cc 3c f3 ea a8 3b
       -0.070501275 -0.009429121 0.024980118 0.0051549613
0003c0 0f d0 4b be 8d 5a 3d be b6 62 f8 bd 56 87 7f bd
       -0.19903587 -0.18491574 -0.121282026 -0.062384926
0003d0 6f 33 a9 bd ae fd 7b be a6 63 20 be d7 01 31 be
       -0.08261763 -0.2460849 -0.15663013 -0.17285858
0003e0 f8 78 4e be a0 1a 65 be 71 c6 60 3c a8 d3 30 bd
       -0.20163333 -0.22373438 0.013719187 -0.0431706
0003f0 16 dc 76 bd e8 f6 3d bc 54 1d 59 bd e2 29 96 3c
       -0.060268484 -0.011594512 -0.053006485 0.018330518

conv2.bias f4 [16]
000000 8d f0 34 be 62 89 a8 3d 5e 28 96 bd 86 29 ba 39
       -0.17669888 0.08229329 -0.07331918 0.00035507622
000010 f4 71 df 3c 78 9a 28 3e 49 a8 86 bd 76 4d 43 3d
       0.027276017 0.16465175 -0.065750666 0.047681294
000020 64 e1 02 be 20 de 3b 3e 70 77 21 bd 7f 57 51 3d
       -0.12781292 0.18346453 -0.039420545 0.051108833
000030 5f 8e 8d bd 18 e7 56 be 07 79 e8 bd 8e b0 1d bc
       -0.06911921 -0.20986593 -0.11351209 -0.009624613

fc1.weight f4 [120, 400]
000000 0a 8f 17 bd 5e 2a 13 3d e5 1b 4a bd 93 82 86 bc
       -0.037001647 0.035929076 -0.04934301 -0.016419685
000010 6f c1 4d bb fc d1 c2 3b 57 24 03 bd e5 3a 6a 3d
       -0.0031395813 0.0059454422 -0.03201708 0.057185072
000020 c2 e8 82 3c 7e a3 34 bd 1f dc 2d 3d d8 53 fe 3a
       0.015980128 -0.04410123 0.042446252 0.001940365
000030 3a ba 03 3d 29 ff 0f bd a6 15 39 3c 80 d0 6f 3c
       0.03216002 -0.03515545 0.011296665 0.014637113
000040 eb d8 ad bc 50 00 86 bb 5a de c2 bb 5a 2d 58 3c
       -0.021221599 -0.0040893927 -0.0059469165 0.013194406
000050 3e 40 c6 3c 91 11 aa bc 16 cf 3c 3d cd 9e 23 bd
       0.024200555 -0.02076033 0.04609593 -0.039946366
000060 2c bc 14 3d 3d 1c 13 3d b8 bb 48 bd 54 cc 07 3d
       0.036312267 0.035915602 -0.049007148 0.033153847
000070 4b 57 2c 3d 93 1c fe bc 1a 65 2a 3d 70 19 a9 3c
       0.042075437 -0.031019485 0.041600324 0.020642012
000080 24 38 4b 3d ac 89 46 3c 13 22 5b bc 5d e7 95 bc
       0.049614087 0.0121177845 -0.013374823 -0.0182988
000090 0d 54 89 3d 58 4e 12 39 61 23 ac 3d 7e 4d 94 3b
       0.067054845 0.0001395283 0.084051855 0.0045258394
0000a0 81 b9 a1 bc 64 ab de 3c 2a dc 5c 3d e5 cb d9 3c
       -0.019741775 0.027181335 0.053920902 0.026586482
0000b0 77 3a 8b 3d b9 76 31 bd 70 ba 12 bd 75 5a 63 3d
       0.06798261 -0.043326113 -0.035822332 0.05550619
0000c0 1c 24 28 bc 09 79 d7 bc 1b 28 df bc 51 a4 f6 bc
       -0.010262515 -0.026302831 -0.027240803 -0.030107649
0000d0 ed 0e 9e bb dd 25 97 bc 68 05 2e bd db 6d 75 bc
       -0.0048235566 -0.018450672 -0.042485625 -0.014979805
0000e0 c9 d8 16 3d 43 db 64 3c b4 b1 e1 bc 0a 16 89 3b
       0.036827836 0.013968292 -0.027550556 0.0041835355
0000f0 83 cd 3b 3c a4 b2 dd bc 1a b2 9c bc 73 90 62 bd
       0.011462572 -0.027062722 -0.019127894 -0.05531354
000100 0b 3d 12 bd 6a 93 97 3b 1e b4 88 3a 16 07 3b 3c
       -0.035702746 0.0046257274 0.0010429656 0.011415264
000110 e2 1c 0e bc 9f 09 54 bd 62 a5 8a 3c 34 26 07 3d
       -0.008673878 -0.051766988 0.016924564 0.032995418
000120 bc 1b 89 3c 08 e4 12 3d ae df 90 bb c2 14 7b bc
       0.016736858 0.035862 -0.004421196 -0.015324773
000130 0b 32 33 bd 64 1e 0f bd 77 3a dd 3c 6d bd 34 3c
       -0.043748897 -0.034941092 0.027005417 0.011031491
000140 d4 af b6 bc 89 84 9e bc f5 2f 43 bd ec d6 09 3d
       -0.022300638 -0.019350307 -0.047653157 0.03365223
000150 85 26 4e 3d 0a 01 04 bd 52 8b 47 3d b5 74 98 3c
       0.050329704 -0.032227553 0.04871685 0.018610338
000160 ea ef e5 bc ba 43 c2 3c 34 e8 f7 bc 18 0c 1b bd
       -0.028068502 0.023713935 -0.03026209 -0.03785333
000170 69 96 24 3d 7c 0e c0 3c 1c 5d a1 bc b1 25 72 bb
       0.040182505 0.023444407 -0.019697718 -0.0036948735
000180 54 0b 13 bd 22 29 96 bc c5 ce 26 3d 80 95 dc bc
       -0.035899475 -0.01833016 0.040724535 -0.026926756
000190 8f 4e 4e bd 1c e2 1d 3d cc 0d 07 3d 7e c8 d5 3b
       -0.050367888 0.038545713 0.032972142 0.0065241447
0001a0 d4 89 3e bd 95 dd 15 3d 9d 8c 91 3c e9 de 41 bc
       -0.046518162 0.03658827 0.017767245 -0.011832931
0001b0 e0 b2 04 3d dc 00 e9 bc e5 4a f6 3b 21 80 70 3c
       0.03239715 -0.028442793 0.0075162523 0.014678986
0001c0 a4 61 ab 3c ec 51 89 3c ef 98 31 3d c3 f6 99 3b
       0.020920582 0.016762696 0.04335874 0.0046986057
0001d0 39 fa 08 bd 27 5a 2c 3d e2 8e e6 3a 9d c7 be 3c
       -0.033441756 0.042078163 0.001759019 0.023288542
0001e0 42 95 18 bd 5b b1 b6 bc 2b 3e b9 bc 84 f6 ae bc
       -0.03725172 -0.022301367 -0.022612652 -0.021357782
0001f0 b3 81 18 3d 45 b9 5f bd 34 18 8a 3c 05 6d 31 bd
       0.037233066 -0.054620046 0.016857244 -0.04331686
000200 4e 91 24 bd 97 16 fa 3b 18 7b 95 bc cf 0b 53 3c
       -0.040177636 0.0076320875 -0.018247172 0.012881233
000210 fb 99 9d 3d 85 88 c0 bc d9 c6 c1 3c eb 19 21 3d
       0.07695385 -0.023502598 0.023654388 0.039331358
000220 a1 b2 24 3d 04 f3 c4 3c 60 eb e7 3c 84 f8 b5 3c
       0.040209416 0.02404166 0.028310478 0.022213228
000230 d7 7d f5 3c 96 98 31 3d dd 91 36 3c 79 b5 12 3d
       0.029967232 0.043358408 0.011143175 0.035817597
000240 2e 54 60 3d 35 36 04 3d 7e 5b 83 3c 3b b7 1c bd
       0.05476778 0.03227826 0.016034838 -0.03826068
000250 75 b3 11 bd ea c6 86 3c 3e 6e e6 bc 20 f3 05 bd
       -0.035571534 0.016452271 -0.02812874 -0.032702565
000260 a1 54 33 3d 8a 5c 15 3d f2 8e 23 3d 62 f1 55 3a
       0.04378188 0.036465205 0.039931245 0.0008161274
000270 71 7f 3e bd 11 30 cb bc 37 11 bf 3c 69 e5 dc 3c
       -0.046508256 -0.024803193 0.023323638 0.02696486
000280 be c5 3e 3d 90 af 21 bd 9c 3f d3 3c d8 76 19 3d
       0.0465753 -0.03947407 0.025787167 0.037466854
000290 91 79 ab b8 90 8a ce 3c a5 7e af 3c 2e 8c 32 3d
       -8.176559e-05 0.025212556 0.021422694 0.043590717
0002a0 9a fd 4e 3d c8 1d 86 3b 11 23 f6 bc e1 98 a7 bc
       0.050534822 0.0040929057 -0.030046018 -0.02045864
0002b0 e3 f6 06 3d c9 76 73 3c e4 9d 60 bc e6 37 2c 3d
       0.032950293 0.014859864 -0.013709519 0.042045496
0002c0 25 fc 06 bb 82 65 02 3c 18 78 f0 3b 11 da 25 bd
       -0.0020597067 0.007958772 0.007338535 -0.040491167
0002d0 61 64 85 3d f3 8e 50 3d 06 b4 74 3d da 22 b8 3c
       0.065132864 0.050917577 0.059741996 0.022477556
0002e0 5f 03 bf 3c b6 74 1a 3c 83 58 a2 3d 59 f1 b0 3c
       0.023317037 0.00942724 0.079270385 0.021599459
0002f0 ad e0 aa 3d a5 cb 94 3d d0 e9 63 3d d2 d5 02 3c
       0.08343635 0.072654046 0.055642903 0.007985549
000300 2d 7d 85 3c a2 3e 6c 3d d8 a2 ec 3b 30 95 3a 3c
       0.01629504 0.05767692 0.007221561 0.011388108
000310 18 78 e5 bc 03 c1 1e 3d 56 c7 0b bd d7 df 59 3d
       -0.028011367 0.03875829 -0.03412565 0.053191986
000320 8a d8 1f bd 57 6b 8a 3c ac a1 0c bd 5e 71 fc bc
       -0.039024867 0.016896887 -0.03433387 -0.030815776
000330 eb 67 0d bd bc fd 5a bd 65 c6 0d bc b7 31 02 3d
       -0.034522932 -0.053464636 -0.008653258 0.031785693
000340 5e 07 b8 bc 91 50 f8 bc 2a 82 45 3d 7a 63 ae 3c
       -0.02246445 -0.030311855 0.048219837 0.021287668
000350 2f 9c 84 3d 02 93 86 3d 7c d1 63 3d ea 2b db bb
       0.06475102 0.06571008 0.0556197 -0.0066885846
000360 04 0e 4b 3d a2 2c 9a 3b da 34 09 3c 29 ae 41 3d
       0.049573913 0.0047050277 0.008374417 0.047285233
000370 83 e3 a4 bc 6f e9 bc 3c 58 cb 07 bd 50 e9 5d 3c
       -0.020128017 0.023060529 -0.033152908 0.013544396
000380 b2 5a 16 3a 6b 5f 87 3c 13 34 2f 3c b8 c2 87 bc
       0.00057355606 0.016524991 0.010693568 -0.016572341
000390 0a b4 e9 3b f8 48 45 bd 31 d3 b6 3a 4a a8 ac 3c
       0.007132058 -0.04816529 0.0013948438 0.02107634
0003a0 92 11 1e bd 9c c0 2b bd 7a d0 e7 bc b8 f1 eb 3c
       -0.038590975 -0.041931733 -0.028297652 0.028801784
0003b0 86 45 63 bd 0c 2f 63 bd 47 72 8d bc 4b 4b 68 3c
       -0.055486225 -0.05546479 -0.017266406 0.0141781075
0003c0 49 3e 82 bc e6 7a e6 3b 9b 45 d8 ba a1 07 86 bc
       -0.01589884 0.0070336936 -0.0016500236 -0.01636106
0003d0 2f 77 b7 3c 48 f1 37 3d a9 4d ec bc 58 dd f4 bc
       0.022395698 0.044907838 -0.028845625 -0.029890701
0003e0 7b f7 e6 bc eb e3 fb 3c aa d5 28 3c f8 6c 30 bd
       -0.02819418 0.030748328 0.010304848 -0.04307267
0003f0 a6 c6 01 3d ff a4 3b bc 99 9e 8f bc 7b 8b 33 3a
       0.031683587 -0.011452912 -0.01753168 0.00068490923

fc1.bias f4 [120]
000000 d8 0e 15 bd d7 36 ba ba 69 a6 0f 3c e3 ac 77 bd
       -0.03639111 -0.0014207017 0.008767703 -0.060467612
000010 77 7f a5 bc 8e 98 b8 3c 20 81 df 3c d5 b3 e8 3d
       -0.020202382 0.022533681 0.027283251 0.11362425
000020 46 c6 a3 3d a6 69 8d bd bd 86 f9 bc 59 f8 78 bc
       0.07996802 -0.069049165 -0.030459756 -0.015195929
000030 12 e1 a0 3a 32 da 69 3c d1 71 c7 bc 9b 36 28 3d
       0.0012274107 0.014273213 -0.024346264 0.0410677
000040 aa 2e 19 bd ca 62 d6 3c 43 96 24 bd df c6 8c bc
       -0.037398018 0.026170153 -0.040182363 -0.017184673
000050 a1 17 18 3d 41 90 2a bd ec 7f b0 3b ef df 18 bd
       0.03713191 -0.041641477 0.005386343 -0.037322935
000060 3a 02 bb 3c f6 2d 82 bb 34 f7 ab 3d 26 10 56 3d
       0.02282821 -0.003972764 0.0839676 0.052261494
000070 85 0f 1a 3d 3c eb 57 bb 66 e0 9f bc e1 e2 8e 3c
       0.037612457 -0.0032946607 -0.019516181 0.017442169
000080 84 48 1a bd 26 f7 4f bd d4 5a b0 bc 12 96 90 3c
       -0.037666813 -0.05077281 -0.021527685 0.017649684
000090 6d 07 82 3c db 18 0f 3d c7 bf 2a bd 6d ee 4b bc
       0.015872682 0.034935813 -0.0416868 -0.012446982
0000a0 36 7a 5a 3c 21 a6 7d 3c ec be 7f 3d 6d 2c ec 3c
       0.013334801 0.015481503 0.062437937 0.028829778
0000b0 96 dc 21 bd 4a 13 ac 3c be 89 28 bd 66 9c 93 bc
       -0.039517008 0.021005291 -0.041146986 -0.018018913
0000c0 6f d6 7b bd 48 9b 1e bd 5c d6 60 3d 29 40 1c bd
       -0.061483797 -0.038722306 0.05489193 -0.038147125
0000d0 74 01 b7 3d 7f c2 68 bb d1 e2 b9 bb dd 37 18 bc
       0.08935824 -0.003551632 -0.0056727906 -0.009290663
0000e0 6f dd c7 3b 7f 36 b1 bc fc c3 ef 3b c5 b3 00 bd
       0.006099395 -0.021632431 0.0073170643 -0.03142144
0000f0 68 de 24 3d f1 18 e7 3c cf 28 a4 3c 9b 1c e8 3c
       0.040251166 0.028210135 0.02003899 0.028333953
000100 7f c7 4e 3d 1f f0 b0 3c 05 2e 12 3d 73 23 bd 3c
       0.050483223 0.021598874 0.03568842 0.023088193
000110 90 b8 7a 3d ca 22 ad 3d 79 e7 6c bd 0d bc 51 bd
       0.06121117 0.08453901 -0.057837937 -0.05120473
000120 65 ab 42 3c 90 c1 0c bd 24 4c 3e bd 0b 96 ef 3c
       0.011881684 -0.034364283 -0.046459332 0.02924635
000130 4e 8c 06 bd 76 78 c3 bc 46 c3 0f bd 39 f9 34 3c
       -0.03284865 -0.023861151 -0.035098337 0.011045747
000140 ef 55 5f bd 01 dc 09 3d 21 a6 9d 3d fc 1a 53 bd
       -0.054525312 0.033657078 0.07697702 -0.051539406
000150 1a a1 cc 3d cd 8e 51 3c 39 6d 4e 3c e6 d3 d3 3d
       0.09991665 0.012790394 0.012599283 0.10343151
000160 ff cb ec 3c 3a 32 2b 3b 15 cb 1b bd 10 e2 b2 3c
       0.028905867 0.0026122467 -0.03803547 0.02183631
000170 66 b8 8d bc 35 ae ae 3d 52 69 2d bc f9 9f 94 bc
       -0.017299842 0.08529321 -0.010584192 -0.018142687
000180 cf 83 e1 bc 76 1f a1 bc 98 47 1a bd 48 f1 a5 bc
       -0.027528672 -0.019668322 -0.037665933 -0.020256653
000190 ef d6 0c 3d ef 7d a5 bc b9 de 3c 3d 0d 63 71 3d
       0.034384664 -0.020201651 0.046110842 0.058932353
0001a0 4b ca 4a 3d ff 5f 71 bb dc 0f e7 3b 9f a9 4c 3c
       0.049509328 -0.00368309 0.007051451 0.012491613
0001b0 ff 29 6b bd 88 6d 49 bd ad 74 dd 3c 50 32 03 3c
       -0.057413097 -0.049176723 0.027033174 0.008007601
0001c0 a1 d5 5a bd 0e 70 71 3c 00 ea 46 3c ea f1 55 3d
       -0.05342639 0.014736189 0.012140751 0.05223266
0001d0 e9 57 99 bb cf 93 74 3c 0d 26 ef 3c 56 4c 42 3c
       -0.004679669 0.014927818 0.029192949 0.01185902

fc2.weight f4 [84, 120]
000000 ef ba a2 bd 85 68 9b 3d 6f fd 12 3d 3d 86 39 3d
       -0.07945811 0.07588295 0.035886224 0.045294035
000010 25 e6 55 3a e5 1c c5 bd 06 f5 2d bd 8d 16 5e bd
       0.00081595994 -0.09624652 -0.04247 -0.054220725
000020 38 aa 77 bd dd 25 b7 bc 16 d2 b7 bd 03 b4 56 bd
       -0.060465068 -0.022356922 -0.089756176 -0.052417766
000030 ad 36 81 bd 43 6d 7e bd 3e ad 17 3c 53 bf 39 bc
       -0.06309257 -0.06211592 0.009257613 -0.011337119
000040 f5 05 05 3d 5d cc 71 bd 18 b3 ab 3c fc 62 b2 bd
       0.032476384 -0.059032787 0.020959422 -0.08710286
000050 5a a8 03 bd 3a 8b 82 3d a1 4d 56 bc 98 ec 12 bd
       -0.032142974 0.063742116 -0.013080032 -0.035870165
000060 9a 80 16 3c 73 3f 27 3d ad f5 49 3d 76 35 1c bb
       0.009185934 0.040831994 0.04930656 -0.0023835576
000070 1c 54 67 3d 97 9c c9 3c a5 88 f0 bc 3d 4b ba bc
       0.056476697 0.0246108 -0.029362032 -0.022740955
000080 d2 e9 5d 3d 44 78 6c bc 18 d9 4d 3d b6 6e 82 bc
       0.054178067 -0.01443297 0.050255865 -0.015921932
000090 88 ff 99 3d 58 70 20 bd b1 f1 45 bd 86 91 e4 3d
       0.07519442 -0.03916964 -0.048326198 0.11160569
0000a0 24 a9 4e 3d 95 9a d1 3d a7 03 4f bd 2a 5e 90 bd
       0.050454274 0.10234562 -0.050540593 -0.0704921
0000b0 fd fa e3 bb 7e 18 7a bd 59 0e 6b 3c 0c 53 f0 bb
       -0.0069574104 -0.061058514 0.0143466825 -0.0073341187
0000c0 ee 96 58 3d f7 35 a1 3c 36 8f b1 3d 25 10 bf 3d
       0.052878313 0.019679053 0.086698934 0.09329251
0000d0 8c 46 4a bd 8f 37 9c bc 49 7c e8 3c 7b 45 b8 bc
       -0.049383685 -0.019069461 0.028379576 -0.022494068
0000e0 23 f9 4d bd 71 54 29 3d 69 75 33 3c 61 0e ac bc
       -0.050286423 0.041340295 0.010953286 -0.02100295
0000f0 1a 15 6e bd 94 bb a6 3d 04 cc 3f bd 32 8a ca 3c
       -0.058125593 0.081412464 -0.046825424 0.0247241
000100 85 73 82 3d e7 fd 8b 3b 4b bc c3 3b 8d 1a 8f 3d
       0.0636969 0.004272211 0.005973374 0.06987486
000110 4f 37 92 bd 39 d5 12 be c0 7d ea 3c ff d3 a8 3d
       -0.071394555 -0.1433915 0.028624415 0.0824356
000120 43 2f 4e bd ea ca 0a 3d 85 e5 b6 3d e5 ef f7 bc
       -0.05033804 0.03388492 0.08930496 -0.030265758
000130 66 ca 86 bb 12 14 f1 3d 16 4b 36 3c 1e cd e3 bb
       -0.0041134832 0.11771406 0.0111263 -0.006951942
000140 b3 2c 0c 3d 07 db c4 3d 08 80 da bd 51 ee 85 bd
       0.034222316 0.09612089 -0.10668951 -0.06539596
000150 39 6c a2 3d a7 06 56 bd 78 6e a7 3c fd ad 94 bc
       0.07930798 -0.052252438 0.020438418 -0.01814937
000160 92 37 da 3c 17 78 78 3d 38 b1 85 bd c4 7c 0c bd
       0.026637826 0.0606614 -0.065279424 -0.034298673
000170 e5 25 8b 3d 60 55 84 bd 1a f4 33 3d 23 3d 64 bd
       0.06794337 -0.064615965 0.043933965 -0.055722367
000180 dd 65 61 3d e8 1e 08 3d 89 0d c9 3d fd 38 a3 3d
       0.055028785 0.0332326 0.09817035 0.07969854
000190 73 c1 27 3d 17 99 fa 3c 8b 88 7a bc 44 a4 83 3d
       0.040955972 0.030590577 -0.015291343 0.064278156
0001a0 e9 23 1b 3d e9 66 93 bd 46 d0 68 bd 7c cc 85 3c
       0.037876043 -0.07197363 -0.05683925 0.016332857
0001b0 47 60 6f bd 82 62 bd bc d8 c3 41 3a 6b 23 76 3d
       -0.058441427 -0.023118261 0.0007391549 0.06009237
0001c0 24 a6 89 3c 4b cf a0 bd f3 49 3f bd 43 54 a7 3d
       0.016802855 -0.07852038 -0.046701383 0.081703685
0001d0 fb 84 eb 3d 3e e7 ab bd cd f1 92 3d 3f 01 f4 3b
       0.114999734 -0.08393715 0.07175026 0.0074464376
0001e0 6b 71 1c bd 17 19 d3 3d f8 25 a8 3d 0d ce 03 3d
       -0.0381941 0.1030752 0.08210367 0.032178927
0001f0 17 20 54 3d 15 d2 a0 3d 4a 6a 17 bd 03 f4 1c 3d
       0.051788416 0.0785257 -0.0369666 0.038318645
000200 26 38 8a 3d 57 44 d9 bd 6d 49 84 bb 5f c9 98 3d
       0.06748991 -0.10608738 -0.0040370733 0.074602835
000210 d7 cd 89 bd 39 b5 3d 3d df a6 1a 3d f6 3f 62 bd
       -0.06728714 0.046315406 0.037756797 -0.05523678
000220 19 ed 75 3d 02 ee 7d 3d a6 59 aa 3d d1 08 9f bd
       0.060040567 0.06199456 0.0831788 -0.077653535
000230 24 d1 23 3d 95 74 c5 bd 98 5c a5 bd 20 cc 52 3d
       0.039994374 -0.09641377 -0.080743015 0.0514642
000240 df 7d 88 3d 5c e1 d7 bd 74 ab 53 3d 8f 48 43 bc
       0.06664633 -0.10541031 0.051677182 -0.011919155
000250 8f 07 4f 3d 6b a2 9f bd b9 52 38 bc fd 61 36 3b
       0.050544318 -0.07794651 -0.011250191 0.0027829402
000260 a5 3f 7a bc b5 5b 8b 3d dc 4f 70 bd 93 b6 c0 3c
       -0.015273963 0.06804601 -0.05866991 0.023524558
000270 1d 9b 92 3c b6 ca bb bd 66 4f 86 3d 7a c4 83 3d
       0.01789623 -0.091695234 0.06558113 0.06433959
000280 44 e5 67 bd 17 99 8a bd e0 34 6c 3d 27 a3 42 3b
       -0.05661513 -0.06767481 0.057667613 0.0029699297
000290 4e d4 61 3d d4 5c 9a bd 4f 3e 9c bd f6 4a cf bc
       0.05513411 -0.07537237 -0.07629072 -0.025304299
0002a0 c5 e7 f8 3c e3 10 26 3b a6 a0 8d bd dc a5 8f bd
       0.030383954 0.0025339655 -0.06915407 -0.07014057
0002b0 84 87 0f 3d c6 70 3b 3d 16 02 78 bd d6 a0 c7 bd
       0.035041347 0.045761846 -0.060548864 -0.09747474
0002c0 8a 86 af 3d 6a 9f 74 bd 28 14 ce 3c ae be 02 3c
       0.08570583 -0.05972234 0.025156096 0.007980032
0002d0 58 28 a5 3d 78 ad bd 3d 3b 48 8a 3d c2 66 a6 bd
       0.080643356 0.09261602 0.06752058 -0.08125068
0002e0 43 63 a2 3a 5b 3f b2 bd 30 84 f0 bc 03 14 e8 3d
       0.0012389201 -0.0870349 -0.029359907 0.11331942
0002f0 77 b4 b6 3d f8 21 1c 3e 27 51 28 3d 0d f7 c0 3c
       0.0892114 0.15247333 0.041093018 0.023555303
000300 34 52 b0 3d 55 46 42 3d 36 82 9d bd 86 7c a4 3c
       0.08609429 0.047430355 -0.076908514 0.020078909
000310 bb 95 1d 3c 74 fa 12 3d c8 d8 e5 bc 31 6c 48 3d
       0.009618218 0.035883382 -0.02805747 0.048931304
000320 f7 eb 3f 3d c0 77 b3 bd 9b d7 bf 3c 62 a1 22 bd
       0.046855893 -0.08763075 0.023418238 -0.039704688
000330 9f df 07 3e 30 cc 5f 3b ed ce a8 3c ee c1 b3 3d
       0.13268898 0.0034148805 0.020606482 0.087772235
000340 1d 29 ce bc 94 2e 4f 3c 19 6b 00 bd 10 7c 1a bd
       -0.025166089 0.012645382 -0.031352136 -0.03771597
000350 b8 9b 89 3c cc 5e 03 bd a4 3c 95 3d bd d2 90 3d
       0.016797885 -0.032072827 0.07286957 0.07071445
000360 41 06 98 3d 71 3c b5 3d bb 15 a9 bc 86 22 b2 bc
       0.07423068 0.08849419 -0.020640245 -0.021744978
000370 26 00 71 bc 2b 3a bf bd ba 02 ce 3c 5e f7 51 bd
       -0.014709508 -0.093372665 0.025147785 -0.0512613
000380 06 ee 9a 3d c1 dd 82 3d a5 f1 60 3d 5f 6d a5 3c
       0.075649306 0.063899525 0.05491795 0.020193754
000390 76 a1 ab bc 1c 35 ad 3d fa 5b 52 3d d9 f5 46 bc
       -0.020951014 0.084573954 0.051357247 -0.012143576
0003a0 f4 6f 62 3b 17 12 aa bc b8 18 9c 3d a0 9d e8 3d
       0.0034551593 -0.020760579 0.07621902 0.113581896
0003b0 82 d4 f9 bc fd ef b5 bd c7 be 5d bc 44 4a 8e bd
       -0.03049684 -0.08883665 -0.013534254 -0.06947759
0003c0 10 3a 14 3d 5e 56 0b 3c 34 32 1b bd 73 2c 34 bb
       0.036188185 0.008504478 -0.037889674 -0.0027492314
0003d0 d6 a0 b8 bd fd 7e b6 bc 51 d1 3c bd 6b 3b be bd
       -0.09015052 -0.02227735 -0.046098057 -0.09288677
0003e0 4f 8e 74 3d 17 6d 37 3d 94 d8 54 bd 9a 85 a6 bc
       0.05970603 0.04478177 -0.051964357 -0.020327378
0003f0 0f 8d 45 bd 19 d4 a2 bd a3 a4 b9 3d 28 44 d6 bc
       -0.048230227 -0.07950611 0.09064605 -0.026155546

fc2.bias f4 [84]
000000 e5 de 85 bd eb 2d 75 3d de 68 42 3d 2c b6 20 bd
       -0.065366544 0.059858244 0.04746329 -0.039236233
000010 73 b9 9e bd ca 34 24 bd 7d fb c0 bd 19 35 78 bd
       -0.077502154 -0.040089406 -0.094229676 -0.060597513
000020 79 90 bd 3d 11 08 49 3d 25 e6 1e 3d 23 27 82 3d
       0.092560716 0.04907996 0.0387937 0.06355121
000030 82 26 91 3d c6 89 18 3d 1c 32 cf bd c2 4d 50 bd
       0.07087423 0.037240766 -0.101169795 -0.050855406
000040 62 0c 49 bc 77 51 71 bc 2d 95 30 3c 37 74 ae bb
       -0.012271019 -0.014728895 0.010777754 -0.0053239125
000050 0d 53 56 bd fb 5b 3c 3d b4 12 a7 bd d0 42 5a 3d
       -0.052325297 0.045986157 -0.08157864 0.053286374
000060 fd 22 14 bd b2 0c 76 bd 73 cc ee bc 26 c4 b7 3d
       -0.03616618 -0.0600707 -0.029150223 0.08972959
000070 60 21 96 bd cb 7c 37 bd d3 a6 9e bc ad 16 a4 3c
       -0.073305845 -0.044796746 -0.019366657 0.020030344
000080 31 68 eb bc 7e 57 32 3c 1d 3c f8 bd 70 56 42 bd
       -0.028736206 0.010885118 -0.12120841 -0.047445714
000090 5a b0 6a bd 71 21 68 3e 50 4d 51 3d 5d 4d d8 3c
       -0.05729709 0.22669007 0.05109912 0.026404077
0000a0 cb 3c 24 3e 7f c0 92 3c c6 db b7 bd 1b 2e ae 3c
       0.16038816 0.017914055 -0.08977465 0.02126222
0000b0 8d 6c 87 bd e8 95 25 3d 74 75 1b 3c 96 64 c0 3d
       -0.06612501 0.040426165 0.009488452 0.09394185
0000c0 0f 55 5d 3d 65 23 c3 3d c5 b5 98 bd 81 e2 b0 bc
       0.054036196 0.09528235 -0.07456545 -0.02159238
0000d0 c5 14 eb 3c 7b fd 81 3b 5b 23 e5 3c 0e cf c4 3d
       0.028696427 0.003966985 0.02797096 0.09609805
0000e0 4b ed 04 bd c7 af 9a 3d ec 3d 00 bd 61 d9 9a 3d
       -0.032452863 0.07553058 -0.031309053 0.07560993
0000f0 5f f9 8a bc 5c a9 fc bc 15 ba 42 3d cf ab 13 3d
       -0.016964613 -0.030842476 0.047540743 0.03605252
000100 7d 20 56 3e 9f 99 ea bc 4d 10 ad 3c 48 b2 11 bd
       0.20910831 -0.028637705 0.021125937 -0.035570413
000110 0e a1 e9 3d 9c 2b 9e bd 3e d7 98 bb 87 62 79 bc
       0.11407672 -0.077231616 -0.0046643307 -0.015221245
000120 e8 17 ba 3c cf 50 af 3d e5 4b 5e bd aa 4f 2a 3d
       0.022716478 0.08560335 -0.054271597 0.04157988
000130 13 6a b6 bd 55 77 98 3d 8b f7 54 bd d6 3b 84 bd
       -0.08906951 0.07444636 -0.051993888 -0.06456725
000140 07 a3 48 bd 1f 0e a9 3d e3 20 4d bb d2 ff d7 3c
       -0.0489836 0.082546465 -0.003130012 0.026367102

fc3.weight f4 [10, 84]
000000 77 20 43 3e 3a 3b 34 be 06 20 22 3e d8 3e 31 3d
       0.19055353 -0.17600718 0.15832528 0.043272823
000010 ac 51 bf bc 5c 35 ad bb 2b 14 1b 3c 60 13 a3 3d
       -0.023354374 -0.005285902 0.009465258 0.0796268
000020 6e b9 94 bd 05 62 bb bd 21 a8 1a 3d c4 bd 21 3d
       -0.072619304 -0.09149555 0.037757996 0.039487615
000030 b0 ae 29 be 1d 64 68 bd 28 06 8a bd 28 07 6f 3d
       -0.16570544 -0.0567361 -0.067394555 0.058356434
000040 4a b6 d3 bd 48 e1 3a be 1b d9 80 3d 23 30 3c 3d
       -0.10337503 -0.1825 0.062914096 0.045944344
000050 e5 66 18 3e 08 04 99 be ac ca 74 3d 3c 05 50 3e
       0.14883001 -0.29885888 0.059763595 0.20314497
000060 d2 5a 9b 3e fe ae fb 3a d0 96 f2 3c 2b 7e bf 3d
       0.30342728 0.0019201932 0.029612929 0.093502365
000070 ab 19 5e bd be 84 8f 3c 6d 64 7e bd 88 cc cd bd
       -0.054223698 0.017519351 -0.062107492 -0.10048777
000080 63 92 dd bd 14 c5 f6 bd 67 ca 0a bd bd 60 55 be
       -0.10818937 -0.120493084 -0.033884432 -0.20837684
000090 93 1a 32 be 98 64 ab be 15 9d 3f 3e f5 e1 e6 3d
       -0.1739295 -0.33475184 0.18712266 0.11273567
0000a0 94 35 27 be 07 d3 09 bc 44 4f 93 3d 33 fa 30 be
       -0.16329032 -0.008412129 0.07192853 -0.17282943
0000b0 d4 82 48 bd ff f1 a3 3d 86 26 cf 3c a1 cd e7 bc
       -0.048952892 0.080051415 0.025286924 -0.028296294
0000c0 12 3c 39 3d bb eb 63 be db 0f 3b 3e 9f 6a 65 bc
       0.045223303 -0.22257893 0.18267767 -0.014002471
0000d0 91 07 81 bd 72 78 16 3e 75 17 24 bd ea fa e0 bd
       -0.06300271 0.14694384 -0.040061433 -0.10985358
0000e0 e8 68 3d be 28 3a a3 3e 1e 8b 12 3c a7 69 54 bd
       -0.1849705 0.31880307 0.008944301 -0.05185857
0000f0 4f d9 08 be fa 47 79 bc 82 bb 50 3d 7c 19 94 3e
       -0.13364147 -0.015214914 0.05096007 0.28925693
000100 1a 83 16 be e5 49 56 b9 f9 06 56 bd ca 66 9b 3d
       -0.14698449 -0.00020436158 -0.052252743 0.07587965
000110 81 76 37 be 1c 50 a9 3e 4b b7 59 3d 37 c0 89 bd
       -0.179163 0.3306893 0.053153317 -0.06726115
000120 8a 83 79 be 83 a4 3f be dc 82 30 3d b8 4c 15 3e
       -0.24366584 -0.187151 0.043093547 0.14580047
000130 cc 6d d8 3d c8 a1 6a be ba 4d 8f bd 6b 48 a1 3e
       0.10567817 -0.22913277 -0.06997247 0.31500563
000140 e7 23 a9 bd a9 78 f2 3d 1e c0 68 bd 55 33 f3 3b
       -0.08258801 0.1183942 -0.056823842 0.0074218907
000150 0b 15 93 bd 0b a7 0e 3d b7 b2 ee 3d 3e 41 c6 bd
       -0.07181748 0.034827273 0.11655181 -0.09680413
000160 37 1d be bc d5 84 bd bd 43 d2 b2 3d 64 27 8a bc
       -0.02320729 -0.09253851 0.087315105 -0.016864486
000170 11 9e 9e 3e a9 ca 0d be 7c 48 a1 bd ef c1 d0 bd
       0.3097997 -0.1384684 -0.078751534 -0.1019324
000180 64 7c 55 bc e2 5d 4c bd 9a 5f c0 bd 70 90 e4 bd
       -0.013030145 -0.04989422 -0.093932346 -0.11160362
000190 df 9c a7 bd de 93 41 bc 68 d0 17 be 4d e2 a5 bb
       -0.08184218 -0.011815039 -0.14825594 -0.0050623775
0001a0 03 1f 72 be 44 9b 79 be 96 fb 3d bd 57 83 5f 3e
       -0.23644643 -0.24375635 -0.04638251 0.21827446
0001b0 d7 c4 2d bd b9 e7 7a 3d 07 d6 dd bd 11 1b 8a bd
       -0.04242405 0.061256144 -0.10831838 -0.06743444
0001c0 fa bc 6b 3d 8d 0c 3e bd 9d 5a ec 3d e6 a8 1d bd
       0.05755327 -0.046398688 0.115407206 -0.038491152
0001d0 d6 06 a1 bd 5b 67 92 3d 02 93 e5 bd b3 c2 4f 3d
       -0.07862632 0.0714862 -0.1120968 0.05072279
0001e0 19 17 55 be 34 e1 39 bc fe 38 2a 3d 1f ee 99 3d
       -0.20809592 -0.0113451965 0.04155826 0.07516121
0001f0 ba 01 09 be be 64 74 3d 1c fc 11 bd 1c 43 0b 3e
       -0.13379565 0.059666388 -0.03564082 0.13599819
000200 90 a9 db 3d 2f 03 4b 3d 1a 8d 92 bd 71 61 1f bd
       0.10725701 0.049563583 -0.07155819 -0.038911287
000210 a6 ad b3 3d 3c 05 fa 3e 08 20 f5 bd 99 6c d2 3d
       0.08773355 0.4883212 -0.11969 0.102746196
000220 b9 60 1a 3d 26 e6 fa bd 4f 6d 5e 3d a7 fb 79 be
       0.0376899 -0.122509286 0.054303464 -0.24412404
000230 a5 19 d4 3c 4e 55 27 3d c0 ef 2e 3d cb ea a3 3e
       0.025891135 0.040852837 0.042709112 0.3201507
000240 5c 33 e3 3c 91 39 a7 bd 0f 5b ec 3d e3 1a 55 be
       0.027734451 -0.08165277 0.115408055 -0.20811038
000250 36 1f 05 be 0e de 4a be 01 f2 82 bd 9d 66 88 3e
       -0.13000187 -0.1981127 -0.06393815 0.26640788
000260 7b fe 6b 3d 20 ba ee bc 19 6e ef bd 76 12 9c 3c
       0.05761574 -0.029141486 -0.11690921 0.019051772
000270 49 9c 39 be 72 49 04 3d 72 d4 72 3b a6 71 c2 bd
       -0.18126024 0.032296605 0.0037052897 -0.09494333
000280 d3 d3 d9 bd 09 a9 a5 3e f7 b7 d0 bd 15 1e e5 bd
       -0.106361054 0.32355526 -0.101913385 -0.11187378
000290 b9 be b4 3d 20 d0 1d be 78 da cb bc 9e 64 7b bc
       0.0882544 -0.15411425 -0.024884447 -0.015343813
0002a0 73 84 6b bb 32 e6 2c 3d 6c fc 8b 3d 8e 38 6f bc
       -0.00359371 0.04221172 0.06835255 -0.014600886
0002b0 b9 03 84 3d db 3b 81 3d e8 3f c6 3a a2 5b a3 3d
       0.064460225 0.06310245 0.0015125247 0.07976462
0002c0 a1 37 13 3d 76 e5 ee bb 06 02 45 3d 15 49 88 3d
       0.035941724 -0.0072905375 0.048097633 0.06654564
0002d0 4b 7b c9 bc be 69 23 bd 0a 97 9b 3d 02 2a 12 bd
       -0.024594923 -0.039895765 0.07597168 -0.035684593
0002e0 00 3c 41 bd 4d 0b db 3c 87 f2 a9 3c 72 87 96 bd
       -0.04717636 0.026738787 0.020745529 -0.07350053
0002f0 92 d0 d1 3d 25 de 9d 3d 3b 52 b7 bd b9 00 19 3d
       0.1024486 0.07708386 -0.08951231 0.037354205
000300 28 84 28 3e 18 aa 15 bd 04 88 9a 3d 6c 8b 9b bd
       0.16456664 -0.036539167 0.07545474 -0.07594952
000310 10 0d 4d 3d 9b ff 82 bd 79 30 4a 3d 81 bf 94 3d
       0.050061285 -0.06396409 0.049362633 0.07263089
000320 a6 f0 69 bd d5 ee a3 bc 43 8f 18 3e ce fd d3 bc
       -0.057114266 -0.020011345 0.148984 -0.02587786
000330 1b 28 8b bd 6f c7 82 3d a9 af eb 3c a4 9f 46 3b
       -0.06794759 0.06385695 0.028770285 0.0030307556
000340 b6 b9 a4 bd 1a 30 8c bd f8 63 87 bd ce 99 bd bb
       -0.08043234 -0.06845112 -0.066108644 -0.005786157
000350 dc cc c3 bd 22 ca 24 bd b9 cb 8b 3d 7f ce 16 3d
       -0.09560558 -0.04023183 0.068259664 0.036818024
000360 bb 6a 9d 3d 12 4d 32 bd 14 05 cc bb 8b 52 29 be
       0.07686373 -0.04353053 -0.0062261913 -0.16535394
000370 7d f8 a2 3d ee 19 82 bc d1 fd 94 bd 02 50 de 3c
       0.07957552 -0.015881505 -0.07274974 0.02713776
000380 bf cd b2 bd c5 b6 e1 bd ca c0 af bd 9e a0 60 bd
       -0.08730649 -0.11021189 -0.085816935 -0.054840676
000390 7e 1f d9 bd c2 b6 c1 bc 4c d9 8f 3c e1 63 e2 bd
       -0.1060171 -0.023646716 0.01755967 -0.11054207
0003a0 08 7c 9d 3d 7c 90 49 bd cd b1 1c 3e 8b bf 3a bd
       0.07689673 -0.049210057 0.153022 -0.045592826
0003b0 84 77 ad bd 2f 36 7e 3d b2 3b f5 bb 7c 0e b6 3d
       -0.084700614 0.062063392 -0.007483923 0.088894814
0003c0 ff 7f 7f bb 23 0c 91 bd ef c2 b6 bc a6 84 a6 bd
       -0.0038986204 -0.07082393 -0.022309748 -0.081307694
0003d0 e9 0a 9d bd 0e 4a 96 bb 37 cf 12 3d d5 ae db bc
       -0.076680966 -0.0045864647 0.035842147 -0.026816765
0003e0 ac b7 ae bd 20 36 f1 3c 9f 3a a8 bd d7 cf ff 3c
       -0.085311264 0.029444754 -0.08214306 0.031227035
0003f0 be c3 1a 3b d5 96 f6 3d 89 52 52 bb ac ec 34 be
       0.0023615207 0.12040488 -0.0032092652 -0.17668408

fc3.bias f4 [10]
000000 1a 92 07 be 88 7d 3f 3c 29 3f 17 bc 28 69 1f 3c
       -0.13239327 0.011687644 -0.009231367 0.009729661
000010 1a 73 0f 3e d6 c1 83 be a6 ed 0c 3e 9f 9f e9 bd
       0.14008752 -0.25733823 0.1376253 -0.114073984
000020 97 47 b8 3d aa 03 47 bd
       0.0899803 -0.04858748
