round1/2025-04-18 17:45:09-weight-client-17a1133e-9.pth (torch, 252478 bytes, 10 tensors)

conv1.weight f4 [6, 3, 5, 5]
0	0xbc1af062	-0.009456726
1	0x3d937714	0.07200447
2	0xbcd7d6c1	-0.02634752
3	0x3e233fcf	0.1594231
4	0x3e2b8847	0.16751204
5	0xbe1463af	-0.14491151
6	0x3d0c5107	0.03425696
7	0x3de80a70	0.11330116
8	0x3dc5cd62	0.09658314
9	0x3e315c55	0.17320378
10	0xbe0d6827	-0.13809262
11	0x3e0db59d	0.13838811
12	0x3d1ba2f8	0.037997216
13	0xbdb4f78f	-0.088362806
14	0x3e35e149	0.1776172
15	0xbe8868b6	-0.26642388
16	0x3c67eef4	0.014156092
17	0xbcc941f9	-0.024567591
18	0xbdc927f9	-0.09822077
19	0x3e067210	0.13129449
20	0xbea284e8	-0.31742024
21	0xbe2adcad	-0.16685744
22	0x3cda7033	0.026664829
23	0x3e200338	0.15626228
24	0xbc385d5c	-0.011252727
25	0xbd3a1028	-0.045425564
26	0xbd10a62e	-0.03531473
27	0xbc896495	-0.016771594
28	0x3de83660	0.11338496
29	0x3e54f4dc	0.20796531
30	0xbd08d296	-0.033403955
31	0xbd04ecd1	-0.03245241
32	0x3d1dae59	0.03849635
33	0x3d831833	0.064011
34	0x3ea7d448	0.32779145
35	0xbe2a08d2	-0.16604927
36	0x3e53e9e8	0.20694697
37	0x3e482df6	0.19548783
38	0xbcd94ca3	-0.026525801
39	0x3ec1929d	0.3780717
40	0xbe53f464	-0.20698696
41	0x3e3dfc83	0.18553357
42	0x3e7c12de	0.24616572
43	0x3d24022f	0.040041145
44	0x3eac1aba	0.3361414
45	0xbe356eab	-0.17717998
46	0x3c251aed	0.01007722
47	0x3d7e8e40	0.06214738
48	0x3e5fd5e9	0.21858944
49	0x3e14759a	0.14497986
50	0xbe74f3a3	-0.23921065
51	0xbe623339	-0.22089852
52	0xbe90e6f4	-0.28301203
53	0xbd7b6ef9	-0.06138513
54	0x3d9d4f08	0.0768109
55	0xbe81f3c5	-0.25381294
56	0xbe5e231b	-0.21693079
57	0xbe29d069	-0.16583408
58	0xbdba2a06	-0.090900466
59	0xbbbbcdf1	-0.0057313372
60	0xbe95f32e	-0.29287094
61	0xbdf0f632	-0.11765708
62	0xbe01d31b	-0.12678187
63	0xbe2202fa	-0.15821448
64	0x3e1d1db8	0.15343368
65	0xbe6b2806	-0.22964486
66	0xbc5ea187	-0.013588316
67	0xbd928fe1	-0.07156349
68	0xba88fbd5	-0.0010451028
69	0x3db87625	0.09006909
70	0xbe90ce3c	-0.28282344
71	0xbdf9a108	-0.121889174
72	0xbd860bba	-0.065452054
73	0x3d542ab1	0.051798526
74	0x3d94101d	0.07229636
75	0xbdbf47ec	-0.0933989
76	0xbc1085db	-0.008820976
77	0x3c405195	0.011738201
78	0x3c7eb165	0.015545224
79	0xbcbea923	-0.02327401
80	0x3d3d55e5	0.046224494
81	0xbd2f621e	-0.04281818
82	0x3dc588b2	0.09645213
83	0x3cd6941b	0.026193669
84	0xbd924979	-0.0714292
85	0xbe039895	-0.12851174
86	0xbd8317ea	-0.064010456
87	0xbe0689f9	-0.1313857
88	0xbb8d14d1	-0.00430546
89	0xbcff8fe3	-0.03119654
90	0xbd8f46d7	-0.069959335
91	0xbd97d5b9	-0.07413811
92	0xbe59b611	-0.21260859
93	0xbe0704b1	-0.13185383
94	0xbe28be13	-0.16478758
95	0xbd67e37e	-0.056613438
96	0xbe0f3bdd	-0.1398768
97	0xbe7036fd	-0.23458476
98	0xbe7127bd	-0.23550315
99	0xbdd0d14a	-0.10196169
100	0x3dac4666	0.08411865
101	0x3e175904	0.1478005
102	0x3cc14dba	0.023596633
103	0x3d0ff3c9	0.0351446
104	0x3e06f4bb	0.13179295
105	0x3ddc865c	0.107678145
106	0x3e0c0489	0.13673605
107	0x3d541f55	0.051787693
108	0x3dadce76	0.08486645
109	0x3daf675a	0.085646346
110	0x3c1dc38a	0.00962914
111	0x3c684989	0.014177688
112	0x3ce1dd66	0.027571391
113	0xbd4d55cb	-0.050130647
114	0xbd55928c	-0.05214171
115	0xbe59a2b3	-0.21253471
116	0xbdddacda	-0.108239844
117	0xbd31413c	-0.043275103
118	0xbe0f637c	-0.14002794
119	0xbe573965	-0.21017988
120	0xbe9aec3b	-0.30258355
121	0xbe484b14	-0.1955989
122	0xbe946e88	-0.2899058
123	0xbe2475f6	-0.16060624
124	0xbe86a8c5	-0.26300636
125	0x3ea0d110	0.31409502
126	0x3e741d08	0.238392
127	0x3ebbc7f0	0.36675978
128	0x3ea54548	0.3227942
129	0x3e64ba04	0.22336584
130	0x3e4248b3	0.18973045
131	0x3e95bf54	0.29247534
132	0x3eb225c4	0.34794438
133	0x3e5a2847	0.21304427
134	0x3e63240e	0.22181723
135	0x3e80196a	0.2501939
136	0x3db228d9	0.08699197
137	0x3e61d970	0.22055602
138	0x3e78f930	0.24313807
139	0x3e0029e0	0.12515974
140	0x3dd307b3	0.10304203
141	0x3c101144	0.008793179
142	0x3d650c64	0.05592002
143	0xbd3814fb	-0.044941884
144	0xbb1c2599	-0.002382612
145	0xbd894909	-0.067033835
146	0xbc8687d2	-0.016422186
147	0xbc943325	-0.018090794
148	0x3d8a6e9b	0.067593776
149	0xbd14bdf2	-0.03631396
150	0xbe634ed6	-0.22198042
151	0xbe9e9ea1	-0.309804
152	0xbe053f99	-0.13012542
153	0xbe9071e5	-0.28211895
154	0xbe8aa08a	-0.27075607
155	0xbe6ec0ca	-0.2331573
156	0xbdec3a25	-0.11534528
157	0xbd738bd3	-0.05945952
158	0xbde2bdad	-0.11071334
159	0xbe47ce4b	-0.19512288
160	0xbe3a31e5	-0.18183096
161	0xbdf6c914	-0.12050071
162	0xbe192b77	-0.14957987
163	0xbe5201b4	-0.20508462
164	0xbe7ca194	-0.24671012
165	0xbe1fd7ca	-0.1560966
166	0xbe563242	-0.2091761
167	0xbe47ca24	-0.19510704
168	0xbe3e90da	-0.18609944
169	0xbe7e91ee	-0.24860355
170	0xbe400a9f	-0.18754052
171	0xbd45c7ef	-0.048286375
172	0xbe297232	-0.16547468
173	0xbe3144e0	-0.1731143
174	0xbe57748b	-0.21040551
175	0xbda32b1d	-0.079672076
176	0xbabdfb3a	-0.0014494427
177	0xbc982d27	-0.018576218
178	0xbd03bd02	-0.032162674
179	0xbe4968cd	-0.19668885
180	0xbe109e77	-0.1412295
181	0xbe1f7a59	-0.15574016
182	0xbd93540a	-0.071937636
183	0xbe36d1b6	-0.17853436
184	0xbdc5eea1	-0.096646555
185	0xbe2ad029	-0.1668097
186	0xbd7f2e0f	-0.062299784
187	0xbd5de3dc	-0.05417238
188	0xbd299d56	-0.041409813
189	0xbce4b970	-0.027920455
190	0xbdc8aec8	-0.09798962
191	0xbd88149d	-0.06644557
192	0x3b9819bc	0.0046417397
193	0xbddc0b12	-0.10744299
194	0xbe1d46e6	-0.15359077
195	0xbd497452	-0.049183197
196	0xbe3edfec	-0.18640107
197	0x3c6f3592	0.0146001745
198	0xbe546e10	-0.2074511
199	0xbe324dce	-0.17412493
200	0x3ec8b4ec	0.39200532
201	0x3eebba6f	0.46040675
202	0x3eee4a25	0.46540943
203	0x3ef7dbe4	0.4840995
204	0x3ef0b8ae	0.470159
205	0x3ee66737	0.45000622
206	0x3ef26c21	0.4734812
207	0x3ec472d1	0.38368848
208	0x3ef0b67d	0.47014228
209	0x3ede130f	0.43373916
210	0x3eef3af0	0.46724653
211	0x3eba8e69	0.36436775
212	0x3f004126	0.5009941
213	0x3ef7674e	0.48321003
214	0x3ebfdc13	0.3747259
215	0x3ecc1b8f	0.39864776
216	0x3f0236b5	0.50864726
217	0x3f0607ab	0.5235545
218	0x3ef9ce1a	0.48790056
219	0x3ef51f67	0.4787552
220	0x3ebe2cc4	0.37143528
221	0x3eb408ba	0.35162908
222	0x3eb3fff5	0.35156217
223	0x3ef6b05c	0.48181427
224	0x3ebaf575	0.36515394
225	0x3e0f9227	0.14020596
226	0x3e2d377e	0.169157
227	0x3df13883	0.11778357
228	0x3dff860f	0.124767415
229	0x3e4643b5	0.19361766
230	0x3df53e2e	0.119747505
231	0x3e42e278	0.19031703
232	0x3e6af9ec	0.229469
233	0x3e0747ec	0.1321103
234	0x3e842992	0.25812966
235	0x3e8fad27	0.28061792
236	0x3e8ee2f1	0.27907518
237	0x3e1c2da3	0.15251784
238	0x3e458bb1	0.1929157
239	0x3e0611d3	0.13092737
240	0x3e8f2886	0.27960604
241	0x3e9c318e	0.30506557
242	0x3e19aab1	0.1500652
243	0x3e052b5c	0.13004822
244	0x3e65e662	0.22451165
245	0x3e78982a	0.24276796
246	0x3e05fc6d	0.13084574
247	0x3e51bcd0	0.20482183
248	0x3e49b41e	0.19697616
249	0x3e52273b	0.20522778
250	0xbe3593bc	-0.17732137
251	0xbd5eb5ce	-0.0543726
252	0xbd27d76b	-0.040976923
253	0xbdbc1c15	-0.09185044
254	0xbd974e96	-0.07388036
255	0xbda52036	-0.080627844

conv1.bias f4 [6]
0	0x3ee5b3c2	0.44863707
1	0xbe8ff0a9	-0.28113297
2	0xbfb5342a	-1.4156544
3	0xbe1a81f3	-0.15088634
4	0xbeab3f45	-0.33446708
5	0xbeb4da96	-0.35323018

conv2.weight f4 [16, 6, 5, 5]
0	0x3cf83166	0.030296993
1	0x3b41ede7	0.0029591264
2	0xbd3908ad	-0.04517429
3	0xbda780de	-0.08178876
4	0xbcbde2c5	-0.023179421
5	0x3bf1e533	0.007382059
6	0xbc861cfb	-0.01637124
7	0x3d1d34be	0.038380377
8	0xbc483696	-0.012220046
9	0xbd9d0f67	-0.076689534
10	0xbcb860fc	-0.022507183
11	0x3da8b52b	0.0823768
12	0x3d963a0c	0.0733529
13	0xbd31b9ae	-0.04338997
14	0xbc917523	-0.01775605
15	0x3dbe9a9d	0.09306834
16	0x3da9bcd9	0.08287973
17	0x3d40789b	0.04699002
18	0x3dbb774e	0.09153615
19	0x3d3c76ea	0.046011843
20	0xbceb4deb	-0.028723678
21	0xbb2f45d5	-0.0026744504
22	0x3e0342ae	0.12818405
23	0x3cba3d27	0.022734238
24	0x3c0ae2cd	0.008476925
25	0x3da81a97	0.082081966
26	0x3dabd025	0.0838931
27	0xbd47181d	-0.04860698
28	0x3d3a8c7d	0.045544136
29	0x3dff6f0a	0.12472351
30	0x3d75c8a3	0.060005795
31	0xbcac7d44	-0.021055825
32	0xbcd89d14	-0.026442088
33	0xbd7eb0c0	-0.06218028
34	0x3d1a50f3	0.037674855
35	0x3da2546b	0.07926258
36	0xbcb9372b	-0.022609314
37	0x3d8263a1	0.06366659
38	0xbdb5feb7	-0.088864736
39	0xbda11859	-0.07865972
40	0xbd2f2a98	-0.04276523
41	0xbd6fd24d	-0.058550168
42	0x3d74a79c	0.059730157
43	0x3d959504	0.07303813
44	0xb9499f04	-0.00019228092
45	0xbcdd6b7f	-0.027028797
46	0x3d080798	0.033210367
47	0x3d27d850	0.040977776
48	0xbb5188f0	-0.003197249
49	0x3d757dd9	0.05993447
50	0x3d0be66a	0.034155287
51	0x3dd0bb86	0.10192017
52	0x3dd6583c	0.10466048
53	0x3db14cfb	0.08657261
54	0x3e20feb4	0.15722162
55	0x3dd7e050	0.10540831
56	0x3cd04c53	0.02542702
57	0x3c583cc5	0.013198082
58	0x3d530657	0.051519718
59	0xbab5a21f	-0.001385752
60	0x3db146f4	0.08656111
61	0xbd5c25ae	-0.05374687
62	0x3d1a3551	0.037648503
63	0x3d98b254	0.074558884
64	0x3db62074	0.08892909
65	0xbc5a5e4f	-0.013328149
66	0xbd9924c3	-0.07477715
67	0x3d20db89	0.039271865
68	0xbd81c51f	-0.06336426
69	0x39d09f0a	0.00039791345
70	0xbe13e731	-0.14443661
71	0xbe0a0e0c	-0.13481921
72	0xbd870c90	-0.06594193
73	0xbda33be4	-0.079704076
74	0x3d95e809	0.07319648
75	0xbc434d4e	-0.011920286
76	0x3c182e9a	0.009288454
77	0xbd5c94e1	-0.05385292
78	0xbd054d85	-0.03254463
79	0x3d8d1e77	0.06890576
80	0x3be1937d	0.006884037
81	0x3d5519aa	0.05202643
82	0x3df9bb6e	0.121939525
83	0x3dceb97e	0.100939736
84	0xbbd98992	-0.006638714
85	0x3da984bc	0.0827727
86	0x3c3a31af	0.011364385
87	0x3dcc70d2	0.09982456
88	0x3dcaba0d	0.098987676
89	0x3d9af8b0	0.075669646
90	0xbd818dd1	-0.063258775
91	0x3d2db502	0.04240895
92	0x3cc11d11	0.02357343
93	0xbc0fe292	-0.008782046
94	0xbc8b97d9	-0.01704018
95	0xbb91fdf9	-0.0044553247
96	0xbd7f28a9	-0.062294636
97	0xbcdef121	-0.027214589
98	0xbd9b3e27	-0.07580214
99	0x3d07d6e0	0.033163905
100	0xbca75ccb	-0.02042999
101	0xbd06e881	-0.032936577
102	0x3c4b5fdb	0.01241299
103	0xbd388914	-0.045052603
104	0x3d872dbe	0.066005215
105	0xbcc2a098	-0.023758218
106	0x3d0d7070	0.034531057
107	0xbd52f7b3	-0.051505756
108	0x3d703c9b	0.058651548
109	0xbd7499a1	-0.059716824
110	0xbd480130	-0.048829257
111	0x3d110217	0.035402384
112	0xbdb0b800	-0.08628845
113	0xbd827c4f	-0.06371366
114	0x3d706281	0.05868769
115	0xbccd8de5	-0.025092075
116	0xbe04ab6b	-0.12956016
117	0xbdbb8cc1	-0.09157706
118	0x3a74cf52	0.00093387545
119	0x3d04fd00	0.032467842
120	0xbda75a07	-0.08171468
121	0xbd94ef8c	-0.072722524
122	0x3c8b9811	0.017040284
123	0x3ca7979d	0.020458037
124	0x3d34335b	0.04399429
125	0xbd4df178	-0.05027911
126	0xbd53177f	-0.05153608
127	0x3c8b8333	0.017030334
128	0x3d4b6219	0.0496541
129	0x3ce27015	0.027641336
130	0x3b9f6679	0.0048645106
131	0xbcf2678d	-0.029590392
132	0x3c29cc6c	0.010363679
133	0x3b1e6ec4	0.0024174908
134	0x3da10d3b	0.07863852
135	0xbd9dd8d2	-0.07707371
136	0xbdee885f	-0.116471045
137	0x3d21231b	0.03934012
138	0x3d915d22	0.07097842
139	0x3d28762d	0.041128326
140	0xbb069753	-0.0020536974
141	0xbdde57b1	-0.108565696
142	0xbd8258a1	-0.06364561
143	0xbdac63d8	-0.08417481
144	0xbda658d3	-0.081224106
145	0xbd9e5f23	-0.0773299
146	0xbd3aaa6d	-0.045572687
147	0xbce24786	-0.027621996
148	0xbccdd3c5	-0.025125394
149	0xbd4372ff	-0.04771709
150	0x3de907b5	0.11378423
151	0x3d4e4460	0.050358176
152	0x3e36b157	0.17841087
153	0xbb3160e5	-0.002706581
154	0x3ceeb62b	0.029139599
155	0x3c83a9af	0.016072122
156	0x3e26c0b9	0.16284455
157	0x3d7131ac	0.05888526
158	0xbd391729	-0.045188103
159	0x3d58180e	0.052757315
160	0x3e2e2b8e	0.17008802
161	0x3dc360f8	0.0953998
162	0xbcedc234	-0.029023267
163	0x3af63568	0.0018784227
164	0x3b29ef90	0.0025930144
165	0x3e52de47	0.20592605
166	0x3e1f4fb8	0.15557754
167	0x3d434091	0.047668997
168	0xbd33a7c4	-0.043861166
169	0xbda59124	-0.08084324
170	0x3e7087a1	0.23489238
171	0x3dd6319c	0.10458681
172	0x3d3e96e7	0.04653063
173	0x3c6b2d0d	0.014354003
174	0x3ce1fdff	0.027586935
175	0xbd1a1516	-0.037617765
176	0xbe299bd0	-0.16563344
177	0xbdb665e1	-0.089061506
178	0xbd9c9e64	-0.07647398
179	0x3ca84ceb	0.02054449
180	0xbe1c6007	-0.15271007
181	0xbd78f9ee	-0.060785227
182	0xbd1f8954	-0.038949326
183	0xbcbdceb0	-0.023169845
184	0xba57d174	-0.000823281
185	0xbe3892b9	-0.1802472
186	0xbd36caa0	-0.044626832
187	0x3cce0b87	0.025151981
188	0xbd3d4e9f	-0.046217557
189	0xbc850268	-0.016236499
190	0xbe36c11b	-0.17847101
191	0xbe020ad6	-0.12699446
192	0xbcf10c86	-0.029424917
193	0xbdf3362e	-0.11875568
194	0xbd9f25ca	-0.077708796
195	0xbdde43b2	-0.108527556
196	0xbe085a66	-0.13315734
197	0xbd116bb0	-0.03550309
198	0xbd99d4c1	-0.07511283
199	0xbe0536a1	-0.1300912
200	0xbe75746c	-0.23970193
201	0xbe815be4	-0.2526542
202	0xbcabc73c	-0.020969026
203	0x3e035965	0.1282707
204	0xbc0ffd4f	-0.008788421
205	0xbe3fda86	-0.18735704
206	0xbe2f8dfd	-0.17144008
207	0x3c6acdef	0.014331325
208	0x3d90617f	0.07049846
209	0x3e056e63	0.1303039
210	0xbe89307c	-0.26794803
211	0xbd4fe508	-0.05075553
212	0x3d84a740	0.06477213
213	0x3de65000	0.112457275
214	0x3dd4339c	0.10361406
215	0xbe7a62ea	-0.24451795
216	0xbe0c5c35	-0.13707049
217	0xbca10f8f	-0.01966074
218	0x3c1a8c1d	0.00943282
219	0x3d0bb082	0.034103878
220	0xbe8053d9	-0.2506397
221	0xbe05c01c	-0.13061565
222	0x3d9057b2	0.070479766
223	0xbbcaeaa8	-0.006192524
224	0xbc69c16f	-0.01426731
225	0x3cdb4aa8	0.026768997
226	0xbdc5dc61	-0.096611746
227	0xbc2a729d	-0.0104033025
228	0xbd866e75	-0.06564037
229	0xbdb58cfe	-0.08864783
230	0xbd2b88d7	-0.041878548
231	0xbdc8cdde	-0.09804891
232	0x3c8cc093	0.01718167
233	0x3c16fa27	0.009214914
234	0x3ce52621	0.027972283
235	0xbd942848	-0.072342455
236	0x3d21e5c5	0.039525766
237	0xbdd4eb7c	-0.103964776
238	0xbc9c28ed	-0.019062484
239	0x3d0e188d	0.034691382
240	0x3c0693a0	0.0082139075
241	0x3d8dc101	0.06921578
242	0xbd89036f	-0.06690108
243	0x3d789530	0.06068915
244	0x3d326b5f	0.04355943
245	0x3ca1ae7b	0.01973652
246	0x3c3a9a05	0.01138926
247	0x3d96625c	0.07342979
248	0x3cbca891	0.023029597
249	0xbceaeb95	-0.028676787
250	0xbe0b2ed9	-0.1359209
251	0xbe2d5eb8	-0.16930664
252	0x3c9df336	0.019281011
253	0xbc5184fc	-0.012788054
254	0xbd3f039a	-0.046634294
255	0xbd1aa381	-0.037753586

conv2.bias f4 [16]
0	0x3d164890	0.036690295
1	0x3dd5c481	0.10437871
2	0xbcc1b5aa	-0.023646194
3	0xbdc73175	-0.0972623
4	0xb958fa10	-0.00020692521
5	0x3df8ab18	0.121420085
6	0x3ca19a25	0.019726822
7	0xbce93a1b	-0.02847009
8	0xbdf3f9b8	-0.119128644
9	0xbcc76b9f	-0.02434331
10	0xbeae7507	-0.3407366
11	0xbd5fb343	-0.054614317
12	0xbcf361c7	-0.02970971
13	0xbd917b2b	-0.071035706
14	0xbd619e81	-0.0550828
15	0xbdc2eecc	-0.09518203

fc1.weight f4 [120, 400]
0	0x3ba9c444	0.0051808674
1	0xbd10533c	-0.03523563
2	0x3bfe8ed1	0.00776849
3	0x3d2ee4c1	0.042698625
4	0xbd19caf0	-0.037547052
5	0x3d3480ba	0.044068076
6	0x3c9641a1	0.018341841
7	0xbb40227e	-0.0029317434
8	0x3d3acbbe	0.04560446
9	0x3d1fe3ae	0.03903549
10	0xbc2f1c92	-0.010687964
11	0xbba3d1a1	-0.004999355
12	0xbd06e5fc	-0.032934174
13	0x3bcc3174	0.006231481
14	0x3c110a2b	0.008852522
15	0xbc4e3dcb	-0.012587975
16	0xbd348488	-0.044071704
17	0x3bd6a120	0.0065499693
18	0xbc882d52	-0.016623173
19	0x3c87d09f	0.01657897
20	0xbd4ad108	-0.049515754
21	0x3caafaae	0.020871487
22	0xbd49de06	-0.049284004
23	0xbd32ca2f	-0.04364985
24	0x3c951135	0.018196682
25	0x3d08ab28	0.033366352
26	0x3d00243f	0.031284567
27	0x3c2b606c	0.0104600005
28	0x3c322fb1	0.010875628
29	0xbc80e12b	-0.015732368
30	0x3b00c87c	0.0019650748
31	0xbcb42637	-0.021990879
32	0x3d58aa3b	0.05289672
33	0xba102565	-0.0005498736
34	0x3b966f13	0.004590878
35	0x3d17f337	0.037097182
36	0x3c08dfe0	0.008354157
37	0xbc669d6c	-0.014075618
38	0xbc3e11ac	-0.011600893
39	0xbb23d051	-0.0024995992
40	0x3ca9025a	0.020631004
41	0x3c023d6a	0.007949213
42	0x3d11333a	0.035449244
43	0x3d149d8a	0.036283053
44	0xbd73965c	-0.059469566
45	0xbd027c0c	-0.03185658
46	0x3d51ac90	0.05118996
47	0xba98495f	-0.0011618546
48	0x3bb3c213	0.005485782
49	0x3abb96c9	0.0014311905
50	0x3d4d1d03	0.050076496
51	0xbc77214d	-0.015083623
52	0xbb633252	-0.0034667444
53	0x3d26f7f2	0.040763803
54	0x3ca972cc	0.020684622
55	0xbce1cda2	-0.027563874
56	0xbc4cff35	-0.012512018
57	0x3c4b179d	0.012395767
58	0x3d0f1e48	0.034940988
59	0xbd39409a	-0.045227624
60	0x3ca3bee6	0.019988488
61	0xbcf67c00	-0.030088425
62	0xbd17191e	-0.036889188
63	0xbba24317	-0.0049518454
64	0x3d2e0e92	0.042494364
65	0x3d11c48a	0.035587825
66	0xbd4548b3	-0.048165035
67	0xbc73614b	-0.014854739
68	0xbbd0195b	-0.006350679
69	0xbd08e845	-0.033424634
70	0x3c176248	0.009239741
71	0xbbf9194f	-0.007601894
72	0x3d027d1a	0.031857587
73	0xbcf8affe	-0.030357357
74	0x3d4801a1	0.04882968
75	0x3bfd7b1c	0.007735623
76	0x3c9ab1c5	0.018883595
77	0x3d0f1bc6	0.034938596
78	0x3d40968e	0.04701858
79	0x3d22dedc	0.039763317
80	0xbd399540	-0.04530835
81	0xbc94b10c	-0.018150829
82	0xbcac6449	-0.021043913
83	0xbaadab18	-0.0013249842
84	0xbd02f825	-0.03197493
85	0xbcb2cfc8	-0.021827593
86	0xbd1552ba	-0.036455847
87	0x3d23ad3c	0.03996013
88	0x3c7132f2	0.014721619
89	0x3be675f7	0.0070331055
90	0x3c3a30b6	0.011364153
91	0x3d402db0	0.04691857
92	0x3d5a6a94	0.053324297
93	0x3ba5f449	0.0050645215
94	0x3b15a4c8	0.0022833813
95	0x3d03ef77	0.032210793
96	0xbc5ff9fd	-0.013670442
97	0x3d49c59f	0.04926073
98	0xbc3d33f1	-0.011548028
99	0xbd73725c	-0.059435233
100	0x3cffbca4	0.03121788
101	0x3d5abdaf	0.053403553
102	0xbccef70c	-0.025264286
103	0x3d04ba35	0.032404143
104	0xbc7494d0	-0.014928058
105	0x3d5e7f2f	0.05432051
106	0x3b17233f	0.002306178
107	0x3b83e6b7	0.004025306
108	0x3d2fcc61	0.04291952
109	0x3d0d28c3	0.0344627
110	0x3c0bb74c	0.008527588
111	0x3c2090e9	0.009800174
112	0xbd1d88ab	-0.038460415
113	0x3b849fe7	0.004047382
114	0xbd44969b	-0.04799519
115	0x3caa13a9	0.020761328
116	0x3c537862	0.0129071195
117	0x3ce4b385	0.027917633
118	0xbd24ae03	-0.040205013
119	0x393c2da1	0.00017946075
120	0xbcd3f26d	-0.025872434
121	0xbcd3ff7b	-0.025878659
122	0xbc92d2ab	-0.01792272
123	0x3d238b81	0.039927963
124	0x3c840b44	0.016118653
125	0xbd122345	-0.035678167
126	0x3d1fa67d	0.038977135
127	0x3be9faa5	0.007140475
128	0x3d40b5a4	0.047048226
129	0xbd40c576	-0.047063313
130	0xbc0b27f8	-0.008493416
131	0x3c8f976f	0.017528264
132	0xbd37d146	-0.044877313
133	0x3ccdeb5c	0.025136642
134	0xbd3301aa	-0.04370276
135	0xbbb00cae	-0.0053726053
136	0xbd40be02	-0.047056206
137	0xbd427961	-0.047479037
138	0x3c9a775c	0.018855743
139	0x3c575f1e	0.013145236
140	0xbc627aac	-0.013823193
141	0xbc239571	-0.00998436
142	0x3c988bea	0.018621404
143	0xbc257852	-0.010099487
144	0x3c924cff	0.01785898
145	0x3c0a4f70	0.008441791
146	0xbbb2833d	-0.0054477737
147	0x3b297bb3	0.0025861084
148	0x3d111732	0.03542251
149	0xbd0859e0	-0.033288836
150	0xbd211298	-0.039324373
151	0x3c8283aa	0.015931923
152	0x3cfba7fb	0.030719748
153	0x3c6fb65f	0.014630883
154	0xbd677d44	-0.056515947
155	0xbd0c4734	-0.034247592
156	0x3d23018b	0.039796393
157	0x3d0e2af7	0.034708943
158	0x3c327f0f	0.010894551
159	0xbb3c95c4	-0.002877579
160	0x3c109eea	0.008826951
161	0x3cf24457	0.029573603
162	0x3cea8e42	0.028632287
163	0x3d4c2531	0.049840156
164	0x3c9804ba	0.018556941
165	0xbd34cb77	-0.04413935
166	0xbcd39dbb	-0.025832048
167	0x3d3bebc3	0.045879137
168	0x3c2964f0	0.010339007
169	0xbb5f36cc	-0.003405976
170	0x3ce7b371	0.028283807
171	0xbc33b4bf	-0.010968386
172	0xbbf47d46	-0.007461223
173	0xbc8e2a33	-0.017354107
174	0xbd99bd2d	-0.075067855
175	0x3d6c9b39	0.05776522
176	0x3d4fba96	0.05071505
177	0x3c5d16bf	0.013494193
178	0x3d30ccb4	0.04316397
179	0xbccfc68d	-0.025363231
180	0xbc4d6f85	-0.012538795
181	0xbb4dca2e	-0.0031401026
182	0x3d1290d6	0.035782658
183	0xbd05bd1f	-0.032651063
184	0x3d427697	0.047476377
185	0xbcac7d3e	-0.021055814
186	0xbaebc3b9	-0.0017987407
187	0xbcd3b38a	-0.025842447
188	0xbc6cdd5b	-0.014457072
189	0xbbc4e16b	-0.006008317
190	0x3ce27c37	0.02764712
191	0x3c84919d	0.016182715
192	0xba5ef3f4	-0.000850498
193	0x3b3cfa7d	0.0028835826
194	0xbcc96bb3	-0.024587488
195	0x3b39a22f	0.0028325429
196	0xbd137b58	-0.0360063
197	0x3cebd26c	0.02878686
198	0xbd2929e7	-0.041299727
199	0xbd4a8fd2	-0.049453564
200	0x3d212230	0.039339244
201	0x3d1bccb3	0.038037013
202	0x3cbb897e	0.02289271
203	0x3b2898b0	0.0025725774
204	0xbc2fa005	-0.010719304
205	0x3a93a029	0.0011262941
206	0xbcf997fe	-0.030467983
207	0xbd4f9a0a	-0.050684012
208	0xbd3c6cf5	-0.046002347
209	0xbcea4bf8	-0.028600678
210	0xbb9d0a08	-0.0047924556
211	0x3c237d9d	0.009978679
212	0xbc014b74	-0.007891525
213	0xbd5b5e43	-0.05355669
214	0x3ccafa41	0.024777533
215	0x3d14b57f	0.0363059
216	0xbce3e246	-0.027817857
217	0xbc47598b	-0.012167345
218	0x3c8f93f3	0.017526602
219	0xbd1fef04	-0.039046302
220	0xbd44af94	-0.048019007
221	0xbb16e536	-0.0023024804
222	0xbc959ab5	-0.018262247
223	0x3c0fc08c	0.008773934
224	0x3bb83743	0.005621822
225	0x3abd99df	0.0014465413
226	0xbc53575e	-0.012899248
227	0x3c66cd74	0.01408707
228	0x3c885abf	0.016644834
229	0xbd52bb16	-0.05144795
230	0x3c10b69b	0.008832599
231	0xbd335909	-0.043786082
232	0x3c8bd5dd	0.017069751
233	0x3d30d8ad	0.043175388
234	0x3c132fb9	0.008983546
235	0x3d0c503e	0.034256212
236	0x3a4e95c9	0.0007880596
237	0x3d11b246	0.035570405
238	0xbd363880	-0.044487476
239	0x3b8b4e0f	0.0042512487
240	0xbd0e79cd	-0.034784127
241	0xbbd8b8f0	-0.006613843
242	0x3d2b717e	0.04185628
243	0xbb897973	-0.004195386
244	0x3d1b2ce3	0.037884604
245	0x3d366db1	0.044538204
246	0x3d2ba832	0.04190845
247	0xba8455bd	-0.0010096353
248	0xbd317bb7	-0.043330874
249	0x3c893f48	0.016753808
250	0x3d0a233d	0.033725012
251	0xbbc5ed73	-0.006040269
252	0xbd201a23	-0.039087426
253	0x3d24f325	0.040270943
254	0x3d857fd2	0.065185204
255	0x3c53ac1e	0.012919454

fc1.bias f4 [120]
0	0xbcfdc71f	-0.030978737
1	0xbbc6c172	-0.006065541
2	0xbd4057b6	-0.046958648
3	0x3ce44c44	0.027868398
4	0x3d12568d	0.035727073
5	0xbcf5f34e	-0.030023243
6	0xbcd6a215	-0.026200334
7	0xbd2e0726	-0.042487286
8	0xbc938e75	-0.018012265
9	0x3c114636	0.008866837
10	0xbd4036b6	-0.046927176
11	0x3c1b8765	0.00949273
12	0x3d8333c1	0.06406356
13	0xbcf145ef	-0.029452292
14	0x3de22d57	0.11043804
15	0x3de15341	0.110022075
16	0xbbd701a0	-0.006561473
17	0xbd0e03b2	-0.034671493
18	0x3b9b9fae	0.00474926
19	0x3bf0b305	0.0073455595
20	0x3ca7514e	0.020424511
21	0xbd26275a	-0.040564872
22	0x3c6c0759	0.014406049
23	0xbc1861e9	-0.009300687
24	0xbd7d12cf	-0.061785515
25	0x3c8d1e43	0.017226344
26	0x3d9f3f8c	0.077757925
27	0xbbc3af2f	-0.0059718112
28	0xbd48daeb	-0.0490369
29	0x3d445bb2	0.04793901
30	0x3d34368c	0.043997332
31	0xbb74a5ef	-0.003733035
32	0xbd0c1be4	-0.034206286
33	0xbd92d610	-0.071697354
34	0xbd132a3c	-0.03592895
35	0xbd274c9b	-0.04084454
36	0x3c7d8271	0.015472994
37	0x3d60387d	0.05474137
38	0xbbac3fbe	-0.005256622
39	0xbd83398f	-0.06407463
40	0xbda1bad1	-0.078969605
41	0xbc9ab941	-0.018887164
42	0xbd017e7d	-0.03161477
43	0x3b805019	0.0039157984
44	0xbb39fefd	-0.0028380745
45	0x3d153e68	0.03643647
46	0x3b07f448	0.0020744968
47	0xbd33ce77	-0.043898072
48	0xbd9896f1	-0.07450665
49	0xbc095a81	-0.008383394
50	0x3cc3c515	0.023897687
51	0x3a83f9f4	0.0010068999
52	0x3dc724f0	0.09723842
53	0x3d3a54d9	0.045491073
54	0xbc1a402d	-0.009414715
55	0xbca82709	-0.020526426
56	0xb9806494	-0.00024489
57	0xbd744f9d	-0.059646238
58	0xbd1cda4d	-0.038294125
59	0x3c9a63a3	0.018846339
60	0x3d17e710	0.037085593
61	0xbce3b577	-0.02779649
62	0xbcaed41f	-0.021341382
63	0x3dae4052	0.08508362
64	0xbbae44fe	-0.005318283
65	0xbd50fbfc	-0.05102156
66	0x3d00f23a	0.031481005
67	0xbb5a5f61	-0.003332101
68	0xbd27e4fd	-0.040989865
69	0x3c9cdb22	0.01914746
70	0xbd1edf42	-0.038787134
71	0x3d7b0010	0.061279356
72	0x3cba9d16	0.022779983
73	0xbc0d0bf1	-0.008608804
74	0xbb51778d	-0.0031962127
75	0x3c566aa8	0.013086952
76	0xbd3dae27	-0.046308663
77	0x3cacd746	0.021098744
78	0xbd0d5e13	-0.034513544
79	0xbd852d99	-0.06502838
80	0xbd1d8da2	-0.03846515
81	0xbcff5574	-0.031168677
82	0x3d13281b	0.03592692
83	0xbd3895fd	-0.045064915
84	0x3d8c73fc	0.0685806
85	0x3c33aa40	0.010965884
86	0xbc7c4bb8	-0.015398912
87	0x3d0989b2	0.033578582
88	0x3cb718af	0.022350637
89	0xbc99d672	-0.018779013
90	0x3d005a6a	0.031336226
91	0xbb249e66	-0.0025118827
92	0x3d32c224	0.04364218
93	0xbd298cc0	-0.041393995
94	0x3d1710ee	0.03688138
95	0xbca93c01	-0.020658495
96	0xbd655ed3	-0.055998635
97	0xbd92a81e	-0.07160972
98	0x3d81b700	0.063337326
99	0xbbdc799f	-0.0067283656
100	0xbd5b2535	-0.05350228
101	0x3d565e02	0.052335747
102	0xbce0cdad	-0.027441824
103	0xbd030bf5	-0.031993825
104	0xbd3cf905	-0.04613592
105	0xbbfe4dc0	-0.0077607334
106	0xbd0ce493	-0.034397673
107	0x3c07d357	0.008290133
108	0x3bdcc426	0.00673725
109	0x3cb73a2d	0.022366608
110	0x3cf9dd01	0.03050089
111	0xbc76e7c9	-0.01506991
112	0x3cc62c32	0.024190996
113	0xbc8b2741	-0.016986491
114	0x3ca30d4b	0.0199038
115	0xbd01d959	-0.03170142
116	0x3ccb5d7e	0.024824854
117	0x3d428b10	0.0474959
118	0x3c07abf1	0.00828074
119	0x3cafbf48	0.021453515

fc2.weight f4 [84, 120]
0	0xbdb9b31c	-0.090673655
1	0xbc843bd7	-0.016141815
2	0x3b3efa64	0.0029140944
3	0x3d603c55	0.054745037
4	0xbdfb9ade	-0.12285398
5	0x3d6afdbb	0.057370882
6	0xbc9061fe	-0.017624851
7	0x3c9cf2c6	0.019158732
8	0x3b99ed0f	0.004697449
9	0x3d8dce86	0.06924157
10	0xbd5731e7	-0.052537825
11	0x3d86f6cc	0.065900415
12	0x3d8231d2	0.06357159
13	0xbc96a375	-0.01838849
14	0xbc9c1a74	-0.019055583
15	0xbda56a79	-0.08076949
16	0x3bde75f3	0.006788963
17	0x3bdf162d	0.0068080635
18	0xbdba3007	-0.09091192
19	0xbd8568d0	-0.06514132
20	0x3cab31a3	0.020897692
21	0xbc5f0534	-0.01361208
22	0xbdb3fe34	-0.0878872
23	0x3e0473a5	0.1293474
24	0x3dc9c3f8	0.09851831
25	0xbdb7e586	-0.08979325
26	0xbc8a1614	-0.01685623
27	0xbe1097bb	-0.1412038
28	0x3e243a94	0.16037971
29	0xbc861081	-0.016365292
30	0x3ccbbd76	0.024870615
31	0xbcd3cb09	-0.02585365
32	0x3d8be030	0.0682987
33	0xbd32df56	-0.04367002
34	0x3e0c2383	0.13685422
35	0x3dbba5a4	0.09162453
36	0x3da9f1fe	0.082981095
37	0x3d83c4d2	0.06434025
38	0xbd76b126	-0.060227536
39	0x3da0e8d0	0.078569055
40	0x3d5cc02a	0.0538942
41	0xbcbe7c9a	-0.023252774
42	0xbbf77f4b	-0.0075530163
43	0x3afc7892	0.0019262007
44	0x3bcdf4f7	0.0062853056
45	0x3d2ac632	0.04169292
46	0xbb317b36	-0.0027081496
47	0x3cd33f03	0.025786882
48	0x3e0b37ee	0.13595554
49	0x3dcb3ec8	0.09924084
50	0x3ce63e5d	0.028105909
51	0xbc6b3666	-0.014356231
52	0xbdb38b40	-0.08766794
53	0xbd1c1300	-0.038104057
54	0x3c607681	0.0137001285
55	0x3c48df19	0.012260222
56	0xbc2438e9	-0.010023334
57	0x3ca0a93d	0.01961195
58	0x3d40a3d2	0.04703123
59	0x3c14f5ae	0.009091778
60	0x3c419a9c	0.011816647
61	0xbd55f56c	-0.052236006
62	0x3d97ceae	0.07412468
63	0x3d0ce8e7	0.0344018
64	0xbd81e983	-0.06343367
65	0xbd3e132b	-0.046405
66	0xbd8766a0	-0.06611371
67	0x3d1e76fe	0.0386877
68	0xbd295eda	-0.041350223
69	0xbd09671c	-0.0335456
70	0x3d720864	0.059090033
71	0xbdecdc4f	-0.11565458
72	0x3d489359	0.048968647
73	0xbb9bf903	-0.004759909
74	0x3da204b8	0.07911056
75	0x3c3530c2	0.011058988
76	0x3d859f81	0.065245636
77	0xbd0745d7	-0.03302559
78	0x3d325b08	0.043543845
79	0x3d42b214	0.04753311
80	0x3dbea078	0.09307951
81	0x3dfc3d08	0.12316328
82	0xbd940def	-0.0722922
83	0x3e312660	0.17299795
84	0x3d86be95	0.065793194
85	0x3d6422a5	0.055697102
86	0xbd9126f5	-0.070875086
87	0xbd915939	-0.07097096
88	0x3cf91971	0.03040764
89	0x3c62d0a9	0.013843694
90	0xbcf08009	-0.029357927
91	0x3d5a1b7b	0.053248864
92	0x3d945119	0.07242031
93	0xbcd57db5	-0.026060918
94	0x3d628339	0.055300925
95	0x3db2b1c5	0.08725313
96	0x3db6552f	0.08902966
97	0x3e141b39	0.1446351
98	0xbdc00276	-0.093754694
99	0xbdcf6275	-0.10126201
100	0x3c7aaf8a	0.015300641
101	0xbd3f7088	-0.046738178
102	0x3cd11167	0.025520993
103	0x3db84123	0.08996799
104	0xbb8504a5	-0.0040593916
105	0xbd8cdb2a	-0.0687774
106	0x3e2d1030	0.16900706
107	0x3cd61ded	0.026137317
108	0xbd9d7d3d	-0.07689903
109	0x3d2c983d	0.042137373
110	0xbda23e0c	-0.07921991
111	0x3a454cba	0.0007526387
112	0x3ca324bc	0.019914977
113	0x3d148d18	0.03626737
114	0x3d937f5c	0.07202026
115	0xbd9bf63a	-0.07615323
116	0x3d89eabc	0.06734225
117	0xbdcd58d7	-0.100267105
118	0xbda52e81	-0.080655105
119	0xbd88f758	-0.06687802
120	0x3c53a389	0.012917408
121	0x3cc68e40	0.024237752
122	0x3db766a8	0.08955127
123	0xbb8f9839	-0.00438216
124	0xbcb59da2	-0.022169892
125	0xbd91967b	-0.0710878
126	0x3d37fcdf	0.04491889
127	0x3db1ee4b	0.08688029
128	0xbcc3a336	-0.023881536
129	0x3c67163d	0.014104423
130	0x3dd1d0ec	0.10244927
131	0x3a8da506	0.0010806627
132	0x3d322a60	0.043497443
133	0xbc83198d	-0.016003394
134	0x3d780652	0.060552903
135	0xbd8ae1ae	-0.06781326
136	0xbd301e9a	-0.042997934
137	0x3d231489	0.039814506
138	0xbda91770	-0.082564235
139	0xbba2d926	-0.004969734
140	0x3d37dc07	0.04488757
141	0x3d1b9e11	0.03799254
142	0x3d070f0f	0.032973345
143	0xbca1b3cc	-0.019739054
144	0x3dcefc0c	0.10106668
145	0xbbbab4fb	-0.005697844
146	0x3dbd1638	0.092327535
147	0x3d1ffe5f	0.039060947
148	0x3dba8c7f	0.09108829
149	0x3d71f651	0.059072796
150	0xbda98e90	-0.08279145
151	0xbda022d4	-0.07819143
152	0xbdb5140a	-0.08841713
153	0xbd274e84	-0.040846363
154	0x3d492ece	0.049116902
155	0x3d4d83fd	0.050174702
156	0xbddf1592	-0.10892786
157	0xbb4bb768	-0.003108466
158	0xbcc6b5d7	-0.02425663
159	0xbd276490	-0.04086739
160	0xbdd642e1	-0.10461975
161	0x3e3a494a	0.1819202
162	0xbe0eb863	-0.13937525
163	0x3da4bfb6	0.080443785
164	0xbd92560d	-0.07145319
165	0x3ce66c07	0.028127683
166	0xbc1e02ad	-0.009644193
167	0x3d93a3ce	0.07208978
168	0xbcbefb36	-0.023313146
169	0xbd44e1f3	-0.048067044
170	0x3e101e90	0.14074159
171	0xbd57177c	-0.05251263
172	0xbd12eb01	-0.03586865
173	0xbca98846	-0.020694863
174	0x3d9f2e6b	0.077725254
175	0x3de6c3ba	0.11267801
176	0x3bd9efa6	0.006650883
177	0x3ddf3876	0.10899441
178	0xbda0460c	-0.078258604
179	0xbd7b98c1	-0.061424974
180	0x3e041a66	0.12900695
181	0x3d0ffa1a	0.035150625
182	0xbcc1f6a6	-0.023677181
183	0xbd220792	-0.039558
184	0xbdd5986d	-0.104294635
185	0x3dd096f9	0.10185046
186	0x3b951374	0.004549438
187	0x3d28fbd3	0.041255783
188	0x3e06d853	0.13168459
189	0xbd603a57	-0.054743137
190	0xbd920c9b	-0.071313106
191	0x3dd28b80	0.10280514
192	0x3deeeb8f	0.11666023
193	0xbd4a4ccb	-0.04938964
194	0xbcbf694a	-0.023365635
195	0x3ca578ab	0.02019914
196	0xbdaf12ea	-0.085485294
197	0xbd543950	-0.05181247
198	0xbd8267b9	-0.0636744
199	0xbc1bf132	-0.009517955
200	0x3e14979f	0.14510964
201	0x3c9b0ae3	0.01892609
202	0xbce24397	-0.02762012
203	0x3d3e66a9	0.046484623
204	0xbdb90397	-0.09033888
205	0xbd1a7c7e	-0.03771638
206	0xbd2a7bbb	-0.041621905
207	0x3e39eaac	0.18155926
208	0x3e07ca61	0.13260795
209	0xbaf49e80	-0.0018662959
210	0x3db51f00	0.088438034
211	0x3d6257de	0.055259578
212	0x3d9ee8ff	0.07759284
213	0x3d4f8ae0	0.05066955
214	0x3d000e00	0.03126335
215	0x3cb8658c	0.022509359
216	0x3ddb6b59	0.10713834
217	0xbd57d634	-0.052694514
218	0xbe05c7b9	-0.1306447
219	0x3d53627e	0.0516076
220	0xbd6620fc	-0.0561838
221	0x3d6e6c11	0.05820853
222	0x3d4bdd34	0.049771503
223	0xbc92cc86	-0.01791979
224	0x3d36c399	0.04462013
225	0x3c9555ed	0.01822945
226	0x3d1247bb	0.03571294
227	0x3d88b70b	0.06675538
228	0x3c901812	0.017589603
229	0x3cb88825	0.022525856
230	0x3d857251	0.06515945
231	0x3dfd7174	0.12375155
232	0x3cc66e52	0.024222527
233	0x3d2d1760	0.04225862
234	0x3bacb605	0.005270722
235	0xbc87b89f	-0.016567526
236	0x3cf6741e	0.030084666
237	0xbdda67d1	-0.10664333
238	0xbc7f14d5	-0.015568932
239	0x3d0417ee	0.032249384
240	0x3d2821e2	0.04104794
241	0xbd16dcfc	-0.03683184
242	0xbd3f3c29	-0.046688233
243	0x3d1ede57	0.03878626
244	0xbd32d01d	-0.043655504
245	0x3d390dc2	0.045179136
246	0xbdb86a84	-0.09004691
247	0x3d344c91	0.044018332
248	0x3db2f081	0.08737279
249	0x3d7ef136	0.062241755
250	0x3ce2c4f7	0.02768181
251	0xbd837172	-0.06418122
252	0xbca8904f	-0.020576624
253	0xbc76e710	-0.015069738
254	0x3d2a8dbe	0.041639082
255	0xbd5071c0	-0.05088973

fc2.bias f4 [84]
0	0x39973578	0.00028840802
1	0xbd9c559c	-0.07633516
2	0xbc66a438	-0.014077239
3	0x3a880eb8	0.0010380363
4	0xbdd0d0b6	-0.101960585
5	0x3c1644e4	0.009171698
6	0x3e596c1b	0.21232645
7	0x3cd8ed28	0.026480272
8	0xbd85c07d	-0.06530855
9	0xbb97db89	-0.004634325
10	0xbdbd5fb6	-0.09246771
11	0x3b3adefb	0.0028514254
12	0xbca93bfe	-0.02065849
13	0xbdf5bc19	-0.119987674
14	0xbd724d58	-0.059155792
15	0xbd678a0a	-0.05652813
16	0x3c927afa	0.017880905
17	0x3d157cbc	0.03649591
18	0xbdb615ee	-0.088909015
19	0x3e0123b4	0.12611276
20	0x3d91b660	0.071148634
21	0x3dd96a04	0.10615924
22	0x3e1ce3de	0.153213
23	0xbda85391	-0.08219064
24	0x3e0bf187	0.13666354
25	0xb99dc0c8	-0.00030089007
26	0x3dffaf14	0.124845654
27	0x3dc9b7f7	0.09849542
28	0x3e127087	0.14300738
29	0xbaa0ac70	-0.0012258422
30	0x3da5582c	0.08073458
31	0xbce1ee18	-0.027579352
32	0x3d44bf86	0.048034213
33	0x3e2ccd21	0.16875125
34	0x3d78beb3	0.06072874
35	0x3cea389c	0.028591447
36	0x3dfd1937	0.12358325
37	0xbbc09025	-0.0058765584
38	0x3e2800d4	0.16406566
39	0x3d029b16	0.031886183
40	0xbd246892	-0.04013879
41	0xbdb4f7dc	-0.08836338
42	0x3debe125	0.11517552
43	0xbcff9791	-0.031200202
44	0xbc3ab803	-0.011396411
45	0xbd8b0810	-0.06788647
46	0x3d56cbe8	0.052440554
47	0xbd2667b9	-0.04062626
48	0x3d9e540f	0.07730877
49	0xbc8225bf	-0.01588714
50	0xbd1229a4	-0.035684243
51	0xbdca2bfe	-0.09871672
52	0xbd99ca49	-0.07509286
53	0xbd85eb36	-0.065390036
54	0xbc6e3e9c	-0.014541294
55	0x3d4d982a	0.050193943
56	0xbdd8f5c3	-0.1059375
57	0x3e2dbe66	0.16967162
58	0xbd61f748	-0.055167466
59	0x3e15b5f6	0.14620194
60	0x3c9c88b2	0.01910815
61	0x3d88cd74	0.06679812
62	0x3d9266bb	0.071485005
63	0x3ccfc0cd	0.02536049
64	0x3c8b2573	0.01698563
65	0xbd27bdae	-0.040952377
66	0x3c3c98ce	0.011511041
67	0xbd73db6e	-0.059535436
68	0x3cb8e462	0.022569839
69	0xbd307998	-0.04308471
70	0xbd32310c	-0.043503806
71	0xbcaed2f2	-0.021340821
72	0x3dace48d	0.0844203
73	0xbdafc80d	-0.085830785
74	0xbdeacfbf	-0.11465406
75	0x3d2b7b5c	0.04186569
76	0x3d0884bb	0.033329707
77	0x3c05f01a	0.00817492
78	0x3dbf37ce	0.09336816
79	0xbdb210e3	-0.08694627
80	0x3cf107d8	0.029422686
81	0xbd93a894	-0.07209888
82	0x3da2aa8d	0.07942686
83	0xbd378a87	-0.044809844

fc3.weight f4 [10, 84]
0	0x3ea7709a	0.32703096
1	0x3e489987	0.19589816
2	0xbe09edd6	-0.13469633
3	0xbdb6846c	-0.08911976
4	0x3d8bcb78	0.06825918
5	0xbe72fee3	-0.23730044
6	0xbe9786e2	-0.29595095
7	0x3e6e222d	0.23255225
8	0x3d53001a	0.05151377
9	0x3dbf37f1	0.09336842
10	0x3e2d871b	0.1694607
11	0xbd6fc1f5	-0.05853458
12	0x3ea8dba7	0.3298008
13	0xbc6a9688	-0.014318116
14	0x3d457009	0.04820255
15	0xbcf5d66d	-0.030009473
16	0x3db74088	0.08947855
17	0x3c53748f	0.012906208
18	0xbd482d38	-0.04887125
19	0xbe6ec336	-0.23316655
20	0xbd96f992	-0.073718205
21	0xbe514dc5	-0.20439823
22	0xbda808f1	-0.082048304
23	0xbdb820e9	-0.08990652
24	0xbe326d70	-0.1742456
25	0xbdd48324	-0.103765756
26	0xbe296da3	-0.1654573
27	0xbdac93dc	-0.084266394
28	0xbea20f22	-0.3165217
29	0xbc8a80fc	-0.016907208
30	0xbe184ee0	-0.14873838
31	0x3e449f1c	0.1920132
32	0xbe55108b	-0.20807092
33	0xbe223f88	-0.15844548
34	0xbe238ca3	-0.15971617
35	0x3e1f6ee2	0.15569642
36	0xbda8e8c1	-0.08247519
37	0x3e40046b	0.18751685
38	0xbdc4f9a1	-0.096179254
39	0x3d3a259d	0.045446027
40	0x3d89cb49	0.06728227
41	0xbd4082b4	-0.04699965
42	0xbdfff36c	-0.12497601
43	0xbd0b811c	-0.034058675
44	0xbdd04e00	-0.10171127
45	0xbd30d55d	-0.04317223
46	0xbcfc46b1	-0.030795427
47	0x3dd23928	0.10264808
48	0xbd2e196e	-0.04250472
49	0x3e8401cb	0.25782618
50	0x3e07ec51	0.13273741
51	0x3dda36a1	0.10654951
52	0xbd968585	-0.073496856
53	0x3deefea8	0.116696656
54	0x3c86ded8	0.016463682
55	0xbe12e99e	-0.1434693
56	0x3d4707a4	0.04859127
57	0xbe89e110	-0.26929522
58	0xbdb29638	-0.08720058
59	0xbe801b59	-0.25020865
60	0x3c26cffa	0.010181421
61	0x3d6bb32b	0.057543915
62	0xbe341069	-0.17584385
63	0x3d106120	0.035248876
64	0x3c0c0d22	0.008548053
65	0x3e12649a	0.14296189
66	0x3eb05866	0.34442443
67	0x3e6e8e98	0.23296583
68	0xbda2c93f	-0.07948541
69	0x3d8b0dea	0.06789763
70	0x3e265bf8	0.16246021
71	0x3d88adef	0.066738
72	0xbdb13f2b	-0.086546265
73	0x3e9281f8	0.28614783
74	0x3ddb3bb9	0.107047506
75	0xbda0f10b	-0.07858475
76	0x3bd5bf7a	0.00652307
77	0x3d41cb44	0.04731299
78	0xbe68416a	-0.22681203
79	0xbdcb12ad	-0.099156715
80	0x3da155df	0.07877707
81	0xbd61ecea	-0.05515758
82	0xbda28c6f	-0.07936942
83	0x3cba388d	0.022732044
84	0xbd34634e	-0.044040017
85	0xbe449f1c	-0.1920132
86	0x3dd9e3b4	0.10639134
87	0xbc8fc867	-0.017551614
88	0x3df6acbb	0.120446645
89	0x3eaa3a60	0.33247662
90	0xbdad4862	-0.084610716
91	0xbe0fc8c4	-0.1404143
92	0x3d9cb60b	0.076519094
93	0x3da27bdd	0.07933781
94	0xba3e1b7a	-0.0007252019
95	0xbe062bbf	-0.13102625
96	0xbd34f31d	-0.044177163
97	0xbd430801	-0.047615055
98	0xbe2328f6	-0.15933594
99	0x3dc54802	0.09632875
100	0xbc9a3611	-0.018824609
101	0x3c0ceea3	0.008601817
102	0xbc9df17e	-0.019280192
103	0x3da15e3a	0.078793004
104	0x3d59d82e	0.05318468
105	0x3dfa8176	0.12231724
106	0x3dcd1649	0.10014016
107	0xbcda733e	-0.02666628
108	0xbe566adf	-0.20939206
109	0x3d0f627b	0.035006028
110	0x3e4db11f	0.20087098
111	0xbddab635	-0.106792845
112	0x3ea6b969	0.32563332
113	0x3e090fec	0.1338498
114	0xbdff7e65	-0.1247528
115	0x3e2479c0	0.16062069
116	0x3e5d51f4	0.21613294
117	0x3ccf042a	0.02527054
118	0xbdde4f4d	-0.10854969
119	0x3dd68c9b	0.10476037
120	0x3d399186	0.045304798
121	0x3ab99425	0.001415853
122	0xbe715d55	-0.2357076
123	0xbe706538	-0.23476112
124	0xbdbbfb66	-0.0917881
125	0x3dbd5c24	0.0924609
126	0x3e7af62b	0.24507968
127	0xbd964a30	-0.07338369
128	0xbe298c5c	-0.16557449
129	0x3d13beb4	0.03607054
130	0x3e536e48	0.20647538
131	0x3ddd3ec5	0.10802988
132	0xbd5c037a	-0.053714253
133	0xbce1ffa3	-0.027587717
134	0x3ccbf60a	0.024897594
135	0x3da26416	0.07929246
136	0x3d04dd07	0.03243735
137	0x3dbd2569	0.09235651
138	0xbdfa9f99	-0.12237472
139	0xbe2f0ee2	-0.17095521
140	0x3d0832e0	0.033251643
141	0x3ea492f4	0.32143366
142	0x3d83790c	0.06419572
143	0x3e3d05dc	0.18459266
144	0xbe0f935f	-0.14021061
145	0x3d4f81a9	0.050660763
146	0xbdb59ff8	-0.08868402
147	0x3dfbaac2	0.12288429
148	0xbe071ffa	-0.13195792
149	0xbcd05cfa	-0.02543496
150	0xbdd9e6d7	-0.10639732
151	0xbd347e80	-0.044065952
152	0x3d46a535	0.048497397
153	0xbe3eeb7a	-0.18644515
154	0x3c07abc9	0.008280703
155	0x3d17346d	0.03691523
156	0x3d4f90bc	0.05067514
157	0x3e3598da	0.1773409
158	0xbe106451	-0.14100768
159	0xbe0446fc	-0.12917703
160	0xbe3d40c9	-0.18481745
161	0x3dfdfce1	0.124017484
162	0x3e3d17c1	0.18466093
163	0xbd0d8c9e	-0.03455793
164	0x3e77b2b4	0.24189264
165	0x3d5b8442	0.053592928
166	0xbcefeb04	-0.029286869
167	0x3dc51191	0.09622491
168	0xbdb16392	-0.0866157
169	0xbc114df7	-0.008868686
170	0xbcb15c54	-0.02165047
171	0xbc450abc	-0.012026485
172	0xbd14533f	-0.036212202
173	0xbc142cf9	-0.009043925
174	0xbdeb3c17	-0.114860706
175	0x3d92e601	0.07172776
176	0x3d8a5b79	0.06755728
177	0x3c90c061	0.017669858
178	0x3ccbc1a5	0.02487261
179	0xbd526343	-0.051364195
180	0xbe22d5c1	-0.15901853
181	0xbcd7b58b	-0.026331684
182	0x3d3e98bd	0.04653238
183	0x3d095523	0.03352846
184	0x3bb78e0e	0.005601651
185	0xbdf91aae	-0.12163292
186	0xbb705f98	-0.0036678072
187	0xbe04e7c8	-0.12979043
188	0xbda87f81	-0.082274444
189	0xbd7534eb	-0.05986492
190	0x3d177ba1	0.036983136
191	0xbd56926a	-0.052385725
192	0xbd468196	-0.048463427
193	0x3dcea77d	0.100905396
194	0xbca1522d	-0.019692505
195	0x3d2d5cd7	0.042324867
196	0xbde5d5e8	-0.1122244
197	0xbce1d868	-0.02756901
198	0x3d2859e8	0.041101366
199	0xbd99667d	-0.07490251
200	0xbdac4499	-0.084115215
201	0x3d617708	0.055045158
202	0x3ce8972c	0.028392397
203	0x3d314515	0.043278772
204	0xbda9fb9a	-0.08299942
205	0x3ddf773d	0.10911415
206	0xbe0cc715	-0.13747819
207	0x3d11b3c0	0.035571814
208	0x3d8d2ab6	0.06892912
209	0x3d90d205	0.07071308
210	0x3dbbcf39	0.09170384
211	0x3d8800ab	0.066407524
212	0xbdb34f42	-0.087553516
213	0xbdb6b5a9	-0.08921368
214	0xbd314ee7	-0.043288138
215	0x3c82172d	0.015880192
216	0xbd86ec1c	-0.06588003
217	0x3d855231	0.065098174
218	0xbddc4e78	-0.10757154
219	0xbd8cadb6	-0.0686907
220	0x3d366043	0.044525396
221	0xbd8e25c6	-0.069407985
222	0xbc21ce95	-0.009875913
223	0x3d58346c	0.05278437
224	0xbba097cd	-0.0049009086
225	0x3d9252ca	0.07144697
226	0xbdba0cd9	-0.09084482
227	0xbd4af99e	-0.04955446
228	0x3db9ca2e	0.09071766
229	0x3d8db553	0.069193505
230	0xbd5f3b7d	-0.05450009
231	0x3d2e58bb	0.04256509
232	0x3cb4d2de	0.022073206
233	0xbda4289e	-0.080155596
234	0xbdce3e30	-0.10070455
235	0xbdbf53cd	-0.093421556
236	0x3d7e25dd	0.062047828
237	0xbc56a39a	-0.013100529
238	0x3d20d099	0.039261434
239	0x3cdbe2de	0.026841577
240	0xbdc427fe	-0.095779404
241	0x3c83cc5e	0.01608866
242	0x3d412f53	0.047164273
243	0xbdc12530	-0.09430921
244	0xbd31c0fd	-0.04339694
245	0xb875cd60	-5.8603822e-05
246	0x3d1d363c	0.0383818
247	0x3c5ae565	0.013360356
248	0xbde88578	-0.11353582
249	0x3dd347f1	0.10316456
250	0x3d2d0aa7	0.042246487
251	0xbc930d6f	-0.017950742
252	0xbde92dde	-0.113857016
253	0x3def8762	0.11695744
254	0x3ddcf44c	0.107887834
255	0xbdb17be5	-0.08666209

fc3.bias f4 [10]
0	0xbecd6eae	-0.40123504
1	0x3baa38ab	0.0051947436
2	0x3cc72f68	0.024314597
3	0x3e7b3f79	0.24535932
4	0x3e51d8a7	0.20492803
5	0xbdc7f5d3	-0.09763684
6	0x3e8ff38a	0.28115493
7	0xbd81157f	-0.06302928
8	0xbde48054	-0.11157289
9	0xbcdac58b	-0.026705524
