round1/2025-04-18 17:38:33-weight-client-8766187d-7.pth (torch, 252478 bytes, 10 tensors)

conv1.weight f4 [6, 3, 5, 5]
000000 71 23 7a be 48 91 8d be 1c 23 84 be 6e f0 36 be
       -0.24427582 -0.27649903 -0.25808036 -0.17865154
000010 b0 7c 7b be 1c d4 49 be 59 86 b6 be 97 07 88 be
       -0.24559283 -0.1970982 -0.35649374 -0.2656829
000020 80 61 9a be 57 20 a7 be ef 79 ad be 90 1a 5a be
       -0.30152512 -0.3264186 -0.3388209 -0.21299195
000030 4d eb 89 be 56 a0 61 be e5 1f 29 be 9d 5f 69 be
       -0.26937333 -0.2203382 -0.16516073 -0.2279038
000040 49 b6 d9 bd 12 a6 49 be 33 27 ee bd b3 1d ab bd
       -0.10630471 -0.19692257 -0.116285704 -0.08355274
000050 d1 32 14 be 85 04 38 be c8 59 af bd c4 b1 16 be
       -0.1447251 -0.17970474 -0.08562046 -0.1471625
000060 46 e8 2b be af 66 dd bd 82 18 fa bd 57 96 c8 bc
       -0.16787824 -0.10810601 -0.12211706 -0.02448575
000070 30 78 08 be a5 8a 44 bd 3d e8 8b 3c bd a5 f3 3a
       -0.13327098 -0.047983784 0.017078513 0.0018588823
000080 e7 e6 1c bd 2d e4 6c 3c f8 b4 a8 bd ba 5e 03 be
       -0.038306143 0.014458698 -0.08237642 -0.12829104
000090 58 88 d4 3b 23 b8 e6 bd 14 f5 d5 bc 2d 63 ee bd
       0.00648598 -0.1126559 -0.026117839 -0.1164001
0000a0 85 9f e7 bd 88 ad ee bd f9 26 07 3d 33 9b 6e bd
       -0.11309723 -0.11654192 0.03299615 -0.05825348
0000b0 9b 04 81 bd 48 d0 1f bc 5c 65 ef bd 78 80 17 3b
       -0.062997065 -0.009754248 -0.11689255 0.0023117345
0000c0 d2 05 26 bd 5c a0 88 3c d1 1c b8 3e 6c a5 c9 3e
       -0.040532894 0.016678028 0.35959485 0.3938402
0000d0 5f 32 e5 3e 48 dd 8e 3e 16 5f e1 3e 8b 4b a8 3e
       0.44764993 0.279032 0.44017857 0.32870135
0000e0 6a 3a d6 3e 4e d5 c6 3e ee 62 c6 3e 44 37 e2 3e
       0.4184144 0.38834614 0.38747352 0.4418279
0000f0 b6 d3 e4 3e b8 36 a9 3e 40 65 e0 3e 2b 75 d0 3e
       0.44692773 0.3304956 0.43827248 0.40714392
000100 7b 88 b6 3e 78 75 c9 3e d0 a2 be 3e f2 c9 a1 3e
       0.35651 0.39347434 0.3723359 0.31599385
000110 a0 4d 84 3e 09 60 7a 3e 5c e0 bd 3e 27 96 ba 3e
       0.25840473 0.24450697 0.37085235 0.36442682
000120 91 67 aa 3e fb 69 c4 3e ef 95 66 3e b3 01 d0 bd
       0.3328214 0.38362107 0.22518133 -0.10156574
000130 86 f0 4e bb 91 df 9c 3d f0 8a 02 3c e6 01 d5 bd
       -0.0031576469 0.076598294 0.007967696 -0.10400753
000140 4d 0e 24 bd 15 d0 a7 ba d0 34 6d bd 64 2a b7 3c
       -0.0400527 -0.0012803102 -0.057911694 0.02235908
000150 81 e4 a2 bd f1 9a d9 bd 9e ff 62 bd 47 84 59 bd
       -0.0795374 -0.10625256 -0.055419557 -0.053104665
000160 28 8f f4 bc 06 97 ba 3d 8d d5 87 bd 05 88 b7 3d
       -0.029853418 0.09110837 -0.066325285 0.089614905
000170 d3 46 6c 3c e9 13 93 3d 0e 9c e0 bd 8b d6 da bc
       0.014421183 0.07181532 -0.10967265 -0.02671363
000180 36 01 e9 3b 49 44 7b bd 08 4a 35 bd 7b 1e dd 3c
       0.00711074 -0.06134442 -0.044260055 0.026992073
000190 f2 4b 49 bd 41 47 0a 3d d0 36 29 3c fd 41 9d bd
       -0.049144693 0.03375936 0.01032801 -0.07678602
0001a0 69 bf b3 bd 0b 5f d1 3d 3b ca dc bc 80 6e 10 3d
       -0.08776743 0.10223206 -0.0269519 0.03526163
0001b0 7e 0c cc 3d 8e 27 3e bc 3b 7f 51 3d 52 55 80 3a
       0.0996332 -0.01160611 0.051146727 0.0009791052
0001c0 7e f1 9b 3d a9 57 c4 3c 46 6f 05 3d 35 36 bf bd
       0.0761442 0.02396758 0.03257682 -0.09336511
0001d0 a1 76 88 3d 31 e0 95 3d dc e9 94 3d 6d cb d9 bd
       0.06663252 0.07318152 0.07271168 -0.106345035
0001e0 fb 77 3e 3c e6 54 7d bd b5 9b 76 bd 02 76 dc bd
       0.011625285 -0.061848544 -0.060207088 -0.10764696
0001f0 cc 80 ac bc c5 a4 ed bc d7 96 8c bd 7a 93 af 3d
       -0.021057509 -0.029009232 -0.06864708 0.08573051
000200 60 30 d4 3d 8e b9 b8 3c 95 dc c8 bd 57 87 82 3c
       0.10360789 0.022549417 -0.09807698 0.015933676
000210 b6 38 d1 ba 1e 3c d5 bd 63 a2 e8 3c 68 b2 a0 bd
       -0.0015962336 -0.10411857 0.028397745 -0.07846528
000220 50 27 03 3d 15 2f 18 3d 6d c3 11 3c d3 c6 8a 3c
       0.032019913 0.037154276 0.008896691 0.01694051
000230 ed 56 6c 3d 68 43 e2 3d 8b 20 6c 3d 9f 69 d8 3d
       0.057700086 0.11048013 0.057648223 0.105670206
000240 b9 a3 a0 bd 55 c7 f7 bc 2c b5 8c bd 9f 9a 71 bd
       -0.078437276 -0.030246416 -0.06870493 -0.05898535
000250 7c e9 83 bd 45 be c4 3d 02 14 da bd a8 08 c5 bd
       -0.06441018 0.096066035 -0.106483474 -0.09620792
000260 a2 cf 03 bd 27 35 58 be fb 02 86 bb f5 5a ec bd
       -0.032180436 -0.21114026 -0.004089711 -0.11540786
000270 ad b2 fe bd 4c e1 68 bd ea e4 cb bd 96 af bd bd
       -0.124364235 -0.056855485 -0.09955771 -0.09262006
000280 cb c8 fa bc 86 e1 ea bd 85 24 35 be 91 5e 1c be
       -0.030613324 -0.114687964 -0.17689712 -0.15270449
000290 4f db db bc e0 8f dd bc d8 78 a3 bd c3 57 bf bc
       -0.026837973 -0.027046144 -0.079820335 -0.023357278
0002a0 01 3d bd bd f6 9f 0c bd 9a d7 4e bd ac 3b 88 bc
       -0.09240151 -0.03433224 -0.050498582 -0.016630016
0002b0 d7 eb 8f bc 26 5e 31 bd 9b 84 9b bd 18 97 fb bd
       -0.017568512 -0.043302678 -0.07593652 -0.12284678
0002c0 a2 12 88 bd 7b f0 2e bd 11 d8 73 3d dd a5 1c be
       -0.06644179 -0.04270981 0.05953223 -0.15297647
0002d0 32 81 8c 3d 84 12 ec bd 76 db 4d 3d 0f 46 7d bd
       0.068605796 -0.11526969 0.050258122 -0.06183439
0002e0 0d 52 e1 bc 20 29 70 bd 94 d3 ad bd 82 3c 9a bd
       -0.027504945 -0.05863297 -0.08487621 -0.07531072
0002f0 9a 49 43 bd 41 18 03 3d 76 a1 14 bd c5 cf e8 bd
       -0.047677614 0.032005552 -0.036286794 -0.11367754
000300 1d f0 4c 3d ec 61 9a 3d 3b 7b 10 bd 34 9f 1c bc
       0.050033677 0.07538208 -0.03527377 -0.009559441
000310 32 2a ec 3a 84 59 d4 bd 91 b5 e8 bd fc 20 8d 3d
       0.0018017946 -0.10368636 -0.11362756 0.06891057
000320 d3 c9 2b 3e 8e 64 b9 3d b2 1b e3 3d b4 8e 19 3e
       0.16776209 0.090523824 0.11089267 0.14995843
000330 41 70 2a 3e 22 20 1d 3e fa c8 78 3e 32 e7 87 3e
       0.16644384 0.15344289 0.24295416 0.26543576
000340 25 79 68 3e 1e 7d 85 3e 20 55 bb 3d 1a b2 97 3e
       0.22702463 0.2607202 0.09147096 0.29628068
000350 4b 34 72 3e e4 a1 1f 3e 33 2c 23 3e a9 81 1b 3e
       0.2365276 0.155891 0.1593483 0.1518618
000360 13 28 62 3e ef 42 5a 3e 4c f3 29 3e a2 73 54 3e
       0.220856 0.21314596 0.16596717 0.20747235
000370 74 cd c5 3d 55 0d b6 3d 5b 6c 5e 3e 8b da 5a 3e
       0.09658328 0.08889262 0.21721022 0.2137243
000380 88 23 13 3e 8d 12 fd bd 39 c9 0b be 8e 64 db bd
       0.14369023 -0.12357054 -0.13650979 -0.10712539
000390 d1 5c ad bd 85 f1 76 be d0 09 8d bc d9 23 29 be
       -0.08464969 -0.2411557 -0.017216593 -0.16517581
0003a0 8a 04 3e bd 0a 07 75 bc c2 0d 16 bd 31 fc 6c bc
       -0.046391048 -0.0149552915 -0.036634214 -0.014464424
0003b0 6a 4b b5 3d d0 1c 4d 3d 7c 60 a4 3d 1c 71 e9 3d
       0.08852275 0.050076306 0.080262154 0.11398527
0003c0 98 1c f1 3d e8 95 19 3c ea db 29 3e be 08 04 3e
       0.11773032 0.009374119 0.16587797 0.1289396
0003d0 5a 6f c4 3d 9c ad 33 3e bd 42 89 3e 8a 45 7b 3e
       0.09591551 0.17546695 0.2680873 0.24538246
0003e0 eb f2 77 3e db 6b 2e 3e 81 c8 87 3e 7e 2e a2 3e
       0.2421376 0.17033331 0.2652016 0.31676096
0003f0 6c 7b 8a 3e e4 20 9f 3e 11 1b a4 3e 9a e4 a3 3e
       0.27047288 0.3107978 0.320519 0.32010347

conv1.bias f4 [6]
000000 87 66 79 bf fc 77 ed bd 6f ed 2c bf 37 ef 99 bf
       -0.9742207 -0.11595151 -0.67549795 -1.2026128
000010 00 d7 32 bc 36 e1 fc 3e
       -0.010915518 0.49390572

conv2.weight f4 [16, 6, 5, 5]
000000 81 0d c1 bd 2a 9c e5 bd 1c dd fd bd 69 9c 25 be
       -0.09426404 -0.112114266 -0.12395689 -0.16172947
000010 6c 87 f7 bd 28 81 0d be 82 eb ac bd af e9 6b bd
       -0.120863765 -0.138188 -0.08443357 -0.057595905
000020 38 08 31 bd 39 c9 6b 3d da 7d b8 bd 2f 10 ad bd
       -0.04322073 0.057564948 -0.09008379 -0.084503524
000030 8e aa 51 3d f5 dc 52 bc 57 bf 2e 3d 1a 97 6d 3b
       0.051188044 -0.012870063 0.042662945 0.0036253394
000040 4d 0a dd 3d a1 eb f6 3d 1d e2 0a 3e 34 6e 55 3d
       0.1079298 0.120566614 0.13562818 0.05210705
000050 f0 ef 72 3d d9 0d 3a 3e 30 53 8e 3d b1 a3 48 3e
       0.059310853 0.18169345 0.069494605 0.19593693
000060 40 db 54 3e ac 88 f6 3c 02 74 87 bd fc 04 3b bd
       0.20786762 0.030094467 -0.066139236 -0.04565905
000070 63 6d 60 bc e3 36 30 3d db 30 9c ba c0 5a a1 bc
       -0.013697955 0.043021094 -0.0011916416 -0.019696593
000080 3f 82 8f bc 99 44 6c 3a 99 e5 e8 3c 17 a6 eb 3b
       -0.01751816 0.00090129074 0.028429793 0.0071914303
000090 96 68 34 3d 54 cb 63 bd 12 42 23 bd 67 bc bd bc
       0.044045053 -0.05561383 -0.03985793 -0.023161126
0000a0 13 bc bc 3c f6 61 a2 3d 88 5f 6a 3b fa 76 60 3c
       0.0230389 0.07928841 0.0035762507 0.013700241
0000b0 e2 7e 8d bd d2 0d 41 bd 4b 64 b3 bb 66 2c 8a 3d
       -0.069089666 -0.04713232 -0.0054746023 0.067467496
0000c0 bb 5a ba bc ed 24 13 3c f4 cd 41 bd 38 02 fe bd
       -0.022748342 0.008980972 -0.047315553 -0.12402767
0000d0 97 9c 5c bd 6e 51 52 3d 35 c9 a8 bc ab 35 0a bd
       -0.053860273 0.05134719 -0.020603755 -0.033742588
0000e0 95 9c 8d bd 9b 4d d4 3c 38 1a a0 bc f9 55 45 bd
       -0.06914631 0.025915911 -0.019543752 -0.048177693
0000f0 8d 50 a7 bd b3 25 0f 3c e3 2d 08 3d 4a cc f8 bc
       -0.08169661 0.008737016 0.033246886 -0.03037085
000100 8a d3 79 3c c7 5b 86 3d 70 22 f5 3d 85 c1 fc 3d
       0.015248189 0.06560474 0.11969459 0.123415984
000110 82 ea 22 3d 4c 8a 76 3d f1 10 91 3d 1d 03 0d 3e
       0.039774425 0.060190484 0.070833094 0.13770719
000120 26 96 0e 3e 97 71 1c 3e a5 d1 05 3e d5 72 7d be
       0.13924465 0.15277706 0.13068254 -0.24750836
000130 db 5c 61 be 3a 9c 91 be 28 aa 40 be f5 59 40 3d
       -0.22008078 -0.28439504 -0.1881491 0.04696079
000140 51 fb dd be 01 2e c0 be c6 44 81 be 21 27 b7 bd
       -0.43355802 -0.37535098 -0.25247782 -0.0894301
000150 3b 0a 82 3d ea 75 a1 be 0e 30 fb bd 97 65 d6 bd
       0.063496076 -0.31535274 -0.12265025 -0.104685955
000160 23 a0 a8 bc 27 b6 21 3e 1e 46 aa bd 3a 08 7f 3d
       -0.020584172 0.15792142 -0.08314155 0.062263705
000170 19 37 59 3e ec 1d 98 3e b8 dd 57 3e 4f 92 df 3d
       0.21212424 0.2971033 0.21080673 0.10916578
000180 77 59 4b 3e ed b3 80 3e 0c e8 c6 3e f7 5a e7 3e
       0.19858347 0.25137272 0.38848913 0.45186588
000190 9d db 5c bc 39 02 ee 3c 26 10 6d 3d e5 09 93 3d
       -0.013480094 0.029053794 0.05787673 0.071796216
0001a0 94 e1 5d bd 85 ec 85 bd ac ab 30 3d 77 e4 a6 bc
       -0.054170206 -0.06539253 0.04313247 -0.020372612
0001b0 c3 23 8e bd 37 69 2b 3c 85 84 be 3d 7e b4 4d 3d
       -0.06940415 0.010462097 0.0930262 0.05022096
0001c0 c5 86 d7 3d 3a 0f 49 bd c3 66 61 3d dd 0f 8b 3d
       0.10523752 -0.049086787 0.05502964 0.06790135
0001d0 33 16 d1 bc e3 92 4e bd 30 ef 44 bd 38 95 76 3d
       -0.02552328 -0.05043305 -0.04807967 0.0602009
0001e0 98 e1 78 bb 91 58 97 bd e2 56 09 3c 90 1e 8e 3d
       -0.0037976261 -0.073899396 0.008382531 0.06939423
0001f0 d7 ee 85 3c af 51 19 be 38 c8 a8 bd ee 56 ba bd
       0.01634924 -0.14972566 -0.08241314 -0.09098612
000200 58 a4 83 3d 98 45 88 bb 84 d2 07 be 40 11 6c bd
       0.064278305 -0.004158687 -0.13263899 -0.05763364
000210 3b 16 60 bd 7e 9c ec 3c a3 13 b8 bc ea fd e0 3d
       -0.0547087 0.028883215 -0.022470301 0.1098593
000220 c3 10 56 3d e5 ce 03 3e 39 e4 b5 3d 42 35 a6 3d
       0.05226208 0.12871893 0.08881421 0.08115627
000230 ab 42 30 3c 8a a5 74 3d 94 08 27 3c 50 bd 89 3d
       0.010758082 0.059728183 0.010194916 0.067255616
000240 8a ce a9 3d 64 df e5 3d c9 51 cf 3d 9d 50 37 3d
       0.08291347 0.11224249 0.10123021 0.044754613
000250 20 fe fd 3b 6b 4e e9 3d 8c cd 73 3e 97 dd a9 3d
       0.0077512413 0.1139191 0.23808879 0.08294218
000260 0d d1 5f 3e f6 fb 3b 3e 05 71 09 3e c2 af b7 3d
       0.2185709 0.18357834 0.1342202 0.0896907
000270 29 2f 76 bc 76 f9 98 3d 46 c6 61 bd cc 86 02 bd
       -0.015025892 0.07469456 -0.05512073 -0.031866834
000280 12 a4 7f bd b0 5e b8 3c 34 18 a5 bd c2 ab a4 3c
       -0.06241233 0.022506088 -0.08061257 0.020101432
000290 b9 b2 8c 3c 9a d4 12 be 60 71 77 bc 53 d1 4a bd
       0.017175065 -0.14338914 -0.015102714 -0.049516033
0002a0 8f 33 93 3c 29 28 30 3d a7 0f 1e be d3 79 8d ba
       0.017968921 0.04300705 -0.15435658 -0.0010793753
0002b0 e1 08 9d bd 1b ea e9 bd 32 a3 9b bd 74 94 d1 bc
       -0.07667709 -0.11421605 -0.075994864 -0.025583483
0002c0 f0 0f 48 3d 4a 5a 91 bd 32 cd 8a bd e5 0c 60 3d
       0.048843324 -0.070972994 -0.06777419 0.054699797
0002d0 97 f3 50 3d 92 f0 83 bd a5 93 a2 3d 40 c2 97 bd
       0.051013555 -0.064423695 0.07938317 -0.07410097
0002e0 12 f8 a5 bd a6 7d 27 3d cd 27 87 bd 8f 2b f0 bc
       -0.08103956 0.040891312 -0.06599388 -0.029317645
0002f0 19 92 e3 3c 9e c3 97 bb 45 16 27 3d c1 7f 54 bc
       0.027779626 -0.0046314737 0.040792722 -0.012969912
000300 e8 53 0c bc 56 d7 e0 bc 9a f3 01 3d 5d 1a 92 3d
       -0.008564927 -0.02744643 0.031726457 0.07133935
000310 ef ec 90 bd 34 46 8e bd 1d 84 a4 3d 4e 69 92 bd
       -0.070764415 -0.06946984 0.08033011 -0.071489915
000320 a4 a3 c5 3d 40 90 05 3d 77 2b 1e 3d f6 d4 da 3d
       0.096503526 0.03260827 0.03861567 0.1068515
000330 9b 33 17 3e 77 6a 95 3d c8 71 68 3b 6a f1 df bc
       0.1476578 0.07295697 0.003546821 -0.027336795
000340 63 78 5f 3d b6 09 a5 3d 54 cc 95 bd 7d ba 2b bc
       0.05455817 0.08058493 -0.07314363 -0.010481474
000350 97 4a 6b bd f6 6f a5 bd 25 a3 8c 3d 46 92 c1 bd
       -0.05744418 -0.080779955 0.06867055 -0.094517276
000360 48 d2 b7 bd b2 64 9d bb 8f a5 d2 bc 57 c4 8f bc
       -0.08975655 -0.0048032636 -0.02571371 -0.017549677
000370 72 22 cb bd ab ab 5f bd 30 b4 92 3b bf 10 82 3d
       -0.09918679 -0.054607075 0.0044770464 0.0635085
000380 7d 30 b2 3d aa e9 2c 3e ea 96 72 3e 66 8a f3 3d
       0.08700655 0.16886011 0.23690382 0.11891632
000390 51 d8 57 3e a5 2a 1d 3e e0 5b ce 3d 3a 37 96 3d
       0.21078612 0.15348299 0.100761175 0.073347524
0003a0 a9 78 4a bc a2 a3 31 bd 30 af 1d bd c6 30 32 3b
       -0.012357869 -0.043368943 -0.03849715 0.0027189716
0003b0 4d b0 45 3d ee 0a c6 bc 8d be 4e be 2f ff 42 be
       0.048263837 -0.024175134 -0.20189877 -0.19042657
0003c0 dc 20 3a bc f1 d8 ab bd 0a d7 bb bd 9a 52 25 be
       -0.011360373 -0.08390988 -0.09171875 -0.16144791
0003d0 1a 26 2b be 05 2e e7 bd f7 1d 53 bc ed 0c 83 bd
       -0.16713753 -0.112880744 -0.012885562 -0.0639895
0003e0 3e 6d 36 bd 7d fb af bd ef a9 fd 39 55 08 bb 3d
       -0.044537775 -0.085928895 0.0004838253 0.091324486
0003f0 54 23 c9 3c 7a 63 86 bc 04 4a 80 bd 49 43 99 3c
       0.024552979 -0.016404856 -0.06264117 0.018708842

conv2.bias f4 [16]
000000 b2 2a 9d bd 29 59 e7 bc 02 dd 1e bd ad 43 20 be
       -0.07674159 -0.028240757 -0.03878499 -0.15650816
000010 77 82 ad be c6 fc 37 3d 30 62 9f be bf cc 99 3e
       -0.338886 0.044918798 -0.311296 0.3003902
000020 50 d4 b8 3b 8c 6f 5d 3e f3 27 a6 3d e9 11 85 3d
       0.005640544 0.21624583 0.081130885 0.06497557
000030 20 09 d9 3c 7e 32 9d be a5 f7 bf 3d a8 56 9d bd
       0.026493609 -0.30702585 0.09373406 -0.07682544

fc1.weight f4 [120, 400]
000000 d0 5c 3a 3d 04 22 a8 3d 28 8a 87 3d f4 17 95 bc
       0.04549867 0.08209613 0.06618148 -0.018199898
000010 6e 36 8a 3c 12 b6 9a 3d 66 17 1f 3d d3 44 ec bc
       0.016871657 0.075542584 0.038840674 -0.028841412
000020 c7 ec 00 bd 4e f2 3d 3c 56 4c 1c 3d d1 8f 86 3d
       -0.03147581 0.0115934145 0.038158737 0.065703996
000030 0a f4 15 3d 9f 50 cf 3c 81 58 18 3d 34 f8 89 3d
       0.036609687 0.025306998 0.03719378 0.06736794
000040 a0 ac 9d 3d 54 29 2e 3d 8f 4d d6 3d 87 9a 46 bd
       0.07698941 0.042519882 0.10464012 -0.048487213
000050 a8 6b 42 bd f9 8a 55 bd d1 28 a9 bc 51 f6 03 bd
       -0.04746595 -0.052134488 -0.020649346 -0.032217328
000060 a4 64 d5 bd 88 0e 61 3d e1 6a 77 3d 9c fb 81 3d
       -0.10419586 0.0549455 0.060404662 0.06346819
000070 a2 1d 82 3d 88 85 91 3c 67 04 cb bc 00 0c d2 3c
       0.06353308 0.017763868 -0.024782373 0.025640488
000080 8e 8f a8 3c e7 df ef bb 0b 14 eb bc 07 b0 96 bd
       0.020576265 -0.0073203924 -0.02869608 -0.07357793
000090 59 c1 09 3c 44 f1 a7 3b e5 85 0e bd 51 f8 82 3c
       0.008407914 0.0051251967 -0.03479566 0.015987547
0000a0 1a 0e 17 3d 56 55 c3 3c 6f aa 0e bd e9 47 55 bd
       0.036878683 0.023844402 -0.034830507 -0.052070532
0000b0 10 c9 1a 3c 2c 74 a4 bc 1a ac fe 3b 36 d9 60 bd
       0.009447351 -0.020074926 0.007771981 -0.05489465
0000c0 17 e9 df bc 99 1b a2 3c 4e 05 3f bd 25 7b 22 bd
       -0.027332826 0.01978855 -0.04663592 -0.03966822
0000d0 26 03 f8 3c f1 21 ba 3b f8 7c 8f 3d d2 ba be 3c
       0.030274939 0.0056803157 0.07006258 0.023282442
0000e0 f8 d2 19 bd ed 40 19 bc 63 e1 78 3c f3 ff e2 3c
       -0.03755471 -0.009353858 0.015190455 0.027709937
0000f0 e4 a2 75 bd 78 7e 0f 3d f1 d8 30 3b 9a be 93 bb
       -0.059969798 0.03503272 0.0026984776 -0.0045088055
000100 e0 39 fb bc d3 16 0d 3c 44 c8 03 bc 69 8e 67 bd
       -0.030667245 0.008611399 -0.0080433525 -0.056532297
000110 dd 44 94 3b 88 4a d6 3b d4 04 0d bc df fc da bc
       0.0045248107 0.0065396465 -0.008607108 -0.026731906
000120 66 64 57 bd 68 b5 86 bd 9b d1 8c bc eb 31 ff bc
       -0.05258598 -0.06577569 -0.017189791 -0.031151732
000130 f2 91 a1 bc 2b b9 70 ba ce 41 61 bc 7f bf ef bb
       -0.019722912 -0.00091828656 -0.013748599 -0.0073165293
000140 b1 14 3c 3c c8 70 e6 bc 54 bc 5b 3c 34 aa 92 bc
       0.011479543 -0.02812995 0.0134116 -0.017903425
000150 2e 49 4c 3c ee d5 15 3d a0 e2 c1 3b 23 18 5d bd
       0.012468619 0.036580972 0.0059169084 -0.053978097
000160 62 43 7f bd 0e 03 a7 3b 79 11 33 3d 16 4c ef bc
       -0.06232012 0.0050967997 0.043717835 -0.029211085
000170 6d d6 00 bc 07 57 2d bc f0 e9 2b bd 5b f8 58 3d
       -0.007863623 -0.010579831 -0.041971147 0.052971225
000180 c9 4b 10 bc a0 c9 f6 3b f6 3a 1c bc f1 e7 64 3d
       -0.008807131 0.00753136 -0.009535542 0.05588526
000190 cb 9d 59 bc 26 fe 40 3d 7d c8 9e 3c c1 f9 9c 3c
       -0.01328225 0.047117375 0.01938271 0.01916206
0001a0 39 6c 56 3d 39 42 83 bd 0a 0e b6 bc 76 e7 23 bb
       0.052349303 -0.06409115 -0.022223491 -0.0025009788
0001b0 20 3b 59 bd 8a 32 ac bc e1 01 aa 3b 3a 3b 58 bd
       -0.0530349 -0.021020193 0.0051882123 -0.052790858
0001c0 47 40 36 bc 60 bd a1 3c f4 a2 b8 3c f1 d1 a3 bb
       -0.011123723 0.019743621 0.02253864 -0.004999392
0001d0 14 73 05 3d c7 be ea bb 4d fd 2b 3c 22 25 ab 3c
       0.03258045 -0.0071638557 0.010497403 0.02089173
0001e0 8a 64 e7 bb 91 2f 1c 3d 3f cc 54 3d 33 5b 27 3a
       -0.0070615457 0.0381313 0.051952597 0.0006384134
0001f0 b0 c9 c6 bc 82 aa 59 bc 63 06 32 3d 80 a1 92 ba
       -0.024266094 -0.013285281 0.043463122 -0.0011187047
000200 5b 04 9b 3c 09 a1 20 bd 28 79 85 bc 70 b3 76 bc
       0.018922975 -0.039216075 -0.016293123 -0.01505743
000210 11 dd 46 3d d9 84 3f bd 8a a1 7d bb 62 36 03 bd
       0.04855067 -0.046757553 -0.003870102 -0.032034285
000220 9b 56 1b 3b 4f e6 df 3a 59 97 3c bd e1 58 f9 bc
       0.0023702744 0.0017082187 -0.046042774 -0.030437889
000230 68 bd 5a 3c 4a 4e bc 3c 76 1b 7e 3b 34 b3 67 3c
       0.013350822 0.02298655 0.0038773692 0.014141846
000240 c4 8b 7d bc 58 24 0a bd 27 1f 0b bd 74 7b 53 3b
       -0.015475217 -0.033726066 -0.033965256 0.0032269629
000250 04 f4 42 3d 2f a4 39 3c 5e 8c 0b 3c 8e 5e 42 3d
       0.047595993 0.011330648 0.008517353 0.047453456
000260 7f 8d 68 3d 6b 3a 89 3c 40 06 24 3d 36 dc 2f 3d
       0.056775566 0.016751489 0.040045023 0.04293462
000270 f9 2a c1 bc 8d 19 c4 3c e9 6f 05 bb e6 5f 69 3d
       -0.023580061 0.023937965 -0.0020360893 0.05697622
000280 5f 89 be 3d c5 0a 25 3d e3 9d d4 3c ab 48 af 3c
       0.09303545 0.040293474 0.025954193 0.021396955
000290 fb 05 b6 ba fc f5 51 bc 16 c7 36 3d 53 26 a5 3d
       -0.001388728 -0.012814995 0.044623457 0.080639504
0002a0 67 5b 02 3d 55 40 84 3d 57 40 80 bd 5b 41 a7 3b
       0.03182545 0.06457583 -0.06262272 0.0051042265
0002b0 3b 6e 8d 3d 4c 7d 3a 3d 14 03 b4 bc 0a 9c dd bc
       0.069057904 0.04552965 -0.021974124 -0.027051944
0002c0 40 cd 4f bd fb 2b f5 bb 42 c0 93 bd c4 c6 b6 bc
       -0.05073285 -0.0074820495 -0.07214405 -0.022311576
0002d0 9a d5 22 3d 43 43 52 bd 3c ec 88 bc 2f 8d 5a bc
       0.039754488 -0.051333677 -0.016714208 -0.013339325
0002e0 ac bb d0 ba 04 4e f2 bb 77 8e 0e 3c 04 7f 15 bd
       -0.0015925071 -0.007394554 0.008700958 -0.036498085
0002f0 e2 3d 35 3b 5a e4 07 bc 8b c2 94 bc 80 d0 eb bb
       0.0027655293 -0.008294189 -0.018159172 -0.007196486
000300 b9 78 bf 3c 0b 34 70 3d ea 40 ad 3d 97 4f 22 3d
       0.023372995 0.058643382 0.08459647 0.039626684
000310 2a 3e 3d 3d 33 20 f5 39 8f e4 c2 bc 8e 47 d1 bc
       0.046201862 0.00046754032 -0.023790626 -0.025546815
000320 e3 07 20 3d bb fc 9e ba 7f 67 c5 3b c0 de 1c 3c
       0.03907002 -0.0012129763 0.0060243006 0.009574592
000330 42 2a 40 bd 8b 53 33 3c 00 41 8f bc a6 14 e6 bc
       -0.0469153 0.010945211 -0.01748705 -0.028086018
000340 3b ee 0d 3d 78 ed ac bc 68 13 2e bd 81 2e 3e 3d
       0.034651022 -0.021109328 -0.042498976 0.04643107
000350 19 04 42 bd c1 0b cc 3a fc 7b 8f 3a 3d 9e 58 3c
       -0.04736719 0.0015567468 0.0010946984 0.013221321
000360 20 b4 dd 3c f1 01 37 3d 5c 00 36 3d 7c 22 20 3c
       0.02706343 0.044679586 0.044433936 0.009773847
000370 d3 42 24 bd fe 8d 8b bc 4c b2 f6 3b 9f 5f 4a 3c
       -0.04010279 -0.01703548 0.007528579 0.012351899
000380 84 56 22 3d f8 2b 00 3d 45 0c 01 3d 28 28 6a 3c
       0.03963329 0.031291932 0.03150584 0.014291801
000390 26 85 8a 3c 49 ac 83 3d 16 ab 4b bc 8e 69 68 3d
       0.016909193 0.06429345 -0.012430927 0.05674129
0003a0 e5 53 28 bd 9c 8d f3 bb 47 d0 e1 3c 71 e2 29 bc
       -0.041095633 -0.0074326526 0.027565135 -0.010368929
0003b0 88 9f c8 3b e5 9e a7 bc 96 95 5d 3c 35 db 3d bd
       0.006122533 -0.020461509 0.013524434 -0.04635163
0003c0 a3 68 81 bd 7e 63 39 bd 1e b6 9a bb 50 15 04 bd
       -0.06318786 -0.0452609 -0.004721417 -0.032246888
0003d0 3c 76 d2 bc 64 12 26 bd 5e 2c 8d bd f7 04 3e bd
       -0.025691144 -0.040544882 -0.06893228 -0.046391454
0003e0 12 ef 91 bd 7f bd e3 bc ff b5 90 bb 07 5e 3a 3d
       -0.07125677 -0.02780032 -0.004416227 0.045499828
0003f0 31 cf b6 3c 3b 7c 34 3d b7 13 31 bd 02 af 0b 3d
       0.022315593 0.044063788 -0.043231692 0.034102447

fc1.bias f4 [120]
000000 f7 1c 90 bd 22 51 c4 bb 64 48 24 bd 11 ec a2 bd
       -0.070367746 -0.005991117 -0.0401081 -0.07955182
000010 f3 ae 84 3c 35 2a 97 bc 7c 36 23 bc 46 82 0c 3d
       0.016196704 -0.018452743 -0.009961721 0.034303926
000020 b3 9d af 3c 5c b4 87 3c 4c e9 03 3d b9 b8 d5 3c
       0.021437502 0.016565494 0.03220491 0.02608906
000030 ec f2 79 3b 4d a0 19 bd 2c ee b6 3c 80 4e b1 3c
       0.0038139177 -0.03750639 0.022330366 0.021643877
000040 33 fe 9d bd f3 65 5a 3c 11 1c db 3d 93 da e4 3c
       -0.077145 0.013329971 0.106987126 0.027936256
000050 18 e3 bd 3c 16 2b 85 3d d1 d2 cc bc 06 38 91 3c
       0.023179576 0.065023586 -0.025002869 0.01772691
000060 1b 93 59 3c 1d 12 5a 3d ca 1c 0b 3d a1 93 65 3b
       0.013279702 0.05323993 0.033963002 0.003503062
000070 f8 49 0a bd 7e c9 99 3c 18 b7 6c ba d1 de da bb
       -0.03376195 0.018772837 -0.00090299686 -0.006679394
000080 22 ea d2 bc 68 02 c5 3c f7 ab ae 3c f0 55 12 bd
       -0.025746409 0.024048999 0.021322234 -0.035726488
000090 32 f2 9d 3d 69 e8 2e bd 11 67 5c bd d8 5d a9 3a
       0.07712211 -0.042702112 -0.05380923 0.0012921644
0000a0 6d 41 18 bd 7a 4b 22 bd 63 9a 15 bd 3d e1 a7 bc
       -0.03717177 -0.03962276 -0.036524188 -0.020493144
0000b0 bb 46 fe bd 90 97 d9 bc 15 17 25 3d ca 19 0c 3d
       -0.124158345 -0.026561528 0.040305216 0.034204282
0000c0 01 ca bf bd 38 df 75 3c de cb 8a 3c 32 d6 f9 3c
       -0.09364701 0.015006833 0.016942915 0.030497644
0000d0 08 81 c7 3c 00 40 99 3c b1 b4 30 3d dc 9e 2c bd
       0.02435352 0.018707275 0.04314107 -0.042143688
0000e0 63 1e 48 bd 6e 15 62 3d 05 8f 8c bb ad 80 c5 3b
       -0.048857104 0.05519622 -0.00428951 0.0060273022
0000f0 f0 93 e7 3c 80 0f 77 bd 70 b6 4a 3d b2 c8 10 3d
       0.028268784 -0.060317516 0.049490392 0.035347648
000100 39 d4 80 3d df 3e 74 3c 90 3a 40 3c 09 44 83 3c
       0.06290478 0.014907568 0.011732712 0.016023653
000110 10 f5 1a bd ce 1c 08 bd a9 f5 f3 3c a0 f5 0c 3d
       -0.037831366 -0.033230595 0.029780226 0.034413934
000120 93 d8 50 3d 6e 43 74 bc 4d 4f 0d bc 73 45 8a bd
       0.05098779 -0.014908655 -0.008624864 -0.06751528
000130 70 c7 f2 bc fe b0 7f 3b b0 e5 09 3d 91 7a 19 bd
       -0.029636115 0.0039015408 0.033666313 -0.037470404
000140 e9 c2 22 bd f3 d1 1a 3d 5d 87 f2 3c 5d f0 a7 bc
       -0.039736662 0.03779788 0.029605562 -0.020500356
000150 0a 68 07 bd 5f b6 ab bd 92 40 37 bd ff 43 01 3d
       -0.033058204 -0.08384394 -0.044739313 0.031558987
000160 7b 43 fb b9 8f d3 fc 3d a4 84 13 3b 16 33 7e 3c
       -0.00047924728 0.12345039 0.002250948 0.0155151095
000170 cd 52 1b bd 60 a1 70 bc 2d fa b3 bc c9 33 05 bd
       -0.03792076 -0.014686912 -0.021969879 -0.03252009
000180 7d 62 d8 bb fb 1d 81 bb c9 53 a1 3c ad 04 67 3c
       -0.0066035376 -0.0039403415 0.019693272 0.014100236
000190 48 69 58 3d cc bd 4e bd 4e 60 37 3c 1e 01 91 b8
       0.05283478 -0.050473973 0.011192394 -6.914347e-05
0001a0 94 70 d0 3c 46 f8 45 bd 68 79 19 3d d1 14 f8 3c
       0.025444306 -0.048332475 0.037469298 0.030283364
0001b0 71 96 ac bd de b2 05 bd 5f 86 d5 bc 3a e1 0b 3d
       -0.08427132 -0.032641284 -0.02606505 0.03415034
0001c0 fc d6 47 bc 1d 2e 90 3c 50 26 30 bc 0d 30 86 bc
       -0.012197252 0.017600114 -0.010751322 -0.016380334
0001d0 77 53 99 3c e4 a9 33 3d 0e 20 63 bc 14 13 f5 bc
       0.018716557 0.043863192 -0.013862623 -0.029916324

fc2.weight f4 [84, 120]
000000 1c ed 6d bc e5 c5 bb bc f4 93 a9 bd 16 e6 51 3d
       -0.014521863 -0.022921512 -0.08280173 0.051244818
000010 0e d6 d6 bb 20 5b 73 bd bc b2 83 3d 9a 61 86 bc
       -0.006556279 -0.059413075 0.06430575 -0.016403962
000020 60 7c 7b 3d 40 99 c4 bd 20 1e a8 3d 9f 2b f1 3c
       0.06139791 -0.095995426 0.08208871 0.029439745
000030 9f 2d 00 bc fd 78 16 3e 90 14 25 3d ff 6c 96 3d
       -0.007823377 0.14694591 0.040302813 0.07345008
000040 4c ec 99 bc 16 24 92 3d c6 fa 87 bd 15 4a a1 bd
       -0.018789433 0.07135789 -0.06639628 -0.07875458
000050 71 f6 a4 3a 90 07 98 3c c3 40 97 bd d6 d3 2d 3c
       0.0012585652 0.018558294 -0.07385399 0.010609588
000060 d8 23 72 3c 0f 3c 8e bd 66 a8 ad 3d 4d ae b9 bd
       0.014779054 -0.06945049 0.08479385 -0.09066448
000070 02 03 b5 3d cd 8a c0 3c a6 08 49 3d b9 82 06 3d
       0.08838464 0.023503685 0.049080513 0.03283951
000080 ef a4 2b bd a8 a5 47 bd 39 f1 85 3d 19 b4 b9 bd
       -0.04190534 -0.048741966 0.0654015 -0.09067554
000090 9a f4 0b bd 3c 12 09 bd 53 0e 99 3d d3 4e e6 bd
       -0.034168817 -0.033464655 0.07473435 -0.11245503
0000a0 86 98 6a bd 38 4b 3d 3d 22 24 08 3c bc 77 ba bd
       -0.057274364 0.046214312 0.008309396 -0.09104869
0000b0 74 c4 04 ba b6 c2 ba bd 5b 6b fc bb 64 b8 e4 bc
       -0.0005064674 -0.091191694 -0.0077032275 -0.027919956
0000c0 57 4f 96 3d 15 68 91 bd 2e 5d 04 bd 69 8e 0e 3b
       0.073393516 -0.0709993 -0.032315426 0.0021752364
0000d0 04 bc 9d bd f4 a7 c4 3b 7f de d3 bd 8f 7a 92 bd
       -0.07701877 0.006001467 -0.10345172 -0.071522824
0000e0 0c 65 73 3d e8 b5 94 3d 9f e1 3f 3d 49 06 97 bd
       0.059422538 0.07261258 0.04684603 -0.07374246
0000f0 5f 31 f9 3c 0c 93 b6 3d 85 d1 19 3c 67 1c 55 bd
       0.03041905 0.08914766 0.009388332 -0.05202904
000100 52 b1 18 be c4 e1 d0 bb 67 4c aa 3c 1d c1 9e bd
       -0.14911392 -0.0063745696 0.020788385 -0.07751677
000110 fb b7 43 3d ef bb 8b bc 8f bb 3a 3c 51 6d a9 bd
       0.04778288 -0.017057387 0.0113972565 -0.082728036
000120 88 47 89 3d d7 9a 07 bc ef b1 7c bc bc 7c ce 39
       0.06703097 -0.008276663 -0.015423282 0.00039384316
000130 cf 13 1f 3c c6 d4 f4 3c bb 1c 09 bd ad 52 71 3d
       0.009709313 0.029886615 -0.033474665 0.058916736
000140 3c ec a9 bc 43 db a2 bc 34 8a 35 3d bf 60 04 3e
       -0.020742528 -0.019879943 0.044321254 0.1292753
000150 9d 61 0e bd fe 87 88 3d 55 fe 84 bd 9b ac b9 bd
       -0.03476106 0.066665635 -0.064938225 -0.09066125
000160 de f8 30 3d 75 13 f5 bb 8b 08 06 3c 24 bf 31 bd
       0.04320609 -0.007479126 0.008180748 -0.043395177
000170 7e 3c 17 bc 98 b3 7e bd 8a 94 86 3c d9 b9 cd bd
       -0.009230731 -0.062182993 0.01642825 -0.10045213
000180 fd 74 c2 3d c4 70 28 bd 0c d0 9d 3d b4 66 c2 bc
       0.0949497 -0.041123167 0.077056974 -0.023730613
000190 80 eb b7 bc 98 49 41 bd 32 f0 59 bc 80 53 8c 3b
       -0.022451162 -0.047189325 -0.013301896 0.004282415
0001a0 56 e2 82 bd 5a 78 ce bd 82 ff 9d bd 1a bf bf 3d
       -0.063908264 -0.10081549 -0.0771475 0.093626216
0001b0 a3 d1 1c bd 7a 25 e9 bd b7 6c 24 3d ec 28 82 bd
       -0.038285863 -0.11384101 0.04014274 -0.063554615
0001c0 97 67 02 bc 3a bc 0e 3d d9 42 ef bd 33 da 47 3c
       -0.007959268 0.034847476 -0.11682672 0.012198019
0001d0 0e ee a2 3d 15 b8 17 3d 0b 39 77 3d 10 f3 1d be
       0.079555616 0.03704079 0.060357135 -0.15424752
0001e0 3e 96 cc 3c 55 5b 92 3a 0a 58 92 3d c6 b9 c7 bd
       0.024973985 0.0011166135 0.07145698 -0.0975223
0001f0 69 17 c3 bc d2 3b 6f bc 6f 96 13 bd 94 4f b1 bb
       -0.023814874 -0.014601665 -0.036032137 -0.005411098
000200 2b ed ac bd d0 a2 b3 3d e2 bf 69 bd fe 14 f0 3b
       -0.08443674 0.087712884 -0.05706776 0.007326721
000210 98 b6 27 3d e7 54 54 bd 57 5f a8 3d e8 c0 22 3d
       0.04094562 -0.05183878 0.0822131 0.03973475
000220 2e a7 81 3c 05 4f a0 3d ae 00 9e 3d 25 1b 8d bd
       0.015826788 0.07827572 0.077149734 -0.06889943
000230 f0 18 f1 bd ab fb d9 bc dc b8 7b bd 7d a4 b9 bd
       -0.117723346 -0.026609262 -0.061455593 -0.09064577
000240 df f3 7c bc 59 ec e4 3d f6 ac a9 3b 5c 06 fd 3c
       -0.015439003 0.11177892 0.0051780893 0.030886821
000250 b6 22 1e be 39 5e b6 3d 11 e7 be bc 69 65 81 bb
       -0.15442929 0.0890469 -0.02330354 -0.0039488566
000260 ab e8 8e bd ca 86 41 3c 35 1f ef bc 6b 75 15 bd
       -0.06977972 0.011811921 -0.029189685 -0.03648893
000270 95 3d 1a 3e b5 6f 8d bd d4 02 81 3c d1 3a 88 bc
       0.15062554 -0.06906072 0.015748419 -0.016629608
000280 7f 2d fa bc bc fa 44 bc ff 00 5f bc 33 a1 66 3d
       -0.030539272 -0.01202267 -0.013611077 0.056306075
000290 6f 46 30 3d 6d b0 17 3c 97 f9 02 3c a9 fa d7 bd
       0.04303592 0.009258372 0.007994077 -0.105458565
0002a0 21 09 17 be 17 a4 c7 bd 6f b4 d9 3d 60 13 f5 3d
       -0.14749576 -0.097480945 0.10630118 0.11966586
0002b0 8e 8c 4a bd ac 45 d6 3c ea 9d 51 3d 2b 2a 83 3d
       -0.04945045 0.026156269 0.05117599 0.06404527
0002c0 b8 69 66 3d b2 52 91 bc ef f4 68 bc f8 89 ad bd
       0.056253165 -0.017739628 -0.014218553 -0.08473581
0002d0 f6 7e 76 3c 8a 13 4d bd 77 7f ac 3d 07 92 29 3e
       0.015044918 -0.050067462 0.084227495 0.16559611
0002e0 35 a8 a4 3d 59 52 d2 3d 32 24 8e bd 89 a3 f1 bc
       0.080398954 0.10269613 -0.069404975 -0.029496925
0002f0 fe f5 8d 3c 46 15 1f bd 4b 4f 75 3c 41 36 8d 3d
       0.017329212 -0.038838647 0.014972518 0.06895114
000300 87 cb 52 3d f8 61 6e 3d 7f 80 af bd ca c6 3a bc
       0.05146363 0.0581989 -0.085694306 -0.011399934
000310 11 84 af bd 1a 9d 67 bd 4c f0 37 3d 56 2d 8d bd
       -0.085701115 -0.056546308 0.0449069 -0.06893413
000320 7b 99 ec bc 01 5e 98 bd 22 26 70 bb 1e ce e8 bd
       -0.028881779 -0.07439805 -0.0036643823 -0.11367439
000330 ee c7 14 3e 10 9c 36 bd 61 1d c2 bc d5 3e c4 3c
       0.14529392 -0.044582427 -0.02369565 0.023955742
000340 49 e2 87 3d 0d 1e da 3d c5 ad 92 bd e9 a5 c5 3d
       0.06634957 0.10650263 -0.0716205 0.096507855
000350 85 db ef 3d 55 0d 89 bc 7e 25 92 bc 71 7e 20 bd
       0.11711792 -0.01672999 -0.017840143 -0.039183084
000360 54 41 cc 3c d7 a4 a4 bd 80 1f b7 3d 8a d3 25 3d
       0.024933495 -0.08039253 0.08941555 0.040484942
000370 b6 76 af 3c 70 27 77 bd 6a 8a 31 bc d3 5c ef bd
       0.02141891 -0.060340345 -0.010836223 -0.11687627
000380 42 65 ee 3d b5 92 c1 3d 17 8b 59 bc fc 98 f0 bd
       0.11640407 0.0945181 -0.0132777905 -0.117479295
000390 a6 e7 d9 3b 6d 99 f8 bc f2 4b 59 bd f0 e6 cb 3c
       0.006649929 -0.030346597 -0.053050943 0.024890393
0003a0 be d9 a5 bd 97 9b ed bb 93 81 24 bc 48 51 7a bd
       -0.08098172 -0.007251214 -0.0100406585 -0.061112672
0003b0 f6 83 85 3d 7f f4 f4 3d 4c 04 c1 3d 1b 6a bf 3d
       0.0651931 0.119606964 0.09424648 0.0934641
0003c0 33 82 9d 3d 37 ac a6 3d 9a 14 c3 3d 7b 89 b2 bd
       0.07690849 0.08138316 0.09525414 -0.087176286
0003d0 30 ce ac 3d 19 1d a6 bd f9 ca d2 3d a8 02 fd bc
       0.08437765 -0.08111019 0.1029262 -0.030885056
0003e0 0f 7d 98 3d 42 6f 98 3d 84 75 72 3d 62 5c 2a 3a
       0.07445728 0.07443096 0.059194103 0.00064987515
0003f0 3a db 0e 3c 09 61 93 bd 6c b2 c7 bd b1 fe b9 bd
       0.00871926 -0.07196242 -0.09750828 -0.09081782

fc2.bias f4 [84]
000000 f4 28 bf bc 15 ca a4 3d 18 67 12 bc c0 f3 ca 3d
       -0.023334958 0.080463566 -0.008935712 0.09909773
000010 5e 35 5d 3b 48 1f b0 bd ea 17 9e bd 6e 92 92 bc
       0.0033753733 -0.085997164 -0.07719405 -0.017892089
000020 87 43 08 bc 27 1b 2f bd ab 15 73 3d e8 64 b7 bd
       -0.008316881 -0.042750504 0.059346836 -0.08954793
000030 95 50 05 3d 7b f9 63 bd 3e 81 f5 bb 5e c2 82 bb
       0.032547552 -0.055657845 -0.0074922135 -0.0039904555
000040 16 53 15 3e 0a 75 fb bc 5d 28 2d bd 7f b5 8b 3d
       0.14582476 -0.030695457 -0.04227482 0.06821727
000050 28 ef f4 bc b6 af 91 ba 43 4f 85 bc 26 2d ef 3d
       -0.029899195 -0.0011114988 -0.016273146 0.11678533
000060 fb 0b 60 bd d5 36 84 bd f4 58 77 bd 66 af 69 bd
       -0.054698925 -0.06455771 -0.060387567 -0.05705204
000070 80 f0 7e 3d 2a d5 b7 3d 42 db 2f 3b 72 22 9a bd
       0.062241077 0.08976205 0.0026833569 -0.07526101
000080 3b a1 ee bc c5 58 8d 3d 89 b4 72 bb a7 4f 2f bd
       -0.029129615 0.06901697 -0.0037033877 -0.04280057
000090 d3 d2 32 3c 24 0c a5 bd 92 c4 8a 3d 9d 73 21 3d
       0.010914522 -0.08058956 0.06775774 0.039416898
0000a0 5a cf 31 bd 57 f6 63 bd b2 f1 e3 3d 96 be ea bd
       -0.043410636 -0.05565485 0.11130084 -0.11462133
0000b0 d3 14 ef 3d 1e 30 08 ba 7c d3 56 bd 8b 51 1d bb
       0.11673894 -0.00051951583 -0.05244778 -0.0024004902
0000c0 84 d4 06 be bd 37 06 3e 94 f0 3d bd 6e b2 f3 bc
       -0.13167006 0.131072 -0.04637201 -0.029748168
0000d0 66 67 a6 bd f9 d7 3c 3e 2f 3b 42 bd 4e 10 7a ba
       -0.081251904 0.18441762 -0.047419723 -0.0009539173
0000e0 65 04 21 3d 83 a3 89 3d 58 e9 a6 bc 15 6c 33 3d
       0.03931083 0.067206405 -0.020374939 0.043804247
0000f0 56 87 02 3c 9f d5 50 bd de c3 bb bd 24 95 bc bd
       0.007966837 -0.050984975 -0.09168218 -0.09208134
000100 4c 3a 0c 3d e8 59 74 bd 21 de e2 3c 87 a3 4d bd
       0.034235284 -0.059656054 0.02769381 -0.05020478
000110 b5 15 91 bd 93 7b 8f 3d c3 bf 1d bd 3a 40 1a bd
       -0.070842184 0.07005992 -0.038512956 -0.037658907
000120 de 4b 6c 3d 71 eb 88 3a c6 c6 d0 3d cc 6b a3 bd
       0.05768954 0.0010446144 0.10194163 -0.07979545
000130 00 31 fe 3d 2e c5 06 3b 71 ff de bd 48 a5 d6 bd
       0.1241169 0.0020564306 -0.10888565 -0.10480744
000140 7c 18 5b bd 4f d1 31 bd 27 cb 02 bd bc 98 5e bc
       -0.053490147 -0.043412503 -0.031932022 -0.013586219

fc3.weight f4 [10, 84]
000000 24 cb b8 3c 14 a1 80 bd 8c f9 08 be 90 9a 28 3d
       0.022557802 -0.06280723 -0.13376445 0.041163027
000010 a6 91 79 3c 78 e0 94 bc af 3d 9d 3d 8f b0 67 3e
       0.015232479 -0.018173441 0.07677781 0.22625946
000020 0f 1c 6b be 89 5f 05 3e 7b 32 64 be 45 b5 a4 3d
       -0.22959922 0.13024725 -0.22284882 0.08042387
000030 4a 7d f3 bc 13 c9 35 bc 9b f1 80 bd e2 77 d4 bd
       -0.029722828 -0.011095303 -0.062960826 -0.10374428
000040 ab f8 7d be 95 61 7b 3d 6a 42 5a bd 20 f2 4a bd
       -0.2480189 0.06137236 -0.053285994 -0.049547315
000050 13 ba b6 3d 28 51 eb 3c 22 01 98 3e 22 3b 8e be
       0.089222096 0.028725222 0.29688364 -0.2777949
000060 50 f8 47 3e 9c 35 c8 3d ea 18 aa bd 78 06 d3 3c
       0.19528317 0.0977585 -0.08305533 0.02575992
000070 25 75 0c 3e 55 cc 39 bd 59 7b a9 bd 69 f0 cd bd
       0.13716562 -0.04536088 -0.0827548 -0.1005562
000080 d0 f6 1f bd 6b 82 43 be e3 09 fc 3d a1 b1 b6 3e
       -0.039053738 -0.1909272 0.12306573 0.35682395
000090 17 7e dd bd d5 9e 8c bc a2 21 f8 bb 29 ba 47 3e
       -0.10815065 -0.01716558 -0.0075723687 0.19504608
0000a0 56 87 29 3d 9a cc e4 bb d7 34 55 be cb a3 63 3e
       0.041388832 -0.006982398 -0.20820938 0.22230451
0000b0 27 0f 95 bd dd 02 84 3d 34 d3 c2 3a ff 99 ef 3d
       -0.07278281 0.06445859 0.0014863969 0.11699294
0000c0 dd f7 94 3e 25 56 3b bd 64 8a 9a bc be 60 61 bd
       0.29095355 -0.04573645 -0.018864818 -0.0550239
0000d0 62 b9 be 3d 68 7b a4 be 3d b9 3c 3c 58 5b 18 3e
       0.09312703 -0.32125401 0.011518774 0.14878595
0000e0 51 35 36 3c c4 80 26 3d c6 39 87 3e ad 74 0d 3e
       0.01112111 0.040650144 0.26411265 0.1381404
0000f0 fc 22 56 3e 01 e0 17 3e 13 ea f3 3d f9 09 d1 3c
       0.20911783 0.14831544 0.119098805 0.02551745
000100 dc cf 06 3d 06 13 7c bd 75 92 12 3d 00 e7 65 3c
       0.032913074 -0.06154158 0.035784204 0.0140321255
000110 1b 7b ea bd 67 ff 27 be ad d6 fe bc 55 50 16 bc
       -0.11449262 -0.16406022 -0.031108225 -0.009174426
000120 0e 13 db bd 3d c7 4d be a7 1a e0 3c dc 02 88 3c
       -0.10696994 -0.20095535 0.027356459 0.016602926
000130 1c ac b1 be af 8d c4 bd 06 77 82 3e c9 e6 07 3e
       -0.34701622 -0.095973365 0.25481433 0.13271631
000140 ec fd bf bc 02 44 02 be 28 15 a0 bd 45 5d f8 bc
       -0.02343651 -0.12721255 -0.07816535 -0.030317912
000150 2f 52 fb bd 62 d9 9e 3e fb bc 2f bd 29 68 a2 bd
       -0.12271535 0.31025225 -0.042904835 -0.07930023
000160 d7 7c 7d 3d 31 a8 25 bd 49 24 5a 3e 6a 6f 36 be
       0.061886635 -0.040443603 0.21302904 -0.17815939
000170 ee b2 90 3e 46 36 94 bc f6 0e bc 3d de 6e 14 3d
       0.28261513 -0.018092286 0.09182541 0.036238544
000180 2d 3b d2 3e 62 16 2f 3e 1c f5 66 bd be 28 ae bd
       0.41060773 0.17098382 -0.0563861 -0.08503865
000190 80 b5 43 be 6a 0b 0c be c6 83 2f 3e e2 c9 90 3a
       -0.19112206 -0.13676229 0.17140111 0.0011046494
0001a0 05 c9 87 bd 31 f3 0a 3d bb 9d a9 3e 34 5a 59 be
       -0.06630138 0.03392333 0.3312815 -0.21225816
0001b0 d0 cd d2 bd b0 6f a8 3e 2d 4e 41 3d 64 00 7f 3d
       -0.10293162 0.3289771 0.047193695 0.062256232
0001c0 27 7d d2 bd c4 56 4e be 67 d2 84 bd 08 f0 23 bd
       -0.10277777 -0.20150286 -0.064854436 -0.040023834
0001d0 fe 59 dc bd ff 66 e1 3c 0a d4 12 be 09 d9 6a bd
       -0.10759352 0.027514933 -0.14338699 -0.057335887
0001e0 2e 30 a6 bd 10 b8 85 be 9f 1b 9d bb 0a b2 a3 3b
       -0.08114658 -0.2611699 -0.0047945525 0.004995589
0001f0 d3 56 cb 3b 63 b0 34 3e a4 1b 55 3e 47 6f 8a bd
       0.0062054186 0.17645411 0.20811325 -0.06759506
000200 ae b3 06 be 4b 9b 01 3d 7b 43 5c bd d2 08 01 be
       -0.1315448 0.03164224 -0.053775292 -0.12601021
000210 09 d0 3c be 30 f4 91 ba b8 ff 77 bd 18 22 95 bd
       -0.18438734 -0.0011135396 -0.060546607 -0.072818935
000220 5c 38 8d bc 1b 40 93 bd 7d a0 cf 3c fb 92 60 3d
       -0.017238788 -0.071899615 0.025345081 0.05482767
000230 8e fa 3c 3e 74 7d 98 3c ad be 8c be ba 40 a3 3e
       0.18454954 0.018614508 -0.27489224 0.3188532
000240 03 c3 85 bd fc b9 98 bd 92 eb 73 be 15 7d b0 3b
       -0.06531336 -0.07457349 -0.23820332 0.0053860047
000250 2c af 1d 3d cc 91 92 3d c6 ca d3 3c 27 8b d3 bd
       0.038497135 0.07156715 0.025853526 -0.103292756
000260 de ef e1 bd 24 8d 47 3e aa 26 4f 3e 62 a7 cb 3b
       -0.11032079 0.19487435 0.20229593 0.006215022
000270 12 14 f7 3d 8f 66 42 3d 71 95 1e be 8d 36 a8 bd
       0.12064375 0.04746109 -0.15486695 -0.0821353
000280 e5 aa a3 3c 7e 06 ad bd 0d 48 a9 bd b4 c6 95 bc
       0.01997895 -0.08448504 -0.08265696 -0.018283226
000290 5f dd 47 3c cc 15 d4 bd 43 ee ec bd 64 b0 93 bd
       0.012198775 -0.1035572 -0.11568882 -0.07211378
0002a0 22 07 db 39 38 21 34 3c 23 da 02 3d 87 c6 0d bd
       0.0004177625 0.010994248 0.031946313 -0.03461316
0002b0 d6 80 bf bc b8 81 d1 bc 56 92 8a 3d 20 00 e1 bc
       -0.023376863 -0.02557455 0.067661926 -0.02746588
0002c0 6d 78 99 3c e4 56 4b bd 2a 11 a1 3d 63 23 8d bd
       0.018734181 -0.049643412 0.07864602 -0.06891515
0002d0 9b 5a 04 be 36 05 7f bd d1 27 df bd f4 9a a1 bd
       -0.12925188 -0.06226083 -0.10896266 -0.07890883
0002e0 27 fc c6 3c fd 1c 5a bd 1b 86 7d bd b2 eb c5 3c
       0.024290157 -0.0532503 -0.06189547 0.02416024
0002f0 74 5e 1a bd 03 c3 39 3d 82 4e b0 3b fd 61 aa 3d
       -0.037687734 0.045351993 0.0053804526 0.08319471
000300 4e 89 77 bd be 22 a1 3d 43 2b 59 3d 93 5b c6 3d
       -0.06043368 0.07867955 0.053019773 0.09685435
000310 1f 61 3e 3d 25 d6 c3 3b 1b 97 3d bc 57 67 6d bc
       0.04647934 0.0059764558 -0.011571671 -0.01448997
000320 92 d1 d6 bd 6a bf 35 bd f4 4d 73 bd d9 41 ae 3d
       -0.10489191 -0.044372 -0.059400514 0.08508653
000330 1b c1 9a bd 38 92 59 bd c4 22 bb bd ad 6b 5e bd
       -0.07556363 -0.05311796 -0.091374904 -0.054301906
000340 f2 be b6 bd ab ad 10 bc 79 bf e2 bd 8c a0 85 3c
       -0.08923139 -0.008830468 -0.11071677 0.016311906
000350 2d f0 8a 3c c0 38 9c 3d 58 d2 d1 bc a1 46 83 3c
       0.016960228 0.07628012 -0.025612995 0.01602489
000360 76 4f 43 3c f5 d8 f1 bc b4 05 a1 bd 19 16 a3 3d
       0.0119208 -0.029522398 -0.07862416 0.07963199
000370 20 21 25 bc 33 6b 2b bd b2 05 60 3d 3c c5 d2 3c
       -0.010078698 -0.04185028 0.05469293 0.025728814
000380 63 3a 77 bd e3 61 63 bd 07 6d d0 3d 4d af bb 3b
       -0.060358416 -0.055513274 0.10177045 0.0057276846
000390 dc e4 b5 3d 6c 45 de 3c f8 3c ea bb 7f c3 5c bd
       0.08881542 0.027132712 -0.0071483813 -0.053897377
0003a0 a6 0c 9b 3c 0e 77 a8 bc d1 17 9f bd 81 ec 91 3d
       0.01892693 -0.020564582 -0.077682145 0.07125188
0003b0 c6 42 5b bd c4 c2 05 be e4 10 aa 3b 23 54 ef bc
       -0.053530477 -0.13062578 0.005190002 -0.029214924
0003c0 6b 18 03 3d fb 62 d7 bd b9 5e 39 3c 41 0e b5 3c
       0.03200571 -0.10516926 0.011314088 0.022101523
0003d0 4b b3 9f bd 63 60 66 bd 1c 89 39 bd 96 ca 90 bc
       -0.07797869 -0.056244265 -0.045296773 -0.017674726
0003e0 a0 ef 8d bd 8e 1a 54 bd 29 c8 82 bd ec 01 d2 3d
       -0.069304705 -0.051783137 -0.06385834 0.10254273
0003f0 b9 3a 16 3d 64 af 6d 3e ff 30 dc 3d 19 89 29 3e
       0.036677096 0.23211437 0.10751533 0.16556205

fc3.bias f4 [10]
000000 31 36 9d be 58 41 48 3c e0 0f e7 3d 02 d4 3f 3e
       -0.30705407 0.01222261 0.11282325 0.18733218
000010 d1 73 76 3d 36 0b 5e be 21 06 1a 3e 90 f7 1e be
       0.060169045 -0.21683964 0.150414 -0.15524125
000020 04 81 d1 bc 7e 53 11 3e
       -0.025574215 0.14192006
