round1/2025-04-18 18:12:27-weight-client-0605eff2-5.pth (torch, 252478 bytes, 10 tensors)

conv1.weight f4 [6, 3, 5, 5]
0	0x3d5d71a2	0.054063447
1	0x3de73d23	0.11290958
2	0x3e48ab5d	0.1959662
3	0x3e30a5dc	0.1725077
4	0x3dccbfdb	0.09997531
5	0x3e82e2dc	0.25563705
6	0x3e4e2532	0.20131376
7	0x3dafd6cf	0.08585893
8	0x3e66acc3	0.22526841
9	0x3e64b78d	0.22335644
10	0x3e00f3a9	0.12592949
11	0x3df9fd09	0.12206466
12	0x3e15fda0	0.14647532
13	0x3e3e81ab	0.18604152
14	0x3e465110	0.1936686
15	0x3d7db98a	0.061944522
16	0x3e9a7bb7	0.30172512
17	0x3e81bf1e	0.25341123
18	0x3da9e199	0.082949825
19	0x3b75818b	0.0037461247
20	0x3e1eccfe	0.15507886
21	0x3e5c3cfb	0.21507637
22	0x3df16907	0.117876105
23	0x3e2bb11f	0.16766785
24	0x3d524816	0.051338278
25	0xbd762819	-0.060096834
26	0xbb04ac30	-0.0020244233
27	0xbdbacdc8	-0.09121281
28	0xbd67d2aa	-0.05659739
29	0x3db26a92	0.08711733
30	0x3d9e7a1b	0.077381335
31	0x3dba470c	0.09095582
32	0xbdc38e88	-0.0954867
33	0x3c115ee9	0.008872726
34	0x3df64f48	0.120268404
35	0x3d51fe00	0.051267624
36	0x3ae2e755	0.0017311374
37	0xbcfd8f41	-0.030952098
38	0xbc32bc70	-0.010909185
39	0xbd595b0d	-0.05306535
40	0x3d42b748	0.047538072
41	0x3db64b0f	0.08901035
42	0xbe12d02c	-0.14337224
43	0xbe2fed46	-0.17180356
44	0xbdcc07a7	-0.09962397
45	0xbd8ca45d	-0.06867287
46	0xbcc3f9e1	-0.023922862
47	0xbe4daecb	-0.2008621
48	0xbe6c6e73	-0.23089008
49	0xbdad5eae	-0.08465324
50	0xbcc188fc	-0.02362489
51	0xbe465e2c	-0.19371861
52	0xbe1f70ae	-0.15570328
53	0xbd9a4ae6	-0.07533817
54	0xbe287f7d	-0.16454883
55	0xbdef9184	-0.11697677
56	0xbe5f1ca1	-0.21788265
57	0xbe236aa8	-0.15958655
58	0xbdf7529b	-0.120763026
59	0xbdd736b7	-0.10508483
60	0x3bd75ed3	0.006572583
61	0xbdb29842	-0.08720447
62	0xbe3f100e	-0.18658468
63	0xbe020394	-0.12696677
64	0xbe7b5a4b	-0.24546163
65	0xbe2c1e9f	-0.16808556
66	0xbc6d4764	-0.014482353
67	0xbe50d88e	-0.20395109
68	0xbe468b5f	-0.19389103
69	0xbeb56346	-0.35427302
70	0xbe1a2588	-0.1505338
71	0xbe57c6ed	-0.21071978
72	0xbe3be255	-0.18348058
73	0xbea91600	-0.33024597
74	0xbe5ddc07	-0.21665965
75	0xbd9cf7f8	-0.07664484
76	0xbd83b9a3	-0.06431892
77	0xbdcff758	-0.10154599
78	0xbc804b2e	-0.015660848
79	0xbe483d26	-0.19554576
80	0xbe424657	-0.18972145
81	0xbe0b0766	-0.13577041
82	0xbdcacf60	-0.09902835
83	0xbde62a1b	-0.112385
84	0xbc9e8c98	-0.01935415
85	0xbe2ea139	-0.17053689
86	0xbd8baad1	-0.0681969
87	0xbe42fbf7	-0.1904143
88	0xbe11a797	-0.14224087
89	0xbe52b91c	-0.20578426
90	0xbe3009d4	-0.17191249
91	0x3bf32f6f	0.007421426
92	0xbdd99a03	-0.106250785
93	0x3c69bda2	0.014266403
94	0xbd77c534	-0.060490802
95	0xbcb9c138	-0.022675142
96	0xbdf43a27	-0.11925154
97	0xbd8a92ea	-0.06766303
98	0xbe059823	-0.13046317
99	0x3d0befdd	0.0341643
100	0x3d41ba9d	0.04729711
101	0x3dc89a9a	0.09795113
102	0x3d8ae422	0.06781794
103	0xbda8cd67	-0.082423024
104	0xbd9877bb	-0.07444712
105	0xbde08c1c	-0.10964224
106	0xbdb7eb69	-0.08980448
107	0x3d43d16c	0.047807142
108	0xbcb52d13	-0.02211622
109	0x3ccc539b	0.02494221
110	0x3d69a878	0.05704543
111	0x3d72cafa	0.059275605
112	0x3d24e014	0.04025276
113	0x3aa80d98	0.0012821434
114	0x3d80fcba	0.06298204
115	0xbccfe7a3	-0.025379008
116	0xbdd01f7e	-0.10162257
117	0xbb82ffbb	-0.0039977706
118	0xbdfb18be	-0.122605786
119	0xbc9fc242	-0.019501809
120	0xbdb971b0	-0.09054887
121	0xbdb4a2f8	-0.08820146
122	0xbc724123	-0.014786038
123	0xbd19b466	-0.037525557
124	0xbe073c57	-0.13206612
125	0x3e7e4c24	0.24833733
126	0x3e06d78a	0.13168159
127	0x3e16287f	0.14663886
128	0x3e450ef5	0.19243987
129	0x3e2c29b1	0.16812779
130	0x3e87db07	0.26534292
131	0x3e35079b	0.17678683
132	0x3e4b777f	0.19869803
133	0x3e1419c9	0.14462961
134	0x3e6d4e13	0.23174314
135	0x3db47d6c	0.08812985
136	0x3d9b4425	0.07581357
137	0x3e1c5339	0.15266122
138	0x3e3bbb0a	0.18333068
139	0x3e504c6c	0.20341653
140	0x3e2dbc45	0.1696635
141	0x3e0e0a44	0.13871104
142	0x3e2822da	0.16419545
143	0x3e174421	0.14772083
144	0x3e147533	0.14497833
145	0x3e099fae	0.13439819
146	0x3d9b1a4f	0.07573377
147	0x3e07e74d	0.13271828
148	0x3e214af8	0.15751255
149	0x3cc4b3a1	0.024011435
150	0x3cac099c	0.021000676
151	0xbc6ac7fe	-0.014329908
152	0xbce67314	-0.028131045
153	0xbd8fcd8b	-0.07021626
154	0xbdb15ab9	-0.08659882
155	0x3c568fbc	0.013095792
156	0xbe2ed1df	-0.17072247
157	0xbd5942dd	-0.05304228
158	0x3c05a456	0.0081568565
159	0xbd0ab7b6	-0.033866607
160	0xbc5a74ff	-0.013333558
161	0xbd0e7756	-0.034781776
162	0x3e390871	0.18069626
163	0xbd6986f5	-0.05701347
164	0xbe75fe1f	-0.24022721
165	0xbe0d1b7a	-0.13780013
166	0xbd98e039	-0.07464642
167	0x3de6c008	0.11267096
168	0xbd8be2a2	-0.06830336
169	0xbe8da421	-0.27664283
170	0x3d92a604	0.07160571
171	0x3cdaccc7	0.026708974
172	0x3d80e950	0.06294501
173	0x3e2c445e	0.16822955
174	0xbd783913	-0.060601305
175	0x3ebc4cad	0.3677725
176	0x3eac0687	0.3359873
177	0x3f094c29	0.53631836
178	0x3eec7bbe	0.46188158
179	0x3e41a830	0.18911815
180	0x3eaa9972	0.33320194
181	0x3eedac87	0.4642069
182	0x3f10c5bf	0.56551737
183	0x3ed34c9d	0.4126939
184	0x3eb2a6b6	0.34892815
185	0x3eb3e27c	0.3513373
186	0x3ef11860	0.4708891
187	0x3f0829ba	0.5318867
188	0x3eb386d6	0.3506381
189	0x3e591077	0.21197687
190	0x3e964e48	0.293566
191	0x3e939651	0.2882562
192	0x3f26b7c9	0.65124184
193	0x3ef8d5e9	0.486007
194	0x3e60fc3f	0.21971224
195	0x3efe681f	0.49688813
196	0x3eb2aaaf	0.34895846
197	0x3f014ac0	0.50504684
198	0x3f0a1645	0.5394023
199	0x3ecc9663	0.39958486
200	0xbe85ff84	-0.26171505
201	0xbec4dfb4	-0.38451922
202	0xbde18d92	-0.110133305
203	0xbe81de13	-0.25364742
204	0xbeefad21	-0.46811774
205	0xbebb5cd8	-0.36594272
206	0xbe454807	-0.19265758
207	0xbe7a69aa	-0.2445437
208	0xbe89b156	-0.2689311
209	0xbec6b49a	-0.38809663
210	0xbebc041c	-0.36721885
211	0xbe9e9d77	-0.3097951
212	0xbd808554	-0.0627543
213	0xbe9e8bc6	-0.30966014
214	0xbedcf185	-0.43153015
215	0xbe88aea8	-0.26695752
216	0xbec68578	-0.38773704
217	0xbe38c7b1	-0.18044926
218	0xbe36c6cf	-0.17849277
219	0xbef012ae	-0.4688925
220	0xbea78a27	-0.3272259
221	0xbe7c6e54	-0.24651462
222	0xbe909cbe	-0.28244585
223	0xbe867618	-0.26261973
224	0xbed0f3bf	-0.40810964
225	0xbdeb93d3	-0.115028046
226	0x3c3acacf	0.011400892
227	0xbe1bda05	-0.15219887
228	0xbdc3afc2	-0.095550075
229	0xbd3bbd84	-0.045835033
230	0x3cf5b4ff	0.029993532
231	0xbc790130	-0.015198037
232	0x3bd6d0ef	0.0065556685
233	0x3cc60a04	0.024174698
234	0x3c4dad0e	0.0125534665
235	0x3c272ab9	0.010203057
236	0x3ddf7d66	0.1091259
237	0xbce7e692	-0.028308187
238	0x3ded1771	0.11576737
239	0x3ce6b434	0.0281621
240	0xbb97cbbe	-0.0046324423
241	0x3e2bb22f	0.1676719
242	0x3d6e754f	0.058217343
243	0xbd25c007	-0.040466335
244	0x3d808add	0.06276486
245	0x3dd9e63f	0.10639619
246	0x3d87142c	0.06595644
247	0x3d2f7c6f	0.04284328
248	0x3c0826e3	0.008310053
249	0xbbd50a91	-0.0065015038
250	0x3d1be8e9	0.038063917
251	0x3b3b524f	0.0028582995
252	0x3e44331a	0.19160119
253	0xbb77c054	-0.0037803845
254	0x3db3526a	0.087559536
255	0x3cba51bf	0.022744058

conv1.bias f4 [6]
0	0xbd8a240f	-0.06745159
1	0xbe6e1f0f	-0.23254035
2	0x3df396b0	0.11893976
3	0xbed55246	-0.41664332
4	0xbfb74afe	-1.4319761
5	0xbe87bade	-0.26509756

conv2.weight f4 [16, 6, 5, 5]
0	0xbdaf8451	-0.08570159
1	0xbcd4e5b1	-0.025988432
2	0xbdbd9a1a	-0.09257908
3	0xbc82c335	-0.015962223
4	0x3cf50466	0.029909324
5	0xbd1f39cd	-0.038873482
6	0xbd7bba63	-0.06145705
7	0xbd91a066	-0.07110672
8	0x3d1be874	0.03806348
9	0xbd84ef67	-0.06490975
10	0xbe092f05	-0.13396843
11	0xbd5388d9	-0.05164418
12	0xbdc6f65d	-0.09714959
13	0xbd92828c	-0.07153806
14	0x3d323b45	0.043513555
15	0x3c8181fe	0.015809055
16	0xbd620bcb	-0.055187028
17	0xbc5d1207	-0.013493068
18	0xbd66ead5	-0.056376297
19	0x3d8cdaf4	0.068776995
20	0x3c9bdde9	0.019026713
21	0x3df01065	0.11721877
22	0x3dcd57f5	0.10026542
23	0x3d0c72e5	0.03428926
24	0x3d75939b	0.05995522
25	0xbb51e25a	-0.0032025785
26	0xbde46a8c	-0.11153135
27	0xbc59754c	-0.013272595
28	0xbd852543	-0.06501248
29	0xbdd61222	-0.10452677
30	0xbda29b2b	-0.07939752
31	0xbda56799	-0.080764
32	0xbd93617a	-0.071963266
33	0xbcc4e41a	-0.024034549
34	0xbd619a42	-0.055078752
35	0xbd8388b9	-0.06422562
36	0xbbb34456	-0.0054707928
37	0xbc34943f	-0.011021673
38	0xbd452c42	-0.04813791
39	0xbd0b2966	-0.033975028
40	0xbe1163c3	-0.14198212
41	0xbde1963e	-0.110149845
42	0xbcefdb35	-0.02927933
43	0xbdccd33f	-0.100012295
44	0xbccb0927	-0.024784638
45	0xbdb9ed42	-0.090784565
46	0xbd59484f	-0.053047474
47	0x3bdc8521	0.0067297374
48	0xbb98bbba	-0.0046610506
49	0xbbf1d327	-0.0073799076
50	0xbd657ceb	-0.056027334
51	0x3da56a68	0.08076936
52	0x3b818b93	0.003953406
53	0x3e086e08	0.13323224
54	0x3d4fcba2	0.05073131
55	0xbd411770	-0.047141492
56	0x3dc82998	0.097735584
57	0x3bd281b5	0.0064241537
58	0x3d693a4a	0.056940354
59	0x3dbd2d0e	0.09237109
60	0xbcef228a	-0.029191274
61	0x3e1cad9c	0.15300602
62	0x3e1b36a5	0.15157564
63	0x3de417c6	0.11137347
64	0x3db35991	0.08757318
65	0x3e02c12d	0.12769003
66	0x3dbb68d3	0.09150853
67	0x3e3239e7	0.174049
68	0x3df542ed	0.11975656
69	0x3e2fa310	0.17152047
70	0x3d8756a1	0.0660832
71	0x3e214d73	0.15752201
72	0x3e3eb7e3	0.18624835
73	0x3d83b6b4	0.06431332
74	0x3da51d6d	0.08062253
75	0xbe1b8f88	-0.15191472
76	0xbe0b4df8	-0.13603961
77	0xbd73f98b	-0.059564155
78	0x3d672a08	0.05643657
79	0x3c515dfd	0.012778756
80	0xbd5320e7	-0.05154505
81	0xbd63eb99	-0.055644605
82	0xbc940393	-0.01806811
83	0xbcdb38d0	-0.026760489
84	0x3dfc9bcd	0.12334404
85	0xbca18689	-0.019717472
86	0xbd133b90	-0.035945475
87	0x3d4dbc76	0.05022856
88	0xbc784cba	-0.015155012
89	0x3d373564	0.04472865
90	0xbdc1eb0a	-0.09468658
91	0x3d1279c4	0.035760656
92	0x3d78c03a	0.060730197
93	0x3d1da410	0.03848654
94	0x3d34194f	0.04396945
95	0xbe107677	-0.14107691
96	0xbd321777	-0.04347941
97	0xbcd33089	-0.02577998
98	0x3a5f556e	0.0008519505
99	0x3d472652	0.04862053
100	0xbe89d656	-0.26921338
101	0xbe66ef5d	-0.22552247
102	0xbd4a58e6	-0.049401186
103	0x3e049085	0.12945755
104	0x3dd8d444	0.105873615
105	0xbde05969	-0.10954554
106	0xbd984f27	-0.07436972
107	0x3d41f2b5	0.047350604
108	0x3dbc0561	0.091807134
109	0x3e17c6ae	0.14821884
110	0xbe6bacf6	-0.23015198
111	0xbc21515f	-0.009846061
112	0x3c8a8a3c	0.016911618
113	0xbbf85208	-0.0075781383
114	0x3da7e2d3	0.0819756
115	0xbe44059f	-0.1914277
116	0xb8c216d8	-9.254896e-05
117	0xbcbd713e	-0.023125287
118	0x3d093a3e	0.03350281
119	0x3cb9e57a	0.02269243
120	0xbe8f9e2d	-0.28050366
121	0xbe0baaf1	-0.13639428
122	0xbd8eaeff	-0.069669716
123	0xbd298941	-0.04139066
124	0xbde1c923	-0.11024692
125	0xbe16bff1	-0.14721657
126	0xbd934b96	-0.07192151
127	0xbd6f6d4d	-0.058453847
128	0xbcacb173	-0.021080708
129	0xbd61b713	-0.055106234
130	0xbe0f9f0c	-0.14025515
131	0xbe206213	-0.15662412
132	0xbdd10a7f	-0.1020708
133	0xbc6b8419	-0.014374756
134	0xbd45f07d	-0.04832505
135	0xbc972d9c	-0.018454365
136	0xbcff7338	-0.03118287
137	0xbbe81420	-0.007082477
138	0x3bb275e4	0.0054461826
139	0xbdbb45f1	-0.091442
140	0xbe250fc8	-0.16119301
141	0xbc8ddfab	-0.017318567
142	0xbdaac5b4	-0.0833849
143	0xbd59cad3	-0.053171944
144	0xbdf5aae5	-0.11995486
145	0xbdf53e02	-0.11974718
146	0xbe00ed75	-0.12590583
147	0xbdc62795	-0.096755184
148	0xbcb06875	-0.021534184
149	0xbdaa3d14	-0.08312431
150	0xbd4a5f50	-0.049407303
151	0xbde99413	-0.11405196
152	0x3d1ee633	0.038793754
153	0xbdbf65e4	-0.09345606
154	0xbcee1e36	-0.02906714
155	0x3a01e32f	0.00049548125
156	0x3d3d9fb9	0.0462949
157	0xbcfd8cdb	-0.030950954
158	0xbd5f7091	-0.05455071
159	0xbcb7b5ad	-0.022425497
160	0x3d288f02	0.041152008
161	0x3d9b676b	0.07588085
162	0x3d81e490	0.06342423
163	0x3c113a22	0.008863958
164	0x3cfbcdc9	0.030737774
165	0xbb8c4dc9	-0.0042817337
166	0x3e1cb892	0.15304783
167	0x3e090044	0.13379008
168	0x3e1ea59d	0.15492864
169	0x3e094428	0.13404906
170	0x3dc55105	0.09634594
171	0x3e10018a	0.14063087
172	0x3cb098e3	0.021557277
173	0x3e1bea8a	0.15226188
174	0x3e09166a	0.13387457
175	0xbd47c102	-0.04876805
176	0xbd867dd5	-0.06566969
177	0xbd7ba6ec	-0.061438486
178	0xbd0d9fbe	-0.03457617
179	0x3d22ff8b	0.039794486
180	0x3d506a5f	0.050882693
181	0x3d307614	0.043081358
182	0xbcaed30b	-0.021340868
183	0x3c0ef465	0.00872526
184	0xbc9816cf	-0.018565563
185	0x3d1d5b7f	0.038417336
186	0xbcfbf7e4	-0.030757852
187	0x3cca41d8	0.0246896
188	0xbd9ad254	-0.07559648
189	0xbc1a7cd3	-0.0094291745
190	0x3d341e76	0.043974362
191	0x3c739de0	0.014869183
192	0xbd676f6f	-0.056502756
193	0x3d6a64ef	0.057225164
194	0x3d84de31	0.06487692
195	0xbd11818d	-0.03552394
196	0x3c97bd3e	0.018522855
197	0x3be51f84	0.0069922823
198	0x3da260d4	0.07928625
199	0x3d82f95c	0.06395218
200	0xbce0faf6	-0.027463418
201	0xbc8f4b87	-0.017492069
202	0x3d682d38	0.05668375
203	0x3c9f4334	0.019441225
204	0x3c385c15	0.011252423
205	0xbde6eefb	-0.11276051
206	0x3b6b953f	0.0035947112
207	0x3d80c401	0.06287385
208	0xbd235cf8	-0.039883584
209	0xbc551953	-0.013006526
210	0xbe20d238	-0.15705192
211	0xbd7beaa4	-0.061503068
212	0x3cf63403	0.030054098
213	0xbd83c3ea	-0.06433852
214	0xbd41879d	-0.04724847
215	0xbd80ca76	-0.06288616
216	0xbc9403df	-0.018068252
217	0xbd75406b	-0.059875887
218	0xbcb3b4c4	-0.021936782
219	0x3d1e9339	0.03871462
220	0xbdd4954d	-0.10380039
221	0xbdc26dde	-0.09493612
222	0x3c4c6799	0.0124758715
223	0x3d609392	0.054828234
224	0xbd86c31f	-0.06580185
225	0xb9b95e2a	-0.00035356107
226	0x3d3ab032	0.04557819
227	0xbaf0a6de	-0.0018360277
228	0xbd3ed709	-0.046591792
229	0x3d349d2f	0.044095214
230	0xbd50fb8e	-0.05102115
231	0xbda0e7fb	-0.07856747
232	0xbcaa1527	-0.02076204
233	0x3d6c81a9	0.05774084
234	0xbd3760b8	-0.044769973
235	0x3cc81449	0.024423735
236	0x3d41932e	0.047259502
237	0x3d329cfd	0.043606747
238	0x3d453714	0.04814823
239	0x3d93c6f2	0.0721568
240	0xbd3ee7e8	-0.04660788
241	0xbd3ede35	-0.046598632
242	0x3bf6897b	0.007523713
243	0xbc62e0d8	-0.013847552
244	0x3d33af33	0.043868255
245	0xbd8442c7	-0.06458049
246	0xbd6d3f34	-0.057921603
247	0x3a09fa30	0.0005263416
248	0x3d571d39	0.052518103
249	0x3d286a46	0.041116975
250	0xbda03ece	-0.07824479
251	0x3cb9476a	0.02261706
252	0xbcd7b0b3	-0.026329374
253	0xbcab0d96	-0.020880502
254	0xbd1f68d5	-0.038918335
255	0xb8ae9eaa	-8.32652e-05

conv2.bias f4 [16]
0	0x3ce6f75f	0.028194128
1	0xbe8b6a8d	-0.2722973
2	0x3debb288	0.115086615
3	0x3e4cc2f4	0.19996244
4	0xbd9b3732	-0.07578887
5	0xbcb3bcbb	-0.02194058
6	0xbe5c9ab6	-0.21543393
7	0xbd673c5b	-0.056454044
8	0xbe154c3e	-0.14579865
9	0xbd901c0e	-0.07036601
10	0xbde74efa	-0.112943605
11	0xbd9a02e2	-0.07520081
12	0xbbc2c598	-0.005943965
13	0xbd866256	-0.06561725
14	0xbc9ab17d	-0.018883461
15	0xbd511758	-0.051047653

fc1.weight f4 [120, 400]
0	0x3d470958	0.048592895
1	0xbc11efdf	-0.008907287
2	0xbc15c917	-0.009142182
3	0xbd49e6e8	-0.049292475
4	0x3b6f527d	0.0036517673
5	0xbc60c40e	-0.013718618
6	0x3cd6e022	0.026229922
7	0x3d351b6e	0.044215612
8	0x3b703b75	0.0036656533
9	0x3b0ef845	0.002181546
10	0x3c070acb	0.008242319
11	0xbcc39374	-0.023874022
12	0xbcc30b21	-0.023809018
13	0xbc40543d	-0.011738834
14	0x3ce26ca4	0.027639695
15	0xbd0f4a9a	-0.034983255
16	0xbc1da7c9	-0.009622523
17	0x3cee4b9d	0.02908879
18	0x3d40ebf8	0.047100037
19	0x3cfe8eff	0.031074045
20	0x3d02e3fb	0.0319557
21	0xbd07ecb8	-0.033184737
22	0xbd1bc3b4	-0.038028434
23	0x3cdb6536	0.02678166
24	0xbd3fde1b	-0.046842676
25	0xbc2df6c2	-0.010617914
26	0xbb11adf1	-0.0022228921
27	0x3cb4b9cc	0.022061251
28	0x3c0a4fc5	0.00844187
29	0xbd2f0f44	-0.042739168
30	0x3d246655	0.040136654
31	0xbc92d079	-0.017921673
32	0x3ca4d400	0.02012062
33	0xbcf32dd7	-0.029684944
34	0xbd2a0c33	-0.04151554
35	0xbd406ab1	-0.04697675
36	0x3d4b9d03	0.049710285
37	0x3cd876fd	0.026423926
38	0x3d2b9d57	0.041898098
39	0xbc70bd9c	-0.014693644
40	0x3cb1540a	0.021646518
41	0xbb6a2ff3	-0.0035734146
42	0xbc27f710	-0.010251775
43	0xbccb9539	-0.024851428
44	0xbc8b047e	-0.016969915
45	0x3d2ecac3	0.042673837
46	0xbcc0df18	-0.02354388
47	0x3cf54117	0.029938264
48	0xbd0d99e2	-0.034570582
49	0x3cc03d46	0.023466717
50	0xbd147115	-0.036240656
51	0xbc1cfec1	-0.009582222
52	0x3d10b896	0.035332285
53	0x3cbfb8c4	0.023403533
54	0xbd290d3a	-0.04127238
55	0xbcf5bd06	-0.02999736
56	0xbccb4bd3	-0.02481643
57	0x3cb6170b	0.022227785
58	0x3d1315c9	0.035909448
59	0x3cff0265	0.031129071
60	0xbd4d8247	-0.05017307
61	0x3c763f72	0.015029775
62	0xbd33f115	-0.043931086
63	0x3b55eab4	0.0032641115
64	0xbcae475e	-0.021274265
65	0xbc1fa425	-0.009743725
66	0x3bfbde6a	0.007686426
67	0x3d076af5	0.033060987
68	0xbcb46884	-0.022022493
69	0xbc8bfd29	-0.01708849
70	0xbd01d13c	-0.031693682
71	0xbd0a23d7	-0.033725586
72	0x3d11669f	0.035498258
73	0xbd24e859	-0.040260646
74	0x3d31d113	0.04341228
75	0xbc07a224	-0.008278403
76	0x3c29d25a	0.010365093
77	0xbb85420c	-0.0040667113
78	0xbc89d560	-0.016825378
79	0xbd2f13d6	-0.042743526
80	0x3d3cdb35	0.04610749
81	0xbcb4aec9	-0.022056
82	0xbd0e06a0	-0.034674287
83	0x3b834e75	0.0040071555
84	0x3d1f07d9	0.038825843
85	0xbd3daf98	-0.046310037
86	0x3cbba58a	0.022906084
87	0xbcc6b3f3	-0.024255728
88	0x3c55c45e	0.013047306
89	0x3c5bc227	0.013412989
90	0xbce37f6c	-0.02777072
91	0xbcbc3f15	-0.022979299
92	0xbcca4b40	-0.024694085
93	0x3d442f58	0.047896713
94	0x3c6d31f0	0.014477238
95	0xbd3a9e01	-0.04556084
96	0xbcecd8ee	-0.028912034
97	0x3cb8066e	0.022464003
98	0x3aaeee8f	0.0013346242
99	0x3d2f2fd4	0.04277022
100	0x3ce9217c	0.02845835
101	0xbc4f560a	-0.012654791
102	0xbc026a64	-0.007959936
103	0xbd0efcb3	-0.03490896
104	0x3d113f55	0.03546079
105	0xbd437a6b	-0.04772417
106	0xbcf3293a	-0.029682744
107	0x3be0a9ae	0.006856165
108	0xbd2ed4c2	-0.04268337
109	0x3d1e86a7	0.038702633
110	0xbcea91cd	-0.028633976
111	0x3b7f0267	0.0038911344
112	0x3b0afaea	0.0021206685
113	0xbccd8970	-0.02508995
114	0x3d21b646	0.03948047
115	0xbd42d775	-0.047568757
116	0xbd2a2261	-0.041536693
117	0x3cbd24fc	0.023088925
118	0xbd34aae2	-0.04410828
119	0xbc935220	-0.017983496
120	0xbcf443e2	-0.029817525
121	0x3b3ee3af	0.002912741
122	0x3c0bc90a	0.008531818
123	0xbd3e8ab2	-0.04651899
124	0xbc40055f	-0.011720031
125	0x3c10e423	0.0088434545
126	0xbbd03ce6	-0.006354916
127	0x3b72d1b0	0.0037051253
128	0xbcfcc743	-0.030856734
129	0xbbb5faeb	-0.0055535934
130	0x3cf13fa2	0.029449288
131	0x3cea9ba9	0.028638678
132	0xbcc68f31	-0.0242382
133	0x3d3432f8	0.04399392
134	0xbc2f0073	-0.010681259
135	0x3c8aa704	0.016925342
136	0x3c6b9d8d	0.014380825
137	0xbc39ce05	-0.011340623
138	0xbc46c229	-0.012131252
139	0x3ccb5fbd	0.024825925
140	0x3c2506ec	0.010072451
141	0xbd45663f	-0.048193213
142	0x3d3a6cf5	0.045514066
143	0xbd0fe375	-0.03512903
144	0xbc4d20f7	-0.012520066
145	0x3c4d079d	0.012514022
146	0x3b486c98	0.0030582305
147	0xbc8cba94	-0.017178811
148	0x3c56c1e5	0.0131077515
149	0x3a078e11	0.0005171011
150	0x3d37c9ff	0.044870373
151	0x3d435982	0.047692783
152	0xbcb6e4a1	-0.022325816
153	0xbc2d4269	-0.010574915
154	0x3d158525	0.03650393
155	0xbd1a0247	-0.037599828
156	0xbcfbdddf	-0.030745445
157	0x3ba3469a	0.0049827816
158	0xbd235f4c	-0.039885804
159	0xbcd9b809	-0.026577013
160	0x3cada2ce	0.021195795
161	0x3c0d43af	0.008622094
162	0xbd031537	-0.032002654
163	0x3badd937	0.005305435
164	0x3d283eb6	0.04107543
165	0xbcde7225	-0.027154038
166	0xbca3a943	-0.019978171
167	0xbd211ce7	-0.039334204
168	0x3cefca64	0.029271312
169	0xbd253351	-0.040332142
170	0xbd304a0a	-0.04303936
171	0xbd2f192a	-0.042748608
172	0x3cb59e91	0.022170337
173	0xbc59c377	-0.013291231
174	0x3c9d7605	0.019221315
175	0xbc982df1	-0.018576594
176	0x3c4013b6	0.011723449
177	0x3cfe69e4	0.031056352
178	0x3ce0c70d	0.027438665
179	0x3c68242a	0.014168778
180	0x3c148daa	0.0090669785
181	0x3bf68677	0.0075233537
182	0xba87b61c	-0.0010353955
183	0xbcfc9eba	-0.030837405
184	0xbd4f0973	-0.05054612
185	0xbcd3b3c2	-0.025842551
186	0xbd4a924d	-0.04945593
187	0x3b08c46b	0.0020869027
188	0x3d2b0b29	0.04175869
189	0x3cec55f4	0.02884958
190	0x3c7e975c	0.015539017
191	0xbbd53ca1	-0.0065074717
192	0xbce06643	-0.027392512
193	0xbd1c93c7	-0.03822687
194	0x3cba218b	0.022721073
195	0xbd0e42bc	-0.03473161
196	0x3d07ce93	0.03315599
197	0x3d25281e	0.04032146
198	0xbd29131e	-0.041277997
199	0xbccb79e7	-0.024838401
200	0x3cf0121b	0.029305508
201	0x3ccb8447	0.024843348
202	0xbbe48379	-0.0069736806
203	0x3d3d7230	0.046251476
204	0xbbff2d6d	-0.0077873976
205	0xbce1e7e9	-0.027576404
206	0xbc0a501e	-0.008441953
207	0xbaad07c5	-0.0013201168
208	0xbb690643	-0.003555671
209	0x3d26d34a	0.040728845
210	0xbc7e60b3	-0.015525985
211	0xbd0b94d0	-0.034077466
212	0xbcdf84c1	-0.027284982
213	0x3b917526	0.004439014
214	0x3d00978a	0.03139452
215	0xbd412631	-0.047155563
216	0xbd3284d5	-0.04358371
217	0x3c3d2e22	0.011546643
218	0x3c045d02	0.008078815
219	0xbd43c239	-0.047792647
220	0x3d2150c6	0.039383672
221	0x3d173336	0.036914073
222	0xbd297c67	-0.041378405
223	0xbd45e85b	-0.048317295
224	0xbd13b1d8	-0.036058277
225	0xbd3f15a9	-0.046651516
226	0x3d26218a	0.04055933
227	0xbc52a2ad	-0.012856168
228	0x3d4d9c6f	0.050198015
229	0x3c995e44	0.018721707
230	0x3c503618	0.012708209
231	0x3c632625	0.013864075
232	0xbd40f362	-0.047107108
233	0xbc8c906d	-0.017158711
234	0x3d2787d4	0.04090102
235	0xbcc95363	-0.024575895
236	0xbd2939ac	-0.041314766
237	0xbaae447a	-0.0013295554
238	0x3c6e73b5	0.014553954
239	0xbcf6432e	-0.03006133
240	0x3d2b103c	0.04176353
241	0xbc1c552b	-0.00954179
242	0xbc86ef8c	-0.016471647
243	0xbd3d0664	-0.046148673
244	0x3c17c2b3	0.0092627285
245	0x3c93d919	0.018047856
246	0x3c4051a3	0.011738214
247	0xbc4a392e	-0.012342734
248	0x3d4917dd	0.049095023
249	0xbd264d20	-0.040600896
250	0x3b5f2097	0.0034046525
251	0xbca2dda1	-0.019881072
252	0xbd0cfb63	-0.03441943
253	0xbd49edd0	-0.04929906
254	0x3c9dfe9a	0.019286443
255	0xbd0c8543	-0.034306776

fc1.bias f4 [120]
0	0x3d475cef	0.048672613
1	0xbb3cf7e1	-0.002883427
2	0xbd04d5bd	-0.0324304
3	0xbbd02c51	-0.006352939
4	0x3c9f2a08	0.019429222
5	0xbbd0790a	-0.006362085
6	0xbcd2f687	-0.025752319
7	0xbd2acd80	-0.041699886
8	0x3c721ca6	0.014777338
9	0xbccad15e	-0.024758037
10	0xbd28f86d	-0.041252542
11	0xbc9eb021	-0.019371094
12	0xbd38d305	-0.04512312
13	0x3d0a1337	0.03370973
14	0x3c0cad97	0.008586309
15	0xbd0b95a7	-0.034078266
16	0x3c86cb74	0.016454436
17	0x3d205296	0.03914126
18	0xbd1fb968	-0.038995177
19	0x3db1627b	0.08661362
20	0xbd4633a8	-0.048389107
21	0xbc50b5cc	-0.012738656
22	0xbcbe5b3e	-0.023236867
23	0xbb23ae9d	-0.0024975904
24	0x3ada82c3	0.001667105
25	0x3d581204	0.052751556
26	0xbce87e38	-0.028380498
27	0xbc9b816c	-0.018982612
28	0xbd046dd7	-0.032331314
29	0x3d0d2c7a	0.034466244
30	0xbc65746d	-0.014004809
31	0x3cda415f	0.0266425
32	0xbcb60aca	-0.022221942
33	0xbd8f2d89	-0.06991107
34	0xbcf1406b	-0.029449662
35	0xbd19ee40	-0.03758073
36	0xbd17b5a5	-0.037038464
37	0x3cce021f	0.025147496
38	0x3d597c7e	0.05309724
39	0xbc4b2031	-0.012397812
40	0xbc990ad4	-0.018681921
41	0x3ba63eaa	0.005073388
42	0xbd03e3b3	-0.032199573
43	0xbc7bb5b8	-0.015363149
44	0xbda896f0	-0.08231914
45	0xbbf1ca1a	-0.0073788287
46	0x3ca1a338	0.01973115
47	0x3cada229	0.021195488
48	0xbd00722b	-0.03135888
49	0xbca59941	-0.020214679
50	0x3d783335	0.06059571
51	0x3c0a351f	0.008435517
52	0x3c521b6d	0.012823922
53	0xbd577a92	-0.052607127
54	0x3d8492ba	0.06473298
55	0x3d63cf43	0.055617582
56	0xbc213575	-0.009839405
57	0xbd1929c1	-0.037393335
58	0xbc65f92f	-0.014036461
59	0x3d350049	0.044189725
60	0x3c594ae5	0.013262485
61	0xbbd41353	-0.00647203
62	0xbcfdc5f1	-0.030978175
63	0xbc7fa02f	-0.015602156
64	0xbcb5859c	-0.022158436
65	0x3dace510	0.08442128
66	0xbc6f74d4	-0.014615256
67	0x3d5abf31	0.05340499
68	0xbd7c6c6b	-0.061626833
69	0xbc8bd4c7	-0.017069234
70	0xbc7e2309	-0.015511283
71	0x3ca7fe76	0.020507079
72	0xbcdb9887	-0.02680613
73	0x3c2934f0	0.010327563
74	0xbbb62ea5	-0.0055597597
75	0x3da537e2	0.080672994
76	0x3bca77e7	0.0061788443
77	0x3d88afe3	0.06674173
78	0xbc4170c3	-0.01180667
79	0xbc809fb1	-0.015701147
80	0x3b93f42f	0.004515193
81	0x3cf1fd56	0.029539745
82	0xbd5b06a8	-0.053473145
83	0xbd23942f	-0.03993624
84	0x3d105b10	0.035243094
85	0x3cb1719d	0.02166062
86	0xbce2ca66	-0.027684402
87	0x3d07b840	0.0331347
88	0x3c8c46ff	0.017123697
89	0x3d37546c	0.044758245
90	0x3dbbbd79	0.091669984
91	0xbcbd7cad	-0.02313074
92	0x3c4c9b50	0.012488201
93	0x3caaf292	0.02086762
94	0xbd440231	-0.047853652
95	0x3ce70629	0.02820118
96	0xbd006bd3	-0.03135283
97	0xbcf7e5cb	-0.030260941
98	0xbca41d78	-0.020033583
99	0xbd5b9697	-0.05361041
100	0xbd125349	-0.03572396
101	0xbd3e89df	-0.046518203
102	0xbcf581cd	-0.02996912
103	0x3cb42c76	0.021993857
104	0x3d42ae24	0.047529355
105	0xbd54f3b4	-0.051990226
106	0xbd43cc9f	-0.047802564
107	0xbd251683	-0.040304672
108	0xbc864164	-0.016388603
109	0x3da2daf8	0.07951921
110	0x3db14444	0.08655599
111	0xbda2c034	-0.07946816
112	0x3c96f20d	0.018425966
113	0xbce820c0	-0.028335929
114	0xbd219a0b	-0.039453547
115	0xbc2fbf1e	-0.010726718
116	0xbcbed14f	-0.023293165
117	0xbd18a795	-0.037269194
118	0x3d2b8640	0.041876078
119	0xbc92c560	-0.017916381

fc2.weight f4 [84, 120]
0	0xbd25d83c	-0.04048942
1	0xbd9a2e6c	-0.075283855
2	0xbd8cc29c	-0.06873056
3	0xbd8ea846	-0.06965689
4	0xbd956fc9	-0.07296712
5	0x3e1bf35f	0.15229557
6	0xbbb769b3	-0.005597317
7	0x3da94a82	0.08266164
8	0xbca01d1e	-0.019545134
9	0x3d9af277	0.07565778
10	0xbc94fa6a	-0.018185813
11	0x3dcf97ce	0.10136376
12	0x3db44ead	0.08804069
13	0x3c7aa129	0.015297213
14	0x3e09b62a	0.13448396
15	0xbd142441	-0.036167387
16	0x3d86e082	0.0658579
17	0x3dc46b63	0.09590795
18	0xbb12ecf3	-0.0022419065
19	0x3d9868e9	0.07441885
20	0xbd8b308d	-0.0679637
21	0x3cdf12c4	0.027230628
22	0x3c44d4a2	0.012013586
23	0x3ca83758	0.020534202
24	0x3dcc0400	0.099617004
25	0x3e00e35f	0.12586735
26	0x3d3543d9	0.044254158
27	0xbd4bbbae	-0.049739532
28	0x3da7243c	0.08161208
29	0xbcf7d421	-0.030252518
30	0x3cff21c8	0.031144038
31	0x3d7e8e48	0.06214741
32	0xbd1ca2bf	-0.038241144
33	0xbdc30f81	-0.095244415
34	0x3d6c8deb	0.05775253
35	0xbd8553c3	-0.06510117
36	0xbdda2f4d	-0.10653553
37	0x3da4fe22	0.080562845
38	0xbca75255	-0.020425001
39	0x3c0a6c23	0.008448633
40	0xbd3bb072	-0.04582257
41	0xbd4b41c3	-0.049623262
42	0x3d91ec36	0.07125132
43	0x3d1a050a	0.037602462
44	0xbd207cac	-0.039181396
45	0x3d2999cb	0.041406434
46	0x3cc70739	0.024295436
47	0x3d774e7b	0.06037758
48	0xbd368c0c	-0.044567153
49	0xbc174226	-0.00923208
50	0x3da691b5	0.0813326
51	0xbdb1fe28	-0.086910546
52	0x3cc8a7a9	0.02449401
53	0xbddb8ee3	-0.10720613
54	0x3db2a210	0.08722317
55	0xbd9c655f	-0.076365225
56	0xbd2d5a25	-0.042322297
57	0x3d318d6a	0.043347754
58	0xbd4c24f9	-0.049839947
59	0x3d8c4e4c	0.068508714
60	0x3da0c97b	0.07850929
61	0x3dbb7223	0.09152629
62	0xbcdb0852	-0.026737366
63	0x3d8d826d	0.06909642
64	0x3ccf3700	0.02529478
65	0x3d1d5667	0.038412478
66	0x3d588480	0.052860737
67	0xbc2eff5a	-0.010680998
68	0xbdcce51d	-0.100046374
69	0xbd9344b2	-0.07190837
70	0x3da6dc66	0.081475064
71	0xbd9b3976	-0.07579319
72	0xbdb511a6	-0.08841257
73	0x3cf954d7	0.030435963
74	0x3db2cfbf	0.08731031
75	0xbd65f1c7	-0.05613878
76	0x3cdd42b3	0.027009344
77	0x3dc6af2a	0.09701379
78	0xbcbb18ba	-0.022838939
79	0x3db31513	0.08744254
80	0x3db4d2e4	0.08829287
81	0x3dc989e1	0.098407514
82	0x3dd37338	0.103247106
83	0xbd55b7c1	-0.052177195
84	0xbd5f0e2e	-0.054456882
85	0x3d88e704	0.06684688
86	0xbd8c78a3	-0.06858947
87	0x3dae3c45	0.08507589
88	0x3a307647	0.0006731492
89	0xbddc4d45	-0.107569255
90	0x3dfadc3f	0.1224904
91	0x3dae31f5	0.08505622
92	0xbd1f022d	-0.038820434
93	0xbc68893a	-0.014192874
94	0xbd8c6724	-0.0685561
95	0x3c75a552	0.014993029
96	0x3cdda7d0	0.027057558
97	0xbc788860	-0.015169233
98	0xbd1a3e50	-0.037657082
99	0xbd9ed187	-0.07754808
100	0xbc538f7b	-0.012912626
101	0x3d59f237	0.05320951
102	0x3d28721d	0.041124452
103	0x3d456e65	0.048200984
104	0xbd3369c6	-0.043802045
105	0x3ce9f69e	0.028559979
106	0x3cb7f4a0	0.022455513
107	0x3dd6c7cb	0.10487326
108	0xbd15c3da	-0.03656373
109	0x3e186e72	0.14885882
110	0x3da4f478	0.08054441
111	0xbdce9aee	-0.10088144
112	0xbd55cfdb	-0.05220018
113	0x3d0394be	0.032124273
114	0x3cd40e30	0.025885671
115	0xbd805e9a	-0.06268044
116	0xbd3a9581	-0.045552734
117	0xbdbf55c6	-0.09342532
118	0xbd9ba80c	-0.07600412
119	0x3d09ce5c	0.033644065
120	0xbd13cf90	-0.03608662
121	0xbdcfb61e	-0.10142158
122	0xbd834d89	-0.06411273
123	0xbd9cd528	-0.07657844
124	0xbd98b47f	-0.07456302
125	0x3ded850c	0.11597642
126	0xbbeb2a65	-0.0071766847
127	0x3bfe1b46	0.007754716
128	0x3daaa254	0.08331743
129	0x3c0d3cdb	0.008620466
130	0xbd0d6d1c	-0.034527883
131	0xbd03a793	-0.032142233
132	0xbd201df3	-0.03909106
133	0xbd5fd901	-0.05465031
134	0xbd074c77	-0.033031907
135	0xbac8a83c	-0.0015308927
136	0x3beb9a87	0.007190052
137	0x3d23779a	0.039908983
138	0x3d996bcc	0.07491264
139	0x3b4b039a	0.0030977488
140	0xbd513e87	-0.05108502
141	0x3ceab0cf	0.028648762
142	0x3d3fe4df	0.046849128
143	0xbc9e1ebb	-0.019301763
144	0x3dbbd110	0.09170735
145	0x3d80039c	0.062506884
146	0x3dc017f1	0.093795665
147	0x3d79da59	0.06099925
148	0xbd59c2d1	-0.053164307
149	0x3db58cc0	0.088647366
150	0x3cb09691	0.02155617
151	0xbba18dec	-0.0049302485
152	0x3d86605c	0.06561348
153	0x3da29d19	0.0794012
154	0x3d3b14f5	0.045674283
155	0x3c24c1c8	0.010055967
156	0xbdee8f09	-0.116483755
157	0xbda0b92c	-0.07847819
158	0x3c909c83	0.017652756
159	0xbd696566	-0.056981467
160	0xbde837f9	-0.11338801
161	0x3d79687f	0.06089067
162	0x3cc17ea2	0.023619954
163	0xbd575bb8	-0.052577704
164	0x3d64001c	0.055664167
165	0xbd9d2a55	-0.0767409
166	0x3d223031	0.03959674
167	0xbc59df5f	-0.013297885
168	0xbd3fd32c	-0.04683225
169	0x3d514eac	0.051100418
170	0x3ddc2359	0.107489295
171	0x3dd115ee	0.10209261
172	0xbda22371	-0.07916916
173	0x3c4f0c08	0.012637146
174	0x3ca87201	0.020562174
175	0xbcf3fd4c	-0.029783867
176	0x3de3fb32	0.11131896
177	0x3d8df9a7	0.06932383
178	0x3d0608a1	0.032723073
179	0xbc29a712	-0.010354774
180	0xbdb585d9	-0.0886342
181	0xbd951c48	-0.07280785
182	0x3cb34442	0.021883134
183	0xbd3230e6	-0.043503664
184	0xbcfb2893	-0.030658996
185	0x3d88bfe3	0.066772245
186	0x3da8285b	0.08210822
187	0x3d2130ec	0.039353296
188	0xbde6fbd8	-0.11278504
189	0xbdcd554e	-0.10026036
190	0xbd7aa7f6	-0.061195336
191	0xbce5e636	-0.028063875
192	0xbde407cd	-0.111343004
193	0x3cd75e4c	0.026290081
194	0xbdb83431	-0.0899433
195	0xbd9b4f4a	-0.075834826
196	0x3cc8e0f2	0.024521325
197	0x3affeeae	0.0019526088
198	0x3cabe53c	0.02098333
199	0x3c5dd292	0.013538973
200	0x3df37c47	0.118889384
201	0xbcc70067	-0.024292184
202	0x3d36196d	0.04445784
203	0x3c423c62	0.011855217
204	0xbd9c6029	-0.076355286
205	0xbbe8a0ce	-0.0070992475
206	0xbb038dc9	-0.0020073524
207	0x3dc2b84c	0.09507808
208	0x3d44c903	0.048043262
209	0xbd881725	-0.066450395
210	0x3dee42d5	0.11633841
211	0xbbefa595	-0.00731344
212	0x3dd17511	0.10227407
213	0xbd6caed2	-0.05778391
214	0xbd95a434	-0.0730671
215	0x3aa900a5	0.0012893869
216	0xbdae514f	-0.08511602
217	0x3daaad8b	0.08333882
218	0xbd6a4c37	-0.05720159
219	0x3d706b73	0.05869622
220	0x3d9acdab	0.07558759
221	0x3d9ad52a	0.07560189
222	0xbd00dfb7	-0.03146335
223	0xbcaa26d2	-0.020770464
224	0x3c4756c6	0.0121666845
225	0x3c97beb0	0.018523544
226	0xbd4d46d0	-0.05011636
227	0xbe08e739	-0.13369454
228	0x3d47e9e0	0.048807025
229	0x3dbcf0bd	0.09225605
230	0x3d81d09a	0.06338616
231	0xbb6b8934	-0.0035939934
232	0xbd46b7a4	-0.048514977
233	0xbd32a5b1	-0.043615047
234	0xbc6ed59b	-0.014577295
235	0x3ca2feaf	0.019896833
236	0x3d4b4f1c	0.04963599
237	0x3d47bd39	0.04876444
238	0xbdbc3300	-0.09189415
239	0x3d37ccaf	0.044872936
240	0xbd5619c1	-0.052270655
241	0xbd2bb73d	-0.041922797
242	0xbd9b2f6f	-0.075774066
243	0xbdc4d6f2	-0.0961131
244	0xbd4d5470	-0.050129354
245	0xbc6b97bd	-0.014379439
246	0xbdac9d51	-0.08428443
247	0x3d73a229	0.05948082
248	0xbd15657a	-0.03647373
249	0xbd75e416	-0.060031973
250	0x3d98be3f	0.074581616
251	0xbdc207ee	-0.09474169
252	0xbdd1cf87	-0.10244661
253	0x3d35cd12	0.044385023
254	0xbc5dfd94	-0.013549227
255	0xbcfe9ea1	-0.0310815

fc2.bias f4 [84]
0	0x3dd5278f	0.10407936
1	0x3d9b8626	0.07593946
2	0x3e48acad	0.1959712
3	0xbcc9d0e8	-0.024635747
4	0x3c674a1d	0.014116791
5	0x3d9ee321	0.07758165
6	0xbd7cd953	-0.061730694
7	0xbd767df0	-0.060178697
8	0xbd842360	-0.0645206
9	0x3d68ec71	0.056866113
10	0xbcab3a3b	-0.02090179
11	0x3d8459dd	0.064624526
12	0xbbb18a67	-0.00541811
13	0xbd74b15c	-0.059739456
14	0x3d8779d1	0.066150315
15	0x3e1d9593	0.1538909
16	0xbd82f88c	-0.06395063
17	0xbca11cc7	-0.019667042
18	0x3d85e9c3	0.06538727
19	0xbc46faca	-0.012144754
20	0xbd009ba0	-0.031398416
21	0x3e0f60c7	0.14001761
22	0x3d824f3c	0.06362769
23	0x3d9baf46	0.0760179
24	0xbc61f30e	-0.013790859
25	0xbdb43635	-0.08799402
26	0x3d5f549e	0.054524057
27	0x3ded249f	0.115792505
28	0xbcddc26a	-0.027070243
29	0xbc6357a6	-0.0138758775
30	0xbc4657c0	-0.012105882
31	0xbd43ecd1	-0.047833268
32	0xbca1cf0f	-0.019752054
33	0xbceb49ad	-0.028721655
34	0x3c7923d2	0.015206294
35	0xbba39f1d	-0.004993333
36	0xbd884f1a	-0.066557124
37	0x3db9fa99	0.09081001
38	0xbc5b77b1	-0.013395236
39	0x3bc13693	0.0058963983
40	0x3e1f4470	0.1555345
41	0x3d6d5729	0.05794445
42	0x3d21ca94	0.039499834
43	0x3c3b4d2d	0.011431974
44	0xbd6bee24	-0.057600155
45	0x3bae88c3	0.005326362
46	0x3bafb447	0.005362067
47	0x3c9fa2aa	0.019486744
48	0x3d4bf3d1	0.04979307
49	0xbc02e650	-0.007989481
50	0x3e0dc8e2	0.13846162
51	0xbc5bd072	-0.013416396
52	0x3cc9e843	0.024646884
53	0xbc89e94d	-0.01683488
54	0xbca28fd6	-0.019843977
55	0xbcafd951	-0.02146593
56	0x3d8096d1	0.06278766
57	0x3ca90b3e	0.020635244
58	0xbd4326a2	-0.047644265
59	0x3c4cf006	0.012508398
60	0x3c235db4	0.009971071
61	0x3d664e45	0.056226987
62	0xbce61fa7	-0.028091265
63	0xbdc91f96	-0.09820478
64	0x3d9b54b3	0.075845145
65	0x3d7367f6	0.059425317
66	0x3dc1df43	0.09466412
67	0x3dac5388	0.0841437
68	0x3da37f32	0.07983245
69	0x3c9fe7f4	0.019519784
70	0x3d8fd8b6	0.07023756
71	0xbd6e00c7	-0.05810621
72	0x3cc1f505	0.023676405
73	0x3c81c66e	0.015841689
74	0xbd8cb0f2	-0.06869687
75	0xb9ff16b9	-0.0004865432
76	0x3dbbbc48	0.09166771
77	0xbccb05a1	-0.024782958
78	0x3b455b04	0.0030114064
79	0x3e04b3df	0.1295924
80	0xbd44f5af	-0.048085865
81	0x3d700d83	0.058606636
82	0x3d048fb1	0.032363597
83	0xbc80217b	-0.015640965

fc3.weight f4 [10, 84]
0	0xbca6e505	-0.020372877
1	0x3badca24	0.005303638
2	0xbe59c627	-0.21266995
3	0x3df061a5	0.11737374
4	0xbe2d9eed	-0.16955157
5	0x3d5b77e0	0.05358112
6	0x3dc61ffd	0.0967407
7	0xbda039fd	-0.078235604
8	0x3bb11fbc	0.0054053944
9	0xbddd319e	-0.10800479
10	0xbddba8d9	-0.107255645
11	0x3e0c88fb	0.13724129
12	0x3ddcee13	0.107875966
13	0xbd330156	-0.043702446
14	0xbe95fb9d	-0.29293528
15	0xbd689be9	-0.056789313
16	0x3d8d87d6	0.06910674
17	0xbe0217db	-0.12704413
18	0x3dc5cc43	0.096581005
19	0x3cc4d79f	0.024028597
20	0x3e1a6595	0.15077813
21	0xbe7eab30	-0.2486999
22	0xbcd78b08	-0.026311412
23	0xbeaf29c8	-0.34211564
24	0xbe67f341	-0.22651388
25	0xbd9a0faa	-0.07522519
26	0xbe877a56	-0.26460522
27	0x3d1d0b27	0.038340714
28	0x3ebe2fba	0.37145787
29	0x3d0307fa	0.03199003
30	0x3d634793	0.05548818
31	0x3ebaa8bf	0.36456868
32	0xbd5ad649	-0.053427014
33	0x3e3bf488	0.18355
34	0xbcb83d4d	-0.022490168
35	0xbd8abb53	-0.067740105
36	0xbe4bca08	-0.19901288
37	0x3cce151b	0.025156548
38	0x3dff2319	0.12457866
39	0xbdd052d2	-0.10172047
40	0xbe570b6a	-0.21000448
41	0x3abaec14	0.0014261031
42	0x3d85ebb2	0.06539096
43	0x3e2e6fbf	0.17034815
44	0xbd8599de	-0.065234885
45	0x3d672231	0.05642909
46	0x3c2fdec6	0.010734266
47	0x3e827538	0.25480056
48	0x3da2b532	0.079447165
49	0xbd99fccd	-0.07518921
50	0x3d111cdc	0.035427913
51	0x3e1a017f	0.15039633
52	0x3c3fed17	0.0117142415
53	0xb99d0201	-0.00029946867
54	0xbe3b2abf	-0.18278025
55	0xbda258de	-0.07927106
56	0xbdac4dd9	-0.08413286
57	0x3e30b4c6	0.1725646
58	0x3dc0e560	0.0941875
59	0xbe0c0913	-0.13675337
60	0x3e14028c	0.14454097
61	0xbd879743	-0.06620648
62	0xbd8e8c47	-0.069603495
63	0xbd221c9e	-0.039578073
64	0xbc916f06	-0.017753135
65	0xbdea3a5a	-0.11436911
66	0xbdd27d52	-0.10277809
67	0xbd291bde	-0.04128634
68	0xbe6748bc	-0.2258634
69	0x3c7571a7	0.01498071
70	0xbd3c93ec	-0.046039507
71	0x3dd4406a	0.103638485
72	0x3e7e94e0	0.24861479
73	0xbc500d9a	-0.012698555
74	0xbd9e8edd	-0.07742093
75	0x3e876cf9	0.26450327
76	0xbc54f896	-0.012998721
77	0x3dd1e656	0.10249011
78	0x3e05d506	0.13069543
79	0xbda6b67f	-0.08140277
80	0x3ea2436a	0.31692058
81	0x3dc343b8	0.09534401
82	0x3ddd1e66	0.10796814
83	0x3e1d3f89	0.15356268
84	0x3d7d786e	0.06188243
85	0x3d1f325f	0.038866397
86	0xbd4c9c6a	-0.049953856
87	0xbe5d9dfd	-0.21642299
88	0x3ea78644	0.32719624
89	0xbcaf3868	-0.021389201
90	0x3e33c838	0.17556846
91	0xbcf07435	-0.029352287
92	0xbd9246b2	-0.0714239
93	0x3ec010f8	0.37512946
94	0x3b3f2663	0.0029167167
95	0xbdbe077c	-0.09278771
96	0x3daf9e87	0.085751586
97	0xbd9fe709	-0.07807738
98	0x3e6bf7c3	0.23043732
99	0xbe0400ae	-0.12890884
100	0xbdd6847d	-0.10474489
101	0xbd543896	-0.051811777
102	0xbd9b88a7	-0.07594424
103	0xbd9c2312	-0.07623877
104	0x3e8a4191	0.27003148
105	0xbe58785c	-0.21139663
106	0xbe31f28c	-0.1737768
107	0x3d36ae1b	0.044599634
108	0x3be617a6	0.007021862
109	0xbdd7d5ff	-0.105388634
110	0x3e77e1f5	0.2420729
111	0xbbb817a9	-0.005618055
112	0xbdc707c9	-0.09718282
113	0xbca42fb5	-0.02004228
114	0xbcf4a519	-0.029863881
115	0xbea5777b	-0.3231772
116	0x3cad91b7	0.021187646
117	0xbe617794	-0.22018272
118	0xbe8bb5a0	-0.27287006
119	0x3d447bd6	0.04796966
120	0xbdf556a1	-0.11979414
121	0xbd86dafa	-0.06584735
122	0xbdb34be6	-0.08754711
123	0x3e84ef43	0.25963792
124	0xbe20c068	-0.15698397
125	0x3e94fc7b	0.29098877
126	0x3e9953db	0.2994679
127	0xbd06acf8	-0.0328798
128	0x3e04f3dd	0.12983651
129	0xbdba6b2c	-0.09102473
130	0x3ce533d8	0.027978823
131	0x3d7516da	0.059836246
132	0x3cec5024	0.028846808
133	0x3e01e070	0.12683272
134	0x3ddbef4b	0.10739001
135	0x3e9b2dff	0.3030853
136	0x3da715ce	0.08158456
137	0xbc65196a	-0.01398311
138	0x3ab5d2be	0.001387201
139	0x3e3df9c6	0.18552312
140	0xbe229b6c	-0.15879601
141	0xbd64f1f3	-0.055894803
142	0xbdd04c82	-0.10170843
143	0x3e06d637	0.13167654
144	0xbd47a6a4	-0.048742905
145	0xbce05922	-0.027386252
146	0xbcfa3069	-0.030540662
147	0xbc79514f	-0.015217139
148	0x3d04f4be	0.032459967
149	0xbd3f5bcb	-0.0467184
150	0xbe83a2c5	-0.2571012
151	0xbe82968e	-0.2550549
152	0x3dc3e83e	0.09565781
153	0xbdc99653	-0.09843125
154	0x3cdef263	0.027215188
155	0x3d946dac	0.07247481
156	0xbd8e392e	-0.069445
157	0x3d814dd3	0.06313672
158	0x3ddbe486	0.10736947
159	0x3e1df803	0.1542664
160	0xbaaa35d0	-0.0012986008
161	0x3c727c3d	0.0148001285
162	0xbe3ca685	-0.18422897
163	0x3d8b191d	0.06791899
164	0xbe16af4b	-0.14715306
165	0x3d96b236	0.0735821
166	0x3c04efb8	0.008113794
167	0xbc05f2a2	-0.008175524
168	0x3d92f66a	0.07175906
169	0x3d1c07e0	0.038093448
170	0x3cfee80e	0.031116512
171	0xbde9e8b3	-0.11421337
172	0xbdff847d	-0.12476442
173	0x3db3aff9	0.087737985
174	0xbce6a926	-0.028156828
175	0xbc2a7f6b	-0.010406355
176	0xbdadd08a	-0.08487041
177	0xbc92598c	-0.017864965
178	0xbce8924f	-0.028390078
179	0x3d91e5c0	0.071238995
180	0x3bd317a4	0.006442027
181	0xbddbaa49	-0.10725839
182	0xbc1c6a0f	-0.009546771
183	0x3c409b2f	0.011755749
184	0xbc986bb1	-0.018606039
185	0xbcd7dc69	-0.026350217
186	0x3c928afd	0.01788854
187	0xbc1f0bc5	-0.009707396
188	0xbd3cab91	-0.046062056
189	0x3c8f06f1	0.017459365
190	0x3ddb9b23	0.10722949
191	0x3d573078	0.052536458
192	0x3b37237d	0.0027944737
193	0xbd2ff1de	-0.042955272
194	0x3d7b4542	0.061345346
195	0x3dc28559	0.0949809
196	0xbcf99ee4	-0.030471273
197	0x3cdefe2c	0.027220808
198	0xbd8fc0f4	-0.07019225
199	0xbd10f1eb	-0.03538696
200	0x3daf0263	0.08545377
201	0xbce9f567	-0.0285594
202	0xbdcf3f0e	-0.101194486
203	0xbd9c1087	-0.0762034
204	0x3cad547d	0.021158451
205	0xbd31f0e8	-0.043442637
206	0xbd8fab17	-0.07015055
207	0xbdaa4d80	-0.08315563
208	0x3bc408c6	0.005982491
209	0x3cd67b5b	0.026181867
210	0xbdc1b664	-0.094586164
211	0xbde055f7	-0.109538965
212	0x3dc177e6	0.09446697
213	0xbda09353	-0.078406
214	0x3bc4b55b	0.0060030646
215	0xbc8f163d	-0.017466659
216	0xbc0372f7	-0.008023015
217	0xbda27e3d	-0.07934234
218	0xbd82c9ad	-0.06386123
219	0xbdf09030	-0.117462516
220	0xbdc3914d	-0.09549198
221	0xbdf3da9e	-0.11906932
222	0xbdd1902f	-0.10232579
223	0x3db87f9c	0.090087146
224	0xbcd4e8dd	-0.025989944
225	0x3c5c21d5	0.013435801
226	0xbd82652c	-0.06366953
227	0x3daa8e50	0.08327925
228	0xbad15f2e	-0.00159738
229	0xbc2ad199	-0.010425949
230	0xbd653298	-0.055956453
231	0x3d979344	0.074011356
232	0xbdcd056e	-0.10010801
233	0x3d199312	0.037493773
234	0xbd8495bd	-0.06473873
235	0x3c450b41	0.012026609
236	0x3d8f9eb2	0.070126906
237	0x3dbe43b1	0.09290255
238	0x3d6baf62	0.057540305
239	0x3c3ffd30	0.011718079
240	0xbc451bab	-0.012030522
241	0xbb5bdafe	-0.0033547278
242	0xbc480094	-0.012207169
243	0x3cd1d11b	0.025612405
244	0xbdb30ac2	-0.08742286
245	0xbcd9ebf6	-0.026601773
246	0xbdefe46a	-0.117134884
247	0xbd0d46ef	-0.034491476
248	0x3d303786	0.0430217
249	0xbd8b5890	-0.06804001
250	0x3c9eee38	0.0194007
251	0xbdd7fe96	-0.10546605
252	0x3e7ac09e	0.2448754
253	0x3e88015c	0.26563537
254	0xbd088cc2	-0.033337362
255	0x3eb0fdb4	0.3456856

fc3.bias f4 [10]
0	0xbe849ac1	-0.25899318
1	0xbd7ce727	-0.06174388
2	0x3c519a3c	0.01279312
3	0x3da32bb0	0.07967317
4	0x3d884cf6	0.06655304
5	0xbe6113cf	-0.21980213
6	0x3e3fe694	0.18740302
7	0xbe0c313f	-0.13690661
8	0x3cb4ae49	0.022055762
9	0x3d9e54c5	0.07731012
