round1/2025-04-18 18:12:31-weight-client-ce4110d4-6.pth (torch, 252478 bytes, 10 tensors)

conv1.weight f4 [6, 3, 5, 5]
0	0xbd19a55d	-0.03751122
1	0xbd8a7e54	-0.067623764
2	0xbe43215b	-0.19055693
3	0xbdbd5bb1	-0.092460044
4	0xbe40e703	-0.18838124
5	0xbe547ee5	-0.20751531
6	0xbe034033	-0.12817459
7	0xbe2b9a1d	-0.16758008
8	0xbe1e104f	-0.15435909
9	0xbde35930	-0.111009955
10	0xbd5c0b09	-0.05372146
11	0xbda85b5c	-0.082205504
12	0xbe0db934	-0.1384018
13	0xbd29a9cb	-0.041421693
14	0xbe0930e8	-0.13397563
15	0xbd64299c	-0.055703744
16	0xbd16455a	-0.036687233
17	0xbd84e734	-0.06489411
18	0xbca144fc	-0.019686215
19	0xbdd8dcd9	-0.10588998
20	0x3cf3ea70	0.029774874
21	0x3d8141b7	0.06311362
22	0x3d51d8ae	0.051232032
23	0xbc908091	-0.01763943
24	0x3e08fc8b	0.13377587
25	0x3d1f8ba4	0.03895153
26	0xbd50ff44	-0.05102469
27	0x391ffd2a	0.00015257733
28	0xbdc3ddea	-0.09563811
29	0xbd447152	-0.047959633
30	0xbdabfd41	-0.08397914
31	0x3bad978f	0.005297608
32	0xbd62286a	-0.055214323
33	0xbd9a2899	-0.07527275
34	0xbdda2452	-0.10651459
35	0xbdabf131	-0.08395613
36	0xbe41a9ac	-0.18912381
37	0xbd08a347	-0.03335884
38	0xbe24f37c	-0.16108507
39	0xbe27457d	-0.16335101
40	0xbe2d75c7	-0.1693946
41	0xbe34b0f1	-0.17645623
42	0xbe06e06c	-0.13171548
43	0xbe457490	-0.19282746
44	0xbda85680	-0.082196236
45	0xbe59f45e	-0.21284625
46	0xbe5f6c73	-0.21818714
47	0xbe3cfdb4	-0.18456155
48	0xbe193f77	-0.14965616
49	0xbe2fac96	-0.1715568
50	0x3e987bfd	0.29782096
51	0x3ef58a2b	0.47956976
52	0x3eeea4b2	0.46610028
53	0x3ebc46ed	0.36772862
54	0x3e802948	0.25031495
55	0x3ee3efb8	0.44518828
56	0x3ebaba8d	0.36470452
57	0x3efd5b54	0.4948374
58	0x3edb2e4d	0.42808762
59	0x3ec37d09	0.38181332
60	0x3ecb12ff	0.3966293
61	0x3ed9bce1	0.42526916
62	0x3ecb4106	0.39698046
63	0x3edbd230	0.42933798
64	0x3e971cfd	0.29514304
65	0x3e64d5ed	0.22347231
66	0x3e8f59e6	0.27998275
67	0x3eadd8b3	0.3395439
68	0x3e807ce2	0.25095278
69	0x3e995ed5	0.29955164
70	0x3eade1ef	0.33961436
71	0x3e8a728e	0.27040523
72	0x3e8ed5a1	0.2789736
73	0x3e861acf	0.26192328
74	0x3e2fd3d4	0.1717065
75	0xbe73cee9	-0.23809399
76	0xbe94c19b	-0.2905396
77	0xbe26aac1	-0.16276075
78	0xbd8696ae	-0.065717086
79	0x3c167c20	0.009184867
80	0xbe7440a8	-0.2385279
81	0xbe2a6b7d	-0.16642566
82	0xbe8b5d69	-0.27219704
83	0xbe9130f3	-0.28357658
84	0xbe510f65	-0.20416029
85	0x3dc3d018	0.09561175
86	0x3e0f580c	0.13998431
87	0xbd6feb84	-0.058574215
88	0xbdc197b7	-0.094527654
89	0x3d47236d	0.04861777
90	0x3e961f25	0.29320636
91	0x3ea86976	0.3289296
92	0x3e55e374	0.20887548
93	0x3dd5b59d	0.104350306
94	0x3e06d068	0.13165438
95	0x3e8f10ec	0.27942598
96	0x3edd9121	0.43274787
97	0x3ee00a7f	0.43758008
98	0x3e47c3f9	0.19508351
99	0x3e8692d9	0.2628391
100	0xbec0943a	-0.37613088
101	0xbeef8e56	-0.4678828
102	0xbee2f3da	-0.4432667
103	0xbe1f5414	-0.15559417
104	0xbdb675c2	-0.08909179
105	0xbe0b2653	-0.13588838
106	0xbeb66cc4	-0.35629857
107	0xbeb0d1d0	-0.34535074
108	0xbe2cb90e	-0.16867468
109	0xbe84f6e8	-0.25969625
110	0xbd67c12b	-0.056580704
111	0xbc8d2f44	-0.017234452
112	0xbdb1e2b8	-0.08685821
113	0xbe3cdbf6	-0.18443283
114	0xbe17e8c0	-0.14834881
115	0x3e05dd4f	0.13072704
116	0x3e46bc27	0.19407712
117	0x3dee967c	0.11649796
118	0x3e1185d5	0.14211209
119	0x3d19be30	0.037534893
120	0x3eb7663a	0.3582018
121	0x3eaa40ad	0.3325247
122	0x3ecdcb8c	0.40194356
123	0x3ea5d7f1	0.32391313
124	0x3ded65f2	0.1159171
125	0xbe69794f	-0.22800182
126	0xbeae549c	-0.34048927
127	0xbea35547	-0.31901
128	0xbe299f1c	-0.16564602
129	0xbb89c17b	-0.004203973
130	0xbe8eff11	-0.27928975
131	0xbe0a342e	-0.13496467
132	0xbe9a23b7	-0.30105373
133	0xbe9c8036	-0.30566567
134	0xbe34e0e0	-0.17663908
135	0xbd47fa77	-0.048822846
136	0x3dd5c775	0.10438434
137	0x3ba9bf7a	0.0051802965
138	0xbd289358	-0.041156143
139	0x3aaeb428	0.0013328837
140	0x3e939352	0.28823334
141	0x3e3b2f50	0.18279767
142	0x3da401dd	0.08008168
143	0x3e345381	0.17609979
144	0x3e215ed5	0.15758832
145	0x3e92a844	0.28644
146	0x3e738683	0.23781781
147	0x3e8ed38d	0.27895775
148	0x3e978495	0.2959334
149	0x3e00f240	0.12592411
150	0xbe2f02b9	-0.17090882
151	0xbea88f46	-0.3292181
152	0xbeae9b29	-0.34102753
153	0xbe38692e	-0.18008873
154	0xbe89a86c	-0.26886308
155	0xbe8750b1	-0.2642875
156	0xbe6e53ed	-0.23274203
157	0xbe2485fe	-0.16066739
158	0xbea45cdb	-0.32102093
159	0xbe88e33e	-0.26735872
160	0xbdd1b12c	-0.10238871
161	0xbe811688	-0.25212502
162	0xbe21cf3c	-0.1580171
163	0xbe4eea55	-0.20206578
164	0xbe169b2b	-0.1470763
165	0xbe5daece	-0.21648714
166	0xbe25c4e1	-0.16188385
167	0xbe2d9289	-0.1695043
168	0x3cf4c422	0.02987868
169	0xbc9885c9	-0.018618481
170	0xbd2fc818	-0.042915434
171	0xbd47c35b	-0.04877029
172	0x3d9963ed	0.074897625
173	0xbd796326	-0.06088557
174	0x3d013aca	0.031550206
175	0xbe083bae	-0.13304016
176	0xbd57fa2f	-0.052728828
177	0xbdaa7f67	-0.08325081
178	0xbd0dc658	-0.034612983
179	0xbe045dbc	-0.12926382
180	0xbdeb820a	-0.11499412
181	0xbdd2110d	-0.102571584
182	0xbdd11492	-0.102090016
183	0xbe06ed66	-0.13176498
184	0xbdeac1be	-0.11462735
185	0xbe107eba	-0.14110842
186	0xbdc27f64	-0.09496954
187	0xbdb2101a	-0.086944774
188	0xbc7c6f31	-0.0154073695
189	0xbd85d864	-0.06535414
190	0xbc309986	-0.01077879
191	0x3d80cdb1	0.062892325
192	0x3df82e51	0.12118209
193	0xbc7d905c	-0.0154763125
194	0x3d719947	0.058984067
195	0x3d7853f3	0.060626935
196	0x3d1f636e	0.038913183
197	0xbbf1cd84	-0.0073792357
198	0x3dd4b44a	0.1038595
199	0x3d422437	0.04739782
200	0x3e5587ff	0.2085266
201	0x3e43ab3b	0.19108288
202	0x3e5e146b	0.21687476
203	0x3db5979a	0.08866806
204	0x3e757910	0.23971963
205	0x3e88e1d1	0.26734784
206	0x3e731225	0.2373739
207	0x3dd42597	0.10358732
208	0x3e899dd3	0.26878223
209	0x3e984e6d	0.29747334
210	0x3e9756f1	0.2955852
211	0x3e9459b9	0.28974703
212	0x3ebbc994	0.3667723
213	0x3e8de19e	0.27711195
214	0x3e9b1acc	0.30293882
215	0x3e9d634d	0.30739823
216	0x3ea16a58	0.31526446
217	0x3e84bc16	0.25924748
218	0x3e69f35f	0.22846745
219	0x3e8c6aed	0.27425328
220	0x3e9e1c29	0.3088086
221	0x3eb298f7	0.34882328
222	0x3ecdbe7b	0.40184388
223	0x3ec58062	0.3857451
224	0x3ea198e8	0.3156197
225	0xbd0eba59	-0.034845684
226	0xbdbf4193	-0.09338679
227	0xbd7c4874	-0.061592534
228	0xbdc9b311	-0.09848607
229	0xbbaae425	-0.005215185
230	0xbd8cf9fa	-0.06883617
231	0x3d0961e2	0.033540614
232	0xbd4e54c6	-0.050373815
233	0xbe025ec3	-0.12731461
234	0xbd07fbe9	-0.033199225
235	0x3d96c070	0.07360923
236	0x3cca2570	0.024676055
237	0x3ced0228	0.028931692
238	0x3dc2fa28	0.0952037
239	0x3c893ca9	0.016752558
240	0x3d9d0ed6	0.07668845
241	0x3d7ccc9e	0.061718576
242	0x3db539be	0.08848904
243	0xbd5378ea	-0.051628985
244	0xbc05b477	-0.008160702
245	0x3db23612	0.08701719
246	0x3e309703	0.17245106
247	0x3d68a5cf	0.056798752
248	0x3e4a5d65	0.1976219
249	0x3e576e54	0.2103818
250	0x3da2769b	0.079327784
251	0x3df4c3e5	0.119514264
252	0xbb47bfa9	-0.0030479229
253	0x3e01c3f9	0.12672414
254	0x3dfb0631	0.1225704
255	0x3d4e6d2f	0.050397094

conv1.bias f4 [6]
0	0xbfb304aa	-1.3985798
1	0xbd662040	-0.0561831
2	0xbf05222b	-0.5200526
3	0xbf284206	-0.65725744
4	0xbea18ebc	-0.3155421
5	0xbc5e0d62	-0.013552995

conv2.weight f4 [16, 6, 5, 5]
0	0x3dfac31d	0.12244246
1	0x3e1bbd7f	0.15209006
2	0x3e01ac05	0.12663276
3	0x3df6bdb3	0.12047901
4	0x3e2cf52b	0.16890399
5	0xbc9f7eb5	-0.019469598
6	0x3df0de75	0.1176118
7	0xbc9293f6	-0.017892819
8	0x3d882ca4	0.066491395
9	0x3cb3f426	0.021967005
10	0xbd47ac94	-0.048748568
11	0xbdb8538c	-0.0900031
12	0xbd83fc7b	-0.06444641
13	0x3d5bbe2c	0.05364816
14	0xbda4cc8b	-0.08046826
15	0xbd161b49	-0.036647115
16	0xbe17c4e1	-0.14821197
17	0xbdee9206	-0.116489455
18	0x3c00f9ff	0.007872104
19	0xbd257fcc	-0.04040508
20	0xbca9e4a8	-0.020738915
21	0xbc5e6800	-0.0135746
22	0xbde5ad8b	-0.11214741
23	0xbe1d9b80	-0.1539135
24	0xbd86a822	-0.065750375
25	0x3e621470	0.22078109
26	0x3e7200e2	0.2363315
27	0x3e5417aa	0.20712152
28	0x3e152517	0.1456493
29	0x3dd6ed8c	0.10494527
30	0x3c8101b4	0.015747882
31	0x3c85c2c8	0.01632823
32	0x3e11388e	0.1418173
33	0x3cadae48	0.021201268
34	0x3dfe2fca	0.12411459
35	0x3e1d0ff3	0.15338115
36	0x3a9a1d09	0.0011757921
37	0x3c8454ea	0.016153771
38	0x3d801225	0.06253461
39	0x3e4646cd	0.19362946
40	0x3e036213	0.12830381
41	0x3d21a998	0.039468378
42	0x3db8bae3	0.09020021
43	0xbce6bcf2	-0.028166268
44	0x3cadcd1f	0.021215973
45	0x3d06f45a	0.032947876
46	0xbb839b88	-0.0040163435
47	0x3d9b0dfe	0.07571028
48	0xbcb60d6d	-0.022223199
49	0xbda71b64	-0.08159521
50	0x3d9e4e56	0.07729785
51	0x3d72d8d9	0.059288833
52	0x3d0f6501	0.035008434
53	0x3c3c1be6	0.011481261
54	0x3dc79359	0.09744901
55	0xbcfec1c8	-0.031098261
56	0x3c01bd65	0.00791869
57	0x3d5c7f6d	0.05383246
58	0x3d97c015	0.074096836
59	0x3d9469c4	0.07246736
60	0xbde3cd8b	-0.111231886
61	0xbc981fa5	-0.018569777
62	0x3d100cae	0.035168342
63	0xbd454415	-0.04816063
64	0xbc8c55dc	-0.017130785
65	0xbd283568	-0.041066557
66	0x3bed7bcb	0.0072474233
67	0xbd83f346	-0.06442885
68	0xbdb7bfb5	-0.08972112
69	0xbdfec778	-0.124403894
70	0xbd3cde9f	-0.046110746
71	0xbd75eca0	-0.060040116
72	0x3b3f8441	0.0029223117
73	0x3c855062	0.016273681
74	0xbe09beab	-0.1345164
75	0x3db1c42b	0.08679994
76	0x3d08c071	0.03338665
77	0x3e4b4bf8	0.19853199
78	0x3dd2efaf	0.10299622
79	0x3d64a31e	0.055819623
80	0x3da80511	0.08204091
81	0x3d4a4296	0.049379908
82	0x3daef4d7	0.08542793
83	0x3e21db04	0.15806204
84	0x3ca81aae	0.020520534
85	0xbc9fad39	-0.019491779
86	0x3dc87a7c	0.09788987
87	0x3d33e3e7	0.043918516
88	0x3dbfdef7	0.09368699
89	0xbbb55ca3	-0.005534725
90	0xbcb55b90	-0.022138387
91	0x3b1477c7	0.00226544
92	0xbdd86c4b	-0.1056753
93	0x3ce73fa2	0.028228585
94	0xbda747de	-0.081680045
95	0xbd832087	-0.064026885
96	0xbe00d9b3	-0.12583046
97	0xbdeb512c	-0.11490092
98	0xbdf413e6	-0.11917858
99	0xbe3ca780	-0.18423271
100	0x3e0d2f01	0.13787462
101	0x3d3bc29e	0.0458399
102	0x3d9368a5	0.07197694
103	0x3d15e6e3	0.036597144
104	0x3dfd2c6f	0.12361991
105	0x3cd8d432	0.02646837
106	0x3d29432e	0.041323833
107	0xbc1d574e	-0.009603335
108	0xbd11599c	-0.03548585
109	0x3d848700	0.06471062
110	0xbd76c813	-0.0602494
111	0x3d153718	0.036429495
112	0xbd80124d	-0.062534906
113	0x3d76557f	0.06014013
114	0xbda12e4b	-0.07870158
115	0xbdc16fe8	-0.094451725
116	0xbdbc469c	-0.09193155
117	0xbddc5b80	-0.1075964
118	0xbde1a5b7	-0.11017936
119	0xbe019713	-0.12655286
120	0x3b4cebb5	0.0031268422
121	0xbda65e82	-0.08123495
122	0xbe27c72b	-0.1638457
123	0xbe0bd707	-0.13656245
124	0xbe194147	-0.14966308
125	0x3e3c28c9	0.18374933
126	0x3d8cfebc	0.06884524
127	0x3e2d21d8	0.16907442
128	0x3e15b166	0.14618453
129	0x3d4b59de	0.04964625
130	0x3db6cb9c	0.08925554
131	0x3e2363c9	0.15956034
132	0x3cd91f66	0.02650423
133	0x3d195d5d	0.037442554
134	0x3d31a3ac	0.04336898
135	0x3d022f4c	0.031783387
136	0xbda482e2	-0.080327764
137	0x3d5d2def	0.053998884
138	0x3d9812ae	0.07425438
139	0xbb17b267	-0.0023147108
140	0xbdb7e837	-0.08979838
141	0xbcfde451	-0.030992659
142	0xbde44707	-0.1114636
143	0xbd70ab1a	-0.058756925
144	0xbd152bff	-0.03641891
145	0xbd514ae8	-0.051096827
146	0xbdc71cb8	-0.097222745
147	0xbe2cf8f1	-0.16891839
148	0xbe74f8c1	-0.23923017
149	0xbe02f0cf	-0.12787174
150	0xbdf59e9f	-0.11993145
151	0x3c54e2f4	0.012993563
152	0x3dcfdc91	0.101494916
153	0xbcbf86fe	-0.023379799
154	0x3c2928d7	0.010324678
155	0xbc23c582	-0.00999582
156	0xbd1287b4	-0.035773948
157	0x3d4cf179	0.050034974
158	0x3d7d73fb	0.061878186
159	0x3d25c7eb	0.04047386
160	0xbd2c0b90	-0.042003214
161	0x3cb10a57	0.021611376
162	0xbcff1205	-0.031136522
163	0x3d580654	0.05274041
164	0xbdb2c883	-0.08729651
165	0x3cbc61b8	0.022995815
166	0x3c438175	0.01193272
167	0x3d98f0df	0.074678175
168	0x3d64619e	0.055757158
169	0xbcb832ca	-0.022485156
170	0x3dba9593	0.0911056
171	0x3d64b42d	0.05583589
172	0x3d70b724	0.058768407
173	0xbce7f60a	-0.028315563
174	0xbc53087a	-0.012880439
175	0xbe022406	-0.12709054
176	0xbdb9e3f8	-0.09076685
177	0xbbd4855d	-0.0064856247
178	0x3c7379f5	0.01486062
179	0xbd0bc6c8	-0.03412512
180	0xbe360154	-0.17773944
181	0xbd3d2bff	-0.046184536
182	0xbe0b6253	-0.13611726
183	0xbdc908a8	-0.09816104
184	0xbdb6815e	-0.089113936
185	0xbe16f2d0	-0.14741063
186	0xbe1c4adb	-0.1526293
187	0xbe759b2d	-0.23984976
188	0xbe35c337	-0.1775025
189	0xbe0511cf	-0.12995075
190	0xbe2bf68a	-0.16793266
191	0xbe02414e	-0.12720224
192	0xbe02e99c	-0.12784427
193	0xbe353321	-0.17695285
194	0xbddd5fb9	-0.10809273
195	0xbe2f4a0f	-0.17118095
196	0xbe009077	-0.12555109
197	0xbe2b767c	-0.16744417
198	0xbde55583	-0.11197951
199	0xbd1ed16e	-0.038773946
200	0xbd98821d	-0.07446692
201	0xbd9b288c	-0.07576093
202	0xbd98517c	-0.07437417
203	0x3ce7467b	0.02823185
204	0x3d131abd	0.03591417
205	0xbd79edc8	-0.06101778
206	0xbbdb7cce	-0.0066982275
207	0xbd139d39	-0.03603861
208	0xbdc0a864	-0.09407118
209	0x3be9f01c	0.007139219
210	0xbe0a0f36	-0.13482365
211	0xbdc584b2	-0.0964445
212	0xbd3cff20	-0.046141744
213	0x3d201d8c	0.039090678
214	0xbd06fcc3	-0.032955896
215	0x3c90b29e	0.017663296
216	0x3d942934	0.07234421
217	0xbd514194	-0.05108793
218	0xbda904a6	-0.0825284
219	0xbd3267dc	-0.04355608
220	0xbd22f96d	-0.039788652
221	0x3d9e58de	0.07731794
222	0xbd04197c	-0.032250866
223	0xbc9c8b69	-0.019109445
224	0xbdb48d86	-0.08816056
225	0xbd55d4da	-0.052204944
226	0x3d39558f	0.04524761
227	0x3dc5a102	0.096498504
228	0x3d89409b	0.06701776
229	0xbd89fce8	-0.06737691
230	0x3daff88d	0.08592329
231	0x3d11d6a5	0.03560509
232	0x3d2690cc	0.040665433
233	0x3d2574c4	0.04039456
234	0xbe02ad69	-0.12761463
235	0x3cfcb277	0.030846817
236	0x3d99c02c	0.07507357
237	0x3db4fd10	0.0883733
238	0x3cee8b4b	0.029119154
239	0xbc427ee1	-0.011871071
240	0x3dda5c50	0.106621385
241	0x3da14317	0.078741245
242	0x3d8b2d50	0.06795752
243	0xbc2fce07	-0.010730273
244	0xbb6e8865	-0.0036397215
245	0x3dbd09e5	0.09230403
246	0x3dc09161	0.09402729
247	0x3dfed55a	0.12443037
248	0x3d61753d	0.055043448
249	0xbdb94e9c	-0.09048197
250	0x3d89f17d	0.06735513
251	0x3da63196	0.081149265
252	0x3d960775	0.07325641
253	0xbd22da53	-0.03975899
254	0xbd896b8c	-0.06709966
255	0xbb70018c	-0.0036622016

conv2.bias f4 [16]
0	0x3d9bea8b	0.07613095
1	0xbd9f6187	-0.07782274
2	0x3cb88cac	0.022528015
3	0x3a42a6ec	0.0007425386
4	0xbe22f438	-0.15913475
5	0x3daa4e14	0.083156735
6	0xbd9be1c8	-0.07611424
7	0xbc2ef30a	-0.010678062
8	0xbe2bfbd8	-0.1679529
9	0xbe273f03	-0.16332631
10	0xbdb8659b	-0.09003755
11	0xbc377567	-0.0111974245
12	0x3dce651f	0.10077881
13	0x3e4e198b	0.20126931
14	0xbdf8bbf3	-0.121452235
15	0xbe2b7afd	-0.16746135

fc1.weight f4 [120, 400]
0	0xbd44b308	-0.0480223
1	0xbd0803f0	-0.03320688
2	0x3d00a720	0.031409383
3	0x3c8dd0b3	0.01731143
4	0x3d172619	0.036901567
5	0xbc6803b6	-0.014161041
6	0xbd2fe6cd	-0.04294472
7	0x3cca5812	0.024700198
8	0xbb8aa61a	-0.0042312266
9	0xbc2347ec	-0.009965878
10	0xbd058d8d	-0.032605696
11	0xbc194d1b	-0.009356762
12	0x3b7036bd	0.003665372
13	0xbc6eceb6	-0.014575651
14	0x3c8f0590	0.017458707
15	0xbd4b0cbb	-0.049572688
16	0x3cea9c80	0.028639078
17	0xbc68c854	-0.014207918
18	0xbc935214	-0.017983474
19	0x3d0b0f7d	0.033950318
20	0x3cdbcbc7	0.026830567
21	0x3b1dd645	0.0024084013
22	0x3d2d5e27	0.04232612
23	0xbca28eda	-0.019843508
24	0x3d1a9a4b	0.0377448
25	0xbcfd2cf6	-0.030905228
26	0xbd0572d0	-0.032580197
27	0x3c65f989	0.014036545
28	0x3d2f9b2b	0.04287259
29	0xbd5fc94c	-0.05463533
30	0x3ce4b730	0.027919382
31	0x3d41ecca	0.04734496
32	0x3ba162de	0.004925116
33	0xbce91550	-0.028452545
34	0xbd0e61f0	-0.03476137
35	0xbbe60541	-0.0070196693
36	0xbb7b89b9	-0.003838165
37	0xbcc4d8de	-0.024029192
38	0xbd293b17	-0.041316118
39	0xbc55ee52	-0.013057308
40	0x3d805bab	0.06267484
41	0x3d6d62a5	0.057955403
42	0xbd2357f2	-0.039878793
43	0x3c0a0012	0.008422868
44	0x3d1f2ccc	0.03886108
45	0xbb0415cd	-0.0020154596
46	0x3c2c68cb	0.0105230315
47	0x3ca69411	0.020334275
48	0x3cdbe3ef	0.026842086
49	0xbb72ebc9	-0.0037066808
50	0x3d3142c3	0.04327656
51	0xbd335c99	-0.04378948
52	0x3d02a8a1	0.0318991
53	0xbcc9ce92	-0.024634633
54	0x3d0c6162	0.03427256
55	0xbcb08731	-0.02154884
56	0xbc70e3c4	-0.014702741
57	0x3ba1de4b	0.0049398295
58	0xbd2a6beb	-0.041606825
59	0xbd1244b6	-0.03571006
60	0x3d17bc25	0.037044663
61	0xbd11c0a4	-0.035584107
62	0xbd2392ba	-0.03993485
63	0xbd2009ab	-0.03907172
64	0xbce22275	-0.027604321
65	0x3d1e6c58	0.038677543
66	0x3d485fad	0.04891937
67	0x3a079659	0.0005172245
68	0x3d05de94	0.03268297
69	0xbcc4f56b	-0.024042806
70	0x3cbe729a	0.023248006
71	0x3d204853	0.039131474
72	0x3ceee026	0.029159617
73	0x3d275ff2	0.040862985
74	0xbc2173aa	-0.009854237
75	0xbd03f713	-0.03221805
76	0xba968d25	-0.0011486156
77	0x3ce8582a	0.028362352
78	0x3b66d460	0.00352218
79	0x3d159428	0.036518246
80	0xbca7fbd4	-0.020505823
81	0xbbd38ee7	-0.0064562443
82	0x3c418335	0.011811067
83	0x3bc40694	0.0059822295
84	0x3cfc941a	0.03083234
85	0x3cbd7ac9	0.023129838
86	0xbcb9f365	-0.022699067
87	0x3d34e361	0.044162158
88	0x3d1bf3ba	0.038074233
89	0xbcbb948c	-0.022897981
90	0xbb028cfe	-0.0019920464
91	0xba710978	-0.00091948314
92	0x3d125770	0.03572792
93	0xbcc35373	-0.023843503
94	0x3c649b50	0.013953045
95	0x3d28afab	0.041183155
96	0xbce14266	-0.027497482
97	0xbce1dc0b	-0.027570745
98	0x3abed1ae	0.0014558339
99	0xbcc929e8	-0.024556115
100	0x3ba0f7fa	0.0049123736
101	0xbc98425c	-0.01858633
102	0x3d1500b2	0.036377616
103	0xbb18f5e1	-0.0023339915
104	0xbd2eab75	-0.042643983
105	0x3d059ff8	0.03262326
106	0x3bc9a2d8	0.0061534457
107	0x3c8245f1	0.015902491
108	0xbd46e679	-0.04855964
109	0xbc2506ca	-0.010072419
110	0x3c168dbb	0.009189065
111	0x3b09fc7a	0.0021055029
112	0x3bd758e0	0.006571874
113	0xbcd940a3	-0.026520079
114	0xbd2b1614	-0.041769102
115	0x3d07b19f	0.033128377
116	0x3cc41f44	0.02394069
117	0x3cb9c746	0.022678029
118	0xbd06d226	-0.032915257
119	0x3b5c6923	0.0033632002
120	0x3cf85159	0.030312227
121	0xbb5374c3	-0.003226564
122	0x3cb6433e	0.02224886
123	0xbc1b096c	-0.009462696
124	0xbd7232b6	-0.059130393
125	0x3c0a5a08	0.008444317
126	0x3c8e632e	0.017381277
127	0xbbf295ee	-0.007403127
128	0x3c907c48	0.017637387
129	0x3d0ed029	0.034866486
130	0xbc49eb61	-0.012324185
131	0xbcd7be71	-0.026335927
132	0xbd25586f	-0.04036754
133	0xbd06256d	-0.032750536
134	0x3cba9a3a	0.02277862
135	0xbcd3eb3c	-0.025869004
136	0x3cb38f78	0.021918997
137	0x3cece949	0.028919833
138	0x3d1faae9	0.038981352
139	0x3bf2be45	0.007407936
140	0xbc3f6747	-0.011682338
141	0xbc860f29	-0.01636465
142	0xbc42483d	-0.011858043
143	0xbcf70552	-0.030153904
144	0xbd206a22	-0.039163716
145	0xbcc3751b	-0.023859551
146	0x3d15eead	0.036604572
147	0x3c159a41	0.009131015
148	0x3b82dd4b	0.0039936653
149	0xbd1e9649	-0.03871754
150	0x3d496bab	0.049174946
151	0x3c283bce	0.010268165
152	0x3d237db4	0.0399148
153	0x3b026215	0.0019894887
154	0xbd4962d3	-0.04916651
155	0x3c25a55f	0.010110228
156	0x3d59f5a3	0.053212773
157	0x3d2e99b9	0.04262707
158	0x3c492633	0.012277174
159	0xbb7378cd	-0.003715086
160	0x3be76545	0.007061633
161	0x3d1b9da9	0.037992153
162	0x3d14703d	0.03623985
163	0x3ce6bcfc	0.028166287
164	0x3cea190f	0.028576402
165	0x3b0ba49c	0.0021307832
166	0xbafca9fe	-0.0019276736
167	0xbd306436	-0.04306432
168	0x3b831aac	0.0040009823
169	0x3c4a19c5	0.0123352455
170	0x3bd323d1	0.0064434786
171	0xbb8fefe0	-0.004392609
172	0xbcd57ade	-0.026059564
173	0xbd1c4ee4	-0.038161173
174	0xbd54fa27	-0.051996376
175	0xbc9be47b	-0.019029846
176	0x3d419133	0.047257613
177	0x3d11fdc8	0.035642415
178	0xbb8c3fc2	-0.0042800615
179	0x3c804ae2	0.015660707
180	0x3d81bd0a	0.063348845
181	0x3c9a0b68	0.018804267
182	0xb9a03ea3	-0.00030564246
183	0x3d408459	0.047001217
184	0xbcdad9ab	-0.02671512
185	0x3d249181	0.040177826
186	0x3c8eb177	0.017418606
187	0xbc9b59c5	-0.018963704
188	0x3c5cefc5	0.0134849
189	0x3b2cb214	0.002635126
190	0x3d5fb1d9	0.054612968
191	0x3c944e36	0.0181037
192	0xbd129414	-0.03578575
193	0x3c9a44ed	0.018831694
194	0x3b176a3f	0.00231041
195	0x3cddd7cc	0.027080439
196	0xbc977274	-0.018487193
197	0x3d1ca7cc	0.03824596
198	0x3cdd24a8	0.026995018
199	0xbd22740e	-0.03966146
200	0xbcb0ab7b	-0.021566143
201	0x3b38141c	0.0028088158
202	0xbd75be84	-0.059996143
203	0xbd8d7fb3	-0.06909122
204	0x3cb26dc9	0.021780865
205	0xbc3bf914	-0.011472959
206	0xbcb3a284	-0.02192808
207	0xbc03b0ca	-0.008037755
208	0x3d08cf40	0.033400774
209	0xbd2982ce	-0.04138451
210	0x3bba56af	0.005686603
211	0x3cc46868	0.023975566
212	0xbd497fc3	-0.04919411
213	0xbce7448e	-0.028230932
214	0xbd273408	-0.040821105
215	0x3d1e5d76	0.03866335
216	0x3d1a741d	0.03770839
217	0x3d383803	0.044975292
218	0xbd487aa1	-0.048945073
219	0xbd304a34	-0.043039516
220	0x3d5d6e7b	0.05406044
221	0x3d6df69c	0.058096513
222	0xbcdac408	-0.026704803
223	0xbc01d6d6	-0.007924756
224	0xba9344cb	-0.0011235712
225	0x3b03bbde	0.0020100991
226	0xbcd0e0cd	-0.025497818
227	0xbd21b3a5	-0.039477963
228	0x3a09bfcb	0.00052547146
229	0xbd63ce7b	-0.055616837
230	0xbaae51c7	-0.0013299518
231	0x3da0aab4	0.07845059
232	0x3b2641ba	0.0025368766
233	0x3c957596	0.018244546
234	0xbd44ddaa	-0.048062958
235	0x3cbe7968	0.02325125
236	0x3c2246a3	0.009904536
237	0x3c1bb581	0.009503723
238	0xbbe0f6fe	-0.0068653813
239	0xbd894b10	-0.0670377
240	0x3d443626	0.047903202
241	0x3d99ab94	0.07503429
242	0x3cd075cb	0.025446793
243	0x3d117f6a	0.035521902
244	0x3c1be71c	0.00951555
245	0x3d73f5a0	0.059560418
246	0x3d9711e5	0.0737646
247	0xbd0c8295	-0.03430422
248	0xbcbed1c6	-0.023293387
249	0xbd63b1dd	-0.055589546
250	0xbc3dcafd	-0.011584041
251	0x3cf5e9af	0.030018656
252	0xbd3d0281	-0.046144966
253	0x3c76116d	0.015018803
254	0x38a47b4c	7.843095e-05
255	0x3cf7676e	0.030200686

fc1.bias f4 [120]
0	0xbcf7b801	-0.030239107
1	0x3c90fb6b	0.01769801
2	0xbc198e93	-0.009372371
3	0x3b8c2e9d	0.0042780177
4	0xbcab5212	-0.020913158
5	0x3d41760e	0.047231726
6	0x3d95ddd8	0.07317704
7	0x3d1887d9	0.03723893
8	0xbc12e35e	-0.008965341
9	0x3cf14482	0.029451612
10	0xbb2764ee	-0.0025542337
11	0x3d8ebc3a	0.06969495
12	0x3c8d5198	0.017250821
13	0xbc175b14	-0.009238023
14	0x3c68d34d	0.014210534
15	0xbc2e6351	-0.010643796
16	0xbc2538ba	-0.010084325
17	0x3d176037	0.036956992
18	0x3cc5abb5	0.024129728
19	0xbc96c5d4	-0.018404879
20	0xbd2639cc	-0.040582463
21	0xbd13b336	-0.03605958
22	0xbc7f9a83	-0.015600803
23	0xbd38374e	-0.044974618
24	0xbcb055a1	-0.021525206
25	0xbceb7357	-0.028741522
26	0xbd28d762	-0.04122103
27	0x3c1785c7	0.009248204
28	0x3d0387f3	0.032112073
29	0xbc6d893c	-0.014498051
30	0xbd49712d	-0.0491802
31	0xbcdf8512	-0.027285133
32	0x3d72ce41	0.05927873
33	0xbcf860b4	-0.03031955
34	0x3d0fc8dc	0.035103664
35	0x3bb98f6d	0.0056628496
36	0x3d61822a	0.055055775
37	0x3ddf8d44	0.10915616
38	0x3bf2903b	0.0074024475
39	0xbcdaec1c	-0.026723914
40	0x3cabae7b	0.020957222
41	0x3ca6b133	0.020348167
42	0xbcaaabdf	-0.020833908
43	0x3cd9fe05	0.026610384
44	0xbd09bc4a	-0.033626832
45	0x3cda9241	0.026681067
46	0xbd0fc697	-0.0351015
47	0xbcb40600	-0.021975517
48	0xbde636b8	-0.112409055
49	0xbb1ab6d2	-0.0023607505
50	0x3d0debeb	0.034648817
51	0x3d9470a1	0.07248045
52	0xbb1ab1d9	-0.002360454
53	0xbc073e44	-0.008254591
54	0x3c251503	0.01007581
55	0xbd2954cd	-0.041340638
56	0xbda46bcc	-0.08028373
57	0xbcef8b0e	-0.029241111
58	0xbc21b71a	-0.009870315
59	0xbdb54924	-0.08851841
60	0x3cb23703	0.021754747
61	0xbd972a7e	-0.073811516
62	0x3bfa526d	0.0076392205
63	0x3d0c1316	0.03419789
64	0xbb214aa3	-0.0024611137
65	0xbbb5e251	-0.0055506607
66	0x3c842f5b	0.016135862
67	0xbc88ca81	-0.016698124
68	0x3db53e9b	0.08849832
69	0xbb1eecd4	-0.0024250047
70	0x3d0c0f6d	0.0341944
71	0xbd01591e	-0.03157913
72	0xbcf32063	-0.02967853
73	0xbba8c727	-0.005150694
74	0xbcf7bb82	-0.030240778
75	0xbd989bda	-0.07451601
76	0x3d7480c4	0.059693113
77	0xbd87ecf9	-0.06636996
78	0x3cc1ce05	0.023657808
79	0xbcd22a10	-0.025654823
80	0x3d1befd0	0.0380705
81	0xbc968d75	-0.018377999
82	0x3cc62a2a	0.024190027
83	0xbb9d35d3	-0.004797676
84	0x3ca79250	0.02045551
85	0xbd336d5c	-0.043805465
86	0xbd18201b	-0.037139993
87	0x3caf15c7	0.021372689
88	0xbd0cac02	-0.034343727
89	0xbd4e39c5	-0.050348062
90	0x3bb95f9e	0.0056571504
91	0x3d18e7cc	0.037330434
92	0x3a83ac25	0.001004581
93	0xbd1099fd	-0.035303105
94	0xbc87ae25	-0.01656253
95	0x3deb8bb7	0.11501258
96	0xbd86b294	-0.0657703
97	0xbca31c84	-0.019911058
98	0x3d82979c	0.063765734
99	0xbc10f975	-0.008848538
100	0x3b1c4629	0.002384553
101	0xbcd97df5	-0.026549319
102	0x3cad8f48	0.021186486
103	0x3cf90124	0.030396052
104	0x3ce1af6d	0.02754947
105	0xbd0f0df1	-0.034925405
106	0xb78a1395	-1.646e-05
107	0x3dc3d96d	0.09562955
108	0xbceccbd4	-0.028905787
109	0xbba9a4d0	-0.005177118
110	0xbd4bd7a1	-0.049766187
111	0x3c49fd9b	0.012328531
112	0x3c53d89d	0.012930063
113	0xbd19e3ce	-0.037570767
114	0x3d487fac	0.048949882
115	0x3cb7ecab	0.02245172
116	0x3d2051e5	0.0391406
117	0x3c95abd6	0.018270414
118	0xbc4c8f89	-0.012485393
119	0xbd03514c	-0.032059953

fc2.weight f4 [84, 120]
0	0xbb9a886b	-0.0047159693
1	0xbccc560c	-0.024943374
2	0x3cdd9e05	0.027052889
3	0xbd5b383d	-0.05352043
4	0xbe2456d7	-0.16048752
5	0x3d12f529	0.035878334
6	0xbc9153d1	-0.017740162
7	0x3c6cbc51	0.014449195
8	0x3dc660e7	0.096864514
9	0xbe232237	-0.1593102
10	0x3c75fbc1	0.015013636
11	0xbe5806b1	-0.21096303
12	0xbcd7e2bb	-0.02635323
13	0x3dd4f87f	0.10398959
14	0xbd851c94	-0.064995915
15	0xbd9152fc	-0.07095906
16	0xbd9595e3	-0.07303979
17	0xbdb6dfeb	-0.08929428
18	0x3d5ba275	0.053621728
19	0x3e189faf	0.14904664
20	0x3d2d5c21	0.04232419
21	0xbc9068f2	-0.017628167
22	0x3ce54e82	0.027991537
23	0xbcf4cc47	-0.029882563
24	0x3d6ef2fb	0.058337193
25	0x3dbc7975	0.092028536
26	0x3cb0a6a4	0.021563835
27	0xbd9c27e9	-0.076248
28	0x3cacba2e	0.021084871
29	0xbd4c5e1c	-0.049894437
30	0x3c1dac65	0.009623622
31	0xbd5a9efa	-0.053374268
32	0xbdb5030c	-0.08838472
33	0x3d75f1a8	0.060044914
34	0xbd0582b5	-0.032595355
35	0xbd8a4a2c	-0.067524284
36	0xbdbf8451	-0.09351409
37	0xbd4bc881	-0.049751762
38	0xbe1607da	-0.14651433
39	0x3dc9cf26	0.098539636
40	0x3d89f883	0.06736853
41	0x3e25903b	0.16168301
42	0xbd7a41ea	-0.061098017
43	0xbdec87a1	-0.11549307
44	0x3d879511	0.06620229
45	0x3dafe9e8	0.08589536
46	0x3d391b79	0.045192216
47	0x3daad654	0.08341661
48	0x3e45c019	0.1931156
49	0xbb745df1	-0.0037287439
50	0xbe2a8f9c	-0.16656345
51	0x3d421ac2	0.0473888
52	0x3dd69aaa	0.104787186
53	0xbda0a56b	-0.07844051
54	0x3d9d10b4	0.076692015
55	0xbd8d9d5a	-0.06914778
56	0x3d341657	0.043966617
57	0xbc605cbf	-0.013693987
58	0xbdf32424	-0.11872128
59	0x3d76d140	0.06025815
60	0xbd5c82bc	-0.053835616
61	0xbd22147f	-0.039570328
62	0x3e355387	0.17707644
63	0x3caacfba	0.020851005
64	0x3c099417	0.008397124
65	0xbc49711d	-0.012295035
66	0xbdb2180e	-0.08695994
67	0xbd347320	-0.044055104
68	0x3d9a0cf1	0.075219996
69	0xbda38c90	-0.079857945
70	0xbd61f943	-0.055169355
71	0xbbdc1822	-0.006716744
72	0xbdbf74b4	-0.09348431
73	0xbdd4fc58	-0.10399693
74	0x3db332d5	0.0874993
75	0x3cf68d48	0.030096665
76	0xbd1500ed	-0.036377836
77	0x3caf6bd7	0.021413727
78	0x3d499d01	0.049221996
79	0x3e111974	0.14169866
80	0xbd8d98ca	-0.06913908
81	0xbdd8b6bc	-0.10581729
82	0xbd6f8336	-0.058474742
83	0x3de04cd0	0.10952151
84	0xbd46eb0a	-0.048563994
85	0xbd0a4494	-0.033756807
86	0xbc6331c0	-0.013866842
87	0xbd99e22e	-0.075138435
88	0x3de41c86	0.11138253
89	0x3e1d6246	0.1536952
90	0x3d9bfff6	0.0761718
91	0xbd32ff6c	-0.04370062
92	0xbd59ba0d	-0.053155947
93	0xbd53797b	-0.051629525
94	0x3daf3403	0.08554842
95	0xbe2ab926	-0.16672191
96	0x3e0b77f3	0.13619976
97	0x3db72684	0.08942893
98	0xbd270e98	-0.040785402
99	0x3dbe0ce2	0.09279801
100	0x3dbba78b	0.09162816
101	0x3ce9a649	0.028521674
102	0xbdd32d50	-0.10311377
103	0xbd2a79b0	-0.041619956
104	0x3e02bd07	0.1276742
105	0xbd7854b0	-0.06062764
106	0xbda97152	-0.08273567
107	0xbba7af72	-0.0051173503
108	0x3d88811c	0.06665251
109	0x3cc002a1	0.023438754
110	0x3c3d8c8c	0.0115691535
111	0xbca2ccc0	-0.019873023
112	0xbd56db54	-0.05245526
113	0xbd8e1039	-0.06936688
114	0x3cb883da	0.02252381
115	0xbe000853	-0.12503175
116	0xbdb524e3	-0.08844926
117	0x3db4af1b	0.08822461
118	0xbd4f2f02	-0.05058194
119	0xbd8574fd	-0.06516454
120	0xbd064586	-0.032781146
121	0xbce3306c	-0.02773305
122	0x3b9cc440	0.004784137
123	0x3b276a69	0.0025545603
124	0xbb4dc7c1	-0.003139958
125	0x3c985aad	0.018597925
126	0xbd87d407	-0.06632238
127	0xbd8b8e6f	-0.068142764
128	0x3da7a116	0.081850216
129	0xbd79cacb	-0.060984414
130	0xbdb531f5	-0.08847419
131	0xbd8cf597	-0.0688278
132	0xbd13ce8b	-0.036085647
133	0xbd70c57f	-0.058782097
134	0xbd2d1485	-0.042255897
135	0xbc8bf761	-0.017085733
136	0xbd83204d	-0.06402645
137	0xbdae2f67	-0.08505135
138	0xbc61a284	-0.013771657
139	0xbc9cdbd0	-0.019147784
140	0x3c37b018	0.011211418
141	0xbda9eb97	-0.08296888
142	0x3c84bb5f	0.016202627
143	0x3d622ca5	0.055218358
144	0xbc5898f6	-0.0132200625
145	0xbd8bd5d4	-0.06827894
146	0xbd8e25e6	-0.06940822
147	0xbda1da49	-0.07902963
148	0xbd8ffaf4	-0.070302874
149	0x3cb28e04	0.021796234
150	0x3d20fd75	0.039304215
151	0x3cb01b41	0.02149737
152	0xbda3c65e	-0.0799682
153	0xbd132268	-0.035921484
154	0x3d4fdccb	0.050747674
155	0x3b7ea5cf	0.0038856154
156	0x3cbe2e6a	0.023215491
157	0x3d36e040	0.044647455
158	0xbd696f32	-0.05699081
159	0x3d2e68af	0.042580303
160	0x3c24468b	0.010026584
161	0xbc3b50dc	-0.011432853
162	0xbd7225b3	-0.059117984
163	0x3cdcbe99	0.026946353
164	0x3df7ade4	0.12093714
165	0x3d99ae5b	0.07503959
166	0xbbca029f	-0.0061648632
167	0x3e234e62	0.1594787
168	0xbbb90ece	-0.005647517
169	0x3d9c6253	0.07635941
170	0xbc92e9b6	-0.017933708
171	0xbd985ff8	-0.074401796
172	0xbdce4821	-0.10072351
173	0xbd077a17	-0.03307542
174	0x3d00bda0	0.03143084
175	0x3c67b27e	0.014141677
176	0x3aaf9781	0.0013396592
177	0xbcea6e6a	-0.028617103
178	0x3d05b92c	0.032647297
179	0x3e0371d5	0.12836392
180	0x3dc1b869	0.094590016
181	0x3d42494a	0.047433175
182	0xbb8a1a1d	-0.0042145387
183	0x3d2026f1	0.039099637
184	0xbdabb4ad	-0.083840705
185	0x3dc74068	0.097290814
186	0x3dacc993	0.08436885
187	0x3d244fa7	0.040115025
188	0xbd8fce60	-0.07021785
189	0xbd0c8739	-0.034308646
190	0x3c2e48dc	0.010637488
191	0x3de23399	0.11044998
192	0xbd05ac38	-0.032634944
193	0x3d2abf45	0.041686315
194	0x3b2bd187	0.0026217417
195	0x3dccd959	0.10002393
196	0x3d15f13a	0.036607005
197	0xbcbb7b63	-0.022885984
198	0xbdbc70ae	-0.092011794
199	0x3ccbda6e	0.024884429
200	0x3cae42d0	0.021272093
201	0x3ced0ee0	0.028937757
202	0xbc03425f	-0.00801143
203	0x3b9ea14c	0.0048410054
204	0x3c90a589	0.017657058
205	0x3caa5e54	0.020796932
206	0x3d513e31	0.0510847
207	0xbdd241f2	-0.10266484
208	0x3d836572	0.064158335
209	0x3d8373dc	0.06418583
210	0xbd0991e6	-0.033586405
211	0x3c6ed528	0.014577188
212	0x3a3224fb	0.00067956717
213	0x3c96314d	0.018334055
214	0xbbfc9bfd	-0.007709025
215	0x3d7129b0	0.058877647
216	0xbc857349	-0.016290324
217	0x3cd4cbf0	0.025976151
218	0x3ca7656b	0.020434102
219	0x3d82aa89	0.06380183
220	0x3db7d92a	0.08976968
221	0xbc858d64	-0.016302772
222	0x3d7081b0	0.05871743
223	0xbdc8a70c	-0.09797487
224	0xbd6046dc	-0.054755077
225	0x3d807953	0.06273141
226	0x3c28cf59	0.010303342
227	0xbcd6c006	-0.02621461
228	0x3de4b384	0.111670524
229	0xbde7f1ed	-0.113254406
230	0x3e05e4ea	0.13075605
231	0xbda20fa1	-0.07913137
232	0x3c9cd1fe	0.0191431
233	0xbd0f0cfc	-0.034924492
234	0xbd5f799e	-0.054559343
235	0x3d91559e	0.07096408
236	0xbd0586c5	-0.03259923
237	0xbd0d22f9	-0.03445718
238	0x3d30c7f1	0.04315943
239	0xbba68be9	-0.0050825966
240	0x3d075271	0.033037607
241	0x3d9709b6	0.07374899
242	0xbd3ad93e	-0.045617335
243	0xbb3a6ae2	-0.0028445055
244	0xbd923936	-0.07139818
245	0x3d3eca33	0.04657955
246	0xbcef7570	-0.029230803
247	0xbd7e21cf	-0.06204396
248	0xbcaad7b7	-0.020854814
249	0x3cc04e06	0.023474704
250	0xbca718e9	-0.02039762
251	0xbda1a294	-0.078923374
252	0x3d32c2cb	0.0436428
253	0x3d090468	0.033451468
254	0x3da3a276	0.07989971
255	0xbd1fad2f	-0.03898352

fc2.bias f4 [84]
0	0xbcc2a830	-0.023761839
1	0xbd896758	-0.067091644
2	0xbcfc5b84	-0.030805357
3	0xbd61e14e	-0.055146508
4	0x3d719db9	0.058988307
5	0x3e24fb9d	0.16111608
6	0xbdb68e79	-0.08913893
7	0xbd9657c2	-0.07340957
8	0x3d1746a5	0.036932606
9	0x3e05a745	0.1305209
10	0x3d13c6bc	0.0360782
11	0x3c5b1b45	0.013373201
12	0x3e0991f1	0.13434578
13	0xbd0844e1	-0.033268813
14	0xbd6b0aef	-0.057383474
15	0xbde0e16c	-0.10980496
16	0xbd5c9cca	-0.053860463
17	0x3e160c3f	0.14653109
18	0xbb4f17ff	-0.0031599996
19	0xbb147d7c	-0.0022657802
20	0xbd0bfe9c	-0.03417836
21	0x3dc66bd5	0.09688536
22	0x3d0cff34	0.03442307
23	0xbccf006c	-0.025268756
24	0xbd9c27e5	-0.07624797
25	0x3de69e8a	0.11260708
26	0x3ddfd486	0.109292075
27	0x3c68d2ae	0.014210386
28	0x3d84941f	0.06473564
29	0x3ca1fde0	0.019774377
30	0x3d1ac12b	0.037781876
31	0xbc987f50	-0.018615395
32	0x3e37988c	0.17929286
33	0x3d3a086f	0.0454182
34	0xbd1e5a9b	-0.038660627
35	0xbd4ff61a	-0.05077181
36	0xbd8a903b	-0.06765791
37	0x3dafb04e	0.08578549
38	0x3da6516f	0.08121001
39	0xbd89e8d8	-0.067338645
40	0x3d696f23	0.056990754
41	0xbd54101f	-0.051773187
42	0x3c957022	0.018241946
43	0xbc19722f	-0.009365602
44	0xbd885c33	-0.066582106
45	0x3b5d78ee	0.0033794004
46	0xbd8ef78a	-0.06980808
47	0xbce0a42f	-0.027422039
48	0xbd8c79e0	-0.06859183
49	0xbd3f780a	-0.046745338
50	0x3e10e06e	0.14148113
51	0x3d9f4c0d	0.077781774
52	0xbda915e2	-0.08256127
53	0xbd46ce8b	-0.04853682
54	0xbd1f8575	-0.038945634
55	0xbb3f1d3b	-0.002916171
56	0x3b6e95f9	0.0036405309
57	0xbde97f0f	-0.11401188
58	0x3e09dc05	0.13462837
59	0xbdab587a	-0.08366485
60	0xbe0f80a5	-0.14013918
61	0x3d2a06b1	0.041510288
62	0xbc95d0f8	-0.01828812
63	0x3ca43328	0.020043924
64	0xbc726d9c	-0.014796641
65	0x3c4ee716	0.012628337
66	0x3dbce869	0.09224016
67	0xbd9e53ad	-0.07730804
68	0x3e3ea47d	0.18617435
69	0x3c17705b	0.009243096
70	0xbc908a78	-0.017644152
71	0xbdc7045b	-0.097176276
72	0x3daaf0d1	0.08346713
73	0xbd98ed1f	-0.07467102
74	0xbdebb8de	-0.1150987
75	0xbd4884d7	-0.04895481
76	0x3d638022	0.05554212
77	0x3c2eda3c	0.010672148
78	0xbdd2d72b	-0.10294946
79	0xbcd15688	-0.025553957
80	0xbda6e68d	-0.08149443
81	0xbdf178f9	-0.11790652
82	0x3cd1c78b	0.025607845
83	0x3c84cde6	0.016211461

fc3.weight f4 [10, 84]
0	0x3e234a60	0.1594634
1	0x3e75f755	0.24020131
2	0xbdb4031d	-0.08789656
3	0xbcaea0cd	-0.02131691
4	0x3dc0c691	0.094128735
5	0xbe83decb	-0.25755915
6	0x3ea1cf6a	0.31603557
7	0x3e0afe14	0.13573486
8	0xbe9b44d0	-0.30325937
9	0xbe83f792	-0.2577482
10	0x3c76c455	0.015061458
11	0x3e529912	0.20566204
12	0xbc5c60b3	-0.013450789
13	0xbdc05c2b	-0.0939258
14	0xbc755833	-0.014974642
15	0xbc27d3fc	-0.010243412
16	0x3db83822	0.089950815
17	0xbe7db1f8	-0.24774921
18	0x3e32ab50	0.17448163
19	0x3bba14c9	0.0056787473
20	0x3c6d5363	0.014485213
21	0x3d05a1d0	0.03262502
22	0x3d297dd2	0.041379757
23	0x3db54987	0.08851915
24	0x3e3a5a21	0.18198444
25	0xbc86a89d	-0.016437823
26	0x3de20b89	0.110373564
27	0xbdd5136f	-0.10404097
28	0xbd852571	-0.06501282
29	0x3db17572	0.08664979
30	0x3c2e63ab	0.01064388
31	0x3d5a3e4a	0.05328206
32	0xbe519bd9	-0.20469607
33	0x3ded1390	0.11575997
34	0x3e47b98c	0.19504374
35	0x3dfa0aae	0.12209068
36	0x3d0c089a	0.03418789
37	0xbe716605	-0.23574074
38	0xbdd26e6d	-0.10274968
39	0xbc9f77e6	-0.019466352
40	0x3d5296a7	0.051413205
41	0x3cc9d53b	0.024637809
42	0x3e611db8	0.21983993
43	0xbdde5e5a	-0.1085784
44	0xbd04c2cb	-0.03241233
45	0x3c5faebb	0.013652499
46	0xbb26215b	-0.0025349471
47	0x3d82176d	0.06352124
48	0xbdb0d385	-0.08634094
49	0xbc620916	-0.013796112
50	0xbe2996f5	-0.16561492
51	0xbddae1e6	-0.10687618
52	0x3de4903d	0.11160324
53	0xbe2101f3	-0.157234
54	0xbdca524e	-0.098789796
55	0x3d758525	0.05994143
56	0x3dba706a	0.091034725
57	0x3e5d227e	0.21595189
58	0xbe273290	-0.16327882
59	0xbd231e8b	-0.03982405
60	0x3ecffd9a	0.4062317
61	0x3d9481fc	0.07251355
62	0xbea70494	-0.3262068
63	0xbe01629a	-0.1263527
64	0xbc95e878	-0.018299326
65	0xbdec18fa	-0.115282014
66	0xbe85fd97	-0.26170036
67	0x3e795a55	0.24350865
68	0xbe84f30e	-0.25966686
69	0x3c20b363	0.009808394
70	0xbd85bc79	-0.06530089
71	0x3d7102b3	0.058840465
72	0xbd0efb7a	-0.034907795
73	0x3daa859b	0.083262645
74	0x3e50eaf3	0.20402126
75	0xbd86207e	-0.06549166
76	0xbb665817	-0.003514772
77	0xbd7a90b9	-0.061173175
78	0x3c86a11f	0.01643425
79	0xbd0ad4e7	-0.033894446
80	0xbc8745be	-0.016512748
81	0x3e34d289	0.17658438
82	0x3de8d7b5	0.11369268
83	0x3dc3035b	0.095221244
84	0xbe8925a3	-0.26786527
85	0xbd41e332	-0.04733581
86	0x3cc8b861	0.024501981
87	0xbda8c9bd	-0.082416035
88	0xbcd73716	-0.026271384
89	0xbe969e85	-0.29417816
90	0xbe660f38	-0.22466743
91	0xbdc6a79c	-0.09699938
92	0xbd2dd20d	-0.04243665
93	0x3c8ae57f	0.016955135
94	0xbce31929	-0.027721958
95	0xbde3dc7a	-0.11126037
96	0x3ea54759	0.32280996
97	0x3e2fac7c	0.17155641
98	0x3e38167e	0.1797733
99	0x3e9f3e11	0.3110204
100	0x3daf5ecd	0.08563004
101	0xbe8acb30	-0.27108145
102	0x3cd6713d	0.026177043
103	0xbd57d6cf	-0.05269509
104	0x3d15e458	0.03659472
105	0x3e83e439	0.25760058
106	0xbd268d2c	-0.040661976
107	0xbe172ecd	-0.14763947
108	0x3e3899f2	0.18027475
109	0x3e269b7b	0.16270249
110	0xbe9935cb	-0.29923853
111	0xbdc67e26	-0.0969203
112	0xbdb51938	-0.08842701
113	0x3c9565a6	0.018236946
114	0x3ca87c8b	0.0205672
115	0x3e995730	0.2994933
116	0xbd98995c	-0.07451126
117	0xbe39ce7f	-0.18145178
118	0x3d38c23f	0.045107123
119	0xbd145add	-0.036219466
120	0x3db6ab63	0.08919408
121	0x3dd76652	0.10517563
122	0x3e8e340d	0.27774087
123	0x3c2b1dff	0.010444163
124	0x3eb0b849	0.34515598
125	0xbd26b87a	-0.040703274
126	0xbd5bef29	-0.053694878
127	0xbe14569c	-0.14486164
128	0x3da85deb	0.082210384
129	0x3d955930	0.07292402
130	0x3da424d6	0.080148384
131	0xbd7d2603	-0.06180383
132	0xbc265f14	-0.010154504
133	0xbcb92c80	-0.022604227
134	0x3ce740e6	0.028229188
135	0x3e3334f4	0.17500669
136	0xbdd74725	-0.105116166
137	0xbde12d10	-0.10994923
138	0xbd652648	-0.05594471
139	0xbd448484	-0.04797794
140	0x3e2af33b	0.16694348
141	0x3d9e1176	0.07718174
142	0xbd3c8ef6	-0.046034776
143	0xbd994b80	-0.074851036
144	0xbe71e5ee	-0.23622867
145	0xbde0dcd4	-0.109796196
146	0x3e4498a1	0.19198848
147	0x3e00f8d9	0.12594928
148	0xbd58412b	-0.052796524
149	0x3e441b8e	0.19151136
150	0xbe31657d	-0.17323871
151	0x3d8ea5cb	0.06965216
152	0xbe72b950	-0.23703504
153	0x3ea09a0a	0.31367522
154	0xbda92d5d	-0.082606055
155	0x3dcb2e22	0.099209085
156	0x3ea764a9	0.32693985
157	0x3d2200eb	0.039551657
158	0xbdfc4788	-0.12318331
159	0x3c9cd699	0.019145297
160	0x3c076bca	0.008265445
161	0x3db110b6	0.086457655
162	0xbdf41310	-0.119176984
163	0xbd50b385	-0.050952453
164	0xbd8a6f32	-0.0675949
165	0xbe634428	-0.22193968
166	0xbe12dc72	-0.14341906
167	0xbda47260	-0.08029628
168	0xbd8eca96	-0.06972234
169	0xb9d69236	-0.00040926196
170	0x3d2912b4	0.041277602
171	0xbc6a8bfb	-0.0143156005
172	0xbdb49316	-0.08817117
173	0x3d0c2843	0.034218084
174	0xbd06d1c8	-0.032914907
175	0xbded641d	-0.11591361
176	0xbe1d6dcf	-0.1537392
177	0xbcaaf0d1	-0.020866783
178	0x3d355e39	0.04427931
179	0x3ddb4557	0.10706585
180	0xbda8fd69	-0.08251459
181	0xbda18cc0	-0.07888174
182	0x3da47763	0.08030584
183	0xbd3d7bfa	-0.04626081
184	0x3c98d7b6	0.018657546
185	0x3df081e0	0.11743522
186	0xbdff6f2e	-0.12472378
187	0x3d1cab37	0.03824922
188	0xbc4bb5f0	-0.012433514
189	0xbb18a689	-0.0023292622
190	0x3d21972f	0.03945082
191	0xbd9050b6	-0.070466444
192	0xbdc396c9	-0.09550244
193	0xbdb05584	-0.08610061
194	0xbd4d29a4	-0.05008854
195	0x3daec090	0.08532822
196	0xbdaf889c	-0.08570978
197	0xbd95197a	-0.0728025
198	0x3d57c9b9	0.052682612
199	0x3d0496aa	0.032370247
200	0xbd2f2f3e	-0.042769663
201	0xbda43178	-0.08017248
202	0x3d668d9e	0.0562874
203	0xbce024a9	-0.02736123
204	0x3bd100a4	0.00637825
205	0xbdb4dfd3	-0.088317536
206	0x3d956d62	0.07296254
207	0x3dbfd5bd	0.09366939
208	0xbd083244	-0.033251062
209	0x3dcf7d22	0.10131289
210	0x3d21f21e	0.03953754
211	0xbda38b16	-0.07985513
212	0xbdbcf41f	-0.0922625
213	0xbdd2a1aa	-0.10284741
214	0x3db0a445	0.08625082
215	0xbbe0633e	-0.006847768
216	0x3db50323	0.08838489
217	0x3dd4b0ef	0.1038531
218	0xbd84c38c	-0.0648261
219	0x3d0f7b66	0.03502979
220	0x3d3ec358	0.046573013
221	0xbd6be887	-0.057594802
222	0x3d8e3630	0.06943929
223	0x3dc44657	0.09583729
224	0x3db3062c	0.087414116
225	0xbd8f0f78	-0.06985372
226	0xbd439bfb	-0.047756176
227	0x3cba5a4e	0.022748139
228	0xbdb6bcbf	-0.08922719
229	0xbc6b8e7c	-0.014377233
230	0xbe064558	-0.1311239
231	0x3d626e4a	0.05528096
232	0x3d59760c	0.053091094
233	0x3d4846b0	0.048895538
234	0x3d9a069c	0.07520792
235	0x3c851809	0.016246812
236	0x3dddfe73	0.10839548
237	0x3df47a3a	0.11937375
238	0x3caf7fce	0.021423247
239	0x3dda1583	0.10648634
240	0x3d6d68f7	0.05796143
241	0x3d74dcc5	0.059780855
242	0x3cfac4e2	0.03061146
243	0xbda85af9	-0.08220477
244	0x3c89f437	0.016840084
245	0xbdd1c353	-0.10242333
246	0xbd1dfdd8	-0.038572162
247	0x3bdc3037	0.006719615
248	0xbdbcf3b5	-0.09226171
249	0x3cf74a71	0.030186864
250	0x3d944ae1	0.072408445
251	0xbd2246ca	-0.03961829
252	0xbe2aed57	-0.166921
253	0xbb6e2db0	-0.003634315
254	0xbdacbddf	-0.084346525
255	0xbe0f3e9a	-0.13988724

fc3.bias f4 [10]
0	0xbec18f4d	-0.37804642
1	0x3dcc9cce	0.099908456
2	0x3c3933d6	0.011303863
3	0x3e8395ec	0.2570032
4	0x3e0c130b	0.1367914
5	0xbdb7bbca	-0.08971365
6	0x3eb5fa3d	0.3554248
7	0xbe1f1b19	-0.1553768
8	0xbe1f68b5	-0.15567286
9	0x3c1ca1f0	0.009560093
