round1/2025-04-18 17:23:52-weight-client-0d92a151-d.pth (torch, 252478 bytes, 10 tensors)

conv1.weight f4 [6, 3, 5, 5]
0	0xbe0984b9	-0.13429536
1	0xbd4cbcfc	-0.049984917
2	0x3c4db250	0.01255472
3	0xbdd007f8	-0.1015777
4	0xbdb7e665	-0.08979491
5	0xbcf8cd25	-0.030371258
6	0xbd8e4de4	-0.0694845
7	0xbe81ce89	-0.25352886
8	0xbe38d5df	-0.18050335
9	0xbe4bd6fe	-0.19906232
10	0xbe9f51c6	-0.31117076
11	0xbe414d4d	-0.18877144
12	0xbe97698a	-0.29572707
13	0xbe855d01	-0.2604752
14	0xbe3f54cb	-0.1868469
15	0xbe04c4bd	-0.12965675
16	0xbea07d60	-0.31345654
17	0xbe3d106a	-0.18463293
18	0xbe8df111	-0.27722982
19	0xbe9b3661	-0.30314925
20	0xbe4c6ca2	-0.19963315
21	0xbdd38f97	-0.10330122
22	0xbd91e329	-0.071234055
23	0xbe6be776	-0.23037514
24	0xbe427d0b	-0.18993013
25	0x3d95d863	0.07316663
26	0x3c989c48	0.018629208
27	0x3de3df30	0.11126554
28	0x3e1ae805	0.15127571
29	0x3d9dc9c7	0.077045016
30	0xbcc92f61	-0.024558725
31	0x3dc41bf3	0.095756434
32	0xbb744ae8	-0.0037276093
33	0x3d01ae22	0.031660207
34	0xbd8dad25	-0.0691779
35	0xbe11c65e	-0.14235827
36	0xbe2638a1	-0.1623254
37	0xbba57a0a	-0.0050499486
38	0xbbdebcd9	-0.0067974147
39	0xbdf77f10	-0.12084782
40	0xbdf6abea	-0.12044509
41	0xbe1d1d2b	-0.15343158
42	0xbe70936a	-0.23493734
43	0xbe48b718	-0.19601095
44	0xbe17874a	-0.14797702
45	0xbcadce09	-0.02121641
46	0xbe144990	-0.14481187
47	0xbdb85626	-0.090008065
48	0xbb9ccdd8	-0.0047852807
49	0xbd8331fa	-0.06406017
50	0x3ef3ac5d	0.4759244
51	0x3ef6905f	0.4815702
52	0x3f0081d8	0.50198126
53	0x3ed6ceac	0.41954553
54	0x3eec8432	0.46194607
55	0x3ee04edd	0.43810168
56	0x3ea57f1a	0.32323533
57	0x3eaa397f	0.3324699
58	0x3e7bc001	0.24584962
59	0x3e3c07a2	0.18362287
60	0x3df44c21	0.11928583
61	0x3e393191	0.18085314
62	0x3e68bd1a	0.22728387
63	0x3e8ec6b0	0.27885962
64	0x3e7a453a	0.2444047
65	0x3e4c1d60	0.1993308
66	0x3dd314ad	0.10306678
67	0x3e2a97cf	0.16659473
68	0x3de0a51e	0.109689936
69	0x3e90759f	0.28214738
70	0x3e0a339f	0.13496254
71	0x3e04837b	0.12940781
72	0x3e78f655	0.24312718
73	0x3de389cf	0.11110269
74	0x3e6e38b8	0.23263824
75	0xbe4b4bf0	-0.19853187
76	0x3d102ea4	0.03520073
77	0xbe8755bb	-0.26432595
78	0xbddd4af5	-0.108053125
79	0xbe8319af	-0.25605533
80	0x3d501fd3	0.0508116
81	0x3da37242	0.07980777
82	0xbe16dc25	-0.14732416
83	0x3d04bf7a	0.03240917
84	0xbe74313d	-0.23846908
85	0x3daab600	0.08335495
86	0x3c327c47	0.010893888
87	0xbdd57d01	-0.10424233
88	0x3e0704cf	0.13185428
89	0xbdcb839d	-0.099372126
90	0x3b15c506	0.002285303
91	0xbbebedcf	-0.00719998
92	0x3bedd5ad	0.007258138
93	0xbd95e177	-0.07318395
94	0xbe2689fa	-0.16263571
95	0x3cb4069f	0.021975813
96	0xbbd32460	-0.006443545
97	0x3ce591c8	0.028023615
98	0xbd42fac9	-0.04760245
99	0xbd64282c	-0.055702373
100	0x3ecf480b	0.40484652
101	0x3edae17c	0.42750156
102	0x3eac5f9e	0.336667
103	0x3e90ac6b	0.28256544
104	0x3d3e6f74	0.04649301
105	0x3e998207	0.29982015
106	0x3ef40c5c	0.4766568
107	0x3ebb0990	0.36530733
108	0x3e9b99f1	0.30390885
109	0x3d9ea806	0.07746892
110	0x3e6e9d39	0.23302163
111	0x3e900eba	0.28136235
112	0x3ec19728	0.37810636
113	0x3e85e883	0.26153955
114	0x3e8c098d	0.27351037
115	0x3eaafa23	0.33393964
116	0x3ecc9955	0.39960733
117	0x3e92f3d7	0.2870166
118	0x3ea75fd1	0.3269029
119	0x3d93f9ba	0.07225366
120	0x3ea8384a	0.32855445
121	0x3eb214da	0.34781533
122	0x3e3ac890	0.18240571
123	0x3dc51030	0.09622228
124	0x3dbd7d93	0.09252467
125	0xbe82e8d4	-0.2556826
126	0xbe5db99c	-0.21652836
127	0xbe295a6c	-0.165384
128	0xbe5e386b	-0.21701209
129	0xbe686274	-0.22693807
130	0xbdf42bfe	-0.11922453
131	0xbc62ab49	-0.013834783
132	0xbdde0bd3	-0.10842099
133	0xbd99bf12	-0.07507147
134	0xbe67724c	-0.22602195
135	0xbe2ad6de	-0.16683528
136	0xbde3d586	-0.11124711
137	0xbde18442	-0.11011554
138	0xbde9e5d7	-0.114207916
139	0xbeade5c5	-0.33964363
140	0xbea21e0d	-0.31663552
141	0xbe55ebf2	-0.20890787
142	0xbd751bcd	-0.059840966
143	0xbe5b67c9	-0.2142631
144	0xbedbc1ca	-0.42921287
145	0xbe532830	-0.20620799
146	0xbe8b949b	-0.27261814
147	0xbdc7f5b4	-0.09763661
148	0xbea84904	-0.32868207
149	0xbed5f56c	-0.41788805
150	0xbe8a0a46	-0.26960963
151	0xbe44949a	-0.19197312
152	0xbeb5fd69	-0.355449
153	0xbe7d0bc0	-0.24711514
154	0xbe83b9cf	-0.25727698
155	0xbe58a386	-0.21156129
156	0xbe1c39c0	-0.15256405
157	0xbe5d4537	-0.21608435
158	0xbe498613	-0.19680052
159	0xbe7a5f75	-0.24450476
160	0xbe7955ee	-0.24349186
161	0xbe491628	-0.19637358
162	0xbe1ee313	-0.1551631
163	0xbdc127bd	-0.094314076
164	0xbdcca26a	-0.099919155
165	0x3ae243a1	0.0017262587
166	0xbddc3286	-0.10751824
167	0xbd7013c9	-0.05861262
168	0xbe1345d1	-0.14382102
169	0xbca86687	-0.020556701
170	0xbde15c13	-0.1100389
171	0xbd31dcd6	-0.043423496
172	0x3a8d59e1	0.0010784232
173	0x3dc8f0f9	0.09811587
174	0xbd865b2a	-0.06560357
175	0xbe6e668a	-0.23281303
176	0xbe6086d0	-0.21926427
177	0xbdb757c0	-0.08952284
178	0xbe3099f2	-0.17246225
179	0xbd62f286	-0.05540707
180	0xbe1cc706	-0.15310296
181	0xbcc846c5	-0.024447808
182	0xbda663e4	-0.081245214
183	0xbda73038	-0.08163494
184	0xbd011152	-0.03151066
185	0xbd8f6308	-0.070013106
186	0xbd4c3edc	-0.049864635
187	0xbc7d0e31	-0.015445278
188	0x3c1e4745	0.009660547
189	0xbdd653e6	-0.10465221
190	0xbd8b9ebc	-0.068173856
191	0x3cebba46	0.028775346
192	0x3d105052	0.03523285
193	0xbcac6b90	-0.021047384
194	0xbdeacf41	-0.11465312
195	0xbe16ac16	-0.14714083
196	0xbd103b77	-0.03521296
197	0xbd5f5513	-0.054524492
198	0xbd95b4b9	-0.07309861
199	0xbd9af4c8	-0.075662196
200	0x3eb20150	0.34766626
201	0x3e286d34	0.16447908
202	0x3e9cb38d	0.30605736
203	0x3e8c4350	0.27395105
204	0x3e33d44c	0.17561454
205	0x3ec9848b	0.39358935
206	0x3e8e176b	0.27752241
207	0x3ec2a1d3	0.38014087
208	0x3eb656b5	0.35613027
209	0x3e93bf43	0.2885686
210	0x3ebf9c09	0.37423733
211	0x3ec78bc0	0.38973808
212	0x3ea5d81f	0.3239145
213	0x3e8f0b8a	0.2793849
214	0x3e7fc4f6	0.24977478
215	0x3eb1bbf5	0.34713712
216	0x3ed40927	0.41413233
217	0x3ee67f36	0.4501893
218	0x3ecc2bcc	0.39877164
219	0x3ee65087	0.44983312
220	0x3eb439d4	0.3520037
221	0x3e84b4b8	0.25919127
222	0x3e968743	0.29400072
223	0x3ea41a8b	0.320515
224	0x3e87ae93	0.26500377
225	0xbea89207	-0.3292391
226	0xbe6cf230	-0.23139262
227	0xbe376aee	-0.17911884
228	0xbe99e796	-0.300595
229	0xbed2da17	-0.41182014
230	0xbe971859	-0.29510763
231	0xbdd4e1d7	-0.10394638
232	0xbe1f08ff	-0.15530775
233	0xbda0c367	-0.0784977
234	0xbe7e950e	-0.24861547
235	0xbd2856b3	-0.041098308
236	0x3d27a7a4	0.04093136
237	0xbce966d3	-0.028491413
238	0xbd1bbed9	-0.038023803
239	0x3badcdea	0.005304088
240	0x3e376ac9	0.17911829
241	0x3df74164	0.12073019
242	0x3de58ccc	0.112084955
243	0x3e6e1674	0.23250753
244	0x3e42440a	0.18971267
245	0x3e4e6467	0.20155488
246	0x3ea0fff5	0.3144528
247	0x3e82f439	0.25576952
248	0x3e8016d1	0.25017408
249	0x3e7de795	0.24795373
250	0x3ddeb6ab	0.10874685
251	0x3e3b0c58	0.18266428
252	0x3e1c3b08	0.15256894
253	0x3e013812	0.12619045
254	0x3d5c5404	0.05379106
255	0x3d6f9436	0.058490954

conv1.bias f4 [6]
0	0xbe1cf61f	-0.15328263
1	0x3ee54c4f	0.4478478
2	0xbf6b47ae	-0.9190625
3	0xbfa646e6	-1.2990386
4	0x3bff17dd	0.007784827
5	0xbebe9cfa	-0.3722914

conv2.weight f4 [16, 6, 5, 5]
0	0xbd02c939	-0.031930182
1	0x3c99cab4	0.018773414
2	0x3bc79011	0.006090172
3	0xbd972bc2	-0.07381393
4	0x3cbfb743	0.023402816
5	0x3d9aee84	0.075650245
6	0x3c7059dc	0.014669862
7	0xbd71f469	-0.05907098
8	0xbb86de7d	-0.004115878
9	0xbcf24cf8	-0.029577717
10	0xbd01d036	-0.031692706
11	0xbc803ae7	-0.015653087
12	0x3c9c9ba9	0.019117193
13	0xbd5a87ef	-0.053352293
14	0xbd68baf2	-0.05681891
15	0x3cb7d6b0	0.022441238
16	0x3d07f3c0	0.033191442
17	0xbd21d596	-0.039510332
18	0x3b365952	0.0027824235
19	0x3cfe231f	0.031022606
20	0x3d463b8b	0.04839663
21	0x3d87b3b6	0.06626074
22	0xbb239e36	-0.0024966127
23	0x3da04bef	0.07826983
24	0xbd5cfbe3	-0.053951155
25	0xbc8873b5	-0.016656736
26	0x3d7d4427	0.061832573
27	0xbb92e07d	-0.0044823275
28	0x3d48cf6f	0.04902595
29	0x3d1dc57b	0.03851841
30	0xbcb791fe	-0.022408482
31	0xbd412495	-0.047154028
32	0xbd9b4eef	-0.07583415
33	0x3d02bf85	0.03192093
34	0x3ce3cca0	0.027807534
35	0xbd6b89e5	-0.057504553
36	0x3d86925d	0.06570885
37	0x3cd62153	0.026138937
38	0x3d561c02	0.052272804
39	0xbc78138f	-0.015141382
40	0xbda16710	-0.07880986
41	0xbcf2ec23	-0.029653614
42	0xbd87a3bb	-0.06623026
43	0x3d3dd9ff	0.046350475
44	0xbd897153	-0.06711068
45	0xbd99e469	-0.07514269
46	0x3d32e4a5	0.043675084
47	0xbcc1f3a6	-0.023675751
48	0xbd2243cb	-0.039615434
49	0xbd88913c	-0.06668326
50	0xbd75f03c	-0.06004356
51	0xbcfae544	-0.0306269
52	0xbd8b8b06	-0.06813626
53	0x3c1b8d7b	0.009494181
54	0xbda47d6e	-0.08031736
55	0x3d30a8ef	0.043129858
56	0x3d526951	0.05136997
57	0x3cd12b11	0.025533231
58	0xbc9fcfbb	-0.019508233
59	0xbd9b36bf	-0.07578801
60	0xbda2ac09	-0.07942969
61	0xbd3519a4	-0.044213906
62	0xbd507b0d	-0.0508986
63	0x3ca36f38	0.019950494
64	0x3d3a7dbd	0.04553007
65	0xbd937f90	-0.07202065
66	0xbd94526f	-0.072422855
67	0x3cb43dac	0.022002064
68	0xbd28799e	-0.04113161
69	0xbd342432	-0.04397983
70	0xbd353227	-0.044237282
71	0xbd6d757e	-0.057973377
72	0xbd82f7c8	-0.06394917
73	0x3d05dd6f	0.03268188
74	0xbd8241df	-0.0636022
75	0xbd10ffc2	-0.03540016
76	0xbd12f24d	-0.035875607
77	0xbd11dd07	-0.03561118
78	0x3ab38e30	0.0013698991
79	0x3d77901e	0.060440175
80	0x3d7c8a23	0.061655175
81	0x3d7f994f	0.062402066
82	0xbd942039	-0.072327085
83	0xbda36207	-0.079776816
84	0x3d889147	0.066683345
85	0xbb86936e	-0.0041069305
86	0x3c9c59f2	0.019085858
87	0xbd3eba5e	-0.046564452
88	0xbd9ee620	-0.077587366
89	0x3d8ebafc	0.06969258
90	0xbcadccde	-0.021215852
91	0xbd7c7bad	-0.061641384
92	0xbd9e03f0	-0.07715595
93	0x3d5073bf	0.050891634
94	0x3c08cf5e	0.008350221
95	0xbd074ac3	-0.033030283
96	0x3c97af0e	0.01851609
97	0xbd8fb126	-0.0701621
98	0xbc83c865	-0.016086766
99	0xbcb14fb5	-0.021644453
100	0x3d8ff814	0.07029739
101	0x3d93de7d	0.07220171
102	0xbd21828a	-0.039431132
103	0x3d9a1c29	0.075249024
104	0xbd9d89e5	-0.07692317
105	0xbda6db23	-0.08147266
106	0x3b6e22b9	0.0036336614
107	0x3c8867b2	0.016651008
108	0x3b439644	0.0029844204
109	0xbd1ed653	-0.038778614
110	0x3c98cad2	0.0186514
111	0x3d15ddea	0.036588587
112	0xbda09699	-0.07841224
113	0x3d828e74	0.06374827
114	0x3d45dcff	0.04830646
115	0x3b96f770	0.0046071336
116	0x3d74f11d	0.059800256
117	0xbd2a8cd4	-0.04163821
118	0xbc0ee4b3	-0.008721518
119	0xbcc97b5a	-0.024594951
120	0x3cb77d2e	0.022398558
121	0x3d30b35d	0.043139804
122	0x3d05c599	0.032659147
123	0x3d6190b9	0.05506966
124	0xbd587640	-0.052847147
125	0xbd7d0e3e	-0.06178116
126	0xbd87f2df	-0.06638121
127	0x3d093520	0.03349793
128	0x3c0027bf	0.007821976
129	0x3d332205	0.043733615
130	0x3b7c4181	0.0038491192
131	0xbcbf2819	-0.02333455
132	0x3ccfd3cf	0.025369553
133	0xbd2863bf	-0.04111075
134	0x3ced0bae	0.028936233
135	0xbaa4bd69	-0.0012568656
136	0xbd1aba6c	-0.037775442
137	0x3d049bd7	0.032375183
138	0x3ce7bc36	0.028287988
139	0xbc883702	-0.016627792
140	0x3c6ea64e	0.014566017
141	0x3d9ee7cf	0.07759058
142	0x3d3215a1	0.04347766
143	0x3da2dc93	0.079522274
144	0x3d6a42d5	0.057192642
145	0x3d1afc55	0.0378383
146	0xbc444bbe	-0.011980949
147	0x3cdbf4d8	0.026850149
148	0xbd4b4d85	-0.049634475
149	0xbd84460f	-0.06458675
150	0x3ba14399	0.0049213883
151	0xbdaeabd1	-0.08528865
152	0xbd4f6cdd	-0.05064093
153	0xbcbf27d1	-0.023334416
154	0xbd3c2242	-0.04593111
155	0xbcca86ed	-0.02472254
156	0x3c39f054	0.011348803
157	0xbcdc06d3	-0.026858723
158	0xbd9852de	-0.07437681
159	0x3a3e8482	0.000726767
160	0x3ccfd121	0.025368275
161	0xbbed2c8c	-0.0072379764
162	0xbbe4729c	-0.0069716703
163	0xbc9d18ae	-0.019176807
164	0xbd419a1b	-0.047266107
165	0xbd994085	-0.07483009
166	0x393b5e4f	0.00017868842
167	0xbcf5a9c5	-0.029988179
168	0xbe0b7f9e	-0.13622901
169	0xbe3096d8	-0.17245042
170	0x3c98d6a0	0.018657029
171	0xbe02fbaa	-0.12791315
172	0xbe0ec99a	-0.13944092
173	0xbdfac305	-0.12244228
174	0xbe2f8f57	-0.17144524
175	0xbdaf90ca	-0.08572538
176	0xbda55052	-0.080719605
177	0x3ccce614	0.025012054
178	0x3dd9b247	0.10629707
179	0x3dedd6df	0.11613249
180	0xbe031758	-0.12801874
181	0xbd0d640e	-0.034519248
182	0xbd960965	-0.073260106
183	0x3d51411c	0.051087484
184	0x3d898d25	0.06716374
185	0xbd25c2c9	-0.040468965
186	0xbd8cc98d	-0.0687438
187	0xbb32a68d	-0.0027259917
188	0x3d091569	0.033467684
189	0xbd260a1e	-0.040536992
190	0x3bc0c079	0.0058823195
191	0x3d1c6b27	0.038188126
192	0x3d2fd161	0.04292429
193	0x3dad9dab	0.084773384
194	0x3d2a7609	0.041616473
195	0x3d257565	0.04039516
196	0xbc400552	-0.011720018
197	0x3d06d51d	0.032918084
198	0x3deef274	0.11667338
199	0x3e1bd81a	0.15219155
200	0xbd9902a6	-0.07471208
201	0xbdbdd431	-0.09268988
202	0xbd86da18	-0.06584567
203	0xbd8d1e43	-0.068905376
204	0xbdb29034	-0.08718911
205	0x3cb77e18	0.022398993
206	0xbdda9355	-0.106726326
207	0xbac3d0d8	-0.001493956
208	0xbd689234	-0.056780055
209	0xbd736710	-0.05942446
210	0xbceae023	-0.02867133
211	0xbdea8f66	-0.11453132
212	0xbcefdb4b	-0.029279372
213	0x3d0c3086	0.034225963
214	0xbdb8dbfd	-0.090263344
215	0xbd91bd22	-0.07116152
216	0x3d00eba7	0.031474736
217	0xbdcd4852	-0.1002356
218	0xbdbd0e47	-0.09231239
219	0xbc94b1e5	-0.018151233
220	0xbce16dc3	-0.027518159
221	0xbbe219cc	-0.006900048
222	0xbc00c04c	-0.007858347
223	0xbdad8585	-0.084727325
224	0xbdc982d8	-0.098394096
225	0xbe57268a	-0.21010795
226	0xbce6c84e	-0.028171685
227	0x3e36898c	0.17825907
228	0x3e468f1b	0.19390528
229	0x3e29b099	0.16571273
230	0xbe0d5fec	-0.13806123
231	0xbbc1fdaf	-0.005920134
232	0x3dd8a0b9	0.105775304
233	0x3d447e15	0.047971804
234	0x3e1a54d5	0.15071423
235	0xbe0729b1	-0.13199498
236	0x3c6629f3	0.014048087
237	0x3d69fb1a	0.057124235
238	0x3d9ef818	0.07762164
239	0x3dd10dd9	0.10207719
240	0xbe127214	-0.1430133
241	0x3d8582a6	0.0651906
242	0x3d58a75c	0.05289398
243	0x3db1fbff	0.086906426
244	0x3cd2ac41	0.025716903
245	0xbddad30a	-0.10684784
246	0xbd0f0832	-0.034919925
247	0x3a319821	0.0006774683
248	0x3d4bdf5c	0.04977356
249	0x3bd086b6	0.006363715
250	0xbc904b58	-0.017614052
251	0x3d214fc1	0.0393827
252	0x3d8198cf	0.06327974
253	0x3d2476a0	0.040152192
254	0x3c45b118	0.012066148
255	0xbcfe2d44	-0.031027444

conv2.bias f4 [16]
0	0xbc9eeb74	-0.019399382
1	0xbd1d2408	-0.03836444
2	0x3dc829fd	0.09773634
3	0x3dfa84fc	0.12232396
4	0x3c1ba982	0.009500863
5	0xbdbbc0c4	-0.091676265
6	0xbd89be2c	-0.067257255
7	0xbd267ae3	-0.040644538
8	0xbde4cf15	-0.1117231
9	0xbe3f7391	-0.18696429
10	0x3ce1eb1b	0.027577927
11	0xbc477a35	-0.0121751325
12	0x3e1206a0	0.1426034
13	0xbeadbd10	-0.33933306
14	0xbe0f5558	-0.139974
15	0x3d0ef21b	0.03489886

fc1.weight f4 [120, 400]
0	0x3d2daac0	0.042399168
1	0x3c783858	0.015150152
2	0x3d0e9e2a	0.034818806
3	0xbcdc7b9a	-0.026914407
4	0xbcda0c61	-0.02661723
5	0xbd337c13	-0.0438195
6	0x3d296775	0.04135843
7	0x3c681147	0.0141642755
8	0xbd1efef4	-0.03881736
9	0x3c8182ac	0.01580938
10	0xbcea0f13	-0.028571641
11	0xbd0a637d	-0.033786286
12	0x3a8b2d68	0.001061839
13	0xbd3d4ca0	-0.046215653
14	0xbc948998	-0.018132016
15	0xbd1a402b	-0.03765885
16	0x3bb85bf6	0.005626197
17	0xbca4a00c	-0.020095848
18	0x3ba23336	0.0049499525
19	0x3d32abec	0.04362099
20	0x3d06e5b5	0.03293391
21	0x3ce4dba8	0.027936772
22	0xbd32bdfd	-0.04363822
23	0x3c7b5180	0.015339255
24	0xbd46e8d1	-0.048561875
25	0x3cf0856a	0.029360492
26	0x3aa0fa62	0.0012281651
27	0xbcf3f755	-0.029781023
28	0x3b30c2fd	0.002697169
29	0xbc1a882b	-0.009431879
30	0xbca13f91	-0.019683631
31	0xbcc1fe4a	-0.023680825
32	0xbd031db2	-0.03201074
33	0xbbd8932e	-0.006609342
34	0xbce26693	-0.027636802
35	0xbc757349	-0.014981099
36	0xbd7cb64f	-0.0616973
37	0xbcd9f4e8	-0.026606038
38	0xbd1c48ee	-0.03815549
39	0xbcf0f21c	-0.029412322
40	0x3d01b1ef	0.03166383
41	0xbbb7561b	-0.0055949814
42	0xbd09d204	-0.033647552
43	0x3c923020	0.017845213
44	0x3d1df4da	0.038563587
45	0x3d54841d	0.051883806
46	0x3baf6329	0.005352397
47	0x3d2cbb41	0.042170767
48	0x3dde223e	0.10846375
49	0x3d03714f	0.03209048
50	0xbdb3fa4c	-0.08787975
51	0x3cb0ce8f	0.02158287
52	0x3b62d9eb	0.0034614753
53	0x3c179673	0.0092521785
54	0x3cb493f1	0.0220432
55	0x3974d79f	0.00023349978
56	0x3d63f3f7	0.055652585
57	0x3d6d96b9	0.05800507
58	0x3ccf4106	0.02529956
59	0xbcb03160	-0.021507919
60	0x39c17004	0.00036895287
61	0x3d870e5e	0.06594537
62	0x3d105d0f	0.035244998
63	0xba4a074a	-0.00077067746
64	0xbc500e4f	-0.012698724
65	0xbd3205ba	-0.043462493
66	0x3c5f3621	0.013623745
67	0x3b85d604	0.0040843505
68	0xbbfa8684	-0.00764543
69	0xbcd563af	-0.02604851
70	0xbd2037e6	-0.03911581
71	0x3d3f3bf5	0.04668804
72	0x3d99027b	0.07471176
73	0xbd0f2f57	-0.034957256
74	0xbd3dd1ea	-0.046342768
75	0xbdc27119	-0.09494228
76	0xbda40220	-0.08008218
77	0xbd9c1ddb	-0.07622882
78	0xbda595ac	-0.08085188
79	0xbe297786	-0.16549501
80	0xbc9ff82a	-0.019527514
81	0xbc05caff	-0.008166074
82	0xbb3a98ad	-0.002847235
83	0x3c0af59a	0.008481408
84	0xbd920eb3	-0.0713171
85	0xbd41abb9	-0.047282908
86	0xbd2309fa	-0.039804436
87	0xbc93ac00	-0.018026352
88	0x3d3766f8	0.044775933
89	0xbc1871bc	-0.00930446
90	0xbcc011ed	-0.023446048
91	0x3a454a05	0.00075259834
92	0x3d8a9645	0.06766943
93	0x3d65c424	0.056095257
94	0xbd8bed71	-0.06832398
95	0xbd60dc3f	-0.054897543
96	0xbcf940f4	-0.03042648
97	0xbc7452fa	-0.014912361
98	0xbd97aaa2	-0.074055925
99	0xbd99b4df	-0.075052015
100	0xbd414461	-0.04718435
101	0x3d958744	0.073011905
102	0x3cca50ce	0.024696734
103	0xbb7d57cd	-0.003865707
104	0xbd88e17c	-0.06683633
105	0x3d06bf6f	0.03289741
106	0x3d4e6557	0.050389614
107	0x3d8e2cab	0.069421135
108	0xbce13b00	-0.027493954
109	0xbce4924f	-0.027901797
110	0x3ce3fcf5	0.02783058
111	0x3c4fbb4c	0.012678932
112	0x3d1ff209	0.039049182
113	0xbac7689e	-0.0015213673
114	0x3d116e45	0.03550555
115	0xbc454d50	-0.0120423585
116	0x3c367a9f	0.011137634
117	0xbd522df9	-0.051313374
118	0xbd248bf6	-0.04017254
119	0xbd019213	-0.031633448
120	0x3d153345	0.036425848
121	0xbd3763ed	-0.04477303
122	0xbca34497	-0.019930167
123	0xbc0839ac	-0.008314531
124	0xbadafc43	-0.001670726
125	0xbda80ffe	-0.08206175
126	0xbd210b96	-0.03931769
127	0x3caeac79	0.021322476
128	0xbd8b1f51	-0.067930825
129	0xbd8bdd31	-0.06829298
130	0x3d13d20b	0.036088984
131	0x3d999a5c	0.07500145
132	0x3d947898	0.07249564
133	0x3d42233d	0.047396887
134	0xbcd92e4d	-0.026511336
135	0xbcad21f2	-0.02113435
136	0xbd5b9b7e	-0.053615086
137	0x3d14f1c0	0.036363363
138	0x3d12c0c8	0.03582838
139	0xbca272de	-0.019830164
140	0x3b10d45a	0.0022099228
141	0x3c8d3739	0.017238246
142	0x3ccbc31a	0.024873305
143	0xbc12ef90	-0.008968249
144	0x3d8d209d	0.06890986
145	0x3cac487a	0.021030653
146	0x3cf32a98	0.029683396
147	0xbc16126c	-0.009159666
148	0x3d8611ab	0.06546339
149	0x3d8c6fbc	0.06857249
150	0xbc1889a4	-0.00931016
151	0xbcd5992c	-0.026074015
152	0x3cf32b27	0.029683663
153	0x3d188ec1	0.037245516
154	0xbb4f7607	-0.0031656043
155	0xbd008e9b	-0.031386
156	0xbce5c251	-0.028046759
157	0xbc60ba12	-0.013716238
158	0x3c7fb669	0.015607455
159	0x3cf18dcf	0.029486565
160	0xbd04c321	-0.032412652
161	0xbc575ed3	-0.013145166
162	0xbd1f4c48	-0.038891107
163	0xbd43584a	-0.04769162
164	0xbb1f2d20	-0.0024288371
165	0x3c497d22	0.0122979
166	0x3c8ce286	0.017197859
167	0xbc9a21ac	-0.018814884
168	0x3d0d6a83	0.034525406
169	0xbd334ddb	-0.04377542
170	0x3cf6c919	0.030125188
171	0xbd013d42	-0.03155256
172	0xbd40c2c4	-0.047060743
173	0xbd469134	-0.04847832
174	0xbc173ae4	-0.009230349
175	0xbc03196f	-0.008001669
176	0xbc0f88bc	-0.008760627
177	0x3b8decca	0.004331206
178	0xbbb9a938	-0.0056659244
179	0xbd0b3c05	-0.033992786
180	0xbd591f29	-0.053008232
181	0x3d072344	0.032992616
182	0x3d1211a5	0.03566136
183	0xbd342a74	-0.0439858
184	0xbb7fcd7d	-0.0039032393
185	0xbd1c1168	-0.038102537
186	0x3d0af180	0.03392172
187	0xbbbd5d13	-0.0057789176
188	0xbd1044f6	-0.035222016
189	0xbc286307	-0.010277516
190	0x3cff2feb	0.031150779
191	0xbb7db987	-0.003871532
192	0xbd52fa96	-0.05150851
193	0xbcc983f4	-0.024599053
194	0xbc31fc54	-0.010863382
195	0xbbb10b71	-0.0054029753
196	0x3c44696f	0.011988028
197	0xbcbc4a15	-0.022984544
198	0x3c9df945	0.0192839
199	0xbd420eb4	-0.047377303
200	0xbd623108	-0.05522254
201	0x3bd8654b	0.006603872
202	0x3c524266	0.012833213
203	0xbd819892	-0.063279286
204	0xbba87f3e	-0.0051421216
205	0xbc50322f	-0.012707277
206	0x3b3c978e	0.0028776857
207	0xbd13fa8f	-0.036127623
208	0xbd96a0f9	-0.07354922
209	0x3c2c8320	0.0105293095
210	0xbd82cb4c	-0.06386432
211	0x3c9ef891	0.019405635
212	0xba03dbc6	-0.0005030002
213	0xbda88582	-0.082285896
214	0xbd2d507a	-0.042313077
215	0xbc479fa1	-0.012184055
216	0x3cc2e72f	0.023791878
217	0x3d50c949	0.05097321
218	0x3c5d8b50	0.013521984
219	0xbd8a16ee	-0.06742655
220	0xbd4e1776	-0.050315343
221	0x3d3ff740	0.046866655
222	0x3d0c45a8	0.034246117
223	0xbd504312	-0.050845213
224	0xbd8190ad	-0.06326423
225	0xbd8cf83a	-0.06883283
226	0x3d1ae9ea	0.037820734
227	0xbc22faf4	-0.009947527
228	0x3be4796f	0.006972484
229	0xbd3318de	-0.043724887
230	0x3ab86a25	0.001406972
231	0x3d5ffb23	0.054682862
232	0x3c9d56ec	0.019206487
233	0x3b96cecb	0.0046022884
234	0xbd316c51	-0.04331619
235	0x3cf477d0	0.029842287
236	0xbd5737cc	-0.052543446
237	0x3cb2b464	0.021814533
238	0x3cf66afc	0.030080311
239	0x3c1e85ca	0.0096754525
240	0xbd1f2dc7	-0.038862016
241	0xbd8ca719	-0.06867809
242	0xbceb4648	-0.028720036
243	0x3d69357f	0.056935783
244	0x3d068a17	0.032846536
245	0xbd77d02a	-0.060501255
246	0x3c1a289f	0.009409099
247	0xbd5ba8df	-0.053627845
248	0x3d0fed9a	0.035138704
249	0xbd6b55bf	-0.05745482
250	0x3c6a93d7	0.014317474
251	0x3bdb0efd	0.0066851364
252	0x3d8e2143	0.06939938
253	0xbbcde62a	-0.006283541
254	0xbc150b04	-0.009096865
255	0x3d47e944	0.048806444

fc1.bias f4 [120]
0	0x3d9f8354	0.07788721
1	0x3d808b4a	0.06276567
2	0x3d330095	0.043701727
3	0xbd4f7b9a	-0.050654985
4	0xbd4a9238	-0.04945585
5	0xbd426df3	-0.047468137
6	0x3d2a9eee	0.041655473
7	0xbc1f103a	-0.009708459
8	0xbd84e3e7	-0.064887814
9	0xbd507756	-0.050895058
10	0xbd7a2925	-0.061074395
11	0x3d02eb8a	0.03196291
12	0xbd5dc9d6	-0.054147564
13	0x3cd2869f	0.025698958
14	0x3c96fa82	0.018429998
15	0x3cd371ca	0.025811095
16	0xbc324da7	-0.010882772
17	0x3d293ca4	0.041317597
18	0xbd228fb9	-0.039687846
19	0x3d527d63	0.05138911
20	0x3b125301	0.0022327306
21	0x3d31039b	0.04321633
22	0x3cb02f0c	0.021506809
23	0x3d9e4799	0.077285
24	0xbbc3cc6f	-0.005975298
25	0x3c36d867	0.011159993
26	0xbb9e5ead	-0.0048330636
27	0x3c918342	0.017762784
28	0xbba25350	-0.0049537793
29	0x3d43a531	0.04776496
30	0xbd73cd11	-0.05952174
31	0xbd198c81	-0.03748751
32	0x3db89be9	0.090141125
33	0xbcf27285	-0.029595623
34	0x3cca98e4	0.024731107
35	0xbdfc7264	-0.12326506
36	0x3d888350	0.06665671
37	0x3d28ed49	0.041241918
38	0xbca5ff3b	-0.020263305
39	0xbcc087b1	-0.023502203
40	0xbd339487	-0.04384282
41	0xbc008659	-0.007844531
42	0xbcdfe336	-0.027330022
43	0xbd45d0da	-0.04829488
44	0x3cbb5c10	0.022871047
45	0xbcbd0270	-0.023072451
46	0xbcaf80db	-0.021423748
47	0xbb512410	-0.0031912364
48	0x3db25183	0.087069534
49	0x3c3118c7	0.01080913
50	0xbd6d4908	-0.057930976
51	0xbc9103a8	-0.017701939
52	0x3d19b4c0	0.037525892
53	0x3d064b72	0.032786794
54	0x3ac16da8	0.0014757412
55	0x3d0adcfc	0.033902153
56	0x3b1d45c5	0.0023997885
57	0x3c72927f	0.014805435
58	0x3ca55ed4	0.02018682
59	0x3cfe8848	0.031070843
60	0x3a3b94de	0.0007155667
61	0xbb867370	-0.0041031167
62	0xbd329809	-0.043602023
63	0x3d3fd8b0	0.04683751
64	0xbd3647c5	-0.04450204
65	0x3d7bf868	0.061516196
66	0x3b2c0dd2	0.0026253355
67	0x3d339cf5	0.043850858
68	0xbd1e9aac	-0.038721725
69	0x3d89eb7f	0.067343704
70	0x3cee2eda	0.029075075
71	0x3d049963	0.032372843
72	0x3d870504	0.065927535
73	0x3cc49038	0.02399455
74	0x3d6dea1a	0.058084585
75	0x3d1a1c4d	0.037624646
76	0xbd73976a	-0.05947057
77	0xbc8dd187	-0.017311824
78	0xbcfaf824	-0.0306359
79	0xbcb91af6	-0.022595864
80	0x3ca89fe6	0.020584058
81	0xbd35189a	-0.044212915
82	0x3ca12e4e	0.0196754
83	0x3d2ae42f	0.04172152
84	0x3d8cd240	0.068760395
85	0xbd2e3195	-0.042527754
86	0x3d02dffc	0.03195189
87	0x3ce413c9	0.027841466
88	0xbcb2008a	-0.021728773
89	0x3d4833c5	0.048877496
90	0x3d26da10	0.040735304
91	0x3cb50b1f	0.02210003
92	0x3d5c9e75	0.053862054
93	0x3d507f07	0.050902393
94	0x3c778f52	0.015109854
95	0xbcd00a8a	-0.02539565
96	0xbd3e746e	-0.046497755
97	0x3cc19432	0.023630235
98	0xbd974476	-0.07386105
99	0xbddaa06b	-0.106751285
100	0x3bcd8c14	0.006272802
101	0xbd95c4ce	-0.07312928
102	0x3d1b7f19	0.037963007
103	0x3d51f008	0.051254302
104	0x3d013025	0.031540055
105	0xbd88e3d0	-0.06684077
106	0x3c38fb0f	0.011290326
107	0xbc9a93a7	-0.018869234
108	0x3b390e86	0.0028237416
109	0x3d3b3709	0.045706782
110	0xbd5aaf36	-0.05338975
111	0x3c438f50	0.011936024
112	0xbd1bd1b2	-0.038041778
113	0x3cde680c	0.027149223
114	0xbcd64cbc	-0.026159637
115	0x3c10e2c1	0.008843125
116	0x3d9e0ab7	0.077168874
117	0x3d765808	0.060142547
118	0xbd460419	-0.04834375
119	0xbc829663	-0.01594085

fc2.weight f4 [84, 120]
0	0x3c7c7622	0.015409024
1	0x3cdad667	0.026713563
2	0x3d093386	0.033496402
3	0xbbd42cf2	-0.0064750845
4	0x3ddb0768	0.10694772
5	0x3d7f7075	0.062363107
6	0x3d5f1421	0.054462556
7	0x3de97eaf	0.11401116
8	0x3d4147bb	0.047187548
9	0x3d534bb7	0.05158588
10	0x3e39a169	0.1812798
11	0xbdaaab92	-0.08333506
12	0x3de3ab03	0.11116602
13	0xbb39f69b	-0.0028375748
14	0x3d967545	0.07346586
15	0x3d452118	0.048127264
16	0x3d147bc8	0.03625086
17	0xbddffa6d	-0.10936437
18	0xbdcd5d83	-0.100276016
19	0xbc81a220	-0.015824378
20	0x3ca20972	0.019779895
21	0x3d0b4358	0.03399977
22	0xbd835382	-0.06412412
23	0x3d10bd2b	0.035336655
24	0x3cf13b17	0.029447122
25	0x3d51dec6	0.051237844
26	0x3cb52f69	0.022117333
27	0x3d90a0df	0.07061934
28	0x3cad263c	0.021136396
29	0xbc2b7800	-0.010465622
30	0xbd12481b	-0.035713296
31	0xbda3e5dd	-0.08002827
32	0xbb70613a	-0.0036679045
33	0x3d905ee5	0.0704935
34	0x3dbd916f	0.09256255
35	0x3d8ff7d5	0.07029692
36	0x3d48af53	0.048995327
37	0x3d710208	0.058839828
38	0x3dc96048	0.09832817
39	0xbd76508f	-0.06013542
40	0x3d9b016e	0.07568632
41	0xbda9de46	-0.082943484
42	0xbc4af2e4	-0.012387011
43	0xbc8ce409	-0.01719858
44	0x3d307017	0.043075647
45	0x3e04c415	0.12965424
46	0xbd5ebda1	-0.054380063
47	0x3da0c764	0.07850531
48	0xbe1769b3	-0.14786415
49	0xbd42d4fd	-0.047566403
50	0xbd612165	-0.054963488
51	0x3b8161c5	0.0039484226
52	0x3da54fa1	0.08071829
53	0x3c43f4bb	0.011960204
54	0x3c9e0a35	0.019291976
55	0xbd67bc87	-0.056576278
56	0xbcd1b569	-0.025599198
57	0x3d83d5b6	0.064372465
58	0x3d8febfc	0.07027432
59	0xbc90d173	-0.017677998
60	0xbd7c51c6	-0.061601423
61	0xbda1d212	-0.07901396
62	0xbd87b6ac	-0.06626639
63	0x3bfbf95c	0.007689638
64	0x3c66ace2	0.014079304
65	0xbc9f46dc	-0.019442968
66	0x3d665922	0.056237347
67	0xbc75b4c4	-0.014996711
68	0xbdf77727	-0.120832734
69	0x3b50902c	0.0031824214
70	0xbd2224ed	-0.039585996
71	0x3d9ff33a	0.07810064
72	0x3d846a85	0.064656295
73	0xbb81a7d8	-0.003956776
74	0xbcf2d29d	-0.029641444
75	0x3d7e62ad	0.062105823
76	0xbc1ca568	-0.00956092
77	0x3db25fc5	0.08709673
78	0xbdab7740	-0.083723545
79	0xbd1201cb	-0.03564624
80	0xbcf5074e	-0.02991071
81	0x3d0526f4	0.03250785
82	0x3bcd3f39	0.0062636402
83	0x3c130f22	0.008975776
84	0xbc44cc10	-0.012011543
85	0x3d48d0e5	0.049027342
86	0xbd93e66a	-0.07221682
87	0x3d02ee4c	0.03196554
88	0x3da3df5c	0.08001587
89	0x3cedc32d	0.029023731
90	0x3caf0710	0.021365672
91	0xbd447a69	-0.047968302
92	0xbcf10f1c	-0.02942615
93	0x3dc6f877	0.0971536
94	0x3d956dd6	0.0729634
95	0x3be80651	0.007080831
96	0xbd7a0913	-0.06104381
97	0xbd47a666	-0.048742674
98	0x3d1b1133	0.0378582
99	0xbd9ffbc5	-0.07811693
100	0xbd325b1d	-0.043543924
101	0x3be438fe	0.006964802
102	0xbd9c3c62	-0.076287046
103	0x3cd2418e	0.025666025
104	0xbd9c090e	-0.076189145
105	0x3d357894	0.044304445
106	0xbd1dd64a	-0.03853444
107	0xbd8ddc71	-0.069268115
108	0xbd5fbcdd	-0.054623473
109	0x3c4f1b86	0.012640839
110	0xbd4f103e	-0.0505526
111	0xbe03c81c	-0.12869304
112	0xbd4db2f2	-0.050219484
113	0x3ca3ca98	0.019994065
114	0x3d7e9c3a	0.062160708
115	0xbcaffe0b	-0.021483442
116	0x3cf83020	0.030296385
117	0x3d4992a9	0.04921213
118	0x3d90a3af	0.0706247
119	0x3dfb67fd	0.122756936
120	0xbc92d725	-0.017924855
121	0x3d9f9fb6	0.07794134
122	0x3dcdcce4	0.100488454
123	0x3d8e53fd	0.06949613
124	0xbc54e743	-0.01299459
125	0x3dbe30c2	0.092866436
126	0x3d4d8bdc	0.05018221
127	0x3c50d3b1	0.012745784
128	0x3d9e0c7a	0.077172235
129	0x3c2c8599	0.010529899
130	0xbb32c0e0	-0.0027275607
131	0x3d9c1c46	0.0762258
132	0x3c5fb8f5	0.013654937
133	0xbd905453	-0.070473336
134	0x3d24b941	0.040215734
135	0xbcecd200	-0.02890873
136	0x3837c986	4.3818283e-05
137	0x3ceea5f3	0.029131865
138	0x3d342a47	0.04398563
139	0xbd0ed2af	-0.034868892
140	0xbd7261e9	-0.059175406
141	0x3d98ed51	0.074671395
142	0xbcba6cf2	-0.022757027
143	0x3c891a7a	0.016736258
144	0xbb99dbeb	-0.0046954057
145	0x3d1ecccc	0.03876953
146	0x3c941033	0.01807413
147	0x3d6d1efe	0.057890885
148	0x3c28f875	0.010313143
149	0xbd916bed	-0.07100663
150	0xbc1243ee	-0.0089273285
151	0x3d5f5e61	0.054533366
152	0xbcba62b9	-0.022752153
153	0xbcae257b	-0.021258106
154	0x3dc658d1	0.09684909
155	0xbd992d85	-0.07479385
156	0xbd9db28c	-0.07700071
157	0xbd81d53b	-0.063394986
158	0x3cd0c47e	0.02548432
159	0xbc74fccd	-0.0149528505
160	0x3cf0b53c	0.029383294
161	0x3c636718	0.01387956
162	0x3ddd7b72	0.10814561
163	0x3d15eaec	0.036600992
164	0x3da4c35a	0.08045073
165	0xbc46d46a	-0.012135604
166	0xbda722be	-0.081609234
167	0xbd5058dc	-0.050865993
168	0xbdab2064	-0.083557874
169	0x3c59d05f	0.013294308
170	0x3d039275	0.032122094
171	0xbd083770	-0.033255994
172	0xbdc03521	-0.093851335
173	0x3cafbec8	0.021453276
174	0x3c442d7f	0.011973738
175	0xbb9729dd	-0.004613145
176	0xbd465abf	-0.048426386
177	0xbd8ce597	-0.06879728
178	0x3dc3cbe5	0.09560374
179	0xbd2c7047	-0.042099264
180	0x3bba1c11	0.0056796153
181	0x3da7f019	0.08200092
182	0xbd4dc319	-0.050234888
183	0x3d60be6f	0.05486911
184	0xbccdd9ea	-0.025128324
185	0xbd73b6de	-0.059500568
186	0x3da3cbe9	0.07997877
187	0xbcdefcb4	-0.027220108
188	0xbb5ad792	-0.003339265
189	0x3dc09fef	0.09405505
190	0xbdafb490	-0.085793614
191	0x3c0d258d	0.00861491
192	0x3da1b3cd	0.078956224
193	0x3cd2264d	0.025653029
194	0xbd780f99	-0.06056175
195	0xbc896b37	-0.016774757
196	0x3ca94e41	0.020667197
197	0xbd1cfe16	-0.038328253
198	0x3c04163a	0.00806194
199	0x3b7dee8f	0.0038746928
200	0xbd0aa962	-0.033852942
201	0xbd50df48	-0.050994188
202	0xbd1f68dc	-0.03891836
203	0xbdb3dfe9	-0.08782942
204	0xbdc5a4c5	-0.09650568
205	0x3d944433	0.072395705
206	0xbd98d354	-0.07462183
207	0xbdb58185	-0.088625945
208	0xbddae5a2	-0.1068833
209	0x3c214a59	0.009844386
210	0xbcdda26c	-0.027054988
211	0xbcf371ec	-0.029717408
212	0x3c1605a4	0.009156618
213	0x3d0ceeb9	0.03440735
214	0x3d89b02f	0.067230575
215	0x3d844d98	0.06460112
216	0x3d9c4241	0.076298244
217	0x3cd8a9a0	0.026448071
218	0x3d9e8077	0.077393465
219	0xbd2bd0e5	-0.041947264
220	0xbdb0a527	-0.0862525
221	0x3ce43d5d	0.027861292
222	0xbb45304b	-0.00300886
223	0x3d808552	0.06275429
224	0xbd8ae98b	-0.06782826
225	0x3b141421	0.0022595006
226	0xbda63732	-0.081159964
227	0xbb6482e9	-0.0034868068
228	0x3cf31ff7	0.029678328
229	0x3b892a71	0.0041859676
230	0xbcd4850a	-0.025942344
231	0xbba18e00	-0.004930258
232	0xbce0bbfd	-0.02743339
233	0xbcc1c696	-0.023654263
234	0xbdbc6e02	-0.0920067
235	0xbd95cd0e	-0.07314502
236	0x3d271b39	0.040797446
237	0xbd81664d	-0.063183405
238	0xbd266c81	-0.04063082
239	0x3cfa0c9f	0.030523596
240	0xbd989a75	-0.07451335
241	0xbc8519b4	-0.016247608
242	0xbdb76d23	-0.08956363
243	0x3bfb0904	0.007660987
244	0x3da205b7	0.07911246
245	0x3c9d3d04	0.019194134
246	0xbdaa8c26	-0.083275124
247	0x3da6de98	0.08147925
248	0xbdc00d27	-0.093775086
249	0xbcec6cdd	-0.028860504
250	0x3cbad20a	0.022805233
251	0x3d4edcc4	0.050503507
252	0xbc65538d	-0.013996971
253	0x3bd3d50e	0.006464607
254	0xbdab455d	-0.08362839
255	0xbd67ff2c	-0.056639835

fc2.bias f4 [84]
0	0xbc2b153a	-0.0104420725
1	0x3c21fdcf	0.009887173
2	0x3cdb2a25	0.026753495
3	0x3b98ff2b	0.0046690903
4	0x3d898969	0.06715662
5	0x3d32c3b9	0.043643687
6	0xbc8cb347	-0.01717533
7	0x3dd5f09a	0.10446282
8	0xbd152d83	-0.036420356
9	0xbd8cbf9f	-0.06872486
10	0x3b3a9542	0.0028470312
11	0x3dad7542	0.08469631
12	0x3d83fb02	0.0644436
13	0xbc886131	-0.016647907
14	0x3c1d3b6c	0.009596687
15	0x3dcb159c	0.09916231
16	0xbd11ddba	-0.035611846
17	0xbccaee6d	-0.024771893
18	0xbd5abcf5	-0.05340286
19	0xbd364ba9	-0.04450575
20	0x3e5fd6d7	0.21859299
21	0x3de04bea	0.109519795
22	0x3c8907c0	0.016727328
23	0x3cd3ed83	0.02587009
24	0xbbc669c8	-0.0060550906
25	0xbdd16170	-0.10223663
26	0x3a9d0f4b	0.0011982707
27	0xbda30f66	-0.079619214
28	0x3d86cacc	0.06581649
29	0x3d83739d	0.06418536
30	0x3d57b1bb	0.05265973
31	0xbcd912a8	-0.026498154
32	0xbd9a215c	-0.07525894
33	0x3d10da9b	0.03536473
34	0xbe1e83b5	-0.1547993
35	0x3d9426a6	0.07233934
36	0xbc2465ba	-0.010034019
37	0x3e2d437c	0.16920274
38	0x3d3c2104	0.045929924
39	0xbd5e578a	-0.054282703
40	0x3d8ebf88	0.069701254
41	0xbd118d6b	-0.035535257
42	0xbb7c28e4	-0.003847652
43	0x3d32829d	0.043581594
44	0xbd65949d	-0.05604993
45	0xbd8d1818	-0.06889361
46	0xbdb7cba4	-0.08974388
47	0xba97a090	-0.0011568237
48	0x3e030014	0.12792999
49	0xbc3a7d36	-0.011382392
50	0xbda66fc5	-0.08126787
51	0x3cc023dd	0.023454601
52	0x3bbacbfd	0.005700587
53	0x3d646bf5	0.05576702
54	0x3bbcd934	0.0057631973
55	0x3e0e9319	0.13923301
56	0x3cc65711	0.024211438
57	0xbc9625dd	-0.018328601
58	0x3e066af9	0.13126744
59	0xbc981c18	-0.018568084
60	0x3dc076f6	0.0939769
61	0xbd43467e	-0.04767465
62	0xbd37bf29	-0.04486004
63	0x3e237b20	0.15964937
64	0xbd306600	-0.043066025
65	0x3c3eb2bc	0.011639293
66	0xbd5ffa97	-0.05468234
67	0xbd29628d	-0.04135375
68	0x3d63be89	0.05560163
69	0xbcc4342f	-0.023950664
70	0x3ccd31d5	0.025048176
71	0x3ca5ceb0	0.020240158
72	0x3d3f8ceb	0.04676525
73	0xbdae1645	-0.08500341
74	0x3dc76956	0.09736888
75	0xbcafb51a	-0.02144866
76	0xbd63d95f	-0.055627223
77	0xbd41ac75	-0.04728361
78	0x3d6d74bd	0.05797266
79	0xbcafb70a	-0.021449585
80	0xbcecc272	-0.028901313
81	0x3e00e449	0.12587084
82	0x3d79a7dd	0.060951103
83	0x3d4c98d4	0.049950436

fc3.weight f4 [10, 84]
0	0x3e791acb	0.24326627
1	0x3df3af52	0.11898674
2	0x3d77345e	0.060352676
3	0x3e6b6e9b	0.22991411
4	0x3c0da7a4	0.008645926
5	0x3d242644	0.040075555
6	0xbd93fac0	-0.07225561
7	0xbde77c40	-0.11302996
8	0x3dff5e43	0.12469151
9	0x3e1cc625	0.15309961
10	0xbe77b0be	-0.24188516
11	0xbdf3092a	-0.11866982
12	0xbe7f5aac	-0.24936932
13	0xbdfa0910	-0.1220876
14	0x3c56a65a	0.013101185
15	0xbe24314c	-0.1603443
16	0xbd075955	-0.033044178
17	0xbd6be283	-0.057589065
18	0x3baec4d5	0.005333523
19	0xbdb5139d	-0.088416316
20	0xbdaccd3e	-0.08437584
21	0xbddd1b01	-0.10796166
22	0xbb97d3eb	-0.004633417
23	0xbe05e5f2	-0.13075998
24	0x3e667d94	0.22508842
25	0x3ca92a5c	0.020650081
26	0xbdd728a8	-0.105058014
27	0x3d55f7f2	0.052238412
28	0xbddae740	-0.10688639
29	0x3bdf520a	0.0068151997
30	0x3d7f2355	0.062289555
31	0xbe0f008c	-0.13965052
32	0xbbaca9d3	-0.005269268
33	0x3c47956b	0.01218162
34	0x3e231151	0.15924574
35	0xbcecb581	-0.028895142
36	0xbdaa1d65	-0.08306388
37	0xbdf1c5c2	-0.118052974
38	0xbd4a372f	-0.049369033
39	0x3da7eba9	0.081992455
40	0xbdaa030c	-0.083013624
41	0x3e45e0ff	0.1932411
42	0xbd15a487	-0.03653386
43	0x3d656731	0.056006614
44	0x3e60cab2	0.21952322
45	0xbbf1f6e0	-0.007384166
46	0x3d004e8a	0.0313249
47	0xbc0b79b3	-0.008512902
48	0xbe8e3be7	-0.27780077
49	0xbdcb8a2b	-0.09938463
50	0x3d461d48	0.04836777
51	0x3e17cc58	0.14824045
52	0x3d91c251	0.07117141
53	0x3e40862e	0.18801185
54	0x3db64bc2	0.089011684
55	0xbe3b1a6f	-0.18271802
56	0xbdba7281	-0.09103871
57	0x3d6b4062	0.057434447
58	0xbe948a7e	-0.2901191
59	0x3cacb26f	0.021081178
60	0xbe3a3325	-0.18183573
61	0x3db1d0f4	0.08682433
62	0x3c3a9334	0.011387635
63	0xbdf99d9f	-0.12188267
64	0x3e04f67a	0.12984648
65	0xbe71a711	-0.23598887
66	0x3d434212	0.04767043
67	0x3e34f679	0.17672147
68	0x3c844d9f	0.016150294
69	0x3e6242e9	0.22095837
70	0xbca09572	-0.019602511
71	0x3c9a4a33	0.01883421
72	0x3e2ec42c	0.17067021
73	0x3e90f0be	0.28308672
74	0xbe4c6658	-0.19960916
75	0xbda9c37d	-0.082892396
76	0x3e5b1dab	0.21398036
77	0xbe20164c	-0.15633506
78	0xbda72cf3	-0.0816287
79	0xbc901192	-0.017586503
80	0x3ebabf92	0.36474282
81	0xbd928501	-0.07154275
82	0x3e27ae81	0.16375162
83	0x3d68eec0	0.056868315
84	0x3e059518	0.13045156
85	0x3d9d2cff	0.07674598
86	0xbd950b48	-0.07277542
87	0xbce628e5	-0.028095672
88	0x3d9c6651	0.07636703
89	0xbd1b8b2b	-0.037974518
90	0xbe522f3f	-0.20525835
91	0xbd14838f	-0.036258277
92	0xbe362b47	-0.17789946
93	0xbe13157a	-0.14363661
94	0x3d976ba4	0.07393578
95	0x3da385b7	0.079844885
96	0x3e1869ce	0.14884111
97	0xbe16669c	-0.1468758
98	0x3e6da051	0.23205687
99	0x3e6e6f7d	0.23284717
100	0x3ea85c45	0.32882896
101	0x3d3f5dbb	0.046720248
102	0xbcaef43e	-0.021356698
103	0x3e643c9e	0.22288749
104	0x3e1bbc18	0.15208471
105	0xbe24cfb3	-0.16094856
106	0xbe9adb2c	-0.3024534
107	0x3e083e87	0.13305102
108	0x3e6cfd4e	0.23143503
109	0xbd85b398	-0.065283954
110	0x3b6b1ee4	0.0035876567
111	0xbd034eb2	-0.03205747
112	0x3cb1070d	0.021609807
113	0x3d8df48f	0.069314115
114	0x3e0ac54d	0.13551827
115	0xbe969930	-0.29413748
116	0x3c493f42	0.012283148
117	0xbc00bf5f	-0.007858126
118	0xbd27e40e	-0.040988974
119	0x3dd17937	0.10228198
120	0x3e428b56	0.18998465
121	0xbdb51f46	-0.088438556
122	0xbcabc40a	-0.020967502
123	0xbdff2d57	-0.1245982
124	0xbcf0f378	-0.02941297
125	0xbdf21a09	-0.11821372
126	0x3d40ebf9	0.04710004
127	0xbd9998e1	-0.074998625
128	0x3a99c9f7	0.0011733164
129	0x3d42cfce	0.04756146
130	0xbdbb3d0b	-0.091425024
131	0x3cd272c4	0.02568949
132	0x3ea12c0a	0.31478912
133	0x3e92bee0	0.2866125
134	0x3c2a47f9	0.010393136
135	0xbd85e5e5	-0.065379895
136	0x3e3e6cb9	0.18596162
137	0xbdcb20e5	-0.099183835
138	0xbde82a6f	-0.113362186
139	0x3d76483d	0.060127486
140	0x3de1aceb	0.110193096
141	0xbda75779	-0.08170981
142	0x3de23cb1	0.11046732
143	0x3ebd6d3f	0.3699741
144	0xbda96260	-0.08270717
145	0xbd9c8b0b	-0.07643708
146	0x3d299d80	0.04140997
147	0xbe5a3215	-0.21308167
148	0xbc953e8d	-0.018218303
149	0xbdb24795	-0.087050594
150	0xbe84395f	-0.2582502
151	0xbd809fef	-0.06280505
152	0x3e8732a0	0.2640581
153	0xbe912b1b	-0.283532
154	0x3e5916e2	0.21200135
155	0x3d155ae8	0.036463648
156	0xbe8db18f	-0.2767453
157	0x3e54b2b7	0.207713
158	0xbd24f567	-0.040273096
159	0x3d5fcb4a	0.05463723
160	0x3cad0107	0.021118654
161	0xbda0f2b2	-0.078587905
162	0xbe1d212e	-0.15344688
163	0xbcdf87ff	-0.027286528
164	0xbe401516	-0.18758044
165	0xbe443efe	-0.19164655
166	0xbdbc89e1	-0.09205986
167	0xbd514e43	-0.051100027
168	0xbdc7982e	-0.09745823
169	0x3ddeba21	0.10875345
170	0xbd33c383	-0.043887626
171	0xbe33ddee	-0.17565128
172	0x3d870fd1	0.065948136
173	0xbd5cdc91	-0.053921286
174	0xbe449d1f	-0.19200562
175	0xbe235463	-0.1595016
176	0xbdd12183	-0.1021147
177	0x3e256d66	0.16155013
178	0x3d448bae	0.04798477
179	0xbd6171b5	-0.05504008
180	0xbdbb066c	-0.09132084
181	0xbd18a74a	-0.037268914
182	0xbe0f9508	-0.14021695
183	0x3d05bbc1	0.03264976
184	0xbdf97206	-0.12179951
185	0x3cc03d16	0.023466628
186	0x3cf331ba	0.029686797
187	0x3de3e81f	0.11128258
188	0x3c067c0c	0.008208286
189	0xbcadb520	-0.021204531
190	0x3e905045	0.2818624
191	0x3c394d75	0.011309971
192	0x3d8e1a5f	0.06938624
193	0xbe034ffd	-0.12823482
194	0x3de749dc	0.112933844
195	0xbdd49318	-0.103796184
196	0xbe1d2a01	-0.15348054
197	0x3dea602e	0.11444126
198	0xbc5af81d	-0.013364819
199	0xbe1268e3	-0.14297824
200	0x3dbbb9bc	0.091662854
201	0x3de61cd7	0.112359695
202	0x3e13a538	0.14418495
203	0xbdfaf721	-0.12254167
204	0x3bebd13e	0.0071965745
205	0xbd2966e4	-0.04135789
206	0xbca15c06	-0.0196972
207	0xbc2d270d	-0.010568392
208	0x3c665de1	0.014060468
209	0x3d41047a	0.04712341
210	0xbd139a7d	-0.036036003
211	0x3b99215f	0.0046731676
212	0xbe123a8b	-0.14280145
213	0xbdee797f	-0.11644267
214	0x3dadee35	0.084927
215	0x3bd954e0	0.0066324323
216	0xbe3de4de	-0.18544337
217	0x3dcabdfb	0.09899517
218	0x3d20e35d	0.03927933
219	0xbc4c851a	-0.012482906
220	0x3d08bf63	0.033385646
221	0xbc9376b5	-0.01800094
222	0xbafacbfc	-0.0019134278
223	0x3dbefef0	0.09325969
224	0x3c4f75e7	0.012662387
225	0xbde17346	-0.11008315
226	0xbe88fe33	-0.2675644
227	0xbdd959a5	-0.106128015
228	0xbd23dfb6	-0.04000827
229	0xbb18c4af	-0.0023310592
230	0x3d9681bc	0.073489636
231	0x3df90c13	0.12160506
232	0xbe1e1a6d	-0.15439768
233	0xbd0f171c	-0.03493415
234	0x3e9634e2	0.2933722
235	0xbc0b2eab	-0.008495013
236	0xbdeac596	-0.11463468
237	0x3e9d4cdc	0.30722702
238	0x3cf04c92	0.029333387
239	0xbd66e0e4	-0.056366816
240	0x3e411340	0.18855
241	0xbd8bb8ac	-0.06822333
242	0x3cc97357	0.024591131
243	0x3cccb767	0.024989797
244	0x3d39c9fc	0.045358643
245	0x3bb036ac	0.005377611
246	0x3d43a638	0.04776594
247	0x3dbfc334	0.09363404
248	0xbe10d760	-0.14144659
249	0x3cfdf56e	0.031000819
250	0x3e1c3918	0.15256155
251	0xbcf59e2b	-0.029982647
252	0xbda75e3f	-0.08172273
253	0x3da41722	0.08012225
254	0x3db3f0fa	0.08786197
255	0xbe051a60	-0.12998343

fc3.bias f4 [10]
0	0xbe932db1	-0.28745797
1	0xbc20b1f9	-0.009808057
2	0x3df5414a	0.119753435
3	0x3cf1616e	0.029465403
4	0x3e986882	0.29767233
5	0xbe6d7df8	-0.23192585
6	0x3eaffc5c	0.34372222
7	0x3c22d31c	0.009938028
8	0xbd68139d	-0.05665933
9	0xbc7606e6	-0.015016293
