round1/2025-04-18 18:20:34-weight-client-cbdb25ac-5.pth (torch, 252478 bytes, 10 tensors)

conv1.weight f4 [6, 3, 5, 5]
0	0x3e4c0477	0.19923578
1	0xbf030b33	-0.51188964
2	0xbefb0a96	-0.49031514
3	0xbebbb3a0	-0.3666048
4	0xbf497a93	-0.7870266
5	0x3e46377e	0.19357106
6	0xbedec5da	-0.43510324
7	0xbe73170f	-0.23739265
8	0xbe8545d0	-0.26029825
9	0xbf3ff204	-0.7497866
10	0x3d3f8ebc	0.04676698
11	0xbeeb8bbf	-0.46005055
12	0xbebf2b09	-0.3733752
13	0xbe5fee5b	-0.21868269
14	0xbf77e64c	-0.9683578
15	0x3dc1ef36	0.09469454
16	0xbe046955	-0.12930806
17	0x3aeafdff	0.001792848
18	0xbe655939	-0.22397317
19	0xbf93796d	-1.1521431
20	0x3cb4a4f8	0.02205132
21	0x3e65440b	0.22389238
22	0x3ec7b0ff	0.39002225
23	0xbea3f78a	-0.32024795
24	0xbf39023f	-0.7226905
25	0x3f6d2492	0.92633927
26	0x3e8b059b	0.27152714
27	0x3ec520b1	0.38501504
28	0x3e3692a3	0.17829375
29	0xbd89bdce	-0.067256555
30	0x3f7e399f	0.9930667
31	0x3ed872ae	0.42274994
32	0x3f15c283	0.58499926
33	0x3f21db61	0.6322537
34	0xbd8d73c8	-0.06906849
35	0x3f33906e	0.7014226
36	0x3ed9a82f	0.42511126
37	0x3f254e91	0.6457301
38	0x3f245445	0.64191085
39	0xbe061e88	-0.13097584
40	0x3f4f5064	0.8098204
41	0x3f29bf4b	0.66307515
42	0x3f679bca	0.9047209
43	0x3ee26e39	0.44224718
44	0xbee39c58	-0.44455218
45	0x3f2fbb75	0.6864541
46	0x3f6b8467	0.91998905
47	0x3f75c7bd	0.960079
48	0x3ed9d787	0.42547247
49	0xbe2025ea	-0.15639463
50	0x3e5c1567	0.2149254
51	0xbeb925f9	-0.36161783
52	0xbe8f8711	-0.28032735
53	0xbeaae8e9	-0.3338082
54	0xbf2ac0c1	-0.6670037
55	0x3e5b50ac	0.21417493
56	0xbe55976a	-0.20858541
57	0xbc14fa31	-0.009092853
58	0xbd93980b	-0.07206734
59	0xbf3aa387	-0.7290577
60	0xbe10b68b	-0.14132135
61	0xbedef611	-0.4354711
62	0xbe7585b5	-0.23976786
63	0xbcb8ed4e	-0.022574093
64	0xbf34fc7e	-0.7069777
65	0x3d204cb2	0.039135642
66	0xbe8c0171	-0.2734485
67	0xbddc57d8	-0.10758942
68	0xbe8ee08b	-0.27905688
69	0xbf829f34	-1.0204835
70	0xbe75cce4	-0.24003941
71	0x3e0aeeb3	0.13567619
72	0x3e5c15de	0.21492717
73	0xbecbc38b	-0.39797625
74	0xbf6ab7a3	-0.9168646
75	0x3dd10ba1	0.10207296
76	0xbe6ec928	-0.23318923
77	0x3f00ae48	0.5026593
78	0x3f0b1abd	0.54337674
79	0x3e2e88a2	0.17044309
80	0x3e12cbd8	0.14335573
81	0xbe695c79	-0.22789182
82	0x3ed23e6c	0.4106325
83	0x3efa2300	0.48854828
84	0xbc52fb6e	-0.012877328
85	0x3da00891	0.07814134
86	0xbcd3fe70	-0.025878161
87	0x3f16750f	0.5877237
88	0x3f00bda6	0.5028938
89	0x3d915d14	0.07097831
90	0xbaa05327	-0.0012231813
91	0x3dd68333	0.10474243
92	0x3f154156	0.5830282
93	0x3ee21f82	0.44164664
94	0x3e944f36	0.28966683
95	0x3d0fb959	0.03508887
96	0x3e7a3e6c	0.24437875
97	0x3f04b409	0.5183721
98	0x3ed4df01	0.41576388
99	0x3e924e7a	0.28575498
100	0x3d7d7427	0.06187835
101	0xbe70edc8	-0.23528206
102	0x3f0664a5	0.5249732
103	0x3f45f3e1	0.77325255
104	0x3e888054	0.26660407
105	0x3dec09a0	0.11525273
106	0xbe3ff46d	-0.18745585
107	0x3f2714cc	0.6526611
108	0x3f22d9a6	0.63613355
109	0x3e01f6a1	0.12691738
110	0x3d55d820	0.052208066
111	0x3c72d3fd	0.01482105
112	0x3f547733	0.82994384
113	0x3f47b914	0.7801678
114	0x3ea1e736	0.31621712
115	0x3ddeb966	0.10875206
116	0x3e6c38c7	0.23068534
117	0x3f2c405a	0.6728569
118	0x3f1eb5bc	0.61996055
119	0x3e903ac8	0.28169847
120	0x3dcce28b	0.10004147
121	0x3eb08be9	0.34481743
122	0x3f10abd0	0.56512165
123	0x3f3e112c	0.7424495
124	0x3ee9c9cf	0.4566178
125	0xbf39b26a	-0.72537863
126	0xbf5ac200	-0.8545227
127	0xbd4e5dbb	-0.050382357
128	0x3d68a55a	0.056798317
129	0xbee60f53	-0.44933566
130	0xbf23d9d6	-0.64004266
131	0xbf53e103	-0.82765216
132	0xbd6cdc1d	-0.057827104
133	0x3d5f3775	0.054496247
134	0xbf08dc15	-0.5346082
135	0xbf4908fd	-0.7852934
136	0xbf3e9066	-0.74439085
137	0x3c40a2b6	0.011757543
138	0xbd45a569	-0.04825345
139	0xbeb416af	-0.35173556
140	0xbf489330	-0.7834959
141	0xbf09aba9	-0.5377756
142	0xbe64b895	-0.22336037
143	0xbe1e768b	-0.15474908
144	0xbf00097d	-0.5001448
145	0xbf5e237d	-0.867729
146	0xbf2e3fbf	-0.6806602
147	0xbea26446	-0.31717128
148	0xbe2cf207	-0.16889201
149	0xbee6a2c6	-0.4504606
150	0xbef83567	-0.48478243
151	0xbed67eaf	-0.41893527
152	0xbec10c18	-0.3770454
153	0xbea2447f	-0.31692883
154	0xbe982deb	-0.29722533
155	0xbefed5e7	-0.4977257
156	0xbeeba7ab	-0.46026358
157	0xbee76b74	-0.45199168
158	0xbe9f46fc	-0.31108844
159	0xbe8dd587	-0.2770197
160	0xbf0b478d	-0.5440605
161	0xbf070112	-0.5273601
162	0xbf0ade74	-0.54245687
163	0xbefa2cc6	-0.48862284
164	0xbeb8ea70	-0.36116362
165	0xbebd9c9a	-0.3703354
166	0xbf0ebf29	-0.5576044
167	0xbf013748	-0.5047498
168	0xbef91c3b	-0.4865435
169	0xbea52172	-0.3225208
170	0xbe6eb061	-0.2330947
171	0xbe2cccc5	-0.16874988
172	0xbeac8ac6	-0.33699626
173	0xbe79ba17	-0.24387394
174	0xbe1d2e60	-0.15349722
175	0xbe04eb85	-0.12980469
176	0x3e8391b3	0.25697097
177	0x3e8c430e	0.2739491
178	0x3e685c4c	0.22691458
179	0x3e3d65cd	0.18495865
180	0xbcf15e45	-0.029463897
181	0x3d86ce45	0.065823115
182	0x3ea88cec	0.32920015
183	0x3e31f482	0.17378429
184	0x3e0af3d4	0.13569576
185	0xbde5ffb9	-0.11230416
186	0xbd0b3c73	-0.033993196
187	0xbc617222	-0.013760122
188	0x3d5fcd23	0.054638993
189	0xbe0b95cb	-0.1363136
190	0xbef1c198	-0.47218013
191	0xbe631cf4	-0.22179013
192	0xbe58bbae	-0.21165344
193	0xbe6e9f75	-0.23303016
194	0xbe2ee285	-0.17078598
195	0xbeceaef3	-0.4036785
196	0xbead268b	-0.33818468
197	0xbe47126e	-0.19440624
198	0xbe772e0f	-0.24138664
199	0xbe9f244e	-0.31082386
200	0x3f5e385a	0.86804736
201	0x3f976c80	1.1829987
202	0x3faf5a80	1.3699493
203	0x3fa512d2	1.2896369
204	0x3f3e0b86	0.74236333
205	0x3f4818b6	0.78162706
206	0x3f93113b	1.1489633
207	0x3fa50bcc	1.2894225
208	0x3f97a73f	1.1847914
209	0x3f7d5a20	0.98965645
210	0x3f33c8ea	0.70228446
211	0x3f6506c6	0.8946346
212	0x3f6c4f8f	0.92308897
213	0x3f44c908	0.7686925
214	0x3f45df7a	0.77294123
215	0x3e9324d9	0.2873905
216	0x3edfc9d4	0.4370867
217	0x3f0da67d	0.55332166
218	0x3eecf9c3	0.46284303
219	0x3ec87cc4	0.3915769
220	0x3ed15622	0.40886027
221	0x3f0ba678	0.54550886
222	0x3ef0ae19	0.47007826
223	0x3ed97140	0.42469215
224	0x3ea40a5f	0.32039163
225	0x3f3c96a9	0.7366739
226	0x3f8073bd	1.003532
227	0x3f786222	0.9702474
228	0x3ee7ce97	0.45274803
229	0x3df81889	0.12114055
230	0x3f70c74a	0.9405409
231	0x3f85b9b4	1.0447297
232	0x3f4cc8f0	0.79994106
233	0x3f30ad69	0.690146
234	0x3ef4c7a4	0.47808564
235	0x3f398ff3	0.72485274
236	0x3ee8bdcf	0.45457312
237	0x3efd9cf4	0.49533808
238	0x3efc9f33	0.4934021
239	0x3edd1b1a	0.4318474
240	0xbde6f2b8	-0.11276764
241	0xbf039ab2	-0.5140792
242	0xbee62f89	-0.4495814
243	0xbe1a7e80	-0.15087318
244	0x3e2a9bf5	0.16661055
245	0xbe8239cb	-0.25434718
246	0xbf55e45d	-0.8355158
247	0xbf34a579	-0.7056499
248	0xbef12cb2	-0.47104412
249	0xbd6fc015	-0.058532793
250	0x3e64c1d0	0.22339559
251	0x3ea8514a	0.3287452
252	0x3e6e81ac	0.23291653
253	0x3db2b897	0.08726614
254	0xbe9c7dca	-0.3056472
255	0x3eb91b3a	0.36153585

conv1.bias f4 [6]
0	0x3faed3b8	1.3658361
1	0xbf6ff0af	-0.9372663
2	0xc0147700	-2.3197632
3	0xbdf05071	-0.11734093
4	0x3abc49ad	0.0014365219
5	0x3d4dc0b2	0.050232597

conv2.weight f4 [16, 6, 5, 5]
0	0xbe0f707f	-0.14007758
1	0xbec34f7d	-0.38146582
2	0xbeb8f8d3	-0.36127338
3	0xbed657ac	-0.41863763
4	0xbf1d49ad	-0.61440545
5	0xbd94853c	-0.07251975
6	0xbe41bb53	-0.18919115
7	0xbe016b2f	-0.12638544
8	0xbd957522	-0.07297732
9	0xbea7d7df	-0.32781884
10	0xbd8e68cb	-0.069535814
11	0xbdacad6b	-0.08431514
12	0x3d659654	0.056051567
13	0xbbf12a5b	-0.0073597855
14	0xbd3381e3	-0.04382504
15	0x3dd4a2ac	0.1038259
16	0x3d7a6acc	0.061137006
17	0x3ddfa972	0.10920991
18	0x3dc099bb	0.09404322
19	0x3d19d085	0.037552375
20	0x3d1624d3	0.036656212
21	0x3dd04c4e	0.10170804
22	0x3e51d584	0.20491606
23	0x3e378504	0.17921835
24	0x3e185b0e	0.14878485
25	0xbebbccc2	-0.36679655
26	0xbd386c0e	-0.045024924
27	0x3e29bac1	0.16575147
28	0x3e968344	0.29397023
29	0x3e81ec3a	0.2537554
30	0xbdf343db	-0.11878177
31	0x3d9941d8	0.07483262
32	0x3e733001	0.23748781
33	0x3e694935	0.22781833
34	0x3dcc0d76	0.09963505
35	0xbd7278a4	-0.059197083
36	0x3e137da7	0.14403401
37	0x3dfdbfa5	0.12390069
38	0x3dfb2f76	0.12264912
39	0x3e7411c1	0.23834898
40	0x3caf7c8a	0.02142169
41	0x3e29164a	0.16512409
42	0x3dacabbb	0.084311925
43	0x3e671b81	0.22569086
44	0x3ebafdca	0.3652175
45	0x3e52059c	0.20509952
46	0x3e88608f	0.26636168
47	0x3e600a64	0.21878964
48	0x3e960d25	0.29306903
49	0x3e8cf11b	0.275277
50	0xbe10fe01	-0.14159395
51	0xbe361185	-0.1778012
52	0xbe0984eb	-0.1342961
53	0xbb0595f0	-0.002038356
54	0x3e64428b	0.22291009
55	0xbe9e9f47	-0.30980894
56	0xbe29c6f5	-0.16579802
57	0xbd9d784a	-0.07688959
58	0xbd0dff5a	-0.03466735
59	0x3b98b8a9	0.004660685
60	0xbdfd0f37	-0.123564176
61	0x3db28ba8	0.087180436
62	0x3dc35e34	0.09539452
63	0xbc87d0aa	-0.016578991
64	0xbdd790af	-0.10525643
65	0xbdb1bc1d	-0.08678458
66	0x3cf7feff	0.030272959
67	0x3d6bbd7e	0.05755376
68	0x3a942907	0.0011303731
69	0xbdda421b	-0.1065714
70	0xbe2d0a9a	-0.16898575
71	0x3e21a719	0.15786399
72	0x3df906e5	0.12159518
73	0xbd5cb861	-0.053886775
74	0xbe29d439	-0.16584863
75	0x3e199a3d	0.15000243
76	0xbe441f34	-0.19152528
77	0xbe049150	-0.12946057
78	0x3dd32c77	0.10311215
79	0x3e23b8e2	0.15988496
80	0xbe761eb1	-0.24035145
81	0xbe89547d	-0.26822272
82	0xbdbf202c	-0.09332308
83	0x3df94d1c	0.121729106
84	0x3ea6e07d	0.32593146
85	0xbed2d542	-0.41178328
86	0xbe965507	-0.29361746
87	0xbebc7302	-0.36806494
88	0xbe4d4559	-0.20045985
89	0xbdf76a12	-0.12080778
90	0xbea231e3	-0.31678686
91	0xbed6d423	-0.41958722
92	0xbf02ac20	-0.5104389
93	0xbeb21568	-0.34781957
94	0xbe1fc7f8	-0.15603626
95	0xbdf37f49	-0.11889512
96	0xbedffec3	-0.43749055
97	0xbef39771	-0.47576478
98	0xbea3eecb	-0.32018122
99	0x3d8036e3	0.06260469
100	0x3c96a183	0.018387562
101	0xbcacbb20	-0.021085322
102	0x3bdaf2a3	0.0066817566
103	0xbd58eb5a	-0.052958824
104	0x3d7c79cd	0.061639596
105	0xbcb41dee	-0.021986928
106	0x3c371672	0.011174785
107	0x3d960ae4	0.07326296
108	0x3c5fa6f6	0.013650646
109	0x3d690996	0.056893907
110	0x3d910d28	0.070825875
111	0xbced5c6a	-0.02897473
112	0x3d9ea9b3	0.07747211
113	0x3d8ce342	0.068792835
114	0x3d20f109	0.03929237
115	0xbd201b80	-0.039088726
116	0x3ce6ecca	0.028189082
117	0x3a0c41e6	0.0005350396
118	0x3c385088	0.011249669
119	0x3d912bab	0.07088407
120	0x3c24c116	0.010055801
121	0x3c3cf395	0.011532684
122	0x3c04ae75	0.008098234
123	0x3d0dc56d	0.034612108
124	0x3d9500b5	0.072755255
125	0xbe6cebd2	-0.23136833
126	0x3d814522	0.06312014
127	0x3d486061	0.04892004
128	0xbbc29fb2	-0.0059394473
129	0xbd9c4b18	-0.076315105
130	0xbc6c147b	-0.01440918
131	0xbd3d4e69	-0.046217356
132	0xbdc77f47	-0.09741073
133	0xbe56e9ff	-0.209877
134	0xbdbc073c	-0.09181067
135	0xbd510f8a	-0.05104021
136	0xbe044c42	-0.12919715
137	0xbe380242	-0.17969611
138	0xbe0e1619	-0.13875617
139	0x3d010453	0.031498265
140	0xbd6d379f	-0.057914373
141	0xbe250410	-0.16114831
142	0xbe52bf34	-0.2058075
143	0xbe070b24	-0.13187844
144	0x3c04c937	0.008104614
145	0xbd9187bf	-0.0710597
146	0xbe07a4b7	-0.13246427
147	0xbda459b6	-0.080249235
148	0xbd5fda82	-0.054651745
149	0xbe74be0d	-0.23900624
150	0xbd72e3e5	-0.05929937
151	0x3c0e5eca	0.008689592
152	0x3c0c09a3	0.008547219
153	0x3d7f7466	0.062366866
154	0x3e323a89	0.17405142
155	0x3db835ae	0.089946136
156	0x3dc194aa	0.094521835
157	0xbc8480a7	-0.016174627
158	0x3e53635a	0.20643368
159	0x3e884025	0.26611438
160	0x3dcfcf28	0.10146934
161	0x3dc901c3	0.09814789
162	0x3dde3ba8	0.10851222
163	0x3e3e25aa	0.18569055
164	0x3d30cb86	0.043162845
165	0x3c38ea02	0.011286261
166	0x3dfb5b2b	0.12273248
167	0x3ea220a6	0.31665534
168	0x3e809123	0.2511073
169	0xbd81e268	-0.06342012
170	0xbe4438af	-0.19162248
171	0x3ce6ca02	0.028172497
172	0x3db45e51	0.08807052
173	0x3d48a73c	0.048987612
174	0x3d8a000d	0.06738291
175	0x3e078588	0.13234532
176	0xbd53db06	-0.05172255
177	0x3d8a3518	0.06748408
178	0x3e267bd0	0.16258168
179	0xbcdc205e	-0.026870903
180	0x3e2daa1f	0.16959427
181	0x3ddd3f84	0.1080313
182	0x3dc6bbc2	0.09703781
183	0x3e438002	0.190918
184	0xbe017263	-0.12641291
185	0x3d367b91	0.044551436
186	0x3d2fd7d8	0.042930454
187	0x3dede736	0.116163656
188	0x3d828fab	0.06375059
189	0xbe134588	-0.14381993
190	0x3cdbd074	0.026832797
191	0x3c7e3a09	0.015516766
192	0x3d8ce3f9	0.0687942
193	0xbd840780	-0.06446743
194	0x3d711981	0.058862213
195	0x3b9de4a3	0.0048185154
196	0xbd3a6356	-0.04550489
197	0xbccdc6dc	-0.025119238
198	0xbe86e167	-0.26343843
199	0x3c9f2056	0.019424599
200	0xbe958712	-0.29204613
201	0xbe415d07	-0.18883143
202	0xbe7e85e2	-0.2485576
203	0xbe9b9e24	-0.3039409
204	0xbe8b191f	-0.27167603
205	0xbe79fdd8	-0.2441324
206	0xbe806db2	-0.2508369
207	0xbe3e94be	-0.18611428
208	0xbea89d5c	-0.32932556
209	0xbe66ef8a	-0.22552314
210	0xbeac0ded	-0.33604375
211	0xbe9f390a	-0.31098205
212	0xbeaad6ed	-0.333671
213	0xbe73189d	-0.23739858
214	0xbea29012	-0.31750542
215	0xbed900d3	-0.4238344
216	0xbe9410c1	-0.28919032
217	0xbeb82c3e	-0.35971254
218	0xbe7e5aa3	-0.24839263
219	0xbe6cecfa	-0.23137274
220	0xbeecd4f0	-0.46256208
221	0xbeafdbba	-0.34347326
222	0xbebcc384	-0.36867917
223	0xbeb74abc	-0.35799205
224	0xbe8c5ca3	-0.27414426
225	0x3e204e3f	0.15654849
226	0x3d626407	0.055271175
227	0x3de76ab0	0.11299646
228	0x3cf1c26b	0.029511651
229	0x3e11861b	0.14211313
230	0x3d899eb1	0.06719721
231	0xbc5dbf08	-0.013534315
232	0x3e3c3f12	0.18383434
233	0x3e0292c2	0.12751296
234	0x3de10d99	0.10988922
235	0xbdc23050	-0.09481871
236	0xbe5491c0	-0.20758724
237	0xbe522174	-0.20520574
238	0x3e1291ba	0.14313403
239	0x3e3f51a9	0.18683495
240	0xbd4f4bec	-0.050609514
241	0x3cea4e8f	0.028601913
242	0xbdd8730d	-0.10568819
243	0x3c72d468	0.014821149
244	0x3e33a344	0.1754275
245	0x3daeb4c4	0.08530572
246	0x3e394fa9	0.18096794
247	0x3b9ab3a7	0.0047211233
248	0xbe5ab151	-0.21356703
249	0xbcb56978	-0.022145018
250	0x3d54aac2	0.05192066
251	0x3d23ce2a	0.039991535
252	0xbd9a3e98	-0.0753147
253	0x3b75aec8	0.003748821
254	0xbc9247c5	-0.017856488
255	0x3d247809	0.040153537

conv2.bias f4 [16]
0	0x3e464122	0.19360784
1	0x3dde4b31	0.108541854
2	0xbeb25a5b	-0.3483456
3	0x3f18b990	0.59658146
4	0xbf1bd54a	-0.6087233
5	0x3bc67dbc	0.006057469
6	0x3e098858	0.13430917
7	0xbe9c6901	-0.30548862
8	0xbf07c46b	-0.53034085
9	0xbd88c8ba	-0.066789106
10	0xbeda55b8	-0.42643523
11	0xbaf3b85f	-0.0018594376
12	0xbdcc7473	-0.099831484
13	0xbe44f851	-0.1923535
14	0x3eb72d59	0.35776785
15	0xbedd964c	-0.4327873

fc1.weight f4 [120, 400]
0	0xbd2c947a	-0.042133786
1	0x3cf2e8d0	0.02965203
2	0x3d5c23fc	0.053745255
3	0xbc76063c	-0.015016135
4	0xbcfdc771	-0.03097889
5	0x3d130704	0.035895362
6	0xbd1fbaee	-0.03899663
7	0x3ad6db91	0.001639234
8	0xbd3df350	-0.04637462
9	0x3bd3cb4c	0.006463444
10	0xbd649a8b	-0.055811446
11	0xbd782b63	-0.06058825
12	0xbca0fa0e	-0.019650485
13	0xbd7e606e	-0.06210368
14	0xbd86e293	-0.06586184
15	0xbd4199e8	-0.047265917
16	0xbc60346e	-0.013684375
17	0xbd5d1687	-0.053976562
18	0x3d29ac59	0.04142413
19	0x3c54f9b9	0.012998992
20	0x3bfdb4fb	0.007742522
21	0xbcb67882	-0.02227426
22	0x3d4fb766	0.05071201
23	0x3c4dffa4	0.0125731565
24	0x3d99bcbc	0.07506701
25	0xba5eacb9	-0.00084943656
26	0xbd090034	-0.03344746
27	0x3c2fffe1	0.010742159
28	0x3d739e17	0.059476938
29	0xbc919d26	-0.01777513
30	0x3c4fe22d	0.012688202
31	0xbcfbeb12	-0.030751739
32	0xbc7aa6be	-0.0152985435
33	0xbcc38dcc	-0.023871325
34	0x3d55491d	0.05207168
35	0x3d20ed55	0.039288837
36	0xbd0415b7	-0.03224727
37	0x3cc3e5c4	0.023913272
38	0xbc04c177	-0.008102766
39	0x3c7c0716	0.015382549
40	0x3d009f74	0.031402066
41	0x3c16c92d	0.0092032375
42	0xbcda6d17	-0.026663346
43	0x3d24d997	0.040246572
44	0xbc5c6d82	-0.013453843
45	0x3d2302d2	0.03979761
46	0xbd01fe93	-0.03173692
47	0x3cafdc26	0.02146728
48	0x3d471733	0.04860611
49	0x3c14fe01	0.009093762
50	0xbda0e0e6	-0.07855396
51	0xbc59d8e9	-0.013296344
52	0xbd39d365	-0.045367617
53	0x3d19bb19	0.037531946
54	0x3c0db8aa	0.008649984
55	0x3c2df10f	0.010616555
56	0xbc9b42f7	-0.01895283
57	0xbc14fc70	-0.009093389
58	0xba6ec17e	-0.0009107812
59	0xbaf57564	-0.0018727002
60	0x3bc86dfc	0.006116627
61	0x3caa7f5d	0.020812685
62	0xbbeb0a0f	-0.00717283
63	0xbc8011c7	-0.015633477
64	0x3ccaa26e	0.024735656
65	0x3d163f1b	0.036681276
66	0xbc38033a	-0.011231238
67	0x3d80ddca	0.06292303
68	0x3d552bca	0.052043714
69	0x3c636d4b	0.013881038
70	0x3d63ce17	0.055616464
71	0x3d0fa36f	0.03506797
72	0x3c9464c3	0.018114453
73	0xbcb39501	-0.021921637
74	0x3d3a85ec	0.045537874
75	0x3c4ec6e4	0.012620661
76	0x3d198463	0.03747977
77	0x3d032b4d	0.032023717
78	0xbc085c28	-0.008322753
79	0xbcfa0bf1	-0.030523272
80	0x3bef3b12	0.007300743
81	0x3cc60801	0.024173738
82	0x3cbea108	0.023270145
83	0x3d1a7a2e	0.037714176
84	0x3cabdd09	0.020979421
85	0x3c5f3d9d	0.01362553
86	0xbd756fb8	-0.059920996
87	0xbd5a7253	-0.053331684
88	0xbd880f5a	-0.06643553
89	0xbd9e74f6	-0.07737152
90	0xbcd5e288	-0.026108995
91	0xbcbbdf88	-0.022933736
92	0xbcdf84e5	-0.027285049
93	0xbc914edd	-0.0177378
94	0xbbbdce46	-0.005792412
95	0x3b43fc8c	0.0029905168
96	0xbd31a767	-0.043372538
97	0xbd071f11	-0.03298861
98	0x3c8a9283	0.016915565
99	0xbd0e5409	-0.03474811
100	0xbb00b14f	-0.0019636934
101	0xbd5bc43b	-0.053653937
102	0x3be64d57	0.0070282626
103	0xbd9cd9e2	-0.07658745
104	0x3c313f2e	0.010818286
105	0x3d0426bb	0.0322635
106	0xbcee45d9	-0.02908604
107	0xbd27d1fe	-0.04097175
108	0xbd468aa5	-0.048472065
109	0xbd1a819d	-0.037721265
110	0x3d507b3e	0.050898783
111	0xbc68ec04	-0.014216427
112	0xbbd71d38	-0.0065647624
113	0xbd3d834a	-0.046267785
114	0x3d035fed	0.032073904
115	0x3d65e91f	0.056130525
116	0x3dab3e4f	0.08361494
117	0x3d17a926	0.037026547
118	0x3c8dab65	0.017293641
119	0x3d01fb1d	0.03173362
120	0x3d00674e	0.03134852
121	0x3cf0ebcc	0.029409312
122	0x3c9b5645	0.018962035
123	0x3bbd95c9	0.005785678
124	0xbb41cab6	-0.0029570288
125	0x3d311cc0	0.04324031
126	0x3cacdb3a	0.02110063
127	0xbd0393ce	-0.03212338
128	0x3ac21b2f	0.0014809127
129	0x3a87f89d	0.0010373775
130	0xbcfc2093	-0.030777251
131	0x3d2ff3c1	0.04295707
132	0xbcf1dbaa	-0.02952369
133	0x3b770927	0.0037694664
134	0xbd221943	-0.039574873
135	0xbcf149f6	-0.029454213
136	0x3d00a9b0	0.031411827
137	0x3d03734a	0.03209237
138	0x3d3ff346	0.046862863
139	0xbd250a25	-0.040292878
140	0x3d4fded2	0.050749607
141	0x3c49fabb	0.012327845
142	0x3d3d0fc9	0.046157632
143	0xbd0a0363	-0.033694636
144	0x3c5ecf45	0.013599222
145	0x3bca2100	0.0061684847
146	0x3d07c935	0.03315087
147	0xbb6bb7a6	-0.0035967617
148	0xbc5e5218	-0.013569377
149	0x3d289aaf	0.041163143
150	0xbd3a26a0	-0.045446992
151	0x3b8e1f3f	0.004337221
152	0xba7bc6f0	-0.0009604534
153	0xbc20d6b9	-0.009816819
154	0xbcdf22ce	-0.027238276
155	0xbd5bfaa8	-0.05370584
156	0xbcc7541a	-0.024332095
157	0x3d0500a4	0.032471314
158	0x3d6a20a3	0.05716003
159	0xbcede2fb	-0.029038897
160	0xbd126e4d	-0.035749722
161	0x3a056f4c	0.0005090132
162	0x3bb6e259	0.005581182
163	0xbc2bf70b	-0.010495911
164	0xbc6dd5a6	-0.01451627
165	0x3cde033c	0.027101152
166	0xbc90f2be	-0.017693873
167	0xbd3aa3da	-0.045566417
168	0xbac90f22	-0.0015339593
169	0x3d680fe5	0.056655783
170	0xba1fc5bc	-0.00060948334
171	0x3d254024	0.040344372
172	0xbc93165d	-0.017955
173	0xbcd9ac32	-0.026571367
174	0x3d40414e	0.04693728
175	0xbd7d30e2	-0.061814196
176	0xbd6f5397	-0.058429327
177	0x3c3db3f0	0.011578545
178	0xbd221b42	-0.039576776
179	0xbba43c63	-0.0050120815
180	0x3cbd53ec	0.023111306
181	0xbd456c02	-0.048198707
182	0xbd5788d4	-0.052620724
183	0x3c7207dc	0.014772382
184	0x3ce77be0	0.02825731
185	0xbd39eb6c	-0.04539053
186	0xbd086e00	-0.03330803
187	0x3cbfa5e5	0.023394534
188	0xbd4472d2	-0.047961064
189	0xbc318eaf	-0.010837241
190	0x3d4564ec	0.04819195
191	0xbb0ae54e	-0.0021193805
192	0xbc887da2	-0.016661469
193	0x3d40e4df	0.04709327
194	0x3d2e6ae5	0.04258241
195	0x3cbb6f11	0.022880109
196	0x3d8f2801	0.06990052
197	0xbd09d893	-0.033653807
198	0xbd1478dc	-0.036248073
199	0x3cb0156b	0.021494588
200	0xbd25701f	-0.04039013
201	0x3cea8c7b	0.02863144
202	0xbd90c363	-0.07068517
203	0xbc564acb	-0.0130793555
204	0x3c13e94d	0.009027791
205	0x3c5180c5	0.012787049
206	0xbc84ac87	-0.016195549
207	0x3ce2ecd2	0.027700815
208	0x3d037bc1	0.032100443
209	0x3dd9d984	0.10637191
210	0x3cf2c19c	0.029633336
211	0x3d707a6b	0.058710497
212	0x3dd1f4d1	0.10251773
213	0x3dfc6eb3	0.12325802
214	0x3df43610	0.11924374
215	0xbc79e4d7	-0.015252314
216	0x3b5a26bd	0.003328725
217	0xbd3b58d7	-0.04573902
218	0xbd18e2b9	-0.037325595
219	0xbd050696	-0.032476984
220	0xbc6d4e13	-0.014483946
221	0x3da52c81	0.08065129
222	0x3d2f15ed	0.04274552
223	0xbcda788f	-0.026668815
224	0x3c28e626	0.010308778
225	0x3a85447b	0.0010167503
226	0x3bb142b1	0.0054095616
227	0x3d3337a1	0.043754224
228	0xbd3cedae	-0.046125107
229	0x3c8e7fa6	0.017394852
230	0x3d3e7b88	0.046504527
231	0xbb63cf73	-0.00347611
232	0xbceb7a17	-0.02874474
233	0x3d2edf60	0.042693496
234	0x3bd57d6a	0.0065151947
235	0xbc8efc0f	-0.017454175
236	0x3cf41e91	0.029799731
237	0x3d5d56b5	0.05403777
238	0x3b9ff03c	0.004880933
239	0x3d1015dd	0.0351771
240	0x3a636774	0.00086747785
241	0xbc84dccc	-0.016218565
242	0xbb4ccab7	-0.0031248757
243	0xbbec4d94	-0.0072113965
244	0xbc70cb8a	-0.014696965
245	0xbca95993	-0.020672595
246	0x3c868b10	0.016423732
247	0x3d124ec2	0.03571964
248	0x3d8febdb	0.07027408
249	0x3d6917e7	0.05690756
250	0x3d7438fa	0.05962465
251	0x3d006fa8	0.031356484
252	0xbcbd3255	-0.02309529
253	0x3ca0178f	0.019542484
254	0xbd240721	-0.04004586
255	0x3d38d322	0.045123227

fc1.bias f4 [120]
0	0x3c2bf900	0.010496378
1	0xbc5d27e6	-0.013498282
2	0x3c10763d	0.008817253
3	0x3e0d3696	0.13790354
4	0xbda7c569	-0.0819195
5	0x3c1da4d3	0.009621817
6	0xbdac71b9	-0.084201284
7	0x3dca646a	0.09882434
8	0xbdffcf01	-0.12490655
9	0xbd99ee98	-0.07516211
10	0xbd2b808e	-0.041870646
11	0xbcfd09f5	-0.030888537
12	0xbd2563ff	-0.040378567
13	0xbe27ae4f	-0.16375087
14	0xbbc8b6dd	-0.0061253146
15	0xbda0720b	-0.07834252
16	0xba8c5ad6	-0.0010708224
17	0xbdbd99af	-0.092578284
18	0xbdffa922	-0.124834314
19	0x3babea15	0.0052464106
20	0x3e203045	0.15643413
21	0xbe3c7e1e	-0.18407485
22	0xbdaadb93	-0.08342662
23	0xbd767f46	-0.06017997
24	0x3d5f3038	0.054489344
25	0x3c1757c8	0.009237237
26	0xbc8372ad	-0.016045893
27	0xbbda4440	-0.006660968
28	0xbbf1f161	-0.007383511
29	0x3d10a302	0.035311706
30	0xbc61d190	-0.013782874
31	0x3c23a1f0	0.009987339
32	0xbbad764f	-0.0052936445
33	0xbd2b9ec9	-0.041899476
34	0xbde206d8	-0.110364616
35	0xbd8897ba	-0.066695645
36	0x3da4388d	0.08018599
37	0xbe08c464	-0.13356167
38	0xbb9c62a1	-0.0047724997
39	0x3bade1f1	0.0053064753
40	0xbc16c5f4	-0.009202469
41	0xbcd3436a	-0.025788981
42	0xbd5a9293	-0.05336244
43	0xbd878983	-0.06618025
44	0x3e24aaed	0.16080828
45	0xbd846984	-0.06465438
46	0x3d952707	0.072828345
47	0x3bcec965	0.006310629
48	0xbcdd6041	-0.027023437
49	0xbcc53882	-0.024074797
50	0xbd28b5fa	-0.04118917
51	0xbcdfb0fc	-0.027306072
52	0xbcdf069a	-0.027224828
53	0x3e09c8c3	0.13455491
54	0x3c08c557	0.008347831
55	0x3d146c14	0.036235884
56	0xbc5bc8c3	-0.013414565
57	0x3b43f42d	0.0029900179
58	0xbc9144be	-0.017732974
59	0xbc98b8c1	-0.018642785
60	0xbc3beb38	-0.011469655
61	0xbe6197b4	-0.22030526
62	0xbca0eeb8	-0.01964508
63	0x3d45bd45	0.048276205
64	0x3e23b529	0.15987076
65	0x3d464ee1	0.04841507
66	0xbe18d07a	-0.14923277
67	0xbca9acbc	-0.020712249
68	0x3e0eeaef	0.13956808
69	0x3cd72208	0.026261345
70	0x3d0ea9b1	0.0348298
71	0x3da6815f	0.08130144
72	0xbc38f7dd	-0.011289564
73	0x3e41eee5	0.18938787
74	0x3b1211fd	0.0022288554
75	0xb983235c	-0.00025012612
76	0x3e14dad1	0.14536597
77	0x3e354cf5	0.17705138
78	0xbe13de81	-0.14440347
79	0xbb82d316	-0.0039924486
80	0xbc43eb0d	-0.011957896
81	0x3cf2878e	0.029605653
82	0xbcd43769	-0.025905328
83	0xbdf1ed49	-0.11812837
84	0x3cd74b86	0.02628113
85	0xbc949e61	-0.018141927
86	0xbd308932	-0.04309959
87	0x3c6352b5	0.013874699
88	0xbd0ebd92	-0.034848757
89	0x3d36f4b2	0.044666953
90	0x3922bed2	0.0001552061
91	0xbdeee260	-0.11664271
92	0xbc3e7dd5	-0.01162668
93	0x3e0b6ba1	0.13615276
94	0xbc6b3d1a	-0.0143578295
95	0x3cdaed10	0.026724368
96	0x3e8619a2	0.2619143
97	0x3cf8f69e	0.030391034
98	0x3de524b1	0.11188639
99	0xbd84145f	-0.06449198
100	0xbd8c63eb	-0.06854995
101	0xbcea4853	-0.02859894
102	0x3e30722e	0.17231056
103	0x3cc031df	0.02346128
104	0xbd71e324	-0.05905451
105	0xbda0d53d	-0.07853172
106	0xbda99284	-0.08279899
107	0xbced5840	-0.028972745
108	0x3d984ea2	0.07436873
109	0x3e0c8bbb	0.13725178
110	0xbd8ce2a7	-0.06879168
111	0xbe40cd91	-0.18828417
112	0x3d2b2d1f	0.041791078
113	0xbd573475	-0.05254026
114	0x3d1d4f6b	0.038405817
115	0xbcf21a9f	-0.02955371
116	0x3cb74f64	0.022376724
117	0x3dc9d162	0.0985439
118	0xbad9209e	-0.0016565507
119	0x3e5162c5	0.20447834

fc2.weight f4 [84, 120]
0	0xbd7c4d90	-0.061597407
1	0xbcd6d432	-0.02622423
2	0xbdd8affd	-0.10580442
3	0xbcaddaeb	-0.021222552
4	0xbd73bfc8	-0.05950907
5	0x3dd03ab7	0.10167449
6	0xbba6bfbb	-0.005088774
7	0xbdc3e289	-0.095646925
8	0xbd234f0d	-0.03987031
9	0xbd2707ab	-0.040778797
10	0xbdcdc0bf	-0.10046529
11	0x3d11361d	0.035451997
12	0x3cf887dc	0.03033822
13	0x3e1d16f0	0.15340781
14	0xbca08f47	-0.01959957
15	0x3ca1da2e	0.019757356
16	0xbdf331c1	-0.11874724
17	0xbd8ce27c	-0.06879136
18	0x3dd2ea7d	0.10298631
19	0x3d9456bb	0.07243105
20	0xbd9a97b6	-0.07548468
21	0x3d07b826	0.033134602
22	0x3d97256d	0.07380185
23	0xbe02b7ea	-0.1276547
24	0xbd114fbe	-0.03547644
25	0xbdb7692b	-0.08955606
26	0x3dbd5861	0.092453726
27	0xbd0d11e3	-0.034440886
28	0xbd928a65	-0.07155303
29	0xbd81eb7d	-0.06343744
30	0x3e02f78f	0.12789749
31	0xbe324bc7	-0.1741172
32	0xbcced26a	-0.025246818
33	0x3def2bb3	0.11678257
34	0xbcbbfe81	-0.022948505
35	0xbdc1c4c8	-0.09461361
36	0x3bc7a9bb	0.0060932315
37	0x3dd0036f	0.10156905
38	0x3d244b76	0.040111028
39	0x3d2e922b	0.042619865
40	0xbcdd4566	-0.02701063
41	0x3c201d41	0.0097726
42	0x3cd6e29a	0.026231099
43	0xbc005690	-0.007833138
44	0xbe69b7cf	-0.22824024
45	0xbddb9198	-0.10721129
46	0x3e300acd	0.1719162
47	0x3d8caf16	0.068693325
48	0x3e0c4d89	0.13701452
49	0x3cdef312	0.027215514
50	0x3c8c1f9f	0.017104922
51	0x3d0eae37	0.034834113
52	0xbe23dc98	-0.16002119
53	0xbe20c131	-0.15698697
54	0x3d2aadd6	0.04166969
55	0xbd13e9a5	-0.036111493
56	0x3d7a9406	0.061176322
57	0x3d6f9d5c	0.05849968
58	0x3d5ac1b2	0.05340738
59	0x3da45d92	0.080256596
60	0x3ce8d1bb	0.02842032
61	0x3e7bb15b	0.24579374
62	0xbd1fab56	-0.038981758
63	0xbe48a846	-0.19595441
64	0x3e05f2b8	0.13080871
65	0xbe031b34	-0.12803346
66	0x3e1a8224	0.15088707
67	0xbd78c368	-0.06073323
68	0xbd1abe1d	-0.037778962
69	0x3d22035d	0.03955399
70	0xbd610dcc	-0.0549448
71	0xbd3fe01b	-0.046844583
72	0x3d51b668	0.051199347
73	0xbc873b68	-0.01650782
74	0xbc08debc	-0.008353885
75	0xbdb1ae5d	-0.08675835
76	0xbdff89ed	-0.12477479
77	0xbcb2b0e9	-0.021812873
78	0xbd893714	-0.066999584
79	0x3cdd78c9	0.027035134
80	0x3d670cff	0.05640888
81	0xbd9ee40c	-0.0775834
82	0xbdd41da8	-0.10357219
83	0xbe29cbcf	-0.16581653
84	0xbd440e7c	-0.047865376
85	0xbd918b5c	-0.07106659
86	0xbc22cbd2	-0.00993629
87	0x3c82ddb1	0.015974851
88	0xbd42e2bf	-0.047579523
89	0x3bcd9ec3	0.0062750294
90	0xba2b5e1a	-0.00065371545
91	0x3dce3e1a	0.10070439
92	0xbd8c37ae	-0.068465576
93	0xbd5ed922	-0.054406293
94	0x3d7229da	0.059121944
95	0xbd2bbeef	-0.041930135
96	0xbde2084c	-0.11036739
97	0x3e667013	0.2250369
98	0xbd81cc3f	-0.06337785
99	0x3d86f965	0.06590537
100	0x3da6dd94	0.081477314
101	0xbdda2917	-0.106523685
102	0xbd7831a4	-0.060594216
103	0x3b92cd18	0.0044800155
104	0x3cb229d7	0.021748466
105	0x3e3d5d05	0.18492515
106	0x3d8dbeed	0.06921182
107	0x3d0ee3d5	0.034885246
108	0x3d557a06	0.052118324
109	0xbdec699c	-0.11543581
110	0x3dd01421	0.10160089
111	0x3bc2c783	0.005944194
112	0xbcaf0ad7	-0.021367474
113	0xbc135be7	-0.008994079
114	0x3e1171d2	0.14203575
115	0x3da3d9ed	0.080005504
116	0xbdf10e14	-0.11770263
117	0xbe7fe7c1	-0.24990751
118	0xbe512cca	-0.20427242
119	0x3d0563a5	0.03256573
120	0x3bc13e67	0.0058973315
121	0x3da4724f	0.08029615
122	0x3da630b9	0.08114762
123	0x3d5091c9	0.05092028
124	0x3dc31d48	0.09527069
125	0x3cc154b4	0.02359996
126	0xbcd60f34	-0.026130296
127	0xbdff75f9	-0.124736734
128	0x3d17901b	0.037002664
129	0x3e3ea2e5	0.18616827
130	0x3d8c2cc5	0.068444766
131	0x3cb493f1	0.0220432
132	0xbd05e923	-0.03269304
133	0xbe0e7d7e	-0.13915059
134	0xbd59b7c2	-0.05315376
135	0xbb5aad26	-0.0033367365
136	0xbc1bb39c	-0.009503271
137	0x3dbd828a	0.09253414
138	0x3d65fb2a	0.05614773
139	0x3d7d3f57	0.061827984
140	0xbe2c9042	-0.16851905
141	0x3d3a6db7	0.04551479
142	0x3d919233	0.071079634
143	0xbc8b5c52	-0.017011795
144	0x3c8df844	0.017330296
145	0x3c9f74ad	0.019464815
146	0x3d030062	0.031982787
147	0x3d01e6c0	0.0317142
148	0x3c39303a	0.011303002
149	0xbd7c2d9b	-0.06156693
150	0x3d4aa2a3	0.04947151
151	0x3dccf61a	0.10007878
152	0xbe08fecf	-0.13378452
153	0xbc2d1974	-0.0105651505
154	0x3e3a876f	0.18215726
155	0x3dac6060	0.084168196
156	0xbd8972f1	-0.067113765
157	0xbbb030f3	-0.005376929
158	0x3cfb3eb9	0.030669557
159	0xbca35363	-0.019937223
160	0xbda02b55	-0.07820765
161	0xbca59ee2	-0.020217363
162	0xbd4cf481	-0.050037865
163	0x3e056a41	0.13028814
164	0xbe120103	-0.14258198
165	0x3e111f25	0.14172037
166	0xbe0d5368	-0.13801348
167	0xbd634e8e	-0.055494837
168	0xbd4eb516	-0.050465666
169	0xba56a9fd	-0.00081887824
170	0x3d6d0565	0.057866473
171	0x3c415b0e	0.011801494
172	0xbc1136a7	-0.008863128
173	0x3d038ee7	0.032118704
174	0xbdaf5f20	-0.085630655
175	0xbd03ec35	-0.032207686
176	0xbd8cf02a	-0.06881745
177	0xbd83d9ab	-0.06438001
178	0x3d6f349e	0.05839979
179	0x3dc193a5	0.09451989
180	0xbd9f8962	-0.077898756
181	0x395cbc51	0.00021050988
182	0x3ce23b5e	0.0276162
183	0x3d3870d7	0.045029487
184	0xbe29d99a	-0.16586915
185	0xbe66c0f5	-0.22534545
186	0x3c42de9f	0.011893897
187	0xbd38c2b3	-0.045107555
188	0x3d227571	0.039662782
189	0x3d25fccd	0.040524293
190	0xbe199774	-0.14999181
191	0x3d8c2eb0	0.068448424
192	0x3df18b97	0.11794203
193	0xbd8dbb1f	-0.06920456
194	0xbdb1d4cf	-0.08683168
195	0x3dc55f07	0.09637266
196	0xbcd2bce5	-0.025724838
197	0x3dccc626	0.09998731
198	0x3e0aab8e	0.13542005
199	0xbb585e6a	-0.003301526
200	0xbdfbdb30	-0.12297666
201	0xbd990ba5	-0.07472924
202	0xbb0b483e	-0.0021252776
203	0x3d390a37	0.045175757
204	0x3df7d234	0.1210064
205	0x3cf79c96	0.030226033
206	0x3cb45ad2	0.022015963
207	0xbdb1e64a	-0.08686502
208	0x3d89bd0b	0.0672551
209	0xbdd4a012	-0.103820935
210	0x3dcedf55	0.10101191
211	0x3d46bd01	0.048520092
212	0x3e059d2b	0.13048236
213	0xba04aecf	-0.0005061449
214	0x3d335786	0.04378464
215	0x3da0681b	0.078323565
216	0xba23d185	-0.00062491774
217	0xbc091461	-0.008366675
218	0xbcacef1d	-0.021110112
219	0xbd8c6899	-0.06855888
220	0xbca16215	-0.01970009
221	0x3cc930b0	0.024559349
222	0xbd65149b	-0.055927854
223	0xbca45b5c	-0.020063095
224	0x3d719d4b	0.058987897
225	0xbe2980d7	-0.16553055
226	0x3ddb32cf	0.1070305
227	0xbce558e5	-0.02799649
228	0xbe27bd6f	-0.16380857
229	0xbd4f8caf	-0.050671276
230	0x3c893b4e	0.016751911
231	0x3d392bec	0.045207903
232	0xbdd451c8	-0.10367161
233	0x3bce1054	0.0062885676
234	0xbd246d87	-0.040143516
235	0xbd950c06	-0.07277684
236	0xbe3262e6	-0.1742054
237	0xbcd59a51	-0.02607456
238	0x3e0e8d19	0.13921012
239	0xbc334d19	-0.0109436745
240	0xbc78e6d9	-0.015191757
241	0xbd804e85	-0.062649764
242	0x3ce54af1	0.027989836
243	0x3dc1af39	0.09457249
244	0x3d11c8e2	0.035591967
245	0xbd4efb16	-0.050532423
246	0xbd2ecde6	-0.04267683
247	0xba0c2912	-0.0005346696
248	0x3cbf1174	0.023323752
249	0xba859c26	-0.0010193631
250	0xbbcd2feb	-0.006261816
251	0xbd643269	-0.055712137
252	0x3d8e20fc	0.06939885
253	0xbcc84571	-0.024447175
254	0x3ce10325	0.02746732
255	0xbcce7068	-0.025200084

fc2.bias f4 [84]
0	0xbe3af106	-0.18256006
1	0xbe1aed8e	-0.15129682
2	0x3c254781	0.010087849
3	0xbdc074a2	-0.09397246
4	0x3de1819f	0.110110514
5	0xbd72f7e9	-0.059318457
6	0xbd98baf1	-0.07457531
7	0x3d86a634	0.065746695
8	0x3e6e6216	0.23279604
9	0xbbef27db	-0.0072984523
10	0xbd2330bb	-0.039841395
11	0xbd0f850a	-0.035038985
12	0x3d8fd033	0.07022133
13	0x3d2481a8	0.040162712
14	0x3d55a90d	0.052163173
15	0x3c4d99bb	0.012548859
16	0x3b06a007	0.002054216
17	0x3ead4e0e	0.33848614
18	0xbd2f1356	-0.04274305
19	0xbe0271f7	-0.12738787
20	0x3d2e3497	0.042530622
21	0x3d7003c6	0.05859735
22	0x3d7f8462	0.06238211
23	0xbbb2afa1	-0.0054530655
24	0xbe236f40	-0.15960407
25	0xbd0efa7f	-0.03490686
26	0x3e2d5993	0.16928701
27	0x3df048d9	0.117326446
28	0x3d3b01c1	0.04565597
29	0xbc8b12a3	-0.01697666
30	0xbda46f11	-0.08028997
31	0x3da245fb	0.07923504
32	0xbe944bb7	-0.28964016
33	0xbd5bffa8	-0.05371061
34	0xbd001009	-0.031265292
35	0x3c003b5a	0.0078266505
36	0x3e015933	0.12631683
37	0x3d51f5b9	0.05125973
38	0xbd1afa05	-0.037836093
39	0x3d35fdcf	0.044431504
40	0xbda17fb1	-0.07885683
41	0xbe002b0b	-0.1251642
42	0xbdd028c6	-0.10164027
43	0xbda212c6	-0.07913737
44	0x3cec7014	0.028862037
45	0x3de2a2d9	0.11066217
46	0xbdc715aa	-0.09720929
47	0x3c967ac6	0.01836909
48	0x3ecba6a9	0.3977559
49	0xbdd45100	-0.10367012
50	0x3d046f8f	0.032332953
51	0xbdb8cdec	-0.090236515
52	0x3e5f0f29	0.21783127
53	0xbc89001e	-0.016723689
54	0xbdc83dbb	-0.09777399
55	0x3b19d376	0.0023471988
56	0xbd5742ff	-0.052554127
57	0xbda8a3de	-0.0823438
58	0xbcb79382	-0.022409204
59	0xbe48d666	-0.19613037
60	0x3cbdedbf	0.023184655
61	0xbdee047e	-0.116219506
62	0xbc53e103	-0.012932065
63	0xbc74c2df	-0.014939039
64	0xbbca3dc1	-0.0061719124
65	0x3cc8b449	0.02450003
66	0x3d938e0d	0.072048284
67	0xbdd1219e	-0.1021149
68	0x3e442194	0.19153434
69	0x3e98c952	0.29841095
70	0xbd47330e	-0.048632674
71	0x3df84aa3	0.12123611
72	0x3d62881d	0.05530559
73	0xbda40c5f	-0.08010172
74	0xbdd0b617	-0.10190981
75	0xbe3042ad	-0.17212935
76	0xbb91a831	-0.004445099
77	0xbd662d42	-0.056195505
78	0x3d2e75a0	0.042592645
79	0xbd8cc647	-0.06873756
80	0x3c39d073	0.011341202
81	0x3c8d1101	0.017220022
82	0xbd257081	-0.040390495
83	0x3ce2f5ac	0.027705036

fc3.weight f4 [10, 84]
0	0xbdc5ac80	-0.096520424
1	0xbe20b4e1	-0.15694
2	0xbbf606d9	-0.0075081405
3	0x3e8902d0	0.26759958
4	0x3e9a413a	0.3012789
5	0x3eb4c277	0.35304615
6	0xbdd16068	-0.10223466
7	0x3e768657	0.24074684
8	0xbeabac1b	-0.33529744
9	0xbe8eff2c	-0.27929056
10	0x3e781dc1	0.242301
11	0xbe0d80b3	-0.13818626
12	0xbe88e116	-0.26734227
13	0xbe787a69	-0.24265446
14	0x3d1f4c39	0.03889105
15	0x3dac9310	0.084264874
16	0xbe008e92	-0.12554386
17	0x3e6179d4	0.2201913
18	0x3e789d8c	0.2427885
19	0xbd817ea1	-0.06322981
20	0xbe6692ca	-0.22516933
21	0xbe3d0306	-0.18458185
22	0xbe9df688	-0.3085215
23	0xbd92fc3f	-0.071770184
24	0x3d5e879a	0.05432854
25	0xbc593d3a	-0.013259226
26	0x3c691ea5	0.014228498
27	0xbd7132c7	-0.058886316
28	0xbe056482	-0.13026622
29	0xbe4960d2	-0.1966584
30	0xbe0290c3	-0.12750535
31	0x3ea43660	0.32072735
32	0xbe7e01dd	-0.24805398
33	0xbdef3aff	-0.116811745
34	0xbd07c17a	-0.033143498
35	0xbe5a983c	-0.21347135
36	0xbee05140	-0.4381199
37	0xbe732712	-0.23745373
38	0x3dff853b	0.124765836
39	0x3e27b83f	0.16378878
40	0x3e0568d2	0.13028267
41	0x3e27d879	0.16391172
42	0x3e28ab42	0.1647158
43	0x3e4b57a6	0.19857654
44	0x3e7fdf51	0.24987532
45	0xbdd2c821	-0.10292078
46	0x3e129082	0.14312938
47	0x3d0b3110	0.033982337
48	0xbe05422f	-0.13013528
49	0x3e44081e	0.19143721
50	0x3de6b178	0.11264318
51	0xbdee293f	-0.11628961
52	0x3cb40247	0.021973742
53	0xbe68b83a	-0.22726527
54	0xbd5296af	-0.051413234
55	0xbe94713d	-0.28992644
56	0x3c424efb	0.011859651
57	0x3c9a6819	0.018848466
58	0x3d28fbf1	0.041255895
59	0x3e35d963	0.17758708
60	0xbcd60eca	-0.026130099
61	0xbbc98c42	-0.0061507532
62	0xbb32c3c1	-0.0027277323
63	0xbe8f3f2f	-0.27977893
64	0x3ed07fed	0.407226
65	0xbd0cd7a1	-0.034385327
66	0xbde7938e	-0.11307441
67	0xbde210be	-0.110383496
68	0xbe8fcf89	-0.28088024
69	0xbebfe23b	-0.37477288
70	0xbe34264c	-0.17592734
71	0x3e97e7aa	0.29668933
72	0xbd203615	-0.039114077
73	0x3d66aa6e	0.05631488
74	0xbe627e0d	-0.22118397
75	0x3ed05a48	0.4069388
76	0xbdb7951d	-0.08963988
77	0xbdfd2219	-0.12360019
78	0x3d09e508	0.033665687
79	0xbc4c541f	-0.012471228
80	0x3f02dff4	0.51122975
81	0x3d8e9803	0.06962588
82	0xbd12ca20	-0.035837293
83	0x3dd7dbb9	0.10539956
84	0xbd6faf6d	-0.05851691
85	0x3e87d354	0.26528418
86	0xbbf3a39a	-0.0074352743
87	0x3d90fcf1	0.07079495
88	0xbe8a3419	-0.26992872
89	0x3dc18a3b	0.094501935
90	0xbcf7d075	-0.030250767
91	0x3f2ccdac	0.6750133
92	0x3d2bd52b	0.04195134
93	0x3eb4c4ac	0.353063
94	0x3e27077f	0.16311453
95	0xbda699c4	-0.08134797
96	0xbe1d1ee1	-0.1534381
97	0x3e353e30	0.17699504
98	0x3e9f6a6a	0.31135875
99	0xbd804601	-0.06263352
100	0x3ef353ee	0.4752497
101	0xbe200721	-0.1562772
102	0x3d6a7e08	0.0572491
103	0x3da224da	0.07917185
104	0x3dc18f4d	0.094511606
105	0xbe31d4da	-0.17366353
106	0x3a2c5370	0.00065737125
107	0xbd5fd1df	-0.054643508
108	0x3e6d1245	0.231515
109	0xbdd099b8	-0.101855695
110	0xbe6a6b97	-0.22892605
111	0x3e40d16d	0.1882989
112	0xbcc51dff	-0.024062155
113	0xbe5dcf2a	-0.21661058
114	0x3ebf1bc4	0.3732587
115	0xbca6dcff	-0.020369051
116	0x3ef43fef	0.47705027
117	0xbb9e0f77	-0.004823621
118	0xbde82276	-0.11334698
119	0xbe36e3a1	-0.17860271
120	0xbeababe8	-0.33529592
121	0xbe17e83f	-0.14834689
122	0x3e7fa615	0.24965699
123	0xbdbb7e29	-0.091549225
124	0xbe751ea9	-0.23937477
125	0xbde56255	-0.11200396
126	0xbebe4d24	-0.3716823
127	0x3c29486f	0.010332211
128	0x3e550bd0	0.20805287
129	0xbe935d54	-0.2878214
130	0x3e77cbbf	0.24198817
131	0xbd555b32	-0.052088924
132	0xbdb02d14	-0.08602348
133	0xbe818a61	-0.25300887
134	0x3c62350b	0.013806592
135	0xbe2538df	-0.16134976
136	0xbcab0af3	-0.020879244
137	0xbd1c4c44	-0.03815867
138	0xbdc2b7e5	-0.09507731
139	0x3dd61f4a	0.10455187
140	0x3dac098d	0.08400259
141	0xbe983863	-0.2973052
142	0x3a82172d	0.000992512
143	0xbdcea20b	-0.10089501
144	0xbe9ceaca	-0.3064788
145	0x3c37d6dd	0.011220661
146	0xbe18347c	-0.14863771
147	0x3f19bc62	0.60053074
148	0x3e47ba25	0.19504602
149	0xbbea161a	-0.007143748
150	0xbea0a4bf	-0.3137569
151	0x3ed98b8f	0.42489287
152	0xbe2086e4	-0.15676457
153	0xbed5a05b	-0.41723904
154	0x3eb1f52c	0.34757364
155	0xbd95f660	-0.07322383
156	0x3e458851	0.19290282
157	0x3d04d556	0.032430016
158	0x3de9a2e4	0.11408022
159	0x3d8a2e62	0.06747128
160	0xbc9adffa	-0.018905628
161	0xbd3fbc08	-0.04681018
162	0xbd94e79d	-0.07270739
163	0x3ebc4747	0.3677313
164	0x3d06ca82	0.03290797
165	0xbea052f2	-0.31313282
166	0xbc8447df	-0.016147552
167	0x3dc233a7	0.09482508
168	0xbd311e98	-0.043242067
169	0xbc909014	-0.017646827
170	0x3d334c3a	0.043773867
171	0x3e920b6c	0.2852434
172	0x3eafe93c	0.3435763
173	0x3b440699	0.002991116
174	0xbe4c7b99	-0.19969024
175	0xbe1ffb51	-0.15623213
176	0xbe37d994	-0.17954093
177	0x3e98572b	0.29754004
178	0xbe9dd157	-0.30823776
179	0x3d36c587	0.04462197
180	0xbe6fc0bf	-0.2341337
181	0xbe3d6139	-0.18494119
182	0x3dfd293c	0.123613805
183	0x3d973508	0.07383162
184	0x3ea6c4a8	0.32571912
185	0x3dea08cf	0.11427461
186	0xbc8a0dda	-0.016852308
187	0xbc204a0f	-0.009783282
188	0x3e496175	0.19666083
189	0x3e91ee8e	0.28502315
190	0x3c9f7725	0.019465992
191	0xbc2a1b8c	-0.010382544
192	0xbe57ead2	-0.2108567
193	0x3e33224b	0.1749355
194	0xbe4afda8	-0.19823325
195	0xbe2fd404	-0.17170721
196	0xbe1663a1	-0.14686443
197	0xbdb7a445	-0.08966879
198	0x3d432236	0.047640048
199	0xbe38af28	-0.18035567
200	0xbcd11634	-0.025523283
201	0x3d999dec	0.07500824
202	0x3dd9243e	0.10602616
203	0xbcd9ca76	-0.026585799
204	0x3ec74c5d	0.38925448
205	0xbc0d0315	-0.008606692
206	0xbd9b20b7	-0.07574599
207	0xbd8ec674	-0.06971446
208	0x3ec4e438	0.38455367
209	0xbd8883c0	-0.06665754
210	0x3dec4fd3	0.11538663
211	0x3e077b32	0.13230589
212	0x3e27792f	0.16354822
213	0x3dbdb71c	0.09263441
214	0xbce9bf3e	-0.028533574
215	0x3e0a2897	0.13492046
216	0x3d5387c6	0.051643156
217	0x3ee61e0a	0.44944793
218	0xbe2c8146	-0.16846189
219	0x3d50e40d	0.050998736
220	0xbd79f3e8	-0.061023623
221	0x3ecfe906	0.4060747
222	0x3cdece30	0.027197927
223	0xbe4e71d6	-0.20160612
224	0xbe39aa18	-0.18131292
225	0x3d4fbce9	0.05071727
226	0xbca6f7d9	-0.020381855
227	0xbd8aa760	-0.067702055
228	0x3b645ce9	0.0034845418
229	0x3e4a202c	0.19738835
230	0x3e8f7dc9	0.28025654
231	0xbe3172ed	-0.17328997
232	0x3cab87cc	0.020938776
233	0xbe08919d	-0.13336797
234	0x3ddde802	0.108352676
235	0x3c90bf5f	0.017669378
236	0xbd5bfdab	-0.053708714
237	0x3f10d865	0.5658019
238	0x3cd1bb29	0.02560194
239	0x3ead7b3b	0.3388308
240	0xbd498965	-0.049203295
241	0xbd851c76	-0.06499569
242	0xbe39498b	-0.1809446
243	0x3c89e4d8	0.016832754
244	0xbcf9bbd7	-0.030485077
245	0xbc4edeac	-0.012626331
246	0xbdde2284	-0.10846427
247	0x3e1e86d7	0.15481125
248	0xbe22d8e8	-0.15903056
249	0x3e8ef7e9	0.27923515
250	0xbca81994	-0.02052001
251	0xbe876b59	-0.26449087
252	0xbe95fd5a	-0.29294854
253	0x3d42864b	0.047491353
254	0xbe16e2ab	-0.14734904
255	0xbd21e89d	-0.039528478

fc3.bias f4 [10]
0	0xbeabec61	-0.3357878
1	0xbe7ccf56	-0.24688467
2	0x3d0094f4	0.031392053
3	0x3eb9faa3	0.36324033
4	0x3eee4b6c	0.46541917
5	0xbed7e3f5	-0.42166105
6	0x3e8ba37a	0.2727316
7	0xbec547da	-0.3853138
8	0x3ea53665	0.32268062
9	0xbe2bd0ee	-0.16778919
