round1/2025-04-18 18:12:17-weight-client-97021157-9.pth (torch, 252478 bytes, 10 tensors)

conv1.weight f4 [6, 3, 5, 5]
000000 d9 9c 91 be d6 17 61 be 03 5f 3a be 4a 45 4c be
       -0.28439978 -0.21981749 -0.18200307 -0.19948307
000010 82 a5 89 be 18 b9 bd be 18 a7 9c be 2f 65 a9 be
       -0.26884085 -0.37055278 -0.30596232 -0.3308501
000020 02 3c ad be 0e b4 93 be f8 46 9b be de 89 4e be
       -0.33834845 -0.28848308 -0.30327582 -0.2016978
000030 e2 de a3 be 33 38 40 be 85 f0 8c be d1 c2 20 be
       -0.32005984 -0.18771438 -0.27527252 -0.15699317
000040 25 4f 25 be c8 6f 54 be f4 75 3d be 3c b2 93 be
       -0.16143472 -0.20745766 -0.18502027 -0.2884692
000050 65 10 f1 bd 8e 6e 96 bd 26 5e 49 3d 7b dc 20 be
       -0.11770705 -0.073453054 0.049162053 -0.15709107
000060 09 49 46 bd a6 bb 13 3d 34 c1 c7 3c 94 c0 3d bd
       -0.048409496 0.036067627 0.024384119 -0.046326235
000070 09 ef 04 bc a3 e4 ef bd 5c 1d b1 bd 72 03 48 bd
       -0.008113631 -0.11713531 -0.08648178 -0.04883141
000080 1f 14 1b bd 4b 98 78 bd 53 d6 eb 3b 88 c7 50 be
       -0.037860986 -0.060692113 0.0071971803 -0.20388615
000090 24 a8 13 be 1b d5 ad bd ed 70 30 be 4b e2 8b bd
       -0.1441961 -0.08487912 -0.17230578 -0.06830271
0000a0 50 f1 d8 bd c0 1f 8c bd 95 3a 00 be 43 e1 20 be
       -0.10592902 -0.06841993 -0.12522347 -0.1571093
0000b0 42 7a 98 bd 97 96 56 be 2d 19 2d bd ab 96 f0 bd
       -0.07445194 -0.20955883 -0.042260338 -0.11747488
0000c0 2b b4 7c bc a6 2a d5 bd 5f 63 15 3f 5c 8f ef 3e
       -0.015423815 -0.10408525 0.58354753 0.46789062
0000d0 2b 4c 1b 3f 78 bb d0 3e de 74 13 3f 2b 23 c2 3e
       0.606631 0.40768027 0.576002 0.37917456
0000e0 2d 2b d7 3e c0 df f0 3e 26 ef 09 3f 6d 58 bf 3e
       0.42025128 0.47045708 0.53880537 0.3737215
0000f0 06 72 fc 3e 23 c8 ed 3e b6 d4 d6 3e 58 97 d4 3e
       0.49305743 0.46441755 0.4195916 0.41521716
000100 85 d0 cb 3e 67 a1 be 3e 42 11 a8 3e cc 9b 05 3f
       0.39807525 0.37232515 0.32825667 0.5219085
000110 9e 29 f7 3e 1f b6 e8 3e 3e d0 f8 3e 60 db ad 3e
       0.4827394 0.45451447 0.48596376 0.33956432
000120 27 e7 c8 3e e7 3a ee 3e d4 41 ec 3e 98 49 5f be
       0.39238855 0.46529314 0.46143973 -0.21805418
000130 3c 97 0c bd 87 23 5e be 27 dd 81 bd c1 89 7e bd
       -0.034323916 -0.2169324 -0.063410096 -0.06214309
000140 d3 d2 b8 3c ec 4b dc bc 96 3c e7 bc 91 02 f1 bc
       0.022561466 -0.026891671 -0.028227132 -0.02942017
000150 e1 a4 fb bc c2 03 62 3d 65 1d 67 3d 8c d4 11 be
       -0.030718269 0.055179365 0.056424517 -0.14241236
000160 ed d2 82 3d 61 ce 06 bc 05 16 31 3e ad 75 01 3e
       0.06387887 -0.0082279155 0.17293556 0.12642546
000170 da e7 1c 3e da d4 ad 3d 79 01 34 3e 5f bb 21 3e
       0.1532282 0.08487864 0.17578687 0.15794133
000180 97 fb b6 3d 38 5e 27 3e a0 31 2a 3e 82 63 37 3e
       0.08934706 0.16344535 0.16620493 0.17909053
000190 09 26 28 3e be 16 81 3e d3 19 9d 3e 96 11 a2 3e
       0.1642076 0.25212663 0.30683765 0.31654042
0001a0 f9 62 2f 3e 5c 89 86 3e ff e9 7b 3e 88 7c 46 3e
       0.17127599 0.26276672 0.24600981 0.19383442
0001b0 eb 8f 89 3e 47 83 2f 3e 98 1c 9b 3e 02 4c 17 3e
       0.26867613 0.17139922 0.30295253 0.14775088
0001c0 e4 66 7b 3e 56 d9 f7 3d 13 65 b1 3e 29 08 d9 3d
       0.24550968 0.121020004 0.34647426 0.105972596
0001d0 1e 8d 26 3e a8 ff 9d 3e 63 b5 ca 3d 09 96 59 3e
       0.1626477 0.30859113 0.09897878 0.2124864
0001e0 53 3e 56 3e 10 27 12 3e 73 68 be 3e 00 8d 63 3e
       0.20922212 0.14272714 0.37189063 0.22221756
0001f0 49 ff 94 3e ee b7 51 be b6 6c 3d be 8b a5 07 be
       0.29101017 -0.2048032 -0.18498501 -0.13246743
000200 d7 ba 89 bd bd 27 bb bd 55 e7 73 be 34 c3 63 be
       -0.0672509 -0.09138439 -0.23818715 -0.22242433
000210 2a f1 30 be b8 57 31 be ca 48 82 be 84 50 0b be
       -0.17279497 -0.17318618 -0.2544616 -0.13604933
000220 67 52 4c be 5f 89 a3 be 26 d2 fc bd 74 fe 2d be
       -0.19953309 -0.31940743 -0.1234477 -0.16991597
000230 1d 90 32 be 06 a1 66 be 79 97 4c be 42 95 6a be
       -0.17437787 -0.22522363 -0.19979657 -0.229085
000240 9b 69 69 be 27 4c a8 bd 9c d4 a3 be 62 68 06 be
       -0.22794192 -0.0821765 -0.31998146 -0.13125756
000250 6b b8 42 be 60 92 8b bd 9f 84 0c bd ae 83 10 be
       -0.19015662 -0.06815028 -0.034306165 -0.14112732
000260 4d cd 46 3d 2a af 83 3c a5 f1 2e 3d 02 40 93 bd
       0.048535634 0.016074736 0.04271092 -0.07189943
000270 24 9d c6 bc 25 71 00 be 25 ea fe bd b5 4c ff bd
       -0.024244852 -0.12543161 -0.12447003 -0.124658026
000280 89 dc a2 3d 9f f3 8e bd 30 77 0a bd 62 23 8f bc
       0.0795222 -0.06980061 -0.033805072 -0.017472927
000290 64 03 0f 3d 25 d9 15 bd ff 29 09 bd 87 18 c8 3d
       0.034915343 -0.03658404 -0.033487316 0.09770303
0002a0 75 7d 61 bd e0 6d 97 bd 7e f8 28 3e e9 7a d1 3c
       -0.055051286 -0.07394004 0.16501042 0.025571303
0002b0 c7 fa 29 bc 64 2c 92 3d 67 15 fa 3c e0 7c 7a 3e
       -0.010374731 0.07137373 0.030527784 0.24461699
0002c0 d2 73 60 3e e6 19 62 3d cf a0 4c 3d a4 07 bb 3d
       0.21919182 0.05520048 0.049958047 0.09132317
0002d0 b3 c6 65 3e 3e 10 b7 3d 41 2f 22 3e 97 39 2c 3e
       0.22439079 0.08938645 0.15838338 0.16818844
0002e0 a1 6d 36 3e bb 30 cc 3d f4 c3 28 3d 24 bf 08 3e
       0.17815258 0.09970232 0.0412025 0.13354164
0002f0 20 a9 51 3e 96 76 96 3d 92 64 e0 3d 50 62 1f 3e
       0.20474672 0.07346837 0.10956682 0.15564847
000300 f8 41 68 3e ba 15 eb 3d df a8 d5 3d a4 8f 4c 3e
       0.22681415 0.114787534 0.104326 0.1997667
000310 c1 ab c5 3d e5 92 2f 3e 14 d6 f9 3d 2f fb ea 3d
       0.096519 0.1714588 0.12199035 0.11473691
000320 15 48 2b 3c 51 8c c6 3d 76 55 a1 bd ae 57 85 bc
       0.010454197 0.09694732 -0.078776285 -0.01627716
000330 96 70 b3 bc da c5 ae bd 2f f3 96 3c 26 bd 16 3d
       -0.021904271 -0.08533831 0.018426506 0.03680148
000340 70 fd 64 3d 5e 48 7e bd d1 4f 29 3d 25 1e 0d be
       0.05590576 -0.062080733 0.041335884 -0.1378103
000350 94 3b c3 bd d5 e3 f0 bc 2c 0b cc bd 65 f0 cf 3c
       -0.09532848 -0.029405514 -0.09963068 0.025383184
000360 28 cc 10 be 51 c8 38 be 46 d7 2f be ad 80 29 3c
       -0.1414038 -0.18045165 -0.17171964 0.01034562
000370 58 61 e9 bc cd a3 0c be fb 49 b5 bd fc be 5e bd
       -0.0284888 -0.1373436 -0.08852001 -0.054381356
000380 6a 01 aa bc a4 78 5e bd 46 3a 32 be af ec 82 bd
       -0.020752627 -0.05431427 -0.17405042 -0.063928
000390 1c cf b6 bd 7e 09 36 3c e2 b6 24 be b0 21 18 be
       -0.08926222 0.011110662 -0.1608539 -0.14856601
0003a0 75 cd c4 bd f5 cb 20 be f5 cb 48 be 99 78 5c bd
       -0.096095 -0.15702803 -0.19609053 -0.05382595
0003b0 86 55 83 bd ba 97 db bd 8c 98 59 bd 73 d8 00 be
       -0.06412797 -0.10722299 -0.053123996 -0.12582569
0003c0 18 b2 6e 3d 81 bc 3a bd b3 d8 01 bd ac ae 01 3d
       0.058275312 -0.045589928 -0.0317008 0.03166072
0003d0 dd 6c 14 bd b5 db d4 3d 99 9b 7c bd 14 8b 72 bb
       -0.036236633 0.10393468 -0.061671827 -0.0037009167
0003e0 ee 75 45 3d 5b b3 c3 3d bf ff 37 3e 21 6b 49 3e
       0.04820817 0.09555694 0.17968653 0.19669773
0003f0 22 10 4e 3e 85 b0 21 3e 9b 83 50 3e 53 75 13 3e
       0.20123342 0.15789993 0.20362704 0.14400224

conv1.bias f4 [6]
000000 16 1a a2 bf 62 93 f5 be a5 8d f1 be c0 03 84 be
       -1.2664211 -0.47964007 -0.4717838 -0.2578411
000010 b7 c4 e1 3d bd fb 2e bf
       0.110238485 -0.6835287

conv2.weight f4 [16, 6, 5, 5]
000000 56 b4 2d be 14 f3 de bd 4f cf 18 be 5f 8c c5 bd
       -0.16963324 -0.10886207 -0.14922832 -0.09645914
000010 4f 85 1e be f8 a0 77 bc 7e 23 cb bb cb 93 ab 3c
       -0.1548054 -0.015114062 -0.0061992994 0.020944497
000020 28 bb 70 bd 02 ee 33 be 0e a6 1b 3d 99 41 8f bb
       -0.058772236 -0.17571262 0.03800016 -0.0043718335
000030 4c d3 a3 3b 4b 17 ff bc 87 e7 0c bd 2a 2a 12 bc
       0.004999554 -0.031139037 -0.03440049 -0.0089211855
000040 e1 1a 0f bc 7f 05 68 3c 80 6a 9a 3d d4 83 f4 3d
       -0.008734436 0.014161467 0.075398445 0.11939207
000050 40 d3 dd 3d a0 0c 8d 3c 05 63 d6 3d b0 77 1c 3e
       0.10831308 0.017217934 0.10468105 0.15280032
000060 bf c0 0a 3e 8f 05 8a be ff 1a 93 be 00 4d b4 be
       0.1355009 -0.26957366 -0.28731534 -0.35214996
000070 30 35 83 be 4e 11 12 be 31 1a 1f be b8 ee 93 be
       -0.25626516 -0.14264414 -0.15537335 -0.28893065
000080 b0 c0 94 be b9 3f 85 be 34 e8 06 be b6 58 d7 3c
       -0.2905326 -0.2602518 -0.13174516 0.026287418
000090 a2 44 e1 bc bd e3 26 bd 12 b3 5e 3c 79 aa 46 bd
       -0.027498547 -0.040744532 0.013592498 -0.04850242
0000a0 8f 09 e5 3d 29 0c 7a 3e 9c 3b 58 3e ac 83 50 3e
       0.11183464 0.24418701 0.21116489 0.20362729
0000b0 4e 3d 79 3e b6 c7 cb 3e 9e 84 b7 3e 60 11 73 3e
       0.24339792 0.39800805 0.35843366 0.23737097
0000c0 6d b3 bf 3e fc 5b 94 3e ec b5 c2 bd 70 35 18 bd
       0.37441579 0.28976429 -0.09507355 -0.037160337
0000d0 21 90 04 be e6 00 0f be 87 90 6f bd 46 40 9d ba
       -0.12945606 -0.13965186 -0.05848744 -0.0011997304
0000e0 7a 75 58 3b 21 1a e0 bc 4f 2d 15 bd 14 5c c7 bb
       0.0033029006 -0.02735621 -0.036420163 -0.0060839746
0000f0 13 0e 62 bd d8 c6 83 bc 4d f4 80 3d 87 2e a3 3d
       -0.055189203 -0.016086027 0.06296597 0.07967859
000100 41 03 3b 3d ec ca 19 3d 66 e1 0f 3e b1 10 90 3d
       0.0456574 0.037547037 0.14050826 0.07034434
000110 ce ac 77 3c 01 44 cb 3d c8 6e e3 3d 79 2d 21 3e
       0.015116883 0.0992508 0.11105114 0.15740003
000120 b9 e9 d0 3d 25 fd e4 3d a6 1f ce 3d 7a 0c 2d be
       0.10200829 0.11181096 0.1006463 -0.1689929
000130 a2 2e 81 be 0f 00 76 be 52 79 8c be 96 76 16 be
       -0.2523089 -0.2402346 -0.2743631 -0.14693674
000140 63 0d 21 be f4 b0 40 be d4 f1 1a be cb 9f 30 be
       -0.15727763 -0.18817502 -0.15131313 -0.17248456
000150 c7 60 03 be 87 b3 86 bb 49 0e 8b 3d 31 e4 0c bd
       -0.12829886 -0.004110757 0.06789834 -0.034397308
000160 df 96 a7 3d 2c 91 9d 3d 3d 20 ec 3c 7b 54 cd 3d
       0.08183073 0.07693705 0.028823966 0.10025879
000170 31 f6 0c 3e ff a1 04 3e 68 a9 e3 3d a7 76 8b 3e
       0.1376579 0.12952422 0.11116296 0.27238962
000180 eb 48 19 3e c6 da 4b 3e 37 c8 64 3e fb 77 10 3e
       0.14969222 0.19907674 0.22342001 0.14108269
000190 68 59 8b 3d 28 3c 52 3b 34 1f 28 bd ae ea 66 bd
       0.06804162 0.0032079313 -0.041045383 -0.05637615
0001a0 52 7a 89 bd 1d f1 d6 3c e1 16 6b bd 9d eb 7c 3d
       -0.06712784 0.026238019 -0.057394866 0.061748136
0001b0 88 9d 5c 3b 77 2d 32 3d a5 fb 81 3c 96 7a d0 bb
       0.0033663232 0.04350039 0.015867064 -0.0063622696
0001c0 2c 26 17 3d ec a4 a3 3d ac 49 83 bd 0f c4 9c 3b
       0.036901638 0.07990441 -0.06410536 0.004784114
0001d0 62 64 b6 bc fa c0 a1 bd 72 4e a4 3c 7b 9d a6 bb
       -0.022264663 -0.078981355 0.020056937 -0.005084691
0001e0 92 30 8d 3b f3 11 69 bb 64 97 bb 3c 97 86 99 bd
       0.0043087685 -0.0035563677 0.022899337 -0.07496374
0001f0 46 4f 40 3c 60 f2 8b bd 61 8a 6b bd a3 eb 88 bd
       0.01173765 -0.06833339 -0.057505015 -0.06685569
000200 8a 82 19 be cf 89 d2 bd 26 3b b0 bd 72 a7 c4 bd
       -0.14991203 -0.10280191 -0.08605032 -0.0960225
000210 0b 5b d5 bd 00 83 e9 bd d9 36 c0 bd 3d 56 b5 bd
       -0.10417756 -0.114019394 -0.09385461 -0.08854339
000220 b1 87 c4 bd 54 1c 7e 3c f5 1e 9c bd 4c 28 cc 3a
       -0.095961936 0.015509684 -0.07623092 0.0015575974
000230 9a e3 08 3e 1c df 89 bb 5b bd ad 3d 33 bb fe bc
       0.13368073 -0.004207505 0.08483382 -0.031095123
000240 e2 f6 9a 3d 16 ac fd 3d 8e 45 33 3e 21 94 1f 3e
       0.075666204 0.123863384 0.17507002 0.1558385
000250 e9 2a f4 3d aa d2 41 3e 13 f5 a0 bc 76 50 44 bd
       0.11922247 0.18928018 -0.01964811 -0.047928296
000260 dd a2 90 bd da f3 7a 3d fc 81 6b bd 71 8c 96 3d
       -0.07062314 0.06126771 -0.05749701 0.07351006
000270 41 af ca 3c 67 4d a5 bd e4 17 07 bd ed 91 3d b9
       0.02474177 -0.08071404 -0.03298177 -0.00018078806
000280 44 60 8b bc 9b 1e a9 bc 61 e9 b9 3c 57 e7 9c 3d
       -0.017013676 -0.020644477 0.022694292 0.07661312
000290 6f a4 16 bd bd d5 75 bc a1 43 2a bd 54 b8 31 3d
       -0.03677791 -0.015004572 -0.041568402 0.04338868
0002a0 25 a7 7b 3d 35 12 16 bd 3b 0c 20 3d d8 c3 23 bd
       0.0614387 -0.036638457 0.039074164 -0.039981693
0002b0 27 34 72 bd ad df ab 3d ea 69 c3 3a a1 0d 31 3d
       -0.059131768 0.08392272 0.0014908884 0.04322589
0002c0 1b fb 63 3c c9 ac 81 bd 38 f5 2a bd 89 4c 27 3d
       0.013914849 -0.06331784 -0.041737765 0.040844474
0002d0 66 5d e2 3c 07 d4 12 bd 26 d9 44 3c a4 3b 7c bd
       0.027632426 -0.035846736 0.012014663 -0.061580315
0002e0 cb bf ad bb c4 0b 38 3c 6c ba 9e bd d5 b0 b9 3b
       -0.0053024045 0.011233274 -0.07750401 0.005666832
0002f0 dc af 1d bd f5 31 41 3d 31 83 6a bd 25 3a 51 b9
       -0.03849779 0.047166783 -0.05725402 -0.00019953454
000300 85 43 83 bd 78 9a 40 bb 78 18 46 3c 92 04 70 3b
       -0.06409363 -0.0029388946 0.012090795 0.0036623818
000310 14 c3 a7 3d 00 5d 76 bd 1a f5 5a bd d4 83 c1 bc
       0.08191505 -0.060147285 -0.053456403 -0.02362243
000320 e6 a4 4b bd e9 20 63 3c a7 a3 82 bb e7 3c ba 3b
       -0.049717806 0.013862827 -0.003986794 0.0056835297
000330 35 25 cf bc cd e2 96 3d 32 8a 59 bd bd ac 79 3d
       -0.025286296 0.073674776 -0.05311031 0.06095575
000340 65 5e a1 3d f6 05 ab 3c 7d 76 84 bd d1 3f 36 3c
       0.078793325 0.020876866 -0.06467912 0.011123613
000350 08 03 19 3b 14 6d 3f bd a0 c2 5c bd 04 3a 95 3c
       0.0023347754 -0.046734884 -0.053896546 0.01821614
000360 e6 1c 04 3d 8d e4 2d 3c 75 ec 2e bd 72 0e 48 3d
       0.032254122 0.010613573 -0.04270597 0.0488419
000370 19 f8 d0 3c a7 90 21 bd 7c 46 94 bc 93 3f 3f 3d
       0.025508927 -0.03944459 -0.018100016 0.04669149
000380 5d 3f 55 bd 90 11 9c bd 8b a9 97 b9 73 2b 9d 3d
       -0.05206238 -0.07620537 -0.00028927284 0.07674303
000390 74 46 03 bd 34 12 8c bd e9 50 0c 3b bb 35 58 bd
       -0.03204961 -0.068394095 0.002141053 -0.052785616
0003a0 d2 74 47 bc 66 29 2e bc 86 5e 03 3a 1a 4e 7c bc
       -0.012173848 -0.010629987 0.00050113385 -0.01539948
0003b0 e9 f6 82 3b ab f0 7d bd 39 b0 d0 3b a8 d8 c2 3c
       0.003996719 -0.061997097 0.0063686636 0.02378495
0003c0 12 99 d9 bb f2 e5 9d 3d 17 b0 a2 3b ea e9 6e 3d
       -0.006640562 0.07709874 0.004964839 0.058328547
0003d0 86 12 a5 bd c1 5e 8d bc 1f de f3 bc cc 29 98 bd
       -0.08060174 -0.017257096 -0.029769002 -0.07429847
0003e0 ce e6 f4 3c cc f4 79 3d 8c d2 97 3d 42 30 80 39
       0.029895213 0.061024472 0.074132055 0.00024450017
0003f0 18 a8 ff bc d5 72 cf 3a e0 6f 3d bd 0f 82 9d bd
       -0.031208083 0.0015827069 -0.04624927 -0.07690822

conv2.bias f4 [16]
000000 d6 98 ce 3b a5 46 b8 bc d3 3e 5c bd 48 13 49 be
       0.0063048406 -0.022494623 -0.05377085 -0.19636261
000010 84 f9 65 be 0e d0 4f bd a4 3a 9c be df 9b 43 3b
       -0.22458464 -0.050735526 -0.3051349 0.0029847545
000020 b8 22 03 bc e2 59 9b 3e 4b 23 79 be 5b 9d b5 3c
       -0.008003883 0.30342013 -0.2432987 0.02216976
000030 aa b0 94 bd 34 9c 4e bc 62 9a 14 be 04 26 95 bd
       -0.072602585 -0.012610484 -0.14512017 -0.072826415

fc1.weight f4 [120, 400]
000000 4c 32 f2 3c 59 72 27 3d 68 5b 77 bd f5 44 12 bd
       0.029564999 0.040880535 -0.060389906 -0.035710294
000010 61 f6 54 3c 96 e5 ee 3c 5a 66 fc 3c c4 36 00 3d
       0.012998194 0.02916221 0.030810524 0.03130223
000020 27 61 67 3d 76 3f 1a 3d 5b 32 92 3c 8d 9f 76 bc
       0.056489136 0.037658177 0.017846277 -0.015052688
000030 2f 40 97 3d 22 c7 fc 3b 7c 41 f9 3c 0e e1 a2 3c
       0.07385289 0.007714168 0.030426733 0.019882705
000040 58 0c 43 3c 21 08 50 3d de 6f 7a 3d ee b2 b1 3d
       0.011904798 0.050789002 0.06114184 0.08676706
000050 e0 53 b0 3d f1 8c fa 3c 82 82 59 3d 5c e3 db 3d
       0.08609748 0.030584784 0.053102978 0.10736725
000060 ef 1f cf 3d 17 2e 42 bd 00 65 01 bd ab 5a 88 bc
       0.10113513 -0.047407236 -0.03159046 -0.016644796
000070 8a 0f 90 3c 3b b9 19 3c 10 34 8c 3c ef 1b da bc
       0.017585535 0.009382541 0.01711467 -0.026624648
000080 b4 19 07 3d 5f da d9 3b eb c3 be 3c ff 43 38 3c
       0.032983497 0.0066483463 0.02328678 0.01124668
000090 ff bb a8 3b a5 b8 c1 bc 1b 85 4c 3c 11 0e 32 bd
       0.005149364 -0.023647616 0.012482907 -0.043470446
0000a0 74 3a d5 3c e2 df 1f 3c 4f 4a 83 3c 17 6e 31 3d
       0.02602885 0.009757968 0.016026644 0.04331788
0000b0 7d 8a e5 bc 3a b4 cf bb 3f 22 e7 3c 8d aa 9e 3b
       -0.028020138 -0.0063386234 0.028214572 0.0048421086
0000c0 0b 1d ac bb 36 8a 06 bd 85 bf 2c bd 33 45 07 bc
       -0.0052524856 -0.032846652 -0.042174835 -0.0082562445
0000d0 d1 e0 1a bd ce 9d f5 bc eb 04 fa 3c de d5 47 bd
       -0.037812058 -0.029982474 0.030519923 -0.048787944
0000e0 22 60 1d bd 5a bb ae 3c 08 85 14 3d 33 e8 50 bc
       -0.038421758 0.02132957 0.03625968 -0.012750673
0000f0 e0 e4 44 bd 5c ca 2d 3d 57 e6 45 3d 45 3c ed 3c
       -0.048069835 0.042429313 0.048315372 0.028959403
000100 27 69 9e bc 4e d4 21 bd 9a be 34 bd 7d 4a e1 3c
       -0.01933725 -0.03950911 -0.044127084 0.02750134
000110 cd 1e cc 3c eb bb 02 3c bc 7d 17 3d e4 e3 95 3a
       0.02491703 0.007979373 0.036985144 0.0011435715
000120 95 93 6f bc 32 bb 84 3c 88 bf 43 3c 0f 5e 4a 3d
       -0.014622589 0.016202543 0.01194752 0.049406108
000130 b4 02 94 3d ed 5c 7a bc de 96 62 3d c7 1f bb 3c
       0.07227078 -0.015280944 0.05531966 0.022842301
000140 a9 ad 8c 3d d4 ea 90 bc 69 c7 52 3d 84 d5 63 3d
       0.068690605 -0.0176901 0.051459704 0.055623546
000150 6f a1 99 3c c3 23 ba 3c cb dd de 3c ca d4 ca bc
       0.018753735 0.02272213 0.027205369 -0.024759669
000160 0c 74 ce bb 17 7e 53 bd c9 83 22 bd 3b 2a 9e bc
       -0.006300455 -0.05163392 -0.03967646 -0.019307246
000170 9b 65 06 bc 94 d9 51 bd 0b da 91 bd f4 88 10 bd
       -0.008202936 -0.05123289 -0.071216665 -0.03528686
000180 5f ed 9b bc 67 f9 0e bc 37 5f 03 bd 8b 2b 10 bd
       -0.019034086 -0.008726454 -0.032073226 -0.035197776
000190 01 04 11 3d a2 c1 90 3d b8 c5 b0 3d d4 15 88 bc
       0.03540421 0.070681825 0.08631462 -0.016611971
0001a0 d6 e9 2b bd 70 67 eb bc ed 52 01 3c 2a a3 07 3d
       -0.04197105 -0.028735846 0.007893306 0.03311459
0001b0 44 e7 93 3d 90 bf ee 3c c9 63 de 3c b8 cb 9f 3d
       0.07221845 0.029144078 0.02714719 0.07802528
0001c0 62 42 de 3d 0b 70 d3 3c 05 44 3c 3d 6e a1 54 bc
       0.10852505 0.025810262 0.045963306 -0.012977941
0001d0 bd f2 8c 3d d4 0c 9b 3d 77 07 d0 3c f7 fe 5d bc
       0.06882236 0.07570806 0.025394185 -0.013549558
0001e0 bc 72 2b bc 55 f6 36 bd 06 bd cd 3c 72 a5 78 bd
       -0.0104643665 -0.044668514 0.025114547 -0.060704656
0001f0 97 47 f8 bd c9 a0 2b bd fd 46 c8 3c c4 a1 10 3c
       -0.1212303 -0.041901384 0.024447912 0.00882763
000200 92 bd 1d 3d 7d 30 20 bc d1 19 01 bd 1b 47 3c bb
       0.038510866 -0.0097771855 -0.03151876 -0.0028728906
000210 c2 f1 16 3d fa 90 c9 3b fe a3 57 bb 5d 6b 91 ba
       0.036851652 0.0061513158 -0.0032904143 -0.0011094619
000220 fe 00 15 3d 1e 6a ef 3c 67 68 0c 3d 2f f2 2a bd
       0.0363779 0.029225405 0.034279253 -0.04173487
000230 b3 14 07 3d a2 a0 c3 3b 12 ec 9d 3c 06 41 9a 3c
       0.032978725 0.0059700767 0.019277606 0.018829834
000240 fc bb cd 3c de c6 07 bc a9 74 31 3c 46 e9 9d bc
       0.025114052 -0.00828716 0.010831037 -0.019276273
000250 6a 29 b9 bc a6 32 ca 3c 80 6a 8c bc 50 99 87 bc
       -0.022602756 0.024682354 -0.017140627 -0.016552597
000260 c7 11 c4 3c 74 4a 96 3c 79 fe 37 bd 40 f0 4f bc
       0.023934258 0.018346049 -0.04492042 -0.012691557
000270 74 20 d8 bc 32 a7 1b 3b d4 f5 34 3d 06 ce 15 3d
       -0.026382662 0.002375078 0.044179752 0.036573432
000280 6d d3 17 bd 1d 55 d4 3c da 05 a6 3c 40 da f1 3c
       -0.037066866 0.025919491 0.020266462 0.029523015
000290 43 88 91 3c 72 7f 85 3c 38 2f 18 3d 8f 89 ac bc
       0.01776517 0.016296122 0.037154406 -0.021061687
0002a0 06 61 b5 bb 6d 1c e8 bc ac 63 83 bd 2e 42 2c 3a
       -0.0055352477 -0.028333867 -0.06415495 0.0006571141
0002b0 89 e0 03 bd 90 cd 01 bd fd 93 70 3c a9 8c 39 3c
       -0.032196555 -0.03169018 0.014683721 0.01132504
0002c0 03 e9 2a 38 7b 0c d2 3b bd d3 a5 3c d0 fa 27 3d
       4.0748168e-05 0.006410179 0.020242566 0.041010678
0002d0 aa 46 0f 3c 7f e9 b2 3c e0 3a e1 bc 5b 85 46 3d
       0.008744875 0.021839855 -0.027493894 0.04846702
0002e0 b8 d6 27 bc 71 de 8c 3c 13 f1 c5 3c e6 c4 11 bc
       -0.010244064 0.017195912 0.024162805 -0.008897042
0002f0 81 56 21 bd 80 40 d6 bc 46 4d 0f bd 81 c9 dc 3c
       -0.039389137 -0.026153803 -0.034985803 0.026951553
000300 4e 45 fc bc 12 ba 85 bb 65 b3 d9 3b 72 e0 f4 3c
       -0.030794766 -0.004081019 0.0066437 0.02989218
000310 d0 c4 2b bd 80 e5 aa 3c 24 e9 08 3d 12 f9 31 3d
       -0.041935742 0.020861387 0.033425465 0.043450423
000320 76 b8 3b bd 13 61 a5 3c fe 0b 2c bd 50 8e 2b 3d
       -0.045830213 0.02018789 -0.042003624 0.041883767
000330 5a d6 fa bc a3 a0 b0 3c 43 49 5c 3c 9d 48 21 3d
       -0.030619789 0.021560973 0.013445201 0.03937589
000340 3d d1 45 3d 25 66 56 3c 8a 75 80 bc 80 b3 9d 3d
       0.04829525 0.013085877 -0.015681047 0.077002525
000350 f0 44 b6 3d ae 78 a3 3d d2 2c 9d bc 3c b0 bc 3c
       0.088998675 0.07982002 -0.019186411 0.023033254
000360 c1 74 a4 3d 50 76 b0 3d 2a cd 08 bc f2 a0 bb bb
       0.080300815 0.08616316 -0.008349696 -0.0057259733
000370 c7 22 b5 bc 22 53 ea bc ac 86 ea bb ac 0e 66 bc
       -0.02211131 -0.028604094 -0.0071571674 -0.014041584
000380 7f ca 87 bc 3f 97 58 3d 3d 43 a8 bc 87 6a 7c 3c
       -0.01657605 0.052878615 -0.020539874 0.0154062575
000390 bb b8 3e bb 5d b3 00 3d 17 d5 52 3d db 7c 22 bd
       -0.0029101807 0.031421054 0.05147275 -0.039669853
0003a0 ec 3c 30 bd ce c9 85 bd 2b bb ec bc 6b 52 ce bb
       -0.04302685 -0.06532632 -0.028897842 -0.006296446
0003b0 cd ff 69 bd 64 be 93 bd 4e 9f ab bd 49 f2 71 bd
       -0.057128716 -0.072140485 -0.08379994 -0.05906895
0003c0 86 b6 4a bd 63 e7 18 bd e6 de 84 bc 0b fa 1a 3c
       -0.049490474 -0.037330043 -0.016219568 0.009459029
0003d0 c8 41 a3 3c be b9 06 3c 13 ef 21 3b 06 6f 37 bd
       0.019928828 0.008222995 0.002470915 -0.044783615
0003e0 ac b6 1c 3d 52 34 81 3d 60 9f 38 3c bc 4f 2e 3d
       0.038260147 0.063088074 0.011268467 0.04255651
0003f0 cf ea aa bc fd b9 9d 3c e2 5f 9b bc f0 84 2d bc
       -0.020863919 0.019253725 -0.018966619 -0.010590777

fc1.bias f4 [120]
000000 0a 07 51 bc 6f 3b be 3c 96 b7 8d 3c a7 9a cd bd
       -0.012758026 0.0232217 0.017299455 -0.10039263
000010 ca b7 f1 bc ca ff 85 bc f8 45 fc 3c a7 7e 65 bd
       -0.029506583 -0.016357321 0.030795082 -0.05602899
000020 31 8c f9 3b 4d bc 65 bc 6c 27 16 bd 81 ac 5d 3d
       0.007615589 -0.014021945 -0.03665869 0.05411959
000030 95 51 27 3c ff 3f 40 3d 59 48 31 bc dc ff b0 3c
       0.010212322 0.04693603 -0.010820472 0.021606378
000040 1a 6b 11 bd 76 fb c3 bc e5 d4 1d bd 73 77 b0 bb
       -0.03550253 -0.023923617 -0.03853311 -0.005385333
000050 51 06 5c 3c ec 17 38 bd 07 3e c8 bc f8 66 a9 bd
       0.01342924 -0.04494469 -0.02444364 -0.08271593
000060 12 d9 a8 bc f1 79 7d 3c 2e 2c 95 bc 10 e7 9c 3c
       -0.02061132 0.015470968 -0.018209543 0.019153148
000070 16 6b df bc 6a cb 20 3d 76 c4 d2 bc 95 ea 36 bd
       -0.027272742 0.03925649 -0.025728446 -0.04465731
000080 b1 eb 63 b7 21 3d 99 ba 8b 36 d5 3c bf 01 30 bd
       -1.3585131e-05 -0.0011691191 0.026026985 -0.042970415
000090 e6 37 8c bc e0 8d 2e bd 5f 12 32 bc 32 28 12 bd
       -0.017116498 -0.04261577 -0.010868638 -0.035682864
0000a0 89 c4 ab 3d a0 bb bb bd 98 79 45 3c 20 18 8e 3d
       0.083870955 -0.09166646 0.012052916 0.06938195
0000b0 37 05 6e 3d 02 97 19 bd a1 fe 48 bd 21 2f 02 3c
       0.058110442 -0.037497528 -0.049070958 0.007945807
0000c0 83 a9 83 3d 04 ae 4d 3b 12 2c 12 bd f9 1d b4 bc
       0.06428816 0.003138424 -0.03568656 -0.021986948
0000d0 a0 cb 3e bc f5 fb 51 3d 45 0a b2 3d 47 13 06 39
       -0.011645228 0.051265676 0.08693365 0.00012786417
0000e0 c7 fd 94 bd 20 91 f0 bc f6 84 e3 3d 19 19 ab 3c
       -0.07274967 -0.029366076 0.11109345 0.020885991
0000f0 4d 5b 65 3d 79 d7 0b 3c 8c de cf bc 02 1d 00 bc
       0.055995274 0.008535259 -0.025374673 -0.007819416
000100 33 ac 62 bb a4 a1 88 3c 0d 4c 01 bd ce b5 04 bd
       -0.0034587502 0.016678639 -0.03156667 -0.032399945
000110 d7 5b b0 3d 90 3c b1 3d 5c 27 80 3c 17 07 82 bc
       0.08611267 0.086541295 0.015643768 -0.015872521
000120 b4 92 91 bc 94 d0 f2 bc 94 3f 24 3d 3e 05 ff 3c
       -0.017770149 -0.029640473 0.040099695 0.03113043
000130 a4 61 37 3c 63 26 04 bc 35 71 e3 bc 83 1a 45 3d
       0.011192713 -0.008065793 -0.027763942 0.048120987
000140 25 12 4a 3d 62 87 9f 3c d3 ab 68 3d 24 5b f6 bb
       0.04933371 0.019473735 0.05680449 -0.007518189
000150 30 9f 6a 3d 76 b2 62 3d db 58 7d 3c 57 06 ed bc
       0.05728072 0.055345975 0.015463079 -0.028933687
000160 ed c0 22 3d d8 cc dd 3b 3d 13 8a bc e0 ac 41 bd
       0.03973477 0.006768804 -0.016854877 -0.047284007
000170 03 ae 84 3d d3 37 fb bb 91 f8 1e 3d be 4c 2c bd
       0.064785026 -0.007666567 0.03881127 -0.042065375
000180 f8 c8 38 3d 00 45 9e 3c 41 23 98 3c bb ad fc bc
       0.045113534 0.019320011 0.018571498 -0.03084456
000190 6f d7 37 bc f0 ee 3e 3d 60 67 83 3c dd 6a c3 3d
       -0.011220797 0.046614587 0.016040504 0.09541867
0001a0 2e 78 fd bc 57 3a 9d 3a 13 14 14 3d b2 9e 17 3d
       -0.030941095 0.0011995536 0.036151957 0.037016578
0001b0 cc 4a a1 3c f6 ac 4e 3c 9d 4d d6 bd 90 ca 14 3d
       0.019688986 0.012614479 -0.10464022 0.03632599
0001c0 f2 15 ec bc b5 83 2c 3c 95 ef 9e 3c df 3e 1b bd
       -0.028819058 0.010529448 0.019401351 -0.037901755
0001d0 58 de 7f bc ec 06 18 bd 1f e0 a4 3d 80 d3 c4 3c
       -0.015616976 -0.037115976 0.0805056 0.024026632

fc2.weight f4 [84, 120]
000000 7a 04 6d 3c 68 e1 c3 3c 72 13 cb bc fd e4 ac bd
       0.014466399 0.023911193 -0.024789546 -0.084421135
000010 6b e8 c1 bd 9c ae 70 bd 82 66 b7 bd 1f 8d 30 3d
       -0.09468158 -0.05876027 -0.08955099 0.043103334
000020 78 d1 df 3c cc 72 e6 3c af 84 65 bd 55 9b c7 bc
       0.027321562 0.028130911 -0.05603474 -0.02436606
000030 f5 26 3e 3d bc 36 94 bd 67 3c a4 bd d7 47 27 3d
       0.04642387 -0.07237002 -0.08019333 0.040839996
000040 84 16 3c bd ac ba 9a 3c 83 f1 ba 3c c9 12 9e 3d
       -0.04591991 0.01888784 0.02282024 0.07718427
000050 db 2e a4 3d 40 69 da 3a 8b e1 39 bd 68 1c 01 be
       0.080167495 0.0016663447 -0.04538111 -0.12608492
000060 81 b7 94 3b 3e 87 07 be 96 98 a1 bd 72 a5 38 bd
       0.004538477 -0.13235185 -0.078904316 -0.045079656
000070 06 27 52 bd 50 e1 bf 3d 5f 49 bd bc 2b 5a 55 bd
       -0.051306747 0.09369147 -0.023106275 -0.052087944
000080 c5 a3 af 3d 23 0b 59 3d 0a c4 8b bd f6 f6 c7 3c
       0.085761584 0.052989136 -0.06824501 0.024409752
000090 30 0f 92 3a ba de 23 bd 59 77 ac bd 28 27 00 bd
       0.0011143442 -0.04000733 -0.08421201 -0.031287342
0000a0 88 55 98 3d 84 d1 46 bd c1 a0 bb bc 12 00 48 bd
       0.07438189 -0.048539653 -0.022903802 -0.048828192
0000b0 e9 9d 4e 3d e9 c7 6b 3c b7 b2 8d bd 06 32 0b bd
       0.050443564 0.014390924 -0.06918853 -0.033983253
0000c0 b3 f4 43 3d ae 89 a8 3d 39 c8 ca 3c 80 14 74 3d
       0.047840785 0.08229385 0.024753677 0.059589863
0000d0 7e 45 b5 3d 67 be a6 bc 3c e4 8a 3d 9e ff 45 bb
       0.08851145 -0.020354463 0.067818135 -0.0030212174
0000e0 be a4 c6 bd 6d 9c 1c bd e9 f1 ba 3b 8d 27 7f bc
       -0.09699391 -0.038235117 0.0057051075 -0.0155733945
0000f0 a0 f4 65 3c a0 11 f3 bd 80 e7 86 bd e1 8b 53 bd
       0.014035374 -0.11868596 -0.06587124 -0.05164707
000100 6e 66 ce bd f0 4e 91 bd 51 b0 6c 3c 14 aa 87 bd
       -0.10078131 -0.07095134 0.014446334 -0.06624237
000110 2e 60 70 bc 5e 78 44 3d d6 7c 18 bd 80 38 3b 3d
       -0.0146713685 0.047966354 -0.037228428 0.04570818
000120 2f 5f 26 bd c6 b9 31 bd ca 99 ef bc 75 e3 ba 3d
       -0.040618118 -0.043390058 -0.029248137 0.09125415
000130 63 6f 4e bd 4e 9f 7d bd d7 22 da bc bb 4d 8a bd
       -0.050399195 -0.061919503 -0.026627941 -0.06753107
000140 ed 18 dc 3c 38 2c 18 bc b3 0a bd bc 8c bc ac 3d
       0.026867354 -0.009287886 -0.02307639 0.084344
000150 6a 4f 0f 3d a8 db 95 3d b2 1d ea bb 31 17 3d bd
       0.034987845 0.07317287 -0.0071446532 -0.046164695
000160 de 95 38 3c d5 09 88 bd 2b 2e 67 3b fa 08 24 bd
       0.0112662 -0.066425 0.003527532 -0.040047623
000170 58 61 be 3b be 8b 64 3d a1 39 29 3d 72 1b b2 3c
       0.005809944 0.05579733 0.041314725 0.021741603
000180 a3 ba d3 3c 3e 53 90 bd fa 65 5c bc 92 54 ea 3c
       0.025845831 -0.07047127 -0.0134520475 0.02860478
000190 6f 84 80 3b 6a 19 a5 bc 97 1a 2b bd 30 74 f0 3d
       0.0039220373 -0.02015372 -0.041773405 0.11740911
0001a0 11 94 18 bc ac 50 3a 3c c6 d7 e9 3d 74 28 c1 3d
       -0.0093126455 0.011371773 0.11418109 0.09431544
0001b0 3b 88 ad bd e1 6c 7b bd a8 d3 a2 3c 06 57 42 3d
       -0.084732495 -0.061383132 0.019876316 0.047446273
0001c0 f0 b9 89 3d 5b e2 17 bb a9 6f 85 3d 12 17 b1 bd
       0.06724918 -0.002317569 0.06515438 -0.086469784
0001d0 19 90 5f 3d b7 09 5f 3d 7c 6d cf 3d c0 2a a0 bd
       0.05458078 0.054452624 0.10128304 -0.07820654
0001e0 a1 23 9f 3d 97 0d 0b bd 42 93 91 3d 3f d6 09 3d
       0.077704675 -0.033948507 0.07108165 0.033651587
0001f0 b5 1c 6d 3d 58 f5 35 3d ad 12 36 bd 2d b8 93 3d
       0.057888705 0.04442343 -0.044451404 0.07212863
000200 07 e6 d5 3d bd 6b a6 3c 6b 8e ac bd c5 7f 88 bd
       0.10444265 0.020315045 -0.084256016 -0.06664995
000210 89 f4 b8 3b 66 fc dc 3c 69 04 8b 3c 67 5e 57 bd
       0.0056443852 0.026975822 0.016969876 -0.052580263
000220 dd 67 2a 3c 67 1a cc bc 4c 62 5c bd cf 31 0b bb
       0.0104007395 -0.024914933 -0.05380468 -0.0021239405
000230 42 93 4c bd f4 f9 c0 bd 9c 96 96 bb 31 56 5a 3d
       -0.049945123 -0.09422675 -0.0045955908 0.053304855
000240 a1 6e 97 3d 93 99 f5 ba cf 06 2e bc 6d fb 2e bd
       0.07394148 -0.0018737785 -0.0106217405 -0.042720247
000250 9f 17 c2 3c 77 47 d6 bc 50 0e 2a 3d dc a8 9f 3d
       0.023692904 -0.026157124 0.041517556 0.07795879
000260 c7 71 73 bd f5 bb 80 3d a0 ba f4 bc 92 df 54 ba
       -0.05943468 0.0628585 -0.029874146 -0.0008120473
000270 c1 00 66 3d e2 dc 91 bd 0d 95 ed bb 9b 16 a3 3c
       0.056153063 -0.07122208 -0.0072504343 0.01990824
000280 4e 08 a3 3c 04 16 a6 bd 6d 78 41 bd 22 a6 82 3d
       0.01990142 -0.08109668 -0.047233988 0.063793436
000290 34 d5 27 3d a9 70 a0 bd 8f 6b f3 3c 31 0f f8 3c
       0.04097481 -0.07833988 0.029714374 0.030280681
0002a0 4c 5b 41 bd 2d 9b 5f 3d 94 0e ad 3c 3b e4 87 bc
       -0.047206208 0.054591347 0.021125115 -0.016588321
0002b0 11 db 9e 3d 90 45 32 3d 65 62 58 3d 0b 44 c7 3c
       0.07756627 0.04352337 0.05282821 0.024324438
0002c0 7e be 6a bd b8 8a 89 bd 7d b7 20 bd ea 7a 2b 3d
       -0.057310574 -0.067159116 -0.039237488 0.041865267
0002d0 92 e1 56 3d 2b a2 50 bd 6b ba c3 3d a7 9e a3 bc
       0.052461214 -0.050935905 0.09557041 -0.019973112
0002e0 b4 61 9e 3d 91 63 57 bc a2 bf 61 bc 31 02 78 bc
       0.07733479 -0.013146297 -0.013778599 -0.015137241
0002f0 9e 98 83 bd ec d9 41 3d 58 15 97 bd 94 5c c5 bc
       -0.06425594 0.047326967 -0.07377118 -0.024091996
000300 f1 9f 84 bc a0 eb dc 3b 80 f8 ca bd 74 12 bc ba
       -0.016189547 0.006741956 -0.09910679 -0.0014348761
000310 e7 d4 93 3d 68 48 b5 bc da 48 1e bd a7 92 e9 bb
       0.07218342 -0.022129253 -0.038643695 -0.007128078
000320 fb 93 1f bd 9f e1 d1 3c 2d 73 26 bc 85 e5 b0 3d
       -0.038959485 0.02562028 -0.010159296 0.086375274
000330 0e 23 06 3d 4d d5 96 bd 93 06 86 3d e9 72 f4 3c
       0.032748275 -0.07364903 0.06544223 0.02983995
000340 06 35 76 bd b9 d4 94 bd 5a f7 a7 bc 6f bd ec 3b
       -0.06010916 -0.07267136 -0.020503689 0.0072247307
000350 e9 46 c2 bc 1d 59 1c 3c ce 5b a5 3d d6 04 45 3d
       -0.023715453 0.009542731 0.08074151 0.048100315
000360 63 3c 62 bd 4e 5d b9 bd cc 4b 21 3d 5e cb 1e bd
       -0.05523337 -0.090509996 0.039378926 -0.038768165
000370 f5 53 b5 3d 11 2d 9f 3c 66 b2 45 3d 5a b8 c5 bc
       0.08853904 0.019430669 0.048265837 -0.024135757
000380 b9 ba 8d bd 77 72 ae 3d 23 49 8c bc 6e e8 87 bd
       -0.0692038 0.08517926 -0.017124718 -0.06636129
000390 73 50 20 3c 54 3c 10 bd a6 11 83 bc 2a 40 ef 3c
       0.009784806 -0.035213783 -0.015999626 0.0292054
0003a0 2a 17 14 3d 35 c2 a9 bd 96 fe b5 bd 64 cc 65 3d
       0.036154903 -0.08288995 -0.08886449 0.056103125
0003b0 d0 75 9d 3d 35 ba 9a 3d 68 7c db bb 99 7c 83 3d
       0.076884866 0.075550474 -0.00669818 0.064202495
0003c0 fa 86 ee bc 83 df d4 bc e5 8d 7f bd 46 ac 86 bd
       -0.029117096 -0.025985485 -0.06239118 -0.06575827
0003d0 6f 11 b4 bd f9 4f 2b 3d 94 76 bf bd 1d 40 58 3d
       -0.08792388 0.041824315 -0.09348789 0.05279552
0003e0 b1 2e 8c bd 7f f5 43 3c 49 f8 a0 bc 2d d1 21 bd
       -0.06844843 0.011960386 -0.019649642 -0.039506126
0003f0 af 6d a8 bd 68 c9 60 bb b0 d9 32 3d aa b0 31 bd
       -0.082240455 -0.0034299735 0.043664634 -0.04338137

fc2.bias f4 [84]
000000 a5 e6 2b bd ac 7c 00 bd f6 79 50 3a 77 47 65 3c
       -0.041968007 -0.031368896 0.0007952744 0.013994089
000010 69 da 83 3d f8 bb c9 3d c2 66 46 bd c3 25 ca 3c
       0.06438143 0.09850305 -0.04843784 0.02467621
000020 09 9d 15 bc 4f a2 55 ba 8b 81 2b be dc 99 90 bd
       -0.009131678 -0.0008149491 -0.16748635 -0.07060596
000030 97 84 8f bd c4 79 8a bd ac a3 a1 bd 92 74 04 3e
       -0.070077114 -0.06761506 -0.07892546 0.12935093
000040 07 cd f1 3d f4 85 ac 3d dd d2 cf 3c d6 af c1 bc
       0.11806684 0.08423987 0.025369102 -0.023643415
000050 09 6d 48 3d 54 d1 4a be 9e b3 1d bd 43 9c 8a bc
       0.04893211 -0.19806415 -0.038501374 -0.016920215
000060 de 41 8d 3c 05 18 73 bc 72 5a 02 3e 6f 55 98 3d
       0.017243322 -0.01483727 0.12729815 0.0743817
000070 27 51 47 ba b5 86 72 3c f2 c6 05 be f0 b9 37 3d
       -0.000760334 0.0148026245 -0.13064173 0.04485506
000080 47 a8 88 bd e9 37 1b 3e 2b 23 91 bd 47 5e 71 bd
       -0.06672721 0.15158047 -0.07086786 -0.0589278
000090 39 38 ca 3d 56 29 b6 bd cc 9b 4c 3d 19 41 8f bd
       0.09874005 -0.08894603 0.049953267 -0.06994838
0000a0 d9 57 1a bc 71 bf 20 3e 66 a8 92 bd b4 0b 07 3d
       -0.009420359 0.15698029 -0.07161026 0.032970145
0000b0 49 b4 2c bd 7d 37 38 bd e9 c9 4f bd a0 d6 06 bd
       -0.04216412 -0.044974793 -0.050729666 -0.032919526
0000c0 08 7c 10 bd 92 ef 0d 3c c1 03 ee 3d 8c 92 36 3e
       -0.035274535 0.008663075 0.1162181 0.1782934
0000d0 8c 3e 85 3c e0 a0 03 be c8 ea 19 bd 00 bf 7f 3d
       0.016265176 -0.12854338 -0.03757742 0.06243801
0000e0 ff cd 2f 3d c4 97 a7 bb ee bb b9 3d 94 42 de 3d
       0.042921063 -0.0051145274 0.09069048 0.108525425
0000f0 fd 62 8c bd 2e d6 3f bd e3 15 9b bc 3e c5 b6 bd
       -0.06854818 -0.046835117 -0.018931335 -0.0892434
000100 1c ae ac 3a cf cd b6 3d b5 7e 58 3b a0 38 86 bc
       0.0013174447 0.089259736 0.0033034508 -0.016384423
000110 0e 09 f7 bc e1 a2 3b 3c 90 7e af bb b5 62 aa 3d
       -0.030155685 0.011452408 -0.0053556636 0.08319608
000120 9f 7f 97 3d cd bb 07 bd ca b7 61 3d 1c f5 a7 3d
       0.07397389 -0.033138085 0.055106916 0.08201048
000130 8a 1c 04 3e 85 cf 87 bd 3b 94 97 3d a5 eb 92 bd
       0.12901512 -0.06631378 0.074013196 -0.07173852
000140 a3 0a c1 bd ef 9b 63 3c 82 fb 03 be 1b 54 23 bd
       -0.09425857 0.013892158 -0.12888911 -0.03987513

fc3.weight f4 [10, 84]
000000 51 fe e4 bd b2 9a 41 bc e4 87 7b 3d af 11 fc 3a
       -0.111813195 -0.011816667 0.061408892 0.0019231344
000010 c6 89 18 be de b1 38 be fc 8a 95 bc 40 cd 3a 3e
       -0.14896306 -0.18036601 -0.01825475 0.18242359
000020 c3 44 80 bc 75 06 75 3d d8 e1 75 3e 58 ef 07 3d
       -0.015657788 0.05982061 0.24011934 0.03318724
000030 a8 0f d5 bd d7 b3 5e bd 62 8b db 3c 75 44 47 be
       -0.10403377 -0.054370727 0.026799861 -0.19459708
000040 21 f3 3e bd 22 34 8e 3c 9f b6 85 3e ad d1 6a 3d
       -0.046618585 0.017358843 0.2611589 0.05732887
000050 a0 b9 54 be ac 9e 5f 3e 92 1e 6d 3d 06 3e 6b 3d
       -0.20773935 0.21837872 0.057890482 0.057432197
000060 72 86 2d bd 28 7f 12 bc 8b ac c5 bd 32 99 df 3c
       -0.042364545 -0.008941449 -0.096520506 0.027294729
000070 1e 3a 17 3b b7 29 85 bb 88 ed 00 3e e4 82 c6 3c
       0.0023075412 -0.0040638107 0.12590611 0.024232335
000080 9e bc e2 bd 8d c7 95 be a5 c2 19 3e 24 f0 a2 3c
       -0.11071132 -0.29253808 0.15015657 0.019889899
000090 63 1c 1a be 2a 6c 04 3e 57 d6 84 bc 00 61 2d 3e
       -0.15049891 0.12931886 -0.016215486 0.16931534
0000a0 d6 78 86 3e 7e 42 81 be 74 95 40 be 1e 83 e2 bd
       0.26264066 -0.25246042 -0.18807012 -0.11060165
0000b0 0f e3 48 bd 09 a7 0b bd 84 b9 60 3d a6 00 65 3e
       -0.049044665 -0.034094844 0.05486442 0.22363529
0000c0 8a be d7 3d 37 80 cf bd 24 33 e7 bd 70 90 0f be
       0.10534389 -0.10131877 -0.11289051 -0.14019942
0000d0 19 66 7a bd 97 96 4a 3e 8b c2 a1 bd 04 ef c1 bd
       -0.061132524 0.19784008 -0.07898434 -0.09469417
0000e0 87 c3 f3 bd 16 ba e2 bd 3f 66 8c bd 35 fa 65 bd
       -0.11902528 -0.11070649 -0.068554394 -0.05614682
0000f0 ea 71 9d 3c 73 1c cc bd f6 05 b7 bd d7 c8 83 3b
       0.019219358 -0.09966364 -0.08936684 0.0040217447
000100 d0 c9 e9 bd 45 55 1c 3e 97 b8 90 3c 2d 5b 02 be
       -0.11415446 0.15266903 0.017666144 -0.12730093
000110 91 10 7b 3d 80 ff f2 bd f6 cc a9 3d 49 9f 1f be
       0.061295096 -0.11865139 0.08291046 -0.15588106
000120 6b 32 bf bc 8f f5 c5 3d 49 15 e1 3c 48 f5 ac 3c
       -0.02333947 0.09665977 0.02747597 0.021113053
000130 c3 a1 8e be 52 45 88 bc 08 38 54 be c3 90 66 be
       -0.2785779 -0.016634617 -0.20724499 -0.2251616
000140 4f f4 40 3e 18 f3 41 3e 8d a3 01 3e 1f 2b 1d 3e
       0.18843196 0.18940389 0.12660046 0.1534848
000150 34 25 0a b7 52 3d e3 bd 81 27 8e 3d 48 9b 2d be
       -8.234103e-06 -0.1109568 0.069411285 -0.16953766
000160 50 fd 7b 3d 6b d0 25 3e 18 bb 0a be b2 11 49 3e
       0.061520875 0.16192786 -0.13547933 0.19635656
000170 84 10 1b 3d a8 ba 9a 3b 6a 45 05 be dd 0a f4 bd
       0.037857547 0.004721958 -0.1301476 -0.119161345
000180 be 20 96 bd 3d e8 84 bd c2 44 81 3e 44 a8 61 bd
       -0.07330464 -0.064896084 0.2524777 -0.05509211
000190 e0 b6 69 be 6b 34 b8 bd e9 59 70 be 1f c6 e3 bd
       -0.22823668 -0.08994373 -0.23471798 -0.11121773
0001a0 e4 b5 86 3e 41 da 04 be c4 b1 ba bd f3 ec 1c 3e
       0.26310647 -0.12973882 -0.09115937 0.15324764
0001b0 80 55 0b 3e d8 fe 31 bc 49 93 3e be 79 6f c8 3d
       0.13606834 -0.010863982 -0.18610872 0.09786887
0001c0 a9 f5 3d 3e 4e d1 bc bd ce b7 76 3d 62 a9 df bc
       0.18550743 -0.09219609 0.060233884 -0.027302448
0001d0 90 78 3e be d0 e7 b6 be 9b ad a7 3d ee 7b a0 bd
       -0.18600678 -0.35723734 0.081874095 -0.07836138
0001e0 93 0d 19 3d 04 8a 33 be c4 1d 91 be 19 e1 d8 bb
       0.03736646 -0.17533118 -0.28343022 -0.0066186306
0001f0 0c d9 c2 3d e1 a5 4d 3d 62 f8 27 be 59 3b 0d 3e
       0.09514055 0.050207023 -0.16403344 0.1379217
000200 86 42 8e bc fa 65 38 bd 11 4a d9 3d 32 37 df bd
       -0.017365705 -0.045019127 0.1060983 -0.108991995
000210 02 55 cb 3d 4e a7 47 bc 85 b1 9d 3e 16 f1 b9 bd
       0.09928323 -0.012185885 0.307995 -0.090791866
000220 e4 e3 cd bc d8 a1 20 be 59 60 c2 3b be 6d 98 3d
       -0.02513308 -0.15686738 0.0059318957 0.07442807
000230 3b d7 44 3e 1d 80 ad 3b d3 24 45 3e 8a f7 ec 3e
       0.19222729 0.0052948133 0.19252329 0.46282607
000240 99 4c ea bc 19 d8 46 3c 64 f5 29 3d 72 e7 3f bd
       -0.028600978 0.012136483 0.04149379 -0.046851583
000250 14 43 98 3e 59 7b 9d 3e 6c 37 2e be fb 7f ab 3c
       0.29738677 0.3075817 -0.1701333 0.02093505
000260 4a bc 4c be 79 a4 20 3d f2 9c 35 bd c8 ae 70 3e
       -0.19993702 0.039219353 -0.044339128 0.23504174
000270 0d 4e a3 bc 91 52 4f bd 3a e6 00 3e f6 c2 66 be
       -0.019934678 -0.05061585 0.12587824 -0.22535309
000280 93 3b c7 3d 7a 75 fc bd 8f a5 2b 3e 07 dc f8 bc
       0.0972816 -0.123270944 0.16762374 -0.030378355
000290 59 b8 af 3d 75 8e 07 3e 95 95 30 bd 96 3f 8c 3e
       0.085800834 0.13237937 -0.043111403 0.27392262
0002a0 48 e9 56 3d 96 f6 3b 3d 06 f8 8c bd ae 88 14 be
       0.052468568 0.04588946 -0.06883244 -0.14505264
0002b0 10 b8 70 3d 06 29 68 bd cc 4a bd bd 24 6e e7 bc
       0.058769286 -0.056679748 -0.09242782 -0.028250761
0002c0 4b 22 58 3d d3 43 2e bd ac 50 9f 3c 6f 3d 1b 3e
       0.05276708 -0.04254515 0.019447647 0.15160154
0002d0 e7 54 9e 3d 66 89 d0 3b 0c b1 c1 bd 67 87 d9 3d
       0.077310376 0.0063640354 -0.09457597 0.10621529
0002e0 7b b9 42 3e a2 36 96 3d 2e db 97 3d 0b 5e a0 3d
       0.19016068 0.07334639 0.07414852 0.07830437
0002f0 dd 5b 0a be b4 f9 f1 3d 8c 3a de bc b0 58 9c bc
       -0.13511606 0.11815205 -0.027127527 -0.019085258
000300 a3 c7 ca ba 52 f5 3f 3d 64 90 20 3e a5 32 e5 bc
       -0.0015470873 0.046864815 0.1568008 -0.02797825
000310 56 e3 c5 bd eb 5a 03 3c 1b 1b 81 3d a4 92 c2 bd
       -0.096625015 0.008017282 0.06303998 -0.09500626
000320 02 4c 17 3d c2 0f ce 3d ea d8 9c bd 22 28 81 3d
       0.03693772 0.10061599 -0.076585606 0.06306483
000330 65 49 01 bc 5b 8e f3 3c 29 c7 d9 bd 76 d3 c8 bd
       -0.007891034 0.029730966 -0.1063369 -0.09805958
000340 a3 33 25 3e 5e ae ba 3c 04 6b c7 bd df 10 53 bd
       0.16132979 0.022788223 -0.097372085 -0.05152976
000350 7f fe 8d 3d 75 1e 2a bc 67 00 0b be 9b cb 8d bd
       0.06933307 -0.010383238 -0.13574372 -0.069236
000360 ee 47 96 3d bc 48 83 3d 4d b1 94 bd dc d2 e4 3b
       0.07337938 0.06410357 -0.0726038 0.006983144
000370 a3 10 72 ba 21 28 cd 3d d0 aa 62 bc 1d 83 99 3d
       -0.00092340464 0.100174196 -0.01383467 0.07495711
000380 dc 05 81 3c de d8 07 be b8 05 79 3d 74 99 fb bd
       0.015749864 -0.13266322 0.06079647 -0.12285128
000390 3b 05 da bd b5 24 46 3c f8 1d 1b 3e 49 68 0e 3d
       -0.10645529 0.012093713 0.15148151 0.034767423
0003a0 1e 38 55 bd 9d 4c 6f 3d 31 51 89 bd 5a 1e 9b bd
       -0.05205547 0.058422673 -0.06704939 -0.075741485
0003b0 ba a8 36 3e 73 6d e3 bc 91 bd 10 3d dd 54 11 3d
       0.17837802 -0.02776215 0.035337035 0.035481323
0003c0 4c d7 16 be 02 3c a2 39 ef 4a 8d 3b 62 d6 b3 3e
       -0.14730567 0.00030943757 0.0043119113 0.351245
0003d0 da e1 0a be 80 6d d7 bd 0e e6 aa bd 47 1d b8 bd
       -0.13562718 -0.10518932 -0.08344661 -0.08989959
0003e0 d8 8c 8e bd 59 d2 62 3d ca 68 a2 3d 93 c2 0b 3d
       -0.069604576 0.055376384 0.07930143 0.034121107
0003f0 11 21 56 be f4 e2 60 bd 5d d9 f1 bb 2f e9 a7 3d
       -0.20911051 -0.05490394 -0.007380648 0.08198773

fc3.bias f4 [10]
000000 5e 10 ac be 48 f6 0b 3d c4 77 e6 3d a1 ba c9 3d
       -0.33606237 0.03417042 0.11253312 0.0985005
000010 bd c1 18 3e dc f5 d0 bd ab ab 6b 3e e2 82 0a be
       0.14917655 -0.10203144 0.23014705 -0.1352649
000020 fa d6 7b bd d8 63 06 bd
       -0.061484315 -0.032810062
