round1/2025-04-18 17:42:36-weight-client-9b114cf7-e.pth (torch, 252478 bytes, 10 tensors)

conv1.weight f4 [6, 3, 5, 5]
00000000: 06aa 723d be48 aa3c 4535 6fbd e198 7abd
00000010: 9772 a03d 38ff c8bc 282a 7fbc d819 86bc
00000020: dd18 763d 162b 6bbc d33d fd3c 4b53 7f3d
00000030: 5e8d 393c 96e0 aa3c 2f0a 62bc 7abd babd
00000040: b59c 3d3d e42e 51bd 35f2 b6bd 79f6 0a3d
00000050: 85ee 46bd f86f 073c 4e98 293c c240 83bd
00000060: 6ffb 103d 3408 ddbd 93b9 bfbb 6d4e a4bb
00000070: 9257 b6bc 1f39 0f3d bf47 acbd 6283 d8bd
00000080: 150e aebd 42f6 80bd ad10 b23d 93d9 c83d
00000090: 9274 d33d 9f83 a4bd 2911 80bc e26a a7bd
000000a0: 8de2 4d3d 5213 943d 2b01 b23d d2db 6b3d
000000b0: 7afd adbd e378 4b3c ed5e 7bbd 742a 36bd
000000c0: 905f 66bd fb76 353d 7a29 af3d dbf8 9dbd
000000d0: 6b3d ed3c 5814 ba3d 58b6 9b3d 4d6a fc3b
000000e0: 0029 5a3d 5359 27bd a16f c9bd b005 ab3d
000000f0: 328a acbd 58dc 44bd e4b2 95bd df16 6bbd
00000100: 5d22 d93d a303 d73d cf14 e43d 3936 01bb
00000110: 154f 353d eb4c 2ebd c05b 0d3d ffdf 493b
00000120: 2f8f 073d b3d1 e4bd aa0a 0e3d 19af a1bd
00000130: 5674 b23d 98aa c2bc 41f2 803d a516 5bbd
00000140: d4c7 52bd 257d c53d 12c4 04bc f58d 2c3d
00000150: c323 c6bc 869f b33d ec29 7d3c a533 66bd
00000160: 813b eabd 6e96 e5bd 53cd adbb 65da afbc
00000170: 3b49 b53d 36c4 f83c b373 d4bd 3050 163d
00000180: 2e35 4fbd d8de 0b3d 6589 b1bd 6a0b 243c
00000190: ab9c 55bd f024 d8bc 33c0 213b 1b6e 00bd
000001a0: 78e3 5ebd 8c59 84bd a7c8 0ebc 5785 d93d
000001b0: a272 9fbd cf46 06bd 46d5 7f3d 0fea 5abd
000001c0: df07 babd 3f4a 4abd 79d2 b93d 85e6 813c
000001d0: 3122 d53d 1519 cc3d 6811 e9bc d29e d6bd
000001e0: e59c 89bd cbc8 60bd ec87 a0bb db40 553c
000001f0: a1e6 a53c 7e39 ca3d 713a dcbd 57cd 513a
00000200: 31e7 d9bc d016 323d 3972 8cbd ddd4 bb3d
00000210: b688 743d 8b86 b33d bc92 3fbc cfd7 e3bd
00000220: bf9b 49bd 0cea 5f3c dd3f a0ba 6ee6 3d3d
00000230: cbcf acbd a0cf c13b c7c9 e4bd c46c 49bc
00000240: a430 14bd d094 933d 58bd c93d 4609 4d3c
00000250: d4d5 0bbd 2e38 25bd 6050 213e d381 873d
00000260: ff4f b43d 05a6 2ebd 3f8b 9fbd 167b ba3d
00000270: 90d2 58bd dcfa fd3d 55e1 b7bd 8941 afbd
00000280: 6477 b53d 9c05 b0bc 279f b8bd 661d ef3d
00000290: 1cf0 f63d c285 833d 54eb 053c 0ca4 f2bc
000002a0: 17e8 233c 6543 c23d 1429 273e 063e 26bd
000002b0: b140 053e 0bbf 093e 02ec 6ebd 773b 7f3d
000002c0: 720b 08bd 12a0 14be 4d95 00be 76f4 d9bd
000002d0: 2c5d 74bd 9d7c 173c dee1 01be a39a f8bd
000002e0: 4c3e 1bbe 59ce 3e3d 9d1c 8a3d 97da 493d
000002f0: ec35 81bd 22a4 6fbd 4de3 f33d 749f afbd
00000300: 9807 7c3d a3b1 21bd bbce 97bd 614e 0b3e
00000310: be4a 82bd d006 903c 5934 ab3c 4430 f3bd
00000320: 81ee aabc bf37 483d 6c6e c1bd 72a6 81bb
00000330: 6966 a0bd f53b 0c3b 91da 133d d6c8 0ebe
00000340: a4f4 00bd 7518 44bd 84f8 443d 17c6 a63d
00000350: 59a6 69bc b9bd 93bd 644e 833d d41f 203d
00000360: 4328 563d 79a9 d0bc 4780 9bbd e9e5 613d
00000370: 1896 fc3c 129f cdbc 8a98 53bd 46e5 733d
00000380: 3580 abbd 7e31 99bd 31e0 e8bd c637 b8bd
00000390: 6099 cd3d d32b dfbd dd2a 6fbd ad8d b03d
000003a0: 49aa 2dbd 0797 3bbb be91 683c 9d25 d33d
000003b0: 07da e4bd 237e 8d3d bda8 3c3d 23ec ffbb
000003c0: 8749 9cbd e37a d2bd 053c dd3c b628 c4bd
000003d0: 2b3f 43bd d65d dabc 6ff3 e13d 1a50 dfbd
000003e0: 01e8 333d dc0a a9bd ce0c a2bd 94fa 81bd
000003f0: 026f 283d 2c37 3bbd 42cd 9cbd 5bbc 1b3d
0.05924418 0.02078664 -0.05840041 -0.061180953 0.07834356 -0.02453576 -0.015574016 -0.016369745
0.060082305 -0.014353534 0.03091327 0.062335294 0.0113252085 0.020859044 -0.013796373 -0.09118171
0.046292026 -0.05107011 -0.08932916 0.03392646 -0.048567314 0.0082664415 0.010351254 -0.06408836
0.035396036 -0.1079258 -0.0058509796 -0.005014232 -0.022258554 0.034966584 -0.08412122 -0.10571934
-0.0849878 -0.0629697 0.08694587 0.09807124 0.103249684 -0.08032917 -0.015633183 -0.08174683
0.050264884 0.072302476 0.08691629 0.057582684 -0.084956124 0.012418958 -0.061369825 -0.04447408
-0.05624348 0.04430292 0.08552833 -0.07713481 0.02895995 0.090859115 0.07603139 0.0077031017
0.053261757 -0.04085667 -0.09835745 0.08350694 -0.08424796 -0.0480617 -0.07309511 -0.05739486
0.106022574 0.104987405 0.111367814 -0.0019716157 0.04426487 -0.042553823 0.034511328 0.0030803678
0.033095535 -0.111728095 0.03467814 -0.07894725 0.087135956 -0.023762986 0.06296206 -0.053488392
-0.051460102 0.0964301 -0.008103387 0.04212757 -0.024186974 0.08770661 0.0154518895 -0.056201596
-0.11437131 -0.11210333 -0.0053040176 -0.021466443 0.08851858 0.030366998 -0.103736304 0.036697567
-0.050587825 0.034148067 -0.08668784 0.010012487 -0.052151363 -0.0263848 0.002468121 -0.031355005
-0.05441615 -0.06462392 -0.008714831 0.10621136 -0.07785536 -0.032782372 0.062459253 -0.053445872
-0.090835325 -0.049387213 0.090733476 0.01585699 0.10406912 0.099657215 -0.028450683 -0.10479511
-0.067193784 -0.05487899 -0.0048990157 0.013015951 0.020251574 0.09874247 -0.10753334 0.00080033153
-0.026599498 0.043478787 -0.06857724 0.0917146 0.05970069 0.087658964 -0.011692699 -0.111251466
-0.049220797 0.013666641 -0.0012226064 0.046362333 -0.08438071 0.0059146434 -0.111712985 -0.012293998
-0.0361792 0.07206118 0.098505676 0.012514418 -0.03413947 -0.04033678 0.15753317 0.06616559
0.088043205 -0.042638797 -0.07790231 0.09105508 -0.052935183 0.12401363 -0.089785255 -0.08557422
0.088606626 -0.02148705 -0.09014731 0.11675529 0.12057516 0.06421997 0.008173782 -0.02961924
0.010004065 0.09485511 0.16324264 -0.040586494 0.13012959 0.13451783 -0.058330543 0.06231257
-0.03321404 -0.14514187 -0.12556954 -0.1064233 -0.059659168 0.009246019 -0.12683818 -0.121388696
-0.15160483 0.046583507 0.06743739 0.04928073 -0.06309113 -0.05850614 0.119085886 -0.08575335
0.06153068 -0.03947605 -0.074124776 0.13604118 -0.06361912 0.017581373 0.020898985 -0.1187444
-0.02086568 0.04888129 -0.094448894 -0.0039566094 -0.07832033 0.0021398042 0.036097113 -0.139438
-0.031483307 -0.047874887 0.048088565 0.081432514 -0.014260852 -0.07213921 0.06411436 0.039092854
0.05228449 -0.025471436 -0.07592826 0.0551509 0.030833289 -0.025100265 -0.051659144 0.059544824
-0.08374063 -0.07480143 -0.11370886 -0.08995013 0.100390196 -0.10897031 -0.058390487 0.086207725
-0.042398725 -0.0028623955 0.014194904 0.103099085 -0.11174398 0.06908824 0.04605936 -0.007810132
-0.07631212 -0.10277345 0.027006159 -0.095780775 -0.047667664 -0.026656073 0.110327594 -0.1090395
0.043922428 -0.082540244 -0.079125986 -0.06346622 0.04112149 -0.045706913 -0.07656337 0.038021427

conv1.bias f4 [6]
00000000: d2dc 4bbd d4c9 41bd b077 3c3e 9e3d e53c
00000010: 77bf 0f3e 335f b6bd
-0.049771138 -0.04731162 0.18405032 0.027983483 0.14037882 -0.089048766

conv2.weight f4 [16, 6, 5, 5]
00000000: 48e1 a53d 2510 82bd e9e1 443d 7b6a 283d
00000010: 64e6 d93c d25d 16bd fcdf 0ebd 653f 9fbb
00000020: ca3a a5bd ddca 9c3d cbbb 8739 2f90 8e3d
00000030: 8cab 473d d4ba 19bc 08b8 823d 8726 283b
00000040: 1467 a13d 4ab4 a03d aa7b 933c d7c2 0abd
00000050: 8eef 1bbd 4005 1bbd 0a1e 843d 4a58 93bc
00000060: d744 573d c989 69bd 1f33 9a3d 185f 6abd
00000070: 5133 59bd e782 82bd a3f7 5d3d 72ab 1f3c
00000080: f5ec 7fbd a606 16bd 6443 343d e526 86bd
00000090: 3c66 653d d296 6abc e8ad e6bc 8b68 a2bd
000000a0: 8b2d 433d 5485 35bd 2b27 8fbd 2fe4 573c
000000b0: 18cf 81bd b71d 833d 2023 83bb fb09 8cbc
000000c0: 2b06 9ebd 8dce 8bbd f491 01bd fa23 7a3d
000000d0: 4766 82bd 473c 4bbd b004 8fbc be20 68bd
000000e0: fa2b 81bd 0001 80bd d1dc 32bb 87df de3a
000000f0: 4ab6 c5bc 5924 483c 675d 553c 02dd 843d
00000100: 1305 823d d716 5d3d 4949 043d 0681 87bd
00000110: bcd4 a03d 31f3 86b8 175a 66bd 3281 4fbd
00000120: 1400 9fbd 678f 963c d236 2a3d 0556 94bd
00000130: b0ed 5d3d f723 4d3c ae2c 0abd 4c1d 56bd
00000140: 063b 5bbc ae38 913d 8bc3 563d 52ca 26bd
00000150: 8633 89bd 7be9 bcbc 85d1 4c3c 569c aebc
00000160: 9296 5a3d d140 5ebd 2d91 23bd e94f a3bd
00000170: 56ee 7cbd e8ce 543d 36be 0c3d 84d4 72bb
00000180: 8ff5 0c3c 84f5 eebc 0f6f b5bc 7aa9 fdbc
00000190: 53f6 9d3d df8f e63c 0dac 61bd 5bae 56bd
000001a0: a970 96bd b086 5abd c5ba 753d b889 993d
000001b0: 5771 193d c02b 17bc 0bab b2bc d862 073c
000001c0: 2886 5fbd a34c 1e3b 1f1b 3bbd 392d 583d
000001d0: 9a23 4dbd ea54 8d3c d0cc 4fbd 8cb1 3ebc
000001e0: b0c0 623c dcda 0bbd cf30 83bd f8af 863c
000001f0: cdcc 7bbd 4e71 57bd b350 2e3d db8f 9a3d
00000200: 44a8 c9bc e31c a63d baaa 94bc a692 8e3d
00000210: 1263 f8bc 337b ebbc a8ea 6f3d 7dad 8fbd
00000220: e0db 963c 989f 51bc 3dbe 8fbd a3b6 9dbd
00000230: f8ac 71bd 9444 ec3c 677c 803d 12e7 a5bd
00000240: 7035 50bd 730a 13bd 7615 983d 7a52 8c3d
00000250: 95e2 28bd f7c5 a43d c0fc f9bc fcc2 b9bc
00000260: 7f93 3cbd c91e 73bd 86da 923d d108 90bd
00000270: 6abf 95bd 32b1 ba3c 5714 58bd 5148 0abd
00000280: 3182 25bd 916a 7f3d 49c4 fcbc 4829 87bc
00000290: 4ff3 bcbc 2e25 933d a465 8c3d 66e8 39bb
000002a0: ac18 863d 3366 5abd d5e3 2ebb ea22 a53c
000002b0: e2e6 773c a149 c03b 9075 4f3d 6ac5 a4bd
000002c0: 9f80 73bd 497b 1b3d 3050 573c fb14 2f3d
000002d0: 9017 2dbd 6fbb 6abd b683 90bc 0bb8 9c3d
000002e0: 0ae2 983d 5224 323d ce25 88bd 5941 c43c
000002f0: c362 d83c 8841 313d 88aa eb3c b3c0 8ebc
00000300: f57c 523d 7e50 7e3d af6f 993c f87d 71bd
00000310: bf90 a63d 9be1 f93c 3dba 6cbd 450c 9abd
00000320: 8b46 dc3c 5fec d83c 6733 81bd 2113 d83c
00000330: 4f60 78bd be8c c9bc 3ecb e7bc f6c7 cf3c
00000340: 0c05 293d 39e7 a83d 693b 00bd 5232 2f3d
00000350: 7457 603d c2f8 7ebd ca53 7a3d 4f29 25bd
00000360: 58ec 09bd e48d 5bbd 4270 933b 5ff7 c83d
00000370: bc1d 90bb 66fd bcbc 74b6 8ebd c8e1 2f3d
00000380: 494c 8f3d b881 82bd de3f 573d de5c 97bd
00000390: 3ea2 923d d6d7 eabb 7896 76bd 6b97 46bc
000003a0: e04c a33d 6a60 2c3d 1827 9bbd 0525 3bbd
000003b0: 246f 733d 0f6d 223d ffca 563c 2a44 093d
000003c0: 2280 82bd 5a78 173d 5efd fe3c 8cfb a5bd
000003d0: c100 913c b1da 74bd 4680 6d3c 2365 513d
000003e0: 5f65 f0bb 3d1b a33c 7cbf 7ebd 9b0f f13c
000003f0: 5601 9dbd 2879 c2bc cd4c 95bd ec7b 973d
0.080996096 -0.063507356 0.048067007 0.041117173 0.026599117 -0.036710568 -0.034881577 -0.004859852
-0.08067854 0.076558806 0.00025889123 0.069610946 0.048747584 -0.009382922 0.063827574 0.002565773
0.07880989 0.078468874 0.018003304 -0.03387722 -0.038070254 -0.037846804 0.06451042 -0.017986435
0.052555885 -0.057016168 0.07529282 -0.057219595 -0.053027455 -0.06372624 0.054191243 0.009745466
-0.06248184 -0.036627434 0.04400958 -0.06550387 0.0560057 -0.014318185 -0.028159097 -0.07930096
0.047650855 -0.044316605 -0.069898926 0.013176962 -0.06338328 0.06402152 -0.00400199 -0.017094603
-0.0771602 -0.06826506 -0.031633332 0.061069466 -0.06367164 -0.04961803 -0.01745829 -0.05667185
-0.06307216 -0.06250191 -0.0027292261 0.0017003872 -0.024134774 0.012215697 0.013022757 0.064874664
0.06348624 0.05397686 0.032296453 -0.06616406 0.07853076 -6.434916e-05 -0.05623826 -0.05066032
-0.07763687 0.018378926 0.041556187 -0.072429694 0.054181755 0.012520782 -0.033734016 -0.052274033
-0.0133807715 0.07090889 0.052432578 -0.04072029 -0.066992804 -0.02306055 0.012501125 -0.021314781
0.05336625 -0.054261032 -0.039933372 -0.07974226 -0.061750732 0.051955134 0.034361087 -0.0037052939
0.008603468 -0.029169805 -0.022147683 -0.030964602 0.07712998 0.028144775 -0.05509572 -0.052412372
-0.07345707 -0.053351104 0.05999257 0.07496971 0.037461605 -0.009226739 -0.021810075 0.008263312
-0.0545713 0.0024154566 -0.04568016 0.052777503 -0.05008278 0.017252404 -0.050732434 -0.01163901
0.013839886 -0.034144267 -0.06405794 0.01644133 -0.06147461 -0.05259829 0.04255743 0.075469695
-0.024616368 0.081109785 -0.018147815 0.06961565 -0.030320678 -0.02874527 0.058573395 -0.07015512
0.018415391 -0.012794398 -0.07018707 -0.07700851 -0.059002846 0.028841294 0.06273728 -0.08100714
-0.050832212 -0.035898637 0.07425968 0.06851669 -0.04123171 0.08045571 -0.030516028 -0.022675984
-0.0460391 -0.05935553 0.07170586 -0.070329316 -0.073119 0.022789571 -0.052753773 -0.033760373
-0.040407363 0.06235749 -0.030855315 -0.016499177 -0.023065237 0.07184826 0.06855324 -0.002836728
0.065476745 -0.05332012 -0.0026686091 0.02015825 0.01513073 0.0058681522 0.050649226 -0.08045466
-0.059448835 0.03795937 0.013141677 0.042744618 -0.0422588 -0.057307657 -0.01764093 0.07652291
0.074649885 0.04349167 -0.06647836 0.023956941 0.02641428 0.043275386 0.02876784 -0.01742587
0.0513887 0.062088482 0.018730013 -0.058958024 0.08133077 0.030503085 -0.0577948 -0.075218715
0.026889106 0.026479898 -0.06308632 0.026376309 -0.060638722 -0.024603244 -0.028295156 0.025363903
0.04126458 0.08247227 -0.031306658 0.0427726 0.0547709 -0.062248953 0.061115064 -0.040322598
-0.03367266 -0.053602114 0.004499466 0.09812807 -0.004398076 -0.023070049 -0.06968394 0.04293993
0.06996972 -0.06372398 0.052551143 -0.0739076 0.071598515 -0.007166843 -0.060202092 -0.012121062
0.07973647 0.042084135 -0.07575816 -0.0456896 0.059432164 0.039654788 0.0131099215 0.033512272
-0.06372096 0.03698001 0.031126674 -0.081046194 0.017700555 -0.059778873 0.014495915 0.051121842
-0.007336303 0.01991045 -0.062194332 0.029426387 -0.076662704 -0.023739412 -0.07290039 0.07396683

conv2.bias f4 [16]
00000000: 6752 37bc 606f fb3a ad42 3e3d 71db 1cbc
00000010: 4285 40bd 5143 32ba 1296 863d 0987 4cbd
00000020: 96e1 20bc 98dd 9cbd 76ee 993d cde2 833d
00000030: 1266 343d 8894 053d e741 8abd f29e 05bd
-0.01118908 0.0019182973 0.046450306 -0.009573803 -0.047002085 -0.0006800192 0.065715924 -0.049933467
-0.009819409 -0.07659453 0.07516186 0.06439743 0.044042654 0.032612354 -0.06750851 -0.032622285

fc1.weight f4 [120, 400]
00000000: 7f22 343d 54bd 5e3c c274 18bc e2d7 19bd
00000010: 1a8b 213b 2c63 53bc 0329 e73c 0d4a 0bbd
00000020: c9ce 79bc fa66 7bbb 6577 b33c 88c4 42bd
00000030: b227 473d c4ec 403c a50d 453d e002 1f3d
00000040: 8e33 5abc 610e 98bb 9876 e73c 104e b83c
00000050: da1e 333d ea64 a4bc e5d6 28bc d0f1 063d
00000060: 765d 0dbc debb ab3c aed5 91bc 9910 2c3d
00000070: d3b3 273d 9a4a 503c 7b8e 183d 0c6a 3ebc
00000080: 8013 73bc ecf3 be3c b1cf 303d 4325 c33c
00000090: 5d45 053d 73fd 20bd f95b b53b 4e0c a3bb
000000a0: b34d 133c 07ab 2bbb 9272 2ebd 808d 1b3d
000000b0: 5e0d 2c3c 1e70 903b f093 67bc 4477 45bd
000000c0: 51cb ab3c 456d 1fbd 08d6 78bc 3bcc 15bd
000000d0: ae2c 2a3d bdb0 74bc f625 9c3a e98c cbbb
000000e0: be19 b03c 9a38 043d cdb3 a3bc be5b 9c3c
000000f0: 9815 213d 28c2 01bd a189 15bd 6322 c83c
00000100: 4829 02bd ff61 b53c 1732 d2bc 1797 80bc
00000110: 8467 f8ba ba3d f23b 8bf4 203d 7bdc 293c
00000120: e658 dabc 2ccb a23c 45e6 c6bc 15c7 cebc
00000130: e7cc 06bc 4788 d5bc aa29 8e3c 0dfe 7f3d
00000140: 6d7d 75bc 115f 193d 7b5e f13c 78ee 193d
00000150: a883 79bc b0ca c7bc d805 903c 504d e93b
00000160: 3d03 243d aba7 bebc 1968 f93c 2950 1dbd
00000170: a6bd bb3c bc51 3e3b 4298 26bd 8109 69bc
00000180: b669 4dba e490 8c3b f2af 30bd 52c2 9f3c
00000190: f768 83bb 0db7 4b3d 2421 443d 53bc 18bd
000001a0: 26bd b0bc f2f0 25bb f3ca 983c 53cb 66bc
000001b0: 1036 92bc b795 46bc d224 d3bb b0ff 1abd
000001c0: f428 043d f2a5 cfbc 56a2 00bc a704 cfbc
000001d0: 97a3 4c3d d5c7 bf3c 8789 203d 7351 f0bc
000001e0: c7cf d53c 3cf0 f0bb fa48 a7bc df43 013d
000001f0: cf84 14bc 2e2f 3e3d 13f2 14bd 5e67 8d3c
00000200: 049a 63bc c6a9 4e39 c3dd d63b a41e a23c
00000210: afce a83c 8ed5 ea3c 6f20 19bd bb07 b73c
00000220: 9bba fbbb 9d8b 37bd 2f99 fb3c 1448 91bc
00000230: b8e6 46bd b3d8 e83c 553a 43ba 8f1e e2bc
00000240: dc70 3fbd 078e 6f3b dac9 24bd a5fb 03bb
00000250: a03c a0bb 4460 3d3d 7f99 323d be4f 793b
00000260: fb2f f6bc cedc 363d ae39 45bd 4f6f 2d3d
00000270: 0bed 913c eee2 3bbd 5ca1 8a3c f767 a3bc
00000280: 4391 063d a6bf 273c bf72 b83c f173 f33c
00000290: 4c03 183d e618 a83c 8674 343d bf9f 99bc
000002a0: 4fc8 2c3d 2cd2 313d 847e ba3c f30d 54bc
000002b0: 452a 47bd f1db d7bb 8ec5 11bd bf92 1fba
000002c0: fa80 15bd 16d3 04bd 0820 d3bb effa 17b9
000002d0: 588b f83c 6f1f 8a3a be7b 1c3d 66a4 27bd
000002e0: 8453 a93c 1672 15bd 2ace 943b 154e 083d
000002f0: b9ce 1b3c 0f58 05bd 656c 483d c4ad 97bc
00000300: ca1a 2f3d 3f65 bdba 8619 a83c 80d8 12bd
00000310: 543b 883b fc39 16bc f5ce 223c 584f debc
00000320: 61c7 b63b 78f0 873c 91ee 863c 5623 6f3d
00000330: 26cc 513c 6586 0d3d 5c73 0f3d 31ab 073d
00000340: 43ce ddbc 57f1 a23c 11e6 96bc a851 6cbc
00000350: 0120 26bd 8567 2b3d f500 0e3b c17e 21bd
00000360: 71a0 9d3c a85e 3f3d 0c0d c13c 9fdc 733c
00000370: 86fc b83c e118 c7bc 4278 213c 5054 86bc
00000380: 5cb9 4d3c 8d8f 01bd 0656 10bd a4c8 c2bc
00000390: 860d 07bd d585 243d 340b 04bd 9a92 e5bc
000003a0: c7da 06bd f133 fcbc 595c 293d 06cb 383b
000003b0: 188a 30bd 28b9 c8bc 57a8 a83c e1e0 223c
000003c0: 6a7f d03c 3d34 c1bc e204 243d 2076 163d
000003d0: 3487 f63c 4b22 16bd 7cbd 663c ca5d 4cbd
000003e0: 67e0 dabc d5a9 fe3b 4392 613d 568f 643c
000003f0: 0673 5d3d 2fe3 8b3c 90d3 0c3d 7131 713c
0.04397821 0.013594944 -0.009305181 -0.037559398 0.0024649561 -0.012902062 0.028217798 -0.034006167
-0.015247055 -0.003836094 0.021907518 -0.047550708 0.04862184 0.011775199 0.048108716 0.0388211
-0.013317956 -0.004640386 0.028254792 0.02249816 0.043730594 -0.02006765 -0.010305141 0.032945454
-0.00862824 0.020963605 -0.017802086 0.042008016 0.040942978 0.012713099 0.037245255 -0.011621963
-0.014836192 0.02330967 0.04316682 0.023821479 0.032536853 -0.039304208 0.0055346456 -0.004975832
0.008990693 -0.002619447 -0.04258973 0.03797674 0.010501234 0.0044078967 -0.014134392 -0.048209444
0.020970972 -0.038922567 -0.015187748 -0.036571722 0.041546516 -0.014934716 0.0011913169 -0.006211866
0.02149665 0.032280542 -0.019983197 0.019086715 0.039327234 -0.031679302 -0.036508206 0.02443046
-0.03177765 0.022141455 -0.02565865 -0.015697045 -0.0018951748 0.0073926123 0.039295714 0.010367508
-0.026653718 0.01987227 -0.024279723 -0.025241414 -0.008227563 -0.026065959 0.017353851 0.06249814
-0.014983517 0.037444178 0.029463997 0.037580937 -0.015229143 -0.024388641 0.017580912 0.007119812
0.04004215 -0.02327331 0.030445145 -0.038406525 0.02291758 0.0029040417 -0.040672548 -0.014223457
-0.00078358816 0.0042897332 -0.043136545 0.019501839 -0.0040103155 0.049735118 0.047883168 -0.037288975
-0.021574568 -0.0025320617 0.018651461 -0.014086562 -0.017848045 -0.012120656 -0.0064435983 -0.0378415
0.03226562 -0.025347684 -0.007851204 -0.025270773 0.0499607 0.023410717 0.039193656 -0.029335713
0.026100053 -0.007352857 -0.02042054 0.031558868 -0.009064867 0.046431713 -0.036363672 0.017261203
-0.013891701 0.00019708936 0.006557198 0.019790001 0.020606367 0.028666284 -0.037384447 0.022342553
-0.007682157 -0.04481088 0.030712692 -0.017734565 -0.048559874 0.028423643 -0.0007447352 -0.027602462
-0.04673849 0.003655316 -0.040231563 -0.0020139006 -0.0048900396 0.046234384 0.043603417 0.0038041915
-0.030052176 0.04464417 -0.04815071 0.04234248 0.017813226 -0.045870714 0.016922645 -0.019947035
0.032853376 0.010238564 0.022515653 0.029718371 0.03711252 0.020519685 0.044056438 -0.01875293
0.042183217 0.043413326 0.022765405 -0.012942779 -0.048624296 -0.0065874984 -0.035588793 -0.00060872355
-0.036499955 -0.03242787 -0.0064430274 -0.00014493962 0.030339882 0.0010537932 0.038203947 -0.040928267
0.020669706 -0.036485754 0.0045411782 0.03327759 0.009509736 -0.032554682 0.048931498 -0.018515475
0.042750157 -0.0014449729 0.020519983 -0.035851 0.004157463 -0.009169098 0.009937038 -0.027137443
0.005577967 0.016594157 0.01647118 0.05838331 0.01280502 0.034551997 0.035022125 0.033122245
-0.027075892 0.01989047 -0.018420251 -0.014423765 -0.040557865 0.04184677 0.002166805 -0.039427523
0.019241543 0.04672113 0.023565792 0.014884143 0.02258135 -0.024303855 0.009855332 -0.016397625
0.0125564 -0.03163104 -0.03523829 -0.023777314 -0.03297188 0.040166695 -0.032237247 -0.028024007
-0.032923486 -0.030786486 0.041347835 0.0028197183 -0.043100446 -0.024502352 0.020588083 0.009941311
0.02545138 -0.02358448 0.04004372 0.036733747 0.030093767 -0.036653798 0.0140832625 -0.04989413
-0.026718332 0.0077717104 0.055071127 0.01395019 0.054064773 0.017076103 0.03438145 0.01472126

fc1.bias f4 [120]
00000000: 94aa 00bd bcb1 4c3c 2680 0e3d 3102 b23c
00000010: 25ac 65bd 3788 623d 78e9 843d b273 5fb9
00000020: b4d9 633d f629 b8ba 984d ba3c 004a 09bc
00000030: 5b41 273b 0906 0abd 18e4 08bd 7070 27bd
00000040: f01e dabc 711d 07bd eaf5 333b b932 b3bc
00000050: 0204 0fbd 2966 753b b425 3abd 4499 0b3c
00000060: 5de8 3dbd 6d8f be3c a0c8 a3bc c001 653d
00000070: 7a37 10bd 456f dabc 92ad 283d d6a7 263d
00000080: 18af 663b b755 fa3c 12f3 7b3c af47 7cbc
00000090: 97aa ce3c 4c45 5bbc 05fa 5f3d d61d 0abc
000000a0: f993 063d d778 963c 22e1 943a e104 46bd
000000b0: 8e45 c1bc 9343 99bc 6487 8cbc 239b 1f3c
000000c0: dfab 353d 634c fbbc 945a 06bb 931a 153d
000000d0: 4669 f0b9 fec9 7d39 087b a8bc a58f 783c
000000e0: 332c 293c 6093 00bd 7100 0f3c a591 503c
000000f0: 0bf5 043d 6884 133d 537a 413d 42cd 203c
00000100: 292b 6dbc 13d2 91bc 6511 09bd b383 34bd
00000110: 8422 06bd d95c 343d 79bf 3d3d e310 ba3b
00000120: d102 b93c 3313 0d3d 9efe c7bc 1727 46ba
00000130: 9951 20bd a9bf 233d 5c8d b0bc 769d d53d
00000140: 7c06 d4bc 5491 ee3c a5a8 573d 4006 bfbc
00000150: 1437 10bd 5fe2 f9bc a5ca 3e3c 9048 133c
00000160: 84a6 41bd d584 4c3d f14e 503d 62cc dc3c
00000170: cc5c 143d 3ae7 1f3c bc2d 62bc 3fcf 96bc
00000180: 6592 b5bb 1bb8 593d 2544 4dbd cb48 2abc
00000190: 5e76 403b 631a 2e3d 9d6f 4abd 58e2 1ebd
000001a0: 5fe0 293b 0967 babc 6ad8 90bc 05d2 34bd
000001b0: d505 e7bc 7c16 283d aebe 8fbc a420 893d
000001c0: 12d3 6b3d c49c a53c db26 923d 22df 233d
000001d0: 643a fe3a bacd 12bd a680 6e39 102a 21bd
-0.031412676 0.012493547 0.03479018 0.02172956 -0.056072373 0.055305686 0.06489843 -0.00021310037
0.05562754 -0.0014050591 0.022742078 -0.008379459 0.0025521133 -0.03369716 -0.033420652 -0.040878713
-0.02662608 -0.032987062 0.0027459809 -0.021874772 -0.03491593 0.0037444925 -0.045446113 0.008520428
-0.046364177 0.02326175 -0.019993126 0.055909872 -0.035209157 -0.026664386 0.041181155 0.040687405
0.003519958 0.03055845 0.015377777 -0.01539795 0.025227828 -0.013383221 0.054681797 -0.008429965
0.03285596 0.018368168 0.0011358599 -0.048344497 -0.023592737 -0.01870898 -0.017154403 0.009741577
0.044353362 -0.030676072 -0.0020500766 0.036402296 -0.00045854802 0.00024203208 -0.020566478 0.015170966
0.010325479 -0.031390548 0.008728133 0.012730037 0.032460254 0.036014944 0.047235798 0.009814562
-0.014475622 -0.017800367 -0.033463854 -0.04407091 -0.03274776 0.04403386 0.04632518 0.0056782826
0.02258435 0.034442138 -0.024413403 -0.00075589254 -0.039140318 0.039977703 -0.02155178 0.10430424
-0.025881998 0.029122032 0.052651066 -0.02331841 -0.035208777 -0.03050345 0.011644994 0.008989468
-0.047277942 0.049931366 0.050856534 0.026952926 0.03622131 0.009759719 -0.013804849 -0.01840937
-0.005541133 0.053154092 -0.050113816 -0.010393332 0.0029367427 0.042505633 -0.04942285 -0.038790077
0.002592109 -0.02275421 -0.01768132 -0.044145603 -0.028201023 0.041037068 -0.017546978 0.06695679
0.05757434 0.020216353 0.07136317 0.040007718 0.0019396064 -0.035840727 0.00022745374 -0.039346755

fc2.weight f4 [84, 120]
00000000: e263 8d3c 8b5b 61bc 485f 823d d870 923c
00000010: 768e 9f3d 4434 9f3d 1be9 55bd b7c8 5bbd
00000020: cc4c 27bb 24b5 94bd d140 b1bd ae45 9cbd
00000030: 9ecc 46bb 88f2 a63c 1253 683d b867 96bd
00000040: 0e23 a9bd 6c36 b9bd f81d 30bd a87e 4b3b
00000050: bde2 cd3b 09d8 b5bd 09f9 883d df22 fabc
00000060: 4866 a43d e26e 8a3d 3f64 843c ca4d b03d
00000070: c1e9 2abd a446 ae3d f44d a13c ef24 723d
00000080: 8758 0c3d e182 8b3d a831 a03d 4056 503c
00000090: 42a5 b5bd 1389 2cbd 0403 513b 05fd cebc
000000a0: fccd f6bc eeca 103d 2c88 15bd 6b0d b9bd
000000b0: 37b4 433d 40d7 b6b8 d82e d4bc 4db3 50bd
000000c0: 82a2 1fbd 1ec6 65bd d880 e93c 0802 bfbc
000000d0: 79fd b0bd e989 5bbd e08d b53d 15c3 513d
000000e0: aee0 3abd 2a0e 863d a16e b33d 88c2 a6bc
000000f0: 6eb0 9cbd 2633 e1bc 3c85 203d 18a3 7cbd
00000100: 4574 f93b 84af 5cbd 98de 61bd f4b7 b8ba
00000110: e0de a13d 985d 50bc d09a 1e3c a5ff 0fbd
00000120: 3a5e 95bd 1663 97bb 151a 22bd 8cde 0ebd
00000130: a9b9 873d 7eca b2bd cd53 173d 20c7 b13d
00000140: a35e e3bb fa33 2f3d cd64 1a3d 0edf 3c3d
00000150: 81b4 ecbc 8bdc 393c 7969 cd3c c83f ab3b
00000160: e045 073d 6c1c c13c f348 aa3d 77ec a9bb
00000170: 3891 7cbd a81c 19bd 8893 a6bd 4205 8ebd
00000180: 5f59 5e3d 65a5 74bd bb62 173d 1606 793c
00000190: 8a54 0abd bfed 81bd 8a70 35bc f236 78bd
000001a0: d012 0e3d 27a0 9c3d e7a6 98bd fa2e 9e3c
000001b0: 3768 2d3c 1ce8 a7bb f124 07bd 1087 213d
000001c0: 401d 81bd a425 9fbd 4e65 933d 75cb b03d
000001d0: 181f b03d 331f 2b3d ba33 34ba 8e56 8fbd
000001e0: 5d82 27bd 52f5 ac3c 3e84 debb f713 af3d
000001f0: 3531 433d c2ef 153c d776 7cbd 3726 b9bd
00000200: 9304 293c b9fd 4dbd 3661 1c3d ade4 8c3d
00000210: 3e42 543d 4d3d 693d 1505 20bb 71fc ecbc
00000220: 8fb2 1b3d 8576 dc3c 3a87 64bd 86e0 78bd
00000230: 4f46 56bd be7d 4e3d dfde 5c3d aa1e 003d
00000240: fa13 013d 9137 943d 7aad 0c3d a751 7d3d
00000250: 46ac 843c 088f 72bc 6f63 45bd 602e 733c
00000260: 496a 1dbd aee4 4b3c 9c30 863d e3b1 b33d
00000270: 3025 b4bd 96e0 01bd 6903 5abd a497 8a3c
00000280: 002c ae3d 06eb a53d c4d9 bebc 5a99 183d
00000290: 4294 e43c fc06 aabc f979 e93c 880e a9bd
000002a0: 89b5 90bc c4cc 10bc 44f7 233c ce1c 003d
000002b0: 1b83 71bc da63 083c f6d5 a33d 2c41 583d
000002c0: ddf2 2f3d 3cd0 093d 8012 bf3c 9426 debc
000002d0: 1095 a8bd 8c2d 6a3d a473 00bd 3ad5 f8bb
000002e0: 1d85 87ba 9d16 f6bc 141b cd3c 0ef5 f9bc
000002f0: 8322 973d c89f a63d c9a0 86bd 329a 22bd
00000300: 4421 2abd 6c61 96bd 38d2 fd3c 8e1b 993d
00000310: d187 aa3c 4d36 5d3d 20fb d53c 668f 993d
00000320: de14 2fbd df22 26bd af79 5e3d df6e 5f3d
00000330: 208e 693d 8ab5 583d 5c45 27bd 55eb 01bd
00000340: 0982 443c 9ce7 27bd 4c90 813c 251e acbd
00000350: 2539 f3bc e302 a6bc a464 723d 392c b4bd
00000360: 7b59 883d 44bd 7f3d 8158 86bc 548e 923d
00000370: 2471 b2bd 90fa 343d 0c3f 80bd 4c53 bebc
00000380: 403b 1cbd 5594 ba3d bae2 ae3c 4c7a b23d
00000390: dd35 123d 5dab eebc 9baf 93bd 8094 683c
000003a0: 8c86 54bd 96cd 32bd 511f 60bd c9fc cd3c
000003b0: 5ddb 62bd e498 cb3c 67cf 5d3d a887 babd
000003c0: 4dd6 863d 9ea0 823d 3765 19bd 7934 7d3d
000003d0: 6c37 333d 684a f93c 3da6 b8bd 57b5 0ebd
000003e0: 74d7 9abd 6d9c b33b 6bc8 e3bc e520 fa3c
000003f0: 4210 9cbd 0775 9d3c 6e52 bcbc f24d 6bbd
0.017259542 -0.013754736 0.0636583 0.017876074 0.07790844 0.07773641 -0.05222426 -0.053658213
-0.0025527952 -0.07261112 -0.08654941 -0.07630478 -0.0030334364 0.02037932 0.056719847 -0.073440015
-0.08258639 -0.09043583 -0.04299733 0.0031050835 0.006283133 -0.08879096 0.06688125 -0.030534206
0.08027321 0.067594305 0.016161082 0.08608587 -0.04172683 0.085095674 0.019690491 0.059117254
0.034264114 0.068120725 0.07821971 0.012715876 -0.08869411 -0.04212291 0.0031892667 -0.025267133
-0.030127518 0.03534978 -0.036506817 -0.090357624 0.04777929 -8.71853e-05 -0.025901243 -0.050952245
-0.03897334 -0.056097142 0.02850382 -0.023316398 -0.08642096 -0.05359832 0.08864951 0.051211435
-0.045624427 0.0654567 0.08761335 -0.020356432 -0.07650839 -0.02749021 0.039189562 -0.061678976
0.0076127374 -0.053878322 -0.055143923 -0.0014092908 0.07903838 -0.012717627 0.009680465 -0.03515591
-0.07293363 -0.0046199663 -0.039575655 -0.034880206 0.06627209 -0.087300286 0.036945153 0.08680558
-0.006938772 0.042774178 0.037693787 0.04611116 -0.028894665 0.011344085 0.025074707 0.005226109
0.033025622 0.023573123 0.08314695 -0.0051856595 -0.06166193 -0.037380844 -0.08133608 -0.069345966
0.05428445 -0.059728045 0.03695939 0.015199205 -0.03377203 -0.063441746 -0.011074195 -0.060599275
0.03468591 0.07647734 -0.07453709 0.01930951 0.010583929 -0.005124105 -0.032994214 0.039435446
-0.06304407 -0.07770851 0.07197057 0.08632556 0.08599681 0.0417778 -0.0006874163 -0.06998931
-0.04089581 0.021113072 -0.006790667 0.0854873 0.04765435 0.009151401 -0.061636772 -0.09040492
0.010316032 -0.050290797 0.038178645 0.06879554 0.051820986 0.056943227 -0.0024417092 -0.028928967
0.038012084 0.026911983 -0.055793025 -0.060760997 -0.052313145 0.050412886 0.053923484 0.031279244
0.03151319 0.07237161 0.034345128 0.061845448 0.016195428 -0.014804609 -0.04819053 0.0148426
-0.03843144 0.012444658 0.0655224 0.087741636 -0.087961555 -0.031708322 -0.05322591 0.016918011
0.08504486 0.08101468 -0.023297198 0.037255622 0.027902726 -0.020755284 0.028500544 -0.08254725
-0.017664688 -0.008837882 0.010007683 0.03127747 -0.014740731 0.008324588 0.07999794 0.052796528
0.04295622 0.033645853 0.023324251 -0.027118005 -0.082315564 0.057172343 -0.031360283 -0.007593778
-0.0010339353 -0.03004008 0.025037326 -0.030512359 0.073796295 0.081359446 -0.06573636 -0.039697833
-0.04153563 -0.073428005 0.03098403 0.07475959 0.020816715 0.054006863 0.026120722 0.07498054
-0.04274451 -0.0405606 0.054315265 0.054549094 0.057020307 0.052907504 -0.04083763 -0.03171857
0.011993893 -0.040992364 0.015815876 -0.08404187 -0.029690335 -0.020265048 0.05917801 -0.08797497
0.06657692 0.062436357 -0.016399624 0.07156053 -0.08712986 0.044184268 -0.06262025 -0.023233078
-0.038142443 0.09110323 0.021348346 0.087147325 0.0356959 -0.029134447 -0.072112285 0.014195561
-0.051886126 -0.043653093 -0.054717366 0.025144951 -0.055384982 0.024853177 0.054152872 -0.091079056
0.065838434 0.063782915 -0.03745004 0.06181762 0.043754026 0.030430987 -0.090160824 -0.034840908
-0.07560626 0.005481294 -0.027805528 0.030533263 -0.076202884 0.019220842 -0.022988524 -0.05744738

fc2.bias f4 [84]
00000000: b4ff a63d a842 a5bd 6d90 443b c118 7c3c
00000010: feb5 70bd 0c55 a23d 13d0 c03d c203 61bd
00000020: 8920 023d 748d 9dbc 0ccd 743d 3450 64bd
00000030: 68f3 8abb e2ef 293d 4ee6 9b3c 5d1b 743d
00000040: 6118 82bd 7253 86bc d470 943d d1c3 953d
00000050: b46c 8c3d 8be5 babd de1f 56bd 193b 80bd
00000060: 72c6 b9bd 18b2 1cbd c242 683d 8782 d6bc
00000070: e176 d93d ddfa 88bd e145 a4bb 887d 733d
00000080: e888 2bbd b4fd 573d e857 dc3c 3d4b 2bbd
00000090: cf9e a9bd ac88 06bd bbd6 b2bd d274 98bc
000000a0: 00fd c03d 64dc 1b3c 4852 813d bfef 39bb
000000b0: 769c ad3d e296 883d b9d7 853d 0ef9 6fbc
000000c0: 3326 66bc 6c67 12bd fab4 d2bc 7db2 d43c
000000d0: 1665 84bd 11fa aa3d b59b 2bbd 4b20 abbd
000000e0: 70f7 11bd 90f8 cb3c 3009 d03d 9ba6 9d3a
000000f0: cd88 a3bd b518 673d 8853 babd 31e0 b33d
00000100: cd5c a2bc f5aa a23d 792a 603d d96c a9bd
00000110: 9cbc 35bd f078 9b3d dfb3 9e3d 245d a0bd
00000120: bcc1 89bd 6fb8 f63c a84e 69bd ffaa 0dbb
00000130: 599b a4bd fe52 903d 3f5d e33c 8562 9b3d
00000140: 9db8 98bd 8a89 fd3c 90c0 9f3c e31c cf3d
0.0815424 -0.08069354 0.002999331 0.015386761 -0.05876731 0.07926378 0.09414687 -0.054935224
0.03176931 -0.01923249 0.05976586 -0.05574055 -0.004240442 0.041488536 0.019030716 0.05959641
-0.06352306 -0.016397212 0.07248083 0.0731274 0.06856671 -0.09125813 -0.052276485 -0.06261272
-0.090710536 -0.03825578 0.05670429 -0.026185287 0.106183775 -0.066884734 -0.005013213 0.059445888
-0.04187861 0.052732185 0.026897386 -0.0418198 -0.082822435 -0.032845184 -0.08732363 -0.018610392
0.09423256 0.009512994 0.06314522 -0.002837166 0.08477108 0.066694036 0.065352865 -0.014646782
-0.014047193 -0.035743162 -0.025721062 0.025964016 -0.06464593 0.08348478 -0.04189654 -0.08355769
-0.035636365 0.024898797 0.101580024 0.0012027802 -0.07985077 0.056420047 -0.090979636 0.087829955
-0.019819641 0.07942764 0.054728005 -0.08272714 -0.044369325 0.07591426 0.077491514 -0.07830265
-0.06726405 0.030117242 -0.056959778 -0.0021616814 -0.08037443 0.070470795 0.027754424 0.075871505
-0.07457087 0.030949373 0.019501 0.101129316

fc3.weight f4 [10, 84]
00000000: 6762 503d 3545 58bd 88bb cf3d 3e2d e0ba
00000010: 703e 8bbb f117 ddbb ee17 c13d af5b 19bd
00000020: bd63 e93b d36f e1bc 27b7 cb3d 7e9b d73c
00000030: ab19 763c 8bfd abbd 3d08 67bd b121 03be
00000040: 5479 783d 1445 8fbd 95ea 133d a3bf 983d
00000050: 24b0 5a3d 9d47 f93c be58 6d3d 527b bbbc
00000060: 4921 ccbd d508 113d 5836 edbc f414 bebc
00000070: 93b6 0b3e d0d0 c43d 4aa4 efbc 471f dcbd
00000080: e2dd ae3d 0625 c0bd c3c9 ad3c 776d e13b
00000090: 1de7 d33d 92d0 c93d 42a3 7c3c 67a7 323d
000000a0: 7081 15bd e76c 9dbb 2ae1 f63d 6a69 08bd
000000b0: 0ee2 d63c 7c1e 4cbd 6aa1 f83d 98f6 203d
000000c0: 3519 b0bd 7b32 73bd 6b6e dbbc 45bf 9c3d
000000d0: baca b63c ee99 89bd 030c c5bc 6bcf 533d
000000e0: f83b c8bd f3a2 f7bc 1a8f 1b3d aa37 c0bd
000000f0: f3a6 22bd 2a3e c2bd be9e 13bd 33ca f7bd
00000100: 598b 8bbd fa1a babd da4d 4a3d ecc6 abbd
00000110: ab85 8c3d 355f 68bd 7b8e a7bd e582 be3d
00000120: 5b94 5dbd b627 393d cb3d c33d 3431 623c
00000130: aa8c b0bd 55ed 9b3d 9bab aabd c2ec c03d
00000140: 05ca ab3d 7560 cabd 565b 263d 8187 903d
00000150: 601a aebd 25ad 82bd 5cd4 08bd e448 043d
00000160: b43d 483d 0d6b 84bc 065f 8d3d 6e6a ca3c
00000170: 5e7a d4bd 30b6 36bb db94 ca3c 943b b4bd
00000180: 1956 c03c 8acf 31bd 515b cc3d b6c2 213d
00000190: fa80 d7b9 8e21 a7bd 087f b6bd 444e 62bd
000001a0: 6ef4 6e3d de32 d03d b269 d23d c19e 85bd
000001b0: dcef 84bd 8177 3abd 7683 83bd b353 c73d
000001c0: 6f5e 8fbd ab91 4ebc 341d 82bd d4ff 6f3c
000001d0: 23ee 3a3c e245 05bc a7ca c23d 1cb6 993b
000001e0: 80d9 763d 6763 6e3d 7622 7ebd f4b9 27bd
000001f0: 671c 593c f033 4b3d 4f43 02bc de69 ad3d
00000200: 803b 843d efff 763d 5a99 82bc 4bad dc3d
00000210: 55d6 e43d c3f2 dbbd 7d9a b8bd 44b1 bfbd
00000220: fb28 24bd 88bb 48bc 647e a5bd fe11 70bd
00000230: 56cc 5e3d b0c3 413c 0d2f a63c 3a67 d9bb
00000240: 7d8b bb3d 741e 34bd 7601 3bbd 68b9 533d
00000250: c3fe 90bd ba2d 5cbd c62e 91bd 623e 44bd
00000260: e3cd 26bd 5f71 d53b 8946 8ebc b56f d5bd
00000270: 0479 d73d 3a0a 44bd c02f 983b f203 cb3d
00000280: 475f 85bd 4ae7 a2bb 17c0 b83d 421a d2bc
00000290: adbd cbbc 1282 183d e3fd 873d 1bb1 c83d
000002a0: 27c8 853b 483c b93d 85e4 51bc 50d5 c9bd
000002b0: dde1 c13d 2ed9 a3bc 62bf a73d e84a 72bc
000002c0: 3c24 b33c 3c64 5d3c 346c c43d 6112 483d
000002d0: 48c4 6c3c a722 39bc f1f0 643d cbc1 34bd
000002e0: aa16 c9bc 2508 5f3d 18cf 0abb f1a6 4dbd
000002f0: 0f38 05bd 5a7b 47ba 92b4 b8bd 0025 ac3d
00000300: ff31 04bc bf60 cabb 0ad5 133d c539 9ebc
00000310: bbcd 6b3c 178c cfbd d65d 4b3d 3e2a acba
00000320: 29f6 f5bb c156 edbd 06cd 26bd 89fb 873d
00000330: 188c 493c 1002 febb acee a0bd a129 92bd
00000340: ada7 b33d 4d79 54bd e965 a23c 89f1 7abb
00000350: 5981 eabc fbaa 3cbc f389 ecbc b49a 913d
00000360: 72b8 36bd 21b4 d8bd 657d b43d ae11 ad3d
00000370: 906a 5f3a e8e4 f138 f072 8ebd 31aa 443d
00000380: 27e2 84bd c2af 8dbd 6ea7 78bd 21df 803d
00000390: c57a 4abd ae37 553c a99c d53d 6731 85bd
000003a0: 2842 aebd 8fd3 fd3d d3b0 eabb 5689 043d
000003b0: fb5d af3d 05ae 50bd 7d78 87bc f595 903d
000003c0: 2c16 d23c 371b 60bd 9622 ba3d b6e4 c4bd
000003d0: 9054 8fbd a55b cabd ed8a cf3d dd9f a6bd
000003e0: 2507 853d 4036 d7bd c027 d4bc 9018 ab3d
000003f0: 4658 e9bd 5437 79bc 2879 adbb 425a 2fbd
0.050875094 -0.052800376 0.101431906 -0.0017103327 -0.0042493865 -0.006747239 0.09428392 -0.037440952
0.0071224854 -0.027519142 0.09947043 0.026319262 0.015020768 -0.08397969 -0.05640434 -0.12805821
0.060662583 -0.069955975 0.036112387 0.07458427 0.053390637 0.030429656 0.05794596 -0.022885952
-0.09967286 0.035408814 -0.028956577 -0.02320335 0.13643865 0.0961014 -0.029253144 -0.10748153
0.085384145 -0.09382062 0.021214372 0.0068795043 0.10346816 0.09854235 0.015419783 0.04361668
-0.036500394 -0.004804242 0.120546654 -0.033303656 0.026230838 -0.04983376 0.12140162 0.03929767
-0.08598558 -0.059374314 -0.02678605 0.07653669 0.022313464 -0.06718813 -0.02405358 0.05171148
-0.09777063 -0.030229067 0.03797827 -0.09385617 -0.039709996 -0.09484513 -0.03604006 -0.12099113
-0.06813688 -0.090871766 0.04939065 -0.08387551 0.06861433 -0.05673142 -0.08181473 0.0930231
-0.05409656 0.045203887 0.095332704 0.013805676 -0.086205795 0.07613627 -0.083335124 0.09420158
0.083881415 -0.09881679 0.04061445 0.07057095 -0.085011244 -0.06380681 -0.033405647 0.032296076
0.04888697 -0.016164327 0.0690289 0.024708953 -0.10374902 -0.0027879588 0.024729183 -0.08800426
0.023478555 -0.043410815 0.09978355 0.03949233 -0.0004110409 -0.08160697 -0.08910948 -0.05525042
0.058338575 0.10165952 0.10274066 -0.065244205 -0.06491062 -0.045524124 -0.064215586 0.09732761
-0.07000434 -0.012607972 -0.06353226 0.0146483965 0.011409315 -0.008134337 0.09511309 0.0046908986
0.060266018 0.058200266 -0.062044583 -0.040948823 0.013251401 0.04961008 -0.007950618 0.08467458
0.06456661 0.06030267 -0.015942264 0.107752405 0.11173693 -0.107396625 -0.09013841 -0.093599826
-0.040078145 -0.012251742 -0.08080748 -0.05861091 0.05439409 0.011826441 0.020286107 -0.00663462
0.09157465 -0.043974355 -0.04565569 0.05169049 -0.07079842 -0.053754546 -0.070889995 -0.047911055
-0.040723693 0.006513759 -0.017367618 -0.10421697 0.10521129 -0.047861315 0.004644364 0.09912862
-0.06512313 -0.0049714195 0.09021013 -0.025647286 -0.024870718 0.03723342 0.06640222 0.09799405
0.004082698 0.09044701 -0.012810831 -0.09855139 0.09466908 -0.02000102 0.081908 -0.014788367
0.021867864 0.013512667 0.095909506 0.048845652 0.014451094 -0.011299766 0.055893842 -0.044130128
-0.02454694 0.054451127 -0.0021180566 -0.050208036 -0.032524165 -0.00076096284 -0.09018816 0.08405495
-0.008068561 -0.006176084 0.03609184 -0.019314656 0.014392312 -0.10134142 0.049650036 -0.0013135148
-0.007506151 -0.115888126 -0.04072287 0.066397734 0.012301467 -0.0077517107 -0.07858023 -0.07136846
0.08772216 -0.051873494 0.019823985 -0.0038290939 -0.02862613 -0.011515374 -0.028874373 0.071095854
-0.044609495 -0.10581232 0.088129796 0.08450638 0.0008522654 0.000115344126 -0.06955516 0.04801387
-0.06488448 -0.06918289 -0.06070655 0.062925585 -0.04943349 0.013013763 0.10430271 -0.065035634
-0.08508712 0.12393867 -0.0071621924 0.032357536 0.08562847 -0.050947208 -0.016536945 0.07059852
0.025645338 -0.054713454 0.09088628 -0.09613936 -0.06998551 -0.09880761 0.1013392 -0.0813596
0.06495503 -0.10508394 -0.02589786 0.08354294 -0.1139379 -0.015210945 -0.005293984 -0.042810686

fc3.bias f4 [10]
00000000: af33 ab3d 86f8 d3bd e4e4 143e 32c3 893c
00000010: 5d49 aabd f4a8 123d 0cf8 dfbc 545b 873d
00000020: 8b3e 0dbd 53f4 be3c
0.08359467 -0.103501365 0.1454044 0.01681671 -0.08314774 0.035805658 -0.027339958 0.06609216
-0.034483474 0.023309862
