round2/2025-04-18 18:13:16-weight-client-ce4110d4-6.pth (torch, 252478 bytes, 10 tensors)

conv1.weight f4 [6, 3, 5, 5]
000000 9b 4a 08 be 99 12 07 be d2 57 57 be ae 96 fc bd
       -0.1330971 -0.13190688 -0.21029595 -0.12333427
000010 41 eb 75 be a0 fa 44 be 67 e5 ed bd 8d db 44 be
       -0.24015523 -0.19236231 -0.11616021 -0.19224377
000020 dd 36 05 be 39 1e 86 bd 32 3f 95 bd 75 92 b5 bd
       -0.1300921 -0.06548733 -0.07287444 -0.08865825
000030 f8 14 e6 bd 84 d3 d6 b8 ad ed 32 bd cf 99 56 bb
       -0.11234468 -0.00010243713 -0.043683697 -0.0032745486
000040 9c 4a e6 3d 66 b7 af 3d 22 76 97 3d 66 b6 10 bd
       0.11244699 0.08579902 0.07395579 -0.0353302
000050 72 2a 55 3e 4f dc 89 3e b0 1f 6c 3e 1f 0f 48 3e
       0.20816973 0.26925895 0.23058963 0.19537018
000060 7c 1b 93 3e 02 06 28 bd 05 75 b7 bd db 44 a4 bd
       0.28731906 -0.041021354 -0.089578666 -0.08020946
000070 68 9c 34 be e5 bc 92 bd e7 c1 d7 bd 54 b1 f1 3c
       -0.17637789 -0.07164935 -0.10535031 0.029503502
000080 c0 ba d3 bd 7a d2 f0 bd ab 30 dd bd d3 23 14 be
       -0.10338354 -0.11758895 -0.10800298 -0.14466791
000090 2d 43 7b be 66 15 b3 bd c5 fb 72 be 19 9b 80 be
       -0.24537344 -0.08744316 -0.23728855 -0.2511833
0000a0 6c 65 55 be 51 22 55 be 84 cb 82 be 0a 72 a5 be
       -0.2083947 -0.20813872 -0.25545895 -0.32313567
0000b0 9f 30 3c be 2c c9 9a be f0 17 8f be ae 25 a1 be
       -0.18377922 -0.30231607 -0.2794795 -0.3147406
0000c0 ca 62 98 be 60 1d 87 be db 6e c7 3e fb d1 01 3f
       -0.2976287 -0.263896 0.38951764 0.5071103
0000d0 ac 5c 03 3f 98 2b d4 3e a5 1a 5b 3e 50 bd fc 3e
       0.5131328 0.4143951 0.21396883 0.49363184
0000e0 a6 af d1 3e e6 52 16 3f 39 da f0 3e be 54 ca 3e
       0.40954322 0.5872024 0.4704149 0.39517778
0000f0 d1 91 fb 3e 28 9b 01 3f b1 6d e2 3e dc d2 e7 3e
       0.49134687 0.50627375 0.44224313 0.4527806
000100 be 17 7e 3e 34 20 81 3e 24 98 bf 3e c6 fe b6 3e
       0.24813744 0.25219882 0.37420762 0.35741252
000110 ea 28 88 3e 01 d5 57 3e bf 9e c0 3e 9d d8 90 3e
       0.26593715 0.21077348 0.37621114 0.28290263
000120 2e 4f a2 3e 59 ee 56 3e 0b 84 13 3e 44 26 a7 be
       0.31701034 0.2098936 0.14405839 -0.32646382
000130 ab c8 06 bf ce 93 ca be 13 d3 f6 bd 20 7d 1e 3d
       -0.52649945 -0.3956589 -0.12051978 0.038693547
000140 4f 55 fe be 0b fc 08 bf 59 a5 27 bf ce af 16 bf
       -0.4967446 -0.5350959 -0.65486676 -0.58862007
000150 5c dc 95 be e9 ea 94 3d 0b 68 1e 3e 81 e8 1b be
       -0.29269683 0.07271368 0.15469377 -0.15225412
000160 14 0c 50 be 96 c0 9f bd 9d 28 f6 3e 90 1e 31 3f
       -0.20317107 -0.07800405 0.4807786 0.6918726
000170 29 c2 05 3f ed b1 cb 3e 23 65 8e 3e 68 8a 01 3f
       0.5224939 0.39784184 0.27811536 0.50601816
000180 d1 0d 31 3f 05 af 41 3f a2 f9 d2 3e 8f 88 ee 3e
       0.6916171 0.75657684 0.4120608 0.4658856
000190 f1 c8 da be 94 23 20 bf 8b d8 14 bf df dc 77 be
       -0.4273143 -0.6255429 -0.5814292 -0.2420535
0001a0 1c 56 17 bc 1f f7 d7 be 73 6b 3f bf 3b 36 2d bf
       -0.009236839 -0.42180726 -0.7477333 -0.67660874
0001b0 4c 8d e6 be 7f 1d b8 be f6 ff 8f bd df 98 8a bc
       -0.45029676 -0.35960004 -0.070312425 -0.016918598
0001c0 a1 a2 f7 bd f0 fa 8a be 27 ba 4d be 6e a6 80 3e
       -0.12091566 -0.27144575 -0.20090543 0.25126976
0001d0 0f 5c c8 3e ab a7 c1 3e 82 90 81 3e 51 30 91 3d
       0.39132735 0.37823233 0.25305563 0.07089294
0001e0 a1 49 c6 3e 32 40 ef 3e f4 ad 1b 3f a3 32 dd 3e
       0.3872805 0.46728665 0.60812306 0.43202695
0001f0 fc ec 71 3d 50 c1 48 be 01 89 f2 be 1a d6 cf be
       0.059063897 -0.19604993 -0.4737015 -0.40593034
000200 4e 71 e0 bd 10 0a 3c 3e dd a1 d0 be b2 94 ce be
       -0.10959111 0.18363214 -0.40748492 -0.4034782
000210 22 0c 10 bf c0 ad 03 bf 2c 52 49 be 8d e0 b4 bd
       -0.56268513 -0.51436996 -0.19660252 -0.08831892
000220 ca fd a1 3d 18 53 ae bb 57 21 8d bd d2 d2 68 bc
       0.079097345 -0.005319964 -0.06891125 -0.01421042
000230 07 19 e6 3e dc 34 e4 3e 48 f3 be 3e c9 35 bf 3e
       0.4494097 0.44571579 0.37294984 0.37345722
000240 0d 4a 6a 3e 7c be bb 3e 66 11 c9 3e eb 9d ff 3e
       0.2287981 0.36668766 0.39271086 0.4992517
000250 31 b6 e3 3e 84 f5 bb 3d ad 18 a5 be 41 40 02 bf
       0.4447494 0.09177688 -0.3224539 -0.50879294
000260 72 0b 17 bf 64 8e d9 be ff 71 e6 be 5d a3 f4 be
       -0.5900184 -0.42491448 -0.45008847 -0.47780886
000270 f1 6b 0b bf 1a d3 f8 be 95 61 0e bf 96 2f e5 be
       -0.5446158 -0.48598558 -0.5561765 -0.44762868
000280 03 04 a9 be 55 b9 fd be 92 41 ba be 73 50 e8 be
       -0.33010873 -0.4955546 -0.3637815 -0.45373878
000290 5b 49 d4 be 12 31 fe be 84 46 c7 be 00 e9 b5 be
       -0.41462216 -0.49646813 -0.38920987 -0.35529327
0002a0 27 c4 4e be 54 69 89 be d2 49 4c be 45 54 4d be
       -0.20192014 -0.2683817 -0.19950035 -0.20051678
0002b0 21 ab b3 bd 55 dd 1f be 10 db da bd 60 9d 03 3d
       -0.087728746 -0.15611775 -0.10686314 0.032132506
0002c0 1d ad ce 3d 73 71 e1 3d 46 49 0e 3e 7c 8d ef bc
       0.100916125 0.11007967 0.13895139 -0.02924227
0002d0 b3 7b 91 3b 5d ba b6 3d 3d 0e 8d 3d 5c 68 8d 3c
       0.004439795 0.08922265 0.06887481 0.017261676
0002e0 0f 5d 82 3d 9c c9 26 3a 3e 3d ec 3d c9 76 a8 3d
       0.06365406 0.00063624396 0.115351185 0.082257815
0002f0 c2 78 01 3e d1 2f 89 3d a5 d4 db 3d f7 33 5c 3e
       0.12643722 0.066985734 0.10733918 0.21504198
000300 88 ef cb 3e 39 3f 59 3e f3 87 61 3e 27 17 8f 3e
       0.39831185 0.21215524 0.22024517 0.2794735
000310 63 00 68 3e c7 5b 6a 3e 75 4a b8 3e a7 9a 91 3e
       0.22656398 0.22886573 0.35994306 0.28438303
000320 cf f1 57 3e ab bf 06 3e 6c f0 6b 3e f9 fe 24 3d
       0.21088336 0.13159053 0.23040932 0.040282223
000330 5a 06 14 3e a8 e7 5b 3e d1 d7 89 3e 52 80 11 3d
       0.14455548 0.21475089 0.26922467 0.035522766
000340 fe ec 6e 3e be 7f 84 3e 20 44 8e 3e c3 9f 98 3e
       0.23332593 0.2587871 0.2778635 0.2980939
000350 bb 0a d9 3e 11 47 87 3e bf 24 91 3e 32 67 b3 3e
       0.42391 0.26421407 0.28348348 0.3503967
000360 a3 b8 a6 3e c1 88 a0 3e fe c2 9e 3e 91 c0 8a 3e
       0.32562742 0.31354335 0.31008142 0.27100042
000370 63 d7 a1 3e 98 75 de 3e 90 d9 df 3e c8 b5 dc 3e
       0.3160964 0.43449092 0.43720675 0.43107438
000380 32 88 aa 3e d4 01 05 be 7f 00 00 be b3 e8 6e be
       0.33307034 -0.12988979 -0.12500189 -0.23330955
000390 48 80 8f be da 7f 42 be 33 05 1f bd 83 e7 c6 3c
       -0.28027558 -0.18994084 -0.038823318 0.024280315
0003a0 20 6f c5 bd 3a 4d 40 be 70 03 03 be 1f 84 2a 3e
       -0.09640336 -0.1877946 -0.1279428 0.16651963
0003b0 0c 97 25 3e 6f 85 81 3d 09 7b 42 3e 90 6a b5 3c
       0.16170901 0.063242786 0.18992247 0.02214554
0003c0 2c 7f 99 3e 57 35 c4 3e 43 25 b5 3e 30 8c 13 3e
       0.29979837 0.38321945 0.3537999 0.14408946
0003d0 62 9d 44 3e 1b 11 02 3f f9 c1 13 3f d3 01 da 3e
       0.19200662 0.5080735 0.57717854 0.42579517
0003e0 9c 62 02 3f 26 8f 04 3f 93 39 9f 3d 4b e0 e6 3d
       0.50931716 0.5178093 0.07774653 0.11273249
0003f0 9b 87 2b 3d 70 c4 1e 3d 44 7f 4e 3d ae c8 a0 bc
       0.04187737 0.038761556 0.05041434 -0.019626942

conv1.bias f4 [6]
000000 8d b1 fb bf e6 7c 84 be 90 95 b8 3c a3 6d 95 bf
       -1.9663559 -0.2587654 0.022532254 -1.1674083
000010 12 85 5c bf 10 12 04 be
       -0.8614055 -0.12897515

conv2.weight f4 [16, 6, 5, 5]
000000 e1 89 24 3d e0 aa be 3d 10 27 19 3d 00 ae 6f 3d
       0.040170554 0.093099356 0.03739077 0.05851555
000010 0c 3e 23 3e 4d 82 fc bc df 6c e6 3d e5 0d 8e bc
       0.15941638 -0.030823851 0.11251234 -0.01734061
000020 97 37 e4 3d 7a 0e d1 3c 3e 61 f3 bd 25 3b ba bd
       0.111434154 0.025519598 -0.11883782 -0.09093312
000030 6a 69 a7 bd fa 5a 38 3d d9 a4 0e bd 2f cf 86 bd
       -0.08174403 0.045008637 -0.03482518 -0.06582486
000040 63 fb 56 be 5e b7 35 be 70 46 87 bd f7 d4 0c bd
       -0.20994334 -0.1774573 -0.06605232 -0.034382787
000050 97 53 7c bd d8 4b b3 bc b4 be 29 be 45 ac 81 be
       -0.061603155 -0.021886751 -0.16576654 -0.25326744
000060 ee 54 0d be d7 04 a3 3e 25 d3 83 3e 2e 34 97 3e
       -0.1380193 0.3183963 0.25747028 0.29531997
000070 46 43 7d 3e 97 29 44 3e 3d 6c 65 bd c6 a0 4f ba
       0.24732694 0.1915649 -0.056011427 -0.00079203804
000080 6c db 07 3e 9d 4c 29 3d c4 fe b0 3d 92 cb f7 3d
       0.13267297 0.04133283 0.08642343 0.12099375
000090 ed ff a7 3d 31 98 f1 3d 55 72 1d 3e 24 52 ab 3e
       0.08203111 0.11796606 0.15375645 0.33461106
0000a0 9b 0f a5 3d 83 b0 a1 3c 45 92 a5 3d a6 9b 9b bd
       0.08059617 0.019737488 0.08084539 -0.07598047
0000b0 c4 94 f3 3d 00 0c 99 bc cd 9c f3 3b 73 c3 39 3e
       0.11893609 -0.01868248 0.0074344636 0.18140964
0000c0 b7 3a 88 bb 05 58 00 be d4 00 84 bc 0e 9c 01 3a
       -0.00415739 -0.12533577 -0.016113676 0.00049442134
0000d0 47 98 7d bd 74 5a 26 3c ed e4 ad 3d e8 d6 06 be
       -0.0619128 0.010153402 0.0849093 -0.13167918
0000e0 61 c7 c1 bc e1 fc 19 bd 03 bf 19 3c 88 d3 a5 3c
       -0.023654642 -0.03759468 0.00938392 0.020242468
0000f0 e7 c2 2c be 53 1e fe 3b 41 1b 3b 3d 9f ea 2c bd
       -0.16871224 0.00775508 0.04568029 -0.04221594
000100 2b aa 11 3c bd 10 a1 3d 27 4c b0 3d 18 61 8c 3b
       0.008890669 0.07864521 0.08608275 0.0042840354
000110 c2 ab 7b bd 7c b6 b5 bc c8 94 ff 3d 7c b2 1f 3e
       -0.061443098 -0.022181742 0.1247955 0.1559543
000120 3e 54 4e 3e 79 7a 06 3e 1d 6f 02 bd 8f f8 58 bb
       0.20149323 0.13132657 -0.031844247 -0.0033107137
000130 fc 40 d2 bc 93 d3 53 3e 30 cd 06 3e 85 7f a1 3d
       -0.025665753 0.20686178 0.1316421 0.078856505
000140 b6 46 88 3d 6a 6e 94 3d 90 93 1f 3e ba a8 3a 3e
       0.06654112 0.07247622 0.15583634 0.18228427
000150 dd bf 05 3e 0b 49 8b bd 11 0d d1 3d cd c3 06 3e
       0.13061471 -0.06801041 0.1020757 0.1316063
000160 52 32 0e 3e 2c 04 43 3d 84 3c 08 be 47 c1 91 bc
       0.13886383 0.0476114 -0.13304335 -0.017792357
000170 72 95 fa bd 5a 66 18 3b 21 c1 93 bd 56 bf 49 be
       -0.12235536 0.0023254366 -0.07214571 -0.19701895
000180 f3 a2 57 be f9 74 80 be fd 8a 81 be 57 69 6a be
       -0.21058254 -0.25089243 -0.25301352 -0.22891746
000190 4e 40 a5 ba 71 54 80 bd 2f c1 49 3d d8 e5 bf 3d
       -0.0012607665 -0.06266106 0.0492565 0.09370011
0001a0 61 2c 5d 3e 45 db 65 bb ae 9f 2c 3d 2b 50 23 3d
       0.2159896 -0.0035073322 0.04214447 0.039871376
0001b0 24 70 bb 3c 1f 08 3e 3e 98 02 1d be a1 9e 96 3d
       0.022880621 0.18557785 -0.1533302 0.07354475
0001c0 6f 7e d9 bc 5f b6 80 3d db 7e 30 bc 4c 0d 2b be
       -0.026549546 0.062847845 -0.010772432 -0.16704291
0001d0 e1 66 97 bd bd e6 0f be be d0 fa bd 68 10 bc bd
       -0.073926695 -0.14052863 -0.12246846 -0.09182817
0001e0 bf 1e ad bd 7f 35 05 be 55 c8 70 be 48 98 3a be
       -0.0845313 -0.13008688 -0.2351392 -0.18222153
0001f0 ea fa 29 be 0b 0a 31 3e 79 96 13 3e d4 31 6c 3e
       -0.16599622 0.17288987 0.1441287 0.23065883
000200 9d 09 3d 3e cf 3b ec 3d bf f6 7e bc cc f9 17 3e
       0.18460698 0.11534845 -0.015561759 0.14841384
000210 c3 c0 ca 3c 12 8b 61 3d 2b ee 61 3d 23 58 5b bd
       0.02475012 0.05506427 0.055158775 -0.05355085
000220 21 e0 40 be 6d 2b 5e bc 48 16 c3 3d 92 1d e3 3c
       -0.18835498 -0.013560158 0.09525734 0.027724061
000230 c5 67 2f be e6 6f ab bd b5 e0 a5 be 06 3b 36 be
       -0.17129429 -0.08370952 -0.32398 -0.17795953
000240 9a 1c 85 bd 42 d7 21 bd 47 a9 ff bd 29 67 ad be
       -0.06499596 -0.039511926 -0.12483459 -0.33867767
000250 e7 17 c2 be cb 7d 63 be 7e 69 58 be 36 cc fe bd
       -0.3790886 -0.22215955 -0.21133992 -0.12441294
000260 3b 7c 1a 3d 2c c0 05 be 2d a5 c8 bc 9e 81 ae bd
       0.03771613 -0.13061589 -0.024492824 -0.08520816
000270 e0 ce e8 bd af e4 72 bd 21 17 e7 bc 5b 84 00 3a
       -0.11367583 -0.05930012 -0.02820927 0.0004902535
000280 3b 30 9a bd 36 d5 c2 bc ae 2b 92 bd ce c6 0a 3c
       -0.075287305 -0.023783308 -0.071372375 0.00847025
000290 3f 4a c1 bd c9 0c 00 bd eb 09 cb 3c fe 9b c2 3d
       -0.094379894 -0.031262193 0.024785003 0.095024094
0002a0 e1 25 d9 3d f9 8f 05 3d a8 ca ae 3d 21 c7 8f 3d
       0.10602928 0.032608006 0.08534747 0.07020403
0002b0 a4 96 e1 3c 32 ee 4a 3c dc 75 cb 3c 99 ee 61 be
       0.027537651 0.012385892 0.024836473 -0.22063674
0002c0 55 9e 7e be 91 e3 33 be 84 0a f3 bd 6b fe a8 bd
       -0.24865086 -0.17567278 -0.1186724 -0.082516514
0002d0 c4 b7 79 be 54 de 3c be 80 81 9e be 63 89 70 be
       -0.24386507 -0.18444186 -0.30958176 -0.23489909
0002e0 39 08 46 be 32 df af be 83 f0 be be e2 8d d9 be
       -0.19339074 -0.34349972 -0.3729287 -0.4249106
0002f0 f4 53 c0 be 3e 24 a1 be 06 03 b1 be ab 3d 97 be
       -0.3756405 -0.31472963 -0.3457262 -0.29539236
000300 d1 7d bd be b4 3a b4 be e3 d6 92 be 7b d0 9d be
       -0.37010053 -0.35201037 -0.2867957 -0.3082312
000310 9c cf 7a be 65 c6 9f be 30 82 3e be e1 c6 1e be
       -0.24493259 -0.3120605 -0.1860435 -0.15505554
000320 41 e9 fd bd fb ab 1b be 79 18 ef bd e6 95 28 bc
       -0.12398005 -0.15202324 -0.1167459 -0.010289645
000330 a6 97 02 3d 09 2e 13 be c8 be 47 bd 6f 4a 4c bd
       0.031882904 -0.1437303 -0.048765928 -0.049875673
000340 03 56 12 be b7 7b c9 3b f3 20 88 be c8 e8 3e be
       -0.14290623 0.006148781 -0.26587638 -0.18643486
000350 98 8f a9 bd bf c6 f4 bc 92 4f 93 bd 19 d6 86 bd
       -0.082793415 -0.029879926 -0.07192911 -0.06583805
000360 83 d1 33 3c a7 7e 05 be 7a 01 11 be d6 33 98 bd
       0.010975244 -0.13036595 -0.1416072 -0.07431762
000370 55 d9 02 be e5 22 c5 b9 e6 8b 3d bd 79 3d 91 bc
       -0.12778218 -0.00037600767 -0.046275996 -0.017729508
000380 18 17 2a be dc f5 e9 bc 63 00 a3 3d e4 f4 eb 3d
       -0.16610372 -0.028559618 0.07959058 0.115213186
000390 ab 06 8c 3d a4 f7 8f bc 03 4f 63 3d 5f 13 82 bc
       0.06837209 -0.017574139 0.055495273 -0.015878377
0003a0 59 58 03 3d d2 9c d2 3d 2d c9 dd bd 9e ff 37 3d
       0.032066677 0.10283817 -0.10829387 0.04492151
0003b0 dc 55 ba 3d b5 42 ff 3d 4f fd d1 3d 75 32 84 3d
       0.090984076 0.12463895 0.10253393 0.064549364
0003c0 49 aa 88 3d 27 3a 7f 3d 85 32 eb 3d 9d 9a 21 3d
       0.06673104 0.062311318 0.11484245 0.03945409
0003d0 ec 93 45 3d 35 ad 21 3d 6d ba 95 3d 5a 1a 1a 3e
       0.048236772 0.039471824 0.073109485 0.15049115
0003e0 8c 52 db 3d a7 df 8f bd 24 29 d2 3b 63 31 2b 3d
       0.10709104 -0.0702508 0.0064135958 0.041795146
0003f0 c5 60 03 3c 44 8d d7 bd ec 42 cc bd f0 fc 08 bd
       0.008018677 -0.10524991 -0.09973702 -0.033444345

conv2.bias f4 [16]
000000 fa 67 34 bd ba bd 8a bd a3 f5 5e 3e dc 72 0c 3d
       -0.044044472 -0.06774469 0.2177339 0.034289226
000010 79 79 ab be 70 ae 34 3e 3b 5a 68 be 4f 5a 5e bb
       -0.33491114 0.17644668 -0.2269067 -0.003392834
000020 0b 79 60 be ac aa 25 be 98 a8 96 bc 78 e0 ab be
       -0.21921174 -0.16178387 -0.018390939 -0.33569694
000030 4a 1c e4 bd a9 9e 00 3f 24 65 52 be f3 be 33 be
       -0.11138208 0.50242096 -0.20546395 -0.1755331

fc1.weight f4 [120, 400]
000000 1b c0 60 bc 21 32 a3 bc c1 84 00 3d 0f de 2f bd
       -0.0137176765 -0.019921364 0.031376604 -0.04293638
000010 aa 90 d5 3c d6 bd 17 bd 21 a1 52 bd 84 59 4a 3d
       0.026069958 -0.037046276 -0.051423196 0.049401775
000020 a7 16 ae 3b f5 eb a3 bb 54 7e 0c bd 9e a4 6f bd
       0.005312759 -0.0050024935 -0.034300163 -0.0585066
000030 55 8f 2d bb f4 3f 4a 3c e2 4b 1d 3d 4e f0 33 bd
       -0.0026483138 0.012344349 0.038402446 -0.043930344
000040 c0 76 2d 3d 1b 37 27 3c 20 13 9f 3c df 30 90 3d
       0.042349577 0.010206009 0.0194183 0.070405714
000050 0e 65 88 3d 0d f5 90 3c 2a 32 16 3d 74 c3 42 3c
       0.066599 0.017694974 0.036668934 0.01188742
000060 79 66 b8 3c e1 e2 4c bb 8a 86 e4 bb d4 57 01 3d
       0.0225098 -0.003126316 -0.006974046 0.0315779
000070 6b 76 6f 3d b1 a7 c1 bd c1 7b 99 3d 3d 0c 88 3d
       0.05846254 -0.09455813 0.07494307 0.06642959
000080 d8 1b 9b 3c e0 36 f3 bc ee 44 5f bd e6 d7 b7 bc
       0.018934175 -0.029689252 -0.054509096 -0.022441816
000090 8c 12 22 3d 0b fc 11 3c 74 6f 9c 3c a1 a8 09 bc
       0.03956847 0.008910189 0.019096114 -0.008402021
0000a0 fd f3 79 3d 5b cd 3e 3d 9a e5 0c bd 8a 7e 5d 3c
       0.0610237 0.04658256 -0.034398653 0.013518939
0000b0 28 16 d1 3c 3f d4 5e bc 2a 1d 25 bd 3e f5 ed 3a
       0.02552326 -0.013600408 -0.040311016 0.0018154753
0000c0 1e e8 ea bb 22 91 c6 bc 6d af 31 3d 77 f6 2b bd
       -0.007168784 -0.024239127 0.04338019 -0.041983094
0000d0 53 f4 f8 3c fb a3 b1 bc 26 b2 a6 b9 1b 7d 2c bc
       0.03038994 -0.021684637 -0.00031794718 -0.010527874
0000e0 01 0f 84 bc ce 51 a5 3b 24 86 1f bd e5 8f a0 bc
       -0.016120436 0.0050451523 -0.038946286 -0.019599864
0000f0 7f e1 d2 3c 66 a6 f6 bc 2e dc 55 bd 45 b6 49 bd
       0.02574229 -0.030108642 -0.052211933 -0.04924609
000100 71 de 24 bd 55 40 5b 3d fb 5f 6e 3d f1 13 09 3d
       -0.0402512 0.05352815 0.058197003 0.033466283
000110 11 b9 fa 3c 06 e7 c0 bc 3a ec 3a 3d 18 f6 d6 3c
       0.030605825 -0.02354766 0.04563544 0.026240394
000120 e2 22 6a 3d bb 95 33 3d 7c c5 ce 3c 11 e9 6d bd
       0.057162173 0.043843966 0.025240652 -0.058083598
000130 14 52 b1 bc 1a b1 7b bb b2 0a 06 bd ed 54 37 bc
       -0.021645583 -0.0038405121 -0.032725044 -0.0111896815
000140 1f 5f 9e 3a ff 2b 24 bc 01 c2 97 ba 35 2e c1 3c
       0.0012082792 -0.010020255 -0.0011578203 0.023581604
000150 78 98 9b 3d c1 c1 00 3c 3d fd 26 bc dd 68 04 3d
       0.075974405 0.0078586945 -0.010192213 0.032326568
000160 c0 ca 6b 3d 2e ab 93 3b 9e 0f b3 bc a3 a2 f6 bc
       0.057566404 0.00450649 -0.021858033 -0.030106848
000170 2e 52 a4 3c 5e f4 7e bb 2c 93 cb 3c a4 3d 99 3c
       0.020058718 -0.0038902978 0.02485045 0.01870615
000180 c5 1f 50 bd f2 61 34 bc 17 4e 81 3b b9 d3 8c bc
       -0.050811548 -0.01100968 0.0039460766 -0.017190801
000190 a9 73 aa 3c 19 e7 59 bc 6d 3d 2b 3d b9 24 84 bc
       0.020807104 -0.013299727 0.041806627 -0.016130792
0001a0 af e8 4f bc fb 4e 15 3c e7 3e df bb e4 e6 22 3d
       -0.012689753 0.009113069 -0.0068129185 0.039770976
0001b0 58 df 31 bd 8a cd 1a 3d f1 34 9a bc 8f f3 b6 bb
       -0.043425888 0.037793674 -0.018824073 -0.0055832337
0001c0 5e 3c bf 3c fc dd 38 bc e0 68 bb 3b 08 ee e1 3b
       0.023344215 -0.011283394 0.005719289 0.0068948306
0001d0 a0 14 8a bc 1d b2 4a 3c cf 8a 7d bd 7f fd 81 bc
       -0.016855538 0.012371567 -0.061899956 -0.015867947
0001e0 5a fa 86 3c 83 ab ae 3b 2a 79 8d 3c 42 e4 64 bd
       0.016476799 0.0053305044 0.01726969 -0.055881746
0001f0 20 19 ba bd d3 3d ca 3c a2 e9 09 3d 4e 3f d1 3c
       -0.090868235 0.024687683 0.033670075 0.025542881
000200 39 80 8d 3c 7c cc d5 3c 05 d3 0a 3c 1a cf 05 3c
       0.017273055 0.026098482 0.008473163 0.008167053
000210 5c a2 f2 bc 4e a2 d3 bc 6c 6c b3 bc 0d 0c 9e ba
       -0.029618435 -0.025834229 -0.021902286 -0.0012058035
000220 9f 2e 47 3d dd 70 88 3c bb 06 81 3b 25 7b 10 bc
       0.048628446 0.01665538 0.00393757 -0.008818422
000230 37 ce 42 3c 17 56 36 bd a8 0d 17 bb 64 74 71 bd
       0.011889986 -0.044515695 -0.0023048911 -0.05894889
000240 ed 41 35 bd e3 e7 af ba 16 23 9b 3d 03 34 5c 3c
       -0.044252325 -0.0013420548 0.075750515 0.013440135
000250 79 f1 99 3c 5a 5f 90 bc 69 48 a9 3d 17 3b 30 3d
       0.018791901 -0.017623592 0.08265764 0.043025102
000260 2e af f7 3c aa 2d a7 bc 20 4b 4c bd 2d 1d bc 3b
       0.0302349 -0.020407517 -0.049876332 0.0057407827
000270 7d a8 1d 3d 28 ad 3b 3d 40 4e e5 bc 45 9c 49 bd
       0.03849076 0.04581943 -0.027991414 -0.049221296
000280 03 1c ef 3c cd a4 23 3d b4 8e 8f 3c 43 c9 a8 3c
       0.029188162 0.03995209 0.0175241 0.020603782
000290 2f ba c4 3c f8 8c bf 3b 75 40 49 bb 18 7c 8f bd
       0.02401456 0.005845662 -0.0030708585 -0.07006091
0002a0 44 12 91 bb 93 c0 25 bd 7c 65 2e bc 67 ea e2 bc
       -0.0044272263 -0.040466856 -0.010644313 -0.027699662
0002b0 a6 57 e0 bc b2 85 8a bd f6 83 4d bd ca ed 1e 3d
       -0.027385544 -0.067637816 -0.050174676 0.038800992
0002c0 65 28 dc 3d 45 8e 8d 3d 6d 9c ad bc 8c 87 d6 3b
       0.10749892 0.069119014 -0.021192754 0.00654692
0002d0 95 19 10 3e a2 42 9f 3d b4 ca 82 3d 3d f0 15 3c
       0.14072259 0.07776381 0.06386319 0.009151516
0002e0 6e a5 fb bd ba 96 b5 3d 4c 0a 3b 3d fb ce be 3b
       -0.122874126 0.088666394 0.045664117 0.005823014
0002f0 c9 8a 27 3c aa 2f 46 bd b5 15 b5 3d e6 52 38 3d
       0.01022596 -0.0483853 0.08842031 0.045000933
000300 19 9c 9b bd fe 4c a6 bc 16 90 a6 3b 31 9c 80 3d
       -0.07598133 -0.020300385 0.0050830944 0.06279791
000310 40 d6 ab 3c 5a 72 62 3c 25 23 3c bd f0 7a fb bc
       0.020976186 0.013821209 -0.045931954 -0.03069827
000320 78 f1 e1 3b b7 8c d8 3c f3 86 70 bd 05 84 44 bd
       0.0068952404 0.026434286 -0.058722448 -0.047977466
000330 27 c5 a2 3c ee 60 a5 bc 4e b9 1e bd 84 07 9a bc
       0.0198694 -0.020187821 -0.03875094 -0.018802412
000340 81 fa 8d 3c fa bd 8a bc 0a 35 43 3c 9e b8 66 bc
       0.017331364 -0.016936291 0.011914501 -0.014082102
000350 f7 2d d0 bd 1b 48 77 bd e7 b5 e0 bc b7 0b 16 3d
       -0.10165017 -0.0603715 -0.027430488 0.036632266
000360 2e 5b 69 3c 5d c4 a4 3c 8e 59 ac bd 36 29 c8 bd
       0.01424293 0.020113165 -0.08415519 -0.09773485
000370 23 6c b1 3d 68 de a6 3d fb 8d 5d bd 99 b8 5c bd
       0.086632036 0.081478894 -0.05409048 -0.053886984
000380 aa af 11 bd 04 e0 29 bd 21 11 8b bc 91 35 3f bd
       -0.035567917 -0.041473404 -0.016975941 -0.046681944
000390 09 be 54 3d cd f0 56 bd 42 62 8e 3c 73 ab d0 3d
       0.051939044 -0.05247574 0.017380837 0.10188951
0003a0 15 8f d3 bc 9f 3e 2d 3b 1a 6c d0 bc 04 70 cd 3c
       -0.025825063 0.002643503 -0.025442172 0.025077827
0003b0 ce a8 2e 3c cf da e7 3c 9b 51 15 bb 4e 38 b1 bd
       0.010660363 0.028302578 -0.0022784236 -0.086533174
0003c0 96 69 b3 3d 06 25 be 3d 5f 7b 08 3d 22 59 11 3b
       0.08760373 0.092844054 0.03332078 0.0022178371
0003d0 f9 9d bf bc 2b c7 54 3d be d5 a4 3d 07 e9 32 bd
       -0.023390757 0.051947754 0.080485806 -0.043679263
0003e0 17 8a 5d bc ff 3f 07 be 6b b7 7e bc bf 86 d3 3a
       -0.013521693 -0.13208006 -0.01554666 0.001613818
0003f0 52 4c a5 bd c9 08 b8 bc 8c 64 ef bb a5 31 de 3c
       -0.080711976 -0.022465127 -0.0073056873 0.027123282

fc1.bias f4 [120]
000000 88 7a 50 3c b0 40 5e 3d a8 11 79 bc 79 2e 17 bb
       0.012724526 0.05426091 -0.0152019635 -0.0023068471
000010 ee 22 89 3c 97 3c 28 3d d5 38 7c 3d 78 a5 0e 3d
       0.016740289 0.041073408 0.061577637 0.034825772
000020 8f f5 7e bd 73 b0 3b 3c 2b 54 0e bd e1 8d 9f 3d
       -0.0622459 0.011455643 -0.034748238 0.07790733
000030 c1 f6 8f bb f1 c8 6f 3d df a8 18 3c b5 0d 48 bc
       -0.004393429 0.058541242 0.009317606 -0.012210299
000040 c5 69 1a bd 83 e0 61 3d d7 94 51 3c e8 20 ec bc
       -0.037698526 0.05514575 0.012791834 -0.028824285
000050 fa 8a 86 bd 43 e9 44 bd 83 04 f0 bc 97 26 16 bd
       -0.065694764 -0.04807402 -0.029299026 -0.036657896
000060 5a a0 29 bd 86 ae b5 bd 0c 46 94 bd 08 a4 16 bc
       -0.04141269 -0.08871178 -0.07239923 -0.009194382
000070 c2 a6 7e 3b 17 37 cb bc 5a 85 80 bd d3 2e 88 bc
       0.003885672 -0.024806542 -0.06275435 -0.01662389
000080 77 6d 94 3d ad 2b 3d bd 72 e2 a9 3c 16 4c 10 3d
       0.07247441 -0.04618423 0.02073786 0.03522881
000090 1e 3b 3d 3d d1 11 2b 3e cc a4 3b 3d 3d 2b 91 bc
       0.046198957 0.16706015 0.04581146 -0.017720813
0000a0 85 3a 27 3b be 69 76 3d 20 74 a5 bb 07 bf 22 3d
       0.0025517058 0.060159437 -0.0050492436 0.03973296
0000b0 5f f8 90 bd 38 c2 78 3d 00 eb aa bd 8c 3f b7 bc
       -0.07078623 0.060732096 -0.08345604 -0.022369169
0000c0 25 d9 51 be 97 d3 19 bc 4c f9 87 3d 7a ab e4 3d
       -0.2049299 -0.009388826 0.066393465 0.11165519
0000d0 ce 06 8c 3c ed 48 49 bd 62 41 25 3d 7d 7e 9e bb
       0.017093088 -0.049141813 0.040345557 -0.004836856
0000e0 c4 3a 05 be 9a 12 49 bd 24 55 ba 3b 77 dd 9e bd
       -0.13010699 -0.049090005 0.005686419 -0.07757085
0000f0 5e 38 8b 3d 91 4a 1f bd 8a 18 53 bd d5 65 9f 3c
       0.067978606 -0.03888947 -0.051537074 0.019457737
000100 fe a0 8f bb 27 55 9f 3d 3e 9b 37 bd 20 8e 8e 3b
       -0.0043832054 0.077799134 -0.044825785 0.0043504387
000110 17 63 eb 3d 73 1d 6e 3b 30 8a 21 bc e3 85 d4 bc
       0.11493509 0.003633347 -0.009859607 -0.025942748
000120 fc 4e 76 bd e9 ae 17 bd 17 74 27 bd 53 c0 30 bd
       -0.06013392 -0.03703204 -0.040882196 -0.043152165
000130 b3 d1 ca 3d a1 24 df bd 99 18 f1 3c 14 b1 f9 bd
       0.09903278 -0.10895658 0.029430674 -0.12191978
000140 31 37 0e 3d 50 55 fa bc 50 5e 7c 3d b2 a8 d2 bc
       0.034720603 -0.030558258 0.06161338 -0.025715206
000150 78 bf 1a 3d e3 30 19 bd ab 49 20 bd ae de 62 3c
       0.037780255 -0.037400138 -0.039132755 0.013847036
000160 6d ff 33 bc 38 dc 20 bd 29 12 ae 3d ee 36 0f 3d
       -0.010986191 -0.039272517 0.084995575 0.034964494
000170 43 ca 13 bc e2 3c ed bc b7 fa 41 bd f7 c0 1c 3e
       -0.009020391 -0.028959695 -0.04735824 0.15307985
000180 bc 4a d2 bd 84 0d 2f bd ad aa 92 3d 23 c4 19 bd
       -0.10268161 -0.0427375 0.0716146 -0.037540566
000190 31 ec 7a bc 5c 00 7c bd 71 a6 a6 3c a5 7c c2 3d
       -0.0153151015 -0.06152378 0.020343037 0.0949643
0001a0 27 73 d3 3c 50 e7 b8 bd 29 19 15 bc 4a 3a fa 3d
       0.025811745 -0.09028494 -0.009100237 0.12218149
0001b0 b9 5e fd bc e2 92 87 3c 78 87 ea b9 51 68 c1 bc
       -0.030928956 0.016549531 -0.0004473289 -0.023609312
0001c0 92 22 b3 3c d3 7f ef bd 3c c2 e9 3b 6e 29 1c 3d
       0.02186707 -0.116943024 0.0071337502 0.038125448
0001d0 0f f5 0d 3d 54 9c 0f bb d3 01 08 bc 96 e6 b9 bc
       0.034657534 -0.0021913247 -0.008301216 -0.02269296

fc2.weight f4 [84, 120]
000000 8c ab 48 bd 42 14 3c bd 72 35 4e 3b 2c bc ab bd
       -0.048991725 -0.045917757 0.0031464961 -0.083855
000010 10 19 73 be ad e4 d6 3d 0e f9 91 bd 72 e8 db 3c
       -0.2374003 0.10492835 -0.071275815 0.026844237
000020 7e c4 88 3d 7c f1 41 be eb b9 89 3d ac e0 80 be
       0.06678103 -0.18939775 0.06724914 -0.2517141
000030 03 fc b2 3c 25 c0 e7 3d c4 f9 5c 3c b7 99 aa bd
       0.021848684 0.113159455 0.013487283 -0.083301
000040 99 27 ac bc 35 49 4e bd 6b d9 85 3d ba fc 91 3e
       -0.021014975 -0.050362784 0.0653561 0.28513128
000050 a0 a1 f0 3b 50 aa bb bb 36 0d 9c 3d 72 b2 70 bd
       0.007343486 -0.00572709 0.07619707 -0.05876393
000060 14 c5 f9 3d 5c 37 43 3e 33 e7 1c 3d 0a 93 8b bd
       0.12195793 0.19064087 0.038306426 -0.06815155
000070 8c 02 ae 3d 19 a8 a5 bd 9c 89 04 3d b0 1b 8e bc
       0.084965795 -0.08088703 0.032357797 -0.017347187
000080 0b ba cd bd 30 0e b2 3b 26 2a 49 3c 1b da ce bd
       -0.100452505 0.00543382 0.012278115 -0.10100194
000090 07 6e 4a be f0 36 68 bd 90 82 18 be 2e 77 08 3e
       -0.19768535 -0.056693017 -0.14893556 0.13326713
0000a0 ca bf 90 3d 54 60 7a 3e 14 89 0e bc 19 ef 0b be
       0.07067831 0.24450809 -0.008699674 -0.13665427
0000b0 f9 a1 61 3d 9b 72 c5 3d 26 0c 94 3d fb a2 11 3e
       0.05508611 0.09641 0.0722888 0.14222328
0000c0 f4 a6 6d 3e dd 10 9b 3c e5 5c 35 be 8e 3e d9 bc
       0.23208219 0.01892894 -0.17711218 -0.026519086
0000d0 cb 11 ae 3d 05 0e d7 bd 39 d9 d0 3d eb 66 09 be
       0.084994875 -0.10500721 0.10197682 -0.13418166
0000e0 ec d9 78 bc 49 2a 45 bc 48 8a 5c be 41 8b de 3d
       -0.015188675 -0.012034007 -0.21537125 0.10866404
0000f0 b0 a5 9d bd 0e a0 18 3c a6 6e 54 3e 96 40 88 3d
       -0.07697618 0.009315504 0.20745334 0.06652944
000100 c8 2a 8b 3d bf c3 15 bd f5 6e d3 bd 29 4f 2c bd
       0.06795269 -0.03656363 -0.10323898 -0.04206768
000110 f7 de 06 3d f2 e5 4b be d8 e8 3c bd 55 8a 0b be
       0.03292748 -0.19911936 -0.046120495 -0.13626988
000120 3f f0 1f be df 2a 00 be d4 e7 a9 3d 87 47 44 bb
       -0.1561899 -0.12516354 0.08296171 -0.002994986
000130 f0 bf 22 bd f5 72 af 3d 33 7c a4 3d b3 f2 0b 3e
       -0.039733827 0.08566848 0.080315016 0.13666801
000140 77 d9 15 bd 0f f4 bd bd a0 24 95 ba 5f f4 34 3e
       -0.036584344 -0.09275066 -0.0011378713 0.17671345
000150 60 95 96 bd bc 29 36 3b 12 b6 13 bd 79 89 0b bd
       -0.0735271 0.0027795872 -0.036062308 -0.03406665
000160 e4 78 e7 3d 1c 55 d9 3d 00 b0 fb 3d a0 46 8a bb
       0.11302355 0.106119365 0.12289429 -0.004219845
000170 72 76 5c bd 93 32 52 bd a3 2d c0 3d 42 c8 16 be
       -0.053823896 -0.051317763 0.093837045 -0.1472483
000180 d5 d7 68 3e e3 f4 b7 3d 93 7f 80 bd e0 5f 8c 3d
       0.22738583 0.08982255 -0.06274333 0.06854224
000190 05 ec a7 3d 7b 16 86 3d 19 01 1e be 4b 5a 98 bd
       0.08199314 0.065472566 -0.15430106 -0.07439097
0001a0 99 8f d1 3d b3 c9 a7 bd cf 0e c3 bd f9 df cd 3c
       0.10232467 -0.08192768 -0.09524309 0.025131213
0001b0 32 d0 54 3d 86 d3 b9 3d 18 1c 55 3c 3a 2e be bd
       0.051956363 0.09073548 0.013007186 -0.09286161
0001c0 28 23 c8 bd 62 43 b2 bd 4b 09 4a 3d a9 e6 24 be
       -0.097723305 -0.087042585 0.04932527 -0.16103615
0001d0 7f fc de bd cc 98 7b 3d 04 44 ab bd 7a 3d 36 bd
       -0.108880036 0.061425015 -0.08362582 -0.044492222
0001e0 35 72 83 bd 6d a9 8a bd 44 4b ff bc 4b 00 05 bd
       -0.06418268 -0.06770597 -0.03116382 -0.032470983
0001f0 6c 92 43 bd 0a 7d 86 3d d4 a1 0f bd 70 f2 a4 bd
       -0.04774706 0.06566818 -0.03506644 -0.08054054
000200 dc 6f 13 3e 9b fa 1e bd f4 a1 ac bd 89 6e ca bd
       0.1439814 -0.038813215 -0.084293276 -0.09884364
000210 3f ad 8f bd 76 c1 9e bd fb d9 55 bd db b1 78 bc
       -0.07015466 -0.077517435 -0.052209835 -0.015179123
000220 ff 15 f0 bc 33 09 65 bd d7 1a 06 3d 55 84 35 bc
       -0.029307364 -0.055916976 0.03274044 -0.011078914
000230 e2 95 65 bc 0e 08 92 bd 3b 24 12 3d 57 85 ad 3c
       -0.014012786 -0.071304426 0.035679083 0.021181745
000240 c3 86 f9 3c ad 6d 20 bd a3 e7 9d bc 67 d6 b7 bc
       0.030459767 -0.039167095 -0.019275492 -0.022441102
000250 fe 27 d2 bd be bc ae 3d 64 1c de 3c 50 ba a7 3c
       -0.10261534 0.085320935 0.027113147 0.020474583
000260 1e e7 0c bc d5 27 8f 3c 0e 1d 9d 3d a1 55 6a bc
       -0.0086000245 0.017475048 0.07671557 -0.014302642
000270 19 bb 16 bc 94 9b 23 3c 7a 0d 82 bd 63 38 0c 39
       -0.009199881 0.009985823 -0.06350227 0.00013372446
000280 68 2e 4e bd ae db ed 3d 76 35 2f bd 18 e0 f1 bb
       -0.050337225 0.11614166 -0.042775594 -0.0073814504
000290 1a 0f 2e 3e 2e 87 28 3d 30 0e 9c 3c 7b 0d 24 3e
       0.16997948 0.041144542 0.019049734 0.16020767
0002a0 b3 40 f3 bc 6c 32 cf 3d 41 c0 37 3d 0d 37 ba bc
       -0.029693937 0.10117039 0.044861082 -0.022731328
0002b0 d2 43 f2 bd b6 56 34 bc e3 b2 00 3d e4 21 25 3c
       -0.11829342 -0.011007002 0.0314206 0.010078881
0002c0 4f d6 db 3d 10 2d ea 3c c6 27 72 3d f7 a4 19 3e
       0.107342355 0.02858594 0.059119962 0.15004335
0002d0 8c ac a9 3d ef 2d 23 3d 3e d1 32 bc 3e 1c 54 3c
       0.08284864 0.039838728 -0.010914145 0.012946187
0002e0 b3 78 02 be a9 1c 2c 3e 36 4b 15 3e f5 91 5b 3d
       -0.12741356 0.16807808 0.14579472 0.053605992
0002f0 1d 74 ec bd 71 69 93 bd e6 03 37 bd e2 2c b6 3d
       -0.11545584 -0.07197846 -0.044681452 0.088952795
000300 f8 48 a2 bd c6 7d a4 3d df 75 07 bd 1b b8 a7 3d
       -0.07924074 0.08031802 -0.033071395 0.08189412
000310 76 ac 1c 3d 38 d6 61 bc e9 c1 ac bd 1c 90 4e 3c
       0.03825041 -0.013783984 -0.08435423 0.012607601
000320 c3 5c c4 3d 13 ab 8a 3d 84 f7 31 3d 50 30 46 3d
       0.095880054 0.06770911 0.04344894 0.04838592
000330 3a 21 85 bc 89 b9 80 3c fb 75 3f 3d 5e 8b 37 bd
       -0.016251195 0.01571347 0.046743374 -0.044810645
000340 c5 a4 85 3d 8e da 06 39 ce 0c d9 3c 38 12 0b 3c
       0.06525568 0.00012860654 0.026495364 0.00848823
000350 cd 19 33 3d 25 6a dc 3a 41 a6 35 bd 8d 9b cb 3d
       0.043725777 0.0016816302 -0.044348005 0.09941778
000360 9e f2 af bd a8 70 61 3d fe 4d c5 3c 9f a4 af 3d
       -0.085911974 0.055039078 0.024085041 0.08576321
000370 cf ee 02 3e c6 a4 4a 3d 55 36 8e 3d 97 c0 9e bd
       0.12786411 0.049473546 0.06943957 -0.07751577
000380 47 5f a5 bd e8 3e 07 3e b8 dd 7c 3b d5 19 a3 bd
       -0.08074813 0.1320759 0.0038584303 -0.079639114
000390 06 b4 c0 3d 2b 05 9a bd 63 9c 32 3e 8d eb 93 bd
       0.09409337 -0.07520517 0.1744247 -0.07222662
0003a0 ff 8c 96 bc 80 56 03 bd 0c 10 9b bd 72 e8 c3 3d
       -0.018377779 -0.032064915 -0.0757142 0.0956582
0003b0 cc ef c7 bc 43 cd 2c bb 50 31 0e 3d 2b f7 a8 3c
       -0.024406336 -0.0026367463 0.034714997 0.020625671
0003c0 f1 89 4d bc ce c6 27 3d 3b a6 aa bd 4b 63 53 bd
       -0.012545095 0.04096108 -0.08332487 -0.051608365
0003d0 f5 47 bc bd 8f 04 0c 3d 7e 4b dd bd b7 d6 06 bd
       -0.09193412 0.034184035 -0.108054146 -0.03291961
0003e0 68 9a 2a bd 4a 5c ce bb 94 3e ac 3c 6a eb 18 be
       -0.04165116 -0.006297623 0.021025933 -0.14933553
0003f0 c3 ee 56 bc 0a 24 9e 3d 4a aa 9a 3d 4e 6d 8f bd
       -0.013118449 0.07721718 0.07552011 -0.0700327

fc2.bias f4 [84]
000000 03 46 4e bc 0e 9b ed bc 1f b9 ab 3d 03 d2 d8 bd
       -0.012589934 -0.0290046 0.083849184 -0.105869316
000010 8e 75 49 3d 94 a8 95 3e bf 4d 23 be 29 24 ce bd
       0.049184375 0.29230177 -0.15947627 -0.10065491
000020 5e df 74 3c ad cc 1b 3e a5 be 19 3d 33 e7 87 3d
       0.014945833 0.15214796 0.03753533 0.066358946
000030 92 ac 02 3e 1b 68 be bd cf 32 95 bd 01 22 8e bd
       0.12761143 -0.092972 -0.072850816 -0.069400795
000040 59 53 d5 bd 37 51 24 3e 6b 54 8d 3d 0b 03 b8 bd
       -0.10416288 0.16046606 0.06900867 -0.089849554
000050 82 49 a7 bd b2 75 3f 3e f5 96 aa 3d 35 f3 09 bd
       -0.081683174 0.18697241 0.08329574 -0.033679206
000060 91 df b7 bd 50 53 2d 3d b5 40 32 3e 31 a6 98 3d
       -0.08978189 0.04231578 0.17407496 0.074535735
000070 49 3e df 3c 34 2b 97 3c e2 55 ce 3c c0 6f 5d bd
       0.02725138 0.018453218 0.025187436 -0.05406165
000080 03 68 88 3e e4 9a 41 3d da 77 dc bc 38 b7 5b bd
       0.26641855 0.047266856 -0.026912618 -0.053641528
000090 f7 c3 e3 bd 51 c0 23 3e 49 51 a4 bb 1f ff ad bd
       -0.11121362 0.15991332 -0.0050145728 -0.08495926
0000a0 80 47 df 3d 4c ff 34 bc 38 1d b5 bc d5 90 3e 3d
       0.109023094 -0.011047196 -0.02210866 0.04652484
0000b0 04 05 d7 bd 20 9e 4b bc de 81 9f bd 0e d7 b3 bb
       -0.104990035 -0.012427837 -0.07788442 -0.005488283
0000c0 bc f7 34 bd 77 b0 4a bd cf 7e 81 3e 3f cc 8b 3d
       -0.04418157 -0.049484696 0.2529206 0.06826066
0000d0 a8 4a 41 bd aa 67 af bd a1 b4 26 bd db 3e bb bc
       -0.04719034 -0.08564694 -0.040699605 -0.02285712
0000e0 51 2c 2c 3d 77 32 cb bd d6 54 3e 3e a3 0c 9f bd
       0.04203445 -0.09921735 0.1858705 -0.07766082
0000f0 63 5a e0 bd bd 64 5d 3d b2 6f c1 bd 45 09 ce bd
       -0.1095474 0.05405115 -0.09445132 -0.10060362
000100 0d d2 3c 3d 3f a2 98 bb 58 aa 34 3e 9c a7 13 bd
       0.046098758 -0.004658013 0.17643106 -0.036048517
000110 ab c8 79 3e f2 01 b0 bb a8 b4 7e 3c e7 55 17 be
       0.24392955 -0.0053713256 0.0155460015 -0.14778863
000120 79 21 aa 3d b8 1a 79 bd 59 e1 11 be 4f de 43 bd
       0.08307166 -0.060816497 -0.1424612 -0.047819432
000130 31 11 1f 3e 72 6d bb bc c3 76 f9 bd 01 32 32 3c
       0.15533902 -0.022879336 -0.12180855 0.01087618
000140 35 36 ed bd ff 1f 24 be 2b 38 95 3d 5a 35 32 3a
       -0.11582605 -0.1602783 0.07286104 0.0006798111

fc3.weight f4 [10, 84]
000000 e7 54 7f 3e b0 75 77 3e 87 8e 15 be fb 46 15 3c
       0.24934731 0.24165988 -0.14605151 0.009111161
000010 3b fa 52 3d 2b fb 9d be 85 8a da 3e 92 6a 89 3d
       0.05150817 -0.30855688 0.42683807 0.0670978
000020 d8 97 bb be 17 7c b2 be de bb 74 bd 2e a0 d8 3e
       -0.36639285 -0.34860298 -0.059749477 0.42309707
000030 6f 2d bb 3d 43 dd da bd 89 fe 1e be 3b db c1 bd
       0.09139525 -0.106867336 -0.15526785 -0.09465643
000040 28 57 14 3e ce d3 d4 be 48 3d 2b 3e 4e 38 61 3d
       0.14486372 -0.41567844 0.16722596 0.054985337
000050 5c f6 e5 3d 2c a3 be bd ea d8 1a 3d dd 85 be bd
       0.1122863 -0.09308466 0.03780452 -0.09302876
000060 b2 fa 69 3d fa 2d a3 bd 98 3b 92 bc e9 81 b6 bd
       0.057123847 -0.07967754 -0.017850682 -0.08911497
000070 31 75 5b 3e 13 8e d1 3d 1a ac 20 3d 87 eb 62 3e
       0.21431424 0.10232177 0.03922663 0.22160159
000080 25 c2 80 be f8 46 58 3e e8 2d a5 3e ca 3a 10 3e
       -0.2514812 0.21120822 0.32261586 0.14084926
000090 05 80 94 bd 0a 23 79 be 01 3d 25 bc e4 ab ad bd
       -0.0725098 -0.24329773 -0.010085345 -0.08480051
0000a0 eb 0f 6a bd f2 b0 77 3c 1e 70 98 3e 09 8c 61 bd
       -0.057144087 0.015117871 0.2977304 -0.05506519
0000b0 69 65 d6 3c a2 91 8c 3d 8d 2f 7a 3c f3 29 40 3e
       0.026171403 0.06863715 0.015270126 0.18766002
0000c0 44 7f 2f bd ad db 4a bd d1 84 00 be 8b 28 01 3b
       -0.04284598 -0.049525905 -0.12550665 0.0019708003
0000d0 ed 81 e4 3d fe c7 3f be 1b 0f 50 be 21 52 d4 3c
       0.11157594 -0.18728635 -0.20318262 0.025918068
0000e0 f5 9b 59 bb b8 b7 ca 3e 7c 83 2a be 8b 60 ed bd
       -0.003320453 0.3959329 -0.1665172 -0.1159068
0000f0 28 8b f6 3e b3 7e d9 bc e2 2e ae be 19 f2 6f bd
       0.48153043 -0.026549673 -0.34020144 -0.05858049
000100 d1 c7 1e 3d d6 60 f7 bd 86 68 ac be 10 21 c7 3d
       0.03876478 -0.12079017 -0.33673495 0.09723103
000110 fc 15 bb be dc 5d 50 3c 47 da a6 bd 4a 0c f0 3d
       -0.3654021 0.01271769 -0.08147102 0.11721094
000120 99 a8 64 3e 99 e1 b6 3d 7c fc 8f 3e 1e 6e 47 3d
       0.2232994 0.08929748 0.28122318 0.048689
000130 03 cc 17 3d 3e aa 07 bd dd 45 c4 3d d3 59 24 bd
       0.037059795 -0.03312134 0.09583638 -0.040124726
000140 c9 71 fb 3d 1a 5e e5 3d f0 9c 1e 3e 36 47 30 3e
       0.12277562 0.11199589 0.15489554 0.17214665
000150 1e 92 7f be 16 47 be bb 0c 2d 9e bc 12 7c 25 be
       -0.24958083 -0.005806814 -0.01930859 -0.1616061
000160 69 56 2d 3e 7a c7 d8 be af 3a 1a be f1 77 da bd
       0.16927494 -0.4233969 -0.15061449 -0.10667408
000170 71 42 e5 bd 03 d2 43 3e e5 2c 84 bd 22 69 16 be
       -0.11194313 0.19123082 -0.064538755 -0.14688542
000180 be 1d d0 3e b1 ff 08 3e c4 41 b1 3e 95 e7 89 3e
       0.4064769 0.13378789 0.34620488 0.26934496
000190 b5 ba ba 3d e5 4f c9 be 29 48 7e 3d 8d 17 17 bd
       0.09117643 -0.39318767 0.062080536 -0.036887694
0001a0 0e 08 39 3e 3d 26 54 3e 4b 54 e1 bd 0c 0c 08 be
       0.18069479 0.20717712 -0.11002406 -0.13285846
0001b0 22 5b 7c 3e 7b 1d 2d 3e be ca 68 be 4d ca df bd
       0.2464414 0.16905777 -0.2273359 -0.10927258
0001c0 cd f9 3b be b7 56 07 3d 08 fe 2a 3c cf 28 93 3e
       -0.1835701 0.033041682 0.010436542 0.28742072
0001d0 0b f9 2a bd 0a 7b ae be fb 87 ad bd cb bf 59 bc
       -0.041741412 -0.34078246 -0.08473202 -0.013290356
0001e0 3c cd 7b 3d 91 d8 54 3d 1b 10 a7 3e c8 61 19 3e
       0.061475024 0.051964346 0.32629475 0.14978707
0001f0 63 42 cf 3e aa cd a6 3d 86 a2 e4 3d 4e de 55 be
       0.40480337 0.08144696 0.111638114 -0.20885584
000200 59 b7 1c 3e 24 8c b4 39 64 66 cf 3d fb 34 6a bd
       0.15304317 0.00034436688 0.10126951 -0.057179432
000210 b6 5f 6b 3b 4c 4a 73 3d 22 c0 5f 3d 90 40 b1 3e
       0.0035915202 0.059397027 0.05462659 0.3461957
000220 68 d1 91 bd 0b 79 00 be a3 b1 9b bd c3 05 8a bc
       -0.07120019 -0.12546174 -0.07602241 -0.01684845
000230 64 86 20 3e 34 bb ee 3d 5c 1d b7 bd 24 18 e8 bb
       0.15676266 0.116568 -0.08941147 -0.007082956
000240 29 9a 81 be df 44 38 be d1 4c 65 3e 96 5c 0f 3e
       -0.25312927 -0.17995022 0.22392584 0.14000162
000250 cd 6d 66 bd f4 98 fb 3d e5 2f 8e be da 9e 2b 3c
       -0.056257058 0.12285033 -0.27770916 0.010474885
000260 1c dc 4e be 3d bc 98 3e dd 77 14 be 4c f7 2b 3e
       -0.20201153 0.29831114 -0.14498849 0.16793555
000270 d5 8a c7 3e d7 af a9 3d 2d 9d fe bd 54 46 e5 3d
       0.38973108 0.08285492 -0.12432323 0.11195055
000280 3c 01 54 3d 38 d5 17 3e 0e e9 49 be 2b de 65 bd
       0.05175899 0.1482743 -0.1971781 -0.05612008
000290 79 f8 0a be 06 f6 0f be 4f 69 28 be 78 df 92 bd
       -0.13571347 -0.14058694 -0.16446422 -0.071715295
0002a0 87 13 10 bd fc c9 c6 3c 26 fa 73 3d eb 8a 8b bd
       -0.035174873 0.024266236 0.059564732 -0.06813606
0002b0 fa 81 17 be ac 74 bc 3d 4e fc 19 bd 12 99 f9 bd
       -0.14795676 0.09201941 -0.037594132 -0.12187399
0002c0 93 45 4c be 97 c4 c0 bc 7b 4f 05 3d 53 78 18 3e
       -0.19948415 -0.023531241 0.0325465 0.1488965
0002d0 b5 da a1 bd 36 28 03 be b1 b4 a1 3d d7 6b 1a bd
       -0.07903043 -0.12808308 0.07895792 -0.0377005
0002e0 ac cd 21 3c 40 20 f2 3d 30 0f ed bd 49 52 17 3d
       0.009875696 0.118225574 -0.115751624 0.036943708
0002f0 39 dd 0f bd 68 65 0e 3c 15 f3 c4 3d 8e 99 33 bd
       -0.035123084 0.008691169 0.09616677 -0.043847613
000300 e4 57 c0 bd fe 44 da bd 56 2e 23 bc 13 f2 08 3e
       -0.09391764 -0.106576905 -0.009959778 0.13373594
000310 e5 01 d1 bd bc 13 70 bd 2c 9a 91 3c 0a e1 85 3c
       -0.102054395 -0.05861257 0.01777371 0.016342659
000320 89 f3 53 3b f5 9c b2 bd 3e 0f 0a 3c 4b 9d 82 bd
       0.0032341203 -0.087213434 0.008426486 -0.063776575
000330 8f 92 8b 3c ed 1a e0 bd 21 3a 34 3d 6f b4 54 3d
       0.017037658 -0.10942636 0.04400075 0.051929887
000340 12 7b ef bc 4a 6b f9 3d 44 3a f8 bb 68 1a 00 be
       -0.02923349 0.12178667 -0.007575305 -0.12510073
000350 36 5f 33 bd bb 7e 12 be ac 3d b7 3d 5b c5 5f bc
       -0.043791972 -0.14306156 0.0894731 -0.013657893
000360 7a af ac 3d 07 40 84 3d d1 0f b6 bd 8c 8e be bc
       0.08431907 0.06457525 -0.088897355 -0.023261331
000370 89 01 5f b9 29 a1 eb bd 6e 51 a5 3c 09 3b 10 3e
       -0.00021267509 -0.11505348 0.02018043 0.1408502
000380 17 25 98 3d a5 d2 82 bd ca ee a1 bd 0b 8e 85 3d
       0.07428949 -0.063878335 -0.079068735 0.06521233
000390 2d da b2 bd ba a3 27 bc 52 d2 24 be 98 96 c0 3d
       -0.0873302 -0.010231907 -0.16095856 0.094037235
0003a0 ce 57 9d 3b e3 ba 87 3d 06 6f 25 3d e0 97 cf 3c
       0.004801727 0.06627443 0.040389083 0.025340974
0003b0 a3 a9 13 3e d3 af 2d 3e 8e 40 54 3d c9 c4 eb 3d
       0.1442018 0.16961603 0.051819377 0.11512143
0003c0 b2 f1 5e 3d 90 ed 6c 3d 42 bf 04 3d 07 62 88 bd
       0.054429717 0.057843745 0.03240896 -0.06659322
0003d0 76 26 d2 bc a0 40 ec bd a7 73 c0 bd 68 e2 f8 bb
       -0.025653105 -0.11535764 -0.09397059 -0.007595349
0003e0 06 a2 88 bd f7 56 57 3a 19 cb b0 3d 6b a3 bd bd
       -0.066715285 0.0008214558 0.08632488 -0.09259685
0003f0 af 51 05 be 01 a3 4c 3d eb 25 d6 bd 0a ed 73 3c
       -0.13019441 0.04996014 -0.10456451 0.0148880575

fc3.bias f4 [10]
000000 5b 45 0c bf b4 b6 06 bd 06 c3 c1 3c e7 9b b8 3e
       -0.5479333 -0.032889083 0.023652565 0.36056444
000010 2e 54 a5 3e d5 16 93 be 85 76 06 3f 01 ae ae be
       0.32290787 -0.28728357 0.52524596 -0.3411713
000020 a9 c1 29 bd 41 63 ce bb
       -0.041444454 -0.006298453
