round2/2025-04-18 18:13:09-weight-client-97021157-9.pth (torch, 252478 bytes, 10 tensors)

conv1.weight f4 [6, 3, 5, 5]
0	0xbee8caa0	-0.4546709
1	0xbea882e9	-0.32912377
2	0xbe5f2a69	-0.21793522
3	0xbe642199	-0.22278441
4	0xbeb857db	-0.36004528
5	0xbed4c534	-0.41556704
6	0xbebab1ed	-0.36463872
7	0xbed55955	-0.41669717
8	0xbeb90f55	-0.3614451
9	0xbeadbd61	-0.33933547
10	0xbed2de73	-0.4118534
11	0xbea95ca2	-0.33078486
12	0xbecf715b	-0.4051617
13	0xbe85d494	-0.26138747
14	0xbeb583e6	-0.35452193
15	0xbe70ec5f	-0.23527668
16	0xbe35c44a	-0.1775066
17	0xbe60a314	-0.2193721
18	0xbe84e698	-0.2595718
19	0xbedc3ebc	-0.43016613
20	0xbdfa665d	-0.122265555
21	0xbda1fd66	-0.0790966
22	0x3c15a4fb	0.009133573
23	0xbe3690ae	-0.17828628
24	0xbe2e4c85	-0.17021377
25	0x3c1fd4d1	0.009755329
26	0x3d9467ce	0.07246362
27	0xbbac3f92	-0.0052566016
28	0x3d6fb55e	0.058522575
29	0xbcdfd88b	-0.027324935
30	0xbc15efb0	-0.009151384
31	0x3d902a80	0.07039356
32	0x3d02f504	0.031971946
33	0x3d19661e	0.037450902
34	0x3dd70b23	0.10500171
35	0xbe06f526	-0.13179454
36	0xbdc25989	-0.09489734
37	0xbc38e173	-0.01128422
38	0xbde8c63a	-0.11365934
39	0xbda0933c	-0.07840583
40	0x37e0e8ba	2.6811253e-05
41	0x3cb5c707	0.02218963
42	0xbdff3958	-0.12462109
43	0xbe27c5ba	-0.1638402
44	0xbdd683e2	-0.104743734
45	0xbe4a05f0	-0.19728827
46	0xbc96dd00	-0.018415928
47	0xbe2f9d51	-0.17149855
48	0xbdc97f4c	-0.09838733
49	0xbe378e5f	-0.17925404
50	0x3f303992	0.68837845
51	0x3f0df02e	0.5544461
52	0x3f41870b	0.75596684
53	0x3f1504c8	0.5821042
54	0x3f22a958	0.6353965
55	0x3efd20ee	0.49439186
56	0x3f09d56c	0.5384128
57	0x3f2a3583	0.664879
58	0x3f349b3e	0.7054938
59	0x3ef2820b	0.4736484
60	0x3f32e037	0.69873375
61	0x3f235573	0.6380226
62	0x3f168302	0.5879365
63	0x3f0feb35	0.5621827
64	0x3ed7f17b	0.42176422
65	0x3f0599ec	0.5218799
66	0x3f07738d	0.5291069
67	0x3f293e3e	0.661106
68	0x3f1cc0f3	0.6123192
69	0x3ed975b7	0.42472622
70	0x3f18a17c	0.59621406
71	0x3ed3faf5	0.41402403
72	0x3efcd477	0.49380848
73	0x3eec728b	0.4618114
74	0x3edcb520	0.43106937
75	0xbec00a83	-0.3750802
76	0xbdef29d2	-0.116778985
77	0xbeaa856d	-0.3330492
78	0xbdf68fb7	-0.1203913
79	0xbe4e652a	-0.20155779
80	0xbd3adfd6	-0.045623623
81	0xbd0fe394	-0.035129145
82	0xbd81bb5d	-0.06334565
83	0xbd9a769a	-0.07542153
84	0xbd986682	-0.07441427
85	0x3e2715ca	0.16316906
86	0x3e39cb88	0.18144047
87	0xbe01bcfb	-0.12669747
88	0x3ddd5861	0.108078726
89	0xbda171fe	-0.078830704
90	0x3eaa3a63	0.3324767
91	0x3ea1efa7	0.31628153
92	0x3e68f17a	0.22748366
93	0x3e577040	0.21038914
94	0x3e57dd2a	0.21080461
95	0x3ef61ccd	0.48068848
96	0x3e9fb354	0.31191504
97	0x3eb248ce	0.3482117
98	0x3e9aab80	0.3020897
99	0x3eb94f07	0.36193106
100	0x3e2a5fe9	0.1663815
101	0x3ead1af5	0.3380963
102	0x3ebdbd23	0.37058362
103	0x3eb13fd9	0.34619024
104	0x3e6512dc	0.22370476
105	0x3e6cc189	0.23120703
106	0x3e864a23	0.26228437
107	0x3e81e0f1	0.2536693
108	0x3ea2383e	0.31683534
109	0x3e503d2d	0.20335837
110	0x3ed14c75	0.40878645
111	0x3e796289	0.24353994
112	0x3ea0ee02	0.31431586
113	0x3e46b36e	0.19404384
114	0x3ebee36a	0.37282878
115	0x3dfeb8a6	0.12437563
116	0x3decc27e	0.11560534
117	0x3e8eda0b	0.2790073
118	0x3c9c7052	0.019096527
119	0x3e110a1b	0.14164011
120	0x3e60b078	0.21942317
121	0x3e107351	0.1410649
122	0x3ebc661c	0.36796653
123	0x3e49f6fb	0.19723122
124	0x3e49003e	0.19628999
125	0xbe384b66	-0.17997512
126	0xbe110948	-0.14163697
127	0xbd93fd61	-0.072260626
128	0x3d564d1c	0.05231963
129	0x3d0b4e43	0.034010183
130	0xbe43d8a9	-0.19125618
131	0xbe0d9e66	-0.13829955
132	0xbd9c8385	-0.07642273
133	0xbdad2c4e	-0.08455716
134	0xbe2c45dd	-0.16823526
135	0xbe1e325b	-0.15448897
136	0xbe335a85	-0.17514999
137	0xbe72a059	-0.2369398
138	0xbb7e7550	-0.0038827248
139	0xbe0f1ea9	-0.1397654
140	0xbe5da0ce	-0.21643373
141	0xbe7d5b8f	-0.24741958
142	0xbe514109	-0.20434965
143	0xbe6dc36e	-0.23219082
144	0xbe9bfa2a	-0.30464298
145	0xbdee8a01	-0.11647416
146	0xbeafb49f	-0.3431749
147	0xbe0d4195	-0.13794549
148	0xbe4c6072	-0.19958666
149	0xbe4a69ab	-0.19766872
150	0xbd642ef7	-0.05570885
151	0xbe7eab58	-0.2487005
152	0x3bb245fd	0.005440472
153	0xbd02cf1a	-0.03193579
154	0xbd35e278	-0.04440543
155	0xbda0d647	-0.0785337
156	0xbe5e51fe	-0.21710965
157	0xbe2ecc69	-0.17070164
158	0xbe03be06	-0.12865457
159	0xbe376da1	-0.17912914
160	0x3d8acbda	0.06777163
161	0xbe465222	-0.19367269
162	0x3d083c4f	0.03326064
163	0xbdbf201a	-0.09332295
164	0xbe199576	-0.14998421
165	0xbdecc630	-0.11561239
166	0xbe4ba348	-0.19886506
167	0x3db5f5eb	0.08884796
168	0xbe31c56e	-0.1736047
169	0xbe9d4be6	-0.30721968
170	0x3e816115	0.2526938
171	0xbcac7978	-0.021054015
172	0xbd1144a4	-0.03546585
173	0x3e0ad8ab	0.13559215
174	0xba714440	-0.00092035905
175	0x3ef381f8	0.47560096
176	0x3eb742c5	0.3579313
177	0x3eb7119a	0.35755616
178	0x3eaa5652	0.33268982
179	0x3e5acaae	0.21366379
180	0x3ee9d686	0.4567148
181	0x3e93034e	0.2871346
182	0x3efb6018	0.4909675
183	0x3ede93de	0.4347219
184	0x3ec491d4	0.38392508
185	0x3eb9d5c4	0.36295903
186	0x3e88bc57	0.26706192
187	0x3eefb041	0.4681416
188	0x3ed92949	0.4241431
189	0x3e4aa56b	0.19789664
190	0x3eadb14b	0.33924326
191	0x3e8d5ff2	0.27612263
192	0x3f15a726	0.58458173
193	0x3ebb2f71	0.36559632
194	0x3e4be283	0.19910626
195	0x3f10e39b	0.565973
196	0x3e9344b1	0.28763345
197	0x3ee2bd08	0.44284844
198	0x3edfa365	0.43679348
199	0x3eb5bedb	0.35497174
200	0xbe13a14f	-0.14417003
201	0xbe316a8b	-0.17325799
202	0xbe0dc2e9	-0.13843884
203	0xbe008892	-0.12552097
204	0xbe88b05a	-0.26697046
205	0xbe9554e2	-0.29166323
206	0xbe37022c	-0.17871922
207	0xbdc2c8dd	-0.09510968
208	0xbd924309	-0.07141692
209	0xbe91103c	-0.28332698
210	0xbe23499f	-0.15946053
211	0xbec46ff5	-0.38366666
212	0xbe098c45	-0.13432415
213	0xbe57485f	-0.21023701
214	0xbec015b3	-0.37516555
215	0xbe218a4f	-0.15775417
216	0xbeebc590	-0.46049166
217	0xbea8c1be	-0.32960314
218	0xbeae71d3	-0.34071216
219	0xbeadd01b	-0.33947834
220	0xbe6ca957	-0.23111473
221	0xbebbee1a	-0.36705095
222	0xbea34094	-0.31885207
223	0xbe7f9183	-0.24957852
224	0xbe9fe56a	-0.31229717
225	0xbe41ee0e	-0.18938467
226	0xbe3af208	-0.1825639
227	0xbe24ba3c	-0.16086668
228	0xbe16e102	-0.14734271
229	0xbd0a0824	-0.03369917
230	0xbe529bcb	-0.20567243
231	0xbe3f9fce	-0.18713304
232	0xbdf92a17	-0.12166231
233	0xbe345f76	-0.1761454
234	0xbe6e80aa	-0.23291269
235	0xbdd95d79	-0.106135316
236	0xbd63da24	-0.055627957
237	0xbe2f4da8	-0.17119467
238	0xbd48d8ef	-0.04903501
239	0xbe2a9dd3	-0.16661768
240	0x3b8042f9	0.0039142338
241	0xbcd213ed	-0.025644267
242	0xbd7db9a2	-0.06194461
243	0xbd7d5d03	-0.06185628
244	0xbd86f301	-0.06589318
245	0x3e04b129	0.12958206
246	0xbd8b90d7	-0.068147354
247	0x3a98d098	0.0011658845
248	0xbc515d13	-0.012778538
249	0x3d9462e6	0.07245426
250	0x3e59b60e	0.21260855
251	0x3e85383e	0.26019472
252	0x3eaeee23	0.3416606
253	0x3e520302	0.2050896
254	0x3e9a58e1	0.30145934
255	0x3e34b3d5	0.17646725

conv1.bias f4 [6]
0	0xbfcab648	-1.5836878
1	0xbf96c89b	-1.177997
2	0xbebd8fbf	-0.37023732
3	0xbf3622f2	-0.7114707
4	0xbf4f3c1d	-0.809511
5	0xbfab7af1	-1.3396894

conv2.weight f4 [16, 6, 5, 5]
0	0xbe0b10da	-0.13580647
1	0xbd0ef191	-0.034898344
2	0xbe10b056	-0.14129767
3	0xbdb50c79	-0.088402696
4	0xbe333d32	-0.17503813
5	0xbc90c879	-0.017673718
6	0xbd714f01	-0.058913235
7	0xbd8bf901	-0.06834603
8	0xbe01a932	-0.12662199
9	0xbe9b430b	-0.30324587
10	0xbd4561c4	-0.04818894
11	0xbda62c13	-0.08113875
12	0xbde99805	-0.114059485
13	0xbe255e4f	-0.16149257
14	0xbdc631cd	-0.096774675
15	0xbb811ff1	-0.0039405753
16	0xbcf82a1a	-0.030293513
17	0x3c7a30e5	0.015270446
18	0x3ca34eea	0.01993509
19	0x3de3e6b1	0.11127985
20	0x3e72e458	0.23719919
21	0x3e511aa8	0.20420325
22	0x3e9294e2	0.28629214
23	0x3e845d57	0.25852463
24	0x3e443fc5	0.19164951
25	0xbe7fb17c	-0.24970049
26	0xbecbecfa	-0.39829236
27	0xbef1aa0a	-0.47200042
28	0xbeec6eff	-0.46178433
29	0xbea9623e	-0.33082765
30	0xbe992541	-0.29911235
31	0xbf037110	-0.51344395
32	0xbf066cb3	-0.5250961
33	0xbefa6c69	-0.48910835
34	0xbea87283	-0.32899866
35	0xbd8dec55	-0.069298424
36	0xbdfa4e33	-0.122219466
37	0xbdecd9d3	-0.11564984
38	0xbda1cfc8	-0.07900959
39	0xbdfeaa54	-0.12434831
40	0x3e1a559e	0.15071723
41	0x3e932452	0.28738648
42	0x3e9234a6	0.28555793
43	0x3e574e70	0.21026015
44	0x3e821580	0.25407028
45	0x3f2440f0	0.64161587
46	0x3f1ae70d	0.60508806
47	0x3ee660a3	0.44995603
48	0x3f07af41	0.5300179
49	0x3ebec97a	0.3726309
50	0xbde2bed9	-0.110715576
51	0xbd7862cf	-0.060641106
52	0xbe80e199	-0.25172117
53	0xbe4eb9e6	-0.20188102
54	0xbe13fce6	-0.14451942
55	0xbd65f73e	-0.05614399
56	0xbd70a5a8	-0.058751732
57	0xbe178720	-0.1479764
58	0xbe13f42d	-0.14448614
59	0xbdc2b1d7	-0.095065765
60	0xbe047f20	-0.1293912
61	0xbd345d1c	-0.04403411
62	0x3d49c387	0.049258735
63	0x3d2fc14e	0.04290896
64	0xbccd1c1d	-0.02503782
65	0x3dac397a	0.084094
66	0x3e2397f0	0.15975928
67	0x3e1b4f3d	0.15166946
68	0x3d0c1abe	0.03420519
69	0x3df4b09a	0.119477466
70	0x3e48af8f	0.1959822
71	0x3e86554f	0.2623696
72	0x3e6df781	0.23238946
73	0x3e1232f9	0.14277257
74	0x3de1dff6	0.11029045
75	0xbdf90522	-0.12159182
76	0xbe8617c7	-0.26190016
77	0xbe8be23e	-0.27321047
78	0xbe9833fe	-0.29727167
79	0xbe2f43dc	-0.1711573
80	0xbe0c410f	-0.13696693
81	0xbe855ec0	-0.2604885
82	0xbe744909	-0.23855986
83	0xbe95b3f5	-0.2923886
84	0xbdf71fda	-0.12066622
85	0xbcb90b4a	-0.02258839
86	0xb8294982	-4.03612e-05
87	0xbd8ccdc8	-0.06875187
88	0x3c73c8c9	0.014879414
89	0x3da9f5b1	0.08298815
90	0x3b00dbce	0.0019662264
91	0x3e0a157d	0.1348476
92	0x3e35a8c0	0.17740154
93	0x3e142d56	0.1447042
94	0x3df843ca	0.12122305
95	0x3ea8dba8	0.32980084
96	0x3e835465	0.25650325
97	0x3e90d6ad	0.28288785
98	0x3e94ba3f	0.29048344
99	0x3e48e0e8	0.19617045
100	0x3cb99f83	0.022659069
101	0xbd1ebcd1	-0.038754288
102	0xbcd58a4a	-0.026066918
103	0x3cae26d4	0.021258749
104	0xbc34b180	-0.011028647
105	0x3c141c41	0.009039939
106	0xbd9b627b	-0.07587143
107	0x3d919132	0.07107772
108	0x3c254dcc	0.010089349
109	0x3de99248	0.11404854
110	0xbdd581ef	-0.104251735
111	0xbd1f27fe	-0.0388565
112	0xba0f9e40	-0.0005478598
113	0x3c2e2656	0.010629257
114	0xbd47b3ac	-0.048755333
115	0xbdbbd56e	-0.09171568
116	0xbcd80abe	-0.02637231
117	0xbd8b7f94	-0.06811443
118	0x3d27f5e7	0.041005995
119	0x3c9463f5	0.01811407
120	0xbdb781cc	-0.08960304
121	0xbd3b3e19	-0.045713518
122	0x3d1c3880	0.03813982
123	0xbd846a92	-0.06465639
124	0xbc15dfa8	-0.009147562
125	0xbe4a4b21	-0.19755222
126	0xbe2668ed	-0.16250964
127	0xbe3f81c8	-0.18701851
128	0xbe97bb06	-0.29634875
129	0xbe8db27d	-0.27675238
130	0xbe905999	-0.28193358
131	0xbeabcdc3	-0.3355542
132	0xbe985895	-0.29755083
133	0xbe8e5628	-0.27800107
134	0xbe8e0bc7	-0.2774336
135	0xbe0bdaaa	-0.13657632
136	0xbe0c1a81	-0.13681985
137	0x3d9e5dbe	0.07732724
138	0xbca743ab	-0.020418009
139	0xbc862282	-0.016373876
140	0x3e200288	0.15625966
141	0x3dda393e	0.10655449
142	0x3e1e675e	0.15469119
143	0x3d1edb88	0.03878358
144	0x3da7fa2a	0.08202012
145	0x3e9eb70b	0.30999026
146	0x3e9b9bde	0.30392355
147	0x3e8315c3	0.2560254
148	0x3e513664	0.20430905
149	0x3e396e9d	0.18108602
150	0xbd81820f	-0.06323635
151	0xbe1791b0	-0.14801669
152	0xbdf1b039	-0.1180119
153	0xbda033ec	-0.07822403
154	0xbe2ef566	-0.170858
155	0x3db9c776	0.09071247
156	0x3d602e57	0.054731693
157	0xbdd9fbf8	-0.10643762
158	0xbddfbb57	-0.10924404
159	0xbdb63d76	-0.088984415
160	0x3caf9a1b	0.021435788
161	0x3d2a3e6c	0.041563436
162	0x3da3ef2e	0.08004604
163	0x3da0e2c5	0.07855753
164	0xbd659659	-0.056051586
165	0xbcd2ab67	-0.025716497
166	0x3cd08c5e	0.025457557
167	0x3dedd57c	0.116129845
168	0x3e12f1b5	0.14350016
169	0x3cac01f4	0.020997025
170	0x3d8eeed7	0.06979149
171	0x3c0982e7	0.008393026
172	0xbd678cae	-0.056530647
173	0x3e31a207	0.17346965
174	0x3dab8435	0.08374826
175	0x3cbf6fa6	0.023368668
176	0xbc70fc86	-0.014708644
177	0xbdb90665	-0.09034423
178	0xbd6e004c	-0.058105752
179	0x3d8839a3	0.06651618
180	0x3d404f06	0.046950363
181	0xbc9e39f0	-0.019314736
182	0xbaa870b4	-0.0012850971
183	0xbd83c7cb	-0.06434592
184	0xbc971ece	-0.018447306
185	0x3bd16a4d	0.006390846
186	0xbde9aec8	-0.1141029
187	0xbae3376b	-0.0017335241
188	0xbdca503e	-0.09878586
189	0x3cb6e6c4	0.022326834
190	0xbd74731b	-0.059680086
191	0xbc91780b	-0.017757436
192	0xbddc79db	-0.107654296
193	0x3c875d01	0.01652384
194	0x3d1c8b9d	0.038219083
195	0xbcce39b3	-0.025173998
196	0x3da1ea5c	0.07906029
197	0xbd70f027	-0.058822777
198	0xbb03b920	-0.0020099357
199	0x3cd50fa7	0.02600844
200	0xbd76a354	-0.060214356
201	0x3c3d3aa7	0.011549628
202	0x3d0bdf06	0.03414824
203	0x3ca76a6d	0.02043649
204	0xbca6c9c2	-0.020359877
205	0x3c1f85e2	0.00973651
206	0xbd6dafd1	-0.058029
207	0x3db9ef50	0.09078848
208	0x3d65ef59	0.056136463
209	0x3c0b10f8	0.008487932
210	0xbe1e5d1a	-0.15465203
211	0xbceecd10	-0.029150516
212	0x3c4c4b8b	0.012469183
213	0xbda75258	-0.08170003
214	0xbdb68325	-0.089117326
215	0xbca26b42	-0.019826535
216	0x3c43d0c9	0.011951634
217	0xbcf769b2	-0.030201767
218	0xbd77f454	-0.060535744
219	0x3d70befc	0.058775887
220	0xbccf0d1f	-0.025274811
221	0xbdbab62b	-0.09116777
222	0xbc8a1d84	-0.016859777
223	0x3d8d7ac5	0.06908182
224	0xbdb0dee2	-0.086362615
225	0xbdc1f13b	-0.09469839
226	0xbb8f1b2a	-0.004367252
227	0x3d299cc2	0.04140926
228	0xbdc603b1	-0.09668673
229	0xbdb1bb68	-0.08678323
230	0xbd2cd6a5	-0.04219689
231	0xbdee336a	-0.116309
232	0xbd63adf9	-0.055585835
233	0xbcd5ae80	-0.026084185
234	0xbd92a619	-0.07160587
235	0xbcd2b1b6	-0.025719505
236	0x3bc2ebfb	0.005948541
237	0xbd83d7ec	-0.06437668
238	0xbb94b09f	-0.0045376564
239	0x3c8a43dd	0.016878063
240	0xbd7d95f1	-0.061910573
241	0x3cc5208c	0.024063371
242	0xbc8ba5e7	-0.017046882
243	0x3ced1efa	0.028945435
244	0xbdaceff6	-0.084442064
245	0xbd9ec286	-0.07751946
246	0xbdb14f68	-0.08657724
247	0xbdb91ce9	-0.09038717
248	0x3d56449a	0.052311517
249	0x3da02f75	0.07821552
250	0x3cde05e7	0.027102424
251	0xbc2e1f57	-0.010627589
252	0xbd9efc95	-0.0776302
253	0xbd440caf	-0.04786366
254	0xbdc6c919	-0.09706325
255	0xbd8f924e	-0.07010327

conv2.bias f4 [16]
0	0xbe0ac30a	-0.13550964
1	0xbe388b7d	-0.1802196
2	0x3d0cceaa	0.034376778
3	0xbea0b2c0	-0.31386375
4	0xbef8c429	-0.48587158
5	0xbd69cd0d	-0.057080317
6	0xbf7e26f0	-0.99278164
7	0x3be6d677	0.007044609
8	0x3d4d9ff9	0.05020139
9	0x3f022240	0.5083351
10	0xbf0207da	-0.5079323
11	0x3dbc80fe	0.09204291
12	0xbd6b1302	-0.057391174
13	0x3e9021af	0.281507
14	0xbe7b48ea	-0.24539533
15	0xbe1c2959	-0.15250148

fc1.weight f4 [120, 400]
0	0x3dcb5f85	0.09930328
1	0x3da3ee85	0.08004478
2	0xbd09f51a	-0.033681013
3	0xbd2ca957	-0.042153683
4	0x3be3a5cc	0.0069472548
5	0x3d0319ca	0.032007016
6	0x3d24ed78	0.04026553
7	0x3ce65bbb	0.028119912
8	0xbc01331b	-0.00788572
9	0xbcc9b64c	-0.024623059
10	0x3d29cb4c	0.041453645
11	0xbcbf188b	-0.023327133
12	0x3d8ee522	0.06977297
13	0x3b90e375	0.0044216462
14	0x3d703349	0.05864266
15	0x3dfb3048	0.12265068
16	0x3da3ade7	0.079921536
17	0x3dadb239	0.08481259
18	0x3e0105bc	0.12599844
19	0x3e3ea466	0.186174
20	0x3e0e272d	0.13882132
21	0xbcfd8615	-0.030947724
22	0xbd0a6f44	-0.033797517
23	0x3dec54b5	0.11539594
24	0x3e2bf730	0.16793513
25	0xbd8087a3	-0.06275871
26	0xbce83215	-0.028344193
27	0xbbfd0ada	-0.007722241
28	0x3c9db899	0.019253062
29	0xbc28fd05	-0.010314231
30	0x3d519ceb	0.05117504
31	0xbcd1e6d8	-0.02562277
32	0x3d80fea2	0.06298567
33	0x3cfcf55a	0.030878711
34	0x3cf207d0	0.02954474
35	0x3be28355	0.0069126287
36	0x3d309a83	0.043116104
37	0x3cae3d8d	0.021269584
38	0x3da497d5	0.08036772
39	0x3bd09870	0.006365828
40	0x3d5cffeb	0.053955
41	0x3cbbb524	0.022913523
42	0x3d250278	0.040285558
43	0x3d9485fe	0.072521195
44	0x3bb53dea	0.0055310624
45	0x3d1b94d5	0.037983734
46	0x3cc1da1d	0.023663575
47	0x3cf71d55	0.030165354
48	0x3c2d8bf7	0.010592452
49	0x3b6615cf	0.0035108214
50	0xbd72eafd	-0.059306134
51	0xbc83dd14	-0.01609663
52	0xbcb839fa	-0.022488583
53	0xbc9ca4c4	-0.019121535
54	0x3be16bc1	0.0068793003
55	0xbd92c211	-0.071659215
56	0xbd616ddf	-0.055036422
57	0x3cee7db2	0.02911267
58	0x3d50d30e	0.050982527
59	0xbbd5936a	-0.0065178173
60	0xbd9e8e0c	-0.07741937
61	0x3d312a74	0.043253377
62	0x3c9f3e50	0.019438893
63	0x3ccdb9ab	0.025112947
64	0xbd1fc48e	-0.03900581
65	0xbcc91930	-0.024548143
66	0xbcf201e1	-0.029541912
67	0x3d4471b8	0.047960013
68	0x3c81b010	0.015831023
69	0xbafa211c	-0.0019083354
70	0x3d489e2b	0.048978966
71	0x3b94ea66	0.004544544
72	0x3c82c553	0.015963232
73	0x3b565bba	0.0032708482
74	0x3cfb5dc5	0.030684361
75	0x3e087e15	0.13329346
76	0x3e1cf1c9	0.15326609
77	0x3cde21a0	0.027115643
78	0x3da107bd	0.07862804
79	0x3d314238	0.04327604
80	0x3e171d93	0.14757375
81	0xbb735e31	-0.0037135
82	0x3d2c0c3a	0.042003848
83	0x3d95071b	0.07276746
84	0x3d6ce4a6	0.057835244
85	0xbd21bf3d	-0.03948902
86	0xbd29df60	-0.041472793
87	0xbe06cd23	-0.13164191
88	0xbdbab96f	-0.091174
89	0xbde4d028	-0.11172515
90	0xbe12e336	-0.14344487
91	0xbe0a6186	-0.13513765
92	0xbddc1697	-0.10746496
93	0xbdf06461	-0.11737896
94	0xbe0d7ebf	-0.13817881
95	0xbd93de1c	-0.072200984
96	0xbd710ad3	-0.058848213
97	0xb9f84fc5	-0.0004736168
98	0xbd5478ce	-0.05187302
99	0xbd56754f	-0.052357968
100	0xbce92a74	-0.028462626
101	0x3cfe27c7	0.031024827
102	0x3da2ed81	0.079554565
103	0xbda0bbf7	-0.078483514
104	0xbddfe3da	-0.10932131
105	0xbb52d83a	-0.0032172338
106	0x3ded3e95	0.11584202
107	0x3e2d8a05	0.16947182
108	0x3e4133eb	0.18867461
109	0x3e0ba935	0.13638766
110	0x3d2aeaa0	0.041727662
111	0x3e1fb972	0.15598086
112	0x3e295032	0.16534498
113	0x3daf48cc	0.08558807
114	0x3de8d399	0.11368484
115	0xbd645756	-0.055747353
116	0x3d0d74a9	0.034535084
117	0x3dbf910e	0.09353839
118	0x3bf32fa8	0.0074214526
119	0xb9501b28	-0.00019846542
120	0xbcef69c1	-0.029225232
121	0xbda99f40	-0.08282328
122	0xbc981366	-0.018563937
123	0xbdc66bea	-0.09688552
124	0xbdde22e7	-0.10846501
125	0xbd86e2f8	-0.065862596
126	0x3be5e669	0.0070159924
127	0x3d113f21	0.035460595
128	0x3d7eb45a	0.062183715
129	0x3cd586b3	0.026065206
130	0xbd148191	-0.036256377
131	0xb8fc1c0c	-0.000120215205
132	0x3d005b05	0.031336803
133	0x3ccd797c	0.025082342
134	0x3c5cec37	0.013484052
135	0x3c285702	0.0102746505
136	0x3d69ce1f	0.057081338
137	0x3d17244f	0.03689986
138	0x3c3acf02	0.011401894
139	0xbc6939bf	-0.014234959
140	0x3d36b1de	0.04460322
141	0xbc383781	-0.011243702
142	0x3d87b30b	0.066259466
143	0x3a188129	0.0005817586
144	0x3c6295ef	0.013829692
145	0x3cc7bb4b	0.0243813
146	0x3d18abbc	0.037273154
147	0x3b25f21a	0.0025321306
148	0xbcbd22d6	-0.0230879
149	0x3c5b326c	0.013378721
150	0x3d14b597	0.03630599
151	0xbacd1211	-0.0015645643
152	0x3bddae91	0.0067651947
153	0x3c7bd1e3	0.015369865
154	0xbc466263	-0.012108418
155	0xbd74dadc	-0.059779033
156	0xbd180f66	-0.03712406
157	0x3962ced6	0.00021630092
158	0x3c5d9019	0.013523125
159	0x3d04425d	0.03228985
160	0xbc5178c8	-0.012785144
161	0x3d825a60	0.06364894
162	0x3cadad8c	0.021200918
163	0x3d352270	0.044222295
164	0x3d5bcdba	0.053662993
165	0x3d7f4105	0.062317867
166	0x3daaec9b	0.0834591
167	0xbbd8d229	-0.00661685
168	0x3cf605fe	0.030032154
169	0xbd25649f	-0.040379163
170	0xbd923cd1	-0.07140506
171	0xbc2aa9b7	-0.01041644
172	0xbd61954d	-0.055074025
173	0xbd952646	-0.07282691
174	0x3d1e8f8c	0.038711116
175	0xbba46c28	-0.005017776
176	0x3c54caa7	0.012987769
177	0x3ce52fd8	0.027976915
178	0x3d54ae10	0.05192381
179	0x3d880d1b	0.06643125
180	0x3c619852	0.013769226
181	0x3ce68409	0.028139131
182	0xbcefc68f	-0.029269485
183	0x3d461bc0	0.04836631
184	0xbca0f6d0	-0.01964894
185	0xb9aa2e06	-0.00032459217
186	0xbc2d5be6	-0.010580992
187	0xbc95dfe7	-0.018295242
188	0xbcb69632	-0.022288416
189	0xbbfaa231	-0.0076487293
190	0xbd3ffc89	-0.046871696
191	0x3c728dbd	0.014804301
192	0xbd3651e8	-0.044511706
193	0xbc98d458	-0.01865594
194	0x3ce05d2c	0.027388178
195	0xba73945b	-0.0009291821
196	0xbca646a6	-0.02029736
197	0x3d648fda	0.05580125
198	0x3cf72095	0.030166904
199	0x3d2ab3ba	0.041675307
200	0xbd90f876	-0.0707864
201	0x3d187eab	0.037230175
202	0xbd22ea65	-0.039774317
203	0x3da9f7f2	0.08299245
204	0xbd33f3ef	-0.043933805
205	0x3b388f0f	0.0028161441
206	0x3d81e1cb	0.06341895
207	0x3db9fcdd	0.09081433
208	0x3dca9c79	0.09893126
209	0x3d34d9e3	0.044153105
210	0xbd157ebd	-0.03649782
211	0x3d947b5e	0.07250093
212	0x3da27433	0.079323195
213	0x3db386bc	0.08765933
214	0x38f069bb	0.000114637856
215	0xbcae6ea2	-0.021292988
216	0x3d2f14e3	0.04274453
217	0x3d8a6957	0.06758373
218	0xbccc412e	-0.024933424
219	0xbd117108	-0.035508186
220	0xbd839ddc	-0.06426594
221	0xbd8b92ef	-0.06815135
222	0xbdb6483e	-0.08900498
223	0xbda5a098	-0.080872715
224	0xbd8440ea	-0.06457694
225	0x3e1d77e4	0.15377766
226	0x3dc41c67	0.0957573
227	0x3d0547f6	0.03253933
228	0x3d492796	0.049110018
229	0x3d8a6663	0.0675781
230	0x3d5b6002	0.053558357
231	0xbdcd6ecc	-0.100308985
232	0xbdf8addd	-0.12142537
233	0xbdfd98a0	-0.123826265
234	0xbda0c670	-0.07850349
235	0xbe010edc	-0.12603325
236	0xbe616aca	-0.22013393
237	0xbe030b12	-0.12797192
238	0xbe2bb95b	-0.16769926
239	0xbe17a0a4	-0.14807373
240	0xbe17343d	-0.14766021
241	0xbde50de9	-0.11184294
242	0xbcf30323	-0.029664582
243	0xbd439351	-0.047747914
244	0x3c806c78	0.015676722
245	0xbd5e9d75	-0.05434938
246	0xbcca14c9	-0.024668114
247	0xbd18be17	-0.03729066
248	0x3d5c0438	0.05371496
249	0x3d9c153e	0.07621239
250	0x3d96a266	0.07355194
251	0x3dc51626	0.09623365
252	0xbbc0e154	-0.005886236
253	0x3d802e08	0.0625878
254	0xbc298fda	-0.010349238
255	0x3d8a363a	0.06748624

fc1.bias f4 [120]
0	0xbc0c4810	-0.008562103
1	0xbc186c19	-0.009303116
2	0xbcbc0746	-0.022952687
3	0xbd856385	-0.065131225
4	0xbc9bf094	-0.019035615
5	0xbca24dc7	-0.019812478
6	0x3a7b93f5	0.00095969375
7	0xbdd744e9	-0.105111904
8	0x3c944ef2	0.01810405
9	0xbce04f01	-0.027381422
10	0xbdaa21f3	-0.083072565
11	0x3d313180	0.043260098
12	0xbc3c3365	-0.011486863
13	0x3dc0f0e1	0.09420944
14	0x3cbf469f	0.023349104
15	0xb9f82061	-0.0004732637
16	0x3c47334f	0.012158229
17	0xbbe87faf	-0.007095299
18	0xbd6ca1fd	-0.05777167
19	0x3d1f82f7	0.038943257
20	0xbd6ceca8	-0.05784288
21	0xbc24dd18	-0.0100624785
22	0xbd1ccafd	-0.038279522
23	0xbdf8f899	-0.12156791
24	0xbc9c1c18	-0.019056365
25	0x3d834b55	0.06410853
26	0xbce0e9f0	-0.0274553
27	0x3d319ac1	0.043360475
28	0xbd7e0482	-0.062016018
29	0x3db167e3	0.08662393
30	0xbd8bd914	-0.06828514
31	0xbd0290e0	-0.031876445
32	0x3c29ceb4	0.010364223
33	0xbd2e2cd7	-0.04252323
34	0x3c26e7de	0.010187117
35	0xbd80704c	-0.06271419
36	0xbd18f1c4	-0.03733994
37	0xbd732d4d	-0.059369374
38	0x3c957c73	0.018247819
39	0xbc9e47a6	-0.019321274
40	0x3e1951d6	0.14972624
41	0xbd6c666a	-0.057714857
42	0xbdd10a16	-0.10207002
43	0x3da94e49	0.08266885
44	0x3c308e56	0.010776123
45	0xbd45df58	-0.0483087
46	0xbd529727	-0.05141368
47	0xbcffe14f	-0.031235365
48	0x3df569ed	0.11983094
49	0xbbfc1450	-0.007692851
50	0x3ca059c3	0.019574052
51	0xbbd35c33	-0.0064502
52	0x3cac1397	0.021005435
53	0xbc1884b5	-0.009308984
54	0x3e3d7d7e	0.18504903
55	0x3cde9d1a	0.027174521
56	0xbd9eca4b	-0.07753428
57	0xbd408327	-0.047000077
58	0x3da0995f	0.07841753
59	0x3d19e510	0.037571967
60	0x3d040d3a	0.032239176
61	0x398ed881	0.0002724566
62	0xbc8b7af9	-0.017026411
63	0x3cded972	0.027203295
64	0xbcea530d	-0.028604055
65	0x3d6b6ce7	0.057476904
66	0xbc301dc0	-0.01074928
67	0xbd7b9c6c	-0.061428472
68	0x3d3d99db	0.046289306
69	0x3dd623b1	0.10456026
70	0x3b93bc50	0.0045085326
71	0xbd03e176	-0.03219744
72	0xbbdb1709	-0.0066860956
73	0xbc956174	-0.018234946
74	0x3d405d8f	0.046964224
75	0x3dc8e37c	0.09809014
76	0x3b824a83	0.0039761676
77	0x3cd4ed95	0.025992194
78	0xbd5dbbc9	-0.054134164
79	0x3d539da3	0.051664006
80	0x3dcfcc93	0.10146441
81	0x3cc54587	0.024081005
82	0x3c3b5495	0.01143374
83	0xbd713f97	-0.058898535
84	0x3da5c4a9	0.080941506
85	0x3db13832	0.086532965
86	0x3d1bc726	0.03803172
87	0xbc3d4604	-0.011552338
88	0x3cec1975	0.028820733
89	0x3bbdeca6	0.005796033
90	0xbd299d32	-0.04140968
91	0xbd702d84	-0.058637157
92	0x3dcd2964	0.1001766
93	0xbd18c76a	-0.03729955
94	0x3c662104	0.0140459575
95	0xbcf6e986	-0.03014065
96	0x3ddd16ae	0.107953414
97	0x3ca29045	0.019844184
98	0xb89378ea	-7.032028e-05
99	0xbde0435b	-0.10950347
100	0xbd03b56a	-0.03215543
101	0xbd684160	-0.05670297
102	0x3a36e555	0.0006976922
103	0x3e3f3f49	0.18676485
104	0xbc1d47a8	-0.009599604
105	0xbcce4ea4	-0.025183983
106	0xbd982248	-0.07428414
107	0xbd732032	-0.059356876
108	0x3c81e3c1	0.015855672
109	0x3d400c0b	0.046886485
110	0xbdaf9d77	-0.08574956
111	0xb9379879	-0.0001750904
112	0x3d177bfe	0.036983483
113	0xbb98298d	-0.004643625
114	0x3c47853a	0.01217776
115	0xbd6758ca	-0.05648116
116	0xbdce0c0d	-0.10060892
117	0xbd8a7109	-0.06759841
118	0x3e119741	0.14217855
119	0x3c45e2f6	0.0120780375

fc2.weight f4 [84, 120]
0	0xbc944c89	-0.018102901
1	0xbce3da8b	-0.02781417
2	0xbdc79d97	-0.09746855
3	0xbde97160	-0.11398578
4	0xbe112b4c	-0.14176673
5	0x3c85bef8	0.016326413
6	0xbdf70519	-0.12061519
7	0x3d5489b6	0.051889144
8	0x3cb1d849	0.021709578
9	0x3d856b62	0.06514622
10	0xbda24264	-0.07922819
11	0x3da56ca1	0.0807736
12	0x3dd524ea	0.104074314
13	0xbdc5246d	-0.09626088
14	0xbc909e09	-0.017653482
15	0x3cb63e47	0.022246493
16	0x3cd5043d	0.026002998
17	0x3d530d69	0.05152646
18	0x3c83a383	0.01606918
19	0x3e04083e	0.12893769
20	0x3d308173	0.043092202
21	0x3bec22a3	0.0072062775
22	0xbd270291	-0.040773932
23	0xbe0c265c	-0.13686508
24	0x3d05e594	0.032689646
25	0xbd79ad48	-0.06095627
26	0xbd69d713	-0.057089876
27	0xbd9eb3ee	-0.077491626
28	0xbce83ba4	-0.028348751
29	0x3d868b09	0.065694876
30	0xbd3217c2	-0.04347969
31	0xbcaf6d35	-0.021414379
32	0x3d61e3b5	0.0551488
33	0xbb9815e5	-0.004641282
34	0xbd2234de	-0.0396012
35	0xbc0d7b78	-0.008635394
36	0xbd553c78	-0.05205962
37	0xbca30822	-0.019901339
38	0xbdc04d96	-0.09389798
39	0xbc0a7d62	-0.008452745
40	0x3d9b8a81	0.07594777
41	0xbd950589	-0.07276446
42	0xbd6d5aac	-0.0579478
43	0xbd0e8e17	-0.034803476
44	0x3d047ae9	0.03234378
45	0x3d132a05	0.035928745
46	0xbd99c34c	-0.07507953
47	0xbd082eda	-0.033247806
48	0x3d54209b	0.051788907
49	0x3d9ec8b4	0.07753125
50	0x3ced1dda	0.028944898
51	0x3c187b34	0.009306718
52	0x3dc4eb1e	0.096151575
53	0xbdb0b9c2	-0.086291805
54	0x3e1ed87e	0.15512273
55	0xbd2db90d	-0.042412806
56	0xbe26ce02	-0.16289523
57	0xbc823e96	-0.015898984
58	0xbd043674	-0.032278493
59	0x3cae90a2	0.0213092
60	0x3ca31001	0.019905092
61	0xbdb9d345	-0.090734996
62	0xbcf8c207	-0.030365957
63	0xbc93f9ca	-0.018063445
64	0xbdaccca5	-0.0843747
65	0xbd541d9e	-0.051786058
66	0x3cede0d3	0.029037869
67	0xbdc92998	-0.098223865
68	0xbd7e5b93	-0.06209905
69	0x3bbc1cbe	0.005740731
70	0x3bbbd2c2	0.0057319114
71	0x3c50d48c	0.012745988
72	0xbddb5b8a	-0.10710819
73	0xbc1f224d	-0.009712768
74	0xbb520f80	-0.0032052696
75	0x3d8e29a1	0.06941534
76	0xbceb7eab	-0.028746923
77	0xbcbcc171	-0.023041459
78	0xbd7aa58b	-0.06119303
79	0x3c6e5b21	0.014548094
80	0x3d8e065e	0.06934808
81	0x3d0b3052	0.03398163
82	0x3cf654a6	0.03006966
83	0x3dc54d20	0.09633851
84	0x3d1b1265	0.03785934
85	0x3e0a2766	0.13491592
86	0xbc4ea3af	-0.012612267
87	0xbb25ff30	-0.0025329106
88	0xbb8717b0	-0.004122697
89	0xbdf58160	-0.11987567
90	0x3c31ad16	0.01084449
91	0x3c89eae8	0.016835645
92	0xbd1de236	-0.03854581
93	0x3c451f14	0.012031335
94	0x3be80882	0.0070810923
95	0x3cf1fa91	0.029538425
96	0x3d40c6df	0.04706466
97	0xbd68d6c8	-0.056845456
98	0xbd0d9906	-0.034569763
99	0xbd16abff	-0.036785122
100	0xbb09f380	-0.0021049678
101	0xbcd634df	-0.026148258
102	0xbcade62b	-0.021227917
103	0x3e195392	0.14973286
104	0xbd01e287	-0.031710174
105	0x3cd25e5c	0.02567976
106	0x3db073b8	0.086158216
107	0x3de913c3	0.113807224
108	0xbdcd04bc	-0.10010669
109	0x3ac7a2b0	0.001523098
110	0x3d1a8e51	0.03773338
111	0xbbf2c218	-0.0074083917
112	0x3d1c3df6	0.038145028
113	0x3c6a3e2b	0.014297049
114	0x3dc6560c	0.09684381
115	0xbe124b5f	-0.14286564
116	0x3c4aad31	0.012370394
117	0x3beba513	0.0071913092
118	0x3dc4c170	0.09607208
119	0xbd7bd76a	-0.06148473
120	0x3d44de8e	0.048063807
121	0xbdac27f2	-0.084060565
122	0x3d688211	0.056764666
123	0x3d0eea23	0.03489126
124	0x3bdc8085	0.006729188
125	0x3dc68126	0.09692602
126	0xbd888360	-0.06665683
127	0x3dcdb4df	0.10044264
128	0x3e37e78e	0.17959425
129	0x3cd56a4b	0.026051661
130	0xbdd1cdb2	-0.102443114
131	0xbdabdc8a	-0.08391674
132	0xbd175248	-0.036943704
133	0x3d26fb97	0.04076728
134	0x3cca2c1a	0.024679232
135	0xbd59c45b	-0.053165775
136	0x3c700e5a	0.014651859
137	0x3b05d306	0.002041997
138	0xbcaed7cb	-0.021343132
139	0xbbb399ed	-0.005480996
140	0xbdb7efbe	-0.08981274
141	0xbd9207ea	-0.07130416
142	0x3ba19eb9	0.0049322513
143	0x3d83c220	0.06433511
144	0x3e19a5e7	0.15004693
145	0x3d296253	0.041353535
146	0x3d25acf8	0.04044816
147	0xbd11db2b	-0.035609405
148	0xbb4b65b1	-0.0031035955
149	0x3c921b38	0.017835245
150	0x3d6d5571	0.05794281
151	0x3d99b1f6	0.075046465
152	0xbc8051dd	-0.015664035
153	0x3dd16fd1	0.102264054
154	0xbbe8624e	-0.007091797
155	0x3b869a3b	0.004107741
156	0xbb030fb6	-0.0019998378
157	0xbdfc893f	-0.12330865
158	0x3ab102fc	0.0013504918
159	0xbca2af4e	-0.019858982
160	0xbd9410f3	-0.07229795
161	0xbd276d2b	-0.040875595
162	0xbd962711	-0.0733167
163	0x3d34ea29	0.044168625
164	0x3d8d0115	0.06884972
165	0xbe033597	-0.12813412
166	0x3d0a8f1c	0.033827886
167	0x3c8d92b0	0.01728186
168	0xbd858bb4	-0.06520787
169	0x3da4fae0	0.08055663
170	0x3da31da8	0.07964641
171	0x3d2e3b2d	0.042536903
172	0x3d5954a2	0.053059228
173	0x3d592746	0.05301597
174	0x3c2ffc46	0.010741299
175	0x3c2dea6d	0.0106149735
176	0xbd02e4c5	-0.031956453
177	0xbcfbf8d5	-0.0307583
178	0xbcee50f0	-0.029091328
179	0x3d0683aa	0.03284041
180	0x3d34d377	0.04414698
181	0xbdbfb7e1	-0.09361244
182	0x3d5cbf29	0.053893242
183	0xbd0fcc15	-0.035106737
184	0x3dce8fc5	0.100860156
185	0x3ca5e831	0.020252319
186	0x3c9ac4ec	0.018892728
187	0xbc504afc	-0.01271319
188	0xbe0133a8	-0.12617362
189	0x3c0d96b8	0.008641891
190	0xbdc5a0d4	-0.09649816
191	0xbd06da6c	-0.032923147
192	0xbd7e15d0	-0.06203252
193	0x3d2edf9d	0.042693723
194	0xbe1b2cbe	-0.15153787
195	0xbd6abcf7	-0.057309117
196	0x3d80f3c4	0.062964946
197	0xbcecd5a6	-0.02891047
198	0xbd9e76f5	-0.07737533
199	0xbcc23d3d	-0.023710841
200	0x3ce42c77	0.027853234
201	0x3c861521	0.016367497
202	0xbd017dc0	-0.031614065
203	0x3e163359	0.14668025
204	0xbcc21187	-0.023689998
205	0xbdb9ed76	-0.09078495
206	0x3cf19bdd	0.029493267
207	0x3d9dc1cb	0.07702979
208	0xbd210d2d	-0.039319206
209	0xbdf1952c	-0.117960304
210	0xbb3df2c7	-0.0028983818
211	0x3d0bd50e	0.03413873
212	0x3b3acdcb	0.002850401
213	0xbd2636ec	-0.04057972
214	0x3d3556b4	0.04427214
215	0x3d47d4af	0.048786815
216	0xbdba85fc	-0.09107587
217	0xbd4d66dd	-0.050146926
218	0x3bc19f2e	0.0059088683
219	0xbccfe3be	-0.02537715
220	0x3e01ae3c	0.12664121
221	0x3d8d82e9	0.06909735
222	0x3d04f4f4	0.032460168
223	0xbd4849ad	-0.048898388
224	0xbd86cc86	-0.065819785
225	0x3dc00fed	0.093780376
226	0xbd57f2b7	-0.052721705
227	0xbdc21f4c	-0.09478626
228	0x3cbeb50d	0.023279691
229	0x3c117c63	0.008879754
230	0xbb8ab724	-0.004233258
231	0x3cecfc52	0.02892891
232	0x3c7fba48	0.015608378
233	0xbdd89e77	-0.105771
234	0xbdec97ef	-0.115524165
235	0x3d8b2c38	0.067955434
236	0x3dd5ea8c	0.10445127
237	0x3db8b5dc	0.09019062
238	0xbdb3b7ad	-0.08775268
239	0x3daa7b3b	0.083242856
240	0xbd61d8c6	-0.055138372
241	0xbd3f1ee5	-0.046660323
242	0xbdcf3a56	-0.101185486
243	0xbdee125f	-0.11624598
244	0xbdfec1ac	-0.12439284
245	0x3cf5b526	0.029993605
246	0xbe0b8b42	-0.13627341
247	0x3daa6519	0.08320064
248	0xbdb8deea	-0.090268925
249	0xbc962684	-0.018328913
250	0x3c8fe392	0.017564569
251	0xbdb43f6a	-0.08801158
252	0xbe08ffab	-0.1337878
253	0x3c8f1f89	0.017471092
254	0x3cda48a5	0.026645968
255	0xbd7186f2	-0.058966585

fc2.bias f4 [84]
0	0x3d120f4c	0.03565912
1	0xbc02ef64	-0.0079916455
2	0x3dc39898	0.09550589
3	0xbcfd4677	-0.03091739
4	0x3d7d752e	0.06187933
5	0x3e0729ef	0.1319959
6	0xbe20a448	-0.15687668
7	0xbd3ad4ff	-0.045613285
8	0xbd2fd234	-0.042925075
9	0x3cb04284	0.021516092
10	0xbe498b18	-0.19681966
11	0xbc6d30b2	-0.014476942
12	0xbda1ce94	-0.0790073
13	0xbe041b93	-0.12901144
14	0xbde61457	-0.11234348
15	0x3ea42970	0.32062864
16	0x3d44ec1f	0.048076745
17	0x3d3c4046	0.045959733
18	0x3e2bba54	0.16770297
19	0xbbe9bf0f	-0.0071333717
20	0xbc21930d	-0.00986172
21	0xbe2f0639	-0.17092218
22	0xbdc6f4ff	-0.09714698
23	0xbbc2a896	-0.005940507
24	0xba8a442f	-0.0010548885
25	0xbd97dd9f	-0.07415318
26	0x3e545903	0.2073708
27	0x3db3b311	0.087743886
28	0xbc9eaaab	-0.01936849
29	0x3c68a49d	0.014199403
30	0xbe345cd3	-0.17613535
31	0x3c3bfc99	0.011473798
32	0xbd6bc490	-0.057560503
33	0x3e3e2b36	0.18571171
34	0xbd527cc7	-0.05138853
35	0xbd6d1494	-0.057880953
36	0x3d4c4d6f	0.049878534
37	0x3cc901ad	0.024536932
38	0x3d193e03	0.037412655
39	0xbdf93f4a	-0.121702746
40	0x3e010f24	0.12603432
41	0x3e80bb08	0.25142694
42	0xbd23b2a3	-0.039965283
43	0x3d452930	0.048134983
44	0xbdab3aec	-0.08360848
45	0xbd296312	-0.041354246
46	0xbdb9e36e	-0.09076582
47	0xbd35720d	-0.04429822
48	0xbc84ee36	-0.01622687
49	0xbba01789	-0.004885618
50	0x3e773c9d	0.24144216
51	0x3e21eed4	0.15813762
52	0x3c8a1f1d	0.01686054
53	0xbdc0f4bb	-0.09421679
54	0xbcf3f976	-0.029782038
55	0x3d3c3dae	0.04595726
56	0x3d572829	0.052528534
57	0xbc6e16c2	-0.014531793
58	0x3cf36898	0.02971296
59	0x3d9b9d06	0.07598309
60	0xbd89606f	-0.067078464
61	0xbc2432f6	-0.010021916
62	0xbd51cee8	-0.05122271
63	0xbe0aadcb	-0.1354286
64	0x3ca62998	0.020283505
65	0x3d8876d4	0.0666329
66	0x3e038e1d	0.1284718
67	0x3d13dd01	0.036099438
68	0xbd5da6e0	-0.054114223
69	0x3d986508	0.07441145
70	0x3d189d33	0.03725929
71	0xbcb82294	-0.022477426
72	0x3d93985f	0.07206797
73	0x3cc56fda	0.024101187
74	0x3ce553f7	0.02799414
75	0x3d9c490e	0.076311216
76	0x3e83d0af	0.2574515
77	0xbd08e5b7	-0.0334222
78	0x3daf1107	0.085481696
79	0x3c15bfcb	0.009139965
80	0xbe096b8b	-0.1341993
81	0x3b9da326	0.0048107086
82	0xbdfaaf1e	-0.12240432
83	0xbcde4993	-0.027134692

fc3.weight f4 [10, 84]
0	0xbde66122	-0.11248995
1	0xbccc1efe	-0.024917122
2	0xbd3d238f	-0.04617649
3	0x3c90458c	0.017611288
4	0xbe8b4dcb	-0.2720779
5	0xbe4d0973	-0.20023136
6	0xbd8e8917	-0.069597416
7	0x3e916f77	0.28405353
8	0xbc28f062	-0.010311218
9	0x3c409367	0.011753893
10	0x3e92865b	0.2861813
11	0x3d2fa435	0.04288121
12	0xbd4e780d	-0.050407458
13	0xbd8fabb0	-0.07015169
14	0xbdb6317a	-0.08896156
15	0xbe68d3de	-0.22737071
16	0x3e0bb589	0.13643469
17	0xbd177c50	-0.036983788
18	0x3eb9601f	0.36206147
19	0x3e12f39c	0.14350742
20	0xbe4f271f	-0.20229767
21	0x3e4d01a8	0.20020163
22	0x3ce262fb	0.027635088
23	0xbde1550e	-0.11002551
24	0xbdfc0df7	-0.12307351
25	0xbd13a6e1	-0.03604782
26	0xbe677162	-0.22601846
27	0x3d9bc5f6	0.076061174
28	0x3df512d3	0.11966481
29	0xbcaa8297	-0.020814223
30	0x3e911dc1	0.28343013
31	0x3e3f69f9	0.18692769
32	0xbe50614d	-0.20349617
33	0xbe7a089f	-0.24417351
34	0x3e226f93	0.15862875
35	0xbc9fd5e2	-0.019511167
36	0xbe97546a	-0.2955659
37	0x3e0a43ea	0.1350247
38	0x3d041fa0	0.032256722
39	0x3e52ee14	0.20598632
40	0x3e71ce87	0.2361394
41	0xbe87f2f2	-0.2655254
42	0xbe58ddd4	-0.2117837
43	0xbe384168	-0.179937
44	0xbdabff76	-0.08398335
45	0x3b639812	0.0034728092
46	0xbc05ae00	-0.008159161
47	0x3ee8a292	0.4543653
48	0x3e12ff04	0.14355093
49	0xbe10cbf9	-0.1414031
50	0xbdf8a989	-0.12141711
51	0xbd0c7c92	-0.034298487
52	0xbd7ee9d0	-0.0622347
53	0x3eafa434	0.34304965
54	0xbe306a67	-0.1722809
55	0xbe302181	-0.1720028
56	0xbe50f429	-0.2040564
57	0xbe7a3040	-0.24432468
58	0x3c59f0c3	0.013302031
59	0xbd80a157	-0.06280773
60	0x3db7d8a2	0.08976866
61	0xbe203730	-0.15646052
62	0xbdc0835a	-0.09400053
63	0xbc887bc9	-0.016660588
64	0xbe1cdea4	-0.15319306
65	0x3e406850	0.18789792
66	0xbd0a025b	-0.033693653
67	0xbdf841fb	-0.1212196
68	0xbd755bb4	-0.059901908
69	0xbdeff785	-0.117171325
70	0x3dbcf15f	0.092257254
71	0xbe1f5a72	-0.15561846
72	0x3e120151	0.14258315
73	0x3dc84455	0.09778658
74	0x3baae8e9	0.0052157533
75	0x3e6222a8	0.22083533
76	0xbeca290d	-0.39484444
77	0x3ca60821	0.020267548
78	0xbe3984c4	-0.18117052
79	0xbec229b6	-0.37922448
80	0x3ec3679b	0.38164982
81	0x3eb556a9	0.3541768
82	0x3e877133	0.26453552
83	0x3e7722bc	0.24134344
84	0x3c3afd23	0.011412892
85	0xbde23f20	-0.110471964
86	0x3d3580a1	0.044312123
87	0xbe882b14	-0.26595366
88	0x3e77c24a	0.24195209
89	0x3e204cc6	0.15654287
90	0x3cbef743	0.023311263
91	0x3e0d4d8e	0.13799116
92	0x3caec3e9	0.021333652
93	0x3e339000	0.175354
94	0xbe288db2	-0.16460302
95	0xbe6efd4d	-0.23338814
96	0xbcfef255	-0.031121412
97	0xbdcb121e	-0.09915565
98	0x3eeb6ba0	0.4598055
99	0xbe824a7f	-0.2544746
100	0xbeb40a48	-0.35164094
101	0xbdb97e60	-0.09057307
102	0xbecdd4d3	-0.40201434
103	0xbe404883	-0.18777661
104	0x3eac7342	0.33681685
105	0xbe446336	-0.19178471
106	0xbe0fb1cf	-0.14032672
107	0x3e61610d	0.22009678
108	0x3dc4c3ac	0.09607634
109	0xbd09b771	-0.03362221
110	0xbdb28c13	-0.08718123
111	0x3e2f1d5a	0.1710104
112	0x3ddfb124	0.10922459
113	0xbe086453	-0.1331952
114	0x3d97f3ae	0.07419525
115	0xbe3adbaa	-0.18247858
116	0xbe30d2b3	-0.17267875
117	0xbf1d6bd5	-0.61492664
118	0xbd217eaf	-0.039427456
119	0xbd430014	-0.047607496
120	0x3d685383	0.056720268
121	0xbe866ee3	-0.26256475
122	0xbe9c46d4	-0.30522788
123	0x3df90bb5	0.12160436
124	0xbd8f5d62	-0.07000233
125	0x3dd62964	0.104571134
126	0xbd917dd8	-0.07104081
127	0x3e234aaf	0.15946458
128	0x3d9af23e	0.07565735
129	0xbdc90eac	-0.098172516
130	0x3e0346b4	0.1281994
131	0xbdb681da	-0.08911486
132	0x3de9579c	0.11393663
133	0x3d260e69	0.040541086
134	0x3ebb77d0	0.36614847
135	0x3d51b05d	0.051193584
136	0xbd3f5b63	-0.046718013
137	0xbe893efd	-0.2680587
138	0x3c926396	0.017869752
139	0x3e1e44e6	0.1545597
140	0x3e1df46b	0.1542527
141	0x3d74dfac	0.059783623
142	0x3dd96955	0.106157936
143	0x3f12d1c9	0.57351357
144	0xbd75241b	-0.059848886
145	0xbc06477f	-0.008195757
146	0x3dbdfba1	0.0927651
147	0xbd51e79f	-0.05124628
148	0x3ec5215d	0.38502017
149	0x3ebb781e	0.3661508
150	0xbea03fee	-0.31298774
151	0xbdea5502	-0.11441995
152	0xbe5e0d1d	-0.2168469
153	0xbd041f4d	-0.032256413
154	0xbccbd06c	-0.024879657
155	0x3ecec4ce	0.40384525
156	0xbdfa9982	-0.122363105
157	0xbce97131	-0.028496357
158	0x3e21f783	0.15817074
159	0xbe793e9c	-0.2434029
160	0xbbd8065d	-0.0065925554
161	0xbe05d8a7	-0.13070928
162	0x3e152ed2	0.14568642
163	0xbdb59636	-0.08866541
164	0x3c2fe228	0.010735072
165	0x3e335faf	0.17516969
166	0xbdaa8de6	-0.08327846
167	0x3e93034f	0.28713462
168	0x3e31ba69	0.17356266
169	0x3d108897	0.035286512
170	0xbd5f8402	-0.05456925
171	0xbe57a675	-0.21059592
172	0x3b891343	0.0041832044
173	0xbc9333fb	-0.017969122
174	0xbdecfbd4	-0.1157147
175	0x3ca65b55	0.020307222
176	0x3c712796	0.014718911
177	0xbd4a81c3	-0.049440157
178	0x3bbb8b8e	0.0057234233
179	0x3e9948ee	0.29938453
180	0x3d95f881	0.07322789
181	0xbd6c58e0	-0.057701945
182	0xbd0556d2	-0.0325535
183	0x3e6fb23a	0.23407832
184	0x3ea105b5	0.31449667
185	0x3ce1f659	0.027583288
186	0x3d9fbc58	0.077995956
187	0x3d84e77d	0.064894654
188	0xbe360335	-0.17774661
189	0x3e3141a7	0.173102
190	0xbda192d9	-0.07889337
191	0xbbd6c30d	-0.0065540136
192	0x3d5f8407	0.05456927
193	0x3da3a2f1	0.07990063
194	0x3e988278	0.2978704
195	0x3d83cdb9	0.06435723
196	0xbe053ae8	-0.13010752
197	0x3cd85927	0.026409699
198	0x3e045694	0.12923652
199	0xbe038ed8	-0.1284746
200	0x3cf5e3f7	0.030015929
201	0x3e28ba32	0.16477278
202	0xbdde33dd	-0.10849736
203	0x3cb6ae01	0.022299768
204	0x3bdcdfff	0.0067405696
205	0xbd3a81c4	-0.04553391
206	0xbe22a044	-0.15881449
207	0xbe572748	-0.21011078
208	0x3dfe7114	0.12423912
209	0x3e1def50	0.15423322
210	0xbe070e19	-0.13188972
211	0xbe195e95	-0.14977486
212	0x3e389e1f	0.18029068
213	0xbd4f3f03	-0.050597202
214	0xbe0bb943	-0.1364489
215	0xbd6eae56	-0.05827173
216	0x3d8c5583	0.068522476
217	0x3d0744da	0.033024646
218	0xbd76188f	-0.060082015
219	0xbcc372b8	-0.023858413
220	0xbd1c5589	-0.03816751
221	0xbc97189f	-0.018444357
222	0xbd41cab6	-0.04731246
223	0x3ddb51f7	0.10708993
224	0x3df73295	0.12070195
225	0xbe75a6b2	-0.2398937
226	0x3e117d1d	0.14207883
227	0xbd09951f	-0.03358948
228	0xbde046ab	-0.10950979
229	0x3d93dded	0.07220063
230	0x3e591744	0.21200281
231	0x3d8606d7	0.06544273
232	0xbe15d8f9	-0.1463355
233	0x3dfd71cd	0.123752214
234	0xbdce6607	-0.10078054
235	0xbddd73d5	-0.10813109
236	0x3ecd822c	0.40138376
237	0x3d2f61bd	0.04281782
238	0x3de1bd25	0.110224046
239	0x3d86e809	0.06587226
240	0xbe3ea8ca	-0.18619075
241	0x3d30b365	0.043139834
242	0x3afdeb2a	0.0019372453
243	0x3f12d259	0.57352215
244	0xbe1e7f8b	-0.15478341
245	0xbe04e917	-0.12979542
246	0xbe13e70e	-0.14443609
247	0xbd9481fe	-0.072513565
248	0xbd7ebd60	-0.06219232
249	0x3d4ac95f	0.04950845
250	0x3e1a49bd	0.15067191
251	0xbd0e7feb	-0.03478996
252	0xbe0c142b	-0.13679568
253	0x3d8bcaa8	0.06825763
254	0xbca43526	-0.020044874
255	0x3e74d47b	0.2390918

fc3.bias f4 [10]
0	0xbf00409f	-0.50098604
1	0xbdc03320	-0.09384751
2	0x3df2c541	0.118540294
3	0x3e38aca3	0.18034606
4	0x3e6d4748	0.23171723
5	0xbe80ef26	-0.25182456
6	0x3ef747d1	0.4829698
7	0xbea31c71	-0.31857637
8	0x3dcacc2a	0.099022225
9	0xbdd9bd1c	-0.10631773
