round2/2025-04-18 18:23:20-weight-client-cbdb25ac-5.pth (torch, 252478 bytes, 10 tensors)

conv1.weight f4 [6, 3, 5, 5]
0.07500347 -0.5920183 -0.45965278 -0.7956299 -1.088767 0.32337102 -0.2734198 -0.050587174
-0.4934352 -1.037316 0.26964554 -0.32686442 -0.10797119 -0.3912066 -1.2422919 0.39220718
0.021532273 0.3432711 -0.30515677 -1.5241021 0.6096099 0.809419 0.84944904 -0.11535927
-0.7872798 0.9262951 0.40402496 0.55752605 -0.023626952 -0.30437788 1.3226877 0.936357
1.0876101 0.544251 -0.2092774 1.2351449 0.8200372 1.1103963 0.68158007 -0.35093248
1.2185981 1.0127228 1.3549161 0.45327252 -0.7726317 1.2267714 1.5267897 1.5059775
0.58030427 -0.29204783 -0.5883924 -0.84238976 -0.6667634 -1.1937759 -1.412076 -0.20704149
-0.48100698 -0.2946142 -0.73837084 -1.4889936 -0.37792435 -0.64046365 -0.37359324 -0.697975
-1.5972953 -0.36381242 -0.57013243 -0.25527287 -0.9270847 -2.0442514 -0.39879146 -0.03166529
0.009451429 -0.8976371 -1.68659 -0.3436122 -0.4905884 0.44729066 0.57360417 0.39843103
-0.33767974 -0.43927592 0.4024543 0.61894923 0.3401836 -0.4244405 -0.22927603 0.5730774
0.804919 0.34578678 -0.5958134 0.02213332 0.4735257 0.5169417 0.38669872 -0.55798554
0.12714176 0.46865356 0.40426445 0.40986526 -0.3392787 -0.29823235 0.66786265 0.9994417
0.65426797 -0.3644702 -0.21454196 0.6956095 1.0704461 0.5769101 -0.42304453 -0.055493254
0.94483894 1.1783106 0.6369432 -0.5044432 0.1495176 0.7819315 0.81516755 0.50995106
-0.57991743 0.28349897 0.67365986 0.80024225 0.5216167 -1.3384501 -1.2742882 -0.2938926
-0.038648654 -0.36212185 -1.3622472 -1.3181676 -0.28456384 -0.14433073 -0.532253 -1.5563693
-1.1763469 -0.31976578 -0.1163254 -0.54429114 -1.691 -0.9845963 -0.5390009 -0.46514133
-0.7619667 -1.7090818 -1.0411369 -0.5519283 -0.51469636 -0.7693927 -0.38533792 -0.3036576
-0.2396238 -0.19556339 -0.34564972 -0.3215426 -0.32396656 -0.26384628 -0.14053784 -0.17936698
-0.5074666 -0.46524015 -0.4224166 -0.34712794 -0.24621396 -0.44361174 -0.6183029 -0.5457345
-0.44252273 -0.33002344 -0.2075387 -0.14557825 -0.2738258 -0.15199128 -0.09382615 0.17116953
0.5715079 0.69288623 0.5423073 0.29675427 0.30128515 0.52642065 0.7830769 0.5854311
0.4193672 0.053755894 0.26961523 0.46697864 0.42412236 0.20952106 -0.25802687 0.022972932
0.13599363 0.15994062 0.12037721 -0.11879774 -0.025882678 0.2008237 0.1423412 0.02454874
1.4365711 1.7923828 1.9203386 1.8680567 1.093043 1.4516689 1.8390696 1.9874306
1.8540492 1.4610765 1.3691527 1.5507215 1.7339734 1.5744925 1.2635227 0.80764693
1.1024637 1.2713807 1.1626492 0.955422 0.9322617 1.1062531 1.1750007 1.0739747
0.72917724 0.44605538 0.7695096 0.85062814 0.29927528 -0.011726085 1.1592363 1.3870597
1.101357 0.68618286 0.49278644 0.9417495 0.5544393 0.41154408 0.16841777 0.16698575
-0.33558184 -0.99962866 -1.0623385 -0.73094094 -0.39084834 -0.74897265 -1.4702431 -1.4572836
-1.1655568 -0.6135696 0.21845059 0.5625826 0.57981867 0.34872505 -0.065976664 0.9351504
00000000: 6b9b 993d 838e 17bf 9c57 ebbe 67ae 4bbf
00000010: b85c 8bbf e390 a53e aefd 8bbe 7f34 4fbd
00000020: 8aa3 fcbe c5c6 84bf fb0e 8a3e c65a a7be
00000030: 0020 ddbd 3b4c c8be 6c03 9fbf 61cf c83e
00000040: 7364 b03c 3bc1 af3e 823d 9cbe c715 c3bf
00000050: 650f 1c3f 1536 4f3f 7e75 593f 7b41 ecbd
00000060: 2b8b 49bf ad21 6d3f 5cdc ce3e 07ba 0e3f
00000070: 4f8d c1bc 6bd7 9bbe d54d a93f 18b5 6f3f
00000080: cf36 8b3f 0954 0b3f d14c 56be 3a19 9e3f
00000090: f5ed 513f 7721 8e3f 087c 2e3f 6cad b3be
000000a0: 06fb 9b3f e7a0 813f e46d ad3f 5613 e83e
000000b0: 31cb 45bf d806 9d3f d86d c33f dfc3 c03f
000000c0: d28e 143f 4b87 95be e2a0 16bf dba6 57bf
000000d0: 02b1 2abf a6cd 98bf e8be b4bf af02 54be
000000e0: 8c46 f6be acd7 96be df05 3dbf 5897 bebf
000000f0: 4d7f c1be 6df5 23bf 9d47 bfbe 7dae 32bf
00000100: 2c74 ccbf 9f45 babe 33f4 11bf 20b3 82be
00000110: 6c55 6dbf 04d5 02c0 652e ccbe 77b3 01bd
00000120: 2bda 1a3c 8ccb 65bf 2ee2 d7bf f0ed afbe
00000130: 672e fbbe 4803 e53e b9d7 123f 27ff cb3e
00000140: 5ce4 acbe c6e8 e0be 7d0e ce3e 7573 1e3f
00000150: 8b2c ae3e 4450 d9be 56c7 6abe 33b5 123f
00000160: 2c0f 4e3f f70a b13e 3a87 18bf f050 b53c
00000170: f671 f23e 4b56 043f 60fd c53e 24d8 0ebf
00000180: 7331 023e 5cf3 ef3e c0fb ce3e dcd9 d13e
00000190: f0b5 adbe e9b1 98be 0cf9 2a3f 69db 7f3f
000001a0: 1b7e 273f d79b babe e3b0 5bbe 7713 323f
000001b0: 6104 893f 61b0 133f 4b99 d8be e54c 63bd
000001c0: f7e0 713f e2d2 963f b60e 233f 3123 01bf
000001d0: 241b 193e aa2c 483f d2ae 503f 278c 023f
000001e0: 7875 14bf c726 913e f974 2c3f addc 4c3f
000001f0: ac88 053f 5552 abbf e01b a3bf 1779 96be
00000200: 0d4e 1ebd 0968 b9be 1e5e aebf b7b9 a8bf
00000210: 5ab2 91be 6fcb 13be bc41 08bf 1c37 c7bf
00000220: 8992 96bf 57b8 a3be 033c eebd aa56 0bbf
00000230: b072 d8bf 810e 7cbf f7fb 09bf 0127 eebe
00000240: 4010 43bf 31c3 dabf f943 85bf 2c4b 0dbf
00000250: 24c3 03bf ecf6 44bf 034b c5be 0279 9bbe
00000260: f15f 75be c541 48be 00f9 b0be 3ba1 a4be
00000270: f2de a5be dc16 87be 27e9 0fbe faab 37be
00000280: 55e9 01bf f533 eebe fd46 d8be c1ba b1be
00000290: 831f 7cbe 1421 e3be 1949 1ebf 42b5 0bbf
000002a0: 5792 e2be d5f8 a8be 0685 54be 7712 15be
000002b0: e532 8cbe 9aa3 1bbe ed27 c0bd 1147 2f3e
000002c0: 574e 123f fe60 313f a7d4 0a3f 2df0 973e
000002d0: 0c42 9a3e 81c3 063f ba77 483f d0de 153f
000002e0: 4cb7 d63e 242f 5c3d 020b 8a3e d317 ef3e
000002f0: 9126 d93e b08c 563e 191c 84be bb31 bc3c
00000300: ea41 0b3e 79c7 233e 5488 f63d 3b4c f3bd
00000310: e907 d4bc baa4 4d3e e4c1 113e 701a c93c
00000320: 90e1 b73f cd6c e53f a8cd f53f 7b1c ef3f
00000330: d5e8 8b3f 49d0 b93f a266 eb3f 2064 fe3f
00000340: 7c51 ed3f 8e04 bb3f 6540 af3f 0b7e c63f
00000350: d7f2 dd3f f888 c93f 1dbb a13f f3c1 4e3f
00000360: 881d 8d3f 9abc a23f b0d1 943f 8996 743f
00000370: b4a8 6e3f b499 8d3f 6c66 963f 0178 893f
00000380: 5cab 3a3f 5f61 e43e 95fe 443f c4c2 593f
00000390: 9c3a 993e c41e 40bc db61 943f 2c8b b13f
000003a0: 44f9 8c3f aea9 2f3f 814e fc3e 7f16 713f
000003b0: bcef 0d3f e8b5 d23e b575 2c3e 50fe 2a3e
000003c0: 62d1 abbe aae7 7fbf b5fa 87bf f21e 3bbf
000003d0: 461d c8be acbc 3fbf ed30 bcbf 4588 babf
000003e0: f730 95bf e612 1dbf 83b1 5f3e 6a05 103f
000003f0: ff6e 143f 178c b23e c61e 87bd 0466 6f3f

conv1.bias f4 [6]
1.5503782 -1.5312742 -3.1949916 -0.12951815 0.04360867 0.9124574
00000000: cb72 c63f cb00 c4bf be7a 4cc0 68a0 04be
00000010: 019f 323d cf96 693f

conv2.weight f4 [16, 6, 5, 5]
-0.25877228 -0.39335808 -0.575778 -0.54613084 -0.77609885 -0.12498907 -0.32106805 -0.2961744
-0.17135407 -0.4611024 -0.0009741445 -0.07628449 -0.020289022 0.033227637 -0.07762711 0.32988578
0.18596402 0.0013828399 0.17532934 0.111868605 0.35338542 0.2780658 0.11865068 0.2491344
0.11304042 -0.48139846 -0.18823886 0.2962906 0.36924556 0.18059132 -0.16989546 0.15058218
0.37401763 0.1910238 -0.12037564 -0.072979346 0.21213217 0.21929848 0.035754647 0.030130059
-0.049100835 0.21040912 0.24941781 0.16742702 0.26189643 0.23497581 0.34537044 0.44403306
0.26107332 0.36670724 -0.06753476 -0.13582602 -0.194693 -0.12470542 0.080156595 -0.16423693
-0.013565677 -0.00057998 -0.019379402 0.041081373 -0.0348371 0.17413537 0.14497198 -0.010078774
-0.03156726 -0.17508519 0.025998149 0.059970777 -0.031788148 -0.061047796 -0.247479 0.05055248
0.12378441 -0.0686608 -0.08889527 -0.1323287 -0.44610125 -0.39047804 -0.2291004 -0.14691763
-0.45660278 -0.4839582 -0.42716143 -0.26675597 -0.06425033 -0.6302453 -0.6091077 -0.52626204
-0.37459654 -0.34497243 -0.42883414 -0.48751897 -0.5521248 -0.4935959 -0.27678713 -0.28566092
-0.6050644 -0.69390094 -0.5679406 -0.18975261 -0.07781703 -0.21576601 -0.26515275 -0.26556626
-0.22039524 -0.2394093 -0.31213146 -0.29167962 -0.26744336 -0.1886208 -0.1743123 -0.32052022
-0.1574951 -0.11953873 -0.11579608 -0.017347708 -0.03012126 -0.10625693 -0.08540436 0.040390674
0.10385877 -0.0023023933 -0.011233624 0.029999865 0.07320519 -0.10460121 0.11435642 0.18743402
0.061589878 -0.070377074 0.05814592 -0.034147445 -0.22547671 -0.26927793 -0.13042668 -0.21887007
-0.38542116 -0.38105538 -0.33185485 -0.17098346 -0.44385818 -0.4339862 -0.40201816 -0.39954162
-0.2083185 -0.3063723 -0.2461784 -0.26125994 -0.2598574 -0.3281043 0.087473065 0.28147405
0.19933094 0.130996 -0.046109192 0.26376882 0.19113423 0.27670366 0.5099396 0.14802071
0.20717499 0.15235788 0.35962108 0.5389992 -0.19187385 0.10988595 0.21849696 0.48337868
0.40521792 -0.37540492 -0.0394696 0.013391683 -0.064719826 -0.12434423 -0.33564287 0.13371234
-0.07443783 0.0046661845 0.040800784 -0.3179816 0.14923449 0.23424922 0.1999685 0.01792856
-0.5400947 0.063400075 0.080902554 0.084213965 -0.22779682 -0.6871897 0.1457472 0.03522193
-0.14048858 -0.42279202 -0.45722616 -0.009164045 -0.20301045 -0.2994126 -0.46248227 -0.41895622
-0.58424217 -0.51335806 -0.55224985 -0.58822155 -0.5879292 -0.4827697 -0.46187666 -0.45219406
-0.57593966 -0.5211182 -0.50540847 -0.48175573 -0.45924354 -0.32665962 -0.34812036 -0.44120952
-0.35694057 -0.37821278 -0.24953446 -0.16526635 -0.57315266 -0.5623984 -0.5625174 -0.44213414
-0.25419736 -0.44196227 -0.3467763 0.039399963 0.26176408 0.41594252 -0.39013913 -0.36583105
0.19705532 0.70337164 0.74138284 -0.5146994 -0.56852376 -0.10715823 0.73318505 0.80767536
-0.46239334 -0.2924262 0.0690834 0.37557384 0.36367202 -0.22094367 0.111561775 0.14668123
0.046849236 0.06822318 -0.10740399 -0.07709938 -0.2336107 -0.12574194 -0.19800687 -0.017561318
00000000: cd7d 84be 3b66 c9be 3066 13bf 3bcf 0bbf
00000010: 6aae 46bf 45fa ffbd 0863 a4be 2ca4 97be
00000020: 7177 2fbe 9d15 ecbe bb5d 7fba 0b3b 9cbd
00000030: 2a35 a6bc b419 083d f6fa 9ebd cae6 a83e
00000040: 5a6d 3e3e 6840 b53a 8989 333e 5e1b e53d
00000050: efee b43e a45e 8e3e 21ff f23d 171d 7f3e
00000060: bc81 e73d dc79 f6be b0c1 40be 67b3 973e
00000070: c10d bd3e eeec 383e 13f9 2dbe 3732 1a3e
00000080: 3d7f bf3e be9b 433e 8187 f6bd 3276 95bd
00000090: 2d39 593e c88f 603e 7773 123d 50d3 f63c
000000a0: f51d 49bd 7d75 573e 6267 7f3e fd71 2b3e
000000b0: 4a17 863e 809d 703e 65d4 b03e 4d58 e33e
000000c0: 67ab 853e 0dc1 bb3e aa4f 8abd fa15 0bbe
000000d0: 9a5d 47be 8e65 ffbd 2429 a43d ba2d 28be
000000e0: 9342 5ebc cd09 18ba 8dc1 9ebc f144 283d
000000f0: 59b1 0ebd 8b50 323e 8973 143e 7121 25bc
00000100: ac4c 01bd 8849 33be 12fa d43c eba3 753d
00000110: 4a34 02bd 410d 7abd 236b 7dbe 1e10 4f3d
00000120: ae82 fd3d 099e 8cbd b90e b6bd 2d81 07be
00000130: 6267 e4be bdec c7be 4c99 6abe 9371 16be
00000140: d7c7 e9be 5fc9 f7be e7b4 dabe 3d94 88be
00000150: ad95 83bd c257 21bf 7bee 1bbf 1cb9 06bf
00000160: 1ecb bfbe 3aa0 b0be 2690 dbbe 169c f9be
00000170: 0d58 0dbf 9ab8 fcbe 0bb7 8dbe 2642 92be
00000180: 80e5 1abf 7ea3 31bf 8e64 11bf 824e 42be
00000190: 895e 9fbd c4f1 5cbe 1ac2 87be 4df8 87be
000001a0: 4aaf 61be b627 75be b2cf 9fbe 0857 95be
000001b0: 56ee 88be d025 41be ec7e 32be 3a1b a4be
000001c0: 6546 21be b9d0 f4bd 7f26 edbd c81c 8ebc
000001d0: dcc0 f6bc 3c9d d9bd 7be8 aebd b170 253d
000001e0: e8b3 d43d c0e3 16bb 3c0d 38bc 47c2 f53c
000001f0: 9aec 953d 2939 d6bd b333 ea3d b4ee 3f3e
00000200: ab45 7c3d db21 90bd 6b2a 6e3d 31de 0bbd
00000210: 5ee3 66be ccde 89be 928e 05be 7a1f 60be
00000220: ec55 c5be b119 c3be e1e8 a9be 4a16 2fbe
00000230: 6141 e3be 7033 debe 53d5 cdbe b890 ccbe
00000240: 7251 55be d5dc 9cbe 3116 7cbe ddc3 85be
00000250: 070c 85be 49fd a7be 1425 b33d 5e1d 903e
00000260: 691d 4c3e d123 063e fedc 3cbd b50c 873e
00000270: b1b8 433e 1aac 8d3e 678b 023f be92 173e
00000280: ae25 543e b403 1c3e 4120 b83e dafb 093f
00000290: 947a 44be e30b e13d abbd 5f3e 697d f73e
000002a0: b978 cf3e 1335 c0be e0aa 21bd ca68 5b3c
000002b0: d48b 84bd 30a8 febd 62d9 abbe e3eb 083e
000002c0: dc72 98bd cbe6 983b b91e 273d 7cce a2be
000002d0: edd0 183e 07df 6f3e 8bc4 4c3e eade 923c
000002e0: a543 0abf e6d7 813d 3db0 a53d 5f78 ac3d
000002f0: 9243 69be aaeb 2fbf c13e 153e df44 103d
00000300: 3ddc 0fbe 3278 d8be 8c19 eabe ca24 16bc
00000310: f9e1 4fbe 9c4c 99be 7aca ecbe 6e81 d6be
00000320: e590 15bf 6f6b 03bf 3f60 0dbf b095 16bf
00000330: 8782 16bf 972d f7be 197b ecbe fb85 e7be
00000340: c870 13bf 0168 05bf 7362 01bf b0a8 f6be
00000350: f821 ebbe ee3f a7be d53c b2be 37e6 e1be
00000360: eac0 b6be 1ba5 c1be f685 7fbe 953b 29be
00000370: 22ba 12bf 57f9 0fbf 2401 10bf 685f e2be
00000380: 2826 82be e148 e2be aa8c b1be db61 213d
00000390: f105 863e 6bf6 d43e 51c0 c7be 354e bbbe
000003a0: dfc8 493e 2a10 343f 44cb 3d3f 57c3 03bf
000003b0: c68a 11bf c675 dbbd 04b2 3b3f d0c3 4e3f
000003c0: d2be ecbe e3b8 95be 997b 8d3d 374b c03e
000003d0: 3833 ba3e 0f3f 62be 807a e43d 9b33 163e
000003e0: fce4 3f3d 98b8 8b3d a0f6 dbbd 48e6 9dbd
000003f0: a537 6fbe 7fc2 00be 50c2 4abe c1dc 8fbc

conv2.bias f4 [16]
0.26438978 0.40011004 -0.6285252 0.64074445 -0.9503462 -0.24414603 0.12150251 -0.06516161
-0.50195295 -0.33343855 -0.71788186 -0.21202207 -0.35591197 -0.13679601 0.099780925 -0.29496434
00000000: 195e 873e 39db cc3e 07e7 20bf d407 243f
00000010: e349 73bf 6b01 7abe 4fd6 f83d 7373 85bd
00000020: fd7f 00bf 75b8 aabe 1bc7 37bf 501c 59be
00000030: 183a b6be 4114 0cbe f159 cc3d 9105 97be

fc1.weight f4 [120, 400]
-0.015523669 -0.004899301 0.048294544 0.04467979 0.0022110282 0.05271368 -0.07677399 -0.012005172
-0.040539786 0.0072423057 -0.040007114 -0.09154223 -0.027774254 -0.06002585 -0.026075184 -0.073288895
-0.062713474 -0.049165923 0.0739145 0.08767134 0.04669269 0.033487953 0.10246192 0.054860972
0.12884861 -0.071854725 -0.06413652 -0.08155513 -0.043445032 -0.16317894 -0.044843517 -0.07358417
-0.049884066 -0.070999056 -0.04882209 -0.07001922 -0.076839276 0.026435949 -0.017890329 -0.05142356
-0.027602354 0.02112593 0.0018172873 0.076768324 -0.0692516 -0.012031386 -0.040467244 0.008116998
0.039569445 -0.04523234 -0.14188354 -0.11947934 -0.1371861 -0.03380939 -0.043851778 -0.03240324
-0.06504663 -0.041855007 -0.009260016 0.024899442 0.008082959 0.015646935 0.0029499738 -0.040797852
-0.069502935 0.1134313 0.04602788 0.11772583 0.007264464 -0.069474734 0.116380155 0.079635814
0.06571572 0.027755456 -0.039738044 0.017812345 0.04350211 -0.022824312 -0.031650137 -0.056074306
-0.0047644866 0.027004953 0.0071031507 0.054619737 0.002971235 -0.0070817033 -0.030601464 -0.0030069964
-0.020954588 -0.062386394 -0.028367694 0.0025252565 -0.01540124 -0.025826003 0.021867115 -0.0060995864
-0.032070942 -0.03789472 0.008942977 0.023423377 -0.041888304 -0.060798336 -0.050761644 -0.1468829
-0.08477519 -0.018184531 -0.102464885 -0.12517151 -0.09093399 -0.049804132 -0.0071681878 -0.05933971
-0.10053327 -0.107054286 -0.014028637 0.035535898 0.022318954 0.018445726 0.04316285 0.054202612
0.050900415 0.04293483 0.055992108 0.06140311 0.02500364 0.045625813 0.031012608 -0.021553297
0.005085284 -0.005522655 -0.0058936193 0.025929036 -0.0013028753 0.0068999776 -0.03466545 -0.059845887
-0.03489367 0.00080790446 0.007819082 -0.02221174 0.0062426864 -0.041586556 0.013772727 -0.06048986
-0.027160509 0.00102772 0.016175209 -0.030296812 -0.057547096 -0.010543722 -0.0600363 -0.03300448
-0.0021489891 0.04654969 0.0150888115 -0.0370412 0.018866288 0.07871338 0.048871834 0.022173941
-0.021347884 0.051963672 0.020437675 -0.008258475 0.03922822 0.04347562 -0.017889172 -0.024873368
0.006233324 0.082527585 0.0043083276 0.007852279 0.007169012 -0.045223158 0.1090539 -0.057327803
-0.06877988 -0.07912993 -0.115921 -0.12159116 -0.0055570332 0.004719411 0.01823408 -0.0058736824
-0.06657503 -0.0370979 0.09002115 0.039217025 -0.01955344 -0.084104784 0.00047463254 0.07865699
0.07136184 0.11112316 0.0051114988 0.0095470175 0.091953754 0.008597013 0.013714794 -0.017721407
-0.09095155 -0.0001468256 -0.083694525 -0.027029008 -0.03549663 -0.0275623 0.0027953682 0.053254265
0.023707025 0.08259245 -0.029903682 -0.07383388 -0.028641772 0.027388658 0.017065894 0.015817266
0.056353685 -0.02535158 -0.038788352 -0.037407815 -0.028389016 0.10643511 0.08580804 -0.01619444
-0.0025977276 -0.027197752 -0.027236883 -0.0072135963 -0.03193744 0.043303367 0.0515771 0.06451351
0.0072279167 0.08904087 0.066760555 0.025392795 0.045454565 0.055520553 0.002114599 0.05942957
0.055429794 -0.0056029987 -0.03581184 -0.022422228 -0.0073905475 0.01332445 0.07141522 0.08998269
0.066732116 0.08788422 0.110480145 0.013484367 0.049728796 -0.034173094 -0.10495637 0.09099685
00000000: fd56 7ebc 518a a0bb 80d0 453d 2802 373d
00000010: e6e6 103b 4dea 573d af3b 9dbd 57b1 44bc
00000020: 0c0d 26bd dd50 ed3b 80de 23bd 7e7a bbbd
00000030: d586 e3bc aadd 75bd a09b d5bc 7d18 96bd
00000040: ec6f 80bd 3562 49bd 7c60 973d 088d b33d
00000050: d640 3f3d aa2a 093d 8ed7 d13d e6b5 603d
00000060: e4f0 033e 9228 93bd 025a 83bd 6006 a7bd
00000070: 6bf3 31bd 6118 27be d6ad 37bd 4cb3 96bd
00000080: 3c53 4cbd f467 91bd acf9 47bd 3d66 8fbd
00000090: e95d 9dbd 3490 d83c bd8e 92bc 83a1 52bd
000000a0: 551e e2bc 4910 ad3c 0b32 ee3a b638 9d3d
000000b0: c8d3 8dbd 4a1f 45bc fbc0 25bd 28fd 043c
000000c0: 9213 223d 8c45 39bd eb49 11be 96b1 f4bd
000000d0: 837a 0cbe b77b 0abd ec9d 33bd 43b9 04bd
000000e0: 2b37 85bd 2870 2bbd 52b7 17bc eaf9 cb3c
000000f0: 636e 043c 002e 803c 5954 413b a61b 27bd
00000100: 8e57 8ebd ab4e e83d bb87 3c3d 3d1a f13d
00000110: be0a ee3b c548 8ebd b858 ee3d 1a18 a33d
00000120: f795 863d 695f e33c 5cc4 22bd 32eb 913c
00000130: 452f 323d 0dfa babc 93a3 01bd 2cae 65bd
00000140: 691f 9cbb 7e39 dd3c 8cc1 e83b f2b8 5f3d
00000150: 0db9 423b a20d e8bb ecaf fabc 0711 45bb
00000160: f5a8 abbc e088 7fbd 5e63 e8bc c67e 253b
00000170: 7c55 7cbc 0e91 d3bc aa22 b33c 0adf c7bb
00000180: d25c 03bd 7e37 1bbd 9085 123c 62e2 bf3c
00000190: 1293 2bbd ad07 79bd 71eb 4fbd 7968 16be
000001a0: 9d9e adbd baf7 94bc 1cd9 d1bd f62c 00be
000001b0: 9a3b babd 6bff 4bbd 1ee3 eabb 320e 73bd
000001c0: 63e4 cdbd 473f dbbd 5ed8 65bc 178e 113d
000001d0: 3dd6 b63c 7e1b 973c 87cb 303d 8f03 5e3d
000001e0: f47c 503d 6fdc 2f3d fb57 653d d481 7b3d
000001f0: 6fd4 cc3c 22e2 3a3d 270e fe3c 8a90 b0bc
00000200: 74a2 a63b 63f7 b4bb 431f c1bb 2169 d43c
00000210: 3ec5 aaba 3519 e23b 5cfd 0dbd f620 75bd
00000220: aaec 0ebd 8dc9 533a 9b1b 003c 65f5 b5bc
00000230: 738f cc3b aa56 2abd 01a7 613c 37c4 77bd
00000240: b77f debc 90b4 863a df81 843c 0531 f8bc
00000250: 81b6 6bbd 93bf 2cbc a0e8 75bd b52f 07bd
00000260: 0ed6 0cbb e3aa 3e3d 1037 773c 83b8 17bd
00000270: 798d 9a3c 7b34 a13d d52d 483d 20a6 b53c
00000280: c2e1 aebc dcd7 543d e96c a73c 8e4e 07bc
00000290: c5ad 203d 7e13 323d 508c 92bc 3cc3 cbbc
000002a0: e940 cc3b 3904 a93d df2c 8d3b d8a6 003c
000002b0: 08ea ea3b eb3b 39bd a757 df3d 8fd0 6abd
000002c0: 77dc 8cbd df0e a2bd fd67 edbd c904 f9bd
000002d0: c617 b6bb 4aa5 9a3b a35f 953c 0578 c0bb
000002e0: 7d58 88bd f8f3 17bd 025d b83d 08a2 203d
000002f0: 892e a0bc 213f acbd 1ad8 f839 ea16 a13d
00000300: 2826 923d 8a94 e33d 5c7e a73b 186b 1c3c
00000310: 4052 bc3d 7cda 0c3c 04b4 603c 7c2c 91bc
00000320: ce44 babd 32f5 19b9 0968 abbd f06b ddbc
00000330: ea64 11bd 55ca e1bc 7f32 373b 2521 5a3d
00000340: 3c35 c23c 3b26 a93d 91f8 f4bc 3836 97bd
00000350: 26a2 eabc 2e5e e03c c6cd 8b3c 3693 813c
00000360: 1fd3 663d 1eae cfbc 89e0 1ebd f038 19bd
00000370: 1590 e8bc a7fa d93d 20bc af3d 34aa 84bc
00000380: a33e 2abb d2cd debc e21f dfbc 0860 ecbb
00000390: d5d0 02bd df5e 313d 8242 533d a91f 843d
000003a0: 29d8 ec3b 0f5b b63d c2b9 883d 8d04 d03c
000003b0: 912e 3a3d 8569 633d 1695 0a3b 6c6c 733d
000003c0: 5a0a 633d 5c99 b7bb 70af 12bd d2ae b7bc
000003d0: 682c f2bb cb4e 5a3c 2542 923d d848 b83d
000003e0: d9aa 883d a4fc b33d 6a43 e23d 89ed 5c3c
000003f0: 6cb0 4b3d 16f9 0bbd 5ef3 d6bd 8e5c ba3d

fc1.bias f4 [120]
0.068715096 -0.0054857996 0.001264715 0.13583717 -0.0574502 -0.02243607 -0.09946127 0.14339048
-0.06486179 -0.09710036 -0.04020009 -0.056973998 -0.058760606 -0.20130393 0.038040206 -0.09111889
0.00911109 -0.06898093 -0.15445854 0.04431656 0.13534938 -0.17576893 -0.06617281 0.027290462
0.08163777 0.047067404 -0.045755256 -0.04522019 -0.043621726 0.07019344 -0.025707085 -0.025483748
-0.03505469 -0.07584026 -0.15850864 -0.029354388 0.05987957 -0.13436893 -0.014495062 0.0019833618
-0.013715084 -0.085562855 -0.051094983 -0.11140686 0.18852368 -0.11747499 0.039815314 -0.017410781
-0.051431663 -0.08166974 0.03409029 0.031826973 -0.0029428 0.02485344 0.018145645 0.09549327
-0.024621064 -0.033115655 -0.02653757 -0.028638853 0.00041885924 -0.19960819 -0.03550705 0.073043406
0.06471777 0.043885406 -0.14605178 0.025543889 0.15766758 0.016638214 0.007718975 0.097187944
0.024607204 0.22783278 0.04410566 -0.060660236 0.14837778 0.18122919 -0.10642913 -0.033939693
-0.017389359 0.052280884 0.035147287 -0.16713731 -0.030027455 -0.011360128 -0.0036927895 -0.058508325
0.007840798 0.04208084 0.048355237 -0.15041101 0.03258151 0.18383816 -0.05563427 0.009861663
0.25034946 -0.046254896 0.063341394 -0.09488081 -0.15752736 -0.04398962 0.20636636 0.014626963
-0.014320426 -0.07139206 -0.07764559 0.015737163 0.064037815 0.18609701 -0.13489495 -0.13422704
0.031204829 -0.13055192 -0.00857546 -0.05160382 0.018015247 0.10844988 -0.041311 0.13212855
00000000: 80ba 8c3d 39c2 b3bb cbc4 a53a e618 0b3e
00000010: e750 6bbd d9cb b7bc 5ab2 cbbd f4d4 123e
00000020: 42d6 84bd 8edc c6bd d9a8 24bd 915d 69bd
00000030: f6ae 70bd 9e22 4ebe 0cd0 1b3d 8a9c babd
00000040: ae46 153c e045 8dbd 612a 1ebe 4885 353d
00000050: 0799 0a3e c5fc 33be 9c85 87bd 3f90 df3c
00000060: b431 a73d c0c9 403d dd69 3bbd ce38 39bd
00000070: b2ac 32bd 94c1 8f3d aa97 d2bc 4bc3 d0bc
00000080: 8295 0fbd 2352 9bbd 1750 22be 9d78 f0bc
00000090: 4844 753d 0298 09be b27c 6dbc 4afb 013b
000000a0: 3bb5 60bc 943b afbd f948 51bd 4829 e4bd
000000b0: 5a0c 413e ba96 f0bd 6215 233d 0ea1 8ebc
000000c0: 02aa 52bd 7742 a7bd 43a2 0b3d 005d 023d
000000d0: fedb 40bb 7199 cb3c 2da6 943c fa91 c33d
000000e0: 1db2 c9bc 48a4 07bd 5165 d9bc 079c eabc
000000f0: 569a db39 1766 4cbe d76f 11bd c897 953d
00000100: c08a 843d 2fc1 333d 998e 15be 6b41 d13c
00000110: 9c73 213e dd4c 883c 75ef fc3b 790a c73d
00000120: 0c95 c93c ff4c 693e 23a8 343d de76 78bd
00000130: 58f0 173e 2594 393e 84f7 d9bd 5904 0bbd
00000140: 2174 8ebc 7b24 563d 9af6 0f3d 0b26 2bbe
00000150: 23fc f5bc d51f 3abc ba02 72bb 6da6 6fbd
00000160: b176 003c f55c 2c3d 2410 463d 5805 1abe
00000170: 3074 053d 1240 3c3e c3e0 63bd d092 213c
00000180: ce2d 803e c675 3dbd 22b9 813d df50 c2bd
00000190: da4e 21be 762e 34bd b451 533e eea5 6f3c
000001a0: 38a0 6abc 0036 92bd a704 9fbd 39eb 803c
000001b0: 4226 833d 3790 3e3e e721 0abe d072 09be
000001c0: 45a1 ff3c 67af 05be 1680 0cbc 875e 53bd
000001d0: b694 933c f81a de3d b935 29bd b54c 073e

fc2.weight f4 [84, 120]
-0.11594959 -0.15618363 -0.11462725 0.038298562 -0.07274658 0.0123921065 0.04537826 -0.15041977
-0.15975569 -0.20290363 -0.01572809 -0.003327021 0.0077637676 0.2623121 -0.100934066 -0.003005015
-0.22004046 -0.002223237 -1.8846047e-05 -0.05731377 -0.18611567 0.060104866 -0.03724034 -0.02785323
-0.024707371 -0.23239866 -0.0047766375 -0.060607992 -0.057039548 -0.08969758 0.080952704 -0.09940559
-0.111436315 0.25336674 0.0476978 -0.12910181 0.033133212 0.14072649 -0.03061446 0.073589616
-0.11857093 -0.13624164 0.052869067 0.06888109 -0.2619365 -0.13853551 0.1798874 -0.0014852602
0.20908794 0.11880098 0.029712133 -0.018855358 -0.12912402 -0.19676678 0.0031036083 0.09562279
0.028323028 0.14448887 0.14005011 0.001260487 -0.041189846 0.2635151 0.028190821 -0.204295
-0.01971028 -0.1116928 0.20182796 -0.101514176 -0.12563078 0.11028079 -0.0530054 -0.23528475
-0.07158122 -0.13714981 0.009443847 -0.07511343 -0.18031065 0.0577028 -0.2000486 0.05222131
-0.03523154 -0.050209213 -0.11638492 -0.19899473 -0.21350877 -0.058608204 -0.010804784 -0.046784278
-0.1022801 0.029554503 -0.2549909 0.10940513 0.04499939 0.004466984 -0.009895214 -0.05783197
-0.19312964 0.16266364 -0.08841188 0.010472389 0.057408202 -0.049263958 -0.068668224 -0.28386974
0.0101856245 0.10968033 -0.05902427 0.084444426 -0.070427366 -0.13313568 -0.0631711 -0.021729171
-0.04053972 -0.10088055 0.25603107 0.017819196 -0.11212259 -0.38427812 -0.16913158 0.072291926
-0.092315726 0.0802556 0.07539188 0.19440804 0.07285987 -0.032290444 -0.08177034 -0.110697635
0.060799558 0.4731937 0.08935239 -0.081881925 0.08873883 -0.07634862 -0.025206624 -0.026743751
0.018055255 0.07092005 0.24783055 0.09274766 -0.32151186 -0.07042618 0.035327956 -0.017857635
-0.00230987 -0.13001744 0.030162262 0.033007137 -0.02564645 -0.045599405 0.12209683 0.34950948
-0.2877838 -0.09919895 0.17857677 0.27615452 -0.041108176 -0.049778163 -0.05942114 -0.030753754
-0.056444444 0.14340268 -0.061049916 0.071912624 -0.23411922 0.27233243 -0.1823389 -0.016650394
-0.099840574 -0.065035984 -0.018199401 -0.0042997506 -0.046538386 0.048839416 0.050767764 -0.010412093
-0.05713802 -0.039991505 0.0135874525 0.077936284 -0.048783716 -0.049523417 -0.024737181 0.17229378
-0.13058148 -0.23854294 0.004982124 -0.03092858 -0.060804393 -0.037683457 -0.106698126 0.317215
0.22997153 -0.16883938 -0.07038417 0.1572384 -0.06868924 -0.07396538 0.099697776 0.009113348
-0.17655104 -0.1419035 -0.0021241219 0.23445237 -0.020737717 0.047145173 -0.05853996 -0.077856086
0.17430197 -0.13320363 0.12603839 -0.016554428 0.13461679 -0.16099095 0.092065565 0.012595043
-0.13912511 -0.049131133 -0.026244229 -0.05956442 -0.047941495 0.060854644 -0.10453394 0.027630385
0.025252769 -0.09218882 0.013716858 -0.07615703 -0.21573964 -0.24487914 -0.008366889 0.110570855
-0.09398054 -0.05236015 -0.053766977 -0.05738594 -0.22331426 -0.17734145 0.025698783 -0.16679513
-0.024524055 0.009244719 0.07630727 0.084756985 0.04268563 -0.08487723 0.0045130625 -0.067406036
0.029485505 -0.076204784 0.008203984 -0.047559466 0.0750901 -0.04888294 -0.09662941 -0.073786974
00000000: fb76 edbd 9aee 1fbe b1c1 eabd f4de 1c3d
00000010: 29fc 94bd 4308 4b3c 8ede 393d a407 1abe
00000020: ff96 23be f8c5 4fbe 32d8 80bc 260a 5abb
00000030: 3467 fe3b c64d 863e 85b6 cebd c9ef 44bb
00000040: 4952 61be bab3 11bb 9417 9eb7 d8c1 6abd
00000050: 1b95 3ebe 8530 763d 5489 18bd 752c e4bc
00000060: 1d67 cabc eaf9 6dbe 5785 9cbb 1640 78bd
00000070: 4da2 69bd 5db3 b7bd 88ca a53d 2895 cbbd
00000080: b938 e4bd 49b9 813e c55e 433d 4433 04be
00000090: b1b6 073d 9b1a 103e 2dcb fabc 27b6 963d
000000a0: 51d5 f2bd ee82 0bbe 3c8d 583d 8711 8d3d
000000b0: 8a1c 86be 41dc 0dbe 6734 383e 10ad c2ba
000000c0: 261b 563e ee4d f33d dc66 f33c 8d76 9abc
000000d0: 1639 04be 3b7d 49be e865 4b3b e2d5 c33d
000000e0: b205 e83c e4f4 133e 4c69 0f3e ed36 a53a
000000f0: afb6 28bd 74eb 863e 70f0 e63c b532 51be
00000100: 7477 a1bc 32bf e4bd fdab 4e3e aae6 cfbd
00000110: 5ba5 00be e5da e13d 311c 59bd 7cee 70be
00000120: 2d99 92bd 0071 0cbe 5eba 1a3c 12d5 99bd
00000130: 5ba3 38be c559 6c3d 8ad9 4cbe 03e6 553d
00000140: f34e 10bd 2da8 4dbd 385b eebd 46c5 4bbe
00000150: 0ba2 5abe 280f 70bd 8c06 31bc dfa0 3fbd
00000160: 3b78 d1bd 491c f23c 2b8e 82be cc0f e03d
00000170: 4851 383d c75f 923b 891f 22bc 37e1 6cbd
00000180: c7c3 45be 4c91 263e 4a11 b5bd 6294 2b3c
00000190: dd24 6b3d 01c9 49bd eda1 8cbd 6057 91be
000001a0: 9be1 263c 15a0 e03d 6fc3 71bd 33f1 ac3d
000001b0: 393c 90bd b854 08be da5f 81bd 6001 b2bc
000001c0: fa0c 26bd 769a cebd 8116 833e 90f9 913c
000001d0: 87a0 e5bd 1ac0 c4be d430 2dbe ca0d 943d
000001e0: 0710 bdbd 0c5d a43d 0f67 9a3d e712 473e
000001f0: 8e37 953d fc42 04bd 3577 a7bd 71b5 e2bd
00000200: f508 793d 7246 f23e 63fe b63d b6b1 a7bd
00000210: b4bc b53d aa5c 9cbd 1f7e cebc b615 dbbc
00000220: 9de8 933c 883e 913d 4bc7 7d3e 7cf2 bd3d
00000230: 349d a4be 9a3b 90bd 0cb4 103d 2d4a 92bc
00000240: 3061 17bb 4b23 05be d916 f73c 7e32 073d
00000250: 8118 d2bc 71c6 3abd e70d fa3d e8f2 b23e
00000260: 6658 93be d228 cbbd d4dc 363e 2064 8d3e
00000270: 0c61 28bd 30e4 4bbd 9563 73bd 4cef fbbc
00000280: 4a32 67bd 27d8 123e 7a0f 7abd ed46 933d
00000290: f3bc 6fbe 286f 8b3e 0cb7 3abe 6866 88bc
000002a0: 3779 ccbd 9631 85bd e916 95bc ece4 8cbb
000002b0: 099f 3ebd d70b 483d dcf1 4f3d 7c97 2abc
000002c0: 8e09 6abd 22ce 23bd e89d 5e3c 0f9d 9f3d
000002d0: 6fd1 47bd 11d9 4abd a1a5 cabc c86d 303e
000002e0: 27b7 05be 9a44 74be 1641 a33b ef5d fdbc
000002f0: 070e 79bd f859 1abd 8c84 dabd 016a a23e
00000300: a87d 6b3e 3be4 2cbe 9325 90bd 1a03 213e
00000310: f2ac 8cbd 297b 97bd 592e cc3d 2750 153c
00000320: ccc9 34be 274f 11be da34 0bbb 4814 703e
00000330: 25e2 a9bc 4c1b 413d 99c7 6fbd 0373 9fbd
00000340: 377c 323e 8866 08be 3510 013e 279d 87bc
00000350: fcd8 093e d0da 24be df8c bc3d 705b 4e3c
00000360: d076 0ebe ba3d 49bd 23fe d6bc d2f9 73bd
00000370: 4d5e 44bd b842 793d e415 d6bd 1e59 e23c
00000380: e5de ce3c 7ecd bcbd acbc 603c 38f8 9bbd
00000390: daea 5cbe 99c1 7abe 4715 09bc f972 e23d
000003a0: df78 c0bd 9977 56bd c33a 5cbd 850d 6bbd
000003b0: 7eac 64be ff98 35be 4186 d23c 58cc 2abe
000003c0: ace6 c8bc 2977 173c fc46 9c3d 1295 ad3d
000003d0: 21d7 2e3d 1dd4 adbd 50e2 933b 2d0c 8abd
000003e0: 968b f13c 4111 9cbd 016a 063c b7cd 42bd
000003f0: d7c8 993d 7a39 48bd a4e5 c5bd a01d 97bd

fc2.bias f4 [84]
-0.18676654 -0.24968106 -0.007418645 -0.08948002 0.0955724 -0.1015188 -0.12948574 0.14756633
0.44511983 0.04669568 -0.08333282 -0.0688533 0.1636524 -0.00051492825 0.14007473 -0.056346994
-0.13568304 0.37169695 -0.08427523 -0.079995014 0.098922044 -0.0015414712 0.028683145 -0.035677038
-0.19543523 -0.08567807 0.21352403 0.16122958 -0.04338623 0.039469462 -0.0071506724 0.085884795
-0.28913313 -0.09796959 -0.09319694 0.07140418 0.08717511 0.14150074 0.06298825 0.061145037
-0.014547037 -0.037176017 -0.21005714 -0.07403571 0.06179078 0.08911259 -0.122227184 -0.009084144
0.3346315 -0.09217805 -0.044655103 -0.07983396 0.27435824 0.030435773 -0.059112083 -0.024231598
-0.10072798 -0.17413671 -0.06801965 -0.27263594 -0.015727006 -0.07869861 0.024351029 -0.10443175
0.005475279 -0.0034650713 0.043307114 -0.22587414 0.20255138 0.2895807 -0.059245765 0.06583033
0.10460966 -0.091080315 -0.1056261 -0.09881575 0.029578485 -0.017332595 0.047572557 -0.021756805
-0.058964174 0.017453643 -0.022995975 0.1555623
00000000: ba3f 3fbe 64ac 7fbe 1b18 f3bb 4d41 b7bd
00000010: 76bb c33d 17e9 cfbd e997 04be a11b 173e
00000020: bfe6 e33e f843 3f3d 66aa aabd f502 8dbd
00000030: 7f94 273e 40fc 06ba c06f 0f3e 1bcc 66bd
00000040: 7ff0 0abe 104f be3e 7e98 acbd 6dd4 a3bd
00000050: a497 ca3d 310b caba eaf8 ea3c 1622 12bd
00000060: 2c20 48be fc77 afbd 0ba6 5a3e 5e19 253e
00000070: c2b5 31bd bbaa 213d 3050 eabb 5ee4 af3d
00000080: 4209 94be 48a4 c8bd 0ade bebd 5b3c 923d
00000090: dd88 b23d 92e5 103e fcff 803d 3873 7a3d
000000a0: b256 6ebc e145 18bd 3819 57be 09a0 97bd
000000b0: 5418 7d3d a980 b63d 3f52 fabd a9d5 14bc
000000c0: d254 ab3e d8c7 bcbd 45e8 36bd fd7f a3bd
000000d0: af78 8c3e 7154 f93c 831f 72bd 5881 c6bc
000000e0: 794a cebd e550 32be e34d 8bbd f096 8bbe
000000f0: ecd5 80bc bd2c a1bd cf7b c73c 50e0 d5bd
00000100: f869 b33b 4016 63bb cd62 313d 8d4b 67be
00000110: a169 4f3e ec43 943e b0ab 72bd 0dd2 863d
00000120: 973d d63d 5188 babd 7f52 d8bd e95f cabd
00000130: 944e f23c 16fd 8dbc 71db 423d 543b b2bc
00000140: 6b84 71bd f1fa 8e3c 0e62 bcbc b94b 1f3e

fc3.weight f4 [10, 84]
-0.18767388 -0.20086734 0.21903852 0.28716344 0.17408083 0.46834618 -0.14171517 -0.30898118
-0.41307867 -0.43996722 0.12029023 0.02110745 -0.1341412 -0.3641971 0.18859042 0.13751887
-0.38045546 0.27930382 0.22193734 -0.3064054 -0.36812264 -0.23256539 -0.31833407 -0.10273022
0.19810937 -0.21452321 -0.019316772 -0.23872736 -0.31199467 -0.29298332 -0.2468603 0.5174585
-0.53874487 -0.28489977 -0.013131335 -0.11039529 -0.27464426 -0.21360959 -0.004609061 0.56035596
0.22327049 0.50265837 0.17422774 0.09927212 0.42872843 -0.1690118 0.08486919 -0.19413547
-0.2426432 0.3590475 0.08902018 -0.03122188 -0.014796413 -0.2650881 -0.19059916 -0.29001752
0.008797777 -0.12537296 0.06887259 0.109776095 -0.2189279 0.13212128 0.1434443 -0.5938475
0.18898445 0.078675255 -0.20228374 -0.41713014 -0.39804053 -0.20620531 -0.224344 0.8428103
-0.10915171 0.011465481 -0.029841693 0.5793118 -0.091968425 -0.073986016 0.03115085 -0.42622834
0.4732701 0.005119414 -0.086162955 -0.1241102 0.061984513 0.042279374 0.13473111 0.2298779
0.13740857 0.2735419 -0.10658557 1.1205221 -0.08740549 0.6448701 -0.06626484 -0.21332143
-0.27646303 0.1164663 0.4600687 -0.52605605 1.0067471 0.19057627 0.1223398 0.39312267
0.12021089 -0.2659373 0.076917 0.05420777 0.12874526 -0.22694011 -0.16686137 0.58388823
0.095487386 -0.15515207 -0.026589135 -0.18777509 0.37549028 -0.002303287 -0.19609511 -0.27049515
-0.44814226 -0.22897325 0.123091325 0.034875132 -0.16803427 -0.09930934 -0.2691264 0.39948818
-0.10090828 -0.45145065 0.3803552 -0.24537948 -0.17382126 -0.063288204 -0.16586436 -0.13138452
-0.10459319 0.035873562 -0.17904012 -0.22653405 0.24968348 -0.19717406 -0.047756318 -0.08001421
-0.5347304 -0.33584008 -0.19163564 0.4029421 0.41364956 -0.26842898 -0.8610533 0.9531911
0.26579812 -0.3183595 0.67444605 0.1147132 0.10090874 -0.2232776 0.028632894 0.01427554
-0.08810324 0.0002541296 -0.23780546 0.68975824 0.19924133 -0.2025078 0.21976833 -0.04585763
-0.13330267 -0.1469653 -0.06022892 0.5007135 0.57727057 -0.08127694 -0.31000715 -0.3384365
-0.19412513 0.25563267 -0.342801 0.1310159 -0.44071725 -0.118143104 -0.0047718757 0.07182873
0.25723848 -0.010172719 -0.09137572 0.029361974 0.25145665 0.49628907 -0.1535866 -0.0024026167
-0.29318577 0.1308145 -0.34619722 -0.29711333 -0.17074604 -0.13215214 -0.011842857 -0.20409621
0.09272015 -0.0041364515 0.054000486 -0.07684472 0.51462024 0.11846603 -0.11871485 -0.04263284
0.2614571 -0.20344503 0.051815756 0.22735609 0.23243614 -0.09501792 -0.12751745 0.18043526
0.08923006 0.5162931 -0.2088419 0.0005560665 -0.19764589 0.6387081 0.0057410304 -0.25901875
-0.21782939 -0.106227316 -0.11773089 -0.26535517 -0.2577896 0.21051647 0.38501248 -0.24363394
0.016839495 -0.2579758 0.021982014 -0.03601962 -0.17033496 0.37880874 -0.06811273 0.5771082
-0.074211046 -0.050123125 -0.0769471 -0.03380167 -0.0012524589 -0.0907558 0.019886186 0.0799052
-0.05862141 0.21703097 -0.09302865 -0.2340205 -0.18378772 -0.011277212 -0.16880512 -0.08616098
00000000: 952d 40be 2bb0 4dbe a24b 603e 1607 933e
00000010: 3f42 323e 12cb ef3e c81d 11be c832 9ebe
00000020: 0c7f d3be 6243 e1be b95a f63d 88e9 ac3c
00000030: 505c 09be 0b78 babe d91d 413e bfd1 0c3e
00000040: 0fcb c2be e900 8f3e 8b43 633e 2be1 9cbe
00000050: 927a bcbe 9f25 6ebe affc a2be 3964 d2bd
00000060: 2fdd 4a3e f9ab 5bbe 353e 9ebc f274 74be
00000070: c4bd 9fbe e901 96be f2c8 7cbe 2978 043f
00000080: 2feb 09bf 62de 91be d024 57bc ed16 e2bd
00000090: 2c9e 8cbe 79bc 5abe 9b07 97bb 7d73 0f3f
000000a0: 05a1 643e 38ae 003f c268 323e 2e4f cb3d
000000b0: 4b82 db3e 6e11 2dbe e6cf ad3d 73cb 46be
000000c0: 7677 78be 13d5 b73e 3650 b63d 07c5 ffbc
000000d0: a76c 72bc a1b9 87be 6d2c 43be 2d7d 94be
000000e0: 8d24 103c c561 00be 130d 8d3d 4ad2 e03d
000000f0: a32e 60be cd4a 073e 10e3 123e 6406 18bf
00000100: 2485 413e 7e20 a13d 7823 4fbe 1592 d5be
00000110: f8cb cbbe 7c27 53be 6fba 65be 6ac2 573f
00000120: ef8a dfbd b6d9 3b3c 9176 f4bc c74d 143f
00000130: f159 bcbd fb85 97bd 1130 ff3c 9a3a dabe
00000140: 7550 f23e c2c0 a73b 3476 b0bd 7d2d febd
00000150: 79e3 7d3d 232d 2d3d f4f6 093e 1d65 6b3e
00000160: d5b4 0c3e af0d 8c3e 8949 dabd 456d 8f3f
00000170: a601 b3bd 3516 253f dcb5 87bd ef70 5abe
00000180: 908c 8dbe e285 ee3d 208e eb3e 9cab 06bf
00000190: 17dd 803f 6d26 433e 4a8d fa3d 6047 c93e
000001a0: 2131 f63d ef28 88be a986 9d3d f708 5e3d
000001b0: ccd5 033e fd62 68be b5dd 2abe b379 153f
000001c0: e48e c33d 2fe0 1ebe 75d1 d9bc 1d48 40be
000001d0: 4340 c03e bef2 16bb 28cd 48be 577e 8abe
000001e0: e772 e5be f777 6abe 4e17 fc3d 3ad9 0e3d
000001f0: 2d11 2cbe b262 cbbd efca 89be b789 cc3e
00000200: 00a9 cebd 8a24 e7be ebbd c23e c244 7bbe
00000210: 33fe 31be 3f9d 81bd 59d8 29be aa89 06be
00000220: f434 d6bd 28f0 123d 4b56 37be 8bf8 67be
00000230: 07ad 7f3e ffe7 49be 219c 43bd 7dde a3bd
00000240: 17e4 08bf 3bf3 abbe 223c 44be 6d4e ce3e
00000250: e0c9 d33e 866f 89be fd6d 5cbf 5504 743f
00000260: b116 883e 0400 a3be 7fa8 2c3f c1ee ea3d
00000270: 3ea9 ce3d e2a2 64be 888f ea3c f4e3 693c
00000280: 796f b4bd b33c 8539 4683 73be ff93 303f
00000290: eb05 4c3e 345e 4fbe f30a 613e 36d5 3bbd
000002a0: 7f80 08be 127e 16be 9ab2 76bd c32e 003f
000002b0: 01c8 133f 8674 a6bd 42b9 9ebe 8d47 adbe
000002c0: bdc8 46be 49e2 823e 9d83 afbe 0829 063e
000002d0: b1a5 e1be 03f5 f1bd 655d 9cbb f11a 933d
000002e0: c3b4 833e 7aab 26bc 3223 bbbd 8688 f03c
000002f0: edbe 803e 9a19 fe3e ce45 1dbe 3875 1dbb
00000300: 721c 96be 3cf4 053e c340 b1be 3d1f 98be
00000310: 0dd8 2ebe e452 07be 8b08 42bc 99fe 50be
00000320: 10e4 bd3d 128b 87bb 9d2f 5d3d c460 9dbd
00000330: 27be 033f 519e f23d c520 f3bd c69f 2ebd
00000340: b4dd 853e e553 50be c23c 543d 09d0 683e
00000350: bd03 6e3e c198 c2bd ef93 02be 05c4 383e
00000360: 40be b63d c92b 043f a7da 55be fec4 113a
00000370: af63 4abe 6082 233f 411f bc3b 1b9e 84be
00000380: ab0e 5fbe b58d d9bd e51c f1bd a2dc 87be
00000390: 00fd 83be a191 573e 5b20 c53e 2d7b 79be
000003a0: fbf2 893c 6715 84be a013 b43c 4f89 13bd
000003b0: 4a6c 2ebe 38f3 c13e b07e 8bbd 5dbd 133f
000003c0: f6fb 97bd e84d 4dbd 7196 9dbd 9f73 0abd
000003d0: 8c29 a4ba 2dde b9bd 5be8 a23c 56a5 a33d
000003e0: 011d 70bd 5e3d 5e3e ce85 bebd 12a3 6fbe
000003f0: d932 3cbe 0ec4 38bc 40db 2cbe 2b75 b0bd

fc3.bias f4 [10]
-0.51012635 -0.37382266 0.07138227 0.6051555 0.73346204 -0.5852073 0.54344314 -0.55663615
0.3513153 -0.23816364
00000000: a497 02bf af65 bfbe de30 923d 79eb 1a3f
00000010: 2bc4 3b3f 25d0 15bf 171f 0b3f b57f 0ebf
00000020: 99df b33e 2be1 73be
