round2/2025-04-18 18:23:19-weight-client-b8e76fc7-8.pth (torch, 252478 bytes, 10 tensors)

conv1.weight f4 [6, 3, 5, 5]
00000000: 6712 00bf 7c90 edbe 873c b03e 2ffc 2b3e
00000010: d775 e73d b9ee 89be 6514 2dbe e3ed eb3e
00000020: 6643 973e 3d11 7d3e 0f27 21be 9633 12be
00000030: f490 ce3e 4fd2 a73e dd48 893e 1b3c 7b3e
00000040: 131c c339 49a9 243f c567 293f e2f8 b63e
00000050: d3a1 a83e 10ec d93e 873a 2f3f 930b 263f
00000060: a7f1 1b3f a244 b03c 5c4c 373e f12a 723f
00000070: 9d66 623f 37b9 573f af59 d13e 8c4d 423f
00000080: d16a a83f 3024 963f f48f 8f3f ddab 103f
00000090: ea04 213f 46f8 9b3f 5362 a23f 4424 8e3f
000000a0: fd34 403f e086 373f 9280 b03f dfca a43f
000000b0: 17a1 883f 4de6 343f 038c 6f3f 5c8f ac3f
000000c0: 328b a73f 02bb 933f 0299 a1bf 5db1 5bbf
000000d0: f387 46be 854a e3be c18d d3be 4dcf 65bf
000000e0: e277 15bf 2094 54be 3e0e 7ebe f351 e3be
000000f0: 64f6 61bf d72c 42bf 600f acbe 5eb4 c7be
00000100: 7119 ebbe 79db 3dbf 191b 4fbf ccb1 86be
00000110: 326a 9bbe 401d 0dbf 27e2 50bf 19ba 1dbf
00000120: a4c3 88be 9a9f d9be 9c5a 0fbf 238b 343e
00000130: 778c d9bd ee10 413e 5957 ae3d 3b23 5b3d
00000140: 249c 843d 50ed 85be f96c b53d d2e2 033e
00000150: 4004 60bd e1d5 c0bd 6a97 95be cc61 853d
00000160: f9bb 8c3e 13bf 20be f145 7bbd d057 8f3d
00000170: 253f 50bd fcee 4f3d ff75 edbd 0470 fdbd
00000180: 527c 7e3d de62 34bb 0f28 3b3c aefe 0f3c
00000190: c6c5 893e c4a4 0e3e b325 b23e 0b04 db3e
000001a0: 06aa 9f3e 3998 513e 451f b43d 2d22 923e
000001b0: 3e81 163f e3da 4f3e 66fc 3a3e aa3e 9a3d
000001c0: a280 e33e 660d 1b3f 0854 223e 6a56 4f3e
000001d0: 8d4e 7e3e 997e 8f3e 1d80 af3e 5d3a 083e
000001e0: 1fc6 123c b212 a63e caed 703e 654b b63e
000001f0: 1d86 4a3e 5718 b6be 07fb 08bf 90fb 87be
00000200: a868 0ebe ac14 a2be dda9 aabe 2b69 20bf
00000210: ff77 24be 91cb 4dbe 034a d4be 4f80 dcbe
00000220: 5b56 0bbf 3e3b a3be 865f afbd f306 f8be
00000230: 41e8 fbbe 4cdc cbbe 90fa f2be 0316 b3be
00000240: bb59 06bf 7ec3 11bf 4523 d7be 0e04 d0be
00000250: 7c08 b4be 98fa e0be 518b 29bd d1b6 9f3c
00000260: 2986 693d f8f1 8fbc 2668 6abd 1b6d ebbc
00000270: e175 80bd 9aa6 debc 4392 293d acce a5bd
00000280: 30ee 86be 23e0 6fbe 199c 9dbe 4628 78be
00000290: 791a b8bd 5738 b1be fd10 25bf 10fb 31bf
000002a0: 8f96 0cbf 5bfa b4be 27cb d3be e972 0abf
000002b0: 404b 2dbf 9b43 f8be 6461 9dbe fa5f 3c3d
000002c0: cb54 833e 64c6 a73e 0cfd de3d dc4d 523d
000002d0: c7d7 c03d 7146 153e 9c7f 683e 9096 4a3d
000002e0: 18cb 49bd 6e7e 64be f6c8 48be 5944 46be
000002f0: ae34 63be fb46 58be bd52 02bf 3efc 13bf
00000300: 2f13 13bf ad8f 01bf df12 a7be 9681 f2be
00000310: 5324 13bf 297d febe a5b8 ebbe 5b76 a0be
00000320: 4547 213f 3661 383f 90ee 383f b359 3d3f
00000330: 9c3b c43e 794a 0b3f c312 213f f692 243f
00000340: 984d 173f 0cc8 d93e da37 f13e ed81 b23e
00000350: 87bd ba3e d13e b53e 9628 8d3e 5c6f 8cbd
00000360: 1237 ccbd 9b5c 1cbd 20be 023c 5e96 143e
00000370: e5c9 a13d d310 7ebd 3149 d2bc 5e57 963c
00000380: b0b8 db3c 185b 7dbf e110 45bf 9ee2 12bf
00000390: a6df 43bf 6c60 60bf a6c5 d1be 5236 07be
000003a0: 1b7e 19be de2a 6cbe 213f 53be b8fc d8bd
000003b0: c6f4 d5bd db10 e83d be48 943d b6a1 03bd
000003c0: 218e f8bd 5ed1 2ebe b3c5 1ebd fd0b 713e
000003d0: c202 f23d e671 c4bd d02b 12be b918 0fbe
000003e0: 824a a53d bb63 973d 5352 45bf ee6b 97be
000003f0: 0a2c 4ebe dc61 86be 6031 10bf 562b 2fbd
-0.5002808 -0.46399295 0.3442118 0.16795419 0.11301773 -0.26939943 -0.16902311 0.4607993
0.29543608 0.24713607 -0.15737556 -0.14277491 0.40344965 0.3277764 0.26813403 0.24534647
0.00037214215 0.6432081 0.66173965 0.35736758 0.32935962 0.42562914 0.6844868 0.6486141
0.6091561 0.021517102 0.17900223 0.94596773 0.88437825 0.8426699 0.40888736 0.7589958
1.3157598 1.1729794 1.1215806 0.5651224 0.62898123 1.2185142 1.2686256 1.1104817
0.75080854 0.7169018 1.3789237 1.2874411 1.0674161 0.7066391 0.93573016 1.348125
1.3089354 1.1541445 -1.2624819 -0.8581751 -0.19387798 -0.4439279 -0.41319087 -0.8976944
-0.5838605 -0.2075963 -0.2481012 -0.4439846 -0.8826659 -0.7584967 -0.3360548 -0.39004797
-0.45917848 -0.74163014 -0.8090072 -0.26307523 -0.30354458 -0.55122757 -0.8159508 -0.6161209
-0.26711762 -0.4250458 -0.55997634 0.17631201 -0.10622495 0.18854114 0.08512754 0.053500395
0.06475094 -0.26157618 0.088586755 0.12879494 -0.054691553 -0.09415794 -0.29217082 0.06512794
0.27487162 -0.15697889 -0.061346 0.06999171 -0.05084147 0.050765023 -0.115947716 -0.12374881
0.06213028 -0.002752475 0.011423125 0.008788748 0.26908702 0.1393004 0.34794387 0.42776522
0.31184405 0.20468225 0.08795027 0.285417 0.5879096 0.20298342 0.18260345 0.075314835
0.44434077 0.6056732 0.15852368 0.20247808 0.24834652 0.28026274 0.3427743 0.13303514
0.008958369 0.32436138 0.2352821 0.35604396 0.19777723 -0.35565445 -0.5350804 -0.26559114
-0.1390711 -0.31656396 -0.3333272 -0.62660474 -0.160614 -0.20097186 -0.41462716 -0.43066642
-0.54428643 -0.31881136 -0.085631415 -0.48442802 -0.49200633 -0.3981651 -0.4745679 -0.3497773
-0.5248067 -0.5693892 -0.42019096 -0.40628093 -0.35162723 -0.43941188 -0.041392628 0.019496353
0.05701271 -0.017571434 -0.05722823 -0.028738549 -0.062724836 -0.027179051 0.04139925 -0.0809606
-0.26353598 -0.23425345 -0.30783156 -0.24234113 -0.08989424 -0.34613296 -0.6447905 -0.69523716
-0.54917234 -0.35347256 -0.4136593 -0.5408159 -0.6769295 -0.4848908 -0.30738366 0.045989968
0.2565063 0.32768548 0.108881086 0.051343784 0.09416156 0.14577653 0.22704929 0.049459994
-0.04926595 -0.22313854 -0.1960791 -0.1936201 -0.22188064 -0.21120827 -0.509075 -0.57806766
-0.57451147 -0.50609857 -0.32631585 -0.4736449 -0.574773 -0.49704865 -0.4603931 -0.31340298
0.62999374 0.7202333 0.7223902 0.73964995 0.38326728 0.5441051 0.62919253 0.64286745
0.59102774 0.42535436 0.47112924 0.3486475 0.36472723 0.35399488 0.27570027 -0.068571776
-0.09971441 -0.038174253 0.0079799 0.14510486 0.078998365 -0.062027764 -0.025669666 0.018352207
0.026821464 -0.98967123 -0.7697888 -0.5737704 -0.76513135 -0.8764713 -0.40971106 -0.13204315
-0.14989512 -0.23063228 -0.2062955 -0.10595077 -0.104470775 0.1133134 0.07240437 -0.03213664
-0.12136484 -0.17072055 -0.03876276 0.2353973 0.11816932 -0.09592037 -0.14274526 -0.13974275
0.08070852 0.07392069 -0.7707874 -0.2957453 -0.20133987 -0.26246536 -0.5632534 -0.042765938

conv1.bias f4 [6]
00000000: 1abf 3ebf 6c8c 5f3e 3b36 18bf 17b2 97c0
00000010: 7527 64bf a051 833f
-0.7451035 0.2183091 -0.5945775 -4.7404895 -0.89122707 1.0259285

conv2.weight f4 [16, 6, 5, 5]
00000000: 0602 0cbe 8919 2ebe 4715 7ebe a69e 8bbe
00000010: dc3c b0be ff37 cdbd 5085 5fbe a838 56be
00000020: 1c3e 20be 2f8d 75be 3dbd 06be 13c3 13be
00000030: bdd6 1ebd cb6e 11bd d8a7 95bd c773 b13d
00000040: 346c 6b3d a931 0c3d d873 763c 4661 f3bc
00000050: 0bde f83c ff5d a73c a689 803d 4707 153c
00000060: a04a 153d 1c90 bebc a10a 8c3c 7315 f23d
00000070: 7e53 e73d 1655 d53d c9fc 683b ecee 503c
00000080: ef80 883d c0c9 b43c 37fa 60bc 5486 67bd
00000090: 6b7c 6bbc b24b 86bd 08bb 49bd a46f 08bd
000000a0: e526 a0bb e9bf b63c d7cf b33d 02af 553d
000000b0: 3ef2 1e3e e1c9 c53d 164a 1b3e 3bb8 053e
000000c0: 5872 323d 8ac3 f23d e78d c2bd 6dcb 4cbd
000000d0: 5f56 77bd c7cc 9c3c 6aba 433d 4f9a bebd
000000e0: 855e 13bc 7e77 9bbc 5460 2d3b 8050 5c3d
000000f0: ac59 af3c a1f6 0c3c 9ec3 843d f468 a73c
00000100: c757 08bd 0cb2 9fbc 80e7 123c e1fe 543d
00000110: 382a 1b3b 11b6 09bd e118 293d 2c0a d03d
00000120: 400b 333e 03ee 413d 8645 94bd 9637 a43d
00000130: 10c5 d8bd fc28 adbd 3dd7 0d3b e7de e03d
00000140: 1b00 fdbd 7a52 9cbd 7223 97bd 7b71 183d
00000150: e5a1 4a3e a77e 79be dfbc 64be a394 45be
00000160: 27a8 80bd 1078 90bd a708 7cbc 55cb 87bd
00000170: 92a7 01be 89ef cfbd 375a 893d 7576 b13d
00000180: 0bd5 18bc 87b9 64bc a95b 063d 2b82 613e
00000190: a89f c4bd 579a 31be 4fe3 74be 5a3b 5bbe
000001a0: 7d78 5ebe 32a2 28be 2676 5ebe a991 4cbe
000001b0: b43f 1bbe 8804 17be c038 adbd 5f71 12be
000001c0: 6f18 45bc a3ac 993c 6e12 2abd d085 f73d
000001d0: 0a93 2a3e c0b3 eb3d ae9e a43d 6d7e 2e3e
000001e0: fda8 853e 3209 433e 88d2 463e 2d76 1a3e
000001f0: e0b8 483e 85f6 01be e9ef 47bd f671 8e3c
00000200: 8467 68bd 469d c0bd 5c59 653d 0818 bc3d
00000210: f912 30bb 37b6 df3c 4398 2c3d eac7 473d
00000220: 42dd c43c d730 4b3c a89a a83c 943f 393d
00000230: a4e2 4cbe cdab 2abe 9700 38be 718c 1bbe
00000240: a287 8abd 1c88 e4bd a6ca 8fbd a17f 1abe
00000250: bbf8 f2bd 6ff0 99bd 3e46 a43d 5b8f 1e3e
00000260: 6e0f 923e 7876 5d3d 9477 fcbe 2c78 953d
00000270: a468 963c 82c8 9c3e 92fe 6a3d cfa4 1bbf
00000280: 6334 fcbd 7020 d2bc 3893 953e 21e0 16bc
00000290: 09ff 43bf 835d 35be b59b 59bc 54d3 533e
000002a0: 26e9 1cbe ec02 19bf fb71 58be 01f9 80bd
000002b0: 1e6c 5dbd efaa b6be 8f6c 05bf b273 c43d
000002c0: 1866 8bbd 9d39 c5bd f98a 1cbe eb06 9dbe
000002d0: 2fd2 bc3d ff4a a63d fa5c 9e3d 3345 bdbd
000002e0: 8f00 86be 8e8f 953d f122 c03b 79c3 743d
000002f0: 1b75 abbd c5d9 95be 1fcb c43d 6538 6e3d
00000300: 8b33 9dbc 831a 7fbd 2967 0dbe cb47 523c
00000310: d34e 64bd 3f6a cbbd 7a2b 2ebe 40d9 58be
00000320: 3b20 3ebe 15b9 0cbe cabb 7ebe bbe3 5cbe
00000330: 2dde 69be 841d 04be c354 2ebe 80ec 77be
00000340: 0684 95be f117 9abe f1b8 2dbe df11 09be
00000350: ffac 3abe 406e e0bd d89d 88bd 98ca 7dbd
00000360: a2b8 f43c b003 c8bd 57e5 793c 5fa6 c73d
00000370: e310 80be 5e16 6fbe fb04 64be 6ef6 18be
00000380: 161d f6bc 3ae6 a3bf a1f1 9abf 705c dcbe
00000390: 17a6 2b3f 5e92 803f 1f9a b1bf 2279 aabf
000003a0: 43b1 a0be 3cb0 6f3f 77f1 9a3f c9df b0bf
000003b0: a2df b0bf 6fa6 0fbf a3f7 4f3f d6b0 893f
000003c0: 5eed a7bf 30bb 92bf 5296 b3be 1b23 2f3f
000003d0: a43d 893f d372 8bbf b876 3ebf 0eac e2bd
000003e0: d2b7 df3e dec5 453f 32dc 123d f505 4e3d
000003f0: cb32 5dbe 670d 7bbe 2c2e b3be 44e7 3a3e
-0.13672647 -0.17001928 -0.24812804 -0.27269477 -0.34421432 -0.10020446 -0.21828198 -0.2092005
-0.15648693 -0.23979639 -0.13158126 -0.14429884 -0.03877901 -0.03550605 -0.07307404 0.08664661
0.057476237 0.034227047 0.015042268 -0.02970947 0.030379316 0.020430563 0.06276254 0.009095973
0.03644812 -0.023262076 0.017094912 0.11820497 0.11295222 0.104166195 0.0035551062 0.012752276
0.06665217 0.022068858 -0.013731531 -0.05652459 -0.014372925 -0.065574065 -0.049250633 -0.033309594
-0.004887449 0.022308307 0.08779877 0.052168854 0.15522096 0.09657646 0.1516498 0.1305856
0.043566078 0.11853702 -0.09499722 -0.04999869 -0.060385104 0.019140614 0.0477852 -0.09306776
-0.008994703 -0.018977877 0.002645512 0.05378771 0.021405064 0.008603723 0.064826235 0.020435788
-0.033286836 -0.019494079 0.008966327 0.052000884 0.0023676287 -0.033620898 0.041283492 0.1015819
0.1748476 0.047346126 -0.07239823 0.08018415 -0.10584462 -0.08455083 0.0021643185 0.10980015
-0.12353536 -0.07632919 -0.073798075 0.0372176 0.1978832 -0.2436472 -0.22337674 -0.19294982
-0.062820725 -0.0705415 -0.015382922 -0.066305794 -0.12661579 -0.101531096 0.0670666 0.08665172
-0.009328137 -0.013960249 0.032802258 0.22022311 -0.096007645 -0.17344032 -0.23914836 -0.2140936
-0.2172565 -0.16468123 -0.21724758 -0.1997744 -0.1516102 -0.14747822 -0.0845809 -0.1430106
-0.012029751 0.018759077 -0.041521482 0.120860696 0.16657653 0.11508894 0.08038078 0.17040415
0.2610549 0.19046476 0.19416249 0.15084143 0.19601774 -0.12691696 -0.04881278 0.017388325
-0.056739345 -0.094049975 0.055993423 0.09184271 -0.0026866777 0.027308566 0.042137396 0.048774637
0.024031285 0.012401781 0.020581558 0.04522665 -0.20008332 -0.166671 -0.17968975 -0.15190293
-0.06764151 -0.11158773 -0.07021074 -0.15087749 -0.11863848 -0.07516562 0.0802121 0.15484373
0.28527397 0.05406806 -0.4930998 0.072983116 0.018360443 0.30621725 0.057371683 -0.6079835
-0.123146795 -0.025650233 0.29213881 -0.00920871 -0.7656103 -0.17711453 -0.013281752 0.20686084
-0.15323314 -0.59770083 -0.2113723 -0.06297494 -0.054058187 -0.35677287 -0.5211877 0.0959238
-0.06806582 -0.096301295 -0.15287389 -0.3066934 0.09219777 0.08119773 0.077325776 -0.09241714
-0.261723 0.073027715 0.0058635403 0.05975673 -0.083719455 -0.29267707 0.09609055 0.05815925
-0.019189617 -0.062281143 -0.13808884 0.0128345 -0.055739235 -0.09932374 -0.17008772 -0.21176624
-0.18566982 -0.13742478 -0.24876323 -0.21571247 -0.2283866 -0.12901884 -0.17024522 -0.24211311
-0.29202288 -0.3009639 -0.16965081 -0.13385724 -0.18230055 -0.109585285 -0.06670731 -0.061960787
0.029873196 -0.09766328 0.015252433 0.0974853 -0.25012884 -0.23348376 -0.22267525 -0.14937755
-0.030043166 -1.2804635 -1.2104989 -0.43039274 0.6705031 1.0044668 -1.3875159 -1.3318217
-0.3138524 0.9362829 1.2104939 -1.3818294 -1.3818247 -0.5611333 0.8123724 1.0757091
-1.3119314 -1.1463375 -0.35075623 0.6841294 1.0721936 -1.0894417 -0.743999 -0.11067973
0.4369493 0.77255046 0.035854526 0.05029865 -0.21601407 -0.24516831 -0.34996164 0.18252283

conv2.bias f4 [16]
00000000: db03 a6bd c221 20be f9e2 36be b8f8 7abd
00000010: b75e 6bbe 3d57 36be 646c 0a3d 3a4f 54be
00000020: 617c acbe 7d4a 86be d525 c4bd 8bd3 d6bc
00000030: bc3f fcbe de38 c73e 41bc 6cbd 7525 09bd
-0.08106204 -0.15637878 -0.1786002 -0.061272353 -0.2298535 -0.17806716 0.033794776 -0.20733348
-0.33688644 -0.26228705 -0.095775284 -0.026223918 -0.49267375 0.38910574 -0.05779672 -0.033482987

fc1.weight f4 [120, 400]
00000000: 390a b7bc ee55 19bd 5263 bcb9 cdaa 1a3d
00000010: c030 b7ba 3d6c a33a 1b11 aebd dd02 02bc
00000020: 4b38 c9bc 3ec3 943c 94fa 24bd 6993 21bd
00000030: 8776 583c 6a2a d2bc 4043 1b3c 8673 89bd
00000040: 2e42 14bd 82c2 6cbc 4f29 ef3c 1156 6b3d
00000050: da08 853b b6dd 543d e359 9b3d 5c6c 52bc
00000060: 6f93 1d3d f062 c23c 3382 14be 7d95 26be
00000070: 28d9 c3bd 9bb0 71be da55 47bc 7e26 0bbe
00000080: edbd ecbd a03b 1abe 22a3 39be d980 d2bd
00000090: a150 cabd 1edf af3d 4491 80bc 3a67 3dbe
000000a0: 8716 fdbc 1653 7c3d d8d2 ba3d 23d6 443d
000000b0: 7838 35be 7999 a0bd de33 b33b 5ff0 38bd
000000c0: bde4 073d a936 fbbd fbf3 02be a0b9 f2bd
000000d0: a6dd adbe f6d1 4bbe aefa 3fbe 0319 96bd
000000e0: 8630 383c c537 47bd e35f 7ebc 0ec8 f4bc
000000f0: 8bf3 f83d 2468 153e e8d7 c93d 1067 e63c
00000100: a86c 0ebe c8e6 6a3e ef4c 493e b66f bb3e
00000110: 48ff d13d 29db a3bd 3bb1 0c3e 0dfe 533e
00000120: de54 ce3e a010 593e 64ca 98bd bf4d d8bd
00000130: 2d26 e5bd 3f6b 0cbe 0ca2 3bbd 6145 a5bd
00000140: 4b55 7bbc 623b 18bd 6585 66bd 3b59 f53c
00000150: 5a75 0abd 22a6 0e3e 1f12 c43d 7db2 aa3d
00000160: c548 4f3d 1e73 95bc bb3b 2a3e 7060 043e
00000170: 0515 f53d eb78 cc3d 4a6e 1d3e a5a7 093e
00000180: ce99 a83d 1995 e33d 22ac 2f3e fda0 6a3e
00000190: 8be8 3dbe cf75 efbd ab84 8cbd abd3 40bd
000001a0: cd2f 8d3d b945 c4bd 12e2 18be 3438 29be
000001b0: d2fd a8bd d3e4 dc3b 6200 a8bd 1ef5 2bbd
000001c0: 7d06 29be d738 c6bd 9842 98bd 9313 8cb9
000001d0: ccbe 123d cc39 333c 47c8 a13d ece8 f9ba
000001e0: 0e4d 083e b40f 323e 2def c63d 8506 343e
000001f0: 7f1d b13d 9398 20bc 913a 5ebc 7dc6 94bd
00000200: 5bc8 7cbd ab5d c8bd 826a ee3c 8a37 223d
00000210: 0c56 c53c f420 72bd 1589 c8bd 096a 25bd
00000220: 0a40 423c 696e c53d 44ad d23c a049 4bbd
00000230: a608 23bd a372 cbbd bc0e 8e3d 49bb 05bc
00000240: f0b2 b6bc e4c7 f63b d960 0e3a 79a3 edbc
00000250: 5e0f 89bd 4ee2 d3bb 7c95 4ebc 3423 8a3a
00000260: 060f 4b3d c24c ba3d bbe3 743d adae ccbb
00000270: bcbd 7d3d 3b97 b93d f857 8b3d 6d58 723d
00000280: 0b90 08bb 0376 783d 69f2 083d 88cb 553c
00000290: 555f 4a3d 9bbf 5b3d 29a8 2dbc a7d0 b6bc
000002a0: 95ed 3f3b 3417 963d 89a2 df3c dbe8 dbbb
000002b0: bac1 5b3c 77fe 1dbd b4eb de3d e4af 48be
000002c0: db0e ebbd 3536 f7bd cf37 92bd 5eee ecbd
000002d0: 139e e3bd b627 12bd a565 83bc 37c5 02bd
000002e0: 6879 f0bd e590 0ebd e038 eb3d 75aa 3dbc
000002f0: 0e61 8fbd 7562 18be caeb 75bd 2eb5 bc3c
00000300: ddc8 aa3d 4f82 253e 9e00 3c3d b163 953c
00000310: db36 2c3d 105f 01bd c661 58bd 92d1 98bc
00000320: 530f 9bbc ea9d 973c c000 5cbc e7a8 df3c
00000330: 96d2 7abd 81ea babd 5826 4e3c 0707 353d
00000340: ce0d 373d d7af 853d b697 8fbd 6bad 87bd
00000350: 4127 1ebb fbb0 7e3d 218c 163d e4ae f93c
00000360: 8b43 0b3d 91bc 07bd 4aea 79bd 3de4 9bbc
00000370: dde6 88bb aacc cf3d 7a27 3b3d cce8 cfbb
00000380: ccde 7fbb 83cb 3ebe 814e 61be 1459 35be
00000390: cb54 d4bd c301 babc 4669 af3d abdd f43d
000003a0: 57c8 8d3d 68a8 e63d e8af 6a3d 3708 9d3e
000003b0: 3630 563e 692d 573d 6715 10b9 ace5 baba
000003c0: b137 643e 4b7b b63d ceea c43c 8469 d43d
000003d0: da0c 273e d569 313d 33c2 f23d b556 4d3e
000003e0: dd72 3b3e 7c83 f13d 08df 223d 06e0 833c
000003f0: 2b23 ba3d 953e 213a 7db9 c9bc 01ed 883c
-0.022343742 -0.037435465 -0.00035932154 0.037760545 -0.0013976321 0.0012468171 -0.08499356 -0.007935253
-0.024562975 0.018159505 -0.040278032 -0.039447222 0.013211853 -0.02565499 0.009476483 -0.067114875
-0.036195926 -0.014450671 0.029194502 0.057455126 0.004059893 0.051969253 0.07585504 -0.012843218
0.03847068 0.023728818 -0.14502792 -0.16267963 -0.09562904 -0.23602526 -0.012166465 -0.13588902
-0.11559663 -0.15061808 -0.18128636 -0.10278482 -0.0987866 0.08587478 -0.015694268 -0.18496409
-0.030894531 0.061602674 0.091222465 0.04805578 -0.17697322 -0.078417726 0.0054688295 -0.04515111
0.033177126 -0.12266285 -0.12788384 -0.118518114 -0.33958167 -0.19904312 -0.1874797 -0.07328989
0.011242038 -0.04863717 -0.015525791 -0.02988055 0.12155827 0.14590508 0.09855634 0.028125316
-0.13908637 0.22939599 0.19658254 0.36608666 0.10253769 -0.08000786 0.13739483 0.20702381
0.40299124 0.21197748 -0.07460478 -0.10561704 -0.11188922 -0.13712786 -0.045808837 -0.080698736
-0.01534016 -0.037166007 -0.05627956 0.029949775 -0.03380332 0.13930562 0.09573769 0.08334825
0.050606508 -0.018243369 0.16624348 0.12927413 0.119669 0.09984001 0.15374103 0.13442858
0.08232461 0.111124225 0.17155507 0.22912975 -0.1854574 -0.11692392 -0.06861242 -0.047076862
0.06893883 -0.09583611 -0.14929989 -0.16525346 -0.082515374 0.006741145 -0.08203198 -0.04198181
-0.16506381 -0.0967881 -0.07434577 -0.00026717465 0.03582649 0.010939073 0.07899528 -0.0019066609
0.13310644 0.17388803 0.09713588 0.17580612 0.08648204 -0.0098020015 -0.013563768 -0.07264421
-0.06171451 -0.09783491 0.029103521 0.039603747 0.024088882 -0.059113458 -0.09791771 -0.040384326
0.011856088 0.096402 0.025717385 -0.04963076 -0.03980317 -0.099339746 0.06936404 -0.008162328
-0.02230212 0.007531153 0.00054313015 -0.029008614 -0.06692384 -0.0064661866 -0.012608882 0.0010539056
0.049574874 0.09096672 0.059787493 -0.006246409 0.061948523 0.09062048 0.06803888 0.05916636
-0.002083781 0.06065942 0.033434305 0.013049014 0.049407322 0.053649526 -0.010599175 -0.02231629
0.0029285897 0.073286444 0.027299182 -0.006711108 0.013412887 -0.038572755 0.108848006 -0.19598347
-0.11477443 -0.12070886 -0.07139551 -0.115689024 -0.11114135 -0.035682403 -0.016039679 -0.03192636
-0.117419064 -0.03480615 0.114854574 -0.011576285 -0.070009336 -0.14881308 -0.06003932 0.023035612
0.08339093 0.1616299 0.045899026 0.018236013 0.0420445 -0.0315848 -0.05282762 -0.018654618
-0.018928206 0.018507916 -0.013427913 0.027302219 -0.061235987 -0.09126759 0.012582384 0.044196155
0.0446909 0.065276794 -0.070113584 -0.06624874 -0.0024132284 0.0621805 0.03675473 0.030478902
0.03399996 -0.033138815 -0.06101445 -0.01902973 -0.0041779117 0.101464584 0.045691945 -0.00634489
-0.003904271 -0.18632321 -0.22002603 -0.17709762 -0.103677355 -0.022705918 0.08565001 0.11956342
0.069229774 0.1126259 0.057296664 0.3067033 0.20916829 0.05253354 -0.00013740883 -0.0014259121
0.2228687 0.08910235 0.024037745 0.10371688 0.16313496 0.04331382 0.11853447 0.20052607
0.18305536 0.11792657 0.03976348 0.016098034 0.09088739 0.0006150988 -0.02462458 0.016714575

fc1.bias f4 [120]
00000000: 0e30 033e 54f2 ad3c 6e3a ebbc 7300 e63c
00000010: 6ea5 7bbc 8bdc 12bc c978 e1bd 0b9e ca3d
00000020: 7f5f 97bc 55b6 013d cb63 08bd d567 cebd
00000030: 8c05 f0bc aa83 a8bd 3e7e bc3c 0a3b 8abd
00000040: 4434 91bc bc20 f9bc b95f a6bd efed 8a3d
00000050: f602 9c3d 29ea 28bd 7eba da3c 026e 083e
00000060: 102f 133e b9b8 a13c eb1d 84bd 6faa ecbc
00000070: 0207 10be b938 9e3c 141b 3bbd a59e f3bc
00000080: 2ae1 58bd e9ca aabd a517 dabd 12e1 ad3d
00000090: 9602 be3c 2aa4 92bd a049 d9bc 30e7 293d
000000a0: 757e 96bd 3add 94bd fb41 6fbd 802b 50bd
000000b0: cef5 c23d ce49 23bd 4909 7fbd dc6c 31bd
000000c0: 03fb b7bd bd72 19be dfbd c23d b41c e63d
000000d0: 31eb 97bc badb fabd 8e3b 253d 3d42 be3c
000000e0: 45a2 c8bc 1d25 85bd 43b3 93bc 6b27 8abb
000000f0: af91 673d 13af 9cbd 27cf 03bd bfae c33d
00000100: 83b8 10bb 6d56 cdbc 8cdb eabc 676c af3c
00000110: 5126 df3d 3aec 853d cfa2 1fbd d3ba 7c3d
00000120: 15c1 943d 36ec 473e 807c cf3c a480 52bd
00000130: c5f3 0e3d 7e79 7b3d da1f 8abc 79f0 dabd
00000140: 5d66 edbc 2151 663c 4256 5b3d 1b19 acbd
00000150: fbb6 a1bd 39f9 da3c da7d 413d b876 c4bd
00000160: 23d9 373d 8d69 193d 3b67 233d e7d5 bbbd
00000170: 362d 5e3d 78f1 1b3e 2776 80bd 88c3 b93b
00000180: 8913 2e3e 5422 18bd 4a92 1f3d 468b c9bd
00000190: 2901 35be ae99 9bbc 2fe5 e53c e976 9dbc
000001a0: 3441 ab3c fdcc 32bd 7b6a 283c e49b ac3d
000001b0: 807c 833c b317 d23d 0601 adbd 2de7 763b
000001c0: fbd1 cc3c 4268 bfbd d11e 89bd dc19 78bd
000001d0: e30e ebbd db68 af3d 89ce 04bd 67e9 c0bc
0.128113 0.021233715 -0.028714385 0.028076386 -0.015359266 -0.008963714 -0.11009366 0.098934256
-0.018478153 0.031668026 -0.033298295 -0.10078398 -0.02929952 -0.08228238 0.023009416 -0.06749542
-0.017725118 -0.030411117 -0.081237264 0.067836635 0.07617752 -0.041238938 0.026700255 0.13323215
0.14373422 0.019741403 -0.06451019 -0.028889863 -0.14065173 0.019314157 -0.04568012 -0.029738734
-0.05294911 -0.08339483 -0.10649041 0.084901944 0.023194592 -0.07160218 -0.026524365 0.041480243
-0.073483385 -0.07268758 -0.058412533 -0.050822735 0.0951954 -0.039865308 -0.062264714 -0.043316707
-0.089834236 -0.14985175 0.09508871 0.112359434 -0.018544765 -0.12248941 0.04034 0.023224944
-0.024491439 -0.065012194 -0.018029815 -0.004216125 0.05653542 -0.0765058 -0.032179978 0.095548145
-0.0022082634 -0.025065625 -0.028669141 0.021413995 0.1089598 0.06539197 -0.038973626 0.061701607
0.0726339 0.19523701 0.02532792 -0.051392213 0.034900445 0.06139516 -0.016860891 -0.10690398
-0.028979475 0.014057429 0.05354906 -0.08403226 -0.07896229 0.026730167 0.047239162 -0.09592956
0.044884812 0.037454177 0.03989337 -0.09171658 0.054242335 0.15228832 -0.06272536 0.005669061
0.1699964 -0.037142113 0.03895787 -0.098410174 -0.17676224 -0.018994179 0.028063385 -0.01922174
0.020905115 -0.043652523 0.010279293 0.08428171 0.016050577 0.102584265 -0.08447461 0.0037674413
0.02500247 -0.093460575 -0.06695331 -0.060571536 -0.11477449 0.085649215 -0.03242353 -0.023548795

fc2.weight f4 [84, 120]
00000000: 8af4 81be 8926 b7be b2fa 0fbe 4b2a e53e
00000010: 39b2 473c e6a3 f5bc cf89 efbd 7e9b 15be
00000020: 9f2a 013d baa3 0bbe ec5e 90be 4599 a1be
00000030: 2490 843c 96d2 833d a3a4 b9bd 94f4 6e3e
00000040: 6b04 d0bd 0c5b c23d fabc 3abe 5678 8fbe
00000050: 451a fdbe 0654 40be c393 dabe 51b9 8bbe
00000060: 6c22 613d 9ee0 acbd ae64 b0be f543 8fbd
00000070: 2d19 7b3e 61cb 35be 600c c03e b4e3 e63d
00000080: 49fb 44bd 588a be3d e84a f43d 4523 0dbe
00000090: af4c 233d f574 db3c f215 94bd 3cbe 04bd
000000a0: 4f6f 013e b9b5 9a3d 5391 b83d e8ff 33bd
000000b0: 6fb0 bcbe 3950 08be 80c5 a33e 8316 f7bd
000000c0: 9256 2b3e 7fcc 3cbc f105 033e 320a 45be
000000d0: 3714 22be a5ee 81be 4781 9a3d 7afe 703e
000000e0: 1119 a3bc f9d4 873e c0c2 123e e451 8f3d
000000f0: fce8 1dbe a5f1 adbd 7f2b 17bd 3db5 67be
00000100: 0195 83bd 974d 64be b9f9 fcbc 2f57 7bbe
00000110: a7fb c1bd 092a 733d 6eed aabc 2f24 1ebe
00000120: 3175 98bd 5577 f2bd f6cc 08bd cb4e 2bbe
00000130: cca7 d2bd cb95 d0bc 7ba5 0dbe 5958 c0bc
00000140: 55dd d4bc 2530 25bd 0258 9bbe 5691 70bc
00000150: e4b9 04be b182 0cbe 85c3 83ba cf79 19be
00000160: 2659 fabc 4ec9 583d afd6 6abd d0e6 3dbe
00000170: f45b 113e 286b 05be 5042 6dbe 5562 0fbe
00000180: 24f5 0bbe c08b 973c 9be7 413e 7728 1ebd
00000190: 1e14 a13d da73 21bd b37c 16be a4c6 0dbf
000001a0: 3a93 11be 918c ddbc dea6 ddbd 8489 913e
000001b0: 253c a13d cd0d efbd a316 c9bc 668f 90be
000001c0: 69b0 aabd 020b 89be 1588 883e 0ca2 38bd
000001d0: 8800 9e3d fd84 84be 6d4e d3bd 032c 06be
000001e0: ef65 30be 00b1 88bc 9e57 ce3d 03fe 3c3c
000001f0: 0c7f 7c3b e974 29bc 48a2 223e 0ffa 9dbd
00000200: fa46 353d 8370 25bd 66bd 77bd 4c86 1d3c
00000210: ada1 953d f822 a0bd a671 33bd aab4 9cbd
00000220: 0677 8cbc 545e 0fbd 1db1 8e3d af1f 843e
00000230: 297b dfbd 5fdd 25be c5af a0bd fb15 023d
00000240: 4f07 35bd b158 3d3c 21b7 353e bc4a 4ebd
00000250: 9eb0 a9bd ac9d a2bd 3abb cbbc b56d c83b
00000260: 86d8 18be 4015 b5bb 96e2 c03d dd50 163d
00000270: aca4 33bd a150 85bb ee7d 13be 3b46 93bd
00000280: b1ab 2a3d 8a22 20bd 60ea b43c 913c 7bbd
00000290: ba13 25be 1b10 983d 223f dcbd 74fd 713c
000002a0: 32e7 f53b 2291 b13d 161c 2fbe e70c 2abe
000002b0: 31a6 30bd 3998 523e 5c11 5ebd 4ccb 9b3c
000002c0: 4296 dabc bfee 773b 1d79 c33c 0f6a 683d
000002d0: 06b0 a53c 777c a6bd 71ec 75bc acd0 f5ba
000002e0: d483 c03c a10c 83bd 033a 4ebd 3353 9f3d
000002f0: ed00 c93c cc89 08bd 8199 8abd f3bb d8bd
00000300: 2673 e6bd 49e4 0abe 1188 c2bd 189e 343d
00000310: a513 143c 09be 0ebd 206e ccb8 37cd 293e
00000320: 081c 11be d1e8 8dbd a8db bbbd 07b1 abbc
00000330: ebcf b13c 714b 43bd 7a43 7dbd 306d eaba
00000340: 764e 0dbd 9f18 13bd 8dd3 8b3c 830c 133d
00000350: b84f ba3d e4f1 f4bd cea0 d73d 934d 1ebd
00000360: 49e9 febd e881 003e afb0 cc3c e5bc febc
00000370: fa23 e7bc 1c0e b5bc db77 463e f06a 97bd
00000380: 3b77 f2bd abf3 c9bd fd4f 08be 08bf 0dbe
00000390: 91d8 a0bd b809 5bbd c086 b6bc 0540 c1bd
000003a0: adf2 2dbd 1d0c db3c f1ac f9bd 69c1 00bd
000003b0: 5864 c1bd 48a6 17be 30c1 e93c 2eb6 1bbd
000003c0: ddd6 d1bc 004f 953d 7521 aa3d 28aa 0a3d
000003d0: fe9c 293d d1c2 4a3c a0b2 3e3d 3381 a7bd
000003e0: 0156 6c3d 8853 cdbd 8af3 153c 92f3 35bd
000003f0: bdd3 3c3d ee17 cdbc 4d29 00be 332d d2bb
-0.2538188 -0.35771587 -0.14060476 0.4475883 0.012188488 -0.02998538 -0.11696207 -0.14610097
0.031534787 -0.13636675 -0.2819742 -0.31562248 0.016182013 0.064366505 -0.09064605 0.23335487
-0.10157093 0.09490022 -0.18236151 -0.28021497 -0.49434105 -0.18782052 -0.42690858 -0.27289823
0.054964468 -0.0844128 -0.34451813 -0.06995384 0.24521323 -0.17753364 0.3750944 0.112739
-0.048091207 0.09303731 0.1192835 -0.13782986 0.039868053 0.026789168 -0.07230748 -0.032407984
0.12640117 0.07554192 0.090120934 -0.043945223 -0.36853358 -0.13311853 0.31986618 -0.12064841
0.16732243 -0.011523365 0.12795235 -0.1924217 -0.15828024 -0.25377384 0.07544189 0.23534575
-0.019909414 0.26529673 0.14332104 0.06998041 -0.15420908 -0.08493356 -0.036906715 -0.2262773
-0.064249046 -0.22295223 -0.030880796 -0.24544977 -0.09471827 0.05936626 -0.020865168 -0.1544349
-0.074442275 -0.11839167 -0.03339859 -0.16729276 -0.10285911 -0.025462052 -0.13832657 -0.023479627
-0.025984446 -0.040329117 -0.30340582 -0.014683088 -0.12961537 -0.1372173 -0.0010052776 -0.14987873
-0.030560087 0.052926354 -0.057333644 -0.18545079 0.14195234 -0.13029158 -0.23169827 -0.14002354
-0.13667732 0.018499255 0.18936007 -0.03861281 0.07865165 -0.039417125 -0.14696006 -0.55381227
-0.14216319 -0.027044566 -0.10822843 0.2842523 0.078728 -0.11672554 -0.024546927 -0.28234404
-0.08334429 -0.2676621 0.26666322 -0.045076415 0.07714945 -0.25882712 -0.10317693 -0.13102727
-0.17226385 -0.016685963 0.100753054 0.0115351705 0.0038527874 -0.010342815 0.15882218 -0.077137105
0.04425714 -0.040390503 -0.06048336 0.009614538 0.07306228 -0.0781917 -0.043809555 -0.076516464
-0.017146599 -0.035002068 0.069673754 0.25805423 -0.10912163 -0.16197728 -0.078460254 0.031759243
-0.044196423 0.01155679 0.1774564 -0.05036424 -0.0828564 -0.0794023 -0.02486955 0.0061165937
-0.14926347 -0.005526215 0.09418218 0.03669821 -0.043858215 -0.0040684496 -0.14403507 -0.0719113
0.041667644 -0.03909544 0.022084415 -0.061337058 -0.16120806 0.07424947 -0.10754229 0.014769901
0.0075043673 0.0867026 -0.17100558 -0.16606484 -0.043127242 0.20565881 -0.054215774 0.019017838
-0.026682977 0.0037831513 0.023861462 0.05674177 0.020225536 -0.081292085 -0.015009985 -0.0018754206
0.02350036 -0.06398893 -0.050348293 0.07779541 0.024536574 -0.03333454 -0.0676756 -0.105827235
-0.112524316 -0.13563646 -0.09498609 0.044096082 0.009037887 -0.0348492 -9.7479904e-05 0.1658219
-0.1417085 -0.06929172 -0.091727555 -0.020958437 0.021705588 -0.04767937 -0.06183193 -0.0017885324
-0.034498654 -0.035912152 0.017068649 0.035900604 0.090972364 -0.119601995 0.10528718 -0.0386482
-0.12446839 0.12549555 0.024986593 -0.031095931 -0.028215397 -0.022101454 0.19381659 -0.073934436
-0.11839148 -0.09860929 -0.13311763 -0.13842404 -0.07853807 -0.053476065 -0.02228105 -0.09436039
-0.04246776 0.026739175 -0.12191189 -0.03143445 -0.09442967 -0.14809525 0.028534502 -0.038015537
-0.02561515 0.07290459 0.08307163 0.03385368 0.041409485 0.012375549 0.04655707 -0.0817894
0.057699207 -0.10025698 0.0091523025 -0.04442174 0.046100367 -0.025035825 -0.12515755 -0.0064140796

fc2.bias f4 [84]
00000000: 1b6b 27be e11b 52be 89e5 1dbd c3ec 05bd
00000010: 0c23 a23c a746 5abd 0971 1abd 4c96 4a3e
00000020: 01b3 d53e 8732 773d 6a23 38bd b522 d33b
00000030: 8bec 883d e6d1 87bd d9b7 0a3e 9250 e8bd
00000040: 0565 d0bd 4075 143e 2e0f fabd 99ab 2bbc
00000050: 90ad 1c3e a147 82bb db8a 14bd 60fd 7bbc
00000060: c0d8 aabd 5168 b0bd 84d1 7e3e fea5 b23d
00000070: 308b cbbd ca34 7b3d fabd 103e 5083 bc3c
00000080: 4404 87be f61b c5bd 512c 64bd fb7b 013d
00000090: e45f 053e 8a28 4c3e 317b 723d 8c93 2a3a
000000a0: 5af5 0f3d 1944 9bba c17a 90be a789 f93a
000000b0: 0bbd ef3d 7fb0 423d 8b93 50bd e2cf 8fbd
000000c0: 4dfa 973d 8687 b5bc 97f6 ddbc c860 b8bc
000000d0: 2133 693e b063 d93c bb59 463c eb6d c3bc
000000e0: 1b53 4fbd 1568 b2bd 1ed9 a4bc fb8a 7abe
000000f0: 6349 00bd 2d7b ddbc eac1 3f3d 4c5c 8bbd
00000100: b2ed 043d 1094 51bd b430 00bc e521 30be
00000110: 809d 863d bd5e f73d 7b3a bbbc 59d3 ab3a
00000120: e955 e73d dbda 9dbd 0251 bdbd d3a1 96bd
00000130: 0fd2 8d3d ab18 913c 1cc3 e53c 6b99 953d
00000140: b61e 89bd 6847 8cbc 840e 60bd 2703 0f3e
-0.16349451 -0.20518447 -0.03854898 -0.032696497 0.019792102 -0.053290036 -0.037705455 0.19783896
0.41738132 0.06035092 -0.04495565 0.0064433464 0.06685742 -0.06631832 0.13546695 -0.113434926
-0.10175518 0.14497852 -0.122099265 -0.010477924 0.15300584 -0.003975824 -0.036265235 -0.0153802335
-0.08342123 -0.08613647 0.24884611 0.08723067 -0.09938657 0.06132964 0.1413497 0.023011833
-0.26370442 -0.09624474 -0.055706326 0.031612378 0.1302486 0.1993734 0.059199516 0.00065069715
0.035146095 -0.0011845856 -0.28218654 0.0019038216 0.11705979 0.0475316 -0.050921958 -0.070220724
0.07420788 -0.02215935 -0.027095122 -0.022507086 0.2277341 0.026536793 0.012106354 -0.023856124
-0.050616365 -0.08711258 -0.02012306 -0.2446708 -0.031319987 -0.027036274 0.04681579 -0.068047136
0.032453246 -0.051166594 -0.007824112 -0.1720043 0.065730095 0.12078617 -0.022855034 0.0013109251
0.11295683 -0.07707759 -0.09243967 -0.07355084 0.06924831 0.017711958 0.028047137 0.07304653
-0.06695311 -0.017123893 -0.054701343 0.13966046

fc3.weight f4 [10, 84]
00000000: 69b0 ffbd 07b8 f8bd 26ee 383e ffe0 5fbd
00000010: a18a 1fbd 5104 2b3f 284c 33be a0c9 3bbe
00000020: 1c74 05bf 1021 2fbe c101 363e be4d 89bd
00000030: ed15 2abd f2e2 c2bd 35f7 24bd bc6c 87bd
00000040: 8f24 fb3d 9aff df3d 3a9a 593e 49f2 58be
00000050: 2fcb b8be 22d9 2fbe 0067 93be cb14 dbbd
00000060: c0fd 103e f8bd a8be ea5e 233e 35a0 e3bd
00000070: af59 81be 2636 79be 0404 2ebe b5b7 583e
00000080: 3415 89be 1a83 2bbe c0d7 0cbe 020b 133d
00000090: 45f9 c13d fe6a 093c c42a e6bd dca9 f63e
000000a0: 8c3e e13d ab1c ae3e 7c3b 8a3e a990 e23e
000000b0: cf87 793e b3c9 06be 6b03 113c 8a38 a7be
000000c0: c500 3dbe 491f 373e 7b15 bf3d e56a 153e
000000d0: 43a1 a5be fc33 93be 836d 16bf 0a2e 2fbe
000000e0: 4a0b 55bd 3e2c 06bf 07df c53d db86 b8bc
000000f0: d575 64bd 763e b23e df7e 4c3e 83f7 84be
00000100: 9913 c63e a8d2 11be 8a57 3fbd 10d9 553c
00000110: 759a 3abe 6684 13bd a0f9 123c 2b95 3f3f
00000120: b4f7 6ebe 553f 04be d0d8 5d3e 3a1d 2b3f
00000130: a8e8 f4bd 16fb 19bd 9388 863e f1a3 90be
00000140: a09c 5b3e b0be f0bd 9fe8 8f3c 42d1 2ebd
00000150: e50f 4e3f 6485 6b3d 5c53 7dbb 2b4a 9fbc
00000160: 63bf f9bc 6a60 0cbe 5d01 dfbd 9331 673e
00000170: 2c80 c0be 29ca 0abe b421 c9bd b2c3 0cbe
00000180: 1682 fcbe 4300 e63d addf a63d acb8 65be
00000190: 5eff f13d c352 edbe 13d9 0abe 7007 173f
000001a0: b2a2 7cbd 078e 7ebe 1154 073f f1b6 f8bd
000001b0: 36a0 513c 8474 80be dbec 8dbe e5da 4a3e
000001c0: cb17 fc3e 63c5 933e b2d9 90bc 47a0 0dbe
000001d0: d114 00be 2a07 fd3d 8666 63be d1ef 29be
000001e0: 2cef bfbe 15be 8abe 4848 a33c 0a22 e33d
000001f0: 2655 e4bd e4b3 c2bd 9b9b 52be 72f7 2c3e
00000200: 5059 20be 5f61 95be 1931 a03e 58c9 2dbe
00000210: fc0f bcbd dfd2 543e 0827 483d ac9d ae3d
00000220: 4ebb 2abd dc5b d03e 1cdc 9bbe dcc0 fabd
00000230: 4adf b93e 6ffa 34be 212b ce3c eb9b 99be
00000240: 2a10 38be c27a 8abe 8558 83be 9642 523d
00000250: 842b 5f3e a4ac e23e 8fb7 cdbd 28f0 1a3f
00000260: e959 bb3e 9464 a5be 9280 94bd 6fce a6be
00000270: 18ac 23be bf52 6cbe f833 88bd 58cb 58be
00000280: a0c4 07be 27ac 67bd f758 b6be dede 0ebd
00000290: c31f 4bbe f09f a3bd 873e 9e3e 5fea 86be
000002a0: 84bc 67bd f291 cebd 65a3 db3a e557 1b3e
000002b0: 71bd e03d 055b 9a3d b32b 2e3e c4af 97be
000002c0: cba1 253c f32c fa3d ab2c 613d cb65 2e3f
000002d0: cd2d 71bd 1b77 3cbd 923d 89bd c48f 21bd
000002e0: c0ee 0e3e ff29 3bbc cf07 3cbe 2596 bcbd
000002f0: 51f8 aebd aee0 543e d951 06be b912 483d
00000300: 4df3 fcbc 77ad 03be a7cc edbe e8e2 60bd
00000310: 95e5 583c 912b 09be 52b9 94bd 783d 943b
00000320: 59ef 123f 6016 15be f3f1 a73e 95d3 21bb
00000330: 2c35 ad3e 84e7 913e 05c8 00bd b14b dc3a
00000340: eed8 213d 664b 0abe ab43 c43c 0f58 583e
00000350: 55ba cc3e bb72 4bbd 8a47 61bd e7ec f3bc
00000360: 5974 eabd f2d4 7b3d b42c 48be 42ec 4f3c
00000370: e80f 463d 0d07 aa3d 8caf 5c3b bab1 00be
00000380: 594d ddbd 23a4 81bd 8210 debd f797 053e
00000390: 6d17 b73d 4070 18bd 7c66 d03d 96b9 e4bd
000003a0: c744 a3be ec07 81be 7915 35bd 3dcc d6bd
000003b0: a52b bbbd 9ed0 023e 54ca 8bbd 1bc4 a7bc
000003c0: 89e9 01be 4cbc 8dbe 929f 863d 2b82 7fbd
000003d0: 41cb 9dbd 3a9c 29be d087 253f 3336 f5bd
000003e0: 628b 683e 8411 353e 1d6f d1bc aed0 58be
000003f0: 6029 45be d8d1 a8bd 747a abbc 6c9c a0bd
-0.124848194 -0.121444754 0.18059596 -0.054657932 -0.038950566 0.6680346 -0.1750952 -0.18338633
-0.52130294 -0.17102456 0.17774107 -0.06704281 -0.041524816 -0.09515943 -0.040274817 -0.06612536
0.122628324 0.10937424 0.21250239 -0.21186174 -0.36092517 -0.17172673 -0.2878952 -0.10697325
0.14159298 -0.32957435 0.15954176 -0.111145414 -0.25263736 -0.24337062 -0.1699372 0.21163829
-0.2677399 -0.1674923 -0.13754177 0.03589917 0.094713725 0.008387325 -0.11238626 0.48176467
0.10998258 0.34006247 0.26998508 0.44250992 0.24368213 -0.1316288 0.008850913 -0.32660323
-0.18457325 0.17883028 0.09330269 0.14591558 -0.32349595 -0.28750598 -0.5876085 -0.17107406
-0.05201272 -0.5241126 0.0966168 -0.022525242 -0.055776436 0.3481328 0.19970272 -0.25970086
0.38686827 -0.14240515 -0.046714343 0.01305224 -0.18222983 -0.036014937 0.008970648 0.7483699
-0.23336679 -0.12914784 0.21664739 0.6684147 -0.11958438 -0.03759297 0.26276073 -0.28250077
0.21446466 -0.11755121 0.017566977 -0.042680033 0.80493003 0.057500258 -0.0038654422 -0.019444546
-0.030486768 -0.13708654 -0.10888932 0.22577505 -0.37597787 -0.1355368 -0.098208815 -0.13746527
-0.49317998 0.11230519 0.081481315 -0.22433728 0.118162856 -0.46352205 -0.1355937 0.58995724
-0.061678596 -0.24858867 0.5286265 -0.12144268 0.012794545 -0.25088894 -0.2771977 0.19810064
0.49236903 0.28861532 -0.01768193 -0.13830672 -0.12507941 0.12354882 -0.22207078 -0.16595389
-0.3748716 -0.27098146 0.019931927 0.11090477 -0.11149053 -0.09506968 -0.20567171 0.16891268
-0.1565907 -0.2917585 0.3128746 -0.16971338 -0.09182736 0.20783566 0.048865348 0.08526167
-0.041682534 0.40695083 -0.30441368 -0.12243816 0.3630317 -0.17673658 0.02516705 -0.30001768
-0.17974916 -0.27046782 -0.25653473 0.051333033 0.21793944 0.4427234 -0.10044777 0.605227
0.36592034 -0.32303298 -0.07251085 -0.3257937 -0.15983617 -0.2307844 -0.06650537 -0.2117132
-0.132586 -0.05656066 -0.3561475 -0.03488051 -0.19836335 -0.0798949 0.3090708 -0.26350686
-0.056576267 -0.100864306 0.0016757069 0.15170248 0.10973633 0.07536892 0.17008857 -0.29626286
0.010109375 0.12215605 0.05497424 0.68124074 -0.05888157 -0.046012025 -0.06701197 -0.039443746
0.13958263 -0.011423587 -0.18362354 -0.09208325 -0.08543456 0.20788833 -0.1311716 0.04884598
-0.030877734 -0.1285914 -0.464452 -0.054903895 0.01323833 -0.13395526 -0.072619095 0.004523929
0.57396466 -0.14559317 0.3280178 -0.0024692763 0.3382963 0.28496945 -0.031440753 0.0016807226
0.03951352 -0.13505325 0.023958048 0.21127342 0.3998591 -0.049669962 -0.054999866 -0.02977605
-0.11447973 0.061482377 -0.19548303 0.012690606 0.048355013 0.08302126 0.003367397 -0.12567797
-0.108057685 -0.06330135 -0.10842992 0.13046251 0.08940015 -0.037216425 0.10175797 -0.1116821
-0.3188841 -0.25201356 -0.04420993 -0.10488174 -0.09139184 0.12774894 -0.068257004 -0.020479253
-0.12686743 -0.27682722 0.06573404 -0.062379997 -0.07704783 -0.16563502 0.6466036 -0.11973228
0.2270942 0.17682463 -0.025565678 -0.21173355 -0.19254065 -0.082431495 -0.020932414 -0.07842335

fc3.bias f4 [10]
00000000: 2d3f f2be 0863 94be 408b e93d 409b 0a3f
00000010: 03dc 3d3f 7621 e9be f3de ea3e e605 f3be
00000020: 4da0 7f3e 33d8 13be
-0.47313824 -0.28981805 0.11403513 0.5414314 0.74163836 -0.4553334 0.45873222 -0.47465438
0.24963494 -0.14437942
