round2/2025-04-18 18:23:27-weight-client-73d6de26-c.pth (torch, 252478 bytes, 10 tensors)

conv1.weight f4 [6, 3, 5, 5]
00000000: 99d5 ad3e 8ec0 033f 3e1f 333f ed6d a93e
00000010: 16da 5abe f2cb 7dbe 2bfc 00bf 41a2 0cbf
00000020: 1919 59bf d0a8 82bf 4a3e 8fbf f954 d9bf
00000030: 9b09 ebbf e444 debf 8d4c bdbf 8c41 09bf
00000040: e303 47bf 1f07 04bf 837e e2be 2b44 9ebe
00000050: 7485 0c3f 1858 723f 694c 933f f8ea 7f3f
00000060: 0d57 293f 9758 213f 7b8e 3b3f 9b48 5e3f
00000070: 00de 1c3f 9914 cdbc 9590 ab3d 67c8 4fbd
00000080: 6a1c bebd b0f6 87be 2dae 07bf 0912 50bf
00000090: 35d1 b8bf 4501 bebf 7181 a8bf 92ee 80bf
000000a0: 083a f7be 38d0 f1be a2d2 68be 6aa7 4abe
000000b0: c8f6 e8bc ce35 1d3f 4ca5 8c3f eedc ab3f
000000c0: ba36 8a3f 2c35 613f a7f5 3b3f dca4 6d3f
000000d0: 8dcc 9d3f b75a 3c3f 2ec9 833e 3bf4 673e
000000e0: 7179 663e 00eb c13d 70ce babd 26bf eabe
000000f0: b7f0 57bf 1e8e b4bf f9aa b9bf e8bd 9ebf
00000100: a981 77bf 7d65 fabe fee5 1dbf 43e8 cebe
00000110: 2981 21be 68f4 81bd 38d8 c43e 6356 713f
00000120: 35af a63f 1eff 723f 8007 273f c738 54bf
00000130: 05a5 72bf 5b62 46bf d43d 75bf 6890 64bf
00000140: 646d 57bf fe66 77bf fdf0 6fbf 8250 74bf
00000150: 5b01 80bf 2762 5fbf 4593 81bf 081d 78bf
00000160: 0e4e 89bf 25cc 88bf 8f81 73bf ff32 5abf
00000170: 174e 5bbf 8268 80bf 1703 77bf 1dae 61bf
00000180: c237 43bf 8bfc 3cbf 7483 5ebf 4f31 6fbf
00000190: a93c b5be 4eaa 8ebe 7441 1dbe 7ae3 24be
000001a0: 2d89 aabe 06a0 51be fef6 2abe 954c 1abe
000001b0: b87e 0cbe 2cbd 9bbe 0db6 9cbe 667d 3dbe
000001c0: 8870 34bd f10c e8bd dd1c 9fbe 2674 90be
000001d0: 994f 6dbe c24a 53be 7555 2fbe d759 ccbe
000001e0: a4f2 b2be bdf2 a6be 8533 85be e1d6 83be
000001f0: aabd c7be 3fbf e13e 6043 053f 1266 2b3f
00000200: 4407 3b3f 8a6f c03e 74ae 1f3f b978 313f
00000210: 3834 6e3f a85f 463f 6e9d 133f 296c 343f
00000220: 5955 4d3f 0801 5e3f 24b9 443f 3e1b 133f
00000230: 0812 293f f1ff 403f a857 423f f54f 353f
00000240: 74f8 ff3e 611d 053f fa5c 283f c1ed 333f
00000250: 10a2 353f 325b e83e 3c60 5abf 1d55 3fbf
00000260: bd4a 2dbf 8559 1dbf c2bd 4ebf 0fff b8be
00000270: b344 c5be ae8f 74be 785c 14be 5d9f 8ebe
00000280: 4f70 4a3e 1768 af3e 3332 943e 946d a53e
00000290: 8353 5f3e 76a4 173f 68a6 083f 770a 083f
000002a0: f90f 0b3f f948 df3e 1bc9 153f eac4 173f
000002b0: 888a d13e 7113 a43e 7bc5 c43e f1c5 31be
000002c0: 97ba 24bc 174b a83b aa5b 10be af44 24bf
000002d0: e397 5fbe d514 dbbd 0d01 18be 6bc2 82be
000002e0: 4b0a 1dbf b72f d4bd 3ab7 6d3b f220 9cbd
000002f0: cb0e 9dbe 8421 1fbf 6686 bdbe 18f1 bcbe
00000300: 65d7 02bf 56dc 2ebf a08f 58bf 99d5 2bbf
00000310: eb71 30bf 5879 4cbf 9fd6 82bf 9e7f 93bf
00000320: 7798 1e3f 941c 6d3f bfe2 823f ad4e 593f
00000330: 9f26 023d 5796 103f 492e 653f f3a3 733f
00000340: a42d 393f 9d95 6a3e a0c6 3c3f 38f8 5f3f
00000350: 2d34 6b3f c6f7 1c3f a0f0 c43d 3aab 8e3e
00000360: bcf2 c73e e559 bd3e 0281 c33d 1bc5 51be
00000370: 2ad9 463e d55c 953d b32a 03be e7d9 64be
00000380: 0af4 22bf e86a 09bf 1247 bdbe e875 87be
00000390: b0ff 03bf efe9 4ebf b096 4dbe 6907 b4bc
000003a0: f35c 5a3b 873f 93bd 4f04 a9be 1346 663d
000003b0: 4f8f d93c 9c5f 813d 1ba3 13bc 2941 34be
000003c0: 0c1a 05bd 82b6 53be 0b50 1dbe 664f 913c
000003d0: 8e0a bbbd 690c 05be f8d6 02be 52b7 36be
000003e0: e7a6 13be 153f ddbd ef3a b0be 9467 5bbe
000003f0: f065 82be 680e b3be fd9a 24bf 15b3 01bd
0.33952025 0.5146569 0.69969547 0.3309168 -0.21372256 -0.2478483 -0.5038478 -0.5493508
-0.8480392 -1.0207767 -1.1190884 -1.6979057 -1.8362306 -1.7364774 -1.4788986 -0.5361564
-0.77740306 -0.51573366 -0.44237146 -0.30911383 0.54891133 0.9466567 1.1507694 0.9996791
0.66148454 0.630258 0.7326428 0.8682954 0.61276245 -0.025034236 0.08377186 -0.050728228
-0.09282763 -0.26555395 -0.53000146 -0.8127752 -1.4438845 -1.4844137 -1.3164502 -1.0072806
-0.48286462 -0.4722917 -0.227366 -0.19790426 -0.028437987 0.61410224 1.0987945 1.3426797
1.0797951 0.8797176 0.7342171 0.9282968 1.2328049 0.7357592 0.25739425 0.2265176
0.22507264 0.09468651 -0.09121406 -0.4584896 -0.84351677 -1.4105871 -1.4505302 -1.2401705
-0.9668222 -0.48905554 -0.61679065 -0.40411577 -0.15771927 -0.06345445 0.38446212 0.9427244
1.3022219 0.9492053 0.6524582 -0.82899135 -0.9478305 -0.7749383 -0.9579747 -0.89282846
-0.8415129 -0.9664153 -0.93727094 -0.95435345 -1.0000414 -0.87259144 -1.0123068 -0.969193
-1.0726945 -1.06873 -0.95119566 -0.85234064 -0.8566603 -1.0031893 -0.9648909 -0.881563
-0.76256955 -0.7382285 -0.8691933 -0.93434614 -0.35397843 -0.27864307 -0.15357 -0.161024
-0.33307782 -0.204712 -0.16695783 -0.15068276 -0.13720214 -0.30417764 -0.30607644 -0.18504867
-0.04405263 -0.113305934 -0.31076708 -0.28213614 -0.23174895 -0.20633987 -0.17122443 -0.39912292
-0.34950745 -0.3260707 -0.2601587 -0.25749877 -0.3901189 0.44091222 0.5205593 0.6695262
0.7305796 0.37585098 0.6237557 0.69324833 0.9304843 0.7748971 0.57662094 0.7047754
0.80208355 0.86720324 0.76845 0.57463443 0.6604314 0.75390536 0.75915 0.7082513
0.49994242 0.51997954 0.6576687 0.7028466 0.7095041 0.45382077 -0.8530309 -0.7473925
-0.67692167 -0.6146472 -0.807583 -0.36132094 -0.38528976 -0.23882934 -0.14488399 -0.2785596
0.19769405 0.34259102 0.2894455 0.32310164 0.21809201 0.5923532 0.53378916 0.5314097
0.5432125 0.4361036 0.5850999 0.5928484 0.40926003 0.32046083 0.38431916 -0.17360665
-0.010054252 0.0051359045 -0.14097467 -0.641673 -0.21835284 -0.10697333 -0.14844151 -0.25538954
-0.6134383 -0.103606634 0.0036272542 -0.07623471 -0.3067535 -0.62160516 -0.370166 -0.3690269
-0.51109916 -0.68304956 -0.84594154 -0.671228 -0.68923825 -0.79872656 -1.0221747 -1.1523321
0.6195139 0.9262173 1.0225447 0.84885675 0.031775113 0.564794 0.8952375 0.9517204
0.7233527 0.22908635 0.7374058 0.87488127 0.9187649 0.6131557 0.09616208 0.2786501
0.3905238 0.36982647 0.09546091 -0.20485346 0.19418779 0.07293097 -0.12809257 -0.22348748
-0.63653624 -0.5367875 -0.36968285 -0.26457143 -0.51562023 -0.80825704 -0.20077014 -0.02197619
0.0033319562 -0.07189851 -0.330111 0.05621917 0.026557593 0.06317064 -0.009011055 -0.17602982
-0.032495543 -0.2067509 -0.15362565 0.017738055 -0.091328725 -0.12993015 -0.12777317 -0.17843369
-0.14419137 -0.108030476 -0.34419963 -0.2142623 -0.25468397 -0.3497193 -0.64298993 -0.031664927

conv1.bias f4 [6]
00000000: 20d2 b33e 1d38 05c0 93b0 91c0 c5c2 51c0
00000010: 33e1 eabd 30f6 953f
0.3512125 -2.08155 -4.5528045 -3.2775128 -0.114687346 1.1715755

conv2.weight f4 [16, 6, 5, 5]
00000000: ffcd 0dbe 3f97 043e b3b3 dc3e cba5 ca3e
00000010: 0679 d6ba 4b56 093e a172 913e b667 d93e
00000020: bb90 3f3e a55f dabd 0ca7 2cbe 250e eabd
00000030: 8a47 73bc 90d0 65bd 3f2c 28be 6c49 ccbd
00000040: 68e3 20be 9ace 6ebe 9c80 cabd a2fd 51bd
00000050: fe07 a2be b589 77be 3c27 6bbe 8399 45be
00000060: 2c23 afbd 6589 5dbe 2be1 91be d714 d0bd
00000070: 43c5 ec3c cf4a 7b3e a2a3 dabe ca56 b1be
00000080: eece bdbc c079 573e 8b0a 813e 0eb7 d4be
00000090: edac 77be dd10 893d 7c10 f83d fe37 6b3e
000000a0: 76c1 25be 6be2 c03b a20b 023e 081a 113e
000000b0: 95b6 863d c7b0 4d3e 2a02 5f3e 7b9e 6c3e
000000c0: 4283 fd3d 7e7f 803d 2a05 1dbf 1dfa 24bf
000000d0: 97d0 53be a1a6 e03e e9b4 433f 8706 8bbf
000000e0: d3ba 52bf 3c9d 0c3e a5b5 523f 3685 753f
000000f0: 0778 6fbf 44cf 14bf c56c 9d3e f9c4 283f
00000100: 8666 163f 66e1 52bf 4082 dcbe d765 333e
00000110: 935d b73e 9f82 483e 8efe fbbe 0917 b8bd
00000120: cff1 1f3e efad 213e c782 333e 1f31 50bd
00000130: e76a 48be b44c 943d a8bf d43e c1bc 133f
00000140: f980 b0be 92ba 7bbe ed0a 813e b482 463f
00000150: b6fd 4f3f 56b1 d6be 3c7f 01be 1154 823e
00000160: 66ac 073f 6f00 f23e 7d63 95be 8330 d5bd
00000170: 7b08 1f3e ff7e 9b3e f688 c13e 67f5 b4bd
00000180: 8ddd c0bd 39ee 143e 88f9 4a3e 1fab bd3e
00000190: 94c2 ddbe 6bc3 1fbf b2d2 94be 9395 543e
000001a0: 8a0a d33e 355f 4bbf 5561 67bf 6dbe 29be
000001b0: c6f2 803e e4fb d93e a937 48bf a5e3 40bf
000001c0: 509f d3bd 84e0 793e 1d6a 913e 6364 34bf
000001d0: e825 d4be 4749 41be 6ceb 923d 4568 9f3e
000001e0: af5e ddbe 30c7 77be a602 dcbd 08b7 8d3d
000001f0: 18ff 8d3e a82d 82be 3ca2 653e 8dc5 273f
00000200: bffe 4c3e 3847 a4be 57f4 24bd e3a3 8b3f
00000210: afa4 393f 2155 1cbe 2e59 0dbf b968 923e
00000220: 0571 a03f a368 b13e 2d16 0abf 8805 06bf
00000230: 4224 e73e 94ba 713f fa40 1abe 96c7 e2be
00000240: 6350 12bf 4107 cc3e d4e2 e13e 35f7 84be
00000250: ec26 5cbe ffe4 eebe f1ce 00be 5a85 0e3d
00000260: c98a d1bb b0f3 febd 5fe6 bbbd ec5e 153e
00000270: d6e2 363d 099a 9c3d d09f 4e3d b836 2bbe
00000280: e58c bd3d b0e0 c13d 1f10 bd3d 362f 91bd
00000290: 19ed a5be 006c 743d bdf2 303e dbd4 523e
000002a0: ca3d 99bd 82d6 a3be 9d59 28be f9c2 d2b9
000002b0: ba9f 113d 5dea 28be 4574 80be 011e c73c
000002c0: 456d 48bd 59a0 8cbd 9326 0cbe 524b 3fbe
000002d0: 0498 823d cd31 9c3b 5c56 823c 1c55 bbbd
000002e0: 62bd 52be ea93 77bd bcf7 3f3a e477 06bd
000002f0: 3c44 a4bd 48b8 43be c664 dabb 85c9 403a
00000300: cf83 f0bc d34e 13bd 8bf6 5ebd 215b bdbd
00000310: 834a a9bd 3e87 eabd 4add 3abe ca98 c1bd
00000320: a6cf 06bd ac6e 733d 9d33 0bbe 7da2 2dbe
00000330: 80c7 5bbe d1b9 15be 7679 d5bd 6e19 72bd
00000340: d5c4 13be f7a7 73be 2e85 99be 64f2 6dbe
00000350: 68e0 6fbe b6aa 5ebe fd43 60be 2e30 5cbe
00000360: 600e 33be 03dc 8ebe 3c29 6bbe 0850 85be
00000370: b9f6 f1bd 330b 90bd 7d16 55be c21c 3dbe
00000380: 1fad 82be 5539 b2be 82ca cdbe 0362 28bd
00000390: a6fb 1e3e 541b 5d3e 15f7 00bf 78c5 0dbf
000003a0: 2290 8abd 3ddd 7c3e 65ec 7a3e 2eb3 0abf
000003b0: 521d 14bf 48eb 76be 3626 0d3e b5f1 693e
000003c0: d60c eabe dd9f b4be e72f 5ebe 50a9 0c3e
000003d0: 2684 693e 7276 aabe 4ec0 49be e07e 08be
000003e0: 7cc3 55bd 4b60 973d 9e0b 62be f6b3 18be
000003f0: ef40 3ebe 9005 28be a426 90be 1f6f 7abe
-0.13848113 0.12948321 0.4310585 0.39579615 -0.0016362972 0.13411824 0.28407767 0.42461938
0.18707554 -0.10662774 -0.16860598 -0.11428479 -0.014848599 -0.056107104 -0.16423129 -0.099749416
-0.15711749 -0.23321 -0.098878115 -0.051267274 -0.31646723 -0.24173625 -0.22964185 -0.19296841
-0.085516304 -0.21634443 -0.28492102 -0.10160225 0.028902655 0.24540256 -0.42702967 -0.34636527
-0.02316996 0.21042538 0.25203356 -0.4154591 -0.2418706 0.066926695 0.12112519 0.22970578
-0.1618708 0.005886366 0.1269975 0.14170086 0.065777935 0.20086966 0.2177817 0.2310733
0.12378551 0.06274317 -0.61336005 -0.6444414 -0.2068504 0.43877128 0.7644792 -1.0861367
-0.8231632 0.13731855 0.8230842 0.9590639 -0.9354252 -0.5812876 0.30747047 0.65925556
0.5875019 -0.8237518 -0.43068123 0.17519318 0.3581358 0.19581078 -0.49217647 -0.089887686
0.15619586 0.15789007 0.17530356 -0.050828096 -0.1957203 0.072411925 0.41552472 0.5770989
-0.34473398 -0.2458289 0.25203648 0.7754319 0.8124651 -0.41932172 -0.12646192 0.25454763
0.52997434 0.47265956 -0.29177466 -0.104096435 0.15530579 0.30370328 0.37799805 -0.08835869
-0.094172575 0.14544 0.19821751 0.37044618 -0.43312514 -0.6240756 -0.29066998 0.20760183
0.41218978 -0.7944215 -0.9038289 -0.16576548 0.2518522 0.4257499 -0.7820993 -0.7534736
-0.10333121 0.24402052 0.2840127 -0.7046568 -0.4143517 -0.1887561 0.071738094 0.3113424
-0.432363 -0.24197078 -0.10742693 0.06919676 0.27733684 -0.25425458 0.22425169 0.65535814
0.20019053 -0.32085586 -0.040272083 1.0909389 0.7251691 -0.15266849 -0.552142 0.28595522
1.2534491 0.34650144 -0.5394009 -0.5235219 0.4514485 0.9442532 -0.15063849 -0.44292897
-0.5715391 0.39849284 0.4411837 -0.25969854 -0.21499223 -0.46659085 -0.12578942 0.034795143
-0.0063947183 -0.124488235 -0.09174799 0.14586991 0.04464992 0.076465674 0.050445378 -0.16720092
0.09255389 0.09466684 0.092315905 -0.07089083 -0.32407454 0.05967331 0.17280097 0.2058901
-0.074824885 -0.31999594 -0.16440435 -0.00040199587 0.035552718 -0.16495652 -0.25088707 0.0243063
-0.048932333 -0.068665214 -0.1368659 -0.18681076 0.06376651 0.004766679 0.01591032 -0.09147093
-0.20580056 -0.060443796 0.0007322987 -0.03282918 -0.08020827 -0.19113266 -0.006664845 0.00073542475
-0.029359726 -0.035963845 -0.05443434 -0.09245897 -0.08266165 -0.11451577 -0.18248478 -0.0945297
-0.032912873 0.059431717 -0.13593908 -0.16956516 -0.21462822 -0.14621665 -0.104235575 -0.059106283
-0.14430554 -0.23794542 -0.2998442 -0.23236996 -0.23425448 -0.21744809 -0.21900935 -0.21502754
-0.17485952 -0.2790223 -0.22964948 -0.26037621 -0.11814637 -0.07033386 -0.2080936 -0.18468001
-0.25522706 -0.34809366 -0.40193564 -0.041109096 0.15525684 0.21592456 -0.5037702 -0.5537944
-0.067657724 0.2469377 0.2450424 -0.54179657 -0.5785724 -0.2411319 0.13784108 0.2284611
-0.45712918 -0.35278216 -0.21697961 0.13736463 0.22804317 -0.33293492 -0.19702265 -0.13329649
-0.05218838 0.07391413 -0.22074744 -0.149124 -0.18579458 -0.16408372 -0.2815448 -0.24456452

conv2.bias f4 [16]
00000000: 9338 19bf a79c 13bc d1d3 cabe 6a87 b13d
00000010: 2155 3cbe 4d4f bdbd 1bb7 0f3e 3ad2 a4bd
00000020: ef37 94bf 1f85 893d fd0e 24bf dd5c 783d
00000030: ef24 5e3f a02c 8dbf befe a53c 84c9 5e3f
-0.5985195 -0.009009517 -0.39614728 0.08668406 -0.18391849 -0.09243641 0.14034693 -0.0804791
-1.157957 0.06714844 -0.6408537 0.060635436 0.86775106 -1.1029243 0.020263072 0.8702624

fc1.weight f4 [120, 400]
00000000: 4a73 eabe 8666 0bbd 7399 0c3e ab1b 03be
00000010: ad7a 24be f9e1 50be e2f2 f43c 0cd9 07be
00000020: acf6 4dbe d1a6 46be 14ca 123e b005 eebe
00000030: 2ca0 90be 12dd 92be 5563 cabe 1b88 373e
00000040: ae3f 91be 145a a0be ff1f 03bf db28 b0be
00000050: 0c8b 893e 071c 36bc b26d d8be a720 f1be
00000060: 8ecd 33be e4cf dfbd a86b e8bd a57c d3bd
00000070: add4 99bd ba5d 1ebe 5e02 d4bd 57bc 0bbe
00000080: af95 0bbe 3e0a 18be 66c4 07be c364 88bd
00000090: e125 32bd b66f c1bc ac85 60bd 6f02 e8bd
000000a0: 6e18 033d e095 94bc ef63 553c e2e5 cc3d
000000b0: 4424 58bc 3447 e13d 6bbb 853d 3e24 b23d
000000c0: a0c6 b13d a6ca 983d ca8e 49bd bed9 d33b
000000d0: d6ae 1bbd d047 acbd 54de bb3c 9c0c 99bd
000000e0: 9c46 373d 24bf f63c 954d ae3c d313 903d
000000f0: 9cca 2f3d a41d de3d d9ad 473d 1e76 233d
00000100: 421d 32bc 6fb7 b63d ecd1 253e 49c2 173e
00000110: 1992 a63d bb30 bebc 69c3 013e 7952 033e
00000120: bcc7 a83d f577 a13d 20d3 17bd 9a05 0b3d
00000130: deaf 77bc 90d7 60bd 8d34 62bd 2a8b 7a3c
00000140: 58bb 5d3c 7f41 f83c 019c 2cbd fea1 dc3c
00000150: 38fb d53c 0e18 e53c 3def daba a33b 333d
00000160: 1e6b 9fbb fdac f13c 905e a5bc 6723 6e3c
00000170: 7448 cb3c 8034 5b3c 35ea c5bb 3707 25bc
00000180: e277 ba3c cf31 c23c 8e0a 6e3d 3fbe 443d
00000190: fffa a63d 7996 603d 2884 43bd 3cbe 923a
000001a0: 34bf 0ebd ceeb d6be 6a8e efbe 9177 68be
000001b0: 886f 19be dfd1 cabe 021e 02bf 09a1 6fbe
000001c0: 4e7c ffbd a80a 11be 8328 89bd 4d94 aebd
000001d0: b216 c13b 774f 10bc ae3d 813e 84a9 9d3e
000001e0: 4c4d 4a3e ad0b 723e d026 fa3e 231e 163f
000001f0: 4797 5a3f b8c6 ba3e ed9e bb3e d8e8 683e
00000200: 550f 593e 6377 563e 271b fe3d 7c04 49bb
00000210: 5efc ebbc 58e5 e53d 31c1 723d 8443 8b3d
00000220: 53a8 aebc c118 7bbd 2510 90bc d1e9 983d
00000230: 53e8 3cbd e08e 1bbd 28a2 483d cbf6 b43d
00000240: 3c37 643e 4ae2 6bbd 4ab5 abba b8f2 bfbc
00000250: a1f1 043d 1630 913d 20fe 273d 9702 613d
00000260: 4b6e 153d 8182 4e3d 0638 053d 088c a63b
00000270: 795e 903d 6706 fe3c 4fda c73d cc59 d13c
00000280: 06d3 08bd 0192 f63c cdbc 8e3d b098 af3c
00000290: 1fd1 df3b 3716 c43a c712 31bb ec33 aabc
000002a0: ccb9 6b3c 1586 783d 0746 f6bb 5b3f 6a3d
000002b0: a5dd 343d 28b4 a73b cb7c 813d 89d9 f73e
000002c0: ec76 df3e 719e c43e ced2 ac3e 7641 c63e
000002d0: bc5c e13e bf26 263e 84fa bd3d 47f1 633e
000002e0: 151b 8f3e 1162 be3e 4e08 9f3d b799 313d
000002f0: cdb8 bf3d e0d6 e53d ecbf e23d 29c4 ffbd
00000300: a648 e5bd ae70 4f3d db88 173d 1bde 5f3e
00000310: 61d4 5bbd 2aaf b3bd 9315 89bd c275 083d
00000320: 5bad 233d fc55 aa3d 98cb 313d 6d48 843c
00000330: 6f63 08be 5260 c83d 02b3 303d 325b af3d
00000340: be7c 903e 1ea0 c03e 1baf bbbd 0703 6bbe
00000350: f029 ddbb b7b7 3e3e b86a 503e 0348 afbd
00000360: 3c0c 9cbc 6c57 acbc fff2 3fbe 2bc7 44bd
00000370: 3f55 5abe b4ec 87bd 5125 88bd b77f dfbd
00000380: 4321 5cbe 3f18 a93d b734 893d 1688 803d
00000390: 7c13 0b3e a605 8d3e cc7f e9bd 11b4 ccbd
000003a0: 975a 68bd 38ad 14bc 947e 953e 594e 70be
000003b0: 71f5 dbbd da8a 66bd 6d52 09bd 673b a23d
000003c0: 5b65 c0bd c203 65bc c13b 043d f0ac ce3d
000003d0: bb5c a83e fd21 d8bc ec5a 8a3e 4d38 cc3e
000003e0: 71ac b03e e556 c53e de59 d13c 97ee e83c
000003f0: 4aa5 ac3d e3b6 243d afa6 893c 2eca 0fbe
-0.45791084 -0.03403332 0.13730411 -0.12803523 -0.16062422 -0.20398702 0.029900972 -0.1326639
-0.20113629 -0.19399573 0.14334899 -0.46488714 -0.282472 -0.28684288 -0.3952891 0.17923014
-0.28368896 -0.31318724 -0.512207 -0.3440617 0.26863897 -0.011115081 -0.4227119 -0.47095224
-0.17558882 -0.10928324 -0.11348659 -0.103265084 -0.07511268 -0.15465441 -0.10352014 -0.13646065
-0.13631319 -0.14847657 -0.13258514 -0.06659844 -0.043493155 -0.023612838 -0.05481498 -0.11328589
0.03200572 -0.018137872 0.013024314 0.10004784 -0.01319224 0.10999909 0.06529888 0.08698319
0.08680463 0.07460527 -0.04920844 0.006465166 -0.038008533 -0.08412135 0.022933163 -0.07473108
0.044745073 0.03012044 0.021277228 0.07035031 0.042917833 0.10845497 0.04874978 0.039907567
-0.010871233 0.08921706 0.1619336 0.14820208 0.08133335 -0.023216596 0.126722 0.1282443
0.08241221 0.07884208 -0.03706658 0.03394089 -0.015117614 -0.054893076 -0.055225898 0.015291968
0.013533436 0.030304668 -0.042140964 0.026932713 0.026120767 0.027965572 -0.0016703379 0.043758046
-0.0048650643 0.029501433 -0.020186692 0.014534808 0.024814822 0.013379216 -0.0060398825 -0.010072521
0.022762243 0.023705391 0.058115534 0.048032995 0.081533425 0.054831002 -0.047733456 0.001119561
-0.034850314 -0.4197678 -0.4678834 -0.22701861 -0.14983952 -0.39613244 -0.5082704 -0.23401274
-0.12474881 -0.14164221 -0.0669718 -0.0852438 0.005892598 -0.008808008 0.2524237 0.30793393
0.19756049 0.23637266 0.48857737 0.58639735 0.8538708 0.36479735 0.36644688 0.22745073
0.21197255 0.2094398 0.12407523 -0.003067284 -0.028806861 0.112253845 0.059266273 0.06799987
-0.021320498 -0.061302904 -0.017585823 0.07466472 -0.04612 -0.037978053 0.04898277 0.088361345
0.22286695 -0.057588853 -0.0013100293 -0.023431167 0.032456998 0.0708925 0.041013837 0.05493411
0.036482137 0.050417427 0.03252413 0.005082611 0.07049269 0.031008912 0.09758436 0.025555514
-0.033404373 0.030098917 0.06969605 0.021435112 0.006830349 0.0014960234 -0.0027019249 -0.020776711
0.014387559 0.060674746 -0.007515672 0.057189327 0.04415669 0.005117912 0.063226305 0.48408154
0.43645418 0.3840213 0.3375458 0.38721818 0.44016063 0.16225718 0.09276298 0.22260009
0.2795035 0.37184194 0.07765256 0.043359485 0.0936142 0.11222625 0.110717624 -0.124885865
-0.11195497 0.05064457 0.03699575 0.2186207 -0.053669337 -0.08773644 -0.06693568 0.033315428
0.039960247 0.083171815 0.043407053 0.016147817 -0.13319181 0.09783997 0.043139465 0.08562316
0.2822017 0.3762216 -0.09164258 -0.22950374 -0.006749384 0.18624769 0.2035321 -0.08558657
-0.019048803 -0.02103778 -0.1874504 -0.048041504 -0.21321581 -0.066369444 -0.066477425 -0.109130315
-0.21497063 0.08256578 0.06699508 0.06275956 0.13581651 0.27543372 -0.114013284 -0.099952824
-0.05672702 -0.009074502 0.29198134 -0.23467387 -0.107401736 -0.056284763 -0.033525873 0.07921486
-0.09394332 -0.013977947 0.03228355 0.10091579 0.32883248 -0.026383394 0.27022493 0.39886704
0.34506562 0.38542858 0.025555547 0.028434081 0.08429964 0.040213477 0.016803114 -0.14041969

fc1.bias f4 [120]
00000000: 16ae 79bc 3e4a 953d 8bfe bfbc 5f07 2a3d
00000010: 1134 d9bc 344e 843d be9b e6bd bc28 b53d
00000020: bc70 123e b3b6 d73d fcb8 573c afeb 29bd
00000030: 5caa babc 3c41 5ebd 7ee5 17be 83b3 8ebe
00000040: 8ff4 d5bd 5cf6 7bbe 7cb0 17bd 4d76 0e3d
00000050: 8c7f 863d 67be 213e c6c0 11bd 946a 983d
00000060: 666c ae3d 2903 d03c 7210 2fbe cba8 4abd
00000070: fea6 a8bd ce3e 61be 4695 cb3d fce8 293c
00000080: 48c5 2d3e 4e90 ffbd 7060 48bd 620e 253e
00000090: 3678 663d 61b0 2bbd 366d 783d 7753 e33b
000000a0: 0361 3d3d fe20 453b a82a a5bd dff1 4ebd
000000b0: b9c0 4c3e f8fc 8b3c b147 b83d 5e90 16bc
000000c0: eb62 e8bd b595 29bd c9ac ce3c 6d38 da3c
000000d0: 2b7b 98bd 2e06 763d 9324 1bbe d05e f33c
000000e0: df8b 123e e0d5 ba3d fb5a ddbd 4291 323e
000000f0: 777b 4b3d 8172 75bd ad73 d1bd 4077 d23d
00000100: ceb7 d13d c883 583d ce41 30bd 4587 4dbc
00000110: a7df a33d fe5b 333d b30a c8bd 3d74 febd
00000120: a16e 193e b43f bb3d 87a1 8bbc b126 dfbc
00000130: 1572 043e 99ca 3cbb 5b2e bebc 81d4 42bd
00000140: 56aa 183d 905f 103e 89d1 82be 5825 25be
00000150: 824f 833c ac66 f93d 8386 61bc 4058 5fbd
00000160: 3f84 48bd 3967 b33c fdc7 30bd b4e7 2fbe
00000170: 430d 393d 2e33 1c3d 7fa7 53be e557 bebd
00000180: 207d 633d 9515 fa3d 3484 7a3c acf6 e6bb
00000190: 77a9 63bd f0e6 8dbd f772 68bc d0f0 8abd
000001a0: f9aa af3c e61d 0ebe a7a5 f1bd 3eef 873c
000001b0: 1b0a 683d e22b 2e3e 9c6b fdbd 3366 50bd
000001c0: b2d2 53bc 99f7 e9bc b382 22be ce7b 243d
000001d0: 5173 893b ecee 1c3d 6023 2abd aeb9 1a3c
-0.015239259 0.07289551 -0.023436805 0.041510936 -0.026514085 0.064602286 -0.11260174 0.0884566
0.14300817 0.10532894 0.013166662 -0.04148453 -0.022786312 -0.05426143 -0.14833638 -0.27871332
-0.104470365 -0.24605697 -0.037033543 0.03478079 0.065672964 0.15795289 -0.035584234 0.07442203
0.08516769 0.025392132 -0.17096117 -0.04947738 -0.08234976 -0.21996614 0.09940581 0.010370489
0.16969788 -0.12478696 -0.048920095 0.16118768 0.056266986 -0.041916255 0.060651027 0.00693744
0.046235096 0.003007948 -0.08064777 -0.050523635 0.19995393 0.017088398 0.08998049 -0.009189693
-0.11346992 -0.041402537 0.025228875 0.026638234 -0.074453674 0.060064487 -0.1515067 0.029708296
0.14311169 0.09122825 -0.10808369 0.17438224 0.049678292 -0.059923653 -0.102271415 0.102766514
0.10240136 0.05286005 -0.043031506 -0.012544458 0.08001643 0.043788902 -0.09767666 -0.124245144
0.14983608 0.0914301 -0.017044796 -0.02724013 0.12934144 -0.002880728 -0.023215463 -0.04756594
0.03727182 0.14098954 -0.25550488 -0.16127527 0.016029123 0.12177786 -0.01376498 -0.05452752
-0.048954245 0.021899806 -0.043159474 -0.17178231 0.045178663 0.038134746 -0.20669363 -0.09294108
0.05553925 0.12211148 0.015290309 -0.0070484485 -0.055581536 -0.069288135 -0.014187566 -0.067842126
0.02144383 -0.13878593 -0.11799174 0.016593572 0.056650262 0.17008927 -0.123740405 -0.050878715
-0.012928652 -0.028560447 -0.1587017 0.04015713 0.004194655 0.03831379 -0.041537642 0.009443684

fc2.weight f4 [84, 120]
00000000: 5326 053d 9169 5e3d 1a69 d1bd 9caf 773d
00000010: 24e2 83bd dbdc 243e 13bd fabd 55ea 8ebc
00000020: a7ae e63d abce 323e e1ed 6a3d 8ea1 10bd
00000030: 8d04 b5bd e273 0f3d 0dda 13be 9b04 6d3d
00000040: 9a7a fabd a0cc e93c 68e2 87bd 53e7 a8bd
00000050: 770e 2abe aeff 213e 7667 59bd 783f eebc
00000060: eff4 15bd 95d3 2b3e a267 04be 333f 9ebd
00000070: a4ae ba3d 7b62 57be 34b3 11bd 1622 0dbe
00000080: dfe0 863d b7bf fa3c 7e6e 2f3c 8337 16bd
00000090: ed17 223c f96e 0d3d 4c17 32bd f0a2 b33d
000000a0: 3367 593d ec21 63bd 7f4c 953d 03d7 9e39
000000b0: da6d 71be fb63 07be 058a 923e 35b2 f63b
000000c0: caf4 5e3d f9f5 563d c604 9b3c 71bb 4abb
000000d0: c8e2 b33b 1f22 efbd 8f3c afbd 9d39 a93d
000000e0: 2396 4d3e e9ac 983d 71ec 253d 350a 493e
000000f0: 9ef3 7fbd 37a3 a13d 6a56 e73d f0b2 0d3c
00000100: 6801 6a3e 994d 0bbd a369 4f3e ecc4 1ebe
00000110: 8585 533c 45cb ed3d a05d 76bd 6ef5 26be
00000120: c53f 93bd f3d8 963d 6510 cbbd ab70 1abd
00000130: 7305 c4bd 6a19 663d e6b3 323d bedf 96bd
00000140: 767e 403d 7d1b 42bd 904f 48be ad21 96be
00000150: 1ef5 cfbc ffb5 f8bd 86c6 6bbd 59c1 abbd
00000160: ad51 cebc b32e 9b3d 9cf8 203d f366 c93d
00000170: 9094 67bd 18d3 99ba 518e 86bc 369e f9bd
00000180: d8ce bdbd e323 2d3d 24ec e0bd b5bb 98bd
00000190: 5320 773e 584f d3bd f765 8bbd ee10 bbbd
000001a0: ffac 423c 332f d1bb 3653 85bd bdcd 953d
000001b0: 1f74 403d 94c3 4dbe 9f75 313e f134 bd3c
000001c0: 2d6b d1bb 2670 0ebe 1fd3 e03d 9ef0 ddbd
000001d0: cd5b a53d fbee d7bd 7c19 44bc a61d b63c
000001e0: fba0 2bbd abe1 3cbc cc99 d13d 47dd 65b9
000001f0: e85f 22bd 2d7b 8e3b 8848 a53d 441d 1e3c
00000200: b64c d53b 8cb0 4c3c 5165 4fbd 2a5b d23b
00000210: 060f f43c 5fbd ac3b d4f4 693d ee40 9e3c
00000220: d06d ceb9 6c46 a53d d3a8 ac3b 2415 353d
00000230: e176 51bd 9216 a0bc b877 acbd c389 f33d
00000240: 8e27 71bc 99c0 21bd 7158 b83d 7c91 2dbc
00000250: 57ce ce3b 2c1a f63d d4be ccbc 3513 383c
00000260: 81ed d9bd 9fa6 d13b 67be e43d b84a 463d
00000270: 42e0 88bd a2a7 26bd 0350 1ebd 100a abbc
00000280: b1c9 19bd b42d bcbd 7dec 32bd 288c 3abd
00000290: ba38 8fbd 6d55 503d e001 f2bd 3bc2 1ebd
000002a0: 6245 8cbd 3c81 9a3c dd9a cd3b c62b c1bc
000002b0: ef37 88bd f308 623d c66d 05be 140c d4bc
000002c0: be90 2fbd 8fcd e1bd c685 bb3b 459f 0bb9
000002d0: 87c9 2e3d cc8f 16bd ff27 f63c d035 6e3d
000002e0: 511a 3cbc 4605 20bd 5e36 1cbd 51fd 793b
000002f0: 2dcd 263d ebfb f6bb c494 50bd ecdd a2bc
00000300: f363 213d 7cce 033c 59b1 90bc ffd7 d3bb
00000310: 5ba1 e83c 4a8c fc3c c2db e5bc 0f94 8c3d
00000320: 3e28 77bd 50fa a2bd 13bc 793d f97f bcbc
00000330: 1f04 c53d 43b7 c5bc d1b5 20bc c74c 24bc
00000340: a839 78bd b69d 8dbc be79 813d 9e24 db3c
00000350: 9879 1ebc c7bc e4bc 2769 26bc 52cd b23c
00000360: 319a 5d3c 439d c2bc e450 a9bb 1418 72bc
00000370: 05e0 c4bd b8e9 333c 1c31 f73d 8f93 3c3d
00000380: 48b9 55bd ebea 0ebe 8f80 babc 2ee7 bfbd
00000390: c9da 243c b480 9dbd bd78 703c 7f5a 183d
000003a0: 8a90 813c f0ab 153e 1e25 10ba ff09 c2bd
000003b0: b188 debd e096 c1bc f3ca bd3c d812 a3bd
000003c0: e75c 94bd c068 b4be fc6b dabd fbe0 a53d
000003d0: d682 90bb b69f a4ba 9bc7 9abc 96c8 84bd
000003e0: ae71 60be e12d 3e3e 2b70 803c e05e 923c
000003f0: fbfa 3fbd 2663 e33c 703b aa3e 140d 8d3d
0.032507252 0.054299895 -0.10225125 0.06047021 -0.06439617 0.16099875 -0.12243094 -0.017445723
0.11263781 0.1746165 0.057355765 -0.03531032 -0.088387586 0.035022624 -0.14438649 0.05786572
-0.12230416 0.028539956 -0.066349804 -0.082472466 -0.1660708 0.1582019 -0.053077184 -0.029082999
-0.03661054 0.16779931 -0.12930158 -0.07726898 0.09115341 -0.21033661 -0.035571292 -0.13782534
0.065858595 0.030608995 0.010707496 -0.036674034 0.0098934 0.03452966 -0.04347925 0.08771312
0.053076934 -0.055452272 0.07289981 0.00030296305 -0.23577061 -0.13221733 0.28620926 0.007528568
0.054432668 0.05248067 0.018923175 -0.0030934478 0.005489681 -0.1167643 -0.085564725 0.08262942
0.20076804 0.07454855 0.04050869 0.196328 -0.06248819 0.07892459 0.11295779 0.008648619
0.22852099 -0.03400955 0.20255141 -0.15504807 0.0129102515 0.11611036 -0.06014788 -0.16304561
-0.071898974 0.073655985 -0.099152364 -0.037705105 -0.09571352 0.05617658 0.043628596 -0.07366894
0.046995603 -0.047389496 -0.195616 -0.29322568 -0.025385436 -0.12144088 -0.057562374 -0.083864875
-0.02518543 0.075772665 0.039299592 0.09834089 -0.056538165 -0.0011735884 -0.016425284 -0.121883795
-0.09267968 0.042270552 -0.1098254 -0.07457677 0.24133424 -0.10317868 -0.068065576 -0.091340885
0.011882066 -0.0063838004 -0.06510012 0.07314632 0.04698574 -0.20094138 0.17330025 0.023096533
-0.00639095 -0.13909969 0.10977768 -0.1083691 0.0807415 -0.10543629 -0.011968967 0.022230934
-0.04190157 -0.011528413 0.102344126 -0.00021921574 -0.039642245 0.00434818 0.08070475 0.009650532
0.006509389 0.012493264 -0.050633732 0.006419559 0.02979232 0.005271598 0.057118252 0.01931807
-0.00039373199 0.080700725 0.005269149 0.044209614 -0.051138762 -0.019542012 -0.08421272 0.1189151
-0.014718903 -0.039490316 0.09001244 -0.010593768 0.0063112187 0.12016711 -0.024993338 0.011235048
-0.106410034 0.0063980366 0.11169129 0.0484111 -0.06683399 -0.04068721 -0.038650524 -0.020878822
-0.037545864 -0.09188405 -0.043682564 -0.04554382 -0.069932416 0.05086272 -0.11816764 -0.03875945
-0.06849171 0.018860452 0.0062745647 -0.023580443 -0.066512935 0.055184316 -0.13030156 -0.025884666
-0.042862646 -0.11025535 0.005722734 -0.00013315406 0.04267266 -0.03675823 0.030048368 0.05815679
-0.011480884 -0.03906753 -0.038137786 0.0038145373 0.040723015 -0.007537355 -0.050923124 -0.019881211
0.03940196 0.008044835 -0.017662691 -0.0064649577 0.028397253 0.030828614 -0.02805889 0.068641774
-0.060341112 -0.079578996 0.060970377 -0.02301024 0.09619927 -0.024135238 -0.009808973 -0.010028071
-0.06060186 -0.017287116 0.063220486 0.026750859 -0.009672545 -0.027922047 -0.010156906 0.02182642
0.013525532 -0.023756629 -0.0051671136 -0.0147762485 -0.09613041 0.010981016 0.12069914 0.04603916
-0.05217865 -0.13956802 -0.02276638 -0.09370266 0.010061928 -0.07690564 0.014677224 0.03719568
0.015815992 0.1461637 -0.0005498695 -0.09474563 -0.108659156 -0.023631513 0.023168063 -0.079625785
-0.07244282 -0.35236168 -0.10665128 0.08099552 -0.004410128 -0.0012559805 -0.018894007 -0.06483571
-0.21918365 0.18572189 0.015678486 0.017867506 -0.046870213 0.027757239 0.33248472 0.0688726

fc2.bias f4 [84]
00000000: c0e4 63bb dadb dbbd 23e3 a03c 45cc 3b3c
00000010: 6a13 1dbd 43ca 5d3e 338c 09bd 2df6 553d
00000020: a1ca 983d 99e4 82bd 63dc 953d af79 c93c
00000030: 81e7 91bd 1f1a de3d 7004 15bd 131c 2bbe
00000040: bb17 2d3c 9f9f 653e d136 12bd fdf8 61bd
00000050: f5e2 c03d 2ee9 dcbd 2ba7 28be 113e 98bc
00000060: 58d2 b33d 8528 ebbd 89fe eb3c ad04 08be
00000070: f68d 4bbe 0c1b 3b3d 4e2b c63d 005a aabe
00000080: 0af3 e0bd e7b0 26bc 79fa ba3d 2ab1 083f
00000090: 746b 3a3e 7ca0 8b3d 53b8 d2bd 04e7 293c
000000a0: 2ea7 6fb9 ef78 1bbd 58c7 70be 8822 f1bd
000000b0: 794c 52be 133a c53b 6315 63be 93ad 19be
000000c0: 82d3 a83d b5e7 143d 295a 1bbc 3872 99bd
000000d0: 0370 d63e e90f acbd 336e 2d3e 6305 d73d
000000e0: 13e4 383d e9c9 60bc 0384 60bc a588 5bbe
000000f0: 3c1b 6abe 913a c6ba 1d92 113e cf04 79bd
00000100: 1f54 8e3e 1c78 c13c 705a 25bd e339 d8bc
00000110: 20be a43e afc9 6d3b 70c9 85bc 3883 113d
00000120: d4c0 ef3d 4c7c 83bd 5a0c 9ebd 52fd 25be
00000130: 8d11 8f3d 5f43 3abd ead6 c73d 600c 893e
00000140: 6302 953e dbd8 d23c e23b 05be a741 5abd
-0.0034773797 -0.10735293 0.019639557 0.011462276 -0.038348593 0.21659188 -0.03358097 0.052236725
0.074605234 -0.06391258 0.07317426 0.024594156 -0.07124234 0.10844826 -0.036381185 -0.16709928
0.01056474 0.22424172 -0.03569681 -0.055169094 0.094182886 -0.10786663 -0.1647002 -0.018584283
0.08780354 -0.11482338 0.028807895 -0.13283034 -0.19878373 0.04568009 0.096762285 -0.3327179
-0.10983856 -0.010174013 0.09129805 0.5339533 0.18205053 0.06817719 -0.10289063 0.01037002
-0.00022855095 -0.037957128 -0.23513544 -0.117741644 -0.20536985 0.006018886 -0.22176127 -0.1500762
0.08243467 0.036353786 -0.009481945 -0.074924886 0.41882333 -0.08401472 0.16936569 0.10499074
0.045139384 -0.013720014 -0.013703349 -0.21438845 -0.22861952 -0.0015123655 0.14215894 -0.0607956
0.27798554 0.023616843 -0.04036945 -0.02639479 0.32176304 0.0036283543 -0.016331404 0.03552553
0.11706701 -0.06420192 -0.077171996 -0.16209915 0.069857694 -0.045474406 0.097577885 0.26767254
0.29103383 0.02573817 -0.13011125 -0.053285267

fc3.weight f4 [10, 84]
00000000: 56c6 1dbe 0ef1 26be 4fa8 2fbf 7deb 5dbe
00000010: f6de 8e3d 7c38 d13d 7991 0abe ea47 713d
00000020: b7b2 82be 889f 23bd 8aea 04be 6aa6 01be
00000030: 4167 973e 9823 a73e b7e6 3cbe ed20 3d3e
00000040: 0a3c f2be f411 8d3d 8742 51be e197 803e
00000050: 9396 c8be ca1d af3d 76c5 31be 434e 6abd
00000060: df60 2dbe cd8b e7be 695c 25be 19c5 4fbe
00000070: 77a0 163f 97ec f4bc fd60 03be 8b7a 583d
00000080: 1d0a 403f fe9b aebe dc95 d5be 9d11 a8be
00000090: dc53 fe3e 82be 8b3e 1eb0 c7bd ff20 a8bd
000000a0: 2bde 213e 0e3e 11bd 6ac7 923e e79f f0bd
000000b0: 8dd0 18be 8ce9 8dbd 147c aabd 4c3e fbbd
000000c0: 1a97 db3e 4fb2 c6bd 6913 943e 2211 4bbb
000000d0: bcfc d7be 10bb 66be edf6 48bd f79d e13e
000000e0: b8d9 bfbe f087 fa3e 80c3 4f3d 7b49 213e
000000f0: d624 fbbd 8667 2c3e 8756 3dbe a976 8cbe
00000100: 16a0 fcbd 7f82 ea3d 3bfd 7fbe 74ed cb3c
00000110: e591 24bf 65c6 e03d 523e 81be a5d3 3e3f
00000120: ddbe 60be 4ed4 09bd f9f5 1b3f 523b b03e
00000130: 0412 0b3f 54da fdbd 4648 203e 8818 6dbe
00000140: 3f4b 9538 9180 b2bd dd6a 023e 9e82 a23e
00000150: 23a6 a9bd 6f39 4d3d d637 c8be f067 abbc
00000160: 59e5 26be d1d5 03be 00da a2bd f989 333e
00000170: 649c 4d3e 20fd 833e f4cb 153d 88dd 83bd
00000180: 8816 8fbe 47e7 aabc 84e6 e23e 6685 693e
00000190: 2291 123e b2f4 9abd 1229 dcbe 2cb5 c8bd
000001a0: c24d 953d 975f 863d f32d 0a3f 9814 08be
000001b0: d79d 9cbc 30d2 c1be 4417 58bd 30e5 413e
000001c0: 75ed 133f 6b5b f7bd 9151 003f 4fc5 093e
000001d0: 29a9 04bf 5e40 8cbd 1ab3 e2be 2f5e efbe
000001e0: cd76 d6be ac64 97bd af6b b53a 917e e83d
000001f0: f14f 6dbd 7b1e a1bd 71d7 123e 82bf a83d
00000200: 3cda a93e 3d67 7ebe 0dfc b73e a246 b73e
00000210: bb02 e6be f3c3 dcbe 31d9 3b3d 934c 023e
00000220: e406 ddbe 6c36 acbd e1cd 83be f37a d1be
00000230: 2bcc debd e7dd 33be 42f3 903d e159 0dbe
00000240: d1f8 f2bd e118 10be 61b5 96be 6740 433d
00000250: 390d 15be 8df5 ca3d 6144 753e c183 ba3d
00000260: 2124 66be 6f4b 5bbe 64cc aa3d e7a9 a6be
00000270: c462 e73d 0350 a93d c514 80bd 10b4 ffbd
00000280: 71ae 7ebe f69e 093e 3910 163c 749e ec3d
00000290: 4844 3bbe 2b3d c9bc f1a8 203e 351f e5bd
000002a0: 4e5f 24be 5255 8abc 622c 133f 1545 e9bd
000002b0: a1b5 fd3d 1614 aabe cfef 2ebd 5c5d 0abe
000002c0: 71ee 80be bdf7 b63e 24f8 f4bd e735 1a3e
000002d0: 359e 1c3e 8d90 dfbe 36cf 38be b6d6 93be
000002e0: ca33 913d c7c4 c33e a071 a93e a3bc fc3e
000002f0: e576 00bd aec1 473e e0cd 33be 12e1 d0bc
00000300: f404 babe 6c3b 86be 002e d3be 0681 f43c
00000310: e67e a2be c863 efbd 95ef d23e 69f5 a9be
00000320: c6c3 40be 64fa df3d 700e de3c 86b4 19be
00000330: 10d0 8e3c ed38 c33d 5b0a 9f3d c233 f1bd
00000340: 5795 dd3d 9594 a53e c455 af3e 941b 943e
00000350: 6685 3aba af0c babc badf 1cbe 163c 5a3e
00000360: df04 483f d9a9 a3bd 5728 d8be bac8 b4bd
00000370: 468b 5bbe 4c8b 0c3e 9e43 acbc 2fae b53e
00000380: 5d49 39be f17a d43d 0275 24bd 4725 003f
00000390: bc17 8fbc 67de 25be e393 08bd 1200 8fbc
000003a0: 75fd 333c e461 59be 1fce 343e 4501 14bd
000003b0: 3da9 eb3e 5639 993e 0490 763e 3d3b 2a3f
000003c0: d73c 59be 81d5 ea3a cb08 023f 430e b0be
000003d0: c406 85be f261 f4bd 7c05 8dbe 30f3 23be
000003e0: 728e 8dbe b50e 0cbd c209 793e a2ba a5be
000003f0: 1a29 6a3e f5e5 35bd 53fe aebe 1d0e 423e
-0.1540769 -0.16302893 -0.68616194 -0.21671863 0.0697612 0.10215852 -0.13532056 0.058906473
-0.25526974 -0.039947063 -0.12980095 -0.12661138 0.29570964 0.32644343 -0.18447386 0.18469591
-0.4731143 0.0688819 -0.20435534 0.25115874 -0.3917738 0.08550604 -0.17360482 -0.057203542
-0.16931485 -0.45223847 -0.16148533 -0.2029003 0.588386 -0.029897971 -0.12829967 0.05285124
0.7501543 -0.34103388 -0.41715896 -0.32825938 0.49673355 0.27293783 -0.097503886 -0.082094185
0.15807407 -0.03545957 0.28667766 -0.11749249 -0.14923306 -0.06929311 -0.08324447 -0.122677416
0.4288872 -0.097019784 0.2892106 -0.0030985554 -0.4218501 -0.22532296 -0.04906361 0.4406583
-0.37470794 0.48931837 0.050723553 0.15750687 -0.12262885 0.16836366 -0.18490039 -0.2743428
-0.123352215 0.114506714 -0.24998944 0.0248935 -0.6428512 0.10975341 -0.2524286 0.74541694
-0.21947809 -0.033649735 0.609222 0.34420258 0.54324365 -0.123951584 0.1565257 -0.23153889
7.118889e-05 -0.08715928 0.12736078 0.31740278 -0.08283641 0.0501036 -0.391051 -0.020923585
-0.16298427 -0.12874533 -0.079517365 0.17533101 0.2007919 0.25779057 0.036571458 -0.06438738
-0.27946877 -0.020862235 0.44316494 0.22804794 0.14313176 -0.07566203 -0.43000084 -0.09800181
0.07290222 0.06561201 0.5397636 -0.13289106 -0.019118233 -0.37855673 -0.052756563 0.18935084
0.57784206 -0.120779835 0.5012446 0.13454174 -0.5182062 -0.068482146 -0.4427727 -0.46751544
-0.41887513 -0.073922485 0.0013841296 0.113522656 -0.057937566 -0.07867142 0.14339997 0.08239652
0.33174312 -0.2484407 0.35934487 0.35796076 -0.44923958 -0.43118247 0.045861427 0.12724523
-0.4316932 -0.08408818 -0.2574301 -0.40914115 -0.10878786 -0.17565118 0.07077648 -0.13803817
-0.11863864 -0.1407199 -0.29435256 0.04766884 -0.14555825 0.09910116 0.23951866 0.09107161
-0.2247472 -0.21415494 0.08339766 -0.325515 0.11298135 0.08267214 -0.062539615 -0.12485516
-0.24871232 0.13439545 0.009159141 0.1155366 -0.18287766 -0.0245653 0.15689446 -0.11187593
-0.16051981 -0.016886387 0.574896 -0.113901295 0.123881586 -0.3321845 -0.042709168 -0.13512176
-0.25181916 0.35735884 -0.119613916 0.15059625 0.15294726 -0.4366497 -0.18047795 -0.2887475
0.07089956 0.38236067 0.33094501 0.49362668 -0.031363387 0.19507477 -0.17559004 -0.025497947
-0.36331904 -0.2621721 -0.41246033 0.02984668 -0.3173744 -0.11688954 0.41198412 -0.33195046
-0.18824682 0.1093643 0.027106494 -0.1501027 0.017433196 0.09532342 0.07765647 -0.1177745
0.108195 0.32339922 0.3424512 0.2892729 -0.0007115215 -0.022711126 -0.1531972 0.21311983
0.7813243 -0.0799138 -0.42218277 -0.08827348 -0.21439847 0.13725013 -0.021028336 0.35484454
-0.18094392 0.10375012 -0.04015065 0.5005688 -0.017467372 -0.16198121 -0.03334416 -0.017456088
0.010985722 -0.21228749 0.17656754 -0.036134023 0.46027556 0.29926556 0.24078375 0.6649664
-0.21214615 0.0017916412 0.50794667 -0.3438588 -0.25981724 -0.11932744 -0.27543247 -0.16010737
-0.2764774 -0.034193713 0.24320129 -0.32368952 0.22867242 -0.044408757 -0.3417841 0.18950696

fc3.bias f4 [10]
00000000: b819 d8be 605a e4be ad40 083e 9381 153f
00000010: 10be 563f b56e 00bf fa1c 183f 63d6 14bf
00000020: 3838 a53e 4576 8cbe
-0.42207122 -0.446002 0.13305922 0.5840084 0.8388376 -0.50168926 0.59419215 -0.5813963
0.32269454 -0.27433982
