round2/2025-04-18 18:02:40-weight-client-2f83fcfb-8.pth (torch, 252478 bytes, 10 tensors)

conv1.weight f4 [6, 3, 5, 5]
-0.36693254 -0.4932886 -0.4793367 -0.47621524 -0.41331473 -0.38607126 -0.37005106 -0.32857776
-0.2706174 -0.33051118 -0.3307687 -0.2915387 -0.25697717 -0.23605824 -0.23492543 -0.3548298
-0.2673713 -0.33280632 -0.36613986 -0.18841705 -0.22981189 -0.1995754 -0.2121322 -0.21651576
-0.07139913 -0.2160121 -0.07387381 -0.09209273 -0.13333492 -0.2011106 -0.088817075 -0.0908161
0.037091155 -0.036582477 -0.040756825 0.00026376272 0.025048604 0.0139708435 0.03474135 -0.18909563
-0.0414417 -0.09229721 -0.020933192 0.03202841 -0.14932552 -0.123540476 -0.14236371 -0.10198146
-0.09238998 -0.20542517 0.52890587 0.5257954 0.57959837 0.52003986 0.438176 0.5979441
0.7458778 0.61102694 0.523182 0.47425613 0.55285585 0.6193876 0.61891437 0.514365
0.50019884 0.560994 0.6646233 0.59772795 0.4849967 0.41737416 0.47954622 0.4815558
0.53845936 0.38014337 0.29264 0.37462875 0.59591323 0.6696609 0.6518739 0.30083242
0.4388989 0.5582495 0.46660236 0.47809553 0.30697623 0.2906892 0.21434292 0.059902184
-0.09178013 -0.024286859 -0.10486225 -0.3660474 -0.32147792 -0.26108465 -0.13200709 -0.0814209
-0.34587535 -0.31551197 -0.30896074 -0.08392236 0.21724969 0.39580455 0.53970665 0.4664922
0.19999497 0.25502986 0.31594273 0.25560984 0.055652868 0.078592084 0.023392709 -0.32873893
-0.34808728 -0.332687 -0.08433872 -0.28761208 -0.60853636 -0.6974336 -0.64585054 -0.51712745
-0.4204699 -0.58720267 -0.6398144 -0.48388544 -0.258097 0.42573303 0.37688667 0.5420164
0.5140829 0.283847 0.249911 0.48849702 0.37527627 0.32322115 0.13014284 0.053531356
-0.079486 -0.13586809 -0.13102293 -0.04458334 -0.2513894 -0.49820888 -0.5596944 -0.43726993
-0.25383255 -0.22102647 -0.32584476 -0.40434718 -0.2978837 -0.16420619 0.08177122 -0.06528398
-0.049022023 -0.34351417 -0.23569791 0.14979959 -0.077484235 0.050471462 -0.093096174 -0.17881957
0.15747629 -0.0020592995 -0.11113686 0.003588712 0.025872495 0.03477308 0.10526105 0.050993893
-0.074158736 -0.11632258 0.26860854 -0.0755478 0.21870966 -0.029556056 -0.18988824 0.54942423
0.39254102 0.32955763 0.19401787 0.19942358 0.45685217 0.47350135 0.3221302 0.24993621
0.19906238 0.5560734 0.4658557 0.3527244 0.36189467 0.36631224 0.4550112 0.29060042
0.46929115 0.3073073 0.20188557 0.42498368 0.30908668 0.5244801 0.3580507 0.09308946
-0.15555237 -0.29279473 -0.15271068 -0.39771032 -0.34036288 -0.2684197 -0.25025097 -0.24303523
-0.33127075 -0.2967467 -0.23935202 -0.27044836 -0.25908774 -0.36030963 -0.33541468 -0.35063344
-0.22799863 -0.21340346 -0.3087256 -0.5326131 -0.29641137 -0.40723303 -0.33914843 -0.23637156
-0.6668496 -0.040005695 -0.062015764 -0.0410171 -0.0990642 -0.28466472 0.10138522 0.2494059
0.11464941 0.039187457 -0.051297557 0.29795158 0.10160688 0.120425805 0.12386757 0.034855586
0.28892645 0.10227925 0.20332621 0.07079603 0.117039956 0.20660862 0.26187104 0.16522044
0.1736573 0.13906027 0.020771699 0.20181395 0.14023125 -0.025493374 -0.14230867 0.16466366
00000000: 95de bbbe 5390 fcbe 9f6b f5be 7cd2 f3be
00000010: fd9d d3be 22ab c5be 5577 bdbe 583b a8be
00000020: 5d8e 8abe c338 a9be 845a a9be 8f44 95be
00000030: 8392 83be 40b9 71be 4b90 70be 40ac b5be
00000040: e4e4 88be 9765 aabe af76 bbbe 66f0 40be
00000050: cf53 6bbe 7e5d 4cbe 2f39 59be 4fb6 5dbe
00000060: b539 92bd 4732 5dbe 274b 97bd 1d9b bcbd
00000070: f388 08be f0ef 4dbe bae5 b5bd cbfd b9bd
00000080: e5ec 173d 82d7 15bd a1f0 26bd a249 8a39
00000090: bb32 cd3c f7e5 643c f24c 0e3d 49a2 41be
000000a0: c6be 29bd 5206 bdbd 167c abbc 3930 033d
000000b0: cae8 18be ca02 fdbd cbc7 11be a8db d0bd
000000c0: f536 bdbd fa5a 52be 6066 073f 879a 063f
000000d0: 8f60 143f 5521 053f 9b58 e03e dd12 193f
000000e0: d9f1 3e3f 436c 1c3f 41ef 053f b3d1 f23e
000000f0: f687 0d3f 3090 1e3f 2c71 1e3f 6dad 033f
00000100: 080d 003f 4e9d 0f3f c124 2a3f b304 193f
00000110: 7d51 f83e 11b2 d53e 1587 f53e 7b8e f63e
00000120: 79d8 093f 27a2 c23e e9d4 953e 57cf bf3e
00000130: c58d 183f e66e 2b3f 35e1 263f b506 9a3e
00000140: 5bb7 e03e 70e9 0e3f 81e6 ee3e f0c8 f43e
00000150: fd2b 9d3e 37d5 943e b67c 5b3e fe5b 753d
00000160: 39f7 bbbd 3cf5 c6bc 05c2 d6bd 916a bbbe
00000170: c198 a4be e3ac 85be de2c 07be 00c0 a6bd
00000180: 9316 b1be c98a a1be 1a30 9ebe 7cdf abbd
00000190: b476 5e3e e5a6 ca3e 372a 0a3f 11d8 ee3e
000001a0: 7bcb 4c3e 4693 823e 3fc3 a13e 4bdf 823e
000001b0: 43f4 633d e3f4 a03d 11a2 bf3c 7850 a8be
000001c0: 7f38 b2be f355 aabe c7b9 acbd e441 93be
000001d0: 0ac9 1bbf 028b 32bf 7656 25bf 7762 04bf
000001e0: d547 d7be ea52 16bf e0ca 23bf d5bf f7be
000001f0: 4a25 84be aef9 d93e 4af7 c03e 96c1 0a3f
00000200: f09a 033f 6554 913e abe8 7f3e 481c fa3e
00000210: 3624 c03e 3e7d a53e 2a44 053e b243 5b3d
00000220: 8ec9 a2bd 0121 0bbe e02a 06be 059d 36bd
00000230: 1db6 80be 3c15 ffbe 2248 0fbf d8e1 dfbe
00000240: 57f6 81be c354 62be 20d5 a6be 9806 cfbe
00000250: 3684 98be ab25 28be ab77 a73d 9bb3 85bd
00000260: 51cb 48bd 17e1 afbe cb5a 71be 1065 193e
00000270: 0eb0 9ebd 2abb 4e3d 35a9 bebd 7a1c 37be
00000280: 7741 213e 50f5 06bb b99b e3bd 9930 6b3b
00000290: 8ef2 d33c 386e 0e3d 1b93 d73d f9de 503d
000002a0: 89e0 97bd 883a eebd 0f87 893e ceb8 9abd
000002b0: 6df5 5f3e 8b1f f2bc 1072 42be 11a7 0c3f
000002c0: 23fb c83e c7bb a83e 9fac 463e b235 4c3e
000002d0: 87e8 e93e c56e f23e 40ee a43e 47ef 7f3e
000002e0: 02d7 4b3e d45a 0e3f a384 ee3e 4b98 b43e
000002f0: 424a b93e 478d bb3e 3af7 e83e 94c9 943e
00000300: ee46 f03e 6257 9d3e 17bb 4e3e 7697 d93e
00000310: 9c40 9e3e 5444 063f 6c52 b73e b0a5 be3d
00000320: 1f49 1fbe 31e9 95be 3060 1cbe b0a0 cbbe
00000330: 0b44 aebe 4f6e 89be e520 80be 3ade 78be
00000340: 529c a9be 2fef 97be b218 75be 3578 8abe
00000350: 26a7 84be 817a b8be 79bb abbe 3a86 b3be
00000360: 7978 69be 7086 5abe 4811 9ebe 5559 08bf
00000370: 3bc3 97be d980 d0be dda4 adbe 630b 72be
00000380: a8b6 2abf 03dd 23bd 3e04 7ebd 8c01 28bd
00000390: 2ce2 cabd 93bf 91be 0ea3 cf3d 4364 7f3e
000003a0: 4fcd ea3d 0783 203d 631d 52bd 1c8d 983e
000003b0: 4517 d03d cea1 f63d 48ae fd3d bbc4 0e3d
000003c0: 2bee 933e c977 d13d bf34 503e 82fd 903d
000003d0: a5b2 ef3d 3691 533e f613 863e 8c2f 293e
000003e0: 38d3 313e d165 0e3e 6929 aa3c 51a8 4e3e
000003f0: c898 0f3e 7bd7 d0bc 5db9 11be 979d 283e

conv1.bias f4 [6]
-1.0667948 -0.23738894 0.19273476 -1.7295239 -0.32239223 -0.035405662
00000000: bb8c 88bf 1616 73be 435c 453e 0a61 ddbf
00000010: 9810 a5be 8705 11bd

conv2.weight f4 [16, 6, 5, 5]
0.21730876 0.02530317 0.014873998 0.00087848667 0.04996969 0.008734412 -0.07736022 -0.07094015
-0.12445756 0.03213141 0.05097889 0.031760696 -0.08641209 -0.022760656 0.0874355 0.11481465
0.00787312 0.05593106 0.07098627 0.08783071 0.14825381 0.10506097 0.11621951 0.11716178
0.20283325 0.0037611416 0.06950334 -0.020698648 -0.15710545 -0.21202308 0.032608785 -0.028569095
-0.14300013 -0.21669108 -0.15525635 -0.090748176 -0.12048377 -0.17134501 -0.266477 -0.20421928
-0.11939052 -0.27430594 -0.3213322 -0.24862617 -0.25668576 -0.25448912 -0.278856 -0.33922666
-0.3229543 -0.2603089 0.014984913 0.07453119 0.030275322 0.108952224 0.037242137 -0.05047755
-0.026325114 -0.030114982 -0.03285504 -0.040058073 -0.035057954 0.08022161 0.07125107 0.113031015
0.030772014 -0.050639722 0.036209673 -0.025505938 0.055633966 -0.042679105 -0.07683634 0.04587175
0.046301242 -0.002809718 -0.02402591 0.36995322 0.38422433 0.3242175 0.24622503 0.20877469
0.13685271 0.17713343 0.12259283 0.050478134 0.059401114 0.073176034 0.062932104 0.026837124
0.056942187 -0.047466725 -0.0021912768 -0.09348765 -0.019914214 -0.04108387 -0.004809267 -0.06677506
-0.045427877 -0.12165415 -0.16476324 -0.20875524 0.04721313 -0.00019840774 -0.008829999 -0.019539075
-0.0836726 -0.009668511 0.036851767 -0.020466669 0.013690446 -0.0023235625 -0.040498592 -0.017956564
-0.032335546 -0.07641534 -0.1262896 -0.036278885 0.01715238 -0.036245633 -0.094787754 -0.03689569
-0.05215524 -0.029280698 -0.062736325 -0.013679591 -0.0998639 -0.01985758 0.010568191 -0.009888623
-0.029272467 0.0065233056 -0.005527359 0.08618954 0.0353833 0.0018626532 0.027525624 -0.020400483
0.012611533 -0.02273995 -0.03636343 -0.025814174 0.002744824 0.03213198 0.045915645 -0.05029397
-0.042641938 -0.0068733394 0.017830217 0.060105305 0.007694614 0.026817512 0.08262564 -0.02052064
0.013418959 -0.058285028 0.11828469 -0.00670717 -0.018325899 0.025978979 -0.058345057 -0.042065307
0.04131052 0.07824247 -0.039731957 -0.058782477 -0.07078749 0.077788785 0.065896325 0.03413859
0.040519565 -0.022789992 0.02073551 0.042085998 -0.048078053 0.018892124 0.052181184 -0.027522167
0.024693493 0.05167483 0.08522261 0.12865336 0.007299687 -0.04280148 -0.073927306 0.104567416
0.20085104 0.08681328 -0.07067984 0.010876241 0.032049574 0.10659154 0.026818031 0.02312939
0.028283775 0.050850473 -0.06506645 0.020849014 0.05882569 0.07027171 0.031118415 -0.08459426
-0.02504746 -0.0101640215 -0.14671122 -0.05676934 -0.15766871 -0.092620954 -0.091849566 -0.057252638
-0.08286935 -0.053529017 -0.17602666 -0.08749057 -0.021545717 -0.10057539 -0.11540715 -0.12640934
-0.08770613 -0.06235581 -0.02200206 -0.05091132 -0.117739215 -0.06025679 -0.044345304 -0.035542328
-0.060777754 0.055717308 -0.013299101 -0.040168803 0.059766494 0.10022596 0.04609688 -0.010711225
0.062404837 0.03667092 -0.03248084 0.040324092 0.114177026 0.075233996 0.06078715 0.032957733
-0.0078265015 0.10569875 0.14027838 0.080539115 0.06184887 -0.07015916 0.06602764 0.1173821
0.019353965 -0.035975568 -0.06557904 0.0028833505 -0.13167848 -0.06534916 -0.0020488112 0.06429262
00000000: 3086 5e3e 9848 cf3c 12b2 733c 3e4a 663a
00000010: 05ad 4c3d c71a 0f3c 096f 9ebd 1249 91bd
00000020: 9be3 febd 3a9c 033d 3ecf 503d 8117 023d
00000030: d2f8 b0bd 8e74 babc 6211 b33d f123 eb3d
00000040: 42fe 003c f817 653d 4061 913d 96e0 b33d
00000050: d9cf 173e 352a d73d 7f04 ee3d 84f2 ef3d
00000060: 85b3 4f3e 7c7d 763b c457 8e3d 3690 a9bc
00000070: 40e0 20be 941c 59be ca90 053d bc09 eabc
00000080: a06e 12be 44e4 5dbe 85fb 1ebe 2eda b9bd
00000090: 32c0 f6bd 1175 2fbe ac6f 88be dc1e 51be
000000a0: 0483 f4bd d471 8cbe a785 a4be dc97 7ebe
000000b0: 516c 83be 664c 82be 37c6 8ebe 1eaf adbe
000000c0: 445a a5be 3547 85be 4883 753c cfa3 983d
000000d0: f403 f83c 5822 df3d 368b 183d 8cc1 4ebd
000000e0: c4a7 d7bc b2b3 f6bc 0293 06bd ef13 24bd
000000f0: ee98 0fbd 3a4b a43d 15ec 913d ce7c e73d
00000100: 9715 fc3c 996b 4fbd 9850 143d d4f1 d0bc
00000110: 71e0 633d 49d0 2ebd 5f5c 9dbd 04e4 3b3d
00000120: 5fa6 3d3d 3f23 38bb fcd1 c4bc 826a bd3e
00000130: 0db9 c43e d6ff a53e 6a22 7c3e 08c9 553e
00000140: 1e23 0c3e 7762 353e f311 fb3d 29c2 4e3d
00000150: 954e 733d 51dd 953d 8ce2 803d 87d9 db3c
00000160: 363c 693d 786c 42bd 869b 0fbb 7476 bfbd
00000170: 2223 a3bc 8f47 28bd 0e97 9dbb 5dc1 88bd
00000180: 9512 3abd d025 f9bd b2b7 28be efc3 55be
00000190: 8e62 413d ac0b 50b9 b3ab 10bc 6910 a0bc
000001a0: 8a5c abbd ad68 1ebc e1f1 163d b7a9 a7bc
000001b0: e44d 603c e946 18bb dae1 25bd a519 93bc
000001c0: 4772 04bd a57f 9cbd 1052 01be 2b99 14bd
000001d0: 2683 8c3c 4d76 14bd 1520 c2bd ef1f 17bd
000001e0: bca0 55bd 13de efbc e77b 80bd 5d20 60bc
000001f0: 7285 ccbd 5dac a2bc 3526 2d3c e403 22bc
00000200: d0cc efbc 74c1 d53b d91e b5bb 2484 b03d
00000210: 14ee 103d 4524 f43a 6b7d e13c ea1e a7bc
00000220: 9aa0 4e3c 2249 babc d2f1 14bd 3f78 d3bc
00000230: 81e2 333b d39c 033d 0b12 3c3d 0d01 4ebd
00000240: 50a9 2ebd c039 e1bb ad10 923c fb30 763d
00000250: 1a23 fc3b 66b0 db3c a237 a93d e71a a8bc
00000260: 32db 5b3c 48bc 6ebd 3e3f f23d d2c7 dbbb
00000270: 3220 96bc ded1 d43c 3afb 6ebd ac4c 2cbd
00000280: 3835 293d 973d a03d fabd 22bd e5c5 70bd
00000290: 08f9 90bd ba4f 9f3d a7f4 863d e8d4 0b3d
000002a0: d8f7 253d 14b2 babc 84dd a93c 5e62 2c3d
000002b0: 7eed 44bd a8c3 9a3c f0bb 553d 2b76 e1bc
000002c0: 024a ca3c fda8 533d 3189 ae3d b5bd 033e
000002d0: 3632 ef3b 9b50 2fbd 3367 97bd 7127 d63d
000002e0: e5ab 4d3e 29cb b13d 98c0 90bd 4332 323c
000002f0: 6a46 033d aa4c da3d 7db1 db3c d979 bd3c
00000300: 60b3 e73c 9648 503d 8f41 85bd 8dcb aa3c
00000310: 35f3 703d 9dea 8f3d 0cec fe3c c13f adbd
00000320: 5530 cdbc ff86 26bc 773b 16be f886 68bd
00000330: e873 21be 0eb0 bdbd a01b bcbd be81 6abd
00000340: 68b7 a9bd 3e41 5bbd 5540 34be 422e b3bd
00000350: a580 b0bc 78fa cdbd 955a ecbd 7371 01be
00000360: 469f b3bd ce68 7fbd aa3d b4bc 6388 50bd
00000370: 4221 f1bd d3cf 76bd 6ca3 35bd d594 11bd
00000380: 18f2 78bd d537 643d 79e4 59bc 0b88 24bd
00000390: b6cd 743d 4543 cd3d 15d0 3c3d 227e 2fbc
000003a0: 379c 7f3d 3f34 163d a10a 05bd e02a 253d
000003b0: a5d5 e93d 4814 9a3d f2fb 783d b0fe 063d
000003c0: ba3a 00bc 9678 d83d 23a5 0f3e b1f1 a43d
000003d0: 3e55 7d3d 9baf 8fbd 8039 873d 0766 f03d
000003e0: 358c 9e3c 1e5b 13bd 4e4e 86bd 98f6 3c3b
000003f0: b9d6 06be c8d5 85bd 5945 06bb d9ab 833d

conv2.bias f4 [16]
-0.19000371 -0.28242537 -0.124800906 -0.14159879 -0.0928459 0.15747076 0.0068551553 0.18834049
0.36194068 0.2580783 -0.4906104 0.28863338 -0.051479768 0.12515867 -0.21114336 0.13706021
00000000: 5590 42be 0f9a 90be 9e97 ffbd 46ff 10be
00000010: fe25 bebd 0440 213e 36a1 e03b 54dc 403e
00000020: 4a50 b93e d722 843e 4931 fbbe c1c7 933e
00000030: 73dc 52bd 9829 003e f735 58be 8359 0c3e

fc1.weight f4 [120, 400]
0.06225458 0.0027366062 0.01996975 -0.017327666 0.0017634475 0.017471192 0.049429685 -0.036643792
0.0068583637 0.001613924 -0.008187107 -0.045693986 0.027491461 0.03290369 -0.006918706 0.06872214
-0.0039466717 -0.02333353 0.015039911 -0.01910497 0.060292322 0.013899964 0.051901378 0.06462404
0.020621264 -0.0044099726 0.0111293215 -0.006355497 -0.018576795 -0.018335784 0.036563218 -0.027398018
-0.013719096 0.000113299575 0.0006804677 0.049249038 -0.014094246 -0.010295883 -0.0028590548 -0.034484107
-0.03811587 0.012015472 0.025005655 0.020687845 0.024283623 0.027321784 0.0041426914 0.029344587
0.039490424 -0.017330412 -0.015185457 0.012627963 0.03496053 0.07248619 0.036157362 0.06920387
0.03713087 0.116735965 0.07443417 -0.010930534 0.06903056 0.07144787 0.04033396 0.075271405
-0.04070945 0.0823799 0.066611335 -0.009804564 -0.030065157 -0.007819086 0.0681333 0.016364537
-0.008800686 -0.0545357 -0.02781692 0.0056995917 -0.061768666 -0.009043816 0.044304483 0.07963968
0.010475565 0.051076066 0.07027206 0.07135893 0.021669 0.034988504 0.10037596 0.07914591
-0.0008100973 0.017276522 0.027103513 -0.020540453 0.049059838 -0.0006340798 -0.059904784 0.038735308
0.041607484 -0.021800557 -0.07003894 -0.059532616 -0.0232851 0.035211504 0.05380853 0.00991495
0.025173452 -0.011162169 0.01834875 -0.036265723 0.0017477334 -0.019774785 -0.010812279 -0.024119949
0.018249294 -0.011900255 0.017348208 -0.036755815 0.04903326 0.028798379 0.014746993 0.013166658
-0.011972831 0.016082332 -0.01917984 0.044563614 0.045570653 0.0017036254 -0.014519297 0.042881105
-0.023781972 -0.02149303 0.0070550013 0.018404987 0.028636564 0.033853184 -0.031669818 -0.0027490116
0.009912999 -0.039942935 0.02155669 0.000894402 -0.03278354 0.045850158 0.010024574 0.0132508
-0.041712485 -0.0022138432 -0.026574092 0.0047605126 -0.005631757 0.0012321374 0.019167857 0.050726086
-0.0009169667 -0.054038387 -0.042074054 0.030022522 0.026018716 -0.05512504 0.0019397828 -0.004510196
-0.0042086854 -0.03896653 0.010502231 0.018550426 0.044351693 -0.015534065 -0.019355763 0.014684543
0.07326774 0.008720848 -0.019572737 -0.026022267 -0.077748336 -0.05690902 -0.10954534 0.0075345905
-0.008955097 -0.02177643 -0.045372237 0.03723545 0.047540028 -0.030273797 0.05087188 -0.01019023
0.024089048 -0.041140318 -0.019205995 0.04492624 -0.017144993 0.046081357 0.007847785 0.012255411
0.0059572724 0.022427749 -0.0106187025 -0.08052678 0.028159138 0.021645807 0.009817419 -0.031264704
-0.011375917 0.029502371 0.012782881 -0.0058876267 -0.0039282287 -0.030074582 0.005507424 -0.02583185
0.0054795956 0.0035975496 0.030748269 0.014257165 -0.023465864 0.009369617 0.03910002 0.009090698
0.018710202 0.023893464 -0.03471974 0.0050938097 8.2337036e-05 -0.016629562 0.005586046 -0.03437134
0.017908903 -0.04671559 -0.015884612 0.028940037 -0.049753364 -0.034525517 -0.060009222 0.02703732
0.00776986 0.022673475 0.029921766 -0.021323916 -0.04741347 0.017816018 0.058387242 -3.1510193e-05
-0.055255722 -0.039598987 0.035483662 0.054601435 0.026667468 -0.05471676 0.0023531227 -0.04684885
-0.001500112 0.02171066 0.026295284 0.016964741 -0.030676842 -0.004034611 -0.03725077 -0.009919746
00000000: a9fe 7e3d a258 333b 9a97 a33c c0f2 8dbc
00000010: 7b23 e73a bf1f 8f3c c876 4a3d cd17 16bd
00000020: 20bc e03b 4e8a d33a 3723 06bc 9e29 3bbd
00000030: c635 e13c 05c6 063d 50b6 e2bb 31be 8c3d
00000040: 1553 81bb f625 bfbc f569 763c 0782 9cbc
00000050: 15f5 763d adbc 633c 8a96 543d 9c59 843d
00000060: eded a83c 8881 90bb c257 363c c641 d0bb
00000070: 5d2e 98bc ed34 96bc 50c3 153d cf71 e0bc
00000080: 0fc6 60bc 3f9b ed38 6a61 323a 5cb9 493d
00000090: 8deb 66bc 10b0 28bc fb5e 3bbb 353f 0dbd
000000a0: 631f 1cbd 8bdc 443c a9d8 cc3c 8e79 a93c
000000b0: 73ee c63c efd1 df3c 6abf 873b 0f64 f03c
000000c0: b6c0 213d 82f8 8dbc 6ccc 78bc 84e5 4e3c
000000d0: c632 0f3d a473 943d be19 143d c2ba 8d3d
000000e0: 8a16 183d 4413 ef3d f170 983d fc15 33bc
000000f0: e55f 8d3d 4353 923d 3935 253d e527 9a3d
00000100: f4be 26bd cbb6 a83d 866b 883d 52a3 20bc
00000110: 344b f6bc a01b 00bc 7989 8b3d ec0e 863c
00000120: c130 10bc d360 5fbd 4fe0 e3bc a4c3 ba3b
00000130: 2401 7dbd 832c 14bc 9e78 353d 211a a33d
00000140: b4a1 2b3c 2335 513d ccea 8f3d a124 923d
00000150: 3083 b13c 1b50 0f3d e991 cd3d 4017 a23d
00000160: b65c 54ba 7e87 8d3c 3008 de3c 7444 a8bc
00000170: f8f2 483d 6038 26ba b85e 75bd eaa8 1e3d
00000180: 9c6c 2a3d 1597 b2bc 9370 8fbd 79d8 73bd
00000190: 65c0 bebc f039 103d 5566 5c3d 5072 223c
000001a0: 8e38 ce3c 88e1 36bc 1e50 963c 5e8b 14bd
000001b0: 3414 e53a bbfe a1bc fc25 31bc 3397 c5bc
000001c0: 8b7f 953c 4af9 42bc d41d 8e3c 448d 16bd
000001d0: 1ad7 483d 94ea eb3c 5f9d 713c f7b8 573c
000001e0: b129 44bc 18bf 833c 0a1f 9dbc 5688 363d
000001f0: 4ba8 3a3d 2f4c df3a 58e2 6dbc 19a4 2f3d
00000200: 69d2 c2bc 2712 b0bc a42d e73b 0ec6 963c
00000210: 3a97 ea3c a3a9 0a3d 36b8 01bd c328 34bb
00000220: 226a 223c 349b 23bd a897 b03c 4d76 6a3a
00000230: 0948 06bd 60cd 3b3d 1c3e 243c e219 593c
00000240: b6da 2abd 2016 11bb e9b1 d9bc 13fe 9b3b
00000250: 9a8a b8bb ac7f a13a e905 9d3c 28c6 4f3d
00000260: 9860 70ba 5b57 5dbd d855 2cbd cbf1 f53c
00000270: 3425 d53c cbca 61bd 4f40 fe3a 44ca 93bb
00000280: 03e9 89bb 5e9b 1fbd 8d11 2c3c 10f7 973c
00000290: 1faa 353d 9782 7ebc fa8f 9ebc 7097 703c
000002a0: 660d 963d e3e1 0e3c 0157 a0bc a62c d5bc
000002b0: 853a 9fbd 6f19 69bd 4f59 e0bd bae4 f63b
000002c0: 66b8 12bc 7c64 b2bc 3dd8 39bd 3384 183d
000002d0: 55b9 423d c100 f8bc 085f 503d ecf4 26bc
000002e0: 6556 c53c c082 28bd e455 9dbc 9404 383d
000002f0: a873 8cbc cebf 3c3d ff93 003c ebca 483c
00000300: 3935 c33b 66ba b73c 11fa 2dbc 39eb a4bd
00000310: fead e63c 8c52 b13c 3dd9 203c 6b0f 00bd
00000320: 0e62 3abc f5ae f13c 4a6f 513c feec c0bb
00000330: 5fb8 80bb f85e f6bc 9f77 b43b 519d d3bc
00000340: 2e8e b33b dec4 6b3b cbe3 fb3c e296 693c
00000350: 7c3b c0bc 0683 193c 5827 203d 27f1 143c
00000360: 2346 993c 3abc c33c 4936 0ebd f9e9 a63b
00000370: 5cac ac38 b83a 88bc 260b b73b f6c8 0cbd
00000380: b1b5 923c d958 3fbd 7220 82bc a813 ed3c
00000390: 2fca 4bbd a16a 0dbd 3bcc 75bd 5f7d dd3c
000003a0: 4f9a fe3b b9bd b93c 7e1e f53c 7eaf aebc
000003b0: a034 42bd e6f2 913c 7627 6f3d d029 04b8
000003c0: d353 62bd 8c32 22bd 5157 113d c1a5 5f3d
000003d0: bc75 da3c ae1e 60bd d936 1a3b 94e4 3fbd
000003e0: 689f c4ba 8eda b13c 3569 d73c a4f9 8a3c
000003f0: 004e fbbc c534 84bb 4394 18bd 6e86 22bc

fc1.bias f4 [120]
-0.050048154 0.024983892 0.031643134 0.07229954 -0.053199194 -0.012535422 0.007923724 0.048857838
0.083113395 -0.029582318 -0.022351038 -0.0945539 -0.03367783 0.0082495585 -0.003266792 -0.06259125
-0.0116321035 -0.004876733 -0.035803538 0.06215968 0.033221763 0.016492955 0.026022097 0.01644501
-0.014519148 -0.0745496 -0.027030809 -0.00096846675 -0.0054324213 -0.0301328 0.16152407 -0.0035595943
0.028262084 0.041467197 0.010667981 -0.0598046 -0.017595382 0.077315 0.018072637 -0.013066364
-0.050011374 0.015575057 0.032012984 0.044553123 0.041118633 0.008197695 -0.0031825535 -0.006322484
-0.019712722 -0.05110399 -0.007801549 -0.012067469 0.011390613 -0.029436525 -0.012794138 0.003721108
-0.008660268 0.05708124 0.036968812 -0.012955874 0.008454068 0.102249265 0.10822567 -0.053296626
-0.07983025 0.031732157 -0.07652615 -0.0015871351 -0.05159664 0.037250146 0.08865816 0.03156969
0.019256571 -0.00035494033 0.0360643 0.000103726445 0.1593293 0.020565173 -0.02141857 0.0042122724
0.0037658047 -0.0080105215 0.03564239 0.009931408 0.012009311 0.053366307 -0.006713323 -0.038386136
0.11086361 0.06518963 -0.02502731 -0.012636781 0.06587878 -0.042659797 0.0039997906 0.014154556
-0.004482035 0.020092689 -0.02738744 -0.017428296 -0.08817204 0.007871103 -0.015601572 -0.04946983
-0.026165921 -0.025854452 -0.045363218 -0.07257991 -0.01888203 0.027846335 -0.060080606 0.051774163
0.011804901 -0.051480055 0.09117261 0.032840297 -0.054589782 -0.07084663 -0.023269018 -0.0071131275
00000000: 4bff 4cbd 05ab cc3c 3b9c 013d c811 943d
00000010: 66e7 59bd 5f61 4dbc 82d2 013c 281f 483d
00000020: 5b37 aa3d 9e56 f2bc 8619 b7bc 7aa5 c1bd
00000030: c4f1 09bd 2829 073c ad17 56bb d72f 80bd
00000040: 9494 3ebc 00cd 9fbb bba6 12bd 269b 7e3d
00000050: 8b13 083d 3c1c 873c 4b2c d53c b0b7 863c
00000060: b8e1 6dbc 76ad 98bd b76f ddbc b4e0 7dba
00000070: 7402 b2bb 10d9 f6bc 9166 253e 1548 69bb
00000080: e385 e73c 82d9 293d c1c8 2e3c abf5 74bd
00000090: 3124 90bc 5457 9e3d 110d 943c 4e14 56bc
000000a0: bad8 4cbd 862e 7f3c 0c20 033d 567d 363d
000000b0: 036c 283d a04f 063c 6392 50bb d72c cfbb
000000c0: 937c a1bc 6b52 51bd 23a4 ffbb a2b6 45bc
000000d0: b29f 3a3c de24 f1bc 819e 51bc d5dd 733b
000000e0: cce3 0dbc 05ce 693d 9c6c 173d e044 54bc
000000f0: ee82 0a3c 1068 d13d 6ca5 dd3d 904d 5abd
00000100: 0b7e a3bd 94f9 013d beb9 9cbd 6b07 d0ba
00000110: 0057 53bd 9c93 183d 6992 b53d 384f 013d
00000120: f5bf 9d3c 4917 bab9 29b8 133d b687 d938
00000130: 3827 233e 4b78 a83c ff75 afbc 1a07 8a3b
00000140: b8cb 763b 903e 03bc c1fd 113d 58b7 223c
00000150: b3c2 443c a196 5a3d 6ffb dbbb c83a 1dbd
00000160: 760c e33d 2482 853d 1306 cdbc 800a 4fbc
00000170: 74eb 863d 0abc 2ebd ad10 833b 83e8 673c
00000180: 09de 92bb 6c99 a43c a05b e0bc c9c5 8ebc
00000190: 8b93 b4bd ccf5 003c bc9d 7fbc e0a0 4abd
000001a0: ea59 d6bc b7cc d3bc c8ce 39bd c7a4 94bd
000001b0: 7dae 9abc ff1d e43c 1517 76bd 2511 543d
000001c0: 5869 413c c0dc 52bd b5b8 ba3d 8c83 063d
000001d0: 8999 5fbd 0a18 91bd ab9e bebc 3d15 e9bb

fc2.weight f4 [84, 120]
-0.01150614 0.16972338 0.08524593 -0.06018414 0.03413297 0.08179643 -0.102691114 -0.031238336
-0.021224134 -0.0018379596 0.07556128 -0.03394857 0.027104309 0.017248726 0.036810875 -0.065082945
0.024469545 -0.09354312 0.017509257 0.11682547 0.024204727 -0.10915558 -0.0061368113 0.021150524
0.0008382039 0.13286819 0.012652755 -0.0068975464 -0.10109868 0.13967754 0.0015911858 0.025739145
0.057970352 0.15529321 0.007411527 0.0616848 -0.036263056 -0.086089194 0.014651664 0.023398438
0.022761902 -0.0033757924 -0.088205464 -0.11525748 -0.018264955 0.0105359685 -0.069945306 -0.09781106
0.053975247 -0.07216166 -0.019456327 -0.0979861 -0.0759167 -0.028863437 0.10236837 0.23379922
-0.0071754516 0.040502623 0.040295947 0.07803526 -0.11151858 0.056830533 -0.10726922 0.009664046
0.20751344 -0.084090814 -0.0233746 0.076905705 0.019589407 0.051377743 0.083100714 -0.123003915
-0.13783439 0.0864236 -0.13012168 -0.0030940233 -0.02924544 -0.012337082 0.0020137196 0.12713869
-0.038120937 0.02193952 0.012459401 -0.07893008 -0.019352691 -0.025851032 0.02310697 -0.04230763
0.05998271 -0.012200685 0.102828756 0.07113936 -0.06472531 0.06404146 0.023869285 0.058143698
0.04789577 -0.03220326 0.00041534987 0.0030816917 0.041838553 -0.0072493693 0.020205924 -0.076164976
0.056144156 0.028573256 0.019988062 -0.010384061 -0.037574437 0.084501535 -0.045089215 0.12159422
0.019956533 0.09309176 -0.035989355 0.17984036 -0.013975968 0.029898144 -0.061438628 -0.004138831
-0.03824448 -0.037827514 -0.052138563 0.045145437 0.01120346 0.05402308 0.033114027 -0.05423012
0.028972551 -0.03386627 0.016692048 -0.033006564 0.099663265 0.06609834 -0.0041759447 -0.0010789722
-0.03657858 -0.028944606 -0.061732307 -0.016132837 0.045690294 -0.058826193 0.031221978 -0.010770648
-0.0023549038 -0.03349096 0.0028233097 -0.04877601 -0.015110977 -0.07166269 -0.05774006 -0.006076345
-0.10154966 0.02975833 0.028180024 -0.017461196 -0.033693008 0.024271116 0.00011607355 -0.004750139
0.1817418 -0.0031336374 -0.079280324 0.006662459 0.07246193 -0.076606944 -0.016191239 0.07161086
0.01993373 0.03181228 0.09240947 -0.026602501 -0.023922946 0.09793742 -0.02113747 -0.014214156
-0.043904506 -0.009197809 -0.013829443 -0.06432582 -0.0076729334 0.015616452 0.036138386 0.07200594
-0.067907885 0.12100567 -0.05706663 0.04863974 0.086825445 0.082399376 -0.11349846 -0.039381713
-0.037812058 -0.18040124 -0.0320604 0.100122705 -0.03495071 0.023262814 0.2168739 0.010831247
0.024074148 -0.07088013 0.061472896 -0.015279463 0.024588786 0.03100814 -0.012304912 0.069771
-0.010369454 0.0239521 0.20636798 -0.05075705 0.06433555 -0.021580957 0.07542194 -0.04350191
0.006229071 -0.004379606 -0.04615798 0.020696634 -0.09243556 -0.085346125 -0.04351625 -0.08821724
-0.08093423 0.04211549 -0.014384428 0.016926177 0.1381304 0.05446815 -0.09598663 -0.008545043
0.012521972 -0.043118495 -0.051876783 -0.045997735 -0.029248603 0.023117132 -0.0040531983 -0.08512539
0.008801665 -0.007983144 -0.07816661 0.052024946 0.054360405 -0.049972404 0.016534867 -0.0066879634
-0.048697256 -0.016078493 -0.026056062 -0.061955113 0.005828563 0.06999311 0.034625314 0.004332275
00000000: 4084 3cbc f7cb 2d3e 6b95 ae3d a583 76bd
00000010: 03cf 0b3d e384 a73d b84f d2bd 8ae7 ffbc
00000020: 3cde adbc b1e7 f0ba dfbf 9a3d a80d 0bbd
00000030: db09 de3c 334d 8d3c 00c7 163d 354a 85bd
00000040: 5b74 c83c 8993 bfbd 936f 8f3c 3142 ef3d
00000050: fe48 c63c f68c dfbd 4e17 c9bb dd43 ad3c
00000060: e9ba 5b3a 990e 083e 804d 4f3c d004 e2bb
00000070: d30c cfbd a107 0f3e 568f d03a e6da d23c
00000080: 5272 6d3d 2f05 1f3e 65dc f23b 33a9 7c3d
00000090: 9288 14bd 884f b0bd 880d 703c 15ae bf3c
000000a0: 2b77 ba3c 663c 5dbb 11a5 b4bd 1d0c ecbd
000000b0: 63a0 95bc 0e9f 2c3c 7c3f 8fbd 2a51 c8bd
000000c0: 2615 5d3d 7ec9 93bd e062 9fbc f0ac c8bd
000000d0: 377a 9bbd 0473 ecbc 82a6 d13d 1069 6f3e
000000e0: 0d20 ebbb 14e6 253d 5d0d 253d f3d0 9f3d
000000f0: da63 e4bd 22c7 683d f7af dbbd f255 1e3c
00000100: 677e 543e ce37 acbd 177c bfbc bd80 9d3d
00000110: f779 a03c 7871 523d b530 aa3d 7ae9 fbbd
00000120: 7524 0dbe dbfe b03d 9e3e 05be 19c5 4abb
00000130: 2294 efbc 7921 4abc 9cf8 033b a530 023e
00000140: b324 1cbd 82ba b33c 8422 4c3c 18a6 a1bd
00000150: 8989 9ebc 8bc5 d3bc d44a bd3c c44a 2dbd
00000160: 6eb0 753d 62e5 47bc e297 d23d 83b1 913d
00000170: b48e 84bd 2b28 833d 8589 c33c 1628 6e3d
00000180: 5b2e 443d 91e7 03bd 51c3 d939 35f6 493b
00000190: e75e 2b3d 1e8c edbb e586 a53c 62fc 9bbd
000001a0: 6af7 653d 7612 ea3c 01be a33c e921 2abc
000001b0: a7e7 19bd 240f ad3d 78af 38bd 6406 f93d
000001c0: e27b a33c e5a6 be3d 9369 13bd 1228 383e
000001d0: 75fb 64bc f4ec f43c 12a7 7bbd 089f 87bb
000001e0: 3ea6 1cbd 06f1 1abd 3f8f 55bd 6cea 383d
000001f0: b88e 373c 4e47 5d3d 93a2 073d 6720 5ebd
00000200: d857 ed3c 5cb7 0abd c3bd 883c e431 07bd
00000210: 411c cc3d 915e 873d 5dd6 88bb 4d6c 8dba
00000220: 6cd3 15bd 3d1d edbc 04db 7cbd 0329 84bc
00000230: bf25 3b3d bcf3 70bd 3cc5 ff3c 5f77 30bc
00000240: bb54 1abb d12d 09bd 4707 393b 5ac9 47bd
00000250: 0894 77bc e3c3 92bd d780 6cbd 141c c7bb
00000260: 45f9 cfbd bec7 f33c cbd9 e63c c80a 8fbc
00000270: ae01 0abd 38d4 c63c 836c f338 0ea7 9bbb
00000280: 861a 3a3e b65d 4dbb b95d a2bd c250 da3b
00000290: ec66 943d 1ae4 9cbd 7da3 84bc b7a8 923d
000002a0: 104c a33c 984d 023d 2d41 bd3d 7ded d9bc
000002b0: 0efa c3bc 6a93 c83d 7d28 adbc 7ee2 68bc
000002c0: 36d5 33bd 68b2 16bc e394 62bc 41bd 83bd
000002d0: 3b6d fbbb 26dc 7f3c d805 143d da77 933d
000002e0: 4a13 8bbd d2d1 f73d b3be 69bd 773a 473d
000002f0: 8ad1 b13d 01c1 a83d e171 e8bd b84e 21bd
00000300: d1e0 1abd 1abb 38be c451 03bd 220d cd3d
00000310: 7a28 0fbd a891 be3c 3114 5e3e 8b75 313c
00000320: 2637 c53c 9a29 91bd 01cb 7b3d b656 7abc
00000330: 6c6e c93c c804 fe3c 8b9a 49bc 19e4 8e3d
00000340: a4e4 29bc 3237 c43c 2152 533e a0e6 4fbd
00000350: 5bc2 833d 8cca b0bc d176 9a3d 0f2f 32bd
00000360: 3c1d cc3b cc82 8fbb 2610 3dbd fd8b a93c
00000370: db4e bdbd f3c9 aebd 183e 32bd 3eab b4bd
00000380: d8c0 a5bd 4b81 2c3d aaac 6bbc c4a8 8a3c
00000390: 0e72 0d3e ff19 5f3d a394 c4bd 8200 0cbc
000003a0: f528 4d3c 059d 30bd c07c 54bd 1f68 3cbd
000003b0: c49a efbc 2460 bd3c b1d0 84bb 3856 aebd
000003c0: dc34 103c bccb 02bc d115 a0bd 1c18 553d
000003d0: 04a9 5e3d ddaf 4cbd 2174 873c b426 dbbb
000003e0: c676 47bd 0bb7 83bc 8673 d5bc a5c4 7dbd
000003f0: 88fd be3b 8c58 8f3d 46d3 0d3d c2f5 8d3b

fc2.bias f4 [84]
-0.027037907 -0.09055839 0.024016978 -0.029285854 -0.16193703 0.031836312 -0.032226104 -0.11318704
-0.0015842032 -0.11491424 0.033890195 -0.05510368 0.10767957 0.19914329 0.075578086 0.028153114
0.15851788 -0.09221878 0.14714684 -0.006812019 0.018234892 0.04941763 -0.07586983 -0.047926836
-0.07710682 0.069770984 0.05055607 -0.02315315 0.08314106 -0.01642984 -0.028428577 0.039633855
-0.06743613 0.043920055 -0.0243935 0.014623339 -0.09733347 -0.04152077 -0.051055867 0.018713761
-0.0077528823 0.017324332 -0.019728534 0.19242303 0.037499472 0.0024162924 -0.08403698 0.079325534
0.0678298 0.06535937 -0.10011902 0.12035006 -0.09209933 0.2533525 -0.09455657 -0.05079176
0.17386667 0.15428837 0.052037325 0.08521507 -0.101843774 0.26485404 -0.035153918 -0.05854894
0.02321138 0.062335797 -0.01195621 0.05895277 -0.11084949 0.18415551 -0.048107896 -0.07856311
-0.1184479 0.018450351 -0.028897615 0.07616344 0.010074334 -0.056311633 0.07220324 0.10705118
-0.08791316 0.01168752 -0.047504734 0.061525654
00000000: 9a7e ddbc ad76 b9bd 41bf c43c e3e8 efbc
00000010: d2d2 25be cb66 023d 85ff 03bd 9bce e7bd
00000020: 0aa5 cfba 2858 ebbd 72d0 0a3d 65b4 61bd
00000030: 1b87 dc3d 38ec 4b3e afc8 9a3d 5ca1 e63c
00000040: 8352 223e 33dd bcbd a9ad 163e 5b37 dfbb
00000050: 5761 953c 246a 4a3d a461 9bbd ee4e 44bd
00000060: 2eea 9dbd 17e4 8e3d e213 4f3d adab bdbc
00000070: dc45 aa3d df97 86bc 0ce3 e8bc 1c57 223d
00000080: f41b 8abd 84e5 333d e1d4 c7bc bb96 6f3c
00000090: c556 c7bd af11 2abd f51f 51bd 9a4d 993c
000000a0: e40b febb c2eb 8d3c bc9d a1bc 8b0a 453e
000000b0: 0c99 193d a95a 1e3b 951b acbd 6d75 a23d
000000c0: 5aea 8a3d 22db 853d 330b cdbd 187a f63d
000000d0: 939e bcbd 6bb7 813e e0a6 c1bd 050b 50bd
000000e0: 1b0a 323e c5fd 1d3e 1725 553d 3d85 ae3d
000000f0: 7893 d0bd f39a 873e 8efd 0fbd 03d1 6fbd
00000100: cb25 be3c d253 7f3d fbe3 43bc 7678 713d
00000110: 0f05 e3bd 4393 3c3e c90c 45bd b2e5 a0bd
00000120: d094 f2bd 3125 973c b1ba ecbc 94fb 9b3d
00000130: d20e 253c 07a7 66bd 4bdf 933d a63d db3d
00000140: d10b b4bd 037d 3f3c 5394 42bd 5302 7c3d

fc3.weight f4 [10, 84]
0.2556099 -0.17197976 0.11292302 -0.021502737 -0.065256394 -0.14313158 0.09979306 0.044141747
-0.098668486 -0.17250195 0.1064324 0.16311763 0.020914694 0.07789568 0.03644347 -0.04019743
-0.31535503 0.047521506 0.08449324 -0.14980368 0.1661423 0.11795021 -0.13698943 0.08871926
0.21547884 0.17418355 0.20444071 0.10768818 0.014280022 0.05966268 -0.00046848264 -0.0378591
0.12812139 0.06767696 0.31231353 0.102469385 -0.025856521 0.102981605 0.023368059 0.026272988
0.063102685 0.040573455 -0.018493617 -0.1765273 0.22521791 0.048378926 0.43303707 0.100597896
-0.18716416 -0.08872354 0.21412608 -0.024277866 -0.13660032 -0.41878295 -0.12082396 -0.12419964
-0.21908325 -0.29402497 0.012254698 -0.051729113 -0.052606393 -0.21367693 0.4965282 -0.18977208
-0.0047657047 -0.27462897 -0.033286877 -0.029170375 -0.0117646735 -0.17620839 -0.115246564 -0.20763119
0.1797355 0.1693279 0.22458379 0.099435665 -0.17295693 0.057175387 -0.123776354 0.24273391
0.016858518 0.13166852 0.29223222 0.023491329 0.055369627 -0.20603085 -0.07556665 0.026900094
-0.07899311 -0.2705857 0.17295325 0.066538595 0.19006547 0.111082144 0.039480805 -0.070507765
0.00443434 -0.25295883 -0.15731739 0.053195048 0.15513468 -0.1974694 -0.09448592 -0.019384073
-0.100772604 0.04188684 -0.3003067 -0.1235933 0.025428675 -0.09759458 -0.09232023 0.078722715
0.042162854 -0.015632331 -0.04536944 -0.19890065 0.16347235 0.34013227 -0.13838547 -0.094055705
0.1275678 0.09593103 -0.0015636005 -0.05940409 -0.1213706 0.044669505 -0.16178657 -0.12313504
0.33124492 0.14469498 -0.115293 0.21769501 -0.10110473 -0.06930321 0.08855767 -0.0845248
0.4519218 0.3002243 -0.07270409 -0.14467871 -0.078882635 0.061757077 -0.009419606 -0.30483377
0.36497906 -0.082640536 -0.094151065 0.004476013 -0.007185272 0.013127559 -0.3079007 -0.12551123
-0.08246683 0.08145769 -0.118581384 -0.096957006 -0.0800563 -0.09778021 0.14993519 0.12595715
-0.16180363 0.037037425 0.4930937 -0.035423063 0.34699646 0.011386799 0.01900608 0.26659667
-0.029409511 0.32351014 0.05463774 -0.13783863 0.2664894 -0.041433465 -0.016559454 -0.0430483
-0.05167683 0.017677365 -0.062199317 0.13462466 0.06657219 -0.034054 -0.0218062 -0.044162303
0.006448303 -0.26686975 -0.053462204 -0.064120926 0.05541405 0.0473142 0.120820485 0.10319586
-0.040793996 -0.14107402 -0.16580999 0.03758131 -0.06786671 -0.032394916 0.12663746 0.23975582
-0.015330766 -0.18001454 0.38316882 -0.0052918703 0.056922343 -0.104610935 -0.033804137 -0.1317987
-0.00012678743 0.0041275835 0.009141701 0.05339307 -0.33388653 0.0016677459 -0.099626794 0.06476095
0.23598132 -0.01626494 0.22154571 -0.16177958 -0.10597992 0.12023889 -0.081413016 0.0523009
-0.16737072 -0.11538396 -0.00550464 0.24285232 0.08063666 0.24911079 0.024560325 -0.049947172
-0.12472553 0.0029869904 0.5007766 0.14491399 -0.06618823 0.11702958 -0.05646486 -0.1960439
0.24267477 -0.16468747 0.4033434 -0.17073932 -0.1439478 0.10254237 0.12846391 -0.060237788
0.022927787 -0.20383659 0.08493863 0.033054553 -0.21408981 0.02326084 -0.07512681 0.028671145
00000000: 4ddf 823e 761b 30be 2f44 e73d 8226 b0bc
00000010: 25a5 85bd 1691 12be 4e60 cc3d facd 343d
00000020: b412 cabd 5aa4 30be 3bf9 d93d 4f08 273e
00000030: 4b55 ab3c c587 9f3d bf45 153d 0fa6 24bd
00000040: 3776 a1be e9a5 423d cb0a ad3d 2366 19be
00000050: 3521 2a3e e18f f13d f546 0cbe 72b2 b53d
00000060: 7ca6 5c3e 2c5d 323e e858 513e 9f8b dc3d
00000070: c1f6 693c db60 743d ad9e f5b9 2512 1bbd
00000080: 4132 033e 389a 8a3d 8fe7 9f3e 78db d13d
00000090: 0ed1 d3bc 05e8 d23d 5f6e bf3c 733a d73c
000000a0: fb3b 813d 5a30 263d ed7f 97bc 93c3 34be
000000b0: 869f 663e fb28 463d 09b7 dd3e 4506 ce3d
000000c0: f6a7 3fbe b0b4 b5bd de43 5b3e 60e2 c6bc
000000d0: f4e0 0bbe b86a d6be 8d72 f7bd 615c febd
000000e0: 5c57 60be 718a 96be eec7 483c e8e1 53bd
000000f0: cd79 57bd 20ce 5abe f238 fe3e 9d53 42be
00000100: a129 9cbb 2b9c 8cbe d257 08bd b6f6 eebc
00000110: 9ec0 40bc f96f 34be 6406 ecbd 459d 54be
00000120: 950c 383e 4b64 2d3e 4bf9 653e eda4 cb3d
00000130: 9f1b 31be bd30 6a3d 757e fdbd 3d8f 783e
00000140: e01a 8a3c 1dd4 063e 769f 953e e370 c03c
00000150: 43cb 623d c0f9 52be b0c2 9abd 965d dc3c
00000160: 24c7 a1bd 358a 8abe a81a 313e 6345 883d
00000170: 86a0 423e 097f e33d a0b6 213d 6066 90bd
00000180: f14d 913b d283 81be cf17 21be 0de3 593d
00000190: a0db 1e3e 6b35 4abe d681 c1bd 59cb 9ebc
000001a0: de61 cebd 8991 2b3d cdc1 99be 7c1e fdbd
000001b0: cc4f d03c abdf c7bd 6412 bdbd 6039 a13d
000001c0: f5b2 2c3d 600f 80bc 4ed5 39bd 9dac 4bbe
000001d0: 4c65 273e d125 ae3e ecb4 0dbe 47a0 c0bd
000001e0: 22a1 023e 7d77 c43d baf1 ccba b451 73bd
000001f0: 2691 f8bd 5ff7 363d 61ab 25be 392e fcbd
00000200: ef98 a93e ec2a 143e bd1e ecbd 71eb 5e3e
00000210: ff0f cfbd d7ee 8dbd b95d b53d 571b adbd
00000220: 4b62 e73e 00b7 993e e2e5 94bd a826 14be
00000230: 388d a1bd fdf4 7c3d b154 1abc 2c13 9cbe
00000240: 89de ba3e 713f a9bd 46d2 c0bd 85ab 923b
00000250: 6e72 ebbb f914 573c 29a5 9dbe 0486 00be
00000260: 5fe4 a8bd 4ad3 a63d ccda f2bd 6591 c6bd
00000270: 8ff4 a3bd fe40 c8bd 9c88 193e e9fa 003e
00000280: daaf 25be 8eb4 173d c776 fc3e c617 11bd
00000290: 85a9 b13e b28f 3a3c a4b2 9b3c 5c7f 883e
000002a0: 37ec f0bc 1fa3 a53e d3cb 5f3d 9225 0dbe
000002b0: 4c71 883e 23b6 29bd b1a7 87bc 6a53 30bd
000002c0: 15ab 53bd 1fd0 903c b6c4 7ebd 0cdb 093e
000002d0: 0057 883d 357c 0bbd eaa2 b2bc 88e3 34bd
000002e0: 494c d33b 27a3 88be 2ffb 5abd d551 83bd
000002f0: d8f9 623d 89cc 413d bb70 f73d 5a58 d33d
00000300: 9b17 27bd b575 10be 18ca 29be dcee 193d
00000310: b4fd 8abd 88b0 04bd 40ad 013e 8d82 753e
00000320: e52d 7bbc bb55 38be b42e c43e 6d67 adbb
00000330: 6727 693d 423e d6bd 3576 0abd 3df6 06be
00000340: 3ef2 04b9 ae40 873b 13c7 153c b1b2 5a3d
00000350: 2df3 aabe 4498 da3a 2209 ccbd 64a1 843d
00000360: 16a5 713e 0d3e 85bc e1dc 623e 8ca9 25be
00000370: 000c d9bd cf3f f63d debb a6bd 7839 563d
00000380: 3b63 2bbe 6d4e ecbd 4460 b4bb 47ae 783e
00000390: d524 a53d e616 7f3e bc32 c93c 6895 4cbd
000003a0: 1970 ffbd 62c1 433b e532 003f 5564 143e
000003b0: b28d 87bd 34ad ef3d b247 67bd bbbf 48be
000003c0: bc7f 783e d5a3 28be 0783 ce3e 4ad6 2ebe
000003d0: 0d67 13be bc01 d23d 0b8c 033e e6bb 76bd
000003e0: 0ed3 bb3c 8aba 50be 4ef4 ad3d 3664 073d
000003f0: 5c3a 5bbe 848d be3c 16dc 99bd c0df ea3c

fc3.bias f4 [10]
-0.25102153 -0.15456751 0.09544651 0.2759522 0.28064185 -0.1993578 0.32746598 -0.15493794
0.08328637 -0.04359865
00000000: e585 80be f246 1ebe 7679 c33d 9b49 8d3e
00000010: 4ab0 8f3e 7324 4cbe 9fa9 a73e 0da8 1ebe
00000020: 0b92 aa3d 7f94 32bd
