round4/2025-04-18 18:28:49-weight-client-b8e76fc7-8.pth (torch, 252478 bytes, 10 tensors)

conv1.weight f4 [6, 3, 5, 5]
0	0xbf2184cb	-0.6309325
1	0xbf8401f9	-1.0313102
2	0xbe8e9512	-0.27848107
3	0xbf17de3d	-0.59323484
4	0xbf5cd441	-0.86261374
5	0xbe504e1f	-0.20342301
6	0xbf0cace0	-0.54951286
7	0x3dd49cd0	0.10381472
8	0xbe832132	-0.25611264
9	0xbf0eb581	-0.55745703
10	0xbe6d5293	-0.23176031
11	0xbf23439b	-0.6377503
12	0xbdd3f680	-0.103497505
13	0xbe88fd02	-0.2675553
14	0xbf32bfb6	-0.6982378
15	0x3e395391	0.18098284
16	0xbea9cc79	-0.33163813
17	0x3ebc159a	0.3673523
18	0x3d8b3d24	0.06798771
19	0xbf52b1f1	-0.8230277
20	0x3ec816e8	0.39079976
21	0x3f0fe896	0.5621427
22	0x3f4beb0a	0.79655516
23	0x3e6474cc	0.2231018
24	0xbe02b086	-0.12762651
25	0x3edf1005	0.4356691
26	0x3e699262	0.22809747
27	0x3f70a2b9	0.93998295
28	0x3f0e1641	0.55502707
29	0x3ea05b61	0.31319717
30	0x3f8ff002	1.124512
31	0x3f9586e2	1.1681788
32	0x3fd70e63	1.6801265
33	0x3fa04c36	1.2523258
34	0x3f443c66	0.7665466
35	0x3f8e4505	1.1114813
36	0x3f5995dc	0.8499429
37	0x3fbe988b	1.4890302
38	0x3fab1edf	1.3368796
39	0x3f262ae6	0.6490921
40	0x3f964b0d	1.1741654
41	0x3f6f4425	0.93463355
42	0x3fd5ff71	1.671858
43	0x3f8eeef6	1.1166675
44	0x3e878326	0.26467246
45	0x3f827932	1.0193236
46	0x3fb59a6e	1.4187753
47	0x3fdc190e	1.7195146
48	0x3f93b5fb	1.1539911
49	0x3f079071	0.52954775
50	0xbfc09c7c	-1.5047755
51	0xbf9d8e7b	-1.2309107
52	0xbf2211ca	-0.63308394
53	0xbf9a6cb7	-1.2064427
54	0xbfab3e7b	-1.3378443
55	0xbf5da93b	-0.8658635
56	0xbf4c683f	-0.79846567
57	0xbee0a022	-0.43872172
58	0xbf39ee06	-0.7262882
59	0xbfb1a40b	-1.3878187
60	0xbf90c48e	-1.1309984
61	0xbf928868	-1.1447878
62	0xbf3a1c12	-0.7269908
63	0xbf7e5cb7	-0.9936022
64	0xbfc71462	-1.5553095
65	0xbf887ea6	-1.066365
66	0xbfa57ca8	-1.2928667
67	0xbf3c1df5	-0.7348321
68	0xbf963498	-1.17348
69	0xc001103b	-2.0166156
70	0xbf9fff3b	-1.2499765
71	0xbf5ef50d	-0.8709267
72	0xbf24169a	-0.6409699
73	0xbfab943a	-1.340461
74	0xbff8e3e5	-1.9444548
75	0x3dcd4cbe	0.10024403
76	0xbefa0440	-0.48831367
77	0x3ed9c37a	0.4253195
78	0x3eac159c	0.33610237
79	0x3da161ce	0.07879983
80	0xbae2db91	-0.0017307868
81	0xbf25abd5	-0.6471532
82	0x3eb0b87b	0.34515747
83	0x3f0bec07	0.54657024
84	0xbe117cf6	-0.14207825
85	0xbe2377e4	-0.15963703
86	0xbf0da607	-0.5533146
87	0x3ecd589f	0.40106675
88	0x3f6b0855	0.9180959
89	0xbea77ef2	-0.3271404
90	0xbe948c43	-0.2901326
91	0x3e2fe495	0.17177041
92	0x3d7ea9a6	0.062173508
93	0x3e3d3e9f	0.1848092
94	0xbe0fd15f	-0.14044712
95	0xbeb2b590	-0.34904146
96	0x3eac0ab1	0.33601907
97	0x3e853537	0.26017162
98	0x3d9e6845	0.077347316
99	0x3e0e90e2	0.13922456
100	0x3f5645cb	0.83700246
101	0x3f0219d1	0.5082064
102	0x3fb04984	1.3772435
103	0x3fcc2dec	1.5951514
104	0x3f8fba77	1.122878
105	0x3f4268dd	0.7594126
106	0x3f05fef5	0.5234216
107	0x3fadc9b5	1.3577181
108	0x3ffd19f7	1.9773549
109	0x3f6ae64c	0.91757655
110	0x3f3d1c90	0.7387171
111	0x3f118d17	0.5685591
112	0x3fd41a18	1.6570463
113	0x40090737	2.1410654
114	0x3f573990	0.8407221
115	0x3f28417c	0.6572492
116	0x3f871eb6	1.0556247
117	0x3fa3acff	1.2787169
118	0x3fa8c47d	1.3184963
119	0x3f5a8af9	0.85368305
120	0x3e9a54fc	0.30142963
121	0x3fa2ebca	1.2728207
122	0x3f9fb0a7	1.2475785
123	0x3fa5da53	1.2957252
124	0x3f79872a	0.9747187
125	0xbf92ffe3	-1.148434
126	0xbfbc4d8a	-1.4711163
127	0xbf141c50	-0.578557
128	0xbeca2897	-0.39484093
129	0xbf5fa172	-0.8735572
130	0xbf8e8a44	-1.1135945
131	0xbfcc7167	-1.5972108
132	0xbecc1dac	-0.39866388
133	0xbec2aac2	-0.38020903
134	0xbf9527b4	-1.1652741
135	0xbfab25b9	-1.3370887
136	0xbfba36ab	-1.4547933
137	0xbf26355c	-0.6492517
138	0xbe236fdc	-0.1596064
139	0xbfaa8148	-1.3320704
140	0xbfc20b21	-1.5159646
141	0xbf800bef	-1.0003642
142	0xbf87709d	-1.0581242
143	0xbf71ee6c	-0.9450443
144	0xbfb3831a	-1.4024384
145	0xbfdd7c96	-1.7303646
146	0xbf892d81	-1.0717012
147	0xbf66dcf1	-0.9018088
148	0xbf82c38c	-1.0215926
149	0xbfa77c85	-1.3084875
150	0x3e73bcb4	0.23802453
151	0x3f01b219	0.5066238
152	0x3f1949be	0.59878147
153	0x3e97c432	0.29641873
154	0xbe1c60f0	-0.15271354
155	0x3eb3665a	0.35039026
156	0x3ea609b1	0.3242927
157	0x3ead6020	0.338624
158	0x3e7782b0	0.24170947
159	0xbd66ee73	-0.056379747
160	0xbe93e2ea	-0.2888406
161	0xbecf0f9b	-0.40441594
162	0xbf101317	-0.5627913
163	0xbeffa3c8	-0.49929643
164	0xbe2be178	-0.16785228
165	0xbf5627de	-0.8365458
166	0xbfdaea6d	-1.7102791
167	0xbfe62ece	-1.7983034
168	0xbfb46369	-1.4092838
169	0xbf3ddc4a	-0.7416426
170	0xbf79e535	-0.9761537
171	0xbfbacf39	-1.4594489
172	0xbfe19253	-1.762278
173	0xbfa52f8d	-1.2905136
174	0xbf2db88b	-0.67859715
175	0x3ead456d	0.3384203
176	0x3f604ec6	0.876202
177	0x3f7d8a71	0.9903937
178	0x3ed1c241	0.40968516
179	0xbce0787a	-0.027401198
180	0x3ef427e1	0.47686675
181	0x3f283ee9	0.65720993
182	0x3f46feb0	0.7773237
183	0x3e8de4f6	0.27713746
184	0xbd861c6f	-0.06548392
185	0xbe89f176	-0.26942033
186	0xbe9cdd5b	-0.3063763
187	0xbe93de4b	-0.28880534
188	0xbec6b43b	-0.3880938
189	0xbebc395e	-0.36762518
190	0xbf969a14	-1.1765771
191	0xbfbfa5a6	-1.4972427
192	0xbfc7e8a0	-1.5617867
193	0xbf9e58fa	-1.2370903
194	0xbf331808	-0.69958544
195	0xbf8a540a	-1.0806897
196	0xbfc90674	-1.5705094
197	0xbfb46ac1	-1.4095079
198	0xbf9ab576	-1.2086627
199	0xbf3fba1b	-0.7489335
200	0x3fdbfe1b	1.7186922
201	0x40087d56	2.13265
202	0x400abb81	2.1676943
203	0x3ffa80a8	1.9570513
204	0x3f586e71	0.8454352
205	0x3fda099a	1.703418
206	0x40015523	2.0208213
207	0x4002b606	2.0423598
208	0x3fe01205	1.7505499
209	0x3f962226	1.1729171
210	0x3fb2f741	1.3981706
211	0x3f97523f	1.1821975
212	0x3f9f161e	1.2428625
213	0x3f90a366	1.1299865
214	0x3f6af4e2	0.9177991
215	0x3da0be11	0.07848752
216	0xbe09cf78	-0.1345805
217	0xbd168638	-0.036749095
218	0x3dc85fcc	0.09783897
219	0x3ee9f4bc	0.4569453
220	0x3e7f7b87	0.24949466
221	0xbded4ed8	-0.11587304
222	0xbd371ee3	-0.04470719
223	0x3dff0f70	0.12454116
224	0x3e505f71	0.20348908
225	0xbf22215a	-0.6333214
226	0xbdab9ec1	-0.08379889
227	0x3e5fa008	0.21838391
228	0xbeb0c431	-0.34524682
229	0xbf44c4f5	-0.7686303
230	0x3edb0a35	0.42781225
231	0x3f72c414	0.9483044
232	0x3f52e29c	0.8237703
233	0x3edc9b66	0.4308731
234	0x3e6243e4	0.2209621
235	0x3f1e052d	0.6172665
236	0x3ef11d5b	0.4709271
237	0x3f12b28c	0.5730369
238	0x3e96a3a4	0.29421723
239	0x3e1ea099	0.1549095
240	0xbe5155a5	-0.20442827
241	0xbf0e7339	-0.55644566
242	0xbeeb7822	-0.45990092
243	0xbdaffbe3	-0.085929655
244	0xbd0b588b	-0.034019988
245	0xbeb2103c	-0.3477801
246	0xbf4e65d4	-0.8062413
247	0xbf41ca10	-0.7569895
248	0xbf0025ee	-0.50057876
249	0xbe52c4b9	-0.20582856
250	0xbea3f623	-0.32023725
251	0x3efa5d4a	0.488993
252	0x3f28b7b6	0.6590532
253	0x3edc794b	0.4306129
254	0xbe9d85b9	-0.30766085
255	0x3f5ee017	0.87060684

conv1.bias f4 [6]
0	0xc010aaa7	-2.2604158
1	0xbf9effca	-1.2421811
2	0xc00927c1	-2.1430514
3	0xc0a20afa	-5.06384
4	0xc00f4247	-2.2384202
5	0x3fdc5d9b	1.7216066

conv2.weight f4 [16, 6, 5, 5]
0	0xbe850f6d	-0.2598833
1	0xbee08694	-0.43852675
2	0xbf2a091d	-0.66420156
3	0xbf28adc9	-0.65890175
4	0xbf649966	-0.8929657
5	0xbe571c99	-0.21007003
6	0xbf0260f6	-0.509292
7	0xbefd2e02	-0.49449164
8	0xbeba336a	-0.3636735
9	0xbf13b213	-0.57693595
10	0xbe10be8d	-0.1413519
11	0xbe508e0b	-0.20366685
12	0xbd7a7412	-0.06114585
13	0x3d1030c5	0.03520276
14	0xbd0cc977	-0.03437182
15	0x3eea5816	0.4577033
16	0x3ea23920	0.31684208
17	0x3e5f4d62	0.21806863
18	0x3ea83b7d	0.32857886
19	0x3e901ace	0.2814545
20	0x3f0845ee	0.53231704
21	0x3edf0b07	0.435631
22	0x3ed51dc4	0.41624272
23	0x3ed3a55f	0.41337106
24	0x3edc1953	0.4298807
25	0xbe8bde32	-0.2731796
26	0xbe225fab	-0.15856807
27	0x3e4ade93	0.19811468
28	0x3e693397	0.22773586
29	0x3d37fb7d	0.044917572
30	0xbd89af72	-0.06722917
31	0xbbd8ca28	-0.006615896
32	0x3de828f8	0.11335939
33	0xbe02303e	-0.12713715
34	0xbeb52483	-0.3537942
35	0xbe1e8932	-0.15482023
36	0xbd263e5d	-0.040586818
37	0xbe24e9cd	-0.16104813
38	0xbe9f73aa	-0.31142932
39	0xbe8b6898	-0.27228236
40	0x3ce34a56	0.027745407
41	0x3e461d52	0.19347122
42	0x3e922f1e	0.28551573
43	0x3e1d1376	0.15339455
44	0x3e934af2	0.28768116
45	0x3ee2b5e1	0.44279388
46	0x3f0e09ec	0.5548389
47	0x3f0d97b5	0.5530961
48	0x3ea24a4a	0.31697303
49	0x3ee66dda	0.45005685
50	0x3d1b80c6	0.037964605
51	0xbd534a29	-0.051584397
52	0xbdf3d26e	-0.11905371
53	0xbce118e8	-0.027477697
54	0x3e5a3c6a	0.21312109
55	0x3db950f3	0.09048643
56	0x3e00dc7f	0.12584113
57	0x3d1c6095	0.038178045
58	0x3d4b4457	0.04962572
59	0x3df64d40	0.12026453
60	0xbb007d13	-0.00196058
61	0x3ce6cac3	0.028172856
62	0x3d75e0b8	0.06002876
63	0xbd7d624b	-0.061861318
64	0xbe48a9af	-0.19595979
65	0xbe232cb4	-0.15935022
66	0xbced1322	-0.028939787
67	0x3cfb5098	0.030678079
68	0xbd3782f4	-0.04480262
69	0xbe5c9f44	-0.2154513
70	0xbdc6ed8e	-0.09713279
71	0x3e419d31	0.1890762
72	0x3eb2e084	0.34936917
73	0x3e379ea9	0.17931618
74	0xbd6793ae	-0.056537323
75	0x3d81c821	0.06337
76	0xbee045b2	-0.43803173
77	0xbee94968	-0.45563817
78	0xbe8e1031	-0.27746728
79	0xbe0161bf	-0.12634943
80	0xbf11fc10	-0.5702524
81	0xbf23649d	-0.638254
82	0xbf1fc2ac	-0.6240642
83	0xbec2a8fc	-0.3801955
84	0xbcf97785	-0.0304525
85	0xbf677fb6	-0.90429246
86	0xbf5c12ef	-0.8596639
87	0xbf3a6c19	-0.72821194
88	0xbeeaf0b4	-0.45886767
89	0xbebebd87	-0.37253973
90	0xbe95e3d5	-0.29275385
91	0xbea9f803	-0.3319703
92	0xbed2d396	-0.41177052
93	0xbea09023	-0.31359968
94	0x3c9c17f1	0.019054385
95	0x3dec63a6	0.11542444
96	0xbe1a48d1	-0.1506684
97	0xbe5d020c	-0.21582812
98	0xbdc26a85	-0.09492973
99	0x3eb0db37	0.34542248
100	0xbedffa96	-0.4374587
101	0xbf24b50e	-0.6433877
102	0xbf4d84f0	-0.8028097
103	0xbf373087	-0.7155842
104	0xbf47166d	-0.77768594
105	0xbf511c26	-0.81683576
106	0xbf76fc8c	-0.96479106
107	0xbf809382	-1.0045016
108	0xbf579c77	-0.8422312
109	0xbf3993ee	-0.7249135
110	0xbeead5cb	-0.45866236
111	0xbf27b5f8	-0.6551204
112	0xbea8f152	-0.32996613
113	0xbe5273ea	-0.2055203
114	0xbe3ca57a	-0.184225
115	0x3ec31725	0.38103595
116	0x3ec08c97	0.37607262
117	0x3ea0418c	0.31300008
118	0x3e91e6be	0.28496355
119	0x3ef0ba1b	0.47016987
120	0x3f47dcf7	0.7807154
121	0x3f145095	0.5793546
122	0x3f196899	0.5992523
123	0x3f094a2f	0.5362882
124	0x3f162feb	0.58666867
125	0x3da07f29	0.07836754
126	0x3e896e7c	0.26842105
127	0x3eb48922	0.35260874
128	0x3df79260	0.12088466
129	0xbd8e2d9f	-0.06942295
130	0x3e5b165d	0.2139525
131	0x3e241c3c	0.16026396
132	0xbdbdf2e2	-0.09274842
133	0xbddc6c70	-0.1076287
134	0xbd0e79be	-0.03478407
135	0xbe3c41be	-0.18384454
136	0xbeaa7507	-0.3329241
137	0xbea32b81	-0.31869128
138	0xbe8f1389	-0.27944592
139	0xbe0dc5ee	-0.13845035
140	0xbf250af1	-0.6446982
141	0xbf122f10	-0.5710306
142	0xbf0e1f62	-0.55516636
143	0xbefbf61c	-0.49211204
144	0xbe8d789b	-0.27631077
145	0xbee23c67	-0.44186708
146	0xbe97d8e8	-0.29657674
147	0xbec29bca	-0.38009483
148	0xbe9e811b	-0.30957875
149	0xbea275fc	-0.3173064
150	0x3e07aa26	0.132485
151	0x3e94a067	0.29028627
152	0x3e941a34	0.2892624
153	0x3c2bc93b	0.010484989
154	0xbf1bcfb4	-0.60863805
155	0x3e81f95e	0.25385565
156	0x3e10cc5f	0.14140461
157	0x3ee1012f	0.43946216
158	0x3e951b85	0.29122558
159	0xbf12a38a	-0.5728079
160	0x3b97dfa1	0.004634813
161	0x3dafbb76	0.08580677
162	0x3efc5fbf	0.49291798
163	0x3e8babd3	0.2727953
164	0xbf6e7c0e	-0.9315804
165	0xbdb8318c	-0.08993825
166	0x3e03840b	0.12843339
167	0x3f0552e2	0.52079594
168	0x3da13747	0.078718714
169	0xbf5b3848	-0.85632753
170	0xbe80f853	-0.25189456
171	0xbdccf7f7	-0.10008233
172	0xbe16dc74	-0.14732534
173	0xbef63d04	-0.48093426
174	0xbf4592e3	-0.77177256
175	0x3e819aff	0.25313565
176	0xbdf01032	-0.11721839
177	0xbe3ea80e	-0.18618795
178	0xbeb6590b	-0.3561481
179	0xbf57f493	-0.84357566
180	0x3efb5b1d	0.4909295
181	0x3ed8310c	0.4222492
182	0x3eabba6a	0.3354066
183	0xbe211464	-0.15730435
184	0xbf470c39	-0.77753025
185	0x3ed511d5	0.41615167
186	0x3ea44aed	0.32088414
187	0x3ebcb8b3	0.36859664
188	0xbe00ba5c	-0.1257109
189	0xbf441451	-0.765935
190	0x3f0e702b	0.55639905
191	0x3ee8bab4	0.45454943
192	0x3e3c8617	0.18410526
193	0xbe17e148	-0.14832032
194	0xbebdedda	-0.3709553
195	0x3ea33bf2	0.31881672
196	0x3dff224d	0.12457714
197	0xbd914665	-0.07093505
198	0xbeca234b	-0.3948005
199	0xbf043986	-0.51650274
200	0xbf32f091	-0.69898325
201	0xbf01f6f9	-0.50767475
202	0xbf27520d	-0.65359575
203	0xbf293037	-0.66089195
204	0xbf292da4	-0.6608527
205	0xbf21a9c9	-0.63149697
206	0xbf2652b2	-0.64969933
207	0xbf388e51	-0.7209216
208	0xbf5ec35c	-0.87016845
209	0xbf433dbc	-0.76266074
210	0xbf1e249e	-0.61774623
211	0xbf18b25b	-0.5964715
212	0xbf16138b	-0.5862357
213	0xbebdddd8	-0.37083316
214	0xbe4da2ea	-0.20081678
215	0xbe53e3f7	-0.2069243
216	0xbd8d7115	-0.06906334
217	0xbe8b1bc9	-0.27169636
218	0xbd82a6dd	-0.06379483
219	0x3e606af5	0.21915801
220	0xbf4619a6	-0.77382886
221	0xbf4013d8	-0.7503028
222	0xbf5009ee	-0.8126515
223	0xbf2d2410	-0.6763315
224	0xbec16d4f	-0.37778708
225	0xbfb9930f	-1.4498004
226	0xbfa68751	-1.3010045
227	0xbee8b24a	-0.45448524
228	0x3ed17178	0.40906882
229	0x3f5d7d37	0.8651919
230	0xbfc7e6ab	-1.5617269
231	0xbfc64460	-1.5489616
232	0xbec27689	-0.3798106
233	0x3f77c3ca	0.96783125
234	0x3f9ede80	1.2411652
235	0xbfdca168	-1.7236757
236	0xbfeb3994	-1.8376946
237	0xbf5ac98d	-0.8546379
238	0x3f6930eb	0.9109027
239	0x3f9cdab4	1.2254243
240	0xbfc77a52	-1.5584204
241	0xbfaa9d6c	-1.3329291
242	0xbf01fca4	-0.50776124
243	0x3f0fb1f3	0.56130904
244	0x3f5ec674	0.87021565
245	0xbf9feeaa	-1.249471
246	0xbf2f22d6	-0.6841253
247	0xbe91f0e1	-0.2850409
248	0x3cea28d1	0.028583916
249	0x3eb3aae4	0.35091317
250	0xbe707f29	-0.23486008
251	0xbdd0231d	-0.10162947
252	0xbeadb4d2	-0.33927017
253	0xbeae5be5	-0.34054485
254	0xbf3c3409	-0.735169
255	0x3db1e991	0.086871274

conv2.bias f4 [16]
0	0xbe3e1efa	-0.18566504
1	0x3ed22a76	0.4104802
2	0xbf1beae8	-0.60905313
3	0x3f172b87	0.5905079
4	0xbfb600b6	-1.4218967
5	0xbf52bcee	-0.82319534
6	0x3ea020d3	0.31275043
7	0x3ede7681	0.43449786
8	0xbf1628b3	-0.5865585
9	0xbf262a1e	-0.64908016
10	0xbebfbd9a	-0.37449342
11	0xbe930274	-0.2871281
12	0xbf79d6ac	-0.9759319
13	0x3ea1b505	0.3158342
14	0x3cf81db4	0.030287601
15	0xbd89244c	-0.06696376

fc1.weight f4 [120, 400]
0	0xbc62e1d7	-0.01384779
1	0xbdc6dabc	-0.09709689
2	0xbc5f74d5	-0.013638695
3	0x3d0d9340	0.034564257
4	0xbd949e6d	-0.0725678
5	0xbcc7586d	-0.024334157
6	0xbe81e664	-0.25371087
7	0xbd8b9d3b	-0.06817099
8	0xbdb2b67e	-0.08726214
9	0xbd9829aa	-0.07429822
10	0xbde0936c	-0.109656185
11	0xbe1bebdb	-0.1522669
12	0xbd7a636f	-0.061129984
13	0xbdc86ef2	-0.09786786
14	0xbc8a4c0a	-0.016881961
15	0xbd844639	-0.064587064
16	0xbd397578	-0.045278043
17	0xbd0d5d4b	-0.0345128
18	0x3e00082f	0.12503122
19	0x3e0fda80	0.14048195
20	0x3df74369	0.12073404
21	0x3de0fe93	0.10986056
22	0x3e2bd5da	0.16780797
23	0x3d3651c3	0.044511568
24	0x3e5f3aa8	0.2179972
25	0x3d0c6c41	0.034282926
26	0xbdc41cf6	-0.09575836
27	0xbe51e5ba	-0.2049779
28	0xbdcc30ab	-0.0997022
29	0xbec6edf2	-0.38853413
30	0xbcac4d5f	-0.021032987
31	0xbe1a8c74	-0.15092641
32	0xbe151b04	-0.14561087
33	0xbe2fd456	-0.17170843
34	0xbe60ce66	-0.21953735
35	0xbe2c1ba7	-0.16807424
36	0xbe072adf	-0.13199948
37	0x3d815ec3	0.063169025
38	0xbd03d1f6	-0.032182656
39	0xbe1d3dde	-0.15355632
40	0xbd6e0f32	-0.05811996
41	0x3d49fd94	0.049314097
42	0x3ca0d3d1	0.019632252
43	0x3d7340ab	0.059387844
44	0xbe7b450a	-0.24538055
45	0xbd958a11	-0.07301725
46	0xbd38e630	-0.0451414
47	0xbd08c255	-0.033388454
48	0x3d68ba8a	0.056818523
49	0xbe379ede	-0.17931697
50	0xbe1e3f3d	-0.15453811
51	0xbe13f413	-0.14448576
52	0xbe9addc1	-0.3024731
53	0xbe376365	-0.1790901
54	0xbe62f422	-0.22163442
55	0x3c895e4c	0.016768597
56	0x3d990785	0.07472137
57	0x3c4a9e36	0.012366822
58	0xbcbd25f1	-0.023089381
59	0x3c628f85	0.013828163
60	0x3e42a904	0.19009787
61	0x3e871ff3	0.26391563
62	0x3e439329	0.19099106
63	0x3dd8c855	0.10585085
64	0xbd5d78ea	-0.05407039
65	0x3ea80082	0.32812887
66	0x3e8c2270	0.27370024
67	0x3ef60480	0.48050308
68	0x3e4bf111	0.19916178
69	0xbc5ea589	-0.013589271
70	0x3e926f76	0.28600663
71	0x3eafe52d	0.34354535
72	0x3ea635a0	0.32462788
73	0x3dd08c01	0.101829536
74	0xbe1c101a	-0.15240517
75	0x3c37c8da	0.01121732
76	0xbd9ee136	-0.07757799
77	0xbdc6a0a6	-0.0969861
78	0x3d21971f	0.03945076
79	0x3cfff0b3	0.031242704
80	0x3e154a6f	0.14579175
81	0x3d564936	0.052315913
82	0xbcfedabb	-0.031110158
83	0x3d32ad55	0.043622334
84	0xbbb4054b	-0.005493795
85	0x3e8abdb7	0.27097866
86	0x3df4191e	0.11918853
87	0x3cc88ae2	0.024480287
88	0xbd963904	-0.073350936
89	0xbdbffe7d	-0.09374712
90	0x3ea345a2	0.31889063
91	0x3e515f88	0.20446599
92	0x3de08711	0.10963262
93	0x3d509184	0.050920025
94	0x3e3ba5c7	0.18324958
95	0x3ea865f6	0.3289029
96	0x3e629413	0.22126798
97	0x3e1625b1	0.14662816
98	0x3e491616	0.19637331
99	0x3e966a2c	0.29377878
100	0xbe4b8b2d	-0.1987731
101	0xbe223371	-0.15839936
102	0xbe07ab8b	-0.13249032
103	0xbe2353c7	-0.15949927
104	0xbd678359	-0.056521747
105	0xbe185c06	-0.14878854
106	0xbe81b659	-0.25334433
107	0xbe90b240	-0.28260994
108	0xbe649176	-0.22321114
109	0xbdc0230c	-0.09381685
110	0xbdfe4e1f	-0.12417244
111	0xbe006544	-0.1253863
112	0xbe6fb68f	-0.23409484
113	0xbe5feabd	-0.2186689
114	0xbdc37b24	-0.095449716
115	0x3d639483	0.055561554
116	0x3d10849d	0.03528272
117	0x392cf051	0.00016492723
118	0x3dc66a4c	0.09688243
119	0x3da2bd3d	0.079462506
120	0x3e5c4acd	0.21512909
121	0x3e3d2eda	0.18474904
122	0x3e0cfcd0	0.13768315
123	0x3e791cab	0.24327342
124	0x3e1aa1ea	0.15100828
125	0x3da0a839	0.07844586
126	0x3db15fd4	0.08660856
127	0xbcd705ec	-0.026247941
128	0xbc8e44fd	-0.01736688
129	0xbd2fd10f	-0.042923983
130	0x3d00ed5a	0.031476356
131	0x3d6f0ec0	0.058363676
132	0x3c740a78	0.014895074
133	0xbccb35f0	-0.024805993
134	0xbdeca880	-0.11555576
135	0xbdaa252c	-0.08307871
136	0xbd408e64	-0.047010794
137	0x3c837aa8	0.016049698
138	0x3c8caba8	0.017171696
139	0xbc845a73	-0.01615641
140	0xbda7e3d0	-0.08197749
141	0xbe407d1f	-0.1879773
142	0xbc961fef	-0.018325774
143	0xbdca8dd5	-0.098903336
144	0xbda5e3cc	-0.081000894
145	0x3d0240c4	0.031800047
146	0xbbbf593c	-0.005839495
147	0xbde4ea0f	-0.11177456
148	0xbe37c93f	-0.17947863
149	0xbdbd31e3	-0.09238031
150	0x3cdb6090	0.026779443
151	0xbdcb1e2b	-0.099178635
152	0x3da1f48e	0.07907973
153	0x3e9a86b0	0.30180883
154	0x3e4f5bef	0.20249914
155	0x3ca32275	0.019913891
156	0x3caa1ff3	0.020767188
157	0x3e858bf5	0.2608334
158	0x3e2531ad	0.16132231
159	0xbc16fdab	-0.009215753
160	0x3d50df91	0.05099446
161	0x3da6703d	0.081268765
162	0x3d5919db	0.053003173
163	0x3d10f8b5	0.035393436
164	0x3d99fdf8	0.07519144
165	0x3e0fa312	0.1402705
166	0x3c149618	0.009068988
167	0x3c2226b7	0.009896926
168	0x3cad6e18	0.02117066
169	0x3e494ce6	0.1965824
170	0x3d7d24e0	0.061802745
171	0x3a9ab373	0.0011802748
172	0x3e024a41	0.12723638
173	0xbdcffc4a	-0.10155542
174	0x3e9307a6	0.28716773
175	0xbe3d74ca	-0.18501583
176	0xbd7d7816	-0.0618821
177	0xbdf1c7f9	-0.1180572
178	0xbe18b425	-0.1491247
179	0xbe837b20	-0.25679874
180	0xbdc0b453	-0.09409394
181	0x3d878a5d	0.066181876
182	0x3da315a8	0.07963115
183	0x398dadb6	0.0002702304
184	0xbe255730	-0.1614654
185	0xbd216466	-0.039402388
186	0x3e96190f	0.29315993
187	0x3dabb7f0	0.08384693
188	0xbdb99c46	-0.0906301
189	0xbe9de07e	-0.30835336
190	0xbc566425	-0.0130854
191	0x3e1e00da	0.15430012
192	0x3dbc038a	0.091803625
193	0x3dabe35d	0.083929755
194	0xbdf15e9d	-0.11785624
195	0xbc70361e	-0.01466134
196	0x3d9d5471	0.076821215
197	0xbdc20a50	-0.09474623
198	0xbdf82cdb	-0.121179305
199	0xbe1babee	-0.15202305
200	0xbdc00d80	-0.09377575
201	0x3c83fcae	0.016111698
202	0xbdbd4e25	-0.092434205
203	0xbbeca837	-0.007222201
204	0xbdf8cb8f	-0.12148201
205	0xbde006e7	-0.109388165
206	0x3d1f47d6	0.038886867
207	0x3db4511f	0.08804535
208	0x3d8469a5	0.064654626
209	0x3dd721a6	0.10504465
210	0xbdb05afd	-0.08611105
211	0xbdcc30c0	-0.09970236
212	0xbc695f83	-0.014243963
213	0x3dcc132e	0.09964596
214	0x3d958049	0.07299859
215	0x3d0183b7	0.031619754
216	0x3d894239	0.06702084
217	0xbd58d061	-0.0529331
218	0xbdab04ca	-0.08350523
219	0xbd11fef2	-0.035643525
220	0xbda7cea4	-0.081937104
221	0x3de4faa1	0.11180616
222	0x3d5de56a	0.054173864
223	0xbd03bbe8	-0.032161623
224	0x3b4f072b	0.0031589966
225	0xbdc96019	-0.09832782
226	0xbe10a604	-0.1412583
227	0xbe03b18a	-0.12860695
228	0xbd91d027	-0.0711978
229	0x3db81d23	0.089899324
230	0x3e236180	0.15955162
231	0x3e38d2b8	0.18049133
232	0x3d434193	0.04766996
233	0x3e094224	0.13404137
234	0x3dfe7671	0.12424935
235	0x3ea0cca9	0.31406143
236	0x3e7e5a0b	0.24839036
237	0x3e14898c	0.14505595
238	0x3dae80d9	0.085206695
239	0x3e4e5801	0.20150758
240	0x3e95d3a5	0.29263034
241	0x3df89e67	0.12139588
242	0x3d3703c0	0.04468131
243	0x3e3da09f	0.18518303
244	0x3e79b62a	0.24385896
245	0x3e1a666f	0.15078138
246	0x3e7844af	0.2424495
247	0x3eab26fd	0.33428183
248	0x3ea0e87a	0.31427366
249	0x3eaa9ce7	0.33322832
250	0xbce4d9c8	-0.027935877
251	0xbded7fcc	-0.11596641
252	0x3d977dd0	0.07397044
253	0xbe98e656	-0.29863232
254	0xbe75452b	-0.23952167
255	0xbc41f7bc	-0.01183885

fc1.bias f4 [120]
0	0x3e3bde78	0.18346584
1	0xbc8e8ec1	-0.017402055
2	0x3a56ba5a	0.00081912207
3	0x3e39950e	0.18123266
4	0xbd8ad9f2	-0.06779851
5	0xbd834a87	-0.06410699
6	0xbde78dcf	-0.11306345
7	0x3e542dc4	0.20720583
8	0xbd51bf72	-0.051207967
9	0xbd6c0928	-0.05762592
10	0xbdae8b00	-0.08522606
11	0xbdd87fd5	-0.10571257
12	0xbd4bc6dd	-0.049750198
13	0xbe5b87ba	-0.21438494
14	0x3de9c52b	0.1141456
15	0xbde431f5	-0.11142341
16	0x3b6d0bd8	0.003617039
17	0xbcaa0242	-0.02075303
18	0xbe414d93	-0.18877248
19	0x3d91e49e	0.071236834
20	0x3e1b17c2	0.15145782
21	0xbe26d016	-0.16290316
22	0xbc8880f5	-0.016663054
23	0x3e15287c	0.14566225
24	0x3e20fbf8	0.15721118
25	0x3d28a44f	0.041172322
26	0xbe03652c	-0.12831563
27	0xbda14729	-0.07874901
28	0xbe1ac6cb	-0.15114896
29	0x3e0912d7	0.13386093
30	0xbd7d7c68	-0.06188622
31	0xbd131fc2	-0.03591896
32	0xbda00c81	-0.07814885
33	0xbe104576	-0.14088997
34	0xbe4f01c6	-0.2021552
35	0x3d27e3c3	0.040988695
36	0x3d4c4f0a	0.049880065
37	0xbe134457	-0.14381538
38	0xbcc801c0	-0.024414897
39	0x3d38dfb2	0.045135207
40	0xbd77ec25	-0.06052794
41	0xbe0e56c3	-0.13900284
42	0xbde5dac0	-0.11223364
43	0xbe2e931c	-0.17048305
44	0x3e712914	0.23550826
45	0xbdf0ca0d	-0.11757288
46	0xbd055633	-0.03255291
47	0xbd71191e	-0.058861844
48	0xbde7d944	-0.11320737
49	0xbe7d2aea	-0.24723402
50	0x3e1709be	0.1474981
51	0x3dd44e1d	0.103664614
52	0xbc9f3e1b	-0.019438794
53	0xbdb8ba64	-0.09019926
54	0x3b9d0706	0.004792097
55	0x3dfe7c48	0.124260485
56	0xbd561b17	-0.05227193
57	0xbddcb8cf	-0.10777437
58	0xbd6cf637	-0.057851996
59	0xbd2d5747	-0.042319562
60	0x3c5f6f40	0.013637364
61	0xbe6dcca7	-0.232226
62	0xbd3454bb	-0.044026118
63	0x3dfcb94f	0.12340032
64	0x3cdf4e9a	0.02725916
65	0xbb653243	-0.0034972585
66	0xbdaf7f77	-0.08569234
67	0x3d977ebb	0.07397219
68	0x3e53f891	0.2070029
69	0x3d19c655	0.03754266
70	0xbdb79bf7	-0.08965295
71	0x3dfbaf83	0.122893356
72	0x3d912777	0.070876054
73	0x3ea9e43d	0.33181944
74	0x3d907301	0.07053185
75	0xbdd91708	-0.10600096
76	0x3e24bae3	0.16086917
77	0x3e2d5618	0.16927373
78	0xbe0de2e4	-0.13856083
79	0xbddac33b	-0.106817685
80	0xbd84a423	-0.06476619
81	0x3d0c13d0	0.034198582
82	0x3e19ff9f	0.15038918
83	0xbe5f32c0	-0.21796703
84	0xbe34c1c9	-0.17652048
85	0x3c1c51a5	0.00954095
86	0x3d51a91b	0.051186662
87	0xbe0fe9a4	-0.1405397
88	0x3d97fbcd	0.07421074
89	0x3d8d740e	0.06906901
90	0x3e35adbd	0.17742057
91	0xbe7502e6	-0.23926887
92	0x3e112ce7	0.14177285
93	0x3e83c53d	0.25736418
94	0xbdf00fba	-0.117217496
95	0x3ca9c7ef	0.020725219
96	0x3e9758b7	0.29559872
97	0xbdaaac10	-0.083335996
98	0x3d0c898e	0.03431087
99	0xbe30eb4b	-0.17277257
100	0xbe816d10	-0.2527852
101	0xbd724fde	-0.0591582
102	0x3e33db13	0.17564039
103	0xbcc2fe3d	-0.02380287
104	0x3cc7252c	0.024309717
105	0xbd801e5d	-0.06255791
106	0xbd7ae3bd	-0.061252344
107	0x3d9ac1c9	0.07556493
108	0x3d80f0e7	0.062959485
109	0x3e4aa1c0	0.19788265
110	0xbe417eff	-0.18896101
111	0xbd9e577a	-0.077315286
112	0x3d0f5e14	0.03500183
113	0xbe3c10ed	-0.18365832
114	0xbd9a6c2a	-0.07540162
115	0xbdd42a0e	-0.10359584
116	0xbd9cbcbe	-0.07653187
117	0x3e0474f0	0.12935233
118	0xbd54ecca	-0.051983632
119	0x3cfb5af9	0.030683028

fc2.weight f4 [84, 120]
0	0xbe86a973	-0.26301154
1	0xbedabd1f	-0.42722413
2	0xbe5146b3	-0.20437126
3	0x3e831578	0.25602317
4	0xbd5438a0	-0.051811814
5	0xbd3ebce6	-0.046566866
6	0xbdb81790	-0.08988869
7	0xbe8c6fb6	-0.2742898
8	0xbd854a04	-0.06508258
9	0xbe396a22	-0.18106893
10	0xbeba77b1	-0.36419442
11	0xbe88c0b5	-0.26709524
12	0x3d1d903a	0.038467623
13	0x3e0354f6	0.12825379
14	0xbe160cbf	-0.146533
15	0x3e2f64ad	0.17128249
16	0xbe7b7327	-0.24555646
17	0x3d8f0393	0.069831036
18	0xbe1c0f78	-0.15240276
19	0xbe80115e	-0.2501325
20	0xbeff9843	-0.49920854
21	0xbe0d833a	-0.1381959
22	0xbebe856c	-0.37211168
23	0xbe79b57c	-0.24385637
24	0x3c8c9d68	0.0171649
25	0xbe5a2ba8	-0.21305716
26	0xbe6a2ff0	-0.22869849
27	0xbdf2294a	-0.118242815
28	0x3d599876	0.053123914
29	0xbe695b7c	-0.22788805
30	0x3e81d458	0.25357318
31	0xbdd6b390	-0.104834676
32	0xbdfacc2e	-0.122459754
33	0x3e631b40	0.22178364
34	0x3e18fa13	0.14939146
35	0xbe52e830	-0.20596385
36	0x3d8d95cb	0.06913336
37	0x3d2d7889	0.04235128
38	0xbdcc83a4	-0.09986046
39	0x3dcdbf48	0.1004625
40	0xbd55efe3	-0.052230727
41	0xbe529837	-0.20565878
42	0x3dff6d8e	0.12472068
43	0x3cbdf586	0.023188364
44	0xbf04e4fb	-0.51911896
45	0xbe62bcf3	-0.22142391
46	0x3eae8a25	0.3408977
47	0xbe078322	-0.13233617
48	0x3e8826ab	0.26592
49	0x3d59a0c9	0.053131852
50	0x3d9ac1bc	0.07556483
51	0xbe05e2d4	-0.1307481
52	0xbe755648	-0.23958695
53	0xbec1fffe	-0.3789062
54	0x3c0e20dc	0.0086748265
55	0x3e7d9350	0.24763227
56	0x3c926428	0.017870024
57	0x3e802378	0.2502706
58	0x3e545cdf	0.20738553
59	0x3cdb11c6	0.026741873
60	0xbe441f8c	-0.19152659
61	0x3e050b71	0.12992646
62	0xbd2e2d52	-0.04252369
63	0xbeb558ea	-0.354194
64	0xbdba68fb	-0.09102055
65	0xbe878676	-0.26469773
66	0x3d9557af	0.07292115
67	0xbea4cb3d	-0.32186309
68	0xbe406ac3	-0.18790726
69	0x3db1f0ea	0.08688529
70	0xbda14fd4	-0.07876554
71	0xbea58e2e	-0.32335037
72	0xbe00368c	-0.12520808
73	0xbe408073	-0.18799
74	0xbcd12b66	-0.02553339
75	0xbe22ccc4	-0.15898424
76	0xbe4b7416	-0.19868502
77	0xbbdb8079	-0.0066986647
78	0xbe8a2dd2	-0.26988083
79	0xbca02ee4	-0.01955361
80	0xbd044e8e	-0.032301478
81	0xbd8b03e3	-0.06787851
82	0xbeb6e7a3	-0.357236
83	0xbe174513	-0.14772443
84	0xbe93d876	-0.28876084
85	0xbe06515b	-0.13116972
86	0xbcd022a5	-0.025407145
87	0xbe205ad0	-0.15659642
88	0xbdd6ab03	-0.10481837
89	0x3d76aca6	0.060223244
90	0xbe64dd4f	-0.22350048
91	0xbd82d61c	-0.06388494
92	0x3d81284d	0.06306515
93	0xbde9224a	-0.11383493
94	0xbe466d0a	-0.19377533
95	0xbe2be387	-0.16786014
96	0xbe6b76a0	-0.2299447
97	0x3d9d21cb	0.07672461
98	0x3d032ade	0.032023303
99	0xbce6165e	-0.028086837
100	0x3dccd420	0.10001397
101	0xbdad993a	-0.08476491
102	0xbe3930d8	-0.18085039
103	0xbf173273	-0.59061354
104	0xbd92daa6	-0.0717061
105	0x3d8c43d0	0.06848872
106	0xbdedda50	-0.116139054
107	0x3e708e6e	0.23491833
108	0x3d75abb0	0.059978187
109	0xbe2d6a86	-0.16935167
110	0xbd58f29b	-0.05296574
111	0xbe302352	-0.17200974
112	0xbdba568f	-0.09098541
113	0xbe93c041	-0.28857616
114	0x3ec412cb	0.38295588
115	0xbd070080	-0.03295946
116	0xbdfdc864	-0.12391737
117	0xbeddb646	-0.43303126
118	0xbe6c1bea	-0.23057523
119	0xbdbc0fff	-0.091827385
120	0xbebc329c	-0.36757362
121	0x3d8282b2	0.063725844
122	0x3dcc178b	0.09965428
123	0x3e1b903c	0.1519174
124	0x3d736870	0.05942577
125	0xbc3a7ea6	-0.011382734
126	0x3cc8df96	0.024520677
127	0xbd4c21ff	-0.04983711
128	0xbb9d063b	-0.0047920025
129	0x3e3310df	0.17486905
130	0x3dcb777c	0.09934899
131	0xbe47251e	-0.19447753
132	0x3e0973c2	0.13423064
133	0xbe01b23e	-0.1266565
134	0xbd363b0c	-0.044489905
135	0xbddad06b	-0.10684284
136	0xbbe139e2	-0.0068733552
137	0xbbd925fc	-0.0066268425
138	0x3e64f608	0.22359478
139	0x3e9ae62f	0.3025374
140	0xbeb963a0	-0.3620882
141	0xbe36d773	-0.17855625
142	0xbd7c2213	-0.061555933
143	0xbd965fc4	-0.073424846
144	0xbd227b87	-0.039668586
145	0xbd58031b	-0.052737337
146	0x3e14ff33	0.14550476
147	0x3c11c9af	0.008898183
148	0xbe27434a	-0.16334262
149	0xbda0ef49	-0.0785814
150	0x3d9f2e6d	0.07772527
151	0x3e0dedff	0.1386032
152	0xbeae320f	-0.34022567
153	0xbe02e1e2	-0.1278148
154	0x3e431ca0	0.19053888
155	0x3e2d6f3b	0.16936962
156	0xbdcc8aa8	-0.09987384
157	0x3cdcfb92	0.026975427
158	0xbe28aea7	-0.16472875
159	0xbdfe5597	-0.12418669
160	0xbd2e2567	-0.04251614
161	0x3cdd871b	0.027041962
162	0xbd29cb65	-0.041453738
163	0xbde4c04c	-0.1116949
164	0xbebeff54	-0.37304175
165	0x3e7a83f7	0.24464403
166	0xbe9aa23e	-0.30201906
167	0x3d04a815	0.032386858
168	0xbdc7925f	-0.09744715
169	0x3e03f811	0.12887599
170	0xbe45cb4e	-0.19315836
171	0xbe439e9f	-0.19103478
172	0xbdcf244e	-0.101143464
173	0x3e55ddbf	0.2088537
174	0xbd74552b	-0.059651535
175	0x3cd950d0	0.026527792
176	0xbdbddd9e	-0.09270786
177	0xbc21597c	-0.009847995
178	0x3d1434e8	0.036183268
179	0x3df4abf7	0.11946862
180	0xbd8ea176	-0.0696439
181	0xbdd383ab	-0.10327848
182	0xbcc7d2a0	-0.024392426
183	0x3d8efa3f	0.069813244
184	0xbda4ca71	-0.08046425
185	0xbe5fe427	-0.21864377
186	0xbda2c2a7	-0.07947283
187	0xbc05f2f8	-0.008175604
188	0xbd477c68	-0.048702627
189	0x3d0430fc	0.032273278
190	0xbe173096	-0.14764628
191	0x3a889fb6	0.0010423574
192	0x3d45ba70	0.048273504
193	0xbe7f8da3	-0.24956374
194	0xbe216e20	-0.15764666
195	0x3e22a744	0.1588412
196	0xbd324c96	-0.04353007
197	0xbdefde67	-0.11712342
198	0x3d156207	0.03647044
199	0x3d390af6	0.04517647
200	0xbe82162e	-0.25407547
201	0xbe087100	-0.13324356
202	0xbe2463ac	-0.16053647
203	0x3d7da946	0.06192901
204	0xbba679e6	-0.0050804494
205	0xbdb24ed7	-0.08706444
206	0xbda90d20	-0.082544565
207	0xbe0e99cf	-0.13925861
208	0x3d01e447	0.031711843
209	0xbe95ad4d	-0.2923378
210	0x3cdfc3bc	0.027315013
211	0x3c3dd283	0.011585834
212	0x3dee0cde	0.11623548
213	0xbe535d87	-0.20641147
214	0x3e04f6f8	0.12984836
215	0xbd6befa4	-0.057601586
216	0xbe56c552	-0.20973709
217	0x3d7699e6	0.060205363
218	0xbc788396	-0.015168091
219	0xbdd3869a	-0.103284076
220	0xbd15afdf	-0.036544677
221	0xbcad2fdb	-0.021140983
222	0x3cbeae7f	0.023276566
223	0xbd023cac	-0.031796142
224	0xbdcaf64a	-0.09910257
225	0xbe0c9230	-0.13727641
226	0xbe2bb177	-0.16766916
227	0xbea92dcf	-0.33042762
228	0xbe582b4e	-0.2111027
229	0xbe6365be	-0.2220678
230	0xbd5de60f	-0.05417448
231	0xbd150176	-0.036378346
232	0xbe0bdd1c	-0.13658565
233	0x3c80770b	0.015681764
234	0xbe2d5f84	-0.16930968
235	0xbd996e8f	-0.074917905
236	0xbe80e264	-0.25172722
237	0xbe6eafba	-0.23309222
238	0x3d8e5723	0.06950214
239	0xbe4b3483	-0.1984425
240	0xbd61edf6	-0.055158578
241	0x3df1b570	0.118021846
242	0x3e87f9ff	0.2655792
243	0xbd83baa6	-0.06432085
244	0x3da7e1c2	0.08197357
245	0xbdb373fe	-0.08762358
246	0x3d8bfb9f	0.06835102
247	0xbea65142	-0.3248387
248	0xbbb86e13	-0.0056283562
249	0x3dbedb17	0.09319132
250	0xbe34cf57	-0.17657219
251	0xbd43c04d	-0.047790814
252	0x3d93d65b	0.072186194
253	0xbe0622cd	-0.13099213
254	0xbe8e164c	-0.27751386
255	0xbca7fc5b	-0.020506075

fc2.bias f4 [84]
0	0xbe912b57	-0.28353378
1	0xbec0ef28	-0.37682462
2	0xbdaa0122	-0.08300997
3	0xbddeea93	-0.10884585
4	0x3d321e35	0.04348584
5	0xbe11d5cd	-0.14241715
6	0xbe086685	-0.13320358
7	0x3ea91f6e	0.3303179
8	0x3f4707b4	0.7774613
9	0x3dfc0cb0	0.123071074
10	0xbdedcf61	-0.1161182
11	0xbcd5093e	-0.026005384
12	0x3e550612	0.20803097
13	0xbda552f2	-0.08072461
14	0x3e91f271	0.2850528
15	0xbe260c17	-0.1621555
16	0xbe80ddcf	-0.25169227
17	0x3ed8bcca	0.42331535
18	0xbe360b59	-0.17777766
19	0xbd8ef5e0	-0.06980491
20	0x3e5d22b8	0.21595275
21	0xbcd47ca2	-0.025938336
22	0xbd0d64d3	-0.03451998
23	0xbdcdb789	-0.10044772
24	0xbe51a091	-0.20471407
25	0xbe0165c2	-0.12636474
26	0x3eaeadf0	0.3411708
27	0x3e4a01c8	0.19727242
28	0xbe130240	-0.14356327
29	0x3de7189d	0.112839915
30	0x3ded4e71	0.11587227
31	0x3de64d0e	0.11245166
32	0xbee2bc41	-0.4428425
33	0xbe4716ef	-0.19442342
34	0xbe1a603c	-0.15075773
35	0x3db488bd	0.08815143
36	0x3e114cdd	0.14189477
37	0x3e78f933	0.24313812
38	0x3e43decd	0.1912796
39	0x3c3b001d	0.011413601
40	0x3daaaae3	0.08333375
41	0xbd2c11a5	-0.042009015
42	0xbecfd753	-0.40593967
43	0xbda0adee	-0.078456745
44	0x3e327055	0.17425664
45	0x3dd5d0d6	0.10440223
46	0xbd626c20	-0.055278897
47	0xbd7b1f95	-0.061309416
48	0x3e9a8983	0.30183038
49	0xbdc27c13	-0.094963215
50	0xbd8c4c85	-0.068505324
51	0xbd9c710e	-0.07638751
52	0x3ec4f399	0.384671
53	0x3d55c1c6	0.05218675
54	0xbd650be7	-0.055919554
55	0xbd778e05	-0.060438175
56	0xbe1b78cd	-0.151828
57	0xbe78bd91	-0.24291064
58	0xbdbc7c7e	-0.092034325
59	0xbeee0402	-0.46487433
60	0xbd872533	-0.06598892
61	0xbdb5bca8	-0.08873874
62	0x3d94db5f	0.07268404
63	0xbe29fb50	-0.16599774
64	0x3c497e97	0.012298248
65	0xbd0f8ed5	-0.035048325
66	0x3c01548e	0.007893695
67	0xbebc053e	-0.3672275
68	0x3e253d2c	0.16136616
69	0x3e7e975e	0.2486243
70	0xbcdfe352	-0.027330074
71	0xbb037dd0	-0.0020064004
72	0x3e6685bf	0.22511958
73	0xbe27ca5f	-0.16385792
74	0xbe241039	-0.16021813
75	0xbcc37dde	-0.02386373
76	0x3db202b3	0.08691921
77	0x3c85458b	0.016268512
78	0x3dc5fc94	0.09667316
79	0x3cb93121	0.022606434
80	0xbe21c965	-0.15799482
81	0x3bd01e53	0.006351271
82	0xbd208cf1	-0.039196912
83	0x3eb1dca1	0.3473864

fc3.weight f4 [10, 84]
0	0xbe636c28	-0.22209227
1	0xbe6058d6	-0.21908888
2	0x3f47eedb	0.7809884
3	0x3d525cbb	0.051357966
4	0x3ca2298f	0.019795207
5	0x3f6a3ee9	0.91502243
6	0xbeba658b	-0.36405596
7	0xbf1da197	-0.6157469
8	0xbf52e672	-0.8238288
9	0xbeb59e90	-0.35472536
10	0x3ec0a008	0.37622094
11	0xbe1e5e63	-0.15465693
12	0xbe49883a	-0.19680873
13	0xbe9c60c7	-0.30542585
14	0x3e3b6dce	0.18303606
15	0x3dbd6607	0.09247976
16	0xbe7637cc	-0.24044722
17	0x3e9caf74	0.3060261
18	0x3ebf041f	0.37307832
19	0xbee1810d	-0.4404377
20	0xbf1c4744	-0.6104624
21	0xbecb9d48	-0.39768434
22	0xbeda4e7e	-0.4263801
23	0xbe905631	-0.2819076
24	0x3ea49e40	0.32151985
25	0xbf0eec04	-0.5582888
26	0x3d0d7195	0.03453215
27	0xbecdc7fc	-0.40191638
28	0xbf05fd99	-0.52340084
29	0xbf360796	-0.71105325
30	0xbee3f804	-0.44525158
31	0x3e8b3a58	0.2719295
32	0xbeb4c89e	-0.3530931
33	0xbf0e88e6	-0.5567764
34	0xbe5b0d5b	-0.21391813
35	0x3e3d5d26	0.18492565
36	0xbe471d40	-0.19444752
37	0xbe51e450	-0.2049725
38	0xbe4ee6fb	-0.202053
39	0x3f440a11	0.7657786
40	0x3de587b6	0.112075254
41	0x3f3b14d0	0.7307863
42	0x3e90f753	0.28313693
43	0x3f497753	0.786977
44	0x3f019112	0.50611985
45	0xbe702643	-0.23452096
46	0x3ded8290	0.115971684
47	0xbe9d1d96	-0.30686635
48	0xbe8997d0	-0.26873636
49	0x3eea3a66	0.4574768
50	0x3e85124e	0.25990528
51	0x3db66151	0.089052804
52	0xbe4b79fa	-0.19870749
53	0xbf1398a5	-0.5765479
54	0xbf2e4026	-0.6806663
55	0x3c3fb9f7	0.011702052
56	0x3b3ede4c	0.0029124198
57	0xbee8f88f	-0.45502135
58	0x3e7f57c9	0.24935831
59	0x3d5b0812	0.053474493
60	0xbe079308	-0.13239682
61	0x3f022815	0.5084241
62	0x3e9e2e5f	0.30894753
63	0xbf10dc0c	-0.56585765
64	0x3e84126a	0.257953
65	0xbec16c2a	-0.37777835
66	0x3dc2b861	0.09507824
67	0xbee6e26b	-0.45094618
68	0xbf144d7c	-0.5793073
69	0x3e0d7fe4	0.13818318
70	0x3ec98da8	0.39365888
71	0x3fb05c8b	1.3778242
72	0xbe9e87de	-0.30963033
73	0xbdaef254	-0.08542314
74	0x3e8ed4b0	0.27896643
75	0x3f311317	0.69169754
76	0xbe59674b	-0.2123081
77	0x3e6b926e	0.23005077
78	0x3dfdd222	0.12393595
79	0xbef1411b	-0.47119984
80	0x3f3009f5	0.68765193
81	0xbdb72346	-0.08942275
82	0xbd9babba	-0.076011136
83	0xbd689146	-0.05677917
84	0x3f1ed11f	0.62037843
85	0x3e0bfdee	0.13671085
86	0x3dd17bf7	0.102287225
87	0x3e21fb02	0.15818408
88	0x3f2c072a	0.6719843
89	0xbc9131c3	-0.017723924
90	0xbe329fe3	-0.17443804
91	0x3f96bee0	1.1777
92	0xbed54290	-0.41652346
93	0x3e3a743d	0.18208404
94	0xbdc97921	-0.09837557
95	0xbe9139c6	-0.2836439
96	0xbf2bcb73	-0.67107314
97	0x3e295a7a	0.1653842
98	0x3e9d4234	0.3071457
99	0xbf064e9a	-0.52463686
100	0x3f7f1d8b	0.99654454
101	0xbf01354e	-0.5047196
102	0xbcdb42ea	-0.026765306
103	0x3f863de1	1.0487634
104	0x3e8935e1	0.2679892
105	0xbec64df5	-0.38731351
106	0x3ecd4df5	0.4009854
107	0x3ee3df13	0.4450613
108	0xbd2a5430	-0.041584194
109	0xbe962de6	-0.29331893
110	0xbe738b0e	-0.23783514
111	0x3f0a2bb3	0.5397293
112	0x3ebd7028	0.3699963
113	0x3da3596a	0.07976039
114	0x3e867632	0.2626205
115	0xbcd7d174	-0.026344992
116	0x3e3d0e50	0.18462491
117	0x3d4498a9	0.04799715
118	0xbeb37279	-0.35048273
119	0xbec19e03	-0.37815866
120	0xbf02cb1f	-0.5109119
121	0xbee44686	-0.44585055
122	0xbce843bf	-0.028352616
123	0x3e2727f6	0.16323838
124	0xbea8dc1a	-0.32980424
125	0xbe169bee	-0.1470792
126	0xbebcbc66	-0.36862487
127	0x3e91a79f	0.28448197
128	0xbeb2f514	-0.34952605
129	0xbf2108df	-0.6290416
130	0x3eefa3f3	0.4680477
131	0xbf0edb57	-0.55803436
132	0xbe9104ac	-0.28323877
133	0x3d808fd2	0.062774315
134	0x3d42d5aa	0.047567047
135	0x3ea3b126	0.3197109
136	0xbe0a5356	-0.13508353
137	0x3f258847	0.6466107
138	0xbf0b6440	-0.54449844
139	0xbe3b2dbc	-0.18279165
140	0x3f1c6b36	0.6110109
141	0xbe72ec1f	-0.23722886
142	0x3d156865	0.03647651
143	0x3e37596d	0.17905207
144	0xbe9d8752	-0.30767304
145	0xbecba8e6	-0.39777297
146	0xbecbb05d	-0.39782992
147	0x3ed4e530	0.41581106
148	0x3ee16eca	0.44029838
149	0xbd8a41e6	-0.067508504
150	0xbf232e70	-0.63742733
151	0x3fa058b6	1.2527072
152	0x3f4f2808	0.8092046
153	0xbf110ce2	-0.5666028
154	0xbb7f8852	-0.0038991165
155	0xbea62442	-0.32449538
156	0xbe6b5ff6	-0.22985825
157	0xbf175695	-0.5911649
158	0xbdfee3a5	-0.124457635
159	0xbed7ad06	-0.42124194
160	0xbdeadbb0	-0.11467683
161	0xbe06c4c3	-0.13160996
162	0xbee214bb	-0.4415644
163	0x3ef26ad3	0.47347125
164	0xbe58eeae	-0.21184799
165	0xbe475740	-0.19466877
166	0x3ea35d86	0.3190729
167	0xbebc8c97	-0.36826012
168	0xbdce2052	-0.10064758
169	0xbdfa5eb8	-0.122250974
170	0xbd938087	-0.07202249
171	0x3f0b0803	0.543091
172	0x3eb13036	0.34607095
173	0x3d92cea5	0.071683206
174	0x3d608b6e	0.05482047
175	0xbf187cab	-0.5956523
176	0x3db49f38	0.08819431
177	0x3eaf22e6	0.34206313
178	0xbe33f4be	-0.1757383
179	0x3f46a4e6	0.77595365
180	0xbed986b0	-0.4248557
181	0xbe1e36f8	-0.15450656
182	0xbdbdd0df	-0.092683546
183	0xbdc89c72	-0.097954646
184	0x3ef25d7e	0.47336954
185	0xbe1723c1	-0.14759733
186	0xbe3eb4ff	-0.18623732
187	0xbd9a9890	-0.0754863
188	0x3e8344e1	0.25638488
189	0x3ef4755b	0.47745785
190	0xbe4d0dac	-0.20024747
191	0xbc7642a2	-0.015030535
192	0xbe7a1ba0	-0.244246
193	0x3e1856da	0.14876881
194	0xbf23f84e	-0.6405076
195	0xbe78eb6d	-0.24308558
196	0xbd480e52	-0.048841782
197	0xbe7ed5b8	-0.24886215
198	0xbdc8ac43	-0.09798481
199	0xbe229698	-0.1587776
200	0x3fa6ef23	1.3041729
201	0xbe320eaf	-0.17388414
202	0x3eccbbcc	0.39987028
203	0xbcaaeee2	-0.020865861
204	0x3f6ce721	0.92540175
205	0x3ee5b970	0.4486804
206	0xbdce1ed4	-0.10064474
207	0xbd0fedf0	-0.035139024
208	0x3e184a54	0.14872104
209	0xbe9de0c2	-0.3083554
210	0x3d5517af	0.05202454
211	0x3ee113ce	0.43960422
212	0x3f3e0826	0.74231184
213	0xbdd1041c	-0.10205862
214	0x3cd4f6c2	0.02599657
215	0xbe55e598	-0.20888364
216	0xbd77adb6	-0.060468398
217	0x3ebecb7e	0.37264627
218	0xbef22f8b	-0.47301897
219	0xbd559644	-0.052145258
220	0xbe858c11	-0.26083425
221	0x3f04f390	0.51934147
222	0xbd58a7ae	-0.052894287
223	0xbec25362	-0.3795424
224	0xbe780ffc	-0.24224848
225	0xbe34988e	-0.1763632
226	0xbdce56f5	-0.100751795
227	0xbdbfec96	-0.09371297
228	0xbdffab48	-0.12483841
229	0x3db7b698	0.08970374
230	0x3e6091d5	0.2193063
231	0xbf1bc0f6	-0.6084131
232	0xbe9b8774	-0.3037678
233	0xbec80695	-0.39067522
234	0xbd864067	-0.065552525
235	0xbe031a8b	-0.12803094
236	0xbe615c0b	-0.22007768
237	0x3ec46a44	0.38362324
238	0xbe9bcf3e	-0.3043155
239	0x3e3340a8	0.17505133
240	0xbe400f4b	-0.18755834
241	0xbeb5ce49	-0.35508946
242	0xbd7f637a	-0.062350728
243	0xbe1548eb	-0.14578597
244	0xbe0286ee	-0.12746784
245	0xbe54d69f	-0.20784996
246	0x3f1daea4	0.61594605
247	0xbd996a76	-0.07491009
248	0x3e48b675	0.19600852
249	0x3e70b623	0.2350698
250	0xbca947f7	-0.020664198
251	0xbe5d61ae	-0.21619293
252	0xbe89de31	-0.2692733
253	0xbd6fe66a	-0.05856935
254	0xbe54f25d	-0.20795579
255	0xbdec2bec	-0.11531815

fc3.bias f4 [10]
0	0xbf7015dc	-0.93783355
1	0xbf19d16a	-0.60085166
2	0x3e64095a	0.22269192
3	0x3f85470d	1.0412308
4	0x3fa5c89f	1.295185
5	0xbf6e6a97	-0.93131393
6	0x3f5c2f8f	0.8601007
7	0xbf6b2cb9	-0.91865116
8	0x3f042749	0.51622444
9	0xbeb39891	-0.35077336
