round4/2025-04-18 18:14:40-weight-client-0605eff2-5.pth (torch, 252478 bytes, 10 tensors)

conv1.weight f4 [6, 3, 5, 5]
00000000: 624d 87bf 5554 5fbf 72e2 4cbf 10ab 3dbf
00000010: 5901 80bf 6735 88bf c91d 67bf 48d9 85bf
00000020: 869a 6ebf 2a56 4fbf 60db 74bf 5668 5fbf
00000030: c15b 7dbf aeea 2bbf 1fc6 48bf 328c 22bf
00000040: 102e e8be fe4d 08bf b15d 13bf 4d36 5cbf
00000050: b5b7 71be c20b 00be 8439 7ebd f8b0 aebe
00000060: 705f 5dbe 9347 1dbe e03a 9dbd 4a56 20be
00000070: 3379 41be 0e36 41be 3b41 42be bcbc 8e3d
00000080: e199 00be 4cad 1dbe 844c 68bd a2bb d4be
00000090: 7c6f eebe 0aa0 5abe 589c f4be 5a13 ddbe
000000a0: 8aef b2be be20 a6be d84f 0fbf 9259 2bbf
000000b0: 2314 e7be 7c2b 2fbf 0e86 e9be 47f8 33bf
000000c0: 1d30 1fbf 1b86 31bf 5926 b73f 96c6 b63f
000000d0: 2382 da3f 15af b13f b875 a03f a671 b03f
000000e0: 0b9b af3f db9c d93f 576e d03f 7161 a23f
000000f0: 63e5 cd3f 61d6 c63f 3939 b53f f711 b63f
00000100: 8948 873f 2e44 8e3f 4559 9f3f 6a35 b13f
00000110: c96a 9f3f 7df7 743f 5134 aa3f 4cfe 7f3f
00000120: 698f 8d3f dcd1 6f3f 24ff 533f 3827 81bf
00000130: a308 8abf d604 a0bf c853 37bf c89d 28bf
00000140: f91a 83bf 1cdc 9bbf 5561 adbf 0585 a7bf
00000150: 4f33 74bf 9dd2 ca3d 00d7 7e3e 11b6 e0be
00000160: e354 9dbe 52f8 e8be e4e5 a03f a290 cc3f
00000170: d152 a23f aef8 793f def8 2f3f e70c b33f
00000180: 85e8 bb3f f496 bf3f 7d7b 803f d620 823f
00000190: b480 f1be 041e 25bf aca9 0fbf 35a4 68be
000001a0: 6714 0ebe fb12 15bf c06e 85bf 1aee 71bf
000001b0: 98ae 1fbf 599f 1bbf 7998 953e 26a9 373e
000001c0: 0567 223e 0696 6fbe 2c80 153d 2a70 3f3f
000001d0: 549b 833f bc70 953f 1ec7 1a3f 52bb d43e
000001e0: e334 6d3f b556 803f ccf9 ac3f e972 673f
000001f0: d4ba d33e 94fa bdbe 009d 4dbf 8c5f 2abf
00000200: fe6f 40be 39a6 a83d be10 40bf 8337 60bf
00000210: 63e3 6ebf 661e 64bf 404c 1ebf 2ae7 62bd
00000220: a13c ad3d 5728 d6bd 5abf b93c 7eaa c3bd
00000230: d5f4 663f 80fe 773f c507 623f a216 3c3f
00000240: 60be bc3e 8453 5b3f b8e4 2b3f a24a 773f
00000250: 43aa 4a3f 279e b13e f7d8 b4bd 3562 04bf
00000260: 1ca5 dcbd d232 f6bd 0476 05bf 2e53 40be
00000270: a679 e7be 38d2 f6bd 70fe a2be af19 12bf
00000280: 8c4d f13d f720 b6be 8038 b03e 9003 15be
00000290: 5f1e e4be b123 66be 2955 45be 0681 ee3e
000002a0: c556 613d ff7f d2be 74c4 203f f61c 8a3e
000002b0: 3ca1 f23e 0928 023f b36e 8f3e 8143 973f
000002c0: 415e 893f 3052 a23f 775c 8f3f d296 e13e
000002d0: 0261 993f 9242 823f 4b75 bc3f 6e88 953f
000002e0: 6be7 5f3f f89f 803f 37f1 803f ed07 c23f
000002f0: 60a1 a23f 9b08 2f3f 9a66 8a3f 4bb1 903f
00000300: ce36 fd3f 9ff2 a53f 0ee6 633f c364 cb3f
00000310: 3945 953f f7bd bc3f 0cf2 bf3f ded5 9e3f
00000320: d51d eb3b d1a7 16be 7e60 423e 56a7 f2bd
00000330: a852 0fbf 23e0 16be ee25 6ebb 419d b73d
00000340: 2ba9 143e 78a3 c2be 92a8 87bc 9d2f 8abe
00000350: cdb7 e63e 1867 2bbc 2b12 e5be fded f33c
00000360: 9d05 b4be 23cf 563d 904f 2ebe 8828 d0be
00000370: bcfb 07bd 44ed e7bd 2b8d 0c3d 5368 993b
00000380: 0173 78be 9729 3abf 11ac 15bf 0f3b 14bf
00000390: 3773 2bbf 653d 01bf 6bf3 1cbf 6f97 c7be
000003a0: 7e74 b3be c569 0abf f5f8 10bf 2891 68be
000003b0: a138 6ebd edf7 5bbe 28a8 a53d 5280 5dbe
000003c0: 6c0e 2e3e 754d 9b3e edee 8a3e f983 923d
000003d0: c6fc f13d ee01 1f3f 68a9 083f a280 033f
000003e0: ef72 193f 3158 2a3f f0bd 3a3e 0606 be3e
000003f0: 821a f93e 50da 8e3e b1a6 b13e 45b5 8d3d
-1.057049 -0.87238055 -0.8003303 -0.74089146 -1.0000411 -1.0641297 -0.90279824 -1.0456934
-0.93204534 -0.8099085 -0.9564724 -0.8726858 -0.9896813 -0.6715497 -0.7842731 -0.6349517
-0.45347643 -0.53244007 -0.57564837 -0.86020356 -0.23605235 -0.12504485 -0.06206657 -0.3411939
-0.21618438 -0.15359335 -0.07677245 -0.15657917 -0.1889389 -0.18868276 -0.18970196 0.06969592
-0.125587 -0.15398139 -0.056713596 -0.41549402 -0.4656943 -0.21350113 -0.4777553 -0.43178827
-0.3494838 -0.32446855 -0.55981207 -0.6693355 -0.4513255 -0.68425727 -0.45610088 -0.70300716
-0.6218279 -0.69345254 1.4308578 1.4279354 1.7070965 1.3881556 1.2535925 1.3784683
1.371919 1.7000993 1.6283673 1.2685987 1.6085628 1.5534173 1.4158088 1.4224232
1.0569011 1.1114557 1.2449118 1.3844426 1.2454463 0.9569014 1.3297216 0.999974
1.105939 0.93679595 0.8281119 -1.0090094 -1.0783886 -1.2501476 -0.71612215 -0.65865755
-1.0242606 -1.2176547 -1.3545328 -1.3087469 -0.9539079 0.099034525 0.24886703 -0.43888906
-0.30728826 -0.45501953 1.2570157 1.5981638 1.2681524 0.9764508 0.68739116 1.3988312
1.4680334 1.4967942 1.0037686 1.0166271 -0.47168505 -0.64498925 -0.56118274 -0.2271889
-0.1387497 -0.58232087 -1.0424423 -0.9450394 -0.62375784 -0.6079002 0.2921789 0.17935619
0.15859611 -0.23397073 0.036499187 0.74780524 1.0281777 1.1675029 0.6046008 0.41549164
0.92658824 1.0026461 1.3513732 0.90409714 0.41353476 -0.37105238 -0.8031769 -0.6655204
-0.18792722 0.082348295 -0.75025547 -0.87584704 -0.93315715 -0.89108884 -0.618351 -0.055396236
0.0845883 -0.10456913 0.022674251 -0.09554003 0.90217334 0.9687271 0.88293105 0.73472035
0.36863995 0.8567431 0.6714587 0.96598256 0.7916605 0.34690973 -0.08830445 -0.5171235
-0.107736796 -0.12021412 -0.521332 -0.1878173 -0.45209998 -0.12051815 -0.31834745 -0.5707044
0.11782369 -0.35572025 0.34418106 -0.1455214 -0.4455442 -0.22474553 -0.19270767 0.46582812
0.05501439 -0.41113278 0.62799764 0.2697522 0.47388637 0.5084234 0.28014144 1.1817476
1.0731889 1.2681332 1.1200093 0.4406038 1.198273 1.0176566 1.4723295 1.168226
0.8746249 1.0048819 1.0073613 1.5158669 1.2705498 0.68372506 1.0812562 1.1304106
1.978235 1.2964667 0.8902291 1.5890125 1.166175 1.4745473 1.4995742 1.2409017
0.007175187 -0.14712454 0.18982121 -0.11848323 -0.559855 -0.14733939 -0.0036338526 0.08965541
0.14517657 -0.38015342 -0.016559873 -0.2698945 0.45062104 -0.010461591 -0.44740424 0.029776568
-0.35160533 0.052443635 -0.17022538 -0.40655923 -0.033199057 -0.11324552 0.034314316 0.004681626
-0.2426262 -0.7271971 -0.5846568 -0.57902616 -0.6697268 -0.50484306 -0.61308926 -0.38982722
-0.35049814 -0.5406764 -0.5662988 -0.22711623 -0.058159474 -0.21481295 0.08088714 -0.21630982
0.16997689 0.30332533 0.2713541 0.07154078 0.11815791 0.6211232 0.53383493 0.51368153
0.59941 0.6654082 0.18236518 0.3711397 0.48653036 0.27900934 0.34697488 0.0691934

conv1.bias f4 [6]
00000000: 5511 8fc0 0842 b7bf d31a 05bf 3f97 52c0
00000010: 890d 70c0 327e 2ac0
-4.4708657 -1.4317026 -0.51994056 -3.2904813 -3.7508261 -2.6639524

conv2.weight f4 [16, 6, 5, 5]
00000000: 5503 283c 7a5d 8c3e 8143 203e 0e70 963e
00000010: 7b20 7b3e 32b5 cebd c97a 923d 4534 593c
00000020: 7cdf bb3d 18ef 96be 80a3 87be c496 75be
00000030: 1e26 57be ec83 13be 4c76 33be b694 aabd
00000040: 17bd 8ebe 63be 2fbe 37d6 4dbd 1a5d ef3d
00000050: ab6c 533e 26ad 463e 5bc6 213e 25ab 3a3d
00000060: f027 f83d 4a3d a1bd ad25 5fbe db1c 8cbe
00000070: 7943 e0be 4cef f3be 442e 99bd a674 ebbe
00000080: f9d8 c5be 72c5 07bf f5ff acbe 6fac 3e3e
00000090: f486 9c3c 6f3f 213d a107 8d3d 3874 4f3e
000000a0: d415 363e f726 003f e9c6 263f 50bb 1c3e
000000b0: 4e21 683e 7f78 343f 7d21 413f 7dbc 4d3f
000000c0: 8a66 243f 6fe6 363e 08c8 ddbd 56cd c1bd
000000d0: 530f 99be 99c9 7cbe 5528 90bd e287 16be
000000e0: 314a 0bbe f866 6bbe ffd1 7fbe 9552 c4bd
000000f0: a50e aebe bb85 e1bd d65e 4e3d 61b2 cfbd
00000100: b59e 7bbd 638f ce3d 6812 6a3e 0088 013e
00000110: 751c c5bd ded3 413d 94a0 863e d0f0 d03e
00000120: 4af0 e73e 1ee5 973e 18c7 303d 47d4 34be
00000130: 8303 c2be 216d 21be cf31 7cbe ec94 15be
00000140: c159 33be c3a4 b5be 98bc 87be bc10 a1be
00000150: 7d70 4ebe f27b 21be 91a8 e5bc c3b2 eebd
00000160: 8559 13bd 2755 16bd 2152 b4bd e561 013e
00000170: c014 523d 72c1 dd3d 0553 ef3c fae7 863e
00000180: d2e2 0b3e 6589 0a3e d04b e03d 6006 ea3c
00000190: 531b 04be e995 a0be 5c38 cbbd 227f 993d
000001a0: fef0 563e 738c a2bd f3b4 57be 8cf9 50bd
000001b0: 8a45 40be 5a02 253e 6e4f 57be 5db8 f93c
000001c0: 2159 f8bd 4d60 adbd c0ed 48be 6db6 30be
000001d0: 5f1c a3bb d921 6fbe 65da babd fc58 94bd
000001e0: 7476 0fbe ed72 80bd 5f2e fcbd 7719 8dbe
000001f0: 677b 46be 96f5 43be 5176 6fbe e873 22be
00000200: 4004 9bbe a3b5 a2be e3fe c5be 65ef c5be
00000210: 5026 ebbe b91e ccbe 66cb c1be e88f a2be
00000220: 93fb 0abf d7f2 22be 0c09 0cbe 4ea8 46be
00000230: 872f 58be c81d 62be 61e0 aebe 2d78 b5be
00000240: e48a 5fbe eb4f da3d 9f7a 8c3d 5d7b 17be
00000250: f590 87be 3c12 34be a05c 9ebe e944 c0be
00000260: 6269 36be 2d75 a0be c234 a7be 17c5 513d
00000270: 0507 a6bd b7dc 87be 5531 7fbe 624b 3dbe
00000280: 0d05 bdbc d7d7 2abd 6241 bdbd ca45 21bc
00000290: c072 80be df33 7cbd a500 c5bc ac8d dd3d
000002a0: e189 1b3e 920a 11bd bb31 613e 53ca a23d
000002b0: a997 a5bd 26f0 413e b285 dc3d 39a2 acbe
000002c0: f6f9 cebe bc4c dcbe 48cd 94be 7615 88bd
000002d0: 3c56 89be 4482 a4be 1b5c debe 634f cebe
000002e0: fd81 84be 3660 00bf ca16 2cbf 5a6e 16bf
000002f0: 7bba 28bf ed1e c8be 2d64 0cbf eae7 e1be
00000300: b6a7 12bf 6d76 c2be 14c7 87be 160d c3be
00000310: 4f56 3dbe 209e cbbe 9a53 61be 18ec 0abe
00000320: 2ea5 54be ed26 11be a640 93bd f823 443c
00000330: a315 523c 435c 36be ec78 3bbe 8b9e dfba
00000340: 93c3 f3bd 8a4e 38bc 506e 06bf e187 9cbe
00000350: 9eee 21be 70c6 4fbe 1b03 6abe e35e 04be
00000360: 86c7 edbb d835 41be 9ce6 76be a326 fb3b
00000370: 7f66 e6bd cbf1 41bc 88c7 e33c f83b 173e
00000380: 37b4 4bbe 47d5 81be c414 d7bc 53e2 983d
00000390: 140a 0bbe dcc4 45be 9007 a2bd 6cd0 7abe
000003a0: 30dc 07be 4d20 ecbc 6318 8cbe d705 8abd
000003b0: 573d 843a 97bc a0bd 0331 8dbc f9c2 973a
000003c0: 8443 8cbd 6969 f83a e939 ccbc 315a 2ebd
000003d0: f2e7 0ebe f997 87bd ad9f 3fbd c90a 8f3c
000003e0: 57d3 063e e1d4 b33b 6d5b f9bd 6670 efbd
000003f0: 035a 61be d213 92be b9fc afbe 1228 85be
0.010254701 0.27415067 0.1565075 0.29382366 0.24524109 -0.10093154 0.07152326 0.013257091
0.09173486 -0.2947929 -0.26491928 -0.23983294 -0.21010634 -0.14405793 -0.17525595 -0.083291456
-0.2787864 -0.1716247 -0.05025312 0.116876796 0.20646922 0.19401988 0.15798323 0.045573372
0.121169925 -0.07873018 -0.21791716 -0.27365765 -0.43801478 -0.47643507 -0.074795276 -0.45987433
-0.386421 -0.5303565 -0.3378903 0.18620466 0.01910732 0.039367136 0.06886221 0.20259178
0.17781764 0.50059456 0.6514726 0.15305829 0.22668955 0.7049636 0.75441724 0.80365735
0.6421896 0.17861341 -0.108291686 -0.09462993 -0.29894504 -0.24686278 -0.07038943 -0.14700273
-0.1360252 -0.22988498 -0.24982451 -0.09586064 -0.33995548 -0.11011835 0.05038341 -0.10141445
-0.06143065 0.100859426 0.22858584 0.12649536 -0.096245684 0.047321193 0.26294386 0.40808725
0.45300514 0.2966699 0.04315862 -0.17659102 -0.37893304 -0.15764286 -0.24628375 -0.1460759
-0.17514707 -0.35477266 -0.26511073 -0.3145808 -0.20160098 -0.15769938 -0.02803448 -0.1165519
-0.035974044 -0.0367023 -0.08804727 0.12635 0.05128932 0.108279124 0.029214391 0.2634886
0.13660744 0.13528974 0.1095196 0.028567493 -0.12901048 -0.31364372 -0.09922859 0.07494952
0.20990369 -0.07936945 -0.2106512 -0.051019236 -0.18776527 0.16114178 -0.21026394 0.03048342
-0.12126375 -0.084656335 -0.19621944 -0.1725709 -0.0049777473 -0.23352756 -0.09123687 -0.07243535
-0.1401003 -0.0627192 -0.12313532 -0.2755849 -0.19383012 -0.19136652 -0.23384978 -0.15864527
-0.3027668 -0.31779203 -0.38671026 -0.38659206 -0.45927668 -0.3986719 -0.37850493 -0.31750417
-0.5429012 -0.15912949 -0.13675326 -0.1940014 -0.2111188 -0.22081673 -0.34155563 -0.3544325
-0.21830326 0.106597744 0.068593256 -0.14793153 -0.2647778 -0.17585081 -0.30930042 -0.37552574
-0.17813638 -0.31339398 -0.3265744 0.05121335 -0.081068076 -0.2653558 -0.24921162 -0.18485788
-0.023073697 -0.041709747 -0.092409864 -0.009843299 -0.25087547 -0.061572906 -0.024048159 0.108180374
0.15189315 -0.03541047 0.21991627 0.079487465 -0.080855675 0.18939266 0.10767688 -0.33717516
-0.4042508 -0.43027294 -0.29062867 -0.06644718 -0.26823604 -0.32130635 -0.43429646 -0.40294942
-0.25880423 -0.50146806 -0.67222273 -0.58762133 -0.65909547 -0.39086094 -0.54840356 -0.4412225
-0.57287157 -0.37980977 -0.26519072 -0.3809592 -0.18489955 -0.39769077 -0.22004548 -0.13566625
-0.20766136 -0.14175005 -0.07190065 0.011971466 0.012822541 -0.17808633 -0.18307847 -0.0017060799
-0.11902537 -0.011249194 -0.52512074 -0.30572417 -0.15813681 -0.20290542 -0.22852747 -0.12926821
-0.007256451 -0.18868196 -0.24111408 0.007664518 -0.11250018 -0.011837433 0.027805105 0.1476897
-0.19892965 -0.2535803 -0.026255019 0.07465043 -0.13578063 -0.19313377 -0.07911599 -0.24493569
-0.13267589 -0.028823996 -0.27362356 -0.06739395 0.0010089081 -0.07848471 -0.017235285 0.0011578492
-0.06848815 0.0018952313 -0.024929957 -0.042566482 -0.13955668 -0.06620783 -0.046783138 0.017461197
0.13166557 0.0054880236 -0.12175641 -0.1169136 -0.22006993 -0.28530747 -0.343725 -0.26007134

conv2.bias f4 [16]
00000000: 6c63 18be 5aad cdbe 4c15 c03e 827f 2cbf
00000010: c80b 91bf 868e 463e 4c6f b7bf 9b0e 61bd
00000020: 4d7f abbe d26a 233f aa59 35bf 1d19 efbe
00000030: 35d1 d23b 562a 8b3f 80c0 24bf bd77 06bf
-0.14881676 -0.4017132 0.37516248 -0.6738206 -1.133172 0.19390306 -1.433084 -0.05494557
-0.3349556 0.6383487 -0.7083994 -0.46698847 0.006433631 1.0872295 -0.6435623 -0.52526456

fc1.weight f4 [120, 400]
00000000: 23ad 6d3d d298 cd3c aded 8ebd 4cdd 12be
00000010: 9981 32bc 1ea8 b4bd 3013 c2bd 20ae 0bbb
00000020: 4a0c 93bd ec5f 05be 0b6d 4cbe 74cf 81be
00000030: 3010 bebd a172 11be debc 6a39 11c8 15bd
00000040: 3fec bc3c 492b 16bd bb9e 29bc 8bfa 333e
00000050: 5468 523e a5b5 11bc 898c 0a3d a436 153e
00000060: f1a7 343e e277 dcbd fc88 c5bd 73a2 acbc
00000070: a562 503d fd62 01be e051 c53d 4abd 0cbb
00000080: 21a1 ad3d 20ea 0abd 87bb 84bd d3f1 fcbc
00000090: b7ee c83d 1d7f 313d 05f4 9e3d cb6f 36bd
000000a0: 9e1c f13d d323 ad3d d937 2f3c ec92 883d
000000b0: 6a8d cdbb 30ff 283a c15e fabc 2b67 253c
000000c0: 6fed 38bd 9846 60bd 7c63 babc 3d09 c7bd
000000d0: b554 69bc 6b20 47ba aad2 ee3d a824 2cbe
000000e0: 46bf 17be d83b 08ba d6b5 ae3c 60d7 a8b9
000000f0: eda7 1ebe 5384 31bd aa07 81bd 712c 46bd
00000100: a90a ffbd 59ac d9bc 6cd3 06bd eb5a 0f3d
00000110: a034 8e3c 1068 99bd dbb9 473d 340d b8bc
00000120: cc40 593c e2d7 763c c016 c13c cb12 a43d
00000130: 6356 d63d 6f07 32bd 8585 97bb 703a 88bc
00000140: 1560 113e f9fd bbbd 84ca e1bc 079b 9f3d
00000150: 308f 163e 9dee 65bc 93a4 ad3a 7010 7fbd
00000160: 0a69 863c 306a 13bd 4dba a5bd 2b19 8bbd
00000170: 5f1f 69bd 5134 ddbd 849e a6bd 03e4 17bc
00000180: 7520 c1bd ba3a 35bd e497 9fbd 79af 98bd
00000190: bc35 b8bc 1849 c03c 515b e03d b772 23be
000001a0: a241 5abe 87f2 01bc 155e fb3d e713 573e
000001b0: c502 fc3d 1c22 133e a567 9c3c 4581 3a3e
000001c0: 7105 713e b44e 973d b96f a13d 8127 21bd
000001d0: 1d10 713d 3255 093e 4aae 8bbd 43c5 ccbd
000001e0: aad8 c53b d256 85bd ee71 c13c afc8 36be
000001f0: 8ed7 92be d32d 85bb 89a6 9d3d 463e 053d
00000200: 8641 503d ca8b 953c 8cd9 663c 1617 a63c
00000210: 52ab b0bc 9099 f0bc 88cd c0bd 80ae 04bd
00000220: 61b5 a43d 5eaf 1c3c b50a 2ebd ecb3 0fbe
00000230: 82e8 19bd 7df0 89bd 8893 9a3d 3926 dabd
00000240: f805 d0bd 7f0a 84bd 9d9b 4a3d d3d1 1ebc
00000250: 17de 87bc 8de2 303c 0aa2 56bc 4fa8 17bd
00000260: d050 00bd c462 7bbd f3a6 28be f1a0 21be
00000270: 5903 4ebd c457 023d 493a a1bc 9155 85bd
00000280: 96bc 3ebd dfb6 d23d 604a 623d 5301 d13d
00000290: 25de aa3d 6506 453c e45d 633d cac7 bdbd
000002a0: c434 323d ef86 cabd 32e6 31be 1d70 bdbd
000002b0: 4bdd f4bd a00f 37be f67f 91bd dd08 133d
000002c0: 38a3 de3d 113c d93d 8b9a 2d3d 2306 833d
000002d0: bafe 013e 12bf b93d 037d 2fbd c187 8e3c
000002e0: 9c68 30be cef1 183d be09 7ebb 8f63 3dbd
000002f0: b69f a2bd 5bfa 0ebe ded8 58bc 648c c53c
00000300: aef9 04be 595d 82bd c456 cebd 4c29 d83c
00000310: f20a 99bc 8207 d53d a272 22bd 8415 ccbd
00000320: b615 23be f9bc 723d 35c7 d9bd e4ac 883d
00000330: 8bab 77bd f15f 63bb 6cbd 013e f282 383e
00000340: 232d 4a3e b5fd ac3c 050a fabc 7df1 fc3d
00000350: c715 553d aaf2 c13d 9651 84bd 2c64 b5bd
00000360: 1766 113d 875b ef3d a686 abbd 995b 1fbe
00000370: 2e74 c7bd 3fde 41bd b465 48be cdb3 40be
00000380: d900 3abe 0a8d c83d 282c 653d e425 05bd
00000390: 06e8 683d f398 cb3b 304f 673d 4e85 1ebc
000003a0: a477 28be 1414 1fbe cb2a 1abe 33a2 1bbe
000003b0: 1d5d 7fbe f4ad 04be 4034 50be 3e57 9dbe
000003c0: a1cf ebbd 9b5e 92bd b02e 19bd 62d3 94bd
000003d0: 7a64 2abc 293e 6cbc 7e36 173d 65d6 cebd
000003e0: b8e3 953d 39d2 123c affa f73c 9719 e23c
000003f0: 8ea9 2abe e424 6fbb 3259 b1bc 465b cebb
0.058026444 0.025097284 -0.06978927 -0.1434223 -0.010895156 -0.08821128 -0.09476316 -0.0021313503
-0.07180078 -0.13024873 -0.19963472 -0.25353587 -0.09280431 -0.14203884 0.00022386338 -0.03656775
0.02306187 -0.036662374 -0.010352786 0.17576043 0.2054761 -0.008893405 0.03382543 0.14571625
0.1764219 -0.10765053 -0.09645268 -0.021073556 0.050875325 -0.12635417 0.09634757 -0.002147513
0.084779985 -0.033914685 -0.064810805 -0.03087703 0.09811156 0.043334115 0.07761387 -0.044540208
0.117730364 0.084540986 0.010694467 0.06668648 -0.0062729614 0.00064467173 -0.03056276 0.010095398
-0.04514831 -0.054754823 -0.022752516 -0.09718559 -0.014241387 -0.0007596078 0.11661275 -0.16810858
-0.14819059 -0.00051969057 0.02132694 -0.00032203924 -0.15493746 -0.043339085 -0.0630029 -0.048382226
-0.12453205 -0.02657144 -0.03291647 0.034998816 0.017359078 -0.074905515 0.04876123 -0.022467233
0.013260078 0.015066119 0.023570418 0.08011397 0.10465696 -0.04346412 -0.004624071 -0.016629428
0.14196809 -0.09179301 -0.027562387 0.07793241 0.14703059 -0.014033941 0.00132479 -0.062271535
0.016407508 -0.03598994 -0.08092175 -0.0679191 -0.056914683 -0.10800994 -0.08135703 -0.009270671
-0.09430019 -0.04424546 -0.07792643 -0.07455344 -0.02248656 0.023472354 0.10954917 -0.15961729
-0.213141 -0.007931358 0.12273804 0.21003686 0.12305216 0.1436848 0.01909239 0.18213375
0.23537232 0.07388058 0.078826375 -0.039344314 0.058853257 0.13411406 -0.068203524 -0.09998562
0.0060377913 -0.065107 0.023613896 -0.17849992 -0.2868008 -0.0040643006 0.0769778 0.03253009
0.050843738 0.018255133 0.014089953 0.02027468 -0.021566067 -0.0293701 -0.09414202 -0.03239298
0.08042408 0.009563295 -0.04249068 -0.14033478 -0.037575252 -0.067353226 0.075476706 -0.10651822
-0.101573884 -0.064473145 0.04946481 -0.009693581 -0.016585393 0.010796201 -0.013100157 -0.037025746
-0.03132707 -0.061373487 -0.16469936 -0.1578405 -0.05029616 0.03182198 -0.019681113 -0.06510461
-0.04656657 0.10288786 0.05524671 0.10205331 0.08343152 0.01202545 0.055509463 -0.09266622
0.043507352 -0.09889018 -0.17372969 -0.092498995 -0.11956271 -0.17877054 -0.07104485 0.035897125
0.10870975 0.1060716 0.04238371 0.06397655 0.12694827 0.09069647 -0.04284383 0.017398717
-0.17227405 0.037339978 -0.003876313 -0.046237525 -0.07940619 -0.1396269 -0.013235299 0.024114795
-0.1298587 -0.06365461 -0.10075143 0.02638688 -0.018681977 0.104018226 -0.039660104 -0.09965041
-0.15926251 0.05926225 -0.10633699 0.06673601 -0.06046633 -0.0034694637 0.12669915 0.18018702
0.19743781 0.02111707 -0.030522356 0.12350748 0.05202272 0.094701126 -0.06460874 -0.08856997
0.03549775 0.11687379 -0.083752915 -0.15562285 -0.097389564 -0.04733109 -0.19570047 -0.18818589
-0.18164386 0.09792526 0.055950314 -0.03250684 0.0568619 0.0062133013 0.056472003 -0.009675337
-0.1645189 -0.15535003 -0.15055387 -0.15198593 -0.24937864 -0.12956983 -0.20332432 -0.30730623
-0.115142114 -0.07146951 -0.03739804 -0.072668806 -0.010399932 -0.014419117 0.036917202 -0.10099486
0.073188245 0.008961254 0.030270902 0.027600093 -0.16666242 -0.0036490494 -0.021648977 -0.0062975017

fc1.bias f4 [120]
00000000: 49a8 f8bc 4f01 9a3d 2245 6dbd 8f4d 05be
00000010: 6cf7 1bbc d76b 8d3d 7030 863d 4fb6 84bd
00000020: 8922 41bd a3c9 24bd 99c5 5bbe 4c13 193e
00000030: b86f 61bc 789f 483e ad72 9f3d b429 b4bc
00000040: f1ed edbb fbaf 7b3d b396 73bc 353b e33c
00000050: 33b5 f1bd 515a 8bbd 6cff a0bd 6987 3dbe
00000060: 6fd1 8cbd f9dc 1abd 468b d0bd 4f6a 703c
00000070: c623 8cbd 8b9a aa3d 42bb 13be 1067 00bd
00000080: 5ea3 c23d 00cf 06be bb37 093d 5c98 31bc
00000090: 75c8 d1bb 207a b63d 1e00 d43d cebe 94bd
000000a0: 5fad 933e 319d c6bd 2f9c 29be ea64 123e
000000b0: d11a 8bbd b0c2 d93c a8ed 26be 2421 64bd
000000c0: c296 01be 1b62 bbbc b8a3 343d e942 523d
000000d0: 1c30 853d c962 b3bd 89b9 8d3e 3868 1e3d
000000e0: ac7d 55be f241 e5bd 796e 313d 4c80 67bc
000000f0: 51b0 5a3e eea9 b6bb 8cae e2bd 314b bf3d
00000100: d3a5 51bd 20aa 513e e3ae a7bd 5f0a 01be
00000110: e256 413e 22e3 fe3d 9cf8 20bd a33b 17be
00000120: 61b8 e9bd 7320 75bd 6ca1 c0bc bcbc f73d
00000130: 05e5 b93d 2b30 c2bd 13aa e0bc fb3b 19be
00000140: 8cde 403e e001 82bc c9eb a33d c6f1 8dbd
00000150: 1428 143e efbd 9a3d e158 9a3d 17ee ff3b
00000160: ceca ce3c 76e7 02be ea67 b13d e6e8 a23c
00000170: c934 1e3e ec4f 11be e5e6 ecbc 2c80 4c3e
00000180: e047 163d e145 88bb 978b 9a3d 689b 58be
00000190: 0d7f 60bd 96f9 10be 473e 433d e1cd c63e
000001a0: 6e2f dabc 0ddf fbbd 2086 10be 678f c33d
000001b0: b875 91bd 6af9 e63d 3c88 b0bd d080 8ebc
000001c0: 09c4 893d cf94 09be 7458 9c3d ec3a 60bd
000001d0: e2ed adbd 6b1b f4bd 4513 1c3e 54f5 a73a
-0.030353682 0.07519781 -0.05792726 -0.13017868 -0.009519439 0.069053344 0.065522075 -0.06480085
-0.047152076 -0.04023136 -0.21462096 0.14948767 -0.013759546 0.19592083 0.077855445 -0.021992542
-0.007261031 0.061447125 -0.014867472 0.027738193 -0.11802139 -0.06804336 -0.07861218 -0.18508686
-0.06875884 -0.037808392 -0.10182814 0.014673783 -0.06842761 0.08330258 -0.14426902 -0.031348288
0.09503816 -0.13164902 0.033500414 -0.010839548 -0.00640207 0.08910012 0.10351585 -0.072629556
0.2884321 -0.09697951 -0.16563486 0.14296308 -0.06792224 0.026582092 -0.16301596 -0.055695668
-0.12655166 -0.022873929 0.044101447 0.05133334 0.06503317 -0.08759076 0.27680615 0.03867361
-0.20848721 -0.11194219 0.043318246 -0.014129709 0.21356322 -0.0055744564 -0.110684484 0.093405135
-0.051183533 0.20475054 -0.08187654 -0.12601613 0.188808 0.12445666 -0.039299592 -0.14768843
-0.114121206 -0.0598454 -0.023514472 0.12096545 0.09076885 -0.094818436 -0.027424848 -0.14964287
0.18834895 -0.015870035 0.08003957 -0.0693088 0.14468414 0.07555758 0.075364836 0.007810365
0.02524319 -0.12783608 0.08662398 0.019886445 0.15449823 -0.14190644 -0.028918693 0.19970769
0.03668964 -0.004158721 0.07546156 -0.21153033 -0.054808665 -0.1415771 0.047666814 0.38828948
-0.026633944 -0.12298403 -0.14113665 0.09548836 -0.07102531 0.11278041 -0.08619735 -0.017395407
0.06726844 -0.13435672 0.076340586 -0.054743692 -0.08492638 -0.11919292 0.15241726 0.0012814202

fc2.weight f4 [84, 120]
00000000: f8e7 a8bd aa89 54bd e329 01bd 2c82 73be
00000010: 00a4 f9be 9329 bf3d f8f5 2ebe b478 ad3e
00000020: 2206 833e 3e42 75bd e5ce bbbd c38b 87bd
00000030: e913 fc3d e676 d93d 74dc 42bd 7d18 d4bc
00000040: 16cc 05bd 9d17 b5b9 78e0 973d 7293 0e3f
00000050: 0dd6 643e 0599 8a3d a583 dd3d 91f1 67be
00000060: 0436 c43d 8414 e03d dee1 b3bc 58ed 18be
00000070: 6cbf 8c3d 062a 89bc 6380 603d ce23 4ebd
00000080: 83b2 bc3c d8d7 2d3b 6193 0abd ef43 a0bd
00000090: 18c4 3dbe 0015 17bd 42e8 82be c1ac 973e
000000a0: 17ea b83d d9a6 aa3e bfcf 653e d6f3 2dbd
000000b0: 7d44 063e f36d 5a3e 3638 b9bd f64d ac3d
000000c0: d504 e43e ef42 093e eb41 dfbd 6365 4a3d
000000d0: 3284 843e 2b10 5dbe b93d ee3e 2f1d 06be
000000e0: afc0 04be ca2d 95bc 8e3d 16be 680e ff3d
000000f0: 9b37 5c3d 3121 04be 86e0 223e fb1d 8b3c
00000100: 3369 b9bd d911 a7bb cb2d 4c3c 7ada 10be
00000110: 9469 23bd 5dc9 04be 62f2 923d b651 113c
00000120: b600 33be e9e3 c6bd 432d 1e3e fdc3 9e3d
00000130: f12e 75bd 43ef e73d 65b3 ea3d 4b7f b43e
00000140: fbee 16bd 51dc 87bc 54fd adbc c137 583e
00000150: 9b9e 8bbd 2f01 893e 817e a3bd d1e9 153d
00000160: fb1c 353e 3219 ef3d 160b 4f3e c614 6fbc
00000170: f965 b6bd 0aa1 053e 8dac 973d 6fe2 dfbd
00000180: 02bf 893e ceff 173e bc61 e5bd 1aac 483e
00000190: 9c04 a93d be18 0d3e a7e6 39be 6f53 263e
000001a0: 2d69 013f 6144 e1bd 7af4 923d 65ee 303e
000001b0: 0ac5 953e 7084 5e3d 0407 8b3e 397a c2bd
000001c0: b2ad a6bd 5ebc bb3c 893f 1d3e c927 b4be
000001d0: 7273 8bbd 3f60 1b3e c2e2 bc3d 9195 02be
000001e0: a0df be3c cf80 4dbe 4bd0 7abd 1f39 b33d
000001f0: 1059 643e 8c6f 3f3e 9a7f 22be a6ec e9bc
00000200: a4f3 b13e 46a8 943c fdfb 52be ebc7 a1be
00000210: 43bb f6bd 2d25 d5bd b395 003e 1b2f 0dbe
00000220: 49c1 03bd 4704 8b3c a93d 56bd 86c8 debd
00000230: dad3 57be 65b7 2cbe f591 c93c d483 063e
00000240: f9d5 543e 1c82 13bc f3cb a23d ff7c 96bd
00000250: c238 f8bd 1458 193e 68fc 483e e81d a93d
00000260: 513b c2bd b7c5 833e 7955 573d d35a b6bd
00000270: 8953 e93b d425 fbbd 2f37 9abd 282f 07be
00000280: 4e85 05be 3db5 e1bd 8596 94be 1807 afbc
00000290: c9ef 593e d25b 0abe e524 d4bb 6bdc 8e3d
000002a0: 6eb3 31be c4d3 713e 501a 843e d1c0 a23d
000002b0: 8eca ebbd c6ec 633d 9acb 643d 62e0 cd3b
000002c0: e854 853d dafd b9bc 9e7d 4d3d 06c3 323e
000002d0: bc44 6e3d 17e1 0abe 9219 943d 2706 e6ba
000002e0: 91cb 70ba 6c54 a13d 27d0 273e e838 fa3b
000002f0: 5453 7fbe 6f29 8d3c 3d37 78be d488 7dbb
00000300: 5ecb 93be ee2d 573c 7a13 8ebe 6d4c e73b
00000310: e0de 1c3e 64e3 c4bd 3bd9 39be 3582 07be
00000320: d38d 063e ec50 d53c 8f0c 36bd 468f 643e
00000330: 7de4 883b 3313 e3bd 3f92 313d fbcc 09bd
00000340: 716f b3bd ea97 b3bd 6676 7abc cc05 9c3d
00000350: 2a3b d03d b407 ddbd 0cfe 14b9 66c0 0e3e
00000360: 0a99 4dbe c2d2 de3d 01a4 d1bc 860d fdbd
00000370: 00d0 933e 8c45 063e 6903 183d f5e6 6dbe
00000380: e30d b8be af9c 4d3e 7b1a 11bd 5ca4 86be
00000390: c554 b3bc c75f 4fbc 5058 873d 40db 6ebd
000003a0: f502 9f3d c52e 52be 354d c1be 8597 b33e
000003b0: 9ce5 533e 9958 1a3e e3ba 0abe f671 d33d
000003c0: 15e1 9fbd 799a 21bd d22c 54be c5a5 53be
000003d0: e46c 4abe a454 223d 6564 79be 9e0b 963c
000003e0: ea35 19be c9b6 46bc cd5e 103d 0e6a 8dbe
000003f0: 6c3e 3ebe 9e8b 183e 87cd dd3d afd5 02be
-0.082473695 -0.0518891 -0.031534087 -0.23780125 -0.48757935 0.093341015 -0.17086017 0.33881152
0.25590616 -0.059877627 -0.091703214 -0.06618454 0.12308485 0.10618381 -0.04757352 -0.025890583
-0.032665335 -0.00034540604 0.07415861 0.55693734 0.22347279 0.067674674 0.10816125 -0.22650744
0.09580615 0.10941413 -0.021958288 -0.1493429 0.06872448 -0.016743671 0.05480994 -0.050327115
0.02303434 0.0026526358 -0.033831958 -0.07825457 -0.18531835 -0.03688526 -0.25567824 0.29623988
0.09029024 0.3333042 0.2244253 -0.04246887 0.13112064 0.21331005 -0.090439245 0.08413307
0.44534937 0.1340444 -0.10901245 0.049413096 0.25882107 -0.21588199 0.46531466 -0.1309707
-0.12964128 -0.01821031 -0.14671919 0.1245392 0.053763967 -0.12903287 0.15905961 0.01698207
-0.09053268 -0.005098563 0.01246209 -0.14145842 -0.03989561 -0.12967439 0.07175137 0.008869579
-0.1748074 -0.09711439 0.15446953 0.077522255 -0.05985922 0.113249324 0.11459998 0.35253367
-0.036849003 -0.016584547 -0.02123896 0.21115018 -0.06817361 0.26758716 -0.07983113 0.036599938
0.17686836 0.116747275 0.20219073 -0.014592355 -0.089061685 0.13049713 0.07405958 -0.10931861
0.2690354 0.14843675 -0.11200282 0.19596902 0.08252832 0.1377897 -0.18154393 0.16242765
0.5055111 -0.1099937 0.071755365 0.1727844 0.2925189 0.05432552 0.2715379 -0.09495968
-0.081385985 0.022916969 0.15356268 -0.35186604 -0.06809129 0.15173434 0.09222938 -0.12752368
0.023299992 -0.20068668 -0.0612338 0.08751129 0.222996 0.18694896 -0.15868989 -0.028555226
0.34756196 0.018146645 -0.20603938 -0.31597838 -0.12047436 -0.10407481 0.12557106 -0.137875
-0.032166753 0.016969813 -0.052304897 -0.108780906 -0.21076909 -0.16866834 0.02460573 0.13136226
0.20784749 -0.009003188 0.079490565 -0.0734806 -0.12120201 0.14975005 0.19627535 0.08257657
-0.0948397 0.25736782 0.052571747 -0.08904042 0.007120554 -0.122630745 -0.07530057 -0.13201582
-0.13039133 -0.110208966 -0.29021087 -0.021365687 0.21282877 -0.13511589 -0.0064741247 0.06975635
-0.17353603 0.23615938 0.25801325 0.07946933 -0.115132436 0.055645727 0.055858232 0.006282852
0.06510335 -0.022704054 0.050168626 0.17457208 0.05817102 -0.13562427 0.0723144 -0.0017549441
-0.0009185607 0.0787743 0.16387998 0.0076361783 -0.24934131 0.017231671 -0.24239822 -0.0038686292
-0.28866094 0.013133509 -0.27749234 0.007058671 0.15319395 -0.09613684 -0.18149273 -0.13233264
0.13140039 0.026039563 -0.04444557 0.2232028 0.0041776286 -0.11087646 0.04335236 -0.03364275
-0.0876149 -0.0876921 -0.015287017 0.07618293 0.10167535 -0.10792485 -0.0001420902 0.13940582
-0.20077911 0.108800426 -0.025590898 -0.12356095 0.2886963 0.13112468 0.037112627 -0.23232634
-0.35948095 0.20079301 -0.035425644 -0.2629727 -0.021891007 -0.012657112 0.06608641 -0.05831456
0.07764236 -0.20525654 -0.37754217 0.35076538 0.20693058 0.1507286 -0.13547854 0.10324471
-0.07806603 -0.039453957 -0.20720223 -0.20668705 -0.19768101 0.0396315 -0.24354704 0.018316086
-0.14961973 -0.01212854 0.03524666 -0.27619976 -0.185785 0.1489701 0.10830217 -0.12776826

fc2.bias f4 [84]
00000000: f2a9 853d fc09 69bd 8f23 673e fb4b 56be
00000010: 196e df3d 20f9 e83e 8173 e8be 5605 18be
00000020: 0509 1cbd 332e 383e faff 53be cfaf ae3d
00000030: ebe5 4d3d 72a6 85be 69e3 70be 7e11 b63e
00000040: 4e1e 61bc 9aad 503e affa 9e3e ef49 37be
00000050: 378c 27be f1db 21bd 72c3 8dbd 242d 98bd
00000060: 3971 bcbd fe4b 14bd 091e f13e 767f 523e
00000070: 6e20 97bc c263 363d 378a 45be ee35 c1bc
00000080: dd66 783e 5215 a93e 6d9d bfbd 932a 04be
00000090: 9775 a0bc d05c 813e 6bac 3c3c 26f8 83be
000000a0: 0d3b 893e 2ebf a53e e8e9 b9bd 98d5 373d
000000b0: 814e 83be 6c12 a4bd 89a9 6fbe 1e4a a7bd
000000c0: a40f 74bd d184 54bd a690 2c3f a09a 9a3e
000000d0: e057 333c 62d3 88be 5c32 48bd b4bc 0f3d
000000e0: 8c57 113e f1a9 93bd 490c 803e 93f6 8bbc
000000f0: 0968 62be 75ef 323d e658 35be 8cb3 98be
00000100: e458 bb3d 8e7d 0b3d 6e11 df3e 1225 973c
00000110: 75b3 3e3e 9e3f a93d eb93 933d d880 4ebe
00000120: 5271 353e 939f 59bd ff03 11be 242b 883d
00000130: a153 0a3f 28e8 66bd b686 9bbc 226b 9a3d
00000140: cdd7 8abe 5546 4dbe 7555 6cbd 425c 39bc
0.06526555 -0.056894287 0.22572158 -0.20927422 0.10909671 0.45502567 -0.45400622 -0.14845785
-0.03809454 0.17986374 -0.20703116 0.085296266 0.050268095 -0.2610355 -0.2352425 0.3556022
-0.013740135 0.20378724 0.3105063 -0.17899297 -0.16362081 -0.039516393 -0.06922044 -0.07430485
-0.09201283 -0.036205284 0.47093228 0.20556435 -0.01844808 0.04452873 -0.19291006 -0.023585286
0.24257989 0.3302408 -0.093561985 -0.12906866 -0.019587321 0.25266123 0.011515717 -0.2577526
0.26802865 0.3237242 -0.09077817 0.044881433 -0.2564583 -0.08011326 -0.23404516 -0.081684336
-0.05958523 -0.051884476 0.67408216 0.30196095 0.010946244 -0.26723772 -0.04887615 0.03509207
0.14193553 -0.07210148 0.25009373 -0.01708535 -0.22109999 0.043685395 -0.17709693 -0.29824483
0.09147814 0.034055285 0.43567985 0.018450294 0.18623145 0.08264087 0.072059475 -0.20166337
0.1771901 -0.053130697 -0.1416168 0.066488534 0.5403386 -0.056373745 -0.018985134 0.07539965
-0.27117768 -0.20046361 -0.057698686 -0.0113135

fc3.weight f4 [10, 84]
00000000: 74cc d63d c409 6f3e 0bfa 58be e762 2b3d
00000010: aede dabe f97c 1cbf 9605 aa3e 78a2 cf3e
00000020: 555f 03bf 37cf d7be 7022 543e 2b91 eb3e
00000030: 9a08 863d 1f5a 76be 4343 cfbe 59e3 20bf
00000040: 0c73 0c3e 1b7e 37bf dc98 083f 1959 063e
00000050: 0edc dcbd 9f43 003d b0a4 f43d 6943 98be
00000060: 5bf7 7fbe 38d2 50be af96 05bf 5ea6 74bd
00000070: 12e8 f63e da32 dc3d 10d1 893e 4699 a03e
00000080: 50f5 0abf 5c5f e4bd 64ed bc3e 69be a13d
00000090: b563 9bbe f0ee 23be eea9 49bd 2808 003e
000000a0: b725 533e be0d eebe 2349 d1bd 6d0c d8be
000000b0: 9d63 28bd b1d2 373c 1fa1 6a3d 0b4c 503f
000000c0: 1e50 143e c39e 89be 8608 b9be 3581 b93b
000000d0: 211e 03bd 04f2 873d f9e0 ecbe 8ede 49be
000000e0: 55ee 84be 8c5a 2ebd e83d 19be e5e3 18be
000000f0: 0e28 023f fab1 85be 381c e4be bec8 c3bd
00000100: 30eb 7dbe b73e a93d df2e c1be 6ae4 75bd
00000110: 69a1 04bf a3b0 0cbe 9b94 debd cd6e 5b3d
00000120: e360 d33e e61c 263e 5280 8f3e 12bc 573e
00000130: ad9f 0fbf 1bf5 04ba a65f 3cbe d9a1 18bf
00000140: 3652 153f ebdc 073f 212d 6a3e 55c4 cf3e
00000150: 17be 0ebf 3edc 65be ba17 6dbc 74cb 31bf
00000160: 9f70 043f f73a a5be 4163 47be 4827 0a3e
00000170: b2c5 99bd ca6e 083f b416 8dbe 22a4 00bf
00000180: 2010 e33e 851f 36bd 3443 8d3f 4dcc a4bd
00000190: 757a 04bf a114 50bf 64d4 0ebf 7e52 34bf
000001a0: f60f 473f cb03 f9bd 5a5f 12bf d581 cb3c
000001b0: bf97 b23e c230 0a3d 70cf cdbe f243 82bd
000001c0: 3adb 21bd b20e 48be 54d5 b83c cd78 203e
000001d0: d76c 93be 5d70 96bf 8f2d 4abe bb1c 9dbd
000001e0: 766a febd 8e2b 8ebe b7e2 dcbe a307 643e
000001f0: a1d6 b83e 8b35 663e a220 52be 160c d0bd
00000200: 7453 8c3e 66cd 2bbe 062e dd3d b0a9 19be
00000210: 7a17 203e ac50 3d3e 1760 2b3f 3a28 353f
00000220: 9a24 96be 6107 12bf 3fea 22be e42c 613e
00000230: aa7f 013f 7ec3 6b3e 9abf 4fbc dedb 593f
00000240: 0bc5 00bf 3003 72be d75f 773e b390 0d3d
00000250: a2b1 cc3e 8519 043f 9da2 3abf ad56 75be
00000260: 354c 21bf 5a68 063f 0f0d 67be 6fa6 453f
00000270: edad 0e3f e8df ce3d 4b49 903d d658 9ebe
00000280: c26f 5dbd 7e1a e6bc a313 8ebd 00f8 88be
00000290: b297 42be d6d6 713d c1d5 d9be e7db b13e
000002a0: d1a7 483e 1e50 1e3e ecef ac3b 33c6 96be
000002b0: 662f 3cbe 829d d03c 1b64 c9bd 6a9d 96bd
000002c0: 2e6d 25be 4406 0dbe 732e e53d 0da3 393f
000002d0: 9052 39bc e838 24be 76fb 04bd 7e12 843e
000002e0: e6ae ce3e bc48 073e 9bfe 273d ba49 bb3d
000002f0: 055d 93be e3d3 d43e 1cee 123e 778c a4bd
00000300: cb1f 83bc b8b8 533d c9a0 d93e 91fe 4a3e
00000310: 6cc8 7bbe d008 eebc 2585 4a3e e8e9 06be
00000320: d2a7 bb3d 6a8e 863e f77b e4bd 37a1 21bd
00000330: 2b21 4e3d f8cf 2fbe eb3d 08be 2898 2abe
00000340: 5235 f33d a840 743e f11a 56be a0cd 9ebe
00000350: 7a91 163e e8df 43be 84a4 5ebd f8e5 afbc
00000360: a8a3 213e 0124 c63d 936f 9bbe 6fe5 a3bd
00000370: 566c 8abc 9dab 34be ec39 43bd a2fa 8b3e
00000380: c3e9 4e3e 886c 8bbe aa69 473d 1df2 10bd
00000390: 171c 4fbe d1ee 0b3d 178f d73d 06f1 493e
000003a0: c401 64be d279 483e f57d 09be b12f d0bd
000003b0: 7d2a 5d3f 52f3 243e 36a4 493e 5700 333e
000003c0: 3503 6dbe 08d4 543d 9905 1f3d cb93 763f
000003d0: 4c20 6fbe 12d3 9cbe 9ddd 98be 278a cdbd
000003e0: 9138 08be 32e9 5e3c b78d e63e 0072 3fbe
000003f0: 9a12 b6be 905c 9a3d 5bd8 2bbe 146e cd3e
0.10488215 0.23343569 -0.21189134 0.041842368 -0.42748016 -0.61128193 0.33207387 0.4055364
-0.5131734 -0.4215028 0.20716262 0.46009192 0.06544609 -0.24057816 -0.40481004 -0.62846905
0.13715762 -0.71676797 0.53358245 0.13119926 -0.107841596 0.03131449 0.11945474 -0.2973893
-0.24996702 -0.20392692 -0.5218305 -0.059728973 0.4822393 0.10751887 0.26917315 0.31366938
-0.5428057 -0.11151001 0.36899865 0.07897646 -0.30349508 -0.16009116 -0.049234323 0.12503111
0.20619856 -0.4649486 -0.10219028 -0.4219698 -0.041110624 0.011219666 0.057282563 0.8136603
0.14483687 -0.26878938 -0.36139315 0.0056611546 -0.032011155 0.06637958 -0.4626539 -0.19713804
-0.25963083 -0.04256682 -0.14965022 -0.14930685 0.5084237 -0.26112348 -0.4455278 -0.09559773
-0.24796748 0.08263915 -0.37731072 -0.060032286 -0.5180879 -0.13739257 -0.10868188 0.053572465
0.41284856 0.16221961 0.28027588 0.21067837 -0.5610302 -0.0005071924 -0.18395862 -0.5962196
0.5832857 0.5307147 0.22868778 0.40579477 -0.55758804 -0.22447297 -0.014470989 -0.6945107
0.51734346 -0.3227155 -0.19471456 0.13491547 -0.075084105 0.5329405 -0.27556384 -0.50250447
0.4434824 -0.044463653 1.1036134 -0.0804678 -0.51749355 -0.8128148 -0.5579283 -0.70438373
0.7775873 -0.121589266 -0.57176745 0.024842182 0.34881398 0.033737905 -0.40197325 -0.06360616
-0.03951571 -0.19536856 0.02256266 0.15671082 -0.28793976 -1.175304 -0.19743942 -0.076714955
-0.124226496 -0.27767605 -0.4314172 0.22268538 0.3610125 0.22481363 -0.20520261 -0.10158555
0.2740742 -0.16777572 0.10799794 -0.15006137 0.15633956 0.18487805 0.66943496 0.70764506
-0.293248 -0.5704251 -0.1590967 0.2198978 0.50585425 0.23023793 -0.012679959 0.85101116
-0.50300664 -0.23634028 0.24157654 0.034561824 0.39979273 0.5160144 -0.7290438 -0.23958845
-0.6300691 0.5250298 -0.22563575 0.7720708 0.5573414 0.101013005 0.070452295 -0.3092715
-0.05406166 -0.028088804 -0.06937339 -0.2675171 -0.1900318 0.059042774 -0.42545894 0.34738085
0.19595267 0.1546025 0.0052776244 -0.2944809 -0.18377456 0.02546573 -0.09833547 -0.07354243
-0.1615493 -0.13771921 0.111905 0.7251442 -0.011311188 -0.16037333 -0.032466374 0.25795358
0.40367812 0.1321134 0.041014295 0.091449216 -0.28781906 0.41567907 0.14348644 -0.08034604
-0.016006371 0.051689833 0.42505482 0.19823672 -0.24588174 -0.029056937 0.19777353 -0.13175166
0.091628686 0.26280528 -0.11156457 -0.039460387 0.0503246 -0.17169178 -0.1330487 -0.16659606
0.118754044 0.2385279 -0.20908715 -0.31016254 0.14703932 -0.19128382 -0.054356113 -0.021471962
0.15785086 0.09674836 -0.30358562 -0.08002745 -0.016897362 -0.1764359 -0.04766266 0.27339655
0.2020636 -0.2723124 0.048684753 -0.035387147 -0.20225559 0.0341633 0.10525339 0.1972085
-0.22266299 0.19577721 -0.13426955 -0.101653464 0.86392957 0.16108444 0.19691548 0.17480598
-0.23145755 0.05196002 0.038823698 0.96319264 -0.23352164 -0.30629784 -0.29856578 -0.10036116
-0.13302828 0.013605403 0.45029995 -0.18695831 -0.35561067 0.07537186 -0.16781752 0.40123045

fc3.bias f4 [10]
00000000: 1fd3 9ebf 60ad 2dbe ea11 403e f17a 173f
00000010: 41ad 2e3f bc57 26bf 7b34 a03f 4af0 4cbf
00000020: 5997 e93d bd6e 42be
-1.2408179 -0.16960669 0.18756834 0.5917197 0.68233114 -0.6497762 1.2516016 -0.8005415
0.114058204 -0.18987556
