round4/2025-04-18 18:14:40-weight-client-97021157-9.pth (torch, 252478 bytes, 10 tensors)

conv1.weight f4 [6, 3, 5, 5]
000000 40 59 97 bf 0d 85 85 bf de 96 79 bf 14 7f 72 bf
       -1.1824112 -1.0431229 -0.9749583 -0.94725156
000010 d2 88 a2 bf 38 4c 95 bf f7 00 88 bf 22 7a 9a bf
       -1.2698004 -1.1663885 -1.0625294 -1.2068522
000020 e1 59 91 bf 42 d9 89 bf 3a b3 87 bf 83 76 80 bf
       -1.1355554 -1.0769427 -1.0601571 -1.0036167
000030 ff 92 94 bf f0 ad 63 bf a5 3d 87 bf 72 fe 4c bf
       -1.160736 -0.8893728 -1.0565687 -0.8007575
000040 d0 88 2a bf ec b6 4d bf 0c ad 55 bf ba a6 92 bf
       -0.6661501 -0.8035724 -0.83467174 -1.1457131
000050 06 2e e7 be 2f 10 c8 be 4e 88 b4 be 07 cf 17 bf
       -0.451523 -0.39074847 -0.35260242 -0.59300274
000060 66 23 fc be 69 3c ac be a5 db a2 be c2 95 d8 be
       -0.49245757 -0.3363984 -0.318082 -0.42301756
000070 65 3c e6 be ea fe 05 bf 46 d6 bf be d7 75 34 be
       -0.44967952 -0.52342093 -0.37468165 -0.17623077
000080 0e c6 b2 be 1c b7 d5 be c5 5a b7 be 27 9b 15 bf
       -0.3491673 -0.41741264 -0.3581144 -0.5843987
000090 67 66 29 bf 14 6c e1 be 4d c9 3e bf c8 5d 38 bf
       -0.6617188 -0.4402777 -0.7452591 -0.720181
0000a0 cc 64 09 bf 72 ca 0d bf a1 be 58 bf 78 1a 6f bf
       -0.5366943 -0.5538703 -0.84665877 -0.93399763
0000b0 03 f0 38 bf 26 b3 68 bf db 3c 34 bf f7 b2 7e bf
       -0.7224123 -0.9089836 -0.7040536 -0.9949183
0000c0 62 78 57 bf 2d 73 6b bf 0b 8c 98 3f 49 da 8a 3f
       -0.84168065 -0.9197262 1.1917738 1.0847865
0000d0 49 04 af 3f 4e 0d 82 3f 74 96 5c 3f b8 fc 8a 3f
       1.3673183 1.016031 0.86167073 1.0858374
0000e0 96 da 85 3f f5 27 b0 3f 8d fb a2 3f fa 2e 57 3f
       1.0457332 1.3762194 1.2733017 0.84056056
0000f0 51 e3 af 3f 11 96 a2 3f 2f b6 8e 3f 7d 22 88 3f
       1.3741246 1.2702047 1.1149348 1.0635525
000100 85 51 2d 3f b2 d7 5a 3f ac a3 6f 3f 30 c6 86 3f
       0.67702514 0.85485375 0.9360912 1.0529232
000110 59 47 6e 3f ee 57 21 3f b2 12 86 3f 15 75 2b 3f
       0.9307762 0.63024795 1.0474455 0.6697553
000120 d9 4d 42 3f 0a 02 29 3f b3 42 0f 3f f6 53 37 bf
       0.75900036 0.66018736 0.5596115 -0.7161249
000130 95 bb 06 bf 07 03 3c bf 5e da 8b be 41 26 86 be
       -0.5262998 -0.7344212 -0.27315038 -0.2620106
000140 2d fa f4 be 3a a2 02 bf 34 83 27 bf f8 63 28 bf
       -0.4784712 -0.5102879 -0.65434575 -0.6577754
000150 af 1d d6 be e1 a9 df 3e 63 c5 17 3f d4 88 c8 bd
       -0.41819522 0.43684295 0.59285563 -0.09791723
000160 b9 2b e7 3d 92 2d b0 bd 0b 16 9f 3f 56 34 c7 3f
       0.11287636 -0.08602442 1.2428602 1.5562847
000170 fa a3 a2 3f 9e 7e 85 3f ed 16 52 3f 29 a3 b6 3f
       1.2706292 1.0429265 0.8206623 1.4268543
000180 6e 01 bc 3f 2c 2e c5 3f 46 fd 8f 3f b4 95 95 3f
       1.4687936 1.5404716 1.1249168 1.1686311
000190 58 32 98 3b 0f 09 a0 3d 7f 81 1d 3e ad ee bf 3e
       0.0046446733 0.07814228 0.1538143 0.37486783
0001a0 0e bb d7 3e 67 06 04 3d 26 dd 5e be 91 a8 23 be
       0.421349 0.03223267 -0.21764049 -0.15982272
0001b0 27 af be 3d ed cd c6 3c 77 5d 33 3f 11 1d 11 3f
       0.093107514 0.024268115 0.7006449 0.56684977
0001c0 44 d6 10 3f 86 70 65 3e 9d 07 06 3f 42 63 45 3f
       0.56576943 0.22406206 0.52355367 0.7710458
0001d0 96 e0 81 3f d2 8d 99 3f a9 7e 2d 3f 5c 69 1c 3f
       1.0146663 1.1996405 0.67771393 0.61098266
0001e0 05 7a 73 3f 4b d2 81 3f f4 1f b5 3f 7d f3 81 3f
       0.9510806 1.0142301 1.4150376 1.0152432
0001f0 a5 ab 21 3f d9 67 80 be 28 9b e3 be c1 f9 9e be
       0.63152534 -0.2507923 -0.44454312 -0.31049922
000200 88 1a 98 3d c8 04 9d 3e 99 91 fc be cd 7a e8 be
       0.074269354 0.3066771 -0.49329832 -0.4540619
000210 6b 46 03 bf 98 eb 03 bf a7 21 b5 be 3e 02 35 bd
       -0.51279324 -0.5153136 -0.35377237 -0.04419159
000220 db 4f 8c 3d e2 d2 e2 bd 52 eb e5 3d 94 12 ce bc
       0.06851169 -0.11075379 0.112265244 -0.025155343
000230 80 0d 06 3f 10 d1 0e 3f 59 7e 04 3f 82 ab e0 3e
       0.5236435 0.55787754 0.5175529 0.4388085
000240 d7 f1 20 3e e2 c8 06 3f 70 05 98 3e df f7 22 3f
       0.15717255 0.5265027 0.29691648 0.6365947
000250 02 66 03 3f 90 03 30 3e 3b ab af be a2 e1 4b bf
       0.51327527 0.17188859 -0.34310326 -0.79641163
000260 08 76 e1 be c8 a9 dc be ee c3 21 bf 48 f4 f9 be
       -0.44035363 -0.43098283 -0.6318959 -0.48819184
000270 f6 1e 48 bf e5 6c 15 bf 67 d1 2b bf 4c 85 47 bf
       -0.7817224 -0.58369285 -0.671164 -0.7793777
000280 3a 82 35 be d1 13 33 bf 79 59 2f be 63 2b 0f bf
       -0.17725459 -0.6995211 -0.17123975 -0.5592558
000290 55 8c 3c bf fa 42 18 bf 0c 10 21 bf 4a ce f3 bd
       -0.7365163 -0.594772 -0.6291511 -0.11904581
0002a0 29 16 f6 be a2 89 5c bf dc fb 51 3e f4 6d 4a be
       -0.48063782 -0.8614751 0.20506233 -0.19768506
0002b0 a7 9a f0 bd f4 ae 53 bc a9 5f 84 be aa cf 59 3f
       -0.117482476 -0.01292013 -0.25854233 0.85082495
0002c0 77 b7 35 3f cb d4 4d 3f 67 68 37 3f 7c 54 83 3e
       0.7098307 0.8040282 0.7164368 0.25650394
0002d0 a1 ca 51 3f 76 c8 1a 3f 8a 60 73 3f 55 33 3e 3f
       0.8194981 0.6046213 0.9506918 0.74297076
0002e0 f6 71 1a 3f da 2f 28 3f f8 d8 19 3f e3 ad 73 3f
       0.6033014 0.65698016 0.60096693 0.95187205
0002f0 4f 32 4a 3f 6c 11 a4 3e c9 42 30 3f e3 51 2d 3f
       0.78983015 0.32044542 0.68851906 0.67703074
000300 a5 11 ad 3f b0 b5 40 3f c0 d2 d2 3e 8c 2e 95 3f
       1.352101 0.75277233 0.41176414 1.165483
000310 d4 36 34 3f 60 cb 6b 3f 39 78 75 3f e8 25 32 3f
       0.7039616 0.921072 0.9588657 0.6958909
000320 7b 9d 6b be c4 7c c0 be b5 da 14 be 41 3b b8 be
       -0.23009293 -0.3759519 -0.14536555 -0.35982707
000330 63 3d 17 bf 61 40 db be 56 49 8b be cb 7e 8d be
       -0.59078044 -0.42822555 -0.27204388 -0.27635798
000340 29 e9 11 be 00 d7 fe be 6a 0f 72 be a4 a8 0a bf
       -0.142491 -0.49773407 -0.23638692 -0.54163575
000350 64 16 12 3c d6 d3 b5 be e8 96 26 bf 85 05 4f be
       0.008916471 -0.3551318 -0.65074015 -0.2021695
000360 b9 46 27 bf 37 61 d1 be 03 5e 0c bf c2 bb 2c bf
       -0.6534229 -0.40894482 -0.5483095 -0.67473996
000370 02 a1 9d be 9a 1f da be 2e 76 be be f7 c0 b1 be
       -0.30786902 -0.42602235 -0.3719954 -0.34717533
000380 e2 4a 15 bf cf 1b ed be 4f a9 d8 be 8c 31 03 bf
       -0.5831739 -0.4631028 -0.42316672 -0.5124748
000390 9c 0f 1b bf 3f 3b 00 bf 4b 36 c6 be 60 01 8f be
       -0.60570693 -0.500904 -0.38713297 -0.27930737
0003a0 47 b2 ab be 27 cb 08 bf 58 c8 26 bf 64 1e c6 bd
       -0.33534452 -0.53434986 -0.6514945 -0.09673765
0003b0 0a 7b 20 bb 0c 38 81 be 5f 17 74 3b 7d 56 a5 be
       -0.00244874 -0.25238073 0.0037245376 -0.32292548
0003c0 b7 e7 f5 3d c9 47 53 3e 62 d1 e2 3d 62 b5 dd bd
       0.12007087 0.20632853 0.11075093 -0.10825612
0003d0 75 e6 ac bd e6 d7 c2 3e 92 ff 76 3e 16 9a 49 3e
       -0.08442394 0.38055342 0.2412093 0.19687685
0003e0 25 79 7f 3e 78 c8 a7 3e 6f 82 da 3e f5 41 06 3f
       0.24948557 0.32770133 0.42677638 0.5244439
0003f0 99 be 0d 3f 9a db a3 3e 06 36 b2 3e 17 bc a3 3e
       0.55368954 0.3200348 0.34806842 0.3197944

conv1.bias f4 [6]
000000 3c 69 a4 c0 23 ef ba bf 20 e8 27 bf 9a 95 59 c0
       -5.137846 -1.4604229 -0.6558857 -3.399756
000010 03 38 39 c0 fc e1 30 c0
       -2.8940437 -2.763793

conv2.weight f4 [16, 6, 5, 5]
000000 5e 4c 92 bd c7 a7 25 3e 06 d7 8f bc f9 08 07 3d
       -0.07143472 0.16177283 -0.017558586 0.03296754
000010 b4 a4 84 bd 7a 30 e0 bc 38 6f 80 3d c4 a8 9c bd
       -0.06476727 -0.027366865 0.06271213 -0.07649377
000020 25 7b e3 bd a3 fa 04 bf 12 08 23 be bd 76 2d be
       -0.11107472 -0.5194494 -0.15921047 -0.16939826
000030 fa f5 74 be fa 66 81 be 99 83 7a be a6 ae a5 bd
       -0.23921958 -0.25273877 -0.24464263 -0.08089952
000040 e4 40 87 be f0 a4 4b be 53 d6 53 bd 73 3e 18 3e
       -0.26416695 -0.19887137 -0.051718067 0.14867572
000050 0c b4 24 3e a4 c7 1f 3e 69 d7 22 3e 4e a9 e2 3d
       0.16084307 0.156035 0.15902485 0.110674486
000060 b4 1e 5a 3e ed 4e 86 3e de 6b 9c bd 6e 03 96 be
       0.21300775 0.2623209 -0.076377615 -0.29299492
000070 1e 25 d4 be 19 3e 96 be 6a f8 93 bd 25 f6 a2 be
       -0.41434568 -0.29344252 -0.072251156 -0.31828418
000080 d8 fa 5a be 4c 62 94 be 9c 91 ae bd 95 d5 e2 3e
       -0.21384752 -0.28981245 -0.085238665 0.44303575
000090 5b 2b 7c 3e d6 b9 87 3e a8 a6 d7 3e c8 cf f8 3e
       0.24625914 0.2650897 0.42119336 0.48596025
0000a0 60 9f 03 3f 7b 76 31 3f 6c 58 4e 3f ec 13 1d 3f
       0.5141506 0.6932141 0.8060367 0.61358523
0000b0 ab 50 55 3f de f1 a1 3f 47 4a ae 3f 79 48 b1 3f
       0.83326215 1.2651937 1.3616418 1.3850242
0000c0 b0 68 a4 3f 94 95 63 3f 6c 38 20 be 93 68 c1 bd
       1.2844448 0.88900113 -0.15646523 -0.09443774
0000d0 70 ec c9 be a4 5b aa be f6 07 4b be 98 84 0a be
       -0.394382 -0.3327304 -0.19827256 -0.13527143
0000e0 e4 69 93 bd 9c 95 47 be b4 d0 3e be 31 d8 e5 bd
       -0.071979314 -0.19490665 -0.18634301 -0.11222876
0000f0 80 df 89 be 12 e7 18 bc c0 8b 2a 3e ba 06 a9 3d
       -0.2692833 -0.009332435 0.16654873 0.08253236
000100 93 4b ad 3c 95 ff 30 3e c0 0b 95 3e 78 df 56 3e
       0.0211542 0.17284997 0.29110527 0.20983684
000110 01 62 f6 3c 76 69 33 3e 13 a7 af 3e c9 97 ec 3e
       0.030076029 0.17520699 0.34307155 0.46209553
000120 99 42 e3 3e cf ac 96 3e 1c 43 fd 3d 79 20 c3 be
       0.44386747 0.29428717 0.12366316 -0.38110712
000130 7d 7f 17 bf ea 01 f4 be 3f 7e 18 bf bd 3d ff be
       -0.59178907 -0.4765771 -0.59567636 -0.4985179
000140 a1 85 84 be b0 90 e8 be 2a 2e dd be 5c 29 05 bf
       -0.258832 -0.45422888 -0.43199283 -0.52016234
000150 8e c4 cc be b6 83 a1 bd d4 f4 31 3d 66 38 a0 bd
       -0.3999371 -0.0788645 0.043446377 -0.07823257
000160 aa 5e 01 bc e3 d0 67 bd ab d4 e5 3c 1e 94 80 3e
       -0.007896105 -0.056595694 0.02805551 0.25113004
000170 e9 ff 34 3e 4e 06 6d 3e 97 2a 01 3e f8 7e da 3e
       0.17675747 0.23146936 0.12613903 0.42674994
000180 02 59 94 3e f3 d8 9b 3e d6 18 aa 3e d3 be 70 3e
       0.28974158 0.30438957 0.33222073 0.23510294
000190 2f 7f 00 3e 73 93 9c bb 13 8e e9 3d f9 ee 3e 3e
       0.12548517 -0.0047783195 0.11404052 0.18645848
0001a0 e3 bb 80 3e d6 0c 1f 3d 72 08 f2 bc e5 b7 11 3e
       0.25143346 0.0388306 -0.029545043 0.14230306
0001b0 b1 c4 36 bb cb 8e 8e 3e 77 eb 94 be 61 9c 4e 3c
       -0.0027888233 0.27843317 -0.29085895 0.012610526
0001c0 17 ea 57 bd 42 c1 e3 3c ab 66 ba bd 45 5c 9d be
       -0.05271348 0.027802113 -0.091016136 -0.3073446
0001d0 8c 06 03 be 60 2b 86 be 52 4f 91 bd e0 45 86 bd
       -0.12795466 -0.26204967 -0.07095207 -0.06556296
0001e0 39 5d 89 be 0c cc 6b be 14 87 61 be 9e f1 94 be
       -0.26828936 -0.23027056 -0.22024184 -0.2909059
0001f0 08 df 48 be 06 82 b7 be f0 de b8 be 24 b4 aa be
       -0.1961633 -0.35841388 -0.36107588 -0.3334056
000200 b2 4b fe be b4 d0 02 bf ec d4 f2 be 86 79 f3 be
       -0.49667126 -0.51099706 -0.47428071 -0.47553653
000210 b8 eb 0e bf db 85 f5 be 18 77 00 bf 0f 7c 9c be
       -0.5582843 -0.47953686 -0.5018172 -0.305634
000220 4b b2 fe be 4d 04 d9 bd 07 f6 d6 bd 02 66 2f be
       -0.49745402 -0.105965234 -0.10496145 -0.17128757
000230 5d 21 75 bd 09 9e ce bd 8d 6c 76 be 3e d1 83 be
       -0.05984627 -0.100887366 -0.24064846 -0.25745577
000240 21 75 00 be a1 b5 5b 3e 3e 88 37 3e 43 3e 32 bd
       -0.12544681 0.21456005 0.17923066 -0.04351641
000250 bb 03 f6 bd 44 fc 17 bd e2 8f 87 be d1 95 b2 be
       -0.1201243 -0.037105814 -0.2647696 -0.34879926
000260 b8 f2 37 be c4 f9 90 be a9 b5 9d be d5 c2 b0 3d
       -0.17963684 -0.28315556 -0.30802658 0.08630911
000270 7b 30 33 bd 60 96 85 be ff 7e 81 be 8e d7 3f be
       -0.043747406 -0.2609129 -0.25292203 -0.18734571
000280 6b 14 a3 bb 27 f6 29 bc 7e 19 57 bd b0 9d 69 3b
       -0.0049767992 -0.010373629 -0.052514546 0.0035646968
000290 6d b4 7e be 9e 49 36 bd f0 1a 16 3c a9 01 17 3e
       -0.24873514 -0.0445038 0.009161696 0.14746727
0002a0 4f 82 3d 3e 4d ac 9b bc 31 b5 5f 3e 72 7d 9e 3d
       0.1850674 -0.019003058 0.21846463 0.077387705
0002b0 7e 78 9b bd 1a be 60 3e 4d 4d ff 3d 80 35 75 be
       -0.075913414 0.21947518 0.12465916 -0.2394619
0002c0 de 83 a4 be d9 c2 c2 be 9e ee 83 be d8 b0 1a bd
       -0.32131857 -0.38039282 -0.25767988 -0.037766308
0002d0 e2 71 48 be fa fb 83 be 70 47 ba be 10 82 bd be
       -0.19574693 -0.2577818 -0.36382627 -0.37013292
0002e0 e4 41 75 be 76 19 d6 be 5e fc 17 bf a2 34 fa be
       -0.23950917 -0.418163 -0.59369457 -0.4886828
0002f0 8c ac 12 bf 4c 92 9b be ff 5e f9 be 38 37 cd be
       -0.57294536 -0.30385053 -0.4870529 -0.4008119
000300 64 6e 0c bf 6b 04 ae be c6 1a 56 be 6c cb b7 be
       -0.5485594 -0.33987746 -0.20908651 -0.35897386
000310 93 38 29 be 88 2a ca be 1a 06 66 be 63 91 0c be
       -0.16525488 -0.39485574 -0.22463265 -0.13727336
000320 60 7b 1a be f9 76 9d bd 62 5b 54 bc 98 20 42 3d
       -0.15086126 -0.07688708 -0.0129612405 0.047394365
000330 c3 c0 2b 3d 0c f9 d6 bd cc 63 04 be b1 80 94 3d
       0.04193188 -0.10496721 -0.12928694 0.072511084
000340 0e 6d 5c bd 01 20 01 3d 7b 78 ef be e7 f6 6d be
       -0.05381494 0.031524662 -0.46771607 -0.23238717
000350 16 b5 c0 bd 2e 28 2d be 7c 9d 41 be 34 31 bf bd
       -0.094095394 -0.16909859 -0.18907732 -0.093355566
000360 94 b7 c3 3c 6f 2d 1b be 90 90 55 be 22 ae 34 3d
       0.023891248 -0.1515405 -0.20855927 0.04411138
000370 fe 49 db bd 54 e8 50 bd 61 89 94 3b 0c 0c 0d 3e
       -0.10707472 -0.051002815 0.0045329784 0.13774127
000380 13 f9 4b be ef 6f 69 be dc 89 b8 bb ed 1b b1 3d
       -0.19919233 -0.22796606 -0.0056316685 0.086479045
000390 9c f2 12 be cc f3 47 be 48 0e 6b bd bb 9f 65 be
       -0.1435036 -0.19526595 -0.057386667 -0.22424214
0003a0 62 3c ee bd 38 c8 d0 bc 36 ee 84 be d2 fe 2f bd
       -0.11632611 -0.025486097 -0.2596299 -0.042967625
0003b0 82 97 e2 3c 64 23 89 bd dc d7 e7 bb 66 17 12 3c
       0.027660135 -0.06696203 -0.007075293 0.008916711
0003c0 dd 0a 78 bd 85 e1 e8 3c 14 45 4b bc 35 89 9b bc
       -0.060557235 0.028427849 -0.012406606 -0.018986324
0003d0 6d 9f 0d be 3c 40 a4 bd 68 ed 93 bd f2 59 bf bc
       -0.13830347 -0.08020064 -0.07223016 -0.023358319
0003e0 42 15 ef 3d 72 55 94 3c 7c 8c c6 bb aa d6 ab bc
       0.116739765 0.01810715 -0.0060592275 -0.020976383
0003f0 30 e8 18 be b0 93 52 be 1e 9c 87 be 65 8c 19 be
       -0.14932323 -0.20564151 -0.26486295 -0.14994963

conv2.bias f4 [16]
000000 51 e0 c3 bd 3c 66 c6 be 47 f3 88 3e 3c 32 22 bf
       -0.09564269 -0.38749874 0.26748106 -0.633579
000010 82 4b 8e bf 45 6d dc 3d b7 19 ce bf 04 b4 26 3d
       -1.1116793 0.10763029 -1.6101598 0.04069902
000020 c6 d3 7b be 6a dc 3e 3f 37 fd 2d bf c3 9d 83 be
       -0.24592504 0.74555075 -0.679645 -0.257063
000030 ae 52 ab bd df 5d 75 3f ce 70 33 bf e0 88 0c bf
       -0.08365379 0.9584636 -0.70094 -0.54896355

fc1.weight f4 [120, 400]
000000 14 b6 88 3d 4e 9a 0c 3d 47 f5 c8 bd 30 79 33 be
       0.06675354 0.034326844 -0.09812408 -0.17526698
000010 0e 42 a4 bc 27 ee 86 bd 43 1a 7d bd 1b 9e 5d bc
       -0.020051029 -0.06588393 -0.061792623 -0.013526465
000020 4e 43 e7 bd 33 14 11 be 71 4e 47 bd 50 a2 28 be
       -0.11292134 -0.14167862 -0.048658792 -0.16468167
000030 a9 10 37 bc 0b 08 cd bd 7a fb 3e 3d fd de e3 3c
       -0.011173406 -0.100113 0.046626545 0.02781629
000040 44 1f ca bc 4b 22 89 bd 5d c9 8a bb 2f a7 23 3e
       -0.024673112 -0.06695994 -0.00423543 0.15981744
000050 71 45 62 3e 68 fa 29 bd 88 71 d2 bb fc a3 1d 3e
       0.22096802 -0.04149857 -0.0064222254 0.15394586
000060 a8 f5 80 3e 0e 3b d3 bd 3c 33 ab bd d9 28 6b bc
       0.2518742 -0.10313998 -0.083593816 -0.014353001
000070 80 12 46 3d 5e 4b f2 bd 23 36 d1 3d d3 e2 92 bc
       0.048357487 -0.118307814 0.10215404 -0.017930424
000080 76 bb 9c 3d 87 81 01 bd 8c 24 5d bd a6 5f 00 bd
       0.07652943 -0.031617668 -0.053989932 -0.031341217
000090 51 46 b0 3d 4e 6a ca 3c 22 7c 92 3d c4 57 57 bd
       0.08607162 0.024708893 0.07152583 -0.052573934
0000a0 9c 01 df 3d 63 f7 83 3d b8 1e ad 3b fd 23 8f 3d
       0.10888979 0.0644367 0.005283203 0.06989286
0000b0 c3 35 32 bc 74 f9 b2 3b 87 dd e4 bc 12 ec 44 3c
       -0.010877076 0.005461866 -0.027937664 0.012019174
0000c0 c2 74 0c bd b6 5e 23 bd 98 3c 9b bc f1 6b b7 bd
       -0.034291036 -0.039885245 -0.018949792 -0.08956135
0000d0 c7 4d d5 bc e6 21 21 bd 1e 2b 80 3d 70 3e 0e be
       -0.026038064 -0.03933897 0.06258224 -0.13891006
0000e0 2f 02 d7 bd 81 f8 86 3c a1 05 e6 3c ef 3b 67 bb
       -0.10498463 0.016475918 0.028078856 -0.0035283526
0000f0 5a ee 04 be 7f 8d 2c 3c 35 f8 07 bd 36 6f ba bc
       -0.12981549 0.010531782 -0.033195693 -0.022758108
000100 8d 72 d9 bd 92 4b f9 bb 43 3f 40 3b 5d d9 b6 3d
       -0.10617552 -0.0076078856 0.0029334582 0.089281775
000110 2c 17 19 3d 4e d7 53 bd 42 26 c9 3d 25 61 31 3d
       0.037375614 -0.051719002 0.0982175 0.043305535
000120 f2 d3 97 3d 23 50 32 3d ed 0f 1e 3d 9e 36 a3 3d
       0.07413472 0.043533456 0.038589407 0.07969402
000130 c8 38 1c 3e 74 cf 90 3c 18 b9 f2 3c a1 17 31 bd
       0.15256035 0.017677046 0.029629275 -0.043235425
000140 41 0f 4e 3e a0 6c f1 bc 62 61 45 3d 90 13 cc 3d
       0.20123006 -0.029470742 0.048188575 0.09964669
000150 9b ef e7 3d 66 cd cb 3b c5 8a ca bc d6 d3 0f be
       0.11324998 0.0062195538 -0.024724374 -0.14045653
000160 70 fa 89 bd 61 e5 04 be 1b e3 2c be b5 cb 3d be
       -0.0673722 -0.12978126 -0.16883509 -0.1853474
000170 bf 03 1b be 48 14 38 be bc f2 2f be b8 71 71 bd
       -0.15138148 -0.17976487 -0.1718244 -0.05894634
000180 c2 5d df bd d2 71 c6 bc 58 00 b0 bd 1e 3d d3 bd
       -0.10906555 -0.024224196 -0.085938156 -0.103143916
000190 52 09 ab bd 51 f2 12 bc 7b 24 b7 3d 54 11 30 be
       -0.08351387 -0.008968906 0.08942505 -0.1719411
0001a0 b0 b4 6d be 73 ec 16 bd 48 1b f5 3d 75 59 63 3e
       -0.23213458 -0.03684659 0.11968094 0.22202094
0001b0 d3 64 1d 3e a7 2d 19 3e 6f 5c 13 bb 12 30 5a 3e
       0.15370493 0.14958821 -0.0022485515 0.213074
0001c0 d8 ca 7f 3e e7 35 5b 3d 3a a7 86 3d 5d 17 9c bd
       0.24979722 0.053518202 0.06574865 -0.07621644
0001d0 08 fc f0 3c ff 8e db 3d e6 d2 ba bd 40 33 de bd
       0.029417053 0.10720634 -0.09122257 -0.10849619
0001e0 1d b2 51 bd 38 a3 d2 bd ac 1b aa 3b bf d5 47 be
       -0.051195253 -0.10285038 0.005191287 -0.19515131
0001f0 b1 80 9a be 02 3b 9b bd 79 88 03 3d f5 b6 84 3c
       -0.3017631 -0.07579614 0.032112572 0.016200522
000200 a4 d4 1b 3d d1 51 18 bb 78 ae 61 bd 14 1b 18 3c
       0.038044587 -0.0023242126 -0.055098027 0.0092838
000210 85 25 3e bc 08 80 d8 3b 3f 4f 26 bd d9 94 c4 bc
       -0.011605625 0.0066070594 -0.04060292 -0.023996757
000220 bd d8 be 3d f8 4a 23 3d 45 25 23 3b b5 f3 75 bd
       0.09318683 0.039866418 0.002489404 -0.06004687
000230 65 cb dd 3b 47 55 86 bd 80 01 ab 3d ae 03 8f bd
       0.0067686313 -0.06559234 0.083498955 -0.06983124
000240 ff 5e a5 bd 29 33 e3 bc c0 17 b7 3d 23 0a 69 3c
       -0.0807476 -0.027734356 0.08940077 0.014223608
000250 b2 6d 87 bc e7 07 07 bd 64 a6 2e bc ef 57 0d bd
       -0.016531799 -0.03296652 -0.010659788 -0.034507688
000260 1c 16 7f bc 98 9e 0b bd 93 1e 0a be d8 a1 2c be
       -0.015569236 -0.034086794 -0.13488226 -0.16858613
000270 a5 09 83 bd 70 bc c1 3c f0 a1 7c bc f4 2b 61 bd
       -0.06398324 0.023649424 -0.015419468 -0.054973558
000280 ce 6f 79 bd c0 d0 b9 3d e0 db 49 3d f6 10 bc 3d
       -0.06089764 0.09073019 0.049281955 0.091829225
000290 cd 37 99 3d d0 79 90 3c 83 33 88 3d 3a a7 d8 bd
       0.07481346 0.01763621 0.0665045 -0.10578771
0002a0 40 66 50 3c fc 85 04 be 67 59 3f be 7f 98 c3 bd
       0.012719691 -0.12941736 -0.18686448 -0.09550571
0002b0 16 ff 08 be f4 70 44 be 4e 07 61 bd 5f c3 89 ba
       -0.13378558 -0.19183713 -0.054938607 -0.0010510496
0002c0 10 a8 d9 3d 8d df 0b 3e 97 59 67 3d 6d 35 ba 3d
       0.106277585 0.13659497 0.056481924 0.090922214
0002d0 5f 12 cc 3d 83 90 c4 3d af f3 1c 3c 58 ee ae 3d
       0.099644415 0.09597876 0.009579583 0.08541554
0002e0 b4 97 df bd 81 00 1b 3d 1b d0 22 3b b9 a5 66 bc
       -0.10917607 0.037842277 0.0024843279 -0.014077597
0002f0 3b 9c 8c bc e7 8e 67 bd 19 0b 39 bb 13 d5 f9 3c
       -0.01716434 -0.056532767 -0.0028235374 0.03049711
000300 bc 27 00 be aa d8 37 bd a0 4a c1 bc cb 74 49 3d
       -0.12515157 -0.04488436 -0.023595154 0.049183648
000310 c1 84 0a bc 23 98 d8 3d 7b 25 81 bc 0c 88 90 bd
       -0.008454503 0.10575893 -0.015764942 -0.07057199
000320 36 49 0b be 5c 39 b5 3d bf 08 95 bd a5 96 d1 3d
       -0.13602147 0.08848831 -0.07277059 0.10233811
000330 f7 fc 68 bd 04 5b 63 bc d5 8e e1 3d d1 84 30 3e
       -0.05688187 -0.01387668 0.11013571 0.17238165
000340 cf e4 46 3e 7e 00 16 3d 91 75 09 bd ee cb 0c 3e
       0.19423221 0.036621563 -0.033559386 0.13749668
000350 52 b8 ad 3d 62 c2 da 3d f0 8f 43 bd 69 00 e9 bc
       0.08482422 0.10681607 -0.04774469 -0.028442578
000360 86 ec 97 3d 5e 07 13 3e df 86 79 bd 3e f3 01 be
       0.0741816 0.14358279 -0.06091964 -0.12690446
000370 9a 33 a0 bd 10 fb 44 bd aa 17 38 be 87 bd 2b be
       -0.07822342 -0.048090994 -0.17977777 -0.16771518
000380 7d e7 17 be 81 f7 15 3e e4 15 c9 3d 2b 67 00 bd
       -0.148344 0.14645196 0.098186284 -0.03134839
000390 dd a7 1f 3d b0 40 87 3c 6b 83 a7 3d f1 ac 46 bd
       0.038978446 0.016510338 0.08179363 -0.048504774
0003a0 98 3d 3a be e4 c1 2d be 41 e3 21 be 62 59 30 be
       -0.18187559 -0.16968495 -0.15809347 -0.17221597
0003b0 d4 ee 95 be d7 be 0f be 1b ff 68 be 4e 70 a1 be
       -0.29283774 -0.14037643 -0.22753565 -0.31530994
0003c0 0a 45 34 be 02 7a c3 bd 5c c7 11 bd 0b 88 b5 bd
       -0.17604461 -0.095447555 -0.035590515 -0.08863839
0003d0 83 f8 d2 bc 61 29 78 bd a2 ce c9 3c aa b1 c9 bd
       -0.025753265 -0.060586337 0.024634663 -0.0984834
0003e0 3c 19 8f 3d 26 6a 59 3c 3e a7 81 3d 95 09 8f 3d
       0.06987235 0.013269937 0.06330727 0.069842495
0003f0 73 9f 03 be c2 15 f7 3c 08 95 35 bd 86 6c 38 3c
       -0.12853794 0.030161742 -0.04433158 0.011256343

fc1.bias f4 [120]
000000 5c 2b b2 bc be e7 51 3d 17 26 6e bd d4 11 04 be
       -0.021749191 0.051246397 -0.058141794 -0.12897426
000010 6c d9 b5 bb d5 e4 39 3d e4 7a 8a 3d 2c a3 c9 bd
       -0.0055496003 0.045384247 0.06761721 -0.09845576
000020 5f a0 04 bd 10 fd 19 bd 01 e6 38 be 16 94 10 3e
       -0.032379504 -0.037594855 -0.1805649 0.1411899
000030 38 ba 85 bc 82 e4 39 3e d7 9a 98 3d 04 ff af bc
       -0.016324148 0.18153575 0.07451408 -0.021483906
000040 e2 d5 27 3b 6f 15 52 3d 65 0b 22 bd 96 55 3b 3d
       0.0025609662 0.051289972 -0.039561648 0.045735918
000050 60 44 05 be 6f 57 93 bd 11 c1 b1 bd d9 61 42 be
       -0.13014364 -0.07194411 -0.086794026 -0.18982638
000060 13 82 81 bd 7a 14 a4 bb 75 eb ce bd 40 0b d5 3c
       -0.06323638 -0.005007324 -0.101035036 0.026006341
000070 ac 48 ac bd 66 4b cd 3d 09 55 18 be 7a 24 22 bd
       -0.084122986 0.10024147 -0.14876188 -0.039585568
000080 b4 7f ad 3d 48 d2 f5 bd fa 76 01 3d 46 dd 2e bd
       0.08471623 -0.120029986 0.031607606 -0.04269149
000090 df 24 7f bb 7a 5f 7b 3d 21 6a b4 3d 11 06 94 bd
       -0.003893189 0.06137035 0.08809305 -0.072277196
0000a0 10 6b 93 3e 5d ff bf bd 4f 76 34 be e8 c4 21 3e
       0.2879262 -0.093748786 -0.17623256 0.1579777
0000b0 1f 6b 6d bd 25 55 bc 3a 2c bb 16 be ba bd 66 bd
       -0.057963487 0.0014368637 -0.14719838 -0.05633328
0000c0 ed d6 88 bd ca 4c a8 bc 02 d7 95 3d 9a 55 78 3d
       -0.06681619 -0.020544428 0.073164 0.06062851
0000d0 57 96 5f 3d 62 c1 89 bd 90 91 90 3e e9 86 0f 3d
       0.054586735 -0.06726338 0.28236055 0.03504077
0000e0 dd 49 4f be 3c 0b e6 bd 9c 82 8d 3d d5 d6 b0 3b
       -0.2024302 -0.112326115 0.069096774 0.0053967037
0000f0 e0 00 3e 3e 8c d6 8e bc c2 bb b7 bd 10 1a 9d 3d
       0.18555021 -0.017436288 -0.08971359 0.07670987
000100 0a d7 4d bd 82 39 3d 3e 71 fe 90 bd 2b ff d1 bd
       -0.050253905 0.18478969 -0.07079781 -0.102537476
000110 e4 ee 2f 3e 29 98 0a 3e b3 91 f2 bc df 9c fc bd
       0.17180973 0.13534607 -0.02961049 -0.12334608
000120 bc 8d b4 bd 3d 9e 73 bd f0 9e 1e bb e6 99 f1 3d
       -0.08816096 -0.05947708 -0.002420362 0.11796932
000130 ba 79 a6 3d 98 42 8c bd 8b 77 10 bd fa 8f d2 bd
       0.08128686 -0.06848639 -0.035270255 -0.102813676
000140 e3 51 4c 3e 08 2a 86 ba 5c 8f a0 3d 01 6c ac bd
       0.19953112 -0.0010235915 0.07839844 -0.084190376
000150 85 a2 14 3e 06 bc b0 3d d8 7f 48 3d fc b5 9c 3b
       0.14515121 0.086296126 0.048950046 0.0047824364
000160 ff d2 27 3d e2 fe be bd 48 ac 4c 3d f5 bc 91 bc
       0.040972706 -0.09325959 0.049968988 -0.017790297
000170 fc 85 1d 3e c0 58 07 be 5b 07 a9 bc 83 ab 17 3e
       0.15383142 -0.13217449 -0.02063339 0.1481152
000180 47 04 58 3d 02 84 d9 bb df de 82 3d 61 61 56 be
       0.052738454 -0.006638051 0.063901655 -0.20935585
000190 06 5c 68 bd 9b af 0a be 9f ce 1b 3d d0 8b be 3e
       -0.056728385 -0.1354355 0.038038846 0.37216043
0001a0 4e 12 bd bc 41 8e e0 bd 92 a7 04 be e8 ee 5e 3d
       -0.023080017 -0.10964633 -0.12954548 0.054427058
0001b0 3c 5d 65 bd 19 fd d8 3d 11 7c ea bd ff a9 85 bc
       -0.05599712 0.105951495 -0.11449445 -0.016316412
0001c0 9a 6c 52 3d 17 0c e8 bd 73 d3 74 3d 8b f3 4e bd
       0.0513731 -0.11330431 0.059771966 -0.05052523
0001d0 a7 9b d9 bd b0 49 f7 bd 67 83 3b 3e fd f0 52 3a
       -0.106253915 -0.12074602 0.18311845 0.00080467743

fc2.weight f4 [84, 120]
000000 45 90 82 bd 57 b1 d8 bd 04 35 c2 bd c8 88 93 be
       -0.063751735 -0.105807 -0.09482768 -0.28815293
000010 3f f1 f6 be 3b d2 8d 3d 9b ac 7b be fc 3e f6 3d
       -0.4823093 0.06924864 -0.24577563 0.12023732
000020 43 05 00 3e c2 d8 b0 bd ab 38 72 bd 55 1f e1 bd
       0.12502007 -0.08635093 -0.059136074 -0.10992304
000030 92 1b 11 3e 8a c5 02 3d 5e 15 f5 bd 26 0c 23 bd
       0.14170673 0.03192667 -0.11966966 -0.039806508
000040 84 2b 35 bd ba c9 08 3c a2 4d 8a 3d ce 33 bd 3e
       -0.044230953 0.008348877 0.067530885 0.36953586
000050 b5 b6 48 3d 1b 26 c5 3c f6 8b 6e 3c dd 33 73 be
       0.049002368 0.024066022 0.0145597365 -0.23750253
000060 2c d3 d4 3d 35 a6 8c bb 52 bb 7a bd e4 cd 3c be
       0.1039184 -0.0042922744 -0.0612138 -0.18437916
000070 df 8b 0f 3d f5 fd c6 bc 84 6b af bd 5f 18 6c bd
       0.0350455 -0.024291018 -0.08565429 -0.05764043
000080 29 c6 92 bc 71 93 11 bd a7 9e 5a bd 78 e1 d2 bd
       -0.017916756 -0.035541 -0.05337396 -0.10296911
000090 80 a6 86 be c4 7c ca bd 85 eb 90 be 0f 66 be 3d
       -0.26298904 -0.098870784 -0.28304687 0.0929681
0000a0 7b 6b 70 3d c9 d9 1c 3e 3b aa 32 bd e6 50 17 be
       0.05869625 0.15317453 -0.043619376 -0.14776954
0000b0 d4 65 a0 3d 7f 60 42 3e 84 a9 ca bd c6 fa 09 3d
       0.07831922 0.18982123 -0.09895614 0.03368642
0000c0 cc 4c 9a 3e a2 16 04 3e 4d 2b 2a be 94 5e c8 3b
       0.30136716 0.12899259 -0.1661808 0.00611479
0000d0 58 d5 66 3e 5e 54 73 be 08 cb 88 3e db 5f 39 be
       0.22542322 -0.23762652 0.267174 -0.18102972
0000e0 60 a7 73 be d0 3f 1c bd f2 66 8b be 50 5c 9e 3c
       -0.23794317 -0.038146794 -0.2722698 0.019331127
0000f0 02 b5 e9 bc 17 7b 1a be 66 3d ff 3d 21 1d 92 3c
       -0.028528694 -0.15086018 0.12462883 0.017836155
000100 3e 38 06 be e8 d1 a9 bd 9e 4f 0d bd 28 59 2f be
       -0.13107392 -0.082919896 -0.034499757 -0.17123854
000110 c4 ec 46 bd 89 f6 39 be c5 9c bd bc c2 52 fb bd
       -0.04856564 -0.18160452 -0.023146043 -0.12271644
000120 19 83 90 be 35 64 09 be be 70 c7 3d 4e d2 10 3d
       -0.2822502 -0.13417132 0.09738301 0.035356812
000130 07 93 86 bd a4 2a 7b 3d 4a 7f 1b bc 07 9e 1d 3e
       -0.06571012 0.061319962 -0.009490797 0.15392314
000140 cc a8 5a bd 0a 86 e0 bc 78 6a a7 b9 2f 92 82 3e
       -0.053383633 -0.027407665 -0.00031932048 0.25502154
000150 10 f1 85 bd 9d 74 3f 3e 36 23 96 bd 6f 85 2b bd
       -0.0654012 0.18696828 -0.07330935 -0.0418753
000160 c7 e2 d1 3d 37 05 75 bd ac da 40 3e 87 c3 ab bc
       0.102483325 -0.059819426 0.18833417 -0.020967258
000170 d3 75 01 be 23 27 48 bb bd 26 80 3d fa d2 05 be
       -0.12642603 -0.0030540905 0.06257389 -0.13068762
000180 45 b8 82 3e 9a 7a ac bc ca 8f 02 be b5 79 1d 3c
       0.25531211 -0.021054555 -0.12750164 0.009611537
000190 d2 14 97 3d a2 36 cc 3c 59 c9 3c be f5 05 24 3e
       0.07377018 0.024928395 -0.18436183 0.16017897
0001a0 fa bd 99 3d b7 c6 f0 bd 3c 9a 0b 3c aa e6 1d 3e
       0.07506938 -0.11756652 0.008520659 0.15420023
0001b0 d1 d0 de bd ac 97 a2 3d 81 33 06 3e 68 7d af bd
       -0.10879672 0.07939085 0.13105585 -0.08568841
0001c0 68 32 2d bd 80 b4 95 bc 6b ca b6 3d 35 3b c2 be
       -0.0422844 -0.018274546 0.08925327 -0.37935796
0001d0 50 1b f2 bd fc dd 9b 3d cf ed e4 bc 60 41 0d be
       -0.11821616 0.076106995 -0.027945427 -0.1379447
0001e0 e2 b4 2f 3d 71 79 34 be 38 eb c8 bb 62 12 76 3d
       0.042897113 -0.17624451 -0.006131556 0.060076125
0001f0 83 23 82 3d a7 9d 61 3e a1 30 1b be 31 42 a2 3d
       0.063544296 0.22032796 -0.15155269 0.07922781
000200 b2 37 c6 3e fb b4 de 3a bb 3b 90 be 4a 12 87 be
       0.38714367 0.0016991192 -0.2817057 -0.2638114
000210 88 c9 ef bd f2 62 1f bd 58 0a c9 3d c5 5d fe bd
       -0.11708361 -0.03891272 0.09816426 -0.12420229
000220 bf 3f 13 be a2 2a 37 bd 3b c0 e0 bc 4a d8 88 bd
       -0.14379786 -0.044718392 -0.027435413 -0.06681879
000230 ba e6 36 be b3 6d f7 bd ef a3 20 3d c1 67 22 3e
       -0.17861453 -0.1208147 0.03921884 0.15859891
000240 ca f6 6b 3e 74 25 12 3d b0 96 7f 3d fb 89 7a bd
       0.23043361 0.03568025 0.062399566 -0.061166745
000250 63 0a ea bd 7d 21 0f 3e 71 64 17 3e 63 2f c8 3d
       -0.11427762 0.13977619 0.14784409 0.09774663
000260 24 89 ea bc 43 1b 52 3e 12 6b 3f 3d d7 b0 c6 bc
       -0.028629847 0.20518212 0.04673297 -0.024254246
000270 9a b2 03 3c 55 45 03 be ad 61 31 bd cd 54 9e bd
       0.008038187 -0.12819417 -0.04330604 -0.07731018
000280 8f c5 dd bd 4a 02 82 bd 8f 3e 15 be d5 5b df 3b
       -0.10828697 -0.06348093 -0.14574645 0.006816367
000290 56 f8 3c 3e 44 ce 1c be c4 ec f1 bc 41 c9 f1 3d
       0.18454108 -0.15313059 -0.029531844 0.11805964
0002a0 8a 81 0e be 30 2e 4f 3e 17 62 59 3e 88 f6 4f 3d
       -0.13916603 0.20232463 0.21228825 0.05077222
0002b0 60 95 50 bd 1a 1b 58 3c 84 78 b5 3d 11 45 7e 3c
       -0.050923705 0.013190055 0.08860877 0.015519396
0002c0 3e 01 6a 3d 51 b5 58 bc f4 d4 b1 bb f9 51 43 3e
       0.05713009 -0.013226823 -0.0054269973 0.19074239
0002d0 31 76 fe 3d 82 34 8d bd e2 ce 91 3d 9e e8 1e bd
       0.12424887 -0.06894781 0.07119538 -0.03879606
0002e0 e0 e0 3d 3d 14 04 e2 3d 8d 71 1f 3e 88 3e 2f bd
       0.046357036 0.11035934 0.1557066 -0.042784244
0002f0 46 8e 88 be 87 80 bb bd 7d 70 63 be 82 14 76 3d
       -0.26671046 -0.09155374 -0.2221088 0.06007815
000300 b5 4a 5a be 56 7f 29 3d b3 7d 88 be 96 09 79 bc
       -0.21317561 0.041381203 -0.266584 -0.015200039
000310 58 1f 24 3e 60 47 8e bd e8 0a 51 be b1 0b 12 bc
       0.16027582 -0.069472075 -0.20414317 -0.00891392
000320 91 51 ec 3d 98 f4 3b 3d e8 e9 93 bd 2b c3 55 3e
       0.11538995 0.04588756 -0.072223485 0.20875232
000330 17 a1 b3 bc 89 31 06 be 85 f1 93 3d 8a 94 81 3c
       -0.0219274 -0.13104834 0.072238006 0.0158179
000340 a7 f3 81 bd a7 ea b2 bd f0 ec 12 3b 82 12 b7 3d
       -0.06345301 -0.08736163 0.0022419058 0.08939077
000350 df 30 b5 3d 85 08 f0 bd 50 3b bd 3c 92 49 00 3e
       0.08847212 -0.11720375 0.023099571 0.12528065
000360 bd 8d 37 be e1 47 f6 3c 1f 7f 10 bb aa 70 2a bd
       -0.17925163 0.030063571 -0.0022048426 -0.04161135
000370 80 7f 93 3e d1 18 f7 3d b0 15 ae 3d 60 70 33 be
       0.28808212 0.1206528 0.0850023 -0.17523336
000380 80 04 2a be d4 68 6f 3e cc 8e 63 bd 49 03 6c be
       -0.16603279 0.23379833 -0.055556104 -0.23048128
000390 af a6 04 3e f7 e2 36 bd 45 77 c1 3d 63 e0 08 bd
       0.1295421 -0.044650044 0.09446577 -0.033417117
0003a0 c0 b3 12 3d e4 7e 3b be 99 95 9e be 83 5f 5c 3e
       0.035815954 -0.18310124 -0.3097351 0.2152081
0003b0 2b 1d 3f 3e 08 19 1a 3e 4a b7 d3 bd 2c cb e5 3d
       0.1866347 0.15048611 -0.10337694 0.112203926
0003c0 a6 b9 a5 bd a5 61 22 bd 80 70 4e be e1 53 70 be
       -0.0809205 -0.039643902 -0.20160103 -0.23469497
0003d0 d2 61 77 be f3 4e ea 3c 0d 89 81 be 94 e4 5a 3d
       -0.24158409 0.028602099 -0.25299874 0.053440645
0003e0 41 0a 2d be ff 59 2a bd 04 cd cc 3c 9f 47 84 be
       -0.16898443 -0.041589733 0.025000103 -0.25835893
0003f0 80 dd 58 be f8 3b fe 3d 31 ea 9c 3d 58 c0 05 be
       -0.21178246 0.12413782 0.07661856 -0.13061655

fc2.bias f4 [84]
000000 1d 52 6d 3d b4 11 3e bd dc e7 5f 3e 23 1f 33 be
       0.057939637 -0.0464036 0.21865791 -0.17492346
000010 93 20 fd 3d 0d d0 e2 3e 4c 8c d9 be 75 e3 1e be
       0.12359729 0.44299355 -0.4248985 -0.15516455
000020 8c d7 2e bd d5 60 2e 3e d7 8e 70 be a7 0c 81 3d
       -0.04268603 0.17029126 -0.23491989 0.06301241
000030 b5 b4 9b 3c 7d 60 85 be 1a 35 69 be c2 f0 cd 3e
       0.019007066 -0.26050177 -0.22774163 0.40222746
000040 5f 58 dd bb 7f 88 4c 3e 1c 6c 9d 3e 8f 19 17 be
       -0.0067549194 0.19973944 0.30746543 -0.14755844
000050 d5 ff 03 be d1 0a af bd 79 04 af bd 8c 42 80 bd
       -0.12890561 -0.08546985 -0.08545775 -0.06262693
000060 34 57 99 bd d5 ea 57 bd b4 23 ef 3e 67 0f 4e 3e
       -0.07487336 -0.052714188 0.46706927 0.20123063
000070 62 dd 96 bc 0e c5 35 3d ec 5e 61 be 65 e5 a4 bc
       -0.01841611 0.04437738 -0.22008866 -0.020128915
000080 96 bd 39 3e 4f 8d a3 3e 77 53 c8 bd fa 2a 04 be
       0.18138728 0.31943747 -0.09781545 -0.1290702
000090 41 b5 75 bb d3 50 5c 3e c6 3f cb 3c 7a a1 82 be
       -0.003749207 0.21515207 0.024810683 -0.25513822
0000a0 87 a0 8a 3e 55 6b b6 3e 39 c9 ae bd b0 72 8c 3d
       0.27075598 0.35628763 -0.08534474 0.068578124
0000b0 1a 42 74 be df 6d 9f bd 9b ac 62 be 03 e6 ae bd
       -0.2385334 -0.07784628 -0.22136156 -0.08539965
0000c0 7d 51 6c bd 7b da 3a bd 32 71 23 3f 44 f2 9b 3e
       -0.0576949 -0.045618515 0.638446 0.30458272
0000d0 4c b7 2c 3c f5 82 82 be 66 9e 5b bd 5d 75 3c 3d
       0.010541748 -0.25490537 -0.053617857 0.046010364
0000e0 4a 2b 08 3e 06 40 98 bd 75 c8 62 3e 82 39 92 3c
       0.13297763 -0.074340865 0.22146781 0.017849687
0000f0 4c e9 5a be 14 ac 23 3d 69 53 22 be 2c ef 94 be
       -0.21378058 0.03995903 -0.15852131 -0.29088724
000100 84 4f ac 3d 97 b4 64 3d 91 32 c8 3e 01 45 c1 3c
       0.08413604 0.055836286 0.3910108 0.023592474
000110 b4 7b 1a 3e e9 37 c4 3d 13 af 94 3d 71 e3 30 be
       0.15086251 0.095809765 0.07259955 -0.17274262
000120 73 35 31 3e e9 fa 21 bd 83 c4 e3 bd e1 66 92 3d
       0.17305546 -0.039545927 -0.11121466 0.07148529
000130 c3 09 09 3f d6 91 7a bd 94 cc 53 3c 68 78 82 3d
       0.5353052 -0.061174236 0.012927193 0.06370622
000140 55 c6 90 be 20 73 2c be 76 27 b2 bd ae 94 d2 bc
       -0.28276315 -0.16840792 -0.08698933 -0.025705662

fc3.weight f4 [10, 84]
000000 4b f9 42 3d 68 75 2e 3e 28 71 53 be d4 e3 84 bd
       0.047601026 0.17036974 -0.20648634 -0.06488767
000010 d7 49 c6 be f5 e7 1c bf 27 28 79 3e 9c 40 25 3f
       -0.3872821 -0.6129144 0.24331723 0.6455171
000020 41 44 d4 be 98 5d aa be f7 1a c0 3e 4b ad d2 3e
       -0.41458324 -0.3327453 0.37520573 0.41147837
000030 54 fc 46 3c 61 a6 84 be e6 6e ac be 43 43 1f bf
       0.012145121 -0.25908187 -0.3367836 -0.6221201
000040 07 5d 58 3e 7a 43 0f bf da 34 70 3f 7f 63 66 3e
       0.21129237 -0.55962336 0.93830645 0.22498892
000050 98 af 69 be ad fd 2f 3e 34 ce 7c 3d de 27 5f be
       -0.2282089 0.17186613 0.061720088 -0.21792552
000060 bf 40 38 be e6 29 43 be e9 35 d6 be 61 1e a6 bd
       -0.17993449 -0.19058952 -0.41838005 -0.08111263
000070 2b 1c 09 3f 36 de 3a 3d 21 51 01 3f 68 af b5 3e
       0.53558606 0.045622073 0.5051442 0.35485387
000080 6b 23 0c bf 81 dd 3f be 6d 3a cb 3e ac db 86 3d
       -0.54741544 -0.18736841 0.39693013 0.06584868
000090 11 f1 be be c8 fd bd bd b7 01 55 bd 59 48 5d 3e
       -0.37293294 -0.092769206 -0.05200359 0.2160963
0000a0 45 d6 cf 3e 00 a6 05 bf 28 5c 08 be 9b 96 bf be
       0.40593162 -0.5220642 -0.13316405 -0.3741959
0000b0 48 e7 61 bd aa 38 84 3c fe de 90 ba 4e 24 6a 3f
       -0.055152208 0.0161403 -0.0011052785 0.91461647
0000c0 bc 56 2e 3e 91 fc 8c be fc 9f c0 be 3c f3 01 be
       0.17025274 -0.27536443 -0.37622058 -0.12690443
0000d0 26 fc c6 bd c2 e5 cb 3e f9 f5 e2 be 2b 8c 5f be
       -0.09716062 0.3982373 -0.44328287 -0.21830814
0000e0 1e 77 84 be 73 75 1a be 7c f8 42 be e2 26 f0 bd
       -0.2587213 -0.15083866 -0.19040102 -0.11726166
0000f0 4f eb 1a 3f e8 e1 56 be 68 93 e6 be 8e dd e5 bd
       0.605153 -0.20984614 -0.45034337 -0.11223899
000100 fc af 52 be ad a0 0b 3e f3 cc aa be 11 1d e8 bd
       -0.20574945 0.13635512 -0.3335949 -0.11333669
000110 6f 8f f4 be e3 1f 32 be 3f 8e 34 bd b1 ef 93 bd
       -0.4776568 -0.17394976 -0.04408097 -0.07223452
000120 6d d2 bf 3e 61 4c 3a 3e a7 5e 76 3e 56 46 ab 3e
       0.3746523 0.18193199 0.24059545 0.334521
000130 9f 05 2e bf 53 42 9b bc ab 86 75 be 26 d1 14 bf
       -0.6797733 -0.018952524 -0.23977153 -0.58131635
000140 6e 1f 43 3f 0a 9d 4b 3f 82 35 16 3f a9 df 18 3f
       0.7621983 0.795365 0.58675396 0.5971628
000150 92 40 23 be e0 b2 59 be 6f c5 76 3d 63 d0 2e bf
       -0.159426 -0.21259642 0.06024688 -0.6828672
000160 3e 14 be 3e 4f ee ba be 53 6b 91 bb 6d 3c df 3d
       0.3712482 -0.3650994 -0.004437843 0.10900197
000170 39 90 05 be 2e d3 b0 3e 0e 25 a3 be 40 14 10 bf
       -0.13043298 0.34536117 -0.31864208 -0.562809
000180 36 2d af 3e 97 46 5d be 4b a8 1d 3f 13 0a c0 bd
       0.3421418 -0.21608959 0.6158492 -0.093769215
000190 ae 2b 4d be 97 35 1e bf 77 68 24 bf 09 3f 6a be
       -0.20036194 -0.6180052 -0.642219 -0.22875609
0001a0 b4 e1 15 3e de f1 2a 3d 3a d0 91 be 66 b5 7b 3e
       0.1463688 0.04173457 -0.28479177 0.24580917
0001b0 22 12 ae 3e fa cb 09 3d 96 98 b2 be 69 ee f8 3d
       0.3399821 0.033641793 -0.3488204 0.12154848
0001c0 e5 06 02 3c 62 2c aa be df d7 88 3e d6 7a 21 3e
       0.007936214 -0.33236986 0.26727197 0.15769514
0001d0 5a 8c bc be cc 1e 84 bf 0a a5 54 be 66 06 a3 bd
       -0.3682583 -1.0321898 -0.20766082 -0.07960205
0001e0 41 43 a8 be 5f df a9 be 5d 3d 31 be 06 ee a6 3e
       -0.3286381 -0.3317823 -0.17308564 0.32603472
0001f0 4e 83 ac 3e 48 f8 7c 3e d4 f9 1f bd 32 05 d6 bc
       0.33693928 0.24704087 -0.039056614 -0.026125524
000200 ad ee 89 3e f3 7f 5f be 8b 89 ea bc 20 df 5a be
       0.26939908 -0.21826153 -0.028630039 -0.21374178
000210 6a 32 23 3e fe 25 0f 3e f1 41 d5 3e 47 ba 00 3f
       0.159372 0.13979337 0.41651872 0.50284237
000220 f2 9f 13 bf 00 48 02 bf 99 e2 34 be 34 5e 10 3e
       -0.5766593 -0.50891113 -0.17664565 0.14098436
000230 7a 95 04 3f ef c2 6d 3e 3c 46 c5 bb a6 51 03 3f
       0.51790583 0.23218893 -0.0060203355 0.5129646
000240 74 be da be 24 da 11 be 0f 16 9e 3e 9c 50 e0 bc
       -0.4272343 -0.1424337 0.30876204 -0.027382188
000250 01 81 05 3f 5f 32 bb 3e 42 ae 2e bf fb 13 4c be
       0.5214997 0.36561868 -0.68234646 -0.19929497
000260 ad 83 20 bf d8 52 ab 3e 6a 62 4e be cc 27 10 3f
       -0.6270092 0.33461642 -0.2015473 0.56310725
000270 cd 51 83 3e 10 0e f9 3d 19 60 61 3e b3 04 91 be
       0.25648347 0.12160885 0.22009315 -0.28323898
000280 6a 1c ac bd a9 95 84 bc 53 ff b7 bc 48 ff dc bd
       -0.08403857 -0.016184645 -0.022460615 -0.107908785
000290 6a 92 40 be 47 2a 8f be df 09 f0 be 5a 7e e4 3e
       -0.18805853 -0.27961943 -0.4688253 0.4462765
0002a0 5c 7c 74 3e 94 90 42 3e 3f fe d9 39 78 05 8b be
       0.23875564 0.19000465 0.00041578893 -0.2715261
0002b0 05 43 55 be 8e 46 60 3a 83 e3 07 be 46 65 04 be
       -0.20826347 0.00085554353 -0.13270383 -0.12929258
0002c0 92 10 44 be 06 20 48 be d9 8b 33 3e c0 77 37 3f
       -0.19146946 -0.19543466 0.17533816 0.716671
0002d0 f7 46 b3 3c 9b 51 3a be c6 b2 49 bd 46 0e 9f 3e
       0.021884425 -0.18195193 -0.049242757 0.31065577
0002e0 3c d4 e8 3e 89 62 46 3e c5 11 96 bd 6c df 38 3e
       0.45474422 0.19373526 -0.07327608 0.18053979
0002f0 bc cb 9a be 1f be 03 3f 9f 02 34 3e ed d9 0a bd
       -0.30233562 0.51461977 0.17579125 -0.033899236
000300 65 0e 08 3d 80 a5 25 3d 72 8a d0 3e 95 6d 46 3e
       0.033216853 0.040441036 0.40730625 0.1937774
000310 89 ba 85 be 39 65 df bc b5 79 38 3e e2 c8 ff bd
       -0.26118878 -0.027269946 0.18015178 -0.12489487
000320 a5 a0 a7 3d 82 ec 8d 3e 48 51 39 be 8e a6 f6 bc
       0.081849374 0.27719504 -0.18097413 -0.030108716
000330 b6 0f 23 bd 6e bd 0a be 91 42 f0 bd c7 7a 84 be
       -0.039809905 -0.13548824 -0.117314465 -0.25874922
000340 ad 12 f1 3d 9d 0b 9d 3e 08 46 0e be cc 26 9d be
       0.1177114 0.30672923 -0.13893902 -0.30693662
000350 11 21 2d 3e c4 33 52 be 5e c1 13 be f4 07 11 bd
       0.16907145 -0.2052756 -0.14429232 -0.035407975
000360 4f 8e 29 3e 54 5f d2 3d 27 7a 9d be 26 b4 ba bd
       0.16558193 0.10272089 -0.30757257 -0.09116392
000370 97 92 ab bd 0e 29 15 be e7 25 51 bd fb 63 81 3e
       -0.08377569 -0.14566442 -0.051061537 0.25271592
000380 16 27 35 3e 80 35 94 be 3b 29 85 3d 66 0f a1 bd
       0.17690691 -0.28947067 0.06502005 -0.07864265
000390 f4 06 5b be 6d 7b 86 3d 31 44 80 3e 59 89 04 3e
       -0.21389371 0.0656651 0.25052026 0.12943019
0003a0 ed 56 4f be a8 03 20 3e a1 5a c0 bd 6b 38 d6 bd
       -0.20248003 0.15626395 -0.09392286 -0.104599796
0003b0 45 ee 7f 3f 43 f2 10 3e 2b e7 16 3e ae e8 f5 3d
       0.99972945 0.14154916 0.14736621 0.12007271
0003c0 f5 4c 5e be 30 d4 48 3d d7 93 7e 3d fa 93 81 3f
       -0.21709044 0.049030483 0.06215271 1.0123284
0003d0 9d 56 4a be ee 6c a7 be ed 44 9f be 66 a5 20 be
       -0.19759603 -0.32700294 -0.31107274 -0.15688094
0003e0 0e c8 21 be 6a 12 e6 bc 82 d9 04 3f b9 8d 2d be
       -0.15798971 -0.028084952 0.5189439 -0.16948594
0003f0 ab 01 a2 be 93 47 7d 3e 00 a0 1d be bb 84 3a 3f
       -0.31641898 0.24734335 -0.15393066 0.7285878

fc3.bias f4 [10]
000000 2e 32 9d bf ca 2a 2b be e8 61 4b 3e 23 07 12 3f
       -1.2280939 -0.16715541 0.19861567 0.5704214
000010 40 8e 25 3f fc 2c 21 bf 91 63 9a 3f c1 78 47 bf
       0.6467018 -0.62959266 1.2061635 -0.7791863
000020 db 94 fc 3d 61 b1 39 be
       0.123330794 -0.18134071
