round4/2025-04-18 18:14:43-weight-client-ce4110d4-6.pth (torch, 252478 bytes, 10 tensors)

conv1.weight f4 [6, 3, 5, 5]
-0.8033561 -0.75755394 -0.80676585 -0.7145227 -0.9684785 -0.8718487 -0.791998 -0.98968047
-0.8752659 -0.72237307 -0.74850863 -0.79579455 -0.9418318 -0.62944156 -0.72096765 -0.506435
-0.37189165 -0.4789265 -0.49986842 -0.75713223 -0.016298173 0.05309003 -0.0003165689 -0.19686952
-0.032537054 -0.15495665 -0.20684442 -0.2646902 -0.4009298 -0.3207887 -0.2201346 -0.021160202
-0.3051389 -0.36406747 -0.301216 -0.4436369 -0.65044236 -0.4238828 -0.7184237 -0.7090942
-0.52022886 -0.59336275 -0.82912314 -0.96000236 -0.70948774 -0.8026273 -0.7168827 -0.972282
-0.9233428 -0.9472889 1.3566266 1.3968606 1.5503404 1.2454013 0.97925407 1.4465661
1.2828904 1.587325 1.4063023 1.1269735 1.5325482 1.4222208 1.2093284 1.2174717
0.8104438 0.95218545 1.0451149 1.0577006 0.8861137 0.6626189 1.174911 0.81664324
0.8320349 0.6212613 0.5005213 -1.4250236 -1.6359028 -1.5219407 -0.8702361 -0.5998272
-1.5936362 -1.725208 -1.8377719 -1.6393279 -1.0646241 -0.17296639 0.055980664 -0.5963696
-0.49817327 -0.4049762 1.0811893 1.5916857 1.2607542 0.9893749 0.7366581 1.2718132
1.5538158 1.6317872 1.0270867 1.0622818 -1.0206963 -1.2829031 -1.1133173 -0.54908615
-0.21299636 -1.1069306 -1.6581709 -1.4874161 -1.0096842 -0.8326689 -0.05006849 -0.026555916
-0.13261096 -0.45918113 -0.16742429 0.6796322 1.0654073 1.131354 0.68158215 0.42232835
0.9698247 1.1489255 1.4831237 1.0426921 0.38237333 -0.6350017 -1.119256 -0.91668665
-0.34816918 0.1286837 -1.0953143 -1.1539559 -1.3131156 -1.198221 -0.67625946 -0.2221135
0.030257696 -0.17647007 -0.123173706 -0.08885739 0.9666096 1.0677118 0.94171673 0.8558915
0.51127034 0.9086591 0.8680657 1.1405696 0.9741981 0.35761195 -0.6616652 -1.022354
-0.79378915 -0.6495827 -0.9068453 -0.8490042 -1.0260524 -0.73603535 -0.92332155 -0.9610938
-0.56903267 -0.9751976 -0.3801052 -0.7843983 -0.9495834 -0.9414158 -0.84225684 -0.35324386
-0.49424425 -0.90420014 -0.14985424 -0.3928149 -0.13070753 -0.17605183 -0.3721803 0.5264886
0.5714983 0.749875 0.69082516 0.12893017 0.50708354 0.49812892 0.79204464 0.5569853
0.44029215 0.33892834 0.4563733 0.79466563 0.65704894 0.24161178 0.45744196 0.5652337
1.3118587 0.69704807 0.39838105 0.9426283 0.602869 0.8281947 0.9477915 0.6297126
-0.020282421 -0.13104416 0.22338831 -0.13700669 -0.2988251 -0.107582584 0.0653472 -0.0449371
0.14856584 -0.10505184 -0.013368698 -0.109892055 0.4903374 0.02122964 -0.21496618 0.070614256
-0.17964531 0.11683202 -0.07146837 -0.29697883 0.041081704 0.077531904 0.20292921 0.16336465
-0.15461561 -0.63869226 -0.53922427 -0.6134724 -0.7325943 -0.55926234 -0.5163271 -0.30292696
-0.38155186 -0.5822904 -0.53070754 -0.110756025 0.00046289744 -0.177401 0.137844 -0.16679592
0.30201048 0.47139367 0.42531395 0.14487292 0.22091548 0.77388585 0.81188446 0.6628739
0.81980884 0.874401 0.19624476 0.34189963 0.3665924 0.20999186 0.24158144 -0.0027516624
00000000: bfa8 4dbf 0eef 41bf 3588 4ebf f6ea 36bf
00000010: 35ee 77bf 7a31 5fbf 62c0 4abf b35b 7dbf
00000020: 6d11 60bf 71ed 38bf 439e 3fbf 31b9 4bbf
00000030: e41b 71bf 1523 21bf 5691 38bf b9a5 01bf
00000040: 9568 bebe db35 f5be c1ee ffbe 6bd3 41bf
00000050: bf83 85bc ee74 593d 29f9 a5b9 2a98 49be
00000060: 9345 05bd f5ac 1ebe 06cf 53be 7985 87be
00000070: ac46 cdbe 6b3e a4be f76a 61be 2958 adbc
00000080: 2a3b 9cbe 0d67 babe fc38 9abe 6024 e3be
00000090: 6483 26bf 2b07 d9be 9eea 37bf 3387 35bf
000000a0: b82d 05bf 9fe6 17bf 6a41 54bf b7c2 75bf
000000b0: fda0 35bf fc78 4dbf a085 37bf 79e7 78bf
000000c0: 3260 6cbf 8681 72bf f1a5 ad3f 54cc b23f
000000d0: 8e71 c63f 4f69 9f3f 65b0 7a3f 1429 b93f
000000e0: c135 a43f 772d cb3f b701 b43f ab40 903f
000000f0: 8a2a c43f 550b b63f 46cb 9a3f 1dd6 9b3f
00000100: 3f79 4f3f 6dc2 733f 53c6 853f bc62 873f
00000110: 59d8 623f 64a1 293f 7c63 963f 880f 513f
00000120: 3d00 553f fb0a 1f3f 2a22 003f 2c67 b6bf
00000130: 4365 d1bf f4ce c2bf cbc7 5ebf 468e 19bf
00000140: 45fc cbbf 9ed3 dcbf 1c3c ebbf 7fd5 d1bf
00000150: 9a45 88bf 1a1e 31be fb4b 653d aeab 18bf
00000160: 9110 ffbe 0a59 cfbe 6964 8a3f 5bbc cb3f
00000170: 6560 a13f ac47 7d3f a095 3c3f c6ca a23f
00000180: 70e3 c63f 67de d03f 9477 833f daf8 873f
00000190: 2da6 82bf 2b36 a4bf 2e81 8ebf e990 0cbf
000001a0: b81b 5abe e7af 8dbf f23e d4bf a763 bebf
000001b0: 553d 81bf ca29 55bf 9e14 4dbd cb8b d9bc
000001c0: 2bcb 07be ca19 ebbe 4671 2bbe 60fc 2d3f
000001d0: 445f 883f 35d0 903f 2b7c 2e3f 6c3b d83e
000001e0: 6e46 783f fe0f 933f ffd6 bd3f ef76 853f
000001f0: 70c6 c33e 798f 22bf c843 8fbf faab 6abf
00000200: 3b43 b2be a9c5 033e 4233 8cbf d4b4 93bf
00000210: 2c14 a8bf 4e5f 99bf 571f 2dbf b971 63be
00000220: fdde f73c 92b4 34be 7f42 fcbd ddfa b5bd
00000230: ba73 773f c8aa 883f 5914 713f b51b 5b3f
00000240: 9de2 023f e29d 683f 8e39 5e3f 2ffe 913f
00000250: 0c65 793f ea18 b73e e462 29bf 7fdc 82bf
00000260: c435 4bbf 0d4b 26bf 0327 68bf 5758 59bf
00000270: af55 83bf d06c 3cbf cd5e 6cbf 3e0a 76bf
00000280: 20ac 11bf 8da6 79bf 269d c2be 54ce 48bf
00000290: e617 73bf a000 71bf 259e 57bf 61dc b4be
000002a0: 950d fdbe a979 67bf 6473 19be 091f c9be
000002b0: 32d8 05be ee46 34be 6b8e bebe f5c7 063f
000002c0: b64d 123f cff7 3f3f ebd9 303f 4506 043e
000002d0: 3ad0 013f c10a ff3e 70c3 4a3f 9796 0e3f
000002e0: f96d e13e 0488 ad3e c3a9 e93e 356f 4b3f
000002f0: 5c34 283f 1469 773e d535 ea3e 28b3 103f
00000300: fcea a73f be71 323f 9af8 cb3e 1750 713f
00000310: 9f55 1a3f 9104 543f 77a2 723f d834 213f
00000320: 5227 a6bc 7130 06be e8bf 643e 7b4b 0cbe
00000330: 9aff 98be 4254 dcbd c1d4 853d f70f 38bd
00000340: a521 183e 6b25 d7bd 6208 5bbc 160f e1bd
00000350: 810d fb3e c8e9 ad3c 1820 5cbe 359e 903d
00000360: f1f4 37be a045 ef3d 025e 92bd 9c0d 98be
00000370: 4a45 283d 0cc9 9e3d adcc 4f3e 1049 273e
00000380: 8e53 1ebe 5681 23bf 9a0a 0abf 870c 1dbf
00000390: 4d8b 3bbf d12b 0fbf 032e 04bf 3e19 9bbe
000003a0: c45a c3be fc10 15bf 73dc 07bf 0ed4 e2bd
000003b0: 0bb1 f239 9ca8 35be fa26 0d3e 8dcc 2abe
000003c0: 1ea1 9a3e 835a f13e c0c2 d93e 9159 143e
000003d0: ab37 623e 621d 463f a9d7 4f3f 1bb2 293f
000003e0: fede 513f bed8 5f3f 63f4 483e 780d af3e
000003f0: 00b2 bb3e 1b08 573e 2061 773e 3c55 34bb

conv1.bias f4 [6]
-5.0347395 -0.56411815 -0.93208754 -3.298803 -3.3642185 -1.3314645
00000000: 961c a1c0 0c6a 10bf 4a9d 6ebf 971f 53c0
00000010: 5b4f 57c0 6e6d aabf

conv2.weight f4 [16, 6, 5, 5]
-0.03252652 0.17194192 0.0680431 0.16440445 0.20956989 -0.120194755 0.11178622 -0.03597709
0.12143634 -0.21217497 -0.27727354 -0.24344192 -0.22961183 -0.09154107 -0.17360675 -0.133547
-0.40425748 -0.3353654 -0.15825465 0.01627836 -0.037455525 -0.0051863748 -0.16070928 -0.2867666
-0.078784496 0.44244573 0.3173489 0.2692996 0.13351887 0.15018697 -0.23247455 -0.32845396
-0.07175607 -0.19582002 0.025250359 0.26032376 0.016392158 0.09014952 0.2095783 0.4772481
0.12909111 0.24065685 0.41989094 0.086010315 0.2900059 0.4034392 0.47447369 0.5694852
0.25533903 -0.13356666 -0.03960915 0.015505586 -0.23028846 -0.15402588 -0.0112951845 -0.1714117
-0.032750633 -0.1473446 -0.13129099 -0.06988385 -0.33625796 -0.0112434765 0.10925038 -0.05246118
-0.02334749 0.048838165 0.16796921 0.011525757 -0.15564148 -0.014664201 0.16792966 0.30927548
0.34402403 0.17748754 -0.083516955 -0.08302813 -0.2379906 0.101050675 -0.011768478 0.016848816
-0.012176001 -0.11200235 -0.0027335892 -0.012296202 0.0031808615 -0.09963818 0.10642056 0.056948602
0.08422051 0.028578777 -0.10713601 0.09456343 -0.07393864 0.06806404 -0.0084923385 -0.005533065
-0.11926396 -0.14692955 -0.15536903 -0.1475363 0.01995071 -0.12255683 0.084719405 0.17765135
0.3175133 0.0107661225 -0.0018457777 0.11885173 0.01300702 0.29994226 -0.30777663 0.07857528
-0.06070437 0.06519365 -0.06735374 -0.34789327 -0.16559455 -0.32596275 -0.19126162 -0.10976267
-0.286411 -0.2706558 -0.3852436 -0.3816833 -0.28664994 0.06551565 -0.045688324 0.051314477
-0.04290134 -0.06335112 -0.20057353 -0.10825015 -0.29486245 -0.24300386 -0.20114785 -0.22333312
-0.5056395 -0.17979886 -0.076276705 -0.15111944 -0.33506152 -0.26947474 -0.55308473 -0.4319398
-0.25693634 -0.021399528 -0.07119042 -0.40424246 -0.5153227 -0.34119356 -0.38198742 -0.3563411
-0.089287974 -0.3132619 -0.2046033 -0.03436156 -0.15644138 -0.23799042 -0.1837563 -0.09275242
-0.085269235 -0.076967485 -0.1691183 -0.029557029 -0.22574036 -0.09036162 -0.034033295 0.101375036
0.15396523 0.012542981 0.18997356 0.08425317 -0.04878272 0.11430946 0.101248525 -0.46427444
-0.54059917 -0.50855404 -0.3516885 -0.17611237 -0.40492672 -0.39204758 -0.57685536 -0.47926515
-0.35490263 -0.7588231 -0.8509419 -0.844528 -0.8186002 -0.5661323 -0.73888886 -0.6399625
-0.73662657 -0.5735369 -0.3961043 -0.5512382 -0.38506517 -0.56268466 -0.34639496 -0.2642589
-0.1670205 -0.15693648 -0.09337439 0.049565963 0.105351165 -0.20609152 -0.12515086 -0.026465882
-0.1691703 0.049695842 -0.5575422 -0.34631917 -0.17736174 -0.1382367 -0.1712843 -0.12780122
0.021250872 -0.21576257 -0.24911205 -0.010476464 -0.14693055 0.039223906 0.015193703 0.11777386
-0.2031724 -0.27058163 -0.032097187 0.05403412 -0.11710989 -0.22014207 -0.074431546 -0.23438177
-0.14486799 -0.02898529 -0.35641018 -0.07311391 0.015275607 -0.024160933 -0.0066703637 -0.014387155
-0.039680053 -0.0029073374 0.0145340245 -0.06263648 -0.092896715 -0.03902557 0.002571615 0.1150051
0.13320006 -0.08499751 -0.06380692 -0.027814709 -0.1315394 -0.26310417 -0.27602908 -0.17530246
00000000: 873a 05bd 8b11 303e 2e5a 8b3d a459 283e
00000010: 7d99 563e ab28 f6bd 2cf0 e43d b75c 13bd
00000020: 9eb3 f83d 6544 59be ccf6 8dbe d748 79be
00000030: 5d1f 6bbe e279 bbbd f8c5 31be 8bc0 08be
00000040: d6fa cebe 04b5 abbe 820d 22be 325a 853c
00000050: f76a 19bd 77f2 a9bb f990 24be 12d3 92be
00000060: c459 a1bd 3f88 e23e 8e7b a23e a3e1 893e
00000070: 2cb9 083e 9dca 193e cf0d 6ebe 1e2b a8be
00000080: d9f4 92bd 0b85 48be d7d9 ce3c 2849 853e
00000090: d948 863c 50a0 b83d b29b 563e dd59 f43e
000000a0: 7630 043e c06e 763e f2fb d63e 2d26 b03d
000000b0: a77b 943e 958f ce3e 37ee f23e c8c9 113f
000000c0: ccbb 823e b3c5 08be 343d 22bd 240b 7e3c
000000d0: bdd0 6bbe f6b8 1dbe 700f 39bc 8c86 2fbe
000000e0: 8725 06bd 81e1 16be 2571 06be 441f 8fbd
000000f0: 012a acbe 8f36 38bc aabe df3d 89e1 56bd
00000100: 3c43 bfbc 870a 483d 1f00 2c3e 87d6 3c3c
00000110: 7b60 1fbe 1e42 70bc c1f5 2b3e 5b59 9e3e
00000120: eb23 b03e 4bbf 353e f00a abbd a70a aabd
00000130: cfb3 73be a8f3 ce3d 93d0 40bc 8706 8a3c
00000140: da7d 47bc 7d61 e5bd 0426 33bb 0276 49bc
00000150: 0076 503b 1a0f ccbd 06f3 d93d f042 693d
00000160: ce7b ac3d 0a1e ea3c 206a dbbd 79aa c13d
00000170: 246d 97bd 2965 8b3d 7323 0bbc b74e b5bb
00000180: aa40 f4bd b374 16be 0f19 1fbe c113 17be
00000190: ac6f a33c 13ff fabd 5e81 ad3d 3cea 353e
000001a0: 1a91 a23e 6464 303c 06ee f1ba 8968 f33d
000001b0: 651b 553c 0892 993e e694 9dbe 14ec a03d
000001c0: 25a5 78bd 4084 853d c2f0 89bd 111f b2be
000001d0: 9e91 29be 97e4 a6be 16da 43be 40cb e0bd
000001e0: 76a4 92be 6693 8abe a63e c5be fe6b c3be
000001f0: c8c3 92be 122d 863d ae23 3bbd 212f 523d
00000200: 51b9 2fbd 3bbe 81bd 2663 4dbe 41b2 ddbd
00000210: 36f8 96be 01d6 78be b4f9 4dbe 70b1 64be
00000220: 9771 01bf 311d 38be f636 9cbd 0ebf 1abe
00000230: 2f8d abbe 98f8 89be f696 0dbf 3727 ddbe
00000240: 298d 83be 104e afbc 48cc 91bd def8 cebe
00000250: 30ec 03bf ecb0 aebe db93 c3be 5772 b6be
00000260: 9ddc b6bd dd63 a0be 8783 51be b5be 0cbd
00000270: 2b32 20be c3b3 73be 9d2a 3cbe fbf4 bdbd
00000280: a3a1 aebd 21a1 9dbd 592d 2dbe 9521 f2bc
00000290: 7b28 67be 830f b9bd 7f66 0bbd b79d cf3d
000002a0: 10a9 1d3e 1381 4d3c 6e88 423e ed8c ac3d
000002b0: 64d0 47bd 141b ea3d 635b cf3d 61b5 edbe
000002c0: b564 0abf 9930 02bf 8410 b4be cd56 34be
000002d0: 8e52 cfbe 76ba c8be cbac 13bf 3e62 f5be
000002e0: ccb5 b5be 3b42 42bf 54d7 59bf fd32 58bf
000002f0: c88f 51bf 0cee 10bf d227 3dbf 95d4 23bf
00000300: 8f93 3cbf 50d3 12bf 2fce cabe f21d 0dbf
00000310: 4327 c5be 1a0c 10bf ae5a b1be f14c 87be
00000320: 6c07 2bbe f5b3 20be 123b bfbd ae05 4b3d
00000330: 5ac2 d73d a809 53be 8c27 00be face d8bc
00000340: fb3a 2dbe de8d 4b3d 16bb 0ebf bf50 b1be
00000350: 519e 35be ec8d 0dbe 2765 2fbe 53de 02be
00000360: 4f16 ae3c ddf0 5cbe 3b17 7fbe 7aa5 2bbc
00000370: f674 16be 3fa9 203d 02ef 783c 6c33 f13d
00000380: 6d0c 50be ad89 8abe 5778 03bd e252 5d3d
00000390: 4fd7 efbd ec6c 61be 916f 98bd c601 70be
000003a0: 4658 14be 8f72 edbc 657b b6be bfbc 95bd
000003b0: 8a46 7a3c 26ed c5bc 1193 dabb 1ab8 6bbc
000003c0: 8d87 22bd 0789 3ebb 1e20 6e3c 8e47 80bd
000003d0: a240 bebd 47d9 1fbd 8a88 283b cb87 eb3d
000003e0: 9965 083e 2d13 aebd 34ad 82bd acdb e3bc
000003f0: 44b2 06be 97b5 86be af53 8dbe 7d82 33be

conv2.bias f4 [16]
-0.16930017 -0.31577468 0.32099816 -0.3879521 -0.91184795 0.21917328 -0.8734051 -0.13641074
-0.4114856 0.17729205 -0.5449105 -0.79138 -0.04402159 1.4699749 -0.6184497 -0.6400959
00000000: 065d 2dbe 38ad a1be df59 a43e a8a1 c6be
00000010: de6e 69bf f66e 603e 7a97 5fbf 42af 0bbe
00000020: 3eae d2be 0c8c 353e 417f 0bbf e197 4abf
00000030: fc4f 34bd 2328 bc3f b852 1ebf 53dd 23bf

fc1.weight f4 [120, 400]
0.048493367 0.031777907 0.017675443 -0.09048505 0.035610773 -0.07450578 -0.0772529 0.07008131
-0.013775458 -0.05034943 -0.09704244 -0.17250519 -0.07181644 -0.08567322 0.038956136 -0.062249266
0.059300322 0.038692236 0.09050818 0.22605294 0.1847247 0.029627241 0.06767417 0.11230543
0.121727236 -0.06558859 -0.083451316 -0.0019925623 0.07311854 -0.17070735 0.10848586 0.043048516
0.062214483 -0.06397717 -0.107010566 -0.057542037 0.08160126 0.026363403 0.0374686 -0.059114084
0.11371503 0.08921269 -0.03234736 0.026909662 -0.0022476774 -0.031503845 -0.06378645 -0.00065102486
-0.0475246 -0.05999598 0.036253344 -0.10507414 0.00025521012 0.0024008204 0.107868746 -0.11798936
-0.11135408 -0.007766043 -0.02647281 -0.0104856305 -0.08993307 -0.07541201 -0.08480988 -0.0773702
-0.12369515 0.019822959 0.02526194 0.055038195 0.026505444 -0.08638653 0.041079085 -0.00045885314
0.04604654 0.02352311 0.015661957 0.0077127935 0.038132384 -0.038889866 -0.037965525 -0.023625996
0.092248656 -0.078790836 -0.027247718 0.08898726 0.17970522 0.006539075 0.0052924957 0.033694364
0.11923468 0.04433882 -0.028351238 -0.02606406 0.007066578 -0.041173633 0.015596027 0.055093046
-0.073665336 -0.041245487 -0.04158584 -0.042033598 0.06121662 0.0347028 0.13006654 -0.09292217
-0.14271249 0.028994558 0.08590513 0.17546043 0.034978982 0.12231703 0.010585739 0.10115616
0.15295117 0.043315995 0.054457895 -0.0034974208 0.021113714 0.088153526 -0.09158297 -0.075311914
0.076480106 0.008772764 0.0591181 -0.12945469 -0.23795979 0.08457915 0.12997064 0.051100437
0.012675251 0.009859137 0.054602038 0.05254732 -0.028946195 -0.057323992 -0.08267401 -0.0027046476
0.1115899 0.025975984 -0.01833076 -0.09475727 -0.0070712506 -0.07118938 0.054184925 -0.10973101
-0.085537225 -0.053996798 0.090454444 0.015062182 0.0124398405 0.025147926 0.049323283 0.008762093
0.0024686283 -0.06404309 -0.15908684 -0.09324612 0.00049831276 0.058947116 -0.03326088 -0.07769701
0.0067588794 0.10888349 0.055318035 0.09531361 0.08270532 0.012029547 0.029442167 -0.108612396
0.04014315 -0.08007585 -0.108013816 -0.076341785 -0.08364613 -0.15465793 -0.09107703 0.0899094
0.18354256 0.20720549 0.05731526 0.061226435 0.2144771 0.13858624 0.05904178 0.045903433
-0.1819578 0.09607731 0.038764793 -0.008446261 -0.015312379 -0.10240876 0.07503579 0.04317478
-0.14701578 -0.039975516 -0.07670168 0.09320474 0.012394618 0.08503772 -0.07753683 -0.13522516
-0.07617245 0.08775047 -0.08351012 0.015731487 -0.0056239073 -0.01816597 0.0532901 0.10815834
0.14651053 -0.0028500904 -0.0033854528 0.0785921 -0.04305558 0.024620436 -0.05746584 -0.021705657
0.038820278 0.09826056 -0.112531476 -0.1854933 0.009326856 0.057297435 -0.15451019 -0.16369668
-0.16246139 0.016742297 -0.008028596 -0.06957466 0.07762499 -0.036950756 0.042658553 0.08801247
-0.11600047 -0.080495484 -0.09317263 -0.053792533 -0.12217518 -0.043770764 -0.09674787 -0.23186897
0.0349097 0.040192317 0.00044083793 -0.025513146 0.002323 0.06387992 0.09153801 -0.10834379
0.041269325 -0.096692905 -0.002235681 -0.008245202 -0.20378618 -0.04799335 -0.0054653916 0.0030773846
00000000: fba0 463d 8d29 023d 17cc 903c 3a50 b9bd
00000010: 9adc 113d 7d96 98bd c536 9ebd ca86 8f3d
00000020: 75b2 61bc 343b 4ebd 30be c6bd 33a5 30be
00000030: 7f14 93bd 7175 afbd 7890 1f3d 16f9 7ebd
00000040: e5e4 723d c07b 1e3d 5a5c b93d 6c7a 673e
00000050: 7928 3d3e d4b4 f23c c198 8a3d 6400 e63d
00000060: 214c f93d 5053 86bd 86e8 aabd a695 02bb
00000070: 2cbf 953d e8cd 2ebe d62d de3d a453 303d
00000080: 9dd4 7e3d 7606 83bd 5b28 dbbd 33b1 6bbd
00000090: 901e a73d 10f8 d73c ad78 193d 9c21 72bd
000000a0: 6de3 e83d 25b5 b63d aa7e 04bd a771 dc3c
000000b0: c54d 13bb 2d0a 01bd 78a2 82bd 8aa9 2aba
000000c0: 28a9 42bd 58be 75bd 637e 143d 1c31 d7bd
000000d0: b9cd 8539 1557 1d3b 4aea dc3d 68a4 f1bd
000000e0: 9c0d e4bd 4a7a febb 82dd d8bc eccb 2bbc
000000f0: d42e b8bd 9d71 9abd cdb0 adbd 4474 9ebd
00000100: e253 fdbd c263 a23c 21f2 ce3c bb6f 613d
00000110: f221 d93c 6ceb b0bd 8b42 283d 3a92 f0b9
00000120: 4c9b 3c3d 8ab3 c03c 814d 803c 9abb fc3b
00000130: b430 1c3d fb4a 1fbd bd81 1bbd 4e8b c1bc
00000140: ddec bc3d 175d a1bd 9b36 dfbc f43e b63d
00000150: a504 383e bd45 d63b ac6c ad3b 1a03 0a3d
00000160: 5031 f43d 9f9c 353d db40 e8bc 4c84 d5bc
00000170: c18e e73b afa5 28bd 7a86 7f3c 3fa9 613d
00000180: dadd 96bd 07f1 28bd ea55 2abd 6c2b 2cbd
00000190: 47be 7a3d 8624 0e3d 2a30 053e fb4d bebd
000001a0: 3923 12be ff85 ed3c 07ef af3d e6ab 333e
000001b0: 1f46 0f3d 5a81 fa3d cf6f 2d3c f62a cf3d
000001c0: 3b9f 1c3e 1d6c 313d 3e0f 5f3d fc34 65bb
000001d0: abf6 ac3c d689 b43d da8f bbbd 223d 9abd
000001e0: 9aa1 9c3d a4bb 0f3c d225 723d c58f 04be
000001f0: bbab 73be d537 ad3d 0617 053e b14e 513d
00000200: dbab 4f3c 3888 213c 63a6 5f3d dc3b 573d
00000210: 9220 edbc 90cc 6abd fe50 a9bd 7540 31bb
00000220: 3f89 e43d 96cb d43c 642a 96bc 1910 c2bd
00000230: f3b5 e7bb bdcb 91bd 03f1 5d3d a7ba e0bd
00000240: 242e afbd bf2b 5dbd 2e40 b93d 5fc7 763c
00000250: 79d0 4b3c 0603 ce3c 3607 4a3d e28e 0f3c
00000260: b6c8 213b 0629 83bd a9e7 22be d2f7 bebd
00000270: 34a1 023a 8872 713d 8f3c 08bd 9c1f 9fbd
00000280: 9779 dd3b 4ffe de3d 2a95 623d c833 c33d
00000290: 6861 a93d 9417 453c b330 f13c 2d70 debd
000002a0: 256d 243d cffe a3bd 5936 ddbd 1559 9cbd
000002b0: aa4e abbd a65e 1ebe 9886 babd 6b22 b83d
000002c0: 95f2 3b3e ad2d 543e 68c3 6a3d 92c8 7a3d
000002d0: e39f 5b3e 8de9 0d3e cbd5 713d 3d05 3c3d
000002e0: 2553 3abe 2ec4 c43d d5c7 1e3d 3062 0abc
000002f0: c6e0 7abc afbb d1bd 5dac 993d 0ad8 303d
00000300: 4e8b 16be 5ebd 23bd c515 9dbd 20e2 be3d
00000310: cc12 4b3c 4228 ae3d a1cb 9ebd 7778 0abe
00000320: 4d00 9cbd 85b6 b33d 5b07 abbd 52df 803c
00000330: c148 b8bb cdd0 94bc b846 5a3d 1f82 dd3d
00000340: db06 163e 95c8 3abb 79de 5dbb e5f4 a03d
00000350: 0c5b 30bd ccb0 c93c 4d61 6bbd 10d0 b1bc
00000360: 0302 1f3d d53c c93d e776 e6bd f5f1 3dbe
00000370: abcf 183c b7b0 6a3d eb37 1ebe 1aa0 27be
00000380: 475c 26be 2427 893c 5f8a 03bc 297d 8ebd
00000390: daf9 9e3d ad59 17bd bcba 2e3d e23f b43d
000003a0: a891 edbd d1da a4bd 4bd1 bebd 8f55 5cbd
000003b0: fb36 fabd f948 33bd bf23 c6bd 0f6f 6dbe
000003c0: 79fd 0e3d b3a0 243d 4420 e739 f200 d1bc
000003d0: 793d 183b 7ad3 823d 4878 bb3d 59e3 ddbd
000003e0: 060a 293d ee06 c6bd 8184 12bb e216 07bc
000003f0: 53ad 50be ad94 44bd 0717 b3bb f2ad 493b

fc1.bias f4 [120]
-0.005799572 0.106060326 -0.050934043 -0.08987285 0.012261336 0.10149416 0.10858616 -0.002138475
-0.09057151 -0.018184084 -0.1793741 0.1607824 -0.0127805555 0.18985285 0.06111505 -0.02025315
-0.034979276 0.09658035 0.026600434 -0.011079457 -0.1189478 -0.079700716 -0.068392016 -0.14436725
-0.07764143 -0.12144696 -0.12818575 -0.013903579 -0.037851505 0.01979329 -0.13155784 -0.018883038
0.12993826 -0.13113312 0.038450547 0.044755317 0.036526687 0.21320668 0.11545131 -0.07000902
0.21776 -0.044177003 -0.12878235 0.12203198 -0.10991941 0.079497844 -0.16901751 -0.050272964
-0.31091118 -0.024164867 0.06462447 0.11022539 0.06584452 -0.1018484 0.1916755 0.020717416
-0.2422572 -0.11245786 0.015613725 -0.07662082 0.24089666 -0.017485628 -0.14163874 0.09156742
-0.03925844 0.21704286 -0.10523135 -0.08389294 0.23872177 0.07273235 -0.048334513 -0.14969403
-0.14411403 -0.07894357 -0.06533891 0.043080293 0.13772422 -0.1663091 0.011359789 -0.24932015
0.14858137 -0.04548557 0.11407722 -0.044012908 0.11897225 0.011627358 0.026658142 0.020194907
0.004807193 -0.14184771 0.15714853 0.06601246 0.098740645 -0.12489334 -0.059536837 0.29318625
-0.07430376 -0.03883303 0.11485602 -0.18130575 -0.046228316 -0.14119445 0.064132184 0.34212464
-0.027853338 -0.15719049 -0.09007652 0.19753957 -0.113952726 0.10155601 -0.029733188 -0.027413737
0.071764186 -0.19494948 0.08005521 -0.001841104 -0.007176263 -0.09069389 0.07764475 -0.012849732
00000000: 560a bebb 2836 d93d 37a0 50bd 420f b8bd
00000010: c5e3 483c 2cdc cf3d 6c62 de3d a825 0cbb
00000020: 8e7d b9bd caf6 94bc d8ad 37be 24a4 243e
00000030: 8965 51bc c968 423e c653 7a3d efe9 a5bc
00000040: 6e46 0fbd ebcb c53d 27e9 d93c 9c86 35bc
00000050: e79a f3bd 213a a3bd 1d11 8cbd 02d5 13be
00000060: 7802 9fbd 2fb9 f8bd 2043 03be d6cb 63bc
00000070: 2e0a 1bbd 8a25 a23c 19b7 06be 9ab0 9abc
00000080: 890e 053e c347 06be 527e 1d3d 5a51 373d
00000090: 029d 153d da52 5a3e bd71 ec3d e460 8fbd
000000a0: 7afc 5e3e f2f2 34bd 85df 03be e7eb f93d
000000b0: 6d1d e1bd c4cf a23d ed12 2dbe 06eb 4dbd
000000c0: c02f 9fbe 66f5 c5bc d659 843d d9bd e13d
000000d0: 7ed9 863d e595 d0bd 9546 443e 92b7 a93c
000000e0: 4512 78be 4e50 e6bd b6d0 7f3c 60eb 9cbd
000000f0: 9dad 763e 053e 8fbc bf09 11be b387 bb3d
00000100: 75cd 20bd 7c40 5e3e 8983 d7bd 10d0 abbd
00000110: 7b73 743e b3f4 943d 69fa 45bd 6449 19be
00000120: a192 13be 2bad a1bd 68d0 85bd f674 303d
00000130: 9407 0d3e ef4c 2abe 691e 3a3c c84d 7fbe
00000140: b725 183e 144f 3abd 51a1 e93d e146 34bd
00000150: b9a7 f33d ad80 3e3c 2d62 da3c ca6f a53c
00000160: a885 9d3b 8740 11be 8beb 203e 8a31 873d
00000170: 8938 ca3d 14c8 ffbd e6dc 73bd 821c 963e
00000180: 922c 98bd 620f 1fbd a239 eb3d 37a8 39be
00000190: e759 3dbd 4795 10be bc57 833d f62a af3e
000001a0: af2c e4bc 8bf6 20be 0a7a b8bd d047 4a3e
000001b0: 0c60 e9bd 99fc cf3d 0493 f3bc c692 e0bc
000001c0: 1af9 923d d6a0 47be fcf3 a33d 3351 f1ba
000001d0: db26 ebbb b8bd b9bd 3604 9f3d af87 52bc

fc2.weight f4 [84, 120]
-0.092129715 -0.0934625 -0.009643961 -0.30763948 -0.5744862 0.12676072 -0.24982128 0.17023186
0.15989684 -0.22585368 0.0070360927 -0.26322237 0.056919143 0.24536808 -0.08393615 -0.08622913
-0.058618493 -0.053958528 0.11177511 0.44178617 0.13709368 0.009448304 0.06350955 -0.16924144
0.12785646 0.13462302 -0.012311807 -0.19482239 0.087223716 -0.09905747 0.009769135 -0.04666954
-0.10625352 -0.0218486 -0.030656662 -0.15815398 -0.34357858 -0.1402132 -0.32721242 0.2276014
0.14896923 0.39703164 -0.01660328 -0.23707193 0.0782486 0.23100513 -0.008058393 0.13564137
0.49960738 0.099142365 -0.29504254 -0.02759092 0.31253496 -0.23514053 0.2649567 -0.21761607
-0.1460371 -0.0475234 -0.35377994 -0.022661304 -0.13847701 -0.0892372 0.31140488 0.03934653
0.019565165 -0.07145897 -0.15072064 -0.08179068 0.074064046 -0.23413084 -0.027476326 -0.16833672
-0.29788288 -0.27876475 0.15531948 0.009921384 -0.041046932 0.1383642 0.09822591 0.21331081
-0.057609994 -0.11182147 -0.02862956 0.27819914 -0.1237778 0.11739264 -0.07715526 -0.06779661
0.17977439 0.083122894 0.26309568 0.0021312272 -0.12597077 -0.013080421 0.10702929 -0.26785055
0.38578716 0.054902416 -0.14975755 0.10306454 0.12464019 0.10208733 -0.2775679 0.10625654
0.23570383 -0.23007956 -0.048445467 0.16652168 0.020184439 0.10221981 0.1427643 -0.14342982
-0.18606737 -0.05302353 0.018424183 -0.43454048 -0.15734577 0.15939783 -0.12978362 -0.10934939
-0.044343606 -0.16687012 -0.07887768 -0.0043475097 -0.007662411 0.15406914 -0.122212164 -0.058504462
0.32709387 -0.015920987 -0.26022166 -0.285461 -0.14219742 -0.1563593 0.023245588 -0.14085302
-0.060493406 -0.0746158 -0.03720485 -0.1323896 -0.17570359 -0.14868309 0.06378214 0.0851356
0.1533376 0.010221228 0.0451441 -0.06479169 -0.1470721 0.17043786 0.081218146 0.0454671
-0.038414825 0.15397517 0.100417115 -0.07572767 -0.047728658 -0.17397428 -0.08199216 -0.09152179
-0.13987969 -0.048018444 -0.17513947 -0.021134337 0.2714918 -0.045219645 -0.050752286 0.12523761
-0.11623036 0.21466938 0.1939649 0.027755855 -0.20265995 0.0048192637 0.08105381 0.01093682
0.1305143 0.012909306 0.052270867 0.21767414 0.06699064 -0.07800244 0.042939216 -0.014521604
-0.1135357 0.18782377 0.27052778 -0.010942716 -0.3394801 -0.0868839 -0.22235933 0.11882161
-0.21448322 0.057262354 -0.20143308 0.0690353 0.1556822 -0.048924934 -0.17082508 -0.031101866
0.17292707 0.0669261 -0.010532978 0.10070314 -0.026936403 -0.03976367 0.036303498 -0.08416436
0.042123154 0.016970713 -0.00457865 0.02728905 0.10930319 -0.1112161 -0.03224911 0.05934261
-0.18285762 0.12319659 -0.027160732 0.051176496 0.288246 0.1318146 0.1063905 -0.25049374
-0.30343324 0.23160216 -0.085273154 -0.2674328 0.15299547 -0.11797305 0.23010984 -0.1124044
0.008235776 -0.15503943 -0.3332508 0.22153793 0.14138971 0.13084254 -0.060014933 0.053447634
-0.06341349 0.03165971 -0.1971799 -0.19543554 -0.17398787 0.057963833 -0.23766282 -0.041076723
-0.13762304 -0.008778842 0.039454315 -0.29841003 -0.13100648 0.24413586 0.1397802 -0.11192021
00000000: 81ae bcbd 4469 bfbd b401 1ebc ec82 9dbe
00000010: 8711 13bf 90cd 013e 26d1 7fbe 4351 2e3e
00000020: ffbb 233e 3046 67be 068f e63b 15c5 86be
00000030: 0c24 693d c541 7b3e b7e6 abbd e698 b0bd
00000040: f219 70bd 9e03 5dbd 59ea e43d cc31 e23e
00000050: 4962 0c3e 0fcd 1a3c 4c11 823d a14d 2dbe
00000060: ceec 023e 9eda 093e 76b7 49bc 857f 47be
00000070: 59a2 b23d a5de cabd b90e 203c 8f28 3fbd
00000080: 729b d9bd d6fb b2bc ae23 fbbc 1ef3 21be
00000090: 88e9 afbe 0d94 0fbe 6388 a7be 5710 693e
000000a0: 648b 183e bb47 cb3e 9a03 88bc fcc2 72be
000000b0: cd40 a03d 9c8c 6c3e 5a07 04bc 92e5 0a3e
000000c0: 8acc ff3e 270b cb3d d10f 97be 5a06 e2bc
000000d0: 9504 a03e aec8 70be 68a8 873e bfd6 5ebe
000000e0: c08a 15be e6a7 42bd a522 b5be 33a4 b9bc
000000f0: ebcc 0dbe fec1 b6bd 7670 9f3e d429 213d
00000100: 2047 a03c 1559 92bd 8356 1abe df81 a7bd
00000110: e4ae 973d ffbf 6fbe 0816 e1bc 7660 2cbe
00000120: 1b84 98be 41ba 8ebe 120c 1f3e 4d8d 223c
00000130: d420 28bd 58af 0d3e aa2a c93d 266e 5a3e
00000140: 75f8 6bbd a802 e5bd 8a88 eabc 1e70 8e3e
00000150: 377f fdbd 8d6b f03d 9403 9ebd f3d8 8abd
00000160: c716 383e 563c aa3d 7ab4 863e 0fac 0b3b
00000170: 7bfe 00be 434f 56bc 2c32 db3d b523 89be
00000180: e585 c53e 5be1 603d 0b5a 19be 8013 d33d
00000190: 5b43 ff3d 2913 d13d 611d 8ebe 079d d93d
000001a0: 585c 713e fa99 6bbe c16e 46bd a984 2a3e
000001b0: d659 a53c 9f58 d13d ce30 123e 44df 12be
000001c0: 7288 3ebe 332f 59bd 50ee 963c 177c debe
000001d0: 401f 21be 2f39 233e ffe5 04be 93f2 dfbd
000001e0: a4a1 35bd 00e0 2abe 9f8a a1bd 8e75 8ebb
000001f0: f614 fbbb 4dc4 1d3e 5f4a fabd 60a2 6fbd
00000200: d978 a73e bb6c 82bc c63b 85be f227 92be
00000210: 339c 11be a71c 20be 886d be3c c63b 10be
00000220: efc7 77bd 2bd0 98bd 1d64 18bd 2491 07be
00000230: a4eb 33be 6140 18be 36a0 823d 935b ae3d
00000240: 8804 1d3e f076 273c 05e9 383d 81b1 84bd
00000250: 129a 16be 4387 2e3e b355 a63d b63b 3a3d
00000260: dd58 1dbd abab 1d3e 7da7 cd3d 1c17 9bbd
00000270: 207f 43bd 5026 32be 81eb a7bd c76f bbbd
00000280: 9f3c 0fbe fdae 44bd c357 33be eb21 adbc
00000290: f900 8b3e 3c38 39bd a1e1 4fbd 4a3e 003e
000002a0: 2f0a eebd 4ad2 5b3e bc9e 463e 3f60 e33c
000002b0: 1786 4fbe eaea 9d3b 8aff a53d 5930 333c
000002c0: 8aa5 053e 8e81 533c fa19 563d f8e5 5e3e
000002d0: 6332 893d bebf 9fbd 08e1 2f3d 06ec 6dbc
000002e0: 6885 e8bd e054 403e 9e82 8a3e 1449 33bc
000002f0: 56d0 adbe 30f0 b1bd 2ab2 63be bf58 f33d
00000300: 7da1 5bbe ee8b 6a3d 7944 4ebe 6162 8d3d
00000310: 286b 1f3e 8365 48bd c5ec 2ebe 57c9 febc
00000320: cb13 313e 8d10 893d 8392 2cbc 733d ce3d
00000330: bba9 dcbc 3bdf 22bd fab2 143d 5d5e acbd
00000340: 5489 2c3d 2a06 8b3c 8008 96bb 498d df3c
00000350: 5ada df3d 44c5 e3bd a517 04bd 3d11 733d
00000360: 073f 3bbe 7e4e fc3d 2f80 debc 729e 513d
00000370: fb94 933e 68fa 063e 43e3 d93d b740 80be
00000380: 9a5b 9bbe 1e29 6d3e b1a3 aebd f4ec 88be
00000390: d8aa 1c3e db9b f1bd eaa1 6b3e 4734 e6bd
000003a0: 59ef 063c a8c2 1ebe d99f aabe d7da 623e
000003b0: 77c8 103e 96fb 053e 38d2 75bd e8eb 5a3d
000003c0: efde 81bd 9dad 013d 87e9 49be 4120 48be
000003d0: e029 32be 7c6b 6d3d e25d 73be 1140 28bd
000003e0: 0eed 0cbe 22d5 0fbc d99a 213d 33c9 98be
000003f0: 9026 06be c0fe 793e 8a22 0f3e 6c36 e5bd

fc2.bias f4 [84]
0.028106995 -0.06467923 0.22055766 -0.25227442 0.09968491 0.5383945 -0.44755664 -0.170505
-0.0061916513 0.251589 -0.08373234 0.12602194 0.15430795 -0.24331258 -0.20828791 0.15478803
-0.09467885 0.256973 0.2678305 -0.2318904 -0.20098412 0.14210173 0.019924846 -0.09346778
-0.13318981 0.022944618 0.4586637 0.20064011 0.007994966 0.046408046 -0.0898249 -0.05800045
0.41147286 0.25479814 -0.07835263 -0.12668715 -0.098340735 0.32559666 -0.01634562 -0.23679991
0.2590064 0.18905948 -0.08539994 0.05374695 -0.26668876 -0.06649458 -0.22854674 -0.055425644
-0.072487585 -0.074338116 0.6795496 0.2542146 -0.020257931 -0.26684254 -0.054783475 -0.0005375748
0.13638076 -0.11294469 0.33290237 -0.086974435 -0.24261777 0.07531747 -0.20009585 -0.28505838
0.10959406 0.0006575841 0.46237844 -0.019342184 0.33789927 0.03701912 0.058211844 -0.26154426
0.17661268 -0.09625296 -0.2257114 0.008781592 0.4873793 -0.05520614 -0.13004334 0.070820644
-0.25723696 -0.28501034 0.047599755 0.007923866
00000000: a440 e63c 8b76 84bd ded9 613e 1d2a 81be
00000010: 9a27 cc3d 39d4 093f 2526 e5be dd98 2ebe
00000020: 56e3 cabb 46d0 803e dc7b abbd e50b 013e
00000030: e702 1e3e ef26 79be 6d49 55be c180 1e3e
00000040: fce6 c1bd f791 833e 1421 893e ad74 6dbe
00000050: c8ce 4dbe 1e83 113e 6e39 a33c 096c bfbd
00000060: e962 08be 5af6 bb3c f8d5 ea3e 9a74 4d3e
00000070: 51fd 023c 5d16 3e3d 1ef6 b7bd e191 6dbd
00000080: 92ac d23e e774 823e 5877 a0bd 47ba 01be
00000090: de66 c9bd 9bb4 a63e 40e7 85bc ad7b 72be
000000a0: 7d9c 843e cf98 413e 2ae6 aebd c325 5c3d
000000b0: 6e8b 88be 4f2e 88bd 2808 6abe 0006 63bd
000000c0: 5f74 94bd 953e 98bd f6f6 2d3f 6b28 823e
000000d0: f6f3 a5bc 969f 88be a364 60bd 09ec 0cba
000000e0: 66a7 0b3e 8c4f e7bd 2e72 aa3e a71f b2bd
000000f0: cb70 78be 0c40 9a3d ede5 4cbe 2cf3 91be
00000100: da72 e03d b961 2c3a debc ec3e 8073 9ebc
00000110: 2201 ad3e 5ca1 173d 8b6f 6e3d 21e9 85be
00000120: f4d9 343e 4620 c5bd e420 67be abe0 0f3c
00000130: c889 f93e d51f 62bd 152a 05be 6a0a 913d
00000140: 90b4 83be e0ec 91be f6f7 423d 1ad3 013c

fc3.weight f4 [10, 84]
0.29346156 0.33274275 -0.2460045 0.08861178 -0.27085268 -0.6494541 0.7260182 0.35871857
-0.69634116 -0.58536017 0.12789619 0.691711 0.11672488 -0.23392552 -0.46545535 -0.48159653
0.23522308 -0.89581025 0.49545264 0.11830352 0.09340819 0.18122098 0.2850454 -0.285537
-0.19310296 -0.20795056 -0.35679752 -0.07953777 0.51129705 0.15241309 0.23839319 0.40058577
-0.52628714 0.14908293 0.38374618 0.14532623 -0.21226664 -0.30085188 -0.07652193 -0.008465208
-0.0016527618 -0.266668 0.19786088 -0.18714899 0.029945314 0.03528043 0.06838464 0.75943214
0.07490774 -0.23447019 -0.37643147 0.049546868 0.041831788 -0.17894582 -0.4710152 -0.10364798
-0.17658794 0.34179676 -0.2136833 -0.20902465 0.8453232 -0.1797139 -0.56438893 -0.13608372
-0.13950363 -0.0788628 -0.53051347 0.027809428 -0.6547339 -0.069988415 -0.19576454 0.18509255
0.43137544 0.17066598 0.39814323 0.21986139 -0.28804383 0.0108019775 0.0021589845 -0.40913582
0.5764776 0.46290466 0.31576854 0.41038013 -0.44830292 -0.15005775 -0.034912735 -0.62109476
0.35095924 -0.65630996 -0.18184136 -0.10005407 -0.22237825 0.38005948 -0.2014645 -0.45718843
0.68805265 0.05776201 0.9040003 0.15091738 -0.055267747 -0.9773227 -0.22048281 -0.14734307
0.6259425 0.26750565 -0.33513075 0.05625623 0.41716516 0.14403467 -0.5196585 -0.05628744
-0.19511071 -0.10869582 0.029540673 0.58936304 -0.2971482 -1.027396 -0.22493078 -0.06613852
-0.16811237 -0.18285027 0.12786444 0.35512704 0.848191 0.18935294 0.092351444 -0.3121011
0.32812455 -0.18492238 0.07566678 -0.08848082 0.09023595 0.21540874 0.25741467 0.761955
-0.23778075 -0.4019926 -0.18025964 0.100333124 0.42970482 0.32687342 -0.14794992 0.5469753
-0.5706693 -0.32792187 0.44560432 0.08052198 0.115761906 0.36808997 -0.739232 -0.16468322
-0.57049173 0.6224306 -0.30129713 0.5678884 0.92078304 0.1318155 -0.057602633 -0.05897252
-0.08319597 0.06223062 -0.21228246 -0.2394968 -0.21990737 -0.21160385 -0.42404073 0.23704885
0.07156549 0.116148844 0.07960942 -0.2641208 -0.2252411 0.10342753 -0.07676811 -0.1366396
-0.2591261 -0.11405947 0.087315306 0.625199 -0.07406928 -0.20887578 0.035582073 0.106897354
0.22795945 0.16974872 0.004038848 0.061259076 -0.20067187 0.2369563 0.2150577 -0.100159235
-0.10897243 -0.06581496 0.25148454 0.22819263 -0.22659913 -0.07365466 0.124867186 -0.040438395
0.036598157 0.21114609 -0.030804383 -0.07885342 0.04886361 -0.1917944 -0.05990433 -0.044376865
0.028051708 0.27320048 -0.17101297 -0.2896404 0.020270418 -0.23141032 0.055484563 -0.023993738
0.17536528 0.11356437 -0.26043952 -0.06569436 0.00817512 -0.2062886 -0.033509735 0.29560655
0.20484905 -0.2134072 -0.10410312 0.035827465 -0.17971991 0.018842433 -0.16871738 0.20580465
-0.10967248 0.16340707 -0.06021432 -0.040179584 0.55589485 0.23929802 0.16590734 0.24672379
-0.107034326 0.08052317 0.09135831 0.48452112 -0.2005803 -0.27403605 -0.25877 -0.020500354
-0.11979631 0.011316201 0.33411527 -0.2007272 -0.36326236 0.28720742 -0.21558534 0.27623445
00000000: 9840 963e 425d aa3e 9be8 7bbe 187a b53d
00000010: 34ad 8abe a042 26bf 54dc 393f f6a9 b73e
00000020: 6a43 32bf 2ada 15bf 38f7 023e f913 313f
00000030: 740d ef3d 2c8a 6fbe 2a50 eebe d293 f6be
00000040: 52de 703e d253 65bf f8ab fd3e 1e49 f23d
00000050: cb4c bf3d fe91 393e 78f1 913e e831 92be
00000060: c8bc 45be fef0 54be 2aae b6be b3e4 a2bd
00000070: 5de4 023f 2d12 1c3e 581d 743e 9419 cd3e
00000080: c1ba 06bf 32a9 183e 617a c43e 66d0 143e
00000090: 6d5c 59be 4209 9abe 88b7 9cbd a8b1 0abc
000000a0: 7ca1 d8ba b588 88be 0b9c 4a3e fca3 3fbe
000000b0: e04f f53c 3682 103d 3f0d 8c3d 256a 423f
000000c0: 3b69 993d f418 70be a0bb c0be a8f1 4a3d
000000d0: cf57 2b3d 933d 37be e728 f1be 6445 d4bd
000000e0: 78d3 34be fcff ae3e cccf 5abe 8f0a 56be
000000f0: 1a67 583f ec06 38be cb7b 10bf 8859 0bbe
00000100: 0ada 0ebe d282 a1bd bbcf 07bf 99d0 e33c
00000110: a49c 27bf 1656 8fbd 8076 48be e788 3d3e
00000120: 3edd dc3e 10c3 2e3e 6ed9 cb3e 5823 613e
00000130: 7b7a 93be c7fa 303c c07d 0d3b 407a d1be
00000140: 0994 133f d701 ed3e 6aac a13e 581d d23e
00000150: f687 e5be bda8 19be a800 0fbd 1100 1fbf
00000160: eeb0 b33e ee03 28bf 9f34 3abe 26e9 ccbd
00000170: 20b7 63be 2897 c23e b64c 4ebe 9a14 eabe
00000180: 3824 303f db97 6c3d 906c 673f 168a 1a3e
00000190: 6f60 62bd d231 7abf 3fc6 61be 1ae1 16be
000001a0: c53d 203f 80f6 883e 4296 abbe ef6c 663d
000001b0: ac96 d53e d37d 133e 5708 05bf a98d 66bd
000001c0: 1acb 47be ea9b debd 48ff f13c 7fe0 163f
000001d0: cf23 98be b681 83bf 4154 66be a273 87bd
000001e0: a625 2cbe 1a3d 3bbe e5ee 023e 36d3 b53e
000001f0: 0c23 593f bde5 413e c122 bd3d b7cb 9fbe
00000200: f1ff a73e 4b5c 3dbe 2ff7 9a3d 6f35 b5bd
00000210: a0cd b83d 1c94 5c3e dbcb 833e 7c0f 433f
00000220: cc7c 73be f9d1 cdbe fc95 38be 747b cd3d
00000230: 4502 dc3e f45b a73e 2f80 17be 9306 0c3f
00000240: 6217 12bf 60e5 a7be 4026 e43e b5e8 a43d
00000250: 9414 ed3d 4a76 bc3e 4f3e 3dbf b8a2 28be
00000260: bf0b 12bf 9d57 1f3f 9e43 9abe 2261 113f
00000270: 70b8 6b3f a4fa 063e bdf0 6bbd 2b8d 71bd
00000280: a662 aabd 89e5 7e3d 9360 59be a63e 75be
00000290: 662f 61be aeae 58be de1b d9be efbc 723e
000002a0: ed90 923d 72df ed3d 430a a33d d73a 87be
000002b0: 9aa5 66be d0d1 d33d 9938 9dbd 40eb 0bbe
000002c0: 2dac 84be 0398 e9bd 5ed2 b23d 0b0d 203f
000002d0: a2b1 97bd 88e3 55be 82be 113d 00ed da3d
000002e0: 346e 693e 9cd2 2d3e 5058 843b ccea 7a3d
000002f0: ed7c 4dbe aca4 723e 1638 5c3e 4920 cdbd
00000300: f02c dfbd fec9 86bd 95c2 803e 54ab 693e
00000310: 9a09 68be 41d8 96bd 5eba ff3d bba2 25bd
00000320: f3e7 153d ae36 583e 7959 fcbc e77d a1bd
00000330: 3525 483d c065 44be 3e5e 75bd 84c4 35bd
00000340: b2cc e53c efe0 8b3e 061e 2fbe bf4b 94be
00000350: 260e a63c d4f6 6cbe c843 633d 848e c4bc
00000360: f592 333e 7094 e83d 5458 85be c48a 86bd
00000370: f0f0 053c 523d 53be 8141 09bd be59 973e
00000380: f3c3 513e 6b87 5abe 0434 d5bd d2bf 123d
00000390: 7f08 38be 725b 9a3c 40c4 2cbe 74be 523e
000003a0: f79b e0bd 2f54 273e 4aa3 76bd 5993 24bd
000003b0: 204f 0e3f 8a0a 753e 9de3 293e 29a5 7c3e
000003c0: d034 dbbd 55e9 a43d 111a bb3d 2713 f83e
000003d0: ec64 4dbe 744e 8cbe 807d 84be 5cf0 a7bc
000003e0: c557 f5bd 9667 393c 2811 ab3e 6e8b 4dbe
000003f0: 86fd b9be da0c 933e 67c2 5cbe 9a6e 8d3e

fc3.bias f4 [10]
-1.2554079 -0.13726737 0.13915585 0.6832072 0.7262842 -0.6622573 1.2730248 -0.8212548
0.040342405 -0.14201644
00000000: 35b1 a0bf d18f 0cbe df7e 0e3e abe6 2e3f
00000010: c3ed 393f b289 29bf 7af2 a23f c13d 52bf
00000020: 143e 253d c26c 11be
