round4/2025-04-18 18:28:53-weight-client-73d6de26-c.pth (torch, 252478 bytes, 10 tensors)

conv1.weight f4 [6, 3, 5, 5]
00000000: 40ea 41be 1489 dbbe 01ef 1f3e 118a 7fbe
00000010: a76b 3dbf 1de1 51be 7146 17bf a184 2bbe
00000020: b8ca 15bf 5c83 70bf 280b 2ebf d625 a2bf
00000030: 8102 7ebf 6849 8abf 395f aabf dbf2 0dbe
00000040: 156a 20bf 8e41 51bd e4ae 86be 5c0f 5fbf
00000050: 6fb9 183f c5bb 6a3f a55c 953f 4d75 1e3f
00000060: fada 4f3e 8c89 2b3f c652 093f a8ea 873f
00000070: 6b49 1f3f 322f ef3d 918a 613f 6d61 563f
00000080: 3e3e 923f fb36 373f 2a51 313e 06c7 dc3e
00000090: 771c 87bd 79cd a93e d341 863e 4cad 23be
000000a0: 4955 243f 7753 e63e 754a 853f a21b 203f
000000b0: 87b9 583d 4f8b 8e3f 36dc d13f e2ff f53f
000000c0: 6050 ab3f ee04 473f b64d 0bbf ddc0 8bbe
000000d0: d565 7d3e ba71 ddbe f0bd 4abf 0837 a2be
000000e0: 1dfe 95be ba7a eabd 8e12 e3be af22 94bf
000000f0: 82f8 81bf 3cfc a4bf 2843 85bf b5fd 95bf
00000100: f48b c2bf eb3c 4bbf a332 83bf e0d5 12bf
00000110: 6c9a 4fbf 8806 b4bf 072d efbe bae1 9c3d
00000120: dd41 bd3e 20b5 abbe 5f6a 6dbf ffd8 23bf
00000130: d4d8 97bf 1d50 c6be 3f69 12bf 558a 35bf
00000140: 0065 3bbf 406f a6bf 81f7 fabe 8eb1 b7be
00000150: 90ea 6dbf 46da 57bf cb3f 9ebf c1aa f3be
00000160: 2b1d b5bd 0d45 8dbf d0d3 7fbf 125a 16bf
00000170: 12fc 33bf 52ad 2fbf b7de 69bf fe13 82bf
00000180: 2482 d3be f804 f9be 2efd 39bf 9d44 21bf
00000190: 5572 f63e e393 5c3e 5768 783f 6a01 883f
000001a0: 51b1 1e3f 5e53 f53e ed28 933e cb3e 793f
000001b0: 92a8 b33f 06ee ea3e 62d0 dd3e 1ab2 a13e
000001c0: f7f1 9d3f 7902 cb3f ed78 cb3e 02a2 b03e
000001d0: 7df1 303f 7dd2 583f 8200 5b3f 5bd7 bf3e
000001e0: 10c8 9c3c e1c2 4e3f f1ef 4e3f c321 4c3f
000001f0: 35f0 043f 0593 58bf 1324 8ebf 6dec aabe
00000200: fda7 6ebe 6439 3ebf 59ca 42bf 70f3 91bf
00000210: 6db7 b4bd fe94 26be 65e7 65bf d90c 67bf
00000220: f576 7ebf 715d a0be 5420 133d b17b 84bf
00000230: d6a0 8dbf 49ee 27bf 1a80 38bf 7b00 2cbf
00000240: 950f 91bf c913 b2bf ff54 4cbf 8a07 24bf
00000250: 160c 3fbf cac7 87bf 4d33 75bc dc7a 813e
00000260: e231 c23e dd05 433e 7045 8ebe 9681 ab3e
00000270: 43c9 9b3e 1f67 cf3e 83b8 b43e f661 9c3d
00000280: f56b 333d 49c6 e9bc c761 27be dbd2 a0bd
00000290: 97ae 573e c014 9bbe f301 8cbf 618b 93bf
000002a0: 90dd 4ebf 487b 65be b528 f4be cdab 63bf
000002b0: 8dbc 97bf d278 5abf 2db2 81be 38d4 903e
000002c0: d53a 3f3f 7178 5a3f 6df4 b53e 33cf 67be
000002d0: ffc2 ba3e 6ecf 0b3f 482e 233f 6a86 513e
000002e0: 6440 59be c6f2 5cbe 8107 68be b565 70be
000002f0: c37b c7be c36f dabe 9ad7 8cbf b5b7 b5bf
00000300: 3420 c4bf ff0b a7bf 9477 5ebf 9881 98bf
00000310: fe83 d0bf dec6 c4bf 95b3 bcbf 069a 8abf
00000320: f69d e03f debb 0c40 81f0 1040 0abe 0040
00000330: 56d2 403f dc25 df3f 5759 0740 a055 0a40
00000340: a38a e73f 18e8 8f3f 621e c63f 6d50 b43f
00000350: 849f bb3f c1c5 9f3f 15da 6a3f 7ba9 9a3e
00000360: 1a09 e73d 6c1c 243e b828 1f3e 521b c53e
00000370: 7e42 b93e 162c 42bc a2e1 34bd 160d 1e3d
00000380: dbcf 00bc 9441 9ebf e3b8 4ebf 03e6 0bbf
00000390: ce39 7ebf 0f22 a3bf 54eb 9dbe 49fc b93d
000003a0: 69de 593c e489 5fbe 5042 abbe 079d 06be
000003b0: 29aa 9ebe 837a 7ebe 9b6b cfbe 6a22 cebe
000003c0: 1fee 64bf b2ac 9fbf b690 90bf 5fc7 3dbf
000003d0: aece 17bf 5d9d 83bf a0a9 adbf 7435 a3bf
000003e0: 3036 87bf ff69 3abf ef41 5cbf d6a3 82be
000003f0: 9a76 01be 99d8 6dbe 785c 43bf e274 183e
-0.18937016 -0.4287802 0.15618517 -0.24955012 -0.7399239 -0.2049603 -0.5909186 -0.16749813
-0.5851245 -0.9395044 -0.67985773 -1.2667797 -0.9922257 -1.0803652 -1.331031 -0.13862173
-0.6266187 -0.05108791 -0.26305306 -0.8713281 0.5965795 0.91692764 1.1668898 0.61897737
0.20298377 0.67006755 0.5364193 1.0618486 0.622214 0.11678924 0.8810206 0.8374241
1.1425245 0.7156827 0.17316118 0.43120593 -0.06597226 0.33164576 0.26222095 -0.15984076
0.64192635 0.44985554 1.0413347 0.62542164 0.052911308 1.1136264 1.6395328 1.9218714
1.3383904 0.777419 -0.5441545 -0.2729558 0.24745877 -0.4325083 -0.7919607 -0.3168261
-0.29295436 -0.114491895 -0.44350094 -1.1573085 -1.0153964 -1.2889476 -1.041112 -1.171805
-1.519896 -0.7938983 -1.0249828 -0.573576 -0.81095004 -1.4064493 -0.4671404 0.076602414
0.36964312 -0.33536625 -0.92740434 -0.64002985 -1.1863046 -0.38732997 -0.5719184 -0.709142
-0.7320099 -1.3002701 -0.49016955 -0.3587765 -0.9293604 -0.84317434 -1.2363218 -0.47591212
-0.08843454 -1.1036698 -0.99932575 -0.58731186 -0.70306504 -0.6862384 -0.9135546 -1.0162351
-0.41310227 -0.48636603 -0.72651947 -0.6299532 0.48134103 0.2154079 0.9703421 1.0625432
0.61989313 0.47915167 0.2874216 0.9736144 1.4035819 0.45884722 0.43323046 0.31581193
1.2339467 1.586013 0.39740697 0.34498602 0.6911848 0.8469618 0.8554765 0.3746899
0.019138366 0.8076611 0.8083487 0.79739016 0.51929027 -0.84599334 -1.1104759 -0.33383504
-0.2330627 -0.7430632 -0.7609001 -1.1402416 -0.08824048 -0.16267774 -0.89806205 -0.9025398
-0.99400264 -0.3132129 0.035919502 -1.0350248 -1.1064708 -0.6559797 -0.7207047 -0.67188233
-1.133288 -1.3912288 -0.79817194 -0.64074004 -0.74627817 -1.0607846 -0.014965844 0.25289047
0.37928683 0.19045205 -0.27787352 0.33497304 0.30426988 0.40508363 0.3529702 0.07635872
0.043804128 -0.028536933 -0.16345893 -0.078527175 0.21062694 -0.30289268 -1.0938095 -1.152691
-0.8080683 -0.2241031 -0.47687307 -0.8893402 -1.1854416 -0.8534061 -0.2533125 0.2828691
0.74699146 0.8534003 0.35538045 -0.22637634 0.36476895 0.5461339 0.63742495 0.20461431
-0.2121597 -0.21576986 -0.22659113 -0.23476298 -0.3896161 -0.42663392 -1.1003296 -1.4196688
-1.5322328 -1.3050536 -0.8690121 -1.1914549 -1.6290281 -1.537319 -1.4742304 -1.0828254
1.7548206 2.1989665 2.2646792 2.011599 0.7532095 1.7433429 2.1148279 2.1614761
1.8089184 1.1242704 1.5478022 1.4087044 1.4658055 1.2482225 0.91739017 0.30207428
0.11281033 0.16026467 0.15542877 0.38497406 0.36183542 -0.011851331 -0.044160493 0.0385867
-0.007862057 -1.2363763 -0.80750865 -0.54647845 -0.9930695 -1.2744769 -0.30843604 0.09081323
0.013297656 -0.21829945 -0.3344903 -0.13145839 -0.30989197 -0.24851422 -0.40511784 -0.4026063
-0.89425844 -1.2474577 -1.1294162 -0.7413234 -0.59299743 -1.0282398 -1.356739 -1.2750688
-1.0563412 -0.7281799 -0.86038107 -0.25515622 -0.12642899 -0.23227157 -0.7631297 0.14888337

conv1.bias f4 [6]
00000000: 6bf0 9abf 1db7 0fc0 a777 63c0 cce1 cdc0
00000010: a9fe cdbf f577 fc3f
-1.210462 -2.2455513 -3.554178 -6.433813 -1.6093341 1.9724108

conv2.weight f4 [16, 6, 5, 5]
00000000: fa18 52be 7f0e 7abe 60b3 8ebe c594 94be
00000010: 0ec1 24bf b1ee 83bd f858 7cbe 3d2a 24be
00000020: ab1e 31be 2e46 f2be 5e78 61be 7d32 6cbe
00000030: c12b c4bd 2550 56bd 8aa1 ecbd 778a 9a3e
00000040: 3eb1 233e 8671 6e3d d430 493e d360 513e
00000050: da2c 8d3e e7cb 6d3e 42f8 693e ed72 6e3e
00000060: 56e0 a93e 08bc 55be d6d1 3ebe 9a60 563e
00000070: f203 9e3e 31dc 5f3e 4f7f d3bd 1d6c 15bd
00000080: bd7b 693e 966a e53d c040 6cbd 29a9 2dbe
00000090: 6447 f9bc d669 363d 6013 a4bd cb69 743c
000000a0: 6703 903d 343e 853e ef52 cb3e b876 963e
000000b0: 472d af3e 7d8f 153f 8bf5 233f e620 213f
000000c0: 34ff d13e f163 f33e 0822 6dbe bee3 b0be
000000d0: c67b 64be 8737 0c3e 1c1a dd3e c30b b9be
000000e0: bb9b 95be b363 be3b 75c7 b73e 9de5 003f
000000f0: ef13 f8be c71d a2be 4e8a 963d 0f68 4e3e
00000100: 7a0c d03d 82e4 1cbf f078 c0be cfb5 a7bc
00000110: 88be 5f3d 6a71 16be fe5b eabe 91f7 95bd
00000120: 594a 173e bdc2 223d e8c8 9abd 6ccb 29bd
00000130: c70c 0dbf e9a8 01bf a7c0 56be ec37 4fbd
00000140: 3f81 2ebf 3811 45bf b0e9 11bf f6eb 83bd
00000150: 7651 873e a892 76bf 9080 53bf 2c93 fcbe
00000160: 3b18 d7bd 83a9 853c f7c0 e2be d22b c9be
00000170: 3e20 9abe 3c60 f6bd e262 263e a230 84bc
00000180: c5a1 4abe 53b5 1abe ae36 7dbd cd41 b83e
00000190: fc36 19bf 33b8 59bf 16c4 46bf 5e62 e1be
000001a0: 8cdb cabe bff9 8cbf 0bb2 a1bf f986 65bf
000001b0: 7d0a 0cbf 8b18 aabe 30ec 2fbf 8a8e 51bf
000001c0: d91e 4bbe 7f98 563d 7024 013e 0ebb 673e
000001d0: 5c98 b93e ebcd fd3e d5ec 0a3f bff7 493f
000001e0: 0bad 463f 3eb6 3b3f 8d3e 643f b7b2 633f
000001f0: 009e 7f3f cf51 8db9 c76a c73e 1838 2f3f
00000200: a379 633e a6e9 28be eac1 263e fae3 233f
00000210: 6178 9e3e f432 2fbe 2adc 77be b4bb e8bd
00000220: 986d 7e3e 5aaf 1bbe cfd2 07bf f4c0 b6be
00000230: 17d8 c8be d01e 5bbd b0bd 11bf 3648 1ebf
00000240: 5232 f0be 4824 6fbe 3170 7cbd ce49 f3be
00000250: a4d4 c7be e20f f6be 582c 1b3d ea8f 673e
00000260: fbed 3c3e dc23 72bd 1192 e9be 1186 853e
00000270: 7f66 073e 01ea b23e dd27 803e b87d e2be
00000280: 01c1 9d3d 7862 f93d bfc5 c83e fccc 443e
00000290: f70a 49bf e83f c6bb 37d2 463e 0264 fe3e
000002a0: 2b84 9a3d 1394 38bf 6601 75be 7bc9 83bd
000002b0: a2b4 b7bd cebd ccbe bdfd 23bf b014 813e
000002c0: 4ab7 a2bd f792 ffbd 4708 afbe 4651 4fbf
000002d0: 3187 033f 4ce5 d73e fb16 bf3e 7226 f7bd
000002e0: f708 3cbf 935e db3e 195f c53e 8da0 d13e
000002f0: 499c 59bd 73db 2ebf a1f3 163f 605c 023f
00000300: 17ce 903e 47d0 dabc 61ba 91be 5d8f c93e
00000310: fd8a 623e f20d 483d 9816 82be 23b2 c7be
00000320: 9278 10bf 53d0 cdbe 3de9 14bf 00ad 12bf
00000330: f664 13bf efa8 17bf dee9 19bf 8b32 20bf
00000340: adc6 44bf 8cd1 2dbf c56a 1ebf 3dad 14bf
00000350: a534 13bf 6bba c7be 1fed 6abe 9170 6fbe
00000360: d8a0 c9bd 0e37 96be d6c8 04be 0d45 f63d
00000370: 17fd 2abf 1b7b 1bbf e291 39bf 112b 19bf
00000380: accb c9be 474b 8dbf c2eb 88bf 9807 9bbe
00000390: 6c0a bd3e f90a 423f 3a5d 9cbf 94df a2bf
000003a0: 5138 83be d1ab 4c3f ae0c 803f 64fd aebf
000003b0: b610 b9bf 8b00 1bbf af8f 423f 56c9 7f3f
000003c0: 4577 9abf 6acf 73bf 5704 8abe 92e8 123f
000003d0: e012 453f df7c 6ebf 3dda ddbe c25b fdbd
000003e0: 23e3 b93d 981d 963e 1829 a2be dcc4 1ebe
000003f0: e63f 9fbe e7ec 96be 0d82 31bf 4d48 8bbd
-0.2051734 -0.24419592 -0.27871227 -0.29019752 -0.6435708 -0.06442011 -0.24643314 -0.16031738
-0.17296855 -0.47319168 -0.22018573 -0.23066135 -0.09578658 -0.052322526 -0.11554249 0.30183765
0.15985581 0.058213733 0.19647533 0.20447092 0.27573282 0.23222314 0.22848609 0.23286028
0.33178967 -0.2087251 -0.18634734 0.20935288 0.30862385 0.2186134 -0.103270166 -0.036480058
0.22801109 0.1120197 -0.057678938 -0.1695906 -0.03042955 0.044534527 -0.08011508 0.014917801
0.07031899 0.2602402 0.3971171 0.2938745 0.3421423 0.5842207 0.64046544 0.62940824
0.41015017 0.47537187 -0.23157513 -0.34548753 -0.22312841 0.13693057 0.43183982 -0.36141786
-0.29220375 0.005810225 0.3589436 0.5035036 -0.48452708 -0.31663343 0.07350598 0.20156883
0.1015863 -0.61286175 -0.37592268 -0.020472435 0.054625064 -0.14691702 -0.4577331 -0.0732261
0.14774455 0.0397365 -0.07557851 -0.041453764 -0.5509762 -0.5064836 -0.20971929 -0.05059044
-0.68165964 -0.769794 -0.56997204 -0.0644149 0.26429337 -0.9631753 -0.82618046 -0.49331033
-0.105026685 0.016316181 -0.44287845 -0.39291245 -0.30102724 -0.12030074 0.16248658 -0.016136471
-0.19788273 -0.15108232 -0.061819725 0.35987702 -0.59849524 -0.8504669 -0.77642953 -0.4402036
-0.39620626 -1.1013716 -1.2632459 -0.89659077 -0.54703504 -0.3322185 -0.6871977 -0.8185812
-0.19835986 0.052391525 0.12611556 0.2262995 0.36249053 0.49571165 0.54267627 0.78893656
0.7760779 0.73324955 0.89157945 0.8894457 0.99850464 -0.00026954568 0.38948652 0.6844497
0.2221437 -0.1649538 0.1628491 0.6401974 0.30951217 -0.17109281 -0.2420508 -0.113639265
0.24846494 -0.1520361 -0.53056043 -0.35694087 -0.39227363 -0.053496182 -0.56930065 -0.61828935
-0.4691339 -0.23353684 -0.06163043 -0.47517246 -0.3902942 -0.48058993 0.037884086 0.22613493
0.18450157 -0.05911623 -0.45619252 0.26078847 0.13222693 0.34944156 0.25030413 -0.4423654
0.07702828 0.121769845 0.39213368 0.1921882 -0.78532356 -0.0060500987 0.19416128 0.49685675
0.0754474 -0.72100943 -0.23926315 -0.06434914 -0.0897 -0.3998856 -0.6405905 0.25211096
-0.07945116 -0.12479203 -0.34186003 -0.8098339 0.5137816 0.42167127 0.3732222 -0.1206788
-0.7345118 0.42845592 0.38549116 0.40942803 -0.05312756 -0.683036 0.589655 0.50922203
0.28282234 -0.026710643 -0.28462508 0.3936719 0.22123332 0.048841424 -0.25407863 -0.39003095
-0.56433976 -0.40198 -0.58168393 -0.5729523 -0.5757593 -0.5924215 -0.6012248 -0.6257712
-0.76865655 -0.6789787 -0.6188167 -0.5807684 -0.57502204 -0.39009413 -0.22942017 -0.23382784
-0.09845132 -0.29338878 -0.12967238 0.12024889 -0.66792434 -0.6073472 -0.72488225 -0.5983134
-0.39413202 -1.1038598 -1.0696948 -0.3027923 0.36922014 0.7579799 -1.221595 -1.2724481
-0.25628904 0.7994967 1.000387 -1.3671079 -1.4458225 -0.60547704 0.76000494 0.9991659
-1.2067648 -0.95238364 -0.26956436 0.57386124 0.76981926 -0.9315929 -0.43330565 -0.12371017
0.09076526 0.29319453 -0.31671977 -0.15504783 -0.31103438 -0.29477617 -0.69339067 -0.068009

conv2.bias f4 [16]
00000000: d246 f4be 2c07 dc3e 8372 44bf 5e61 253f
00000010: 1726 b3bf a655 40bf 8d7a b83e af8c 053f
00000020: 5f0c 83bf a5f3 fabe 8f18 12bf 0eba 24be
00000030: fc3d c4be ea4a 8ebe 5582 ab3d e2f3 ab3e
-0.47710282 0.42974222 -0.7673723 0.64601696 -1.3995999 -0.7513069 0.36031 0.5216779
-1.023815 -0.4901401 -0.57068723 -0.16086599 -0.3832854 -0.2779153 0.08374468 0.33584505

fc1.weight f4 [120, 400]
00000000: 2b65 51be b8c8 94bd 92d1 7c3d fb48 c4bc
00000010: 7883 1abe 51e9 a3bd 3a59 37be 1f38 c5bd
00000020: 6893 b5bd be0c 0fbe 8724 b03c 46e6 91be
00000030: d585 1fbe caad 39be f3cb 4ebe 5c4e d23d
00000040: 2b62 dbbd cd85 14be b84f 08be 5be3 03bd
00000050: e890 923e d46f d53d cf0d 52bd e64f 2bbe
00000060: ffe1 d33d eccd 19bd 2438 c5bd 2bc2 26be
00000070: 8623 babd 6f25 b9be 6a6b 93bd 8b03 29be
00000080: 39cb 17be 0586 30be f6ad 67be ccb4 3bbe
00000090: 3adf 12be 91b8 143d 1b34 31bd 0656 25be
000000a0: 8721 82bd 6196 0cbc fcd6 52bc 37ef 923d
000000b0: cf59 3dbe d82f 59bc 83a5 1ebd ee92 d63a
000000c0: 87ca 863d 8c7b 9fbd b6f6 25be a8a6 f6bd
000000d0: 1052 7cbe 3a36 54be 6fbf 35be 1564 8e3b
000000e0: 7771 943d c475 733c eb59 0abd fd5b bb3c
000000f0: 6e55 113e 9b5a 5c3e d4ab 133e b993 8f3d
00000100: 5888 99bd f8c9 863e 9401 7b3e 2df7 be3e
00000110: 69df 133e 91a7 25bd 2b2c 713e c2b4 863e
00000120: 8176 5f3e 50b8 a73d 6eac 0cbe d013 9e3d
00000130: 2a5b 123d b07b 08bd 7ae9 0b3d 6fea 893d
00000140: 2860 fa3d 1e91 e53d 1723 023d 2576 f13d
00000150: 0155 7a3d 1ac3 2e3e b04a a53d 3b21 963d
00000160: dce7 0abd d1e9 02bd fcb0 123e 303f d53d
00000170: ecf0 5e3d 4a6c 943c 0041 e43d d738 153e
00000180: b498 ea3d 3c6a a63d ed7b 203e dc62 593e
00000190: 31b1 bbbd 2bce dabd 453b 02be 6e1d 00be
000001a0: f3d8 ecbd 1dba 69be 186a a3be 3e9e 85be
000001b0: 277c 57be 961d 59be 8b52 8cbe be07 48be
000001c0: 28fd 58be e00a 82be 3efa fabd b12c 243d
000001d0: 4f2a 3f3d ccbd 5e3d ee3f 883e ee63 a33e
000001e0: 94b4 a83e 3339 923e 7f5a e13e b554 133f
000001f0: c4d8 213f c4b8 113e 0bca 263e 5bcb 1b3c
00000200: ec83 8cbc 4679 14bd 7308 623b e2f7 b3bc
00000210: f5e4 95bd ee1f 46bd 7a9c 21be c198 a4bc
00000220: 1c08 16bd cd3e 0abd afb3 0d3c 4eb6 443d
00000230: 5d02 aebd 7103 21be a4bc 2b3b c9d7 3abc
00000240: f2ac 883d 6554 743d 1402 253d 9fe8 8ebd
00000250: e4d2 e0bd 347d c0bc cf76 673d 6da0 92bd
00000260: 6e63 9f3d d779 933e f2b5 463e 21fa ea3c
00000270: a89c ca3c 7c75 6e3e 92e1 343e d92b c2bc
00000280: 985e 233d 78fc 843d def0 903d 6259 273d
00000290: 6d51 713d a169 f23d c85f 5a3c 2a40 3a3c
000002a0: a21b 073d 5dbd 453e 55af 443d e234 e13c
000002b0: 3441 103e e50d 9dbd 9fa7 893e 0fe4 e53d
000002c0: c26e 3d3e a718 ed3d c174 3f3d c985 dcbc
000002d0: 2542 103e f052 153e aeda fa3d 6e5c c23d
000002e0: 1f2e cabc 8ac1 013e 0853 7c3e bd34 873d
000002f0: 2c2b 4bbd 9434 58be 380f 003d 3cf9 223d
00000300: d71c f5bc 42e5 d13c 0373 09be 63b5 8f3d
00000310: 6d4e 183d 102f 08be c4de 21be eda7 21be
00000320: 72a9 d9bd 8b34 413c c3b3 0ebe 537a 88bd
00000330: 6b7a 17be 5ecd abbc cbec d93d 1001 313e
00000340: 4384 5e3e 9e01 a23e 2e9f 443d 5d82 95bc
00000350: df03 293e 9f45 933e c047 753e b717 2c3d
00000360: 8183 953d 0246 9c3c b061 89bd b09d 443d
00000370: 0c24 26be f51a d3bc 9692 1cbe 4e12 84be
00000380: 8faf 54be 8cfe 1abc c5a5 4abd 9447 8abd
00000390: 44f2 663c b889 4b3e c4bb af3d 6b5f d93d
000003a0: e564 61ba 2afb cc3d bccc 623e f9cb c93d
000003b0: b250 023e 6243 dd3d 0e3a 853d a144 403e
000003c0: 50e4 0a3e 9cc3 533d 7ef3 913c 1d1f 163e
000003d0: 41b4 913e 7633 863d b8c7 863e 41f9 ba3e
000003e0: 8032 a13e 5f83 b93e f24c 5f3d f36b 09bd
000003f0: 50b2 373e 8eb6 f1bd 1451 95bd 3793 22bc
-0.20448749 -0.072648466 0.0617233 -0.023960581 -0.15089214 -0.08003486 -0.17905131 -0.09629845
-0.08866006 -0.13969705 0.021501793 -0.28495997 -0.15578397 -0.18132702 -0.20194988 0.10268852
-0.107120834 -0.14504166 -0.1331166 -0.032199245 0.2862618 0.1042172 -0.0512827 -0.16729698
0.1034584 -0.037549898 -0.096298486 -0.16285007 -0.09088807 -0.36161372 -0.07198222 -0.16505258
-0.14823617 -0.17238624 -0.22624955 -0.18330687 -0.14342967 0.03630883 -0.043262582 -0.16146097
-0.06354051 -0.008580775 -0.012868639 0.07174533 -0.1849129 -0.013256036 -0.038732063 0.0016370693
0.06581598 -0.077872366 -0.16207394 -0.12043506 -0.2464068 -0.20723811 -0.17748807 0.004345427
0.07248204 0.0148596205 -0.03377716 0.022871012 0.14192745 0.21518938 0.14421016 0.07010598
-0.07496709 0.26325965 0.24512321 0.37297955 0.14440693 -0.040443007 0.23552005 0.26309782
0.2182255 0.08189452 -0.13737652 0.07718623 0.035731472 -0.033321083 0.034158207 0.06734168
0.122253716 0.112093195 0.031771746 0.117901124 0.061116222 0.17066613 0.08070886 0.07330557
-0.033912525 -0.031961266 0.14325327 0.10412443 0.05442898 0.018118042 0.1114521 0.14572464
0.11454907 0.08125731 0.15672274 0.21229118 -0.09164656 -0.10683855 -0.12717922 -0.12511227
-0.11564817 -0.22824903 -0.3191688 -0.26097292 -0.21043454 -0.21202692 -0.27406725 -0.19534203
-0.21190321 -0.25398922 -0.12254761 0.040081684 0.046671208 0.054380223 0.26611274 0.31912178
0.3295027 0.28559265 0.44014356 0.5755113 0.63221383 0.14230639 0.16288011 0.009508933
-0.017152749 -0.036248468 0.00344899 -0.021968786 -0.07319061 -0.048370294 -0.15782347 -0.02009237
-0.036628827 -0.033751298 0.008648797 0.04802542 -0.084965445 -0.15723969 0.0026204968 -0.011403986
0.06673612 0.059650797 0.040285185 -0.06977963 -0.10977724 -0.023497202 0.05650979 -0.07159505
0.077826366 0.28803894 0.19405344 0.028683724 0.024732903 0.23287004 0.17664173 -0.023702549
0.039885134 0.06493467 0.07077192 0.040856726 0.058915544 0.11836553 0.0133285 0.011367837
0.032985337 0.19310518 0.048018772 0.027491037 0.14087373 -0.07668666 0.26885697 0.11225139
0.18499282 0.11576968 0.046742205 -0.026919262 0.14087732 0.1458242 0.12248741 0.09490286
-0.024680195 0.12671486 0.24641049 0.06601856 -0.04960172 -0.21113807 0.031264514 0.03978847
-0.029920978 0.025622014 -0.1342278 0.07017019 0.037184168 -0.13299203 -0.15807635 -0.15786715
-0.10628022 0.011792312 -0.13935761 -0.066639565 -0.14792792 -0.02097195 0.10640868 0.17285562
0.21730141 0.3164186 0.048003368 -0.018250639 0.16505383 0.28764054 0.23953152 0.042014804
0.07300473 0.019076351 -0.067080855 0.048001945 -0.16224688 -0.02576969 -0.15290293 -0.25795215
-0.20770095 -0.009460103 -0.049474496 -0.06751934 0.014095847 0.19876754 0.08580735 0.10613903
-0.00085981033 0.10008843 0.22148412 0.09853358 0.12726095 0.10803868 0.06505214 0.1877618
0.13563657 0.05170022 0.017816301 0.14660306 0.28457835 0.06552784 0.26324248 0.3651829
0.3148384 0.3623304 0.05451674 -0.033550214 0.17939115 -0.11802398 -0.07290855 -0.009922794

fc1.bias f4 [120]
00000000: ab61 f13d 3a41 213c ece3 3b3b 46f9 363e
00000010: eccd 8dbd 4276 fcbc c40d f6bd 7263 503e
00000020: d773 033d ac04 55bc 1bdb a3bd 42c2 98bd
00000030: acff 32bd 426d 42be 4b26 1d3d ee14 4ebe
00000040: 99ba 19bd 171a e5bd 608f 1abe 024c 7b3d
00000050: 3c58 063e c8be 51bd 9859 45bd 6482 083e
00000060: 96e6 103e 93ad 103d a626 35be d16c b5bd
00000070: d2d5 0dbe 25e3 053c 91dc 173b 9416 f6bc
00000080: 9a95 c03c 6f88 22be dfb0 31be 522b c13d
00000090: 9451 803d c379 03be 72c2 773c 0b73 f73c
000000a0: 5ea7 0bbc fa4f cebd 68f9 febd 821d 2ebe
000000b0: 2e6d 8e3e cf3b a2bd 4414 bb3c d32c 47bd
000000c0: 759b eabd b110 5cbe 10ae f93d cb5d a23d
000000d0: 7931 56bd 3f5b 93bc 404e afbd f027 f43d
000000e0: e324 f03c b808 3ebd 5336 c4bd 65ad 1e3d
000000f0: c159 ae3c e1e2 57be 7384 95bd 23ce 093e
00000100: a98f 883d 5152 d73c 245c a1bd 3307 673d
00000110: 5527 473e 237a 0d3d 01c2 f6bd 43fc 1d3d
00000120: de8e db3d bb00 933e 65cf 563d 9c72 bebd
00000130: 056e 4e3e 572a ff3d 826e 0abe b08f a5bd
00000140: 6cf1 e8bc 7e77 b73d a7b5 743c d0f0 78be
00000150: 1b80 10be cc68 763d c2ae d73c 9e54 ffbd
00000160: fb63 103d 86a7 4c3d 2407 1b3e b7bb 89be
00000170: 2e5c 103e 16c4 513e 9cb2 3cbe cccf 03bd
00000180: a2a4 7d3e a0db 81bc c159 ce3c 9212 08be
00000190: c71c 4fbe c84e a3bd a1c3 0a3e 5dd0 5cbd
000001a0: 271c a93c a030 d3bd 1ef3 e7bd 2b7e 623d
000001b0: 483a a13d 2a49 6e3e 234e 49be b451 b7bd
000001c0: 6ceb 813c e4fb 15be 50ae 00be 134a 78bd
000001d0: cef6 16bd 01d6 de3d ee5c 72bd d14d c83c
0.11786207 0.009842211 0.0028669788 0.17868528 -0.06924042 -0.030818108 -0.12014344 0.20350435
0.032092895 -0.013001602 -0.080007754 -0.07458927 -0.04370086 -0.18986991 0.038366597 -0.20125172
-0.03753147 -0.11186617 -0.15093756 0.061351784 0.13119596 -0.051207334 -0.048181146 0.1333099
0.14150462 0.035321783 -0.17690524 -0.08858646 -0.13851097 0.008171831 0.002317224 -0.030040063
0.023508836 -0.15872358 -0.17352627 0.09432091 0.0626556 -0.12839417 0.015122043 0.030206224
-0.00852379 -0.10073848 -0.12449914 -0.17003444 0.27817672 -0.07921564 0.022836812 -0.048626732
-0.11455432 -0.21490742 0.12191403 0.07928046 -0.052293275 -0.017987845 -0.08559847 0.1192168
0.029314464 -0.046395034 -0.09580674 0.03873958 0.021283032 -0.21082641 -0.07300653 0.13457541
0.06668026 0.026284369 -0.078789026 0.05640335 0.19448598 0.034540307 -0.12048722 0.038570654
0.10720609 0.28711495 0.05244388 -0.09299204 0.20159157 0.124592476 -0.13518718 -0.08084047
-0.028435431 0.08958338 0.014935887 -0.24310613 -0.14111368 0.060158536 0.026328448 -0.12467311
0.0352516 0.04996445 0.15139443 -0.26901028 0.14097664 0.20484957 -0.18427509 -0.032180592
0.24769834 -0.015851796 0.025189282 -0.13288334 -0.20225821 -0.07974011 0.13551189 -0.05390965
0.020643307 -0.10312009 -0.11325668 0.055296104 0.078724444 0.23270097 -0.19658713 -0.089511305
0.015859328 -0.1464687 -0.12566495 -0.060617518 -0.036856465 0.10880662 -0.059170656 0.024451168

fc2.weight f4 [84, 120]
00000000: cd83 1abe 2b10 8cbe 85b3 44be 6fd7 323e
00000010: 9e89 a6bd b96c f73c d239 d4bd a333 5bbe
00000020: 3031 b73c b5f2 c4bc 4688 efbd fc67 26be
00000030: dd58 e4bb 2a86 193e ec11 26be ea49 a83d
00000040: d01b 72be 2481 513c 7d22 f3bd 6c81 41be
00000050: 56d5 c7be f7d1 11bc f32a 84be 7088 36be
00000060: 9810 a3bc ed0b b1bd db3a 35be 27cb fabd
00000070: f5e5 d63d 5ec8 80be 0d7b 0f3e 99bb 07be
00000080: 9a96 47bc 4326 3a3e deb8 ea3d 4ae3 2abe
00000090: a19a 583d 7208 033d 3f35 b7bd 7c7a 013e
000000a0: 8969 70bd a915 24be e34c fc3d 072c 42bc
000000b0: a7dc f4be 704c 53be 874a bf3e 6cde b2bd
000000c0: 748b 363e 2f6c ab3d 8a75 553d 8268 9cbd
000000d0: 5e52 38be a30e 97be 1d0e 1cbd cbb2 493e
000000e0: bf9d 093e 48e0 223e 157b 3a3e 326d c33d
000000f0: 4de1 59be ca4c 1a3e 5f26 b93c 42c1 7fbe
00000100: 77d4 d03c 0fbe 49be 3b18 083e 2649 99be
00000110: 409a 0cbe 0702 ba3d c7a0 c2bd 7535 91be
00000120: 4e1e 06be 8225 02be a737 81bd 4104 e6bd
00000130: 0b57 4dbe e8d1 2c3d be26 3dbe 4c5f 47bd
00000140: f03c 193c bb0e a3bd e691 9abe b1de 8abe
00000150: 8045 78be 4ae2 15be 207e 9fbc dead 15be
00000160: 3aad b3bd a03d a03d 1a1e 19be 29f0 7ebc
00000170: 7521 9e3c f90b 93bd edf1 0abe 0d1f 50be
00000180: f26a 50be 2fe2 e23c 1042 4dbd 7b59 4cbd
00000190: 852f 403e ae5f cfbd 8f24 24be 26bb debe
000001a0: bb99 b0bc 61ee 723d dc5f c3bd a7ab 423e
000001b0: 1d59 803d e39c 63be e195 2f3d de10 cebd
000001c0: a4b4 7abd 3a0e 6abe 389e a03e 3611 8abd
000001d0: bb87 87bd 0750 b3be 0bae 3abe 9839 49bd
000001e0: a8f6 84be db32 923d 8b60 f03d d00d da3d
000001f0: 1a14 ec3c 7e54 f1bc 617e 4c3a 208a 24bd
00000200: 1a58 b5ba 0d7a 433e fd54 213d 828e 25be
00000210: 83e1 ef3d 6321 90bd a2c6 5dbc 38c4 fdba
00000220: bc56 2b3a 7335 1b3d 4bf3 033e af8f 433e
00000230: 9276 8bbe 062c 07be b017 1ebd cea9 323c
00000240: 394f 14bd c565 8fbd e24f 3b3e 552d 9e3c
00000250: d914 d2bd 3fa4 c7bc 5715 823d 606f 133e
00000260: 6d9c a3be 7f59 b6bd 6c1f 493e 05f7 143e
00000270: 1699 a6bd 51cc 673d be71 09be 0d57 bdbd
00000280: 7bf4 11be fd8f 443a 2fd4 1ebd 8563 90bd
00000290: bf5b a2be 7ad8 343e 3080 8ebe 9f5e 323c
000002a0: 19e7 07be 096d 8b3d ea2a 03be 05e4 04be
000002b0: 6fb5 e3bd b001 e13d 0d40 413c ffde 123c
000002c0: 3433 5cbd b113 2abd 11f0 ff3c 7dc4 e13d
000002d0: 2937 68bd 63cb a6bd aed6 b5bb 0f80 093e
000002e0: 6c12 f0bc 0e9a 72be 3db6 90bd c9f8 a9bc
000002f0: 842b 16bd 4e8b 063c d5ab f2bd ed0c cf3d
00000300: a22e 373d a26f 32be 6ae7 e9bd 25bd 073e
00000310: 0810 40bd fd82 65bd 1ed5 f43d 5843 713d
00000320: 91a5 5dbe c46b 2cbe f2a8 80bd fa79 953d
00000330: fe06 ca3d 0a02 19be 3b60 9cbc 4818 e4bd
00000340: 78f2 a3bb 4a72 a3bd 3cb1 9f3c 2d48 253d
00000350: 762e 843d d572 1ebe 4e88 b83d ca2a d3bc
00000360: cb9d f7bd 87e7 033d 82bf 1ebd fff7 acbd
00000370: 2e4b 44bd bc40 6abc 3c66 223d 4f7d 77bb
00000380: f390 5abd 25b3 27be afbc bfbd 5f29 77be
00000390: 641e 23be 8993 4abe ee02 3bbd 4321 efbc
000003a0: 8f3f cfbd 6d98 f93d 371a c2bd 0ada d0bd
000003b0: 57b0 8abe 90de 2abe 5f6f 833d a6bd 3abe
000003c0: 7521 debd a97e c5bd 362e 393e 6b55 adbd
000003d0: ab7f 763d a56b a3bd e47b c03d 4379 afbe
000003e0: b675 f6bd 80b7 283e 2b06 6cbe d9de 853c
000003f0: 89e5 c13c 98e4 cfbd d5e6 c6bd 9636 103d
-0.1508934 -0.27356085 -0.19209106 0.17464994 -0.08131717 0.03020321 -0.10362591 -0.21406417
0.022362322 -0.024041513 -0.11695914 -0.16250604 -0.006968601 0.14992586 -0.16217774 0.08217223
-0.23643422 0.012787137 -0.118718125 -0.18897027 -0.3902995 -0.008900157 -0.25814018 -0.17825484
-0.019905373 -0.08644853 -0.17698233 -0.122457795 0.104930796 -0.25152868 0.14011784 -0.13255157
-0.012181902 0.18178658 0.11461042 -0.16688266 0.05288184 0.031990476 -0.08945703 0.1264438
-0.058694396 -0.16023888 0.123193525 -0.011851317 -0.47824594 -0.20634627 0.37361547 -0.0873383
0.17826635 0.08370244 0.052114047 -0.07637121 -0.1800017 -0.29503354 -0.038099397 0.1969711
0.13439082 0.15905869 0.18211015 0.09542312 -0.21277352 0.15068355 0.022601305 -0.24976066
0.025491936 -0.19701408 0.13290493 -0.2993862 -0.13730717 0.09082418 -0.09503322 -0.28361097
-0.13097498 -0.1270962 -0.06309443 -0.1123128 -0.20052736 0.04219237 -0.1847181 -0.048674867
0.009352908 -0.07961794 -0.30189437 -0.27123025 -0.24245262 -0.14637104 -0.01946932 -0.14617106
-0.08773275 0.07824254 -0.14952889 -0.015560188 0.019303063 -0.07180018 -0.1356885 -0.20324345
-0.20353296 0.027695743 -0.05011183 -0.049890023 0.18768127 -0.10125671 -0.16029571 -0.43502158
-0.02155768 0.059309367 -0.09539768 0.19010793 0.06266997 -0.22227816 0.042867545 -0.10061811
-0.06120743 -0.2285699 0.3137071 -0.06741564 -0.066176854 -0.35021994 -0.18230455 -0.04912719
-0.25969434 0.07138606 0.11737164 0.10647166 0.028818179 -0.029459234 0.00078008143 -0.04017079
-0.001383546 0.19089527 0.03938769 -0.16167644 0.11712935 -0.07037618 -0.013536127 -0.0019360846
0.0006536057 0.03789277 0.12885778 0.1909778 -0.272389 -0.13200387 -0.03859681 0.010904742
-0.036208365 -0.07001833 0.18292192 0.019308725 -0.102578826 -0.02437031 0.063517265 0.14397955
-0.3195528 -0.08903789 0.19640893 0.14547355 -0.081346676 0.056591336 -0.13422295 -0.09245119
-0.14253418 0.00074982626 -0.038776573 -0.07050232 -0.31710622 0.17660704 -0.27832174 0.010886817
-0.1327175 0.06807906 -0.12809339 -0.12977608 -0.1111859 0.1098665 0.011795056 0.008964299
-0.05375977 -0.041522685 0.031242402 0.11023805 -0.05669323 -0.08144262 -0.0055492735 0.13427757
-0.02930566 -0.2369158 -0.07066009 -0.020748513 -0.036662593 0.008211924 -0.118491806 0.10109887
0.044722207 -0.17425397 -0.11421092 0.13255747 -0.04689029 -0.056033123 0.119547114 0.058902115
-0.2164519 -0.16837984 -0.06282224 0.07298656 0.09864615 -0.14942184 -0.019088855 -0.11137444
-0.0050032698 -0.07980783 0.019493692 0.040352035 0.06454174 -0.15473492 0.09010373 -0.02577724
-0.120906435 0.032203224 -0.038756855 -0.08445739 -0.04792326 -0.01429766 0.03964828 -0.0037763899
-0.05336089 -0.16376932 -0.093621604 -0.24136876 -0.15929562 -0.19782843 -0.04565709 -0.029190665
-0.10119545 0.12187276 -0.09477656 -0.10197838 -0.27087662 -0.16686463 0.06417727 -0.18236408
-0.10846225 -0.09643299 0.18084034 -0.08463558 0.060180347 -0.07979516 0.0939863 -0.34272203
-0.1203417 0.1647625 -0.23049228 0.016341614 0.023669021 -0.10151023 -0.097119965 0.035208307

fc2.bias f4 [84]
00000000: 4c04 57be 67ff a6be b953 75bd f40b aabd
00000010: 7051 ca3b d084 8cbc c77f f3bd d28d 873e
00000020: 4314 223f 715a 9b3d 90c1 7bbd 801a 17bc
00000030: 000e 083e 7aae d0bb d4f7 553e 0fca 43be
00000040: d632 49be f90c de3e 14e5 18be a117 a5bd
00000050: 8c68 553e 847c 95bd 9f5b cfbd 64bb d0bd
00000060: d827 e7bd b4d0 10be ed35 7e3e 5168 be3d
00000070: 1d1b 47be 0954 d93d 800e ea3d 409a 68bd
00000080: 4997 bebe 1ef1 19be 1199 a5bd 3caf 9f3e
00000090: aec9 353e 2c47 483e ca66 f93d 1d89 093c
000000a0: 0d2a 963d dc3c 5cbd bd76 c7be 558c f6bd
000000b0: 6576 1a3d f781 a83d 11a1 04be 8dfb d8bd
000000c0: 1484 913e bc98 6bbd 1c50 6cbd d8be c3bd
000000d0: d382 f03e 46d4 eb3b 4a09 b13c 39cf 68bb
000000e0: d156 d9bd ed08 4cbe 6092 adbd 0013 e2be
000000f0: 4704 1ebe e455 96bd e9c3 ed3d 6e82 2abe
00000100: 2add fa3d 85b2 22bc 8c86 78bc 42b0 9ebe
00000110: fc61 873e 1d24 373e c82b acbc 875a eb3b
00000120: 8141 6b3e 1cf3 20be dfaa 1dbe ecba 7dbd
00000130: 7745 bf3d e8a3 11bc e994 003e 054d 043e
00000140: 3fa5 903b 9cd4 c03c d2c2 92bd 0d44 853e
-0.20997733 -0.32616732 -0.059894297 -0.08303061 0.006174259 -0.017153174 -0.11889606 0.26475388
0.63312167 0.0758561 -0.061463892 -0.009222627 0.1328659 -0.0063684555 0.2089532 -0.19120048
-0.19648299 0.43369272 -0.14931136 -0.080611475 0.20840663 -0.0729914 -0.10124897 -0.10191992
-0.112868965 -0.14142114 0.24825259 0.092972405 -0.19443937 0.106117316 0.11428547 -0.05678773
-0.37224796 -0.15033385 -0.08085836 0.3118838 0.17752716 0.195584 0.121778086 0.008394507
0.07332239 -0.053768978 -0.38957778 -0.12038485 0.037710566 0.08227914 -0.12952067 -0.105948545
0.2842108 -0.057518706 -0.057693586 -0.09557885 0.4697481 0.007196936 0.021610875 -0.0035523905
-0.10612262 -0.1992528 -0.084751844 -0.4415512 -0.15431319 -0.07340601 0.116096325 -0.16651317
0.12249215 -0.009930258 -0.015168797 -0.3099385 0.26441944 0.1788487 -0.02101697 0.0071824226
0.22974207 -0.15717739 -0.15397213 -0.06194584 0.09339421 -0.008889176 0.12556805 0.12920006
0.00441423 0.02353888 -0.07166065 0.2602848

fc3.weight f4 [10, 84]
00000000: 3fc1 6abe 920c 7bbe 13d3 c43e f0e5 dcbc
00000010: fcf9 103e e0f8 533f 4847 c0be d48a c5be
00000020: 531d 22bf 2b61 8ebe 18f6 2a3e fbe1 95bd
00000030: 976f 103d 736f b9bd cd39 653d 7843 a63d
00000040: f793 e2be 9d0c cd3e 5369 e53d 61b5 60be
00000050: f5a6 31bf 189d 8dbe 7b36 bebe 2411 87be
00000060: 5ec8 ee3d 4432 20bf 20a8 95bc 4ddb dabe
00000070: 1952 10be ed91 19bf 3261 b5be 5673 283e
00000080: f9cb 353e 4ee7 3ebf 37d9 7bbe bdaf d63d
00000090: b780 36bc ec54 7cbc 400b 43be b8e1 e13e
000000a0: 4d60 da3d f963 083f a3d7 6d3e 4984 d13e
000000b0: 4c7b 853e 28e3 8abe fc36 493c 26bc 6cbe
000000c0: 839a 08bd 9f81 8a3e 4fdb 9f3e 1790 223d
000000d0: e4a8 cabe b729 17bf 2a13 c3be b25a 3b3e
000000e0: 0e67 93bd 4212 05bc 044d 143e 05f8 033e
000000f0: d487 aabe 0c2f b73e 681c 033e 3df1 15bf
00000100: b7ee bb3d 6b2f 8cbe 43a6 37bd 3320 96be
00000110: 5f2b 37bf a5c1 403e 9891 c43e ef22 cb3f
00000120: 8b5e 37be 6761 e1bd 1234 d73e bd0d 2e3f
00000130: 03fc c13d 428a 453e 279b de3d eac2 edbe
00000140: cc6c 213f d9f5 bcbd e4c1 6bbc 3e21 6c3e
00000150: efd6 c43e 4a5a db3d 2d9e c6bd 5df2 cf3d
00000160: d88f 433e a31f 07bd 86b6 03bf 205b 963f
00000170: bfd1 1b3e f33e a33e 50ce b7bd 81fe 02bf
00000180: 9ac0 0bbf 8b72 3e3e 3cbc da3e 99f4 81be
00000190: 3b49 333f e9dc 8ebe 3907 06be b5b3 1c3f
000001a0: 8572 0c3f 393c 7abe 1045 003f 5202 a83e
000001b0: 6d86 1abe 2141 acbe 70cf bbbd 6c68 473f
000001c0: 25a1 d33e b74f 15bd c895 b33e 027a e43d
000001d0: e1d6 3bbe 4883 77be 3ef9 00bf 1fd5 a6be
000001e0: d4bc 3dbf 3413 dbbd b2dc 17bd eed4 803e
000001f0: 88a9 97be 5ff6 46be 013d 35be 1917 063e
00000200: 757d 94be 1ff9 14bf ad9f c73e e7e2 98be
00000210: fee3 e6be ce68 93be c908 8c3d 6491 9d3e
00000220: 57d7 ba3c 6014 473e cdcf ddbe 6d95 ebbe
00000230: 7218 d13e f9ee 9ebe 513e dfbc 32d3 1ebd
00000240: 1843 10bf 454d dfbe 2ea7 ebbe 6524 e53e
00000250: 0f11 303e 6f64 df3d edaf ffbe 176e a73f
00000260: d7c2 943f f9ea f7be cbb0 283d dae2 e4be
00000270: 9178 41be b23e cabe e608 3bbe 36bb e7be
00000280: a5bd 38be 5584 63bc 9982 87be 8136 353f
00000290: b030 38bd b8ac 0dbe c557 f73e 4a08 b1be
000002a0: 8759 f6bd a250 c3bd 918a 483e 84c8 b63e
000002b0: 383c 8e3e 04c2 9abd 0e07 2b3d 161b 00bf
000002c0: 7625 91bc 888f 0c3f 96ba 94be 414e e83e
000002d0: db6b acbe 062c a1be 9d21 f1bd 3061 5bbe
000002e0: 6d78 123f 4b05 a13d fb67 e93d 83d9 973e
000002f0: 1efc e73e 7fba e23e 71d8 4abe 4a36 55bd
00000300: d6e6 f4be ce15 57bc 6a24 2abf b046 1cbe
00000310: aa7e 22be ee60 a0be 82d3 e33d 66d0 a3be
00000320: 6348 5a3f a175 d43d 372a 3f3e 4f44 1cbe
00000330: 013e 613f e891 b23e bb13 81bd 9490 46bd
00000340: 11dd 163e 17df 52bd 764d 873e 81cd b73e
00000350: a67f f13e de70 81bd 1d09 60bd 1758 b2bb
00000360: 6215 053f c687 283e 65fd 04bf 025a 0abe
00000370: a297 96be bc71 083f e945 36bc 8012 b4bd
00000380: f171 83be d803 f23d 2658 c3bd 3837 983d
00000390: ab1b 93be 0f2f 723d 5a9c c03c a6e3 babe
000003a0: 3a4b 3bbe d2a6 d9be 42e2 263d 1882 26be
000003b0: 32f1 9e3d 68fc cb3e 36f7 13be 8a01 013f
000003c0: f714 87be aef9 69be 6b0b 1e3e 8601 aebe
000003d0: 8254 47be 09da 61be 673e 2c3e 224d e6bd
000003e0: 9913 27bd 4e14 293e 349d 803d a7d8 87be
000003f0: 8707 d2bd 14b5 93bd fc94 a9be 2d38 d63c
-0.2292528 -0.24516514 0.38442287 -0.026965111 0.14157861 0.8280163 -0.37554383 -0.3858248
-0.63325995 -0.27808508 0.1669544 -0.07318493 0.03526267 -0.090544604 0.055963326 0.081183374
-0.44253513 0.40048686 0.112017296 -0.2194419 -0.6939538 -0.27658916 -0.3715094 -0.26380265
0.11659311 -0.625767 -0.018268645 -0.42745438 -0.14093818 -0.5998829 -0.35425717 0.16450247
0.1775359 -0.7457169 -0.2459458 0.10482738 -0.011139086 -0.015401106 -0.1904726 0.44117522
0.10662899 0.53277546 0.2322679 0.40921238 0.2607063 -0.2712643 0.012281176 -0.23118648
-0.03335048 0.27052018 0.31222007 0.039688196 -0.39581978 -0.59048027 -0.3810056 0.18296316
-0.071973905 -0.008122029 0.14482504 0.1288758 -0.33306754 0.3577808 0.12803805 -0.58571225
0.091763906 -0.27379927 -0.044836294 -0.2932144 -0.71550554 0.1882387 0.3839233 1.5870036
-0.17907159 -0.11004906 0.42031914 0.6798971 0.094718955 0.19291022 0.10869437 -0.4643777
0.63056636 -0.09226579 -0.014389489 0.23059556 0.3844523 0.10710581 -0.096981384 0.10153649
0.19097841 -0.032989156 -0.51450384 1.1746559 0.1521673 0.31883964 -0.08974898 -0.5116959
-0.5459076 0.18598382 0.42721736 -0.25381926 0.70033616 -0.27902916 -0.13088693 0.6121171
0.5486224 -0.24437036 0.5010538 0.3281427 -0.15090342 -0.3364344 -0.09170425 0.7789371
0.4133388 -0.036452975 0.35075212 0.11156084 -0.18343689 -0.24171174 -0.50380313 -0.32584473
-0.74116254 -0.10697022 -0.037075706 0.25162452 -0.2962153 -0.1942992 -0.17699052 0.13094749
-0.29001966 -0.5819263 0.3898901 -0.29860613 -0.4509582 -0.28790897 0.06837613 0.30774987
0.02280776 0.19441366 -0.43322602 -0.4601244 0.40838963 -0.31041697 -0.027251394 -0.03877563
-0.56352377 -0.4361364 -0.46025985 0.4475433 0.17194007 0.10907828 -0.49938908 1.3080472
1.162196 -0.48421457 0.041184228 -0.44704324 -0.18893649 -0.39500958 -0.18265113 -0.45260018
-0.18041094 -0.013886531 -0.26466826 0.7078629 -0.044968307 -0.13835418 0.4830915 -0.34576637
-0.12028795 -0.09536864 0.19584109 0.35699856 0.27780318 -0.07556537 0.041754775 -0.5004133
-0.017718058 0.5490651 -0.29048604 0.45372203 -0.33676037 -0.314789 -0.11773989 -0.21423793
0.57215005 0.07862338 0.11396786 0.29658136 0.45309538 0.4428291 -0.19809128 -0.052053727
-0.47832364 -0.013127757 -0.66461813 -0.1526134 -0.15868631 -0.3132395 0.11124326 -0.31994933
0.85266703 0.103739984 0.18668447 -0.15260433 0.87985235 0.34876943 -0.063025914 -0.048477724
0.14732768 -0.051482286 0.26426286 0.35898975 0.471677 -0.06320356 -0.05469619 -0.00544263
0.5198575 0.16458043 -0.5194915 -0.13510898 -0.29412562 0.53298545 -0.011125066 -0.08792591
-0.25672868 0.118171394 -0.09538297 0.07432407 -0.28732046 0.05912691 0.023512054 -0.36501807
-0.18290415 -0.42510086 0.04074312 -0.16260564 0.07760848 0.39841008 -0.14449772 0.50392973
-0.26383182 -0.22849151 0.15434043 -0.33985537 -0.19465831 -0.2205583 0.1682068 -0.11245181
-0.040790174 0.16511652 0.06279984 -0.2653248 -0.10255342 -0.07212272 -0.3312148 0.026149834

fc3.bias f4 [10]
00000000: 3cd0 6bbf 3cdf 2bbf c0bd 7f3e 0f16 873f
00000010: cb00 ac3f f5ff 70bf 41ea 6b3f 1a00 75bf
00000020: 8bd9 083f 61d7 cdbe
-0.92114615 -0.67137504 0.24974728 1.0553607 1.3437742 -0.9414056 0.9215432 -0.9570328
0.53456944 -0.40203384
