round4/2025-04-18 18:28:50-weight-client-cbdb25ac-5.pth (torch, 252478 bytes, 10 tensors)

conv1.weight f4 [6, 3, 5, 5]
00000000: 68f1 b6be 4a31 54bf abc9 19be 8818 01bf
00000010: a795 48bf c314 153c 05d1 cdbe 9220 603e
00000020: 2f33 38be f9ce 0cbf 8359 9bbd e32e 0fbf
00000030: 3e58 27bd 0a64 6dbe 3059 48bf 28e1 853e
00000040: 532c 80be 7e56 d43e 1ae2 c93c 66a7 7dbf
00000050: 2004 f53e 479f 2c3f 75ba 5c3f 4b4b 393e
00000060: c3f4 66be 08f9 4f3f a12e 083f 16e1 983f
00000070: fb31 423f b98a 043f e237 b83f 2948 b53f
00000080: e9db f43f 3e96 ba3f 6cd1 643f 7f9f af3f
00000090: 8707 873f 7daa d93f e56f c13f fdc1 333f
000000a0: 18c1 b13f cf4f 943f 8d32 f03f 6bbe 9c3f
000000b0: 30e3 743e fd61 a03f efc8 d83f 0cf1 f63f
000000c0: 6c6f a23f d1fa 133f 9bb6 9abf cd70 80bf
000000d0: 1324 debe 436d 85bf 722a 97bf 3fc2 1dbf
000000e0: 5000 18bf f5e8 5fbe 8fe1 0abf 920d a3bf
000000f0: 1d84 6cbf 8280 78bf b2ae 07bf c9d6 51bf
00000100: 0e80 bfbf 55a0 68bf 983f 8ebf 5dc5 0fbf
00000110: 66e9 89bf 9cca 01c0 093f 8dbf bc61 28bf
00000120: fbf8 edbe 085b 9ebf bf01 f2bf 6319 d73e
00000130: d5fb 16be bdae 593f add9 493f 7ceb 053f
00000140: 0f19 8d3e ed7e a8be 9f8e 3e3f 7d04 7b3f
00000150: 50ba 843e 5920 2a3d 9bde 94be ca6e 3e3f
00000160: c643 a33f baf9 2bbb 3acd 34be ac5f b73e
00000170: 6b49 a53e 2b20 e53e f2f5 d93d 01dc 91be
00000180: 41f0 f13e 53e6 e33e ed11 813e 48d0 ab3e
00000190: 8c2c 8a3f 6469 423f 829a dd3f f2de fd3f
000001a0: ef2b c03f 6929 733f d56e 3f3f 0427 d93f
000001b0: 4ab5 1540 2dce 9f3f d8b0 5a3f eb62 3d3f
000001c0: 0d0a f83f ad3c 1c40 d796 8c3f 2b3b 373f
000001d0: c4c5 973f 4d5e bf3f a827 c53f c1f5 843f
000001e0: 3c44 aa3e dedb af3f dc34 b43f 406f ba3f
000001f0: d596 913f 9534 70bf d56a 9fbf 874b 82be
00000200: 04df 46bd 6331 0abf a13f 78bf 4cc3 b4bf
00000210: ad03 e9bd d1a7 7abd 03a2 63bf 8891 a5bf
00000220: d94d acbf 00b2 d8be 09cd 913d 9aac 91bf
00000230: 583a c5bf e6d9 70bf 8114 6abf af50 4dbf
00000240: a28e a5bf 479c e5bf 107d 87bf d173 53bf
00000250: 7e97 72bf 71e0 9dbf d48d 733e 347a 043f
00000260: ebfa 1c3f 4026 b33e e5a4 04be 3aba d83e
00000270: e1fb c93e 7a9a d23e b8a8 ae3e 24f5 233d
00000280: c1c6 37be 1983 96be b899 e1be f233 b9be
00000290: 9762 45bd 2ffe 3ebf 3218 ccbf dbb0 d5bf
000002a0: 26cb a3bf 21e7 1ebf 4aad 63bf 4b42 adbf
000002b0: 063d d3bf 3463 97bf b629 12bf 3288 793e
000002c0: 1971 4d3f 0c40 6b3f 42ce bd3e f05b cdbd
000002d0: 2560 e43e 68ec 223f 266f 463f 09cb 963e
000002e0: 7848 85bd e002 84be dbca 8bbe e4ff 6fbe
000002f0: fef4 a3be 6614 acbe f0e8 95bf c2aa b7bf
00000300: 9cb4 bebf 98c5 95bf 95ca 28bf ee70 89bf
00000310: 9c99 c5bf a2af aebf 5a70 96bf 51ef 3bbf
00000320: 268a d83f 831a 0940 1c02 0c40 884e ff3f
00000330: 09bd 553f c642 de3f 2661 0540 f989 0740
00000340: 6057 eb3f 300f 9e3f 4d35 bb3f 4f08 a53f
00000350: 54db ae3f 2da3 9f3f dcfd 7f3f 2475 123e
00000360: f3b1 48bc 9509 b93d 44c9 4f3e 4d14 053f
00000370: aa18 9c3e fbd4 d3bc 1efd 403d 7f59 473e
00000380: 5a0f 773e 0695 29bf dd79 26be 9f7e f23d
00000390: fc61 00bf e918 6bbf 9d81 b93e 6c20 523f
000003a0: da2c 263f 9aca 5e3e 5831 4f3d c1b6 ca3e
000003b0: 4c7f 2c3e 03a3 6a3e 65b2 29bd 162c a1bd
000003c0: c944 24bf f116 87bf 331a 7dbf ebb0 15bf
000003d0: 7a95 dabe b873 49bf 6fc4 a8bf 7922 a6bf
000003e0: 6567 83bf a80b 24bf 5192 20bf f52f a53d
000003f0: 32d2 653e 23f7 cfbc a14b 3ebf 32ba 063f
-0.35731053 -0.8288771 -0.15018336 -0.50428057 -0.7835335 0.009099188 -0.40198532 0.21887425
-0.17988275 -0.55003315 -0.075854324 -0.5593092 -0.04085564 -0.23182693 -0.7826109 0.26148343
-0.25033817 0.41472238 0.024643946 -0.99083555 0.4785471 0.6743054 0.8622201 0.18095128
-0.22554307 0.81239367 0.5319615 1.1943691 0.75857514 0.51774174 1.4392054 1.4162647
1.9129611 1.45771 0.8938205 1.3720549 1.0549172 1.7005154 1.5112273 0.7021788
1.3887053 1.1586856 1.8765427 1.2245611 0.2391479 1.2529904 1.693632 1.9292312
1.2690253 0.5780459 -1.2086977 -1.0034424 -0.43386897 -1.0423969 -1.1809828 -0.6162452
-0.59375477 -0.2186621 -0.54250425 -1.2738516 -0.9238909 -0.9707109 -0.5300094 -0.8196836
-1.4960954 -0.9086965 -1.1113157 -0.5616053 -1.0774353 -2.0279913 -1.1034862 -0.6577413
-0.4647902 -1.237153 -1.8906783 0.42011556 -0.14744504 0.85032254 0.7884777 0.52312446
0.2755818 -0.32909337 0.7443637 0.98053724 0.25923395 0.041534755 -0.29076084 0.743878
1.2755058 -0.0026241378 -0.17656413 0.3581518 0.32282576 0.44751105 0.106426135 -0.28488162
0.47253612 0.4451166 0.2520899 0.33557343 1.0794845 0.75942063 1.7312777 1.9833663
1.5013407 0.9498506 0.7477849 1.6965032 2.33919 1.2484795 0.8542609 0.7397906
1.9378067 2.4412034 1.0983533 0.7157466 1.1857228 1.4950653 1.5402727 1.0387498
0.33255184 1.3738973 1.4078631 1.4565201 1.1374155 -0.93830234 -1.2454478 -0.25448248
-0.048552528 -0.5398161 -0.9697209 -1.41221 -0.11377654 -0.0611952 -0.88919085 -1.2935038
-1.3461257 -0.42323303 0.071191855 -1.1380799 -1.540843 -0.94082487 -0.91437536 -0.8020124
-1.2934153 -1.7938317 -1.0585041 -0.82598597 -0.9476241 -1.2334119 0.23784572 0.5174897
0.6132037 0.3499012 -0.12953527 0.4232958 0.3944998 0.4113348 0.34113097 0.040028706
-0.17946912 -0.29396895 -0.4406259 -0.36172444 -0.048189726 -0.74606603 -1.5944884 -1.6694597
-1.2796371 -0.62071425 -0.88936293 -1.3535856 -1.6502998 -1.1827149 -0.57094896 0.2436836
0.802507 0.918946 0.37071425 -0.10027301 0.44604602 0.6364198 0.7751335 0.2945178
-0.06507963 -0.25783443 -0.27303204 -0.23437458 -0.32022852 -0.33609313 -1.1711712 -1.4348986
-1.4898868 -1.1700926 -0.65934116 -1.0737588 -1.5437503 -1.3647349 -1.1753037 -0.7341204
1.691716 2.1422431 2.1876287 1.9945841 0.8349157 1.7364128 2.0840545 2.1177962
1.838604 1.2348385 1.4625641 1.289316 1.3660684 1.2471672 0.99996734 0.14302498
-0.012249458 0.09035031 0.2029162 0.519841 0.30487567 -0.025858393 0.04711639 0.19467734
0.2412695 -0.66243017 -0.16257425 0.11840557 -0.5014951 -0.91834885 0.362317 0.8208072
0.6491219 0.21756974 0.050584167 0.39592555 0.16845435 0.22913747 -0.041429896 -0.07869737
-0.6416746 -1.0553876 -0.988681 -0.5847308 -0.42692167 -0.786922 -1.3184947 -1.297927
-1.0265929 -0.64080286 -0.6272326 0.08065788 0.22443464 -0.025386399 -0.7433415 0.5262786

conv1.bias f4 [6]
00000000: 48cd 9fbf f808 41bf 8577 2dc0 c18b bbc0
00000010: bcf2 11c0 67d2 f63f
-1.2484522 -0.7540431 -2.71042 -5.86081 -2.2804403 1.928296

conv2.weight f4 [16, 6, 5, 5]
00000000: 544d 80be 36ae debe 0e90 28bf 14c6 26bf
00000010: 19df 62bf 160e 49be 060d fdbe 5d2d e9be
00000020: d872 9bbe a478 09bf fab7 e7bd d5b7 26be
00000030: 115e ddba 48f2 ec3d f46d 563d b114 003f
00000040: 336c bc3e ea12 873e e32d d63e a1a2 c03e
00000050: 7bd8 173f c759 013f e077 ed3e 4ee0 003f
00000060: a1f3 013f 9192 94be 6911 e2bd 9ede a63e
00000070: 158a b63e e8f5 163e 1a3d b3bc e3c9 ec3d
00000080: fc50 993e 7a2d 2b3d f055 71be 3455 a2bd
00000090: 45ee e63d af59 9e3c e5cc 03be 126a a9bd
000000a0: 72ca b63d a5ff a03e 4322 d03e 2a0b a63e
000000b0: 6a87 f03e b649 023f caa3 253f 9d5e 293f
000000c0: dd54 ee3e bb1a 183f d72c 06bd c1da ebbd
000000d0: 0875 3abe 90ad bbbd d2c4 353e 0bdd 743d
000000e0: 5eaa e03d 9a87 ac3c fd70 153d 23e4 d33d
000000f0: cf58 41bc 3647 3e3d 7f7e 853d ae83 90bd
00000100: f706 50be bc2f 30be 5aad a2bc 9364 333d
00000110: f6d2 1bbd f514 55be a546 d4bd e8ae 553e
00000120: bdea bb3e 4ec1 413e b15d 29bd 1a01 0fbd
00000130: 8ed4 07bf c6c6 02bf 1e02 95be 4c0f e3bd
00000140: 6a50 18bf aa7c 2bbf db64 23bf 19ef b8be
00000150: 72dc f03b 7581 71bf 67df 5fbf b700 3fbf
00000160: 4270 f1be b632 babe 9ed6 babe 3d73 b5be
00000170: 9aba e0be 2f07 a3be 6451 803d 2604 d93d
00000180: 4a12 18be 4253 65be 4d30 a7bd a62b d23e
00000190: 5555 ddbe 57fb 24bf 8655 4dbf f52b 38bf
000001a0: dc96 46bf 38b7 53bf 05cb 79bf 2123 82bf
000001b0: 9959 5bbf 9f9c 3abf 9b5b f3be 44d9 2dbf
000001c0: e5d6 b1be 736a 62be da4d 42be c80d b23e
000001d0: 3654 af3e 1eff 913e 75e1 883e 662f ea3e
000001e0: 337d 3d3f dfb9 093f cba1 103f 74c2 033f
000001f0: 6492 113f 7485 683d c983 863e 3d4e ae3e
00000200: 0d8d e33d 4a31 b0bd 83e5 483e d5f1 043e
00000210: 45ac 0ebe 30ae 20be 2e92 8fbd 5ef8 5ebe
00000220: bfeb c5be 3dac bfbe 5c9f a9be 4727 37be
00000230: 5260 2cbf e854 1bbf c8a9 16bf 725b 07bf
00000240: ea90 9bbe 02f2 efbe cc9f a4be e76c cabe
00000250: 5a13 a7be 714c b2be 7395 b33e 7504 0f3f
00000260: fd19 023f f2cc 833e dddc b6be e563 013f
00000270: e42c dd3e 8163 273f d075 0c3f e9aa a3be
00000280: f415 933e d4a8 bd3e bc47 303f 15c1 033f
00000290: 24eb 38bf 66d5 3a3e f015 c83e a7f6 3a3f
000002a0: 6ce8 9d3e adac 32bf b18c 58bc a745 023e
000002b0: 58ac 3c3c 1f58 9abe 777b 21bf ac2c 293f
000002c0: e4be a83e c9f9 b23e cd71 5c3e 1d30 bfbe
000002d0: aaca 6c3f f802 683f e7f0 5d3f 03e2 d03e
000002e0: ef45 adbe 4bc7 5f3f 3338 4a3f 2cdb 553f
000002f0: 88ac bb3e 3f08 ccbe 9d4a 833f d4bf 653f
00000300: b627 1f3f 8ae8 943e 39d6 43bc 5a8c 433f
00000310: 917e 0b3f 275e b63e 8151 1a3d e8ea 27be
00000320: f712 3ebf fcc5 10bf 0725 35bf 8c4d 3abf
00000330: 7312 39bf 03ee 2bbf 34eb 2fbf 8e86 3fbf
00000340: 8e9c 6bbf 08c8 53bf eece 21bf 372e 1fbf
00000350: 7ed7 1fbf 3f1b e4be 4967 9fbe 6e04 75be
00000360: 3239 d8bd dd18 9ebe 183d 2abe 8454 ca3d
00000370: a538 4cbf b8df 49bf 9762 5cbf b89e 36bf
00000380: 2d0b ddbe 4ffe 93bf a5c0 7dbf 63b5 ddbd
00000390: 221c 483f bafe a03f 9136 a0bf cf97 98bf
000003a0: 87ef bd3c b642 ae3f c6b8 cd3f 9350 b2bf
000003b0: b90c b7bf 8ce3 dfbe d3ec a13f c34f c93f
000003c0: 0c04 9dbf d724 71bf 9a0a d5bd c9a2 6b3f
000003d0: be17 993f c8a4 74bf e214 bebe d861 cf3d
000003e0: 8fab ec3e 759c 393f 08d9 6fbe e7c5 c3bd
000003f0: 08e3 aabe e63f a6be 0eb1 38bf babf 943d
-0.25058997 -0.43492287 -0.6584481 -0.65145993 -0.8862167 -0.1963428 -0.49424 -0.45542422
-0.30361056 -0.5369971 -0.113143876 -0.16281064 -0.0016888996 0.11569649 0.052350953 0.5003157
0.368013 0.26381618 0.41831884 0.37624076 0.593147 0.50527614 0.4638052 0.5034226
0.50762373 -0.2901807 -0.11038477 0.32591718 0.35652223 0.14742243 -0.021879721 0.11561944
0.299446 0.041791417 -0.23567939 -0.079264075 0.11275915 0.019329874 -0.1287113 -0.082721844
0.08925332 0.3144504 0.4065114 0.32430393 0.46978313 0.50893724 0.6470305 0.66159993
0.4654912 0.5941579 -0.032757606 -0.11516333 -0.18208706 -0.09163964 0.17750862 0.059781116
0.10969995 0.021060754 0.036484707 0.10346248 -0.011800959 0.04645463 0.06518268 -0.07056366
-0.20315157 -0.17205709 -0.019858051 0.043797087 -0.038042985 -0.20808776 -0.10365037 0.20867503
0.3670253 0.18921396 -0.041349117 -0.03491316 -0.5305871 -0.51084554 -0.29103178 -0.11086902
-0.594977 -0.669871 -0.6382577 -0.36119917 0.007350498 -0.9433816 -0.8745026 -0.74610466
-0.47155958 -0.36366814 -0.36491865 -0.35439482 -0.43892366 -0.31841418 0.06265524 0.105964944
-0.14850727 -0.22395042 -0.081635095 0.41048926 -0.43229166 -0.64446014 -0.80208623 -0.71942073
-0.77573943 -0.82701445 -0.9757541 -1.016697 -0.8568359 -0.72895235 -0.47530827 -0.67909646
-0.34734264 -0.2211092 -0.1897501 0.3477614 0.34243935 0.2851495 0.2673451 0.45739287
0.74019164 0.5379924 0.56496876 0.51468587 0.56864 0.056767896 0.2627242 0.34044066
0.11110888 -0.08603151 0.19618802 0.12982877 -0.13932903 -0.15691447 -0.070103034 -0.21774432
-0.38656422 -0.37436095 -0.33129394 -0.17886077 -0.67334473 -0.6067643 -0.58852816 -0.5287391
-0.30383998 -0.46864325 -0.32153165 -0.3953621 -0.32631952 -0.34823945 0.35074958 0.55866176
0.50820905 0.25742298 -0.3571538 0.5054305 0.4319831 0.65386206 0.5486727 -0.31966332
0.28727686 0.37042868 0.6885946 0.51466495 -0.72233796 0.18245468 0.39079237 0.7303261
0.30841386 -0.6979473 -0.013217137 0.12721883 0.011515699 -0.30145356 -0.6307902 0.6608379
0.32958138 0.34956196 0.21527787 -0.37341395 0.9249674 0.9062953 0.8669571 0.40797433
-0.33842418 0.8741347 0.78992003 0.83537555 0.36655068 -0.3985004 1.0257145 0.8974583
0.6216997 0.29083663 -0.01195293 0.76386034 0.5449 0.35618708 0.037675384 -0.16398203
-0.7424769 -0.565521 -0.70759624 -0.7277458 -0.72293776 -0.6716005 -0.68718266 -0.7481469
-0.9203576 -0.827271 -0.63206375 -0.62179893 -0.6243819 -0.44552037 -0.31133488 -0.23927471
-0.10557784 -0.30878344 -0.16624868 0.09879401 -0.7977393 -0.7885699 -0.86087936 -0.71335936
-0.4317259 -1.1561984 -0.9912208 -0.108256124 0.7816793 1.2577736 -1.2516652 -1.1921328
0.023185505 1.3614109 1.6072013 -1.3930839 -1.4300758 -0.43728292 1.2650398 1.5727466
-1.226686 -0.9419684 -0.10402413 0.92045265 1.196037 -0.95563936 -0.37125307 0.10126084
0.4622464 0.7250436 -0.23422635 -0.09559231 -0.33376336 -0.32470626 -0.72145164 0.072631314

conv2.bias f4 [16]
00000000: 1a38 16be 9350 f03e 451c 38bf 429d 1c3f
00000010: f70a bdbf 9fa1 53bf cff6 a23e 852f ff3e
00000020: 0004 11bf 5949 21bf 435b 03bf 2641 a9be
00000030: 25b3 76bf 2273 743e 7d1e 5d3d fd95 8ebd
-0.14669839 0.46936473 -0.71918136 0.61177456 -1.4768971 -0.8266849 0.31828925 0.49840942
-0.5664673 -0.63002545 -0.5131113 -0.33057517 -0.963671 0.23872045 0.053984154 -0.06962202

fc1.weight f4 [120, 400]
00000000: f2c2 ab3b 9586 a9bd 84a3 34bc d014 cb3c
00000010: bd75 71bd fc42 093c c580 67be 93e1 90bd
00000020: 318b a6bd 5784 41bd 19bc c6bd a48b 06be
00000030: 32c6 10bd 942c 9cbd e2b0 853b fd31 24bd
00000040: 5933 43bc bb7d da3b 830d 2e3e d3f2 333e
00000050: 279a 113e 534c 023e da88 553e 2c98 c93d
00000060: 1268 953e 3601 8d3b c923 a7bd cbd0 3dbe
00000070: 0195 d1bd 2888 c5be 7f47 18bd 07a9 0dbe
00000080: 1a0a 06be f31c 27be 6f5c 70be 1308 33be
00000090: 1a9f 18be dee3 a03d de4f f0bc 5e06 3cbe
000000a0: f02e 99bd 84e2 d43c 9f55 cd3b c654 4f3d
000000b0: 5f48 79be 94cd a9bd cb7e 83bd 600b 46bd
000000c0: 512a 073d d53d 19be c1e4 43be 1570 33be
000000d0: 8cf7 a1be 80b6 4fbe 17a3 72be 7e80 663c
000000e0: 28ca 423d e84e 60bc ed60 00bd 89b8 2e3b
000000f0: 902a 103e baf2 593e b0f7 153e 1320 3b3d
00000100: 3c17 e7bd bc7c 803e 46bc 5f3e 2922 d83e
00000110: 9ded fb3d 9b36 54bd 1353 4f3e a1da 913e
00000120: 8efb a43e dd7f 103e 1efe a0bd 1dc0 f23d
00000130: 3177 343d 6e51 fdbc 2f44 2d3d 3560 a03d
00000140: 218d 303e 29fb 093e 58f4 ca3c e187 0d3e
00000150: 2773 fb3d ffb5 843e 94c4 2e3e 5ff3 243e
00000160: 2cea 7f3d 4837 343d bc9b 963e 1cca 673e
00000170: 7c8a 403e cbb9 0c3e 9160 8b3e e63f 8b3e
00000180: 4d3c 503e 5abb 443e cf3b 933e ca57 c33e
00000190: 5180 34be 9fd7 18be 3988 0dbe d04d 36be
000001a0: affd 94bd 382f f2bd ae62 80be 3dc2 93be
000001b0: 7e02 33be fd73 4abd 9c3f 08be 59f2 fabd
000001c0: 6a75 68be 0f0d 54be 4b21 a7bd fec4 773d
000001d0: 7730 203d de68 8dbc dd16 383d 1279 613d
000001e0: f8eb 2d3e 90eb 153e 1a11 083e 2ad2 7a3e
000001f0: 6681 223e b0ce 8d3d 7e51 993d d637 20bd
00000200: 3923 d9bc 41ba 43bd 90ee 9c3c d338 473d
00000210: 4744 5e3b 6aa9 1cbd eeca 05be 7083 b4bd
00000220: 46fe 61bd 9bdf e13a 6e2c ef3b 3e2a c3bc
00000230: 4888 abbd 289f 40be eb03 c2bc cb8d cfbd
00000240: 749e 9ebd 446c 143d 9aa8 dab9 3615 e3bd
00000250: 437f 2ebe 6b6b a8bd 0092 ad3c 49aa d1bd
00000260: 874d 953d c5ea 973e c4a5 4a3e a8d9 8a3c
00000270: d8a7 813c fddf 843e 09ca 223e 8344 4abc
00000280: ab94 4c3d 3887 a43d cc10 553d 955e 073d
00000290: 797a 993d b4e1 083e 93b2 053c a660 1b3c
000002a0: e6f6 9f3c e14d 4b3e 5979 703d a26c 053b
000002b0: 7219 013e 2893 d4bd cc0c 943e 8a24 29be
000002c0: a3a3 5abd 87e1 d9bd 745b 05be a3f4 72be
000002d0: b85b cbbd b03a 6b3d a69e 9f3d c7cc 3fbc
000002e0: 4c92 3bbe 499c f6bd 14f0 823e 5c5b 813d
000002f0: 34c4 d1bd f551 9cbe 3c17 79bc ae1a 073e
00000300: 53f4 993d aa85 c63d e89b d4bd 4092 fabc
00000310: c81e b03d 5888 c0bd 1e32 e5bd 3538 1fbe
00000320: abd4 64be 5676 cfbd bfb7 4bbe a2c0 a4bd
00000330: 5a97 10be 7eba 64be 9b89 b5bd 1705 16bd
00000340: 1665 bfbc 4fe7 853d 9257 07be cb15 36be
00000350: da32 8abd 182d 913d e642 5c3d 6a37 71bb
00000360: 5ce0 493c fd69 fcbd 0618 1cbe 5639 aebd
00000370: c542 aebd 21cc 063e f70a 373d d982 a1bd
00000380: e9ff 2fbd 119d debd 0e3d 22be 1cfa 25be
00000390: 54c5 bdbd d087 bd3d 9f69 2c3e 7cfd 293e
000003a0: 71db 023c d4d2 0c3e 2ce0 073e c44b 8b3e
000003b0: 6b1e 683e e5c9 143e 4310 993d 0d16 393e
000003c0: 9001 843e 7a99 c63d 3a7a c43c 47d2 f83d
000003d0: 6cd5 2e3e f619 f93d 07ed 663e 797e 9f3e
000003e0: b1e8 8d3e 209d 983e 343c d83d a099 463c
000003f0: f72c 2e3e 262b 18be 4b52 fabd ec98 793c
0.005241745 -0.082776226 -0.011025313 0.024790198 -0.058950175 0.008377787 -0.22607715 -0.07074275
-0.081320174 -0.04724535 -0.097038455 -0.13139206 -0.035345264 -0.0762569 0.004079924 -0.040086735
-0.011914098 0.0066678203 0.16997342 0.17573099 0.1421896 0.12724428 0.20852986 0.098434776
0.29180962 0.004303123 -0.08161122 -0.1853668 -0.10233498 -0.3858044 -0.03717756 -0.1383401
-0.13089791 -0.16319637 -0.2347276 -0.17483549 -0.14904442 0.07855962 -0.029334959 -0.18361804
-0.07479656 0.025986917 0.0062663103 0.050617956 -0.24344014 -0.08291164 -0.06420668 -0.04835069
0.03299934 -0.14964993 -0.19130231 -0.17523225 -0.31634176 -0.20284462 -0.23695026 0.014068721
0.047556072 -0.013690688 -0.031342436 0.0026660284 0.14078736 0.21283999 0.14645267 0.045684885
-0.112837285 0.25095165 0.21849164 0.42213562 0.123011805 -0.05180989 0.20246534 0.28487113
0.3222317 0.14111276 -0.07860969 0.11853049 0.044058982 -0.030922618 0.042301353 0.0783085
0.17241336 0.13474716 0.024774715 0.13821365 0.12277823 0.25920102 0.17067176 0.16108464
0.062479183 0.043998033 0.2941569 0.22635692 0.18802828 0.1374275 0.27222112 0.27197188
0.20335503 0.19212094 0.28756568 0.38152915 -0.17627074 -0.14926003 -0.13821496 -0.1780312
-0.07274949 -0.118254125 -0.25075287 -0.2885913 -0.1748142 -0.04942702 -0.13305515 -0.122532554
-0.2270104 -0.20708106 -0.08160647 0.0604906 0.03910872 -0.017261919 0.04494368 0.055047102
0.16984546 0.14640641 0.13287774 0.24494234 0.15869674 0.06924188 0.074862465 -0.03911575
-0.026506053 -0.047785047 0.019156724 0.048638176 0.0033915208 -0.038247503 -0.13065693 -0.08814132
-0.055174135 0.0017232777 0.0072989976 -0.023823854 -0.08375603 -0.18810713 -0.023683509 -0.10134467
-0.07745066 0.036236063 -0.00041705818 -0.1108803 -0.17040734 -0.08223613 0.021187782 -0.102375574
0.07290178 0.29671302 0.19789797 0.01694949 0.015827104 0.2595214 0.15897383 -0.012345436
0.04994647 0.080336034 0.052017972 0.033049185 0.07494063 0.13367349 0.008160251 0.009483492
0.01952691 0.19853927 0.058709476 0.002035894 0.12607363 -0.1037963 0.28916013 -0.16517845
-0.053378712 -0.10638719 -0.13023168 -0.23726134 -0.09929603 0.057429016 0.07793932 -0.011706538
-0.18317527 -0.12041528 0.2557379 0.063162535 -0.10242501 -0.30531278 -0.015203293 0.13193771
0.07517304 0.09693463 -0.10381299 -0.030587316 0.08599621 -0.094010055 -0.111912 -0.15548785
-0.22346751 -0.10129993 -0.19894312 -0.08044554 -0.14120236 -0.22336766 -0.08864137 -0.036625948
-0.023363631 0.06538259 -0.13216999 -0.17781751 -0.067479804 0.07088679 0.053774737 -0.003680671
0.012321558 -0.12324903 -0.15243539 -0.0850703 -0.08508829 0.13163806 0.04468819 -0.07886285
-0.042968664 -0.10869802 -0.15843603 -0.1620869 -0.09266153 0.0925442 0.16837166 0.16600603
0.007986889 0.137523 0.13269109 0.27206242 0.22667854 0.14530142 0.07473805 0.18074818
0.25782442 0.09697242 0.023984063 0.12149482 0.17073601 0.12163155 0.22551356 0.31151178
0.27716592 0.29807377 0.10558358 0.012121588 0.1700934 -0.1486021 -0.122227274 0.015234213

fc1.bias f4 [120]
00000000: 94b3 303e 617f 9abc d5d7 833b 957a 4a3e
00000010: 7291 95bd c16f 86bd 9d01 e8bd 81b1 5b3e
00000020: 0096 6cbd 1b3b 9cbd 6c70 a2bd 9be2 c1bd
00000030: 719b 57bd bfc6 67be 3fb1 ee3d 64eb e9bd
00000040: 423c bb3b ea11 b4bc 2d36 4fbe e19f 913d
00000050: e13b 133e 1377 3abe e1be 34bd cd05 103e
00000060: fc39 1f3e 76da 1d3d db32 fcbd f3ea a7bd
00000070: cdbb 0fbe a86f 0a3e ced8 6ebd 3d17 0ebd
00000080: 120b a6bd 69d7 0bbe 562b 55be f4fb 153d
00000090: ee82 7b3d 5fef 1dbe b273 c0bc 06e1 0a3d
000000a0: b9ca 5bbd 0db2 0cbe 41b6 e3bd 9847 2dbe
000000b0: 6805 7d3e 30dc febd 2b90 aebc ae39 64bd
000000c0: b631 dcbd b89a 72be f0f6 0e3e b938 d63d
000000d0: 1943 95bc 5e7e 8fbd f328 733a 1b6e 083e
000000e0: 071c 58bd b48e d3bd 0384 68bd 16a3 3fbd
000000f0: ff83 013c 38ce 7bbe 91d3 36bd 20ee 003e
00000100: e2be 0f3d dba5 c73b 8577 cebd b0fb 963d
00000110: 7146 5a3e db14 163d 8cbd abbd 207e 113e
00000120: ab07 883d f187 ad3e 3ad3 953d bc98 ddbd
00000130: 5298 333e fc06 483e 1676 1ebe c13c bebd
00000140: d06c 85bd 0aa7 153d acaf 1a3e c40f 6bbe
00000150: 59de 2bbe 9b3f ad3b afa7 2b3d 86ee 0cbe
00000160: f3f9 893d 3458 763d 4f49 3c3e b244 7abe
00000170: 74bc 193e 96c5 863e a7d5 f0bd 56e9 6e3c
00000180: 2c34 9f3e 5f3b abbd 2411 2f3d be55 30be
00000190: d194 7ebe 28f8 75bd 2aa4 4c3e 7493 c0bc
000001a0: 8dac 423c e480 87bd 1bf5 91bd 2cc6 903d
000001b0: 75fb 843d 9dc2 593e c614 4abe 9598 cbbd
000001c0: 0bc0 083d c77d 42be 507d 95bd 8057 d1bd
000001d0: 4a59 75bd 0ec3 063e 1c02 65bd a18d 383d
0.17256004 -0.018859567 0.004023532 0.19773324 -0.07303132 -0.06564284 -0.11328433 0.21454431
-0.05776024 -0.07628461 -0.07931599 -0.0946705 -0.052638475 -0.2263441 0.11654901 -0.1142185
0.0057139704 -0.021981198 -0.2023551 0.071105726 0.1437831 -0.18209486 -0.04412735 0.14064713
0.15549463 0.03853842 -0.123143874 -0.0819911 -0.14036484 0.13519156 -0.05831223 -0.03469013
-0.0810758 -0.13656391 -0.20817313 0.036617234 0.06140416 -0.15423344 -0.023492668 0.033906005
-0.05366013 -0.13739796 -0.111187465 -0.16921842 0.24709094 -0.12444341 -0.021308979 -0.05571907
-0.10751669 -0.23691833 0.13961387 0.10460038 -0.018220471 -0.070065245 0.0009275816 0.13323252
-0.052761104 -0.10329953 -0.05676652 -0.04678639 0.0079050055 -0.24590385 -0.04463536 0.12590837
0.03509415 0.0060927696 -0.1008139 0.07372224 0.21315934 0.036640983 -0.083857626 0.14208269
0.066420875 0.33892778 0.07315679 -0.108201474 0.17538574 0.19533914 -0.15474734 -0.09288932
-0.06514895 0.036536254 0.15106076 -0.22955233 -0.16784038 0.0052871234 0.041907962 -0.13762864
0.06737127 0.06014271 0.1838734 -0.24440268 0.15013295 0.2632262 -0.11759501 0.014581999
0.3109449 -0.083609335 0.042740956 -0.17220208 -0.24861456 -0.060051113 0.19984499 -0.023507811
0.01188196 -0.06616381 -0.07126828 0.07069048 0.06493274 0.21265645 -0.19734487 -0.09941212
0.03338627 -0.18993293 -0.07299292 -0.102217674 -0.059899606 0.13160345 -0.055910215 0.045056943

fc2.weight f4 [84, 120]
00000000: 1888 83be 1ae3 cdbe c67e 50be fc28 813e
00000010: 30d5 82bd 17f6 32bd e438 91bd 670e 8bbe
00000020: fb10 b7bd e322 3fbe fba3 85be 475b 72be
00000030: f7cb 193d 332d 513e 9e86 16be e505 153e
00000040: b436 83be fa6e 8a3d d26a 03be 4bc9 67be
00000050: 235f f0be 683a dfbd 155c a9be 207d 5dbe
00000060: c89d 3d3b 536e 6bbe b774 48be abc0 efbd
00000070: a386 ac3d 0c26 5dbe 38de 813e 3a43 8fbd
00000080: 8e19 04be d0be 7a3e 39f7 123e e322 50be
00000090: 1076 723d 198e 943d 6a4c c2bd b7f8 c43d
000000a0: aab4 8bbd cecc 24be e89d ff3d 93a0 be3c
000000b0: 3cb8 02bf 46b2 62be ca74 ae3e 06cc eabd
000000c0: 5c5c 923e 832f a33d fce8 9f3d ab2b 06be
000000d0: 6750 70be 38bf b0be 7f46 1a3c 0459 6d3e
000000e0: 3402 ba3c 47e1 7d3e 15d9 573e a67b 993c
000000f0: 0c88 34be 3785 2d3e 24d6 04bd 086d aebe
00000100: feb7 aebd 3c8a 80be 5533 cc3d a615 9dbe
00000110: e66b 43be cc0b c63d a5dd a8bd 5e71 9abe
00000120: a0f5 f6bd 2d79 47be c067 89bc be49 1abe
00000130: 21f6 53be 1c04 3e3c 3cb8 8cbe f0c8 27bc
00000140: 75ed 08bd 2cc0 98bd 8399 a3be c789 2cbe
00000150: f953 96be 7f3b fcbd d8a2 a9bc 7e2f 11be
00000160: 4be1 e4bd 9356 4f3d 6344 6cbe 762b b6bc
00000170: e585 a83d abed c9bd 1377 29be 3239 21be
00000180: 3b9e 72be 46ca d53d 2898 dc3c 6eb9 b9bc
00000190: e3f6 c53d 08c2 a9bd 3d17 28be 4022 10bf
000001a0: 7148 60bd a882 a43d 5872 debd 8e1a 6d3e
000001b0: a0de 323d 8073 40be ca3d 5dbd 363f 15be
000001c0: 34a4 a8bd e0d1 87be 444a c13e 8edc cebc
000001d0: cb8d e9bd e882 e4be ccdc 73be 1ebb 6ebd
000001e0: 07a6 91be 60bb 803d c403 dc3d b67b d63d
000001f0: 72ad 8f3d 0e9b 80bc b165 48bc a7d1 97bd
00000200: 381f e13c 44d6 823e 5df8 343e a1c8 15be
00000210: 9322 0a3e 943c 0dbe 64e9 5dbd 5f94 cebd
00000220: 464e d3bb be5d 94bb b7de 723e c282 8d3e
00000230: 4bc7 b9be 8e93 1abe 8e5c 03bd 7f95 d2bd
00000240: acc0 30bd a584 a1bd 4f29 023e f4fc 4e3c
00000250: f731 3cbe c3e5 f2bd c74f ba3d 1849 a93d
00000260: c62f b3be a287 e9bd 41a6 473e c545 353e
00000270: 2dbb f1bd bad4 763c 7ecd 24be f6e4 dcbd
00000280: fbe5 7fbd 1ff3 993c 1e28 20bd 64d1 ffbd
00000290: 378f bcbe 88e6 743e 37d9 9cbe c976 b63c
000002a0: 31cb debd cd0c 0b3e 1f41 31be 99ec 19be
000002b0: 40eb bdbd 274e 2b3e cf6c 82bd b2af b03c
000002c0: 55e9 bebd bb4f 8d3c ea1a e43c 7fd4 e53d
000002d0: 90dc 97bd 9a2b 95bd 07ed f3bc d3e6 f7bb
000002e0: 7344 b3bd 421f 85be 1da4 bebd 5503 5dbc
000002f0: 5a7a 32bd aad6 273d 14ec 18be 50cb 33bd
00000300: 8fc8 053d 0d8c 7abe 3fa5 23be 00d3 363e
00000310: 5eea 3ebd 056f 82be edc6 45bd 8040 8d3d
00000320: 833d 85be 890c 1dbe 4e03 ddbd e7e4 9f3d
00000330: 9038 753b 495a 43bd b4ec c8bd a969 01be
00000340: 56af 3f3d efa4 0bbe c96f ee3c 83de 12bd
00000350: f597 52bd 6137 71be cce3 3b3e c831 1cbd
00000360: 436a 4abe 665f 023c 3f2d 5fbd ece4 d9bd
00000370: 61e6 78bd d108 9dbb 6059 25bc c462 1fbd
00000380: e2e9 87bd ac33 0abe c5df b2bd 5650 80be
00000390: c058 6abe 220d 71be 5e0d 41bd eea5 bebc
000003a0: b0af 0bbe f268 77ba d6f9 21be f307 a0bd
000003b0: c865 87be fad0 6bbe 74fa 7f3d d1e1 43be
000003c0: 9c0f 94bd 0e86 e13d 434c 883e 8e71 7cbd
000003d0: 3be7 ab3d 5858 c9bd 38ca 8b3d fc0e a6be
000003e0: 1b49 fbbb c831 883d c3a4 2cbe 0655 30bd
000003f0: 036f 9a3d 3ca6 11be 08af 8abe 588f 01bd
-0.2568977 -0.40212327 -0.2036086 0.2522658 -0.063883185 -0.04369172 -0.07090929 -0.27159426
-0.08938786 -0.18665652 -0.2610167 -0.23667632 0.03754803 0.20427398 -0.1469979 0.1455303
-0.25627673 0.06759448 -0.12833717 -0.22635381 -0.46947584 -0.10899812 -0.33078066 -0.21629763
0.0028933156 -0.22991304 -0.19575773 -0.117066704 0.084241174 -0.21596545 0.25364852 -0.06995244
-0.12900373 0.24486852 0.1435212 -0.20325808 0.059194624 0.072536655 -0.09487231 0.09617751
-0.06821568 -0.16093752 0.1248129 0.023269927 -0.5106237 -0.22138318 0.34073478 -0.11464696
0.2858609 0.079680465 0.0780811 -0.13102596 -0.23468171 -0.34520888 0.009416222 0.23178488
0.022706129 0.24792968 0.21078904 0.018735718 -0.17630023 0.16945349 -0.032430783 -0.3406756
-0.085311875 -0.25105464 0.09970728 -0.3068058 -0.19084129 0.09670219 -0.082454 -0.30164617
-0.12058568 -0.19479819 -0.016773105 -0.15067193 -0.2069936 0.011597659 -0.2748431 -0.010240778
-0.03342958 -0.07458529 -0.31953058 -0.16849433 -0.2936094 -0.123160355 -0.020707533 -0.14178273
-0.11175784 0.050619673 -0.23072962 -0.02223752 0.08228663 -0.09859785 -0.1654933 -0.15744475
-0.23693173 0.10438971 0.026928023 -0.022671428 0.096662305 -0.08288962 -0.16415115 -0.5630226
-0.054756586 0.08032733 -0.10861653 0.23154661 0.043669343 -0.1879406 -0.054014005 -0.14574894
-0.08234444 -0.2652731 0.37751973 -0.025251653 -0.11403998 -0.44631124 -0.23814696 -0.058283918
-0.2844698 0.06285739 0.10742906 0.10472815 0.07015504 -0.015698936 -0.012231276 -0.07413035
0.027480707 0.25554097 0.17672868 -0.14627315 0.13489752 -0.1379264 -0.054177657 -0.10086893
-0.00644854 -0.0045277765 0.23717771 0.27638823 -0.3628486 -0.1509535 -0.03207069 -0.1028242
-0.043152496 -0.07886628 0.1271107 0.012633551 -0.18378435 -0.1186023 0.090972476 0.08265895
-0.34997386 -0.11402823 0.19497015 0.17702396 -0.11803279 0.015065366 -0.16094014 -0.10785858
-0.062475186 0.018792687 -0.03910076 -0.1249111 -0.36828014 0.23916066 -0.30634472 0.022273438
-0.108785994 0.13579102 -0.17309998 -0.15031661 -0.09273386 0.16729032 -0.0636841 0.021568153
-0.09321848 0.017249933 0.027844865 0.11222171 -0.07415116 -0.07283707 -0.02977611 -0.007565358
-0.0875329 -0.2600041 -0.09308646 -0.013489564 -0.043573715 0.040976204 -0.14933807 -0.043895066
0.03266197 -0.24467488 -0.15981005 0.17853928 -0.04661023 -0.25475326 -0.048285414 0.06897068
-0.26023492 -0.15336813 -0.10791646 0.078073315 0.0037417747 -0.047693525 -0.098107725 -0.12637962
0.046798073 -0.13637136 0.029106038 -0.035856735 -0.05141445 -0.23556282 0.18348616 -0.038133413
-0.19767098 0.007957315 -0.05448651 -0.106393665 -0.06076658 -0.0047923108 -0.010092109 -0.03891255
-0.066364065 -0.13496274 -0.08734087 -0.2506129 -0.22885418 -0.23540166 -0.04713189 -0.02327248
-0.13641238 -0.00094379403 -0.15817961 -0.07814016 -0.2644484 -0.23028937 0.06249471 -0.19129111
-0.0722954 0.11011897 0.26620683 -0.06163173 0.08393713 -0.09831303 0.068256795 -0.32433307
-0.007668627 0.0665012 -0.16859727 -0.043049835 0.07540705 -0.1422357 -0.27086663 -0.031630844

fc2.bias f4 [84]
00000000: 8103 92be 638d c2be 2764 a4bd 36b3 ebbd
00000010: 2ab7 503d 0b4d 1abe 8b3b 13be cf6a a73e
00000020: b94f 4a3f 2da4 033e e12f f8bd d00e 11bd
00000030: b513 5f3e 432c 96bd 481a 943e 6a0a 1cbe
00000040: 9348 82be baa0 e43e f727 30be c2d4 9fbd
00000050: 6d27 5a3e c33f d3bc 06bd e0bc 0070 cfbd
00000060: 4048 60be 6c14 01be b123 ae3e 5af3 563e
00000070: 8db6 0dbe d6ae e13d dd34 d13d 75bc f03d
00000080: 2830 e4be aa24 43be 5ac2 1fbe 42b2 bf3d
00000090: 404c 0d3e a1dd 733e ee49 483e 879d 883c
000000a0: de2b 9f3d 330f 3cbd 3261 cbbe b074 b4bd
000000b0: bddf 2b3e a1e6 e13d 123b 83bd 19a2 5ebd
000000c0: 9303 a93e 8899 d1bd ea3f 90bd 89f2 abbd
000000d0: 70b0 c93e 7659 5e3d c025 83bd 401d 71bd
000000e0: a878 21be 5d4a 81be 3f9f c7bd b01f eebe
000000f0: ce3c 80bd e388 c5bd 952f 873d 5970 2ebe
00000100: 4c6c ee3b bac5 efbc 842c 5f3c 7bc6 bfbe
00000110: 5add 383e 61c9 893e d9e3 12bd bd8a 613b
00000120: 8c1f 683e cc01 28be a384 27be e170 e7bc
00000130: 7db9 ae3d 7cc8 543c 8a18 c73d 0184 a13c
00000140: 2fee 21be b361 323c 05e1 05bd c32b b13e
-0.28518298 -0.37998495 -0.08026915 -0.11508791 0.05095593 -0.15068452 -0.14378183 0.32698676
0.790279 0.12855597 -0.12118507 -0.035414517 0.21784861 -0.07332661 0.289263 -0.15238348
-0.25445995 0.44653875 -0.17202745 -0.07804252 0.21304102 -0.02578724 -0.027433883 -0.10128784
-0.21902561 -0.12605447 0.34011605 0.20991269 -0.13839169 0.110196754 0.10215161 0.11754695
-0.4456799 -0.19056955 -0.15601483 0.09360172 0.13798618 0.23815013 0.19559452 0.016676677
0.07772039 -0.045912933 -0.39722592 -0.08811319 0.16784568 0.11030317 -0.06407751 -0.054353807
0.3301054 -0.10234362 -0.07043441 -0.08395869 0.39392424 0.054284535 -0.064036846 -0.058865786
-0.15768683 -0.25252047 -0.09747171 -0.4650855 -0.062615976 -0.0964525 0.066008724 -0.17035045
0.0072760936 -0.029269088 0.013621453 -0.37456116 0.18053189 0.26911452 -0.035861824 0.003441497
0.22668284 -0.16406935 -0.1635919 -0.028252067 0.08531473 0.012987252 0.09721477 0.019716265
-0.15813516 0.010887551 -0.0326853 0.346037

fc3.weight f4 [10, 84]
00000000: e091 6bbe 92e9 6dbe c7b8 443f ddac 473d
00000010: 748f 0a3d 95ed 873f 31a4 e9bd 07a7 31bf
00000020: 0c57 52bf c111 debe 704f c63e 741a f13d
00000030: e1ee 83bd c885 abbe 7a93 673e 5df2 c43d
00000040: 7580 9abe 9dea 933e 977f c03e 1e92 00bf
00000050: f827 1ebf dbad cfbe 4737 dbbe 53bb 8dbe
00000060: 44bc 0a3f a919 08bf 9e7d 2c3e 19c0 d1be
00000070: e620 06bf c51f 36bf aa70 e5be 2e50 8a3e
00000080: 9fd7 b4be b886 8dbe 48e9 6abd fc1d 293e
00000090: df5e f33c 8d68 57be 6485 3cbe e654 7a3f
000000a0: 9e6c 003e b094 873f 4c45 8c3e ebf4 343f
000000b0: c849 3b3f 5b47 65be e192 4e3e a8fb 9cbe
000000c0: 870c 94be d8a1 f63e b241 823e 81c6 633d
000000d0: 5daa 1fbe fb46 1bbf fb42 11bf 3bf8 a43c
000000e0: a2de c53c 21e5 b5be 106a 8d3e 42e3 803d
000000f0: 5c18 a9bd 2e54 133f 88cb 8b3e 1954 19bf
00000100: d235 f53e 57c5 85be a61f fd3d b2dc 10bf
00000110: 8fc1 0fbf a4dd d43d 3357 723e 31ee d93f
00000120: 55aa 91be e24a 8b3c 6e87 653e ff07 553f
00000130: cd11 53be c8e2 6a3e bdc5 7d3d 4ebd 11bf
00000140: a71c 6d3f 9afa 96bd a467 a7bd 469e c3bd
00000150: 589c 123f 3596 563e 1f77 f03d e612 3d3e
00000160: 5109 1c3f 762e 363d 3e9c 1cbe 0e5d ae3f
00000170: cea7 8cbe 1fbf c83e 466d 97bd a0a3 86be
00000180: b786 1fbf c15d 283e c82e b33e 3e9c fbbe
00000190: f702 983f 7c34 d5be a9d8 6f3c 678f 803f
000001a0: 30d2 913e 1762 c8be a921 ae3e f4e2 a73e
000001b0: 7a85 88bd 3e64 90be ddb1 87be 2205 3a3f
000001c0: 8a9a 813e 13a1 ddbd 3f6f 8e3e fbce 3cbd
000001d0: 5673 a93e 29b6 603d 0687 b1be 195f d7be
000001e0: 306d 1bbf fb58 c7be 8ad6 593c 5584 2a3e
000001f0: 7e93 abbe 2f27 27be 41a1 c6be d047 a03e
00000200: a2bc b3be 766b 1abf 7ac3 053f 913b 0cbf
00000210: 380f 8cbe 3a47 353d af86 583d 4b1e c33d
00000220: 66a3 17be d6ae 163f f2b6 37bf ae65 ffbd
00000230: 88fb ed3e b010 d2be 01f0 26bd dcca 043e
00000240: 8054 99be abaf cebe 65b4 bcbe 9cfc 0a3f
00000250: d018 083f fe91 76be f1d7 43bf 3faf af3f
00000260: 9d62 703f 900a 14bf b1d4 6f3e 1c04 35be
00000270: 792c 37be 3ce6 29bf 272d 2ebe 6764 c0be
00000280: 2500 adbd 24dc afbd 8c1c c8be 4826 423f
00000290: d9b8 3dbe f3aa 55be 27e6 a13e 141b 9bbe
000002a0: 6ffc debd 0a35 1fbe fc4f 97bd c856 1a3f
000002b0: 5b8e f23e 609a 073d 9a7b 17bd b88a 0fbf
000002c0: 968b 1a3c caf2 973e ab80 76be fc18 1f3f
000002d0: 2f81 e3be 643b 1ebe 3eb6 eabd c06d 49bd
000002e0: ab66 113f 05ee cfbd 2e47 3cbe 6e62 2ebd
000002f0: 6e18 af3e a333 043f b846 51be 2652 5b3a
00000300: 05fc babe 6a4f 153b 7e6a 21bf 6a4d 8bbe
00000310: 8c5e 84bd 3837 77be d3af 9cbd c2d0 2dbe
00000320: 14af 833f 08de 20be e020 793e 62b4 cbbd
00000330: b2b2 443f 006a bc3e 7832 07be 3591 07bd
00000340: 8308 353e b17c bcbe ea2a a83d c3d4 e33e
00000350: 03d7 333f b725 dcbd 4e38 9cbd e25f 23be
00000360: efc5 f1bd 7a6c d93e 800b d5be 9bc2 40bd
00000370: ccc7 82be 40de 0f3f 2b43 00bd d874 cabe
00000380: 0387 86be cc17 35be 0c07 11be b771 d5bd
00000390: 4e3b 1dbe d731 103e 8d2b 923e 6eb7 02bf
000003a0: a33f 88be d0b5 c1be c90b 2fbd 6bc8 f9bd
000003b0: b0af 5abe 90ad d93e 9871 7ebe a8a8 a53e
000003c0: 9da2 34be 64b3 a7be 78af 95bd 3260 1abe
000003d0: d300 cbbd 4773 40be 0879 ed3e 77ff d8bd
000003e0: 7e86 363e 795c 893e 7847 80bd 30b0 92be
000003f0: f84e 8abe e309 60bd 04ea 63be 8755 ebbd
-0.23004866 -0.23233631 0.7684445 0.04874884 0.033828214 1.0619379 -0.1140827 -0.6939549
-0.82164073 -0.4337292 0.3873248 0.11772624 -0.06442047 -0.33500504 0.22614852 0.096165396
-0.3017613 0.28889933 0.37597343 -0.5022296 -0.6177974 -0.4056233 -0.4281561 -0.2768198
0.5419352 -0.53164154 0.16844794 -0.4096687 -0.5239395 -0.71142226 -0.44812518 0.27014297
-0.35320756 -0.27641845 -0.05735138 0.16515344 0.029708324 -0.21035977 -0.1841026 0.97785795
0.12541434 1.0592251 0.2739662 0.70686215 0.73159456 -0.22390501 0.20173217 -0.30660748
-0.28915808 0.48170352 0.25440747 0.05560923 -0.15592332 -0.6065518 -0.5674283 0.020137897
0.024154011 -0.35526374 0.27619982 0.06293346 -0.08256599 0.57550323 0.2730372 -0.5989395
0.47892624 -0.2612712 0.12359552 -0.56586754 -0.5615472 0.10393837 0.23666076 1.7025815
-0.28450266 0.01700348 0.22414944 0.83215326 -0.20612259 0.22938073 0.061956156 -0.5692948
0.92621845 -0.07372017 -0.08174065 -0.09551673 0.5726981 0.20955737 0.117414705 0.1846424
0.60951716 0.044477902 -0.15293977 1.3622148 -0.27471775 0.39208314 -0.07393889 -0.2629671
-0.62314934 0.16442014 0.3499663 -0.4914264 1.1875905 -0.41641605 0.014639058 1.0043763
0.28480673 -0.39137337 0.34010056 0.3279034 -0.06666084 -0.2820148 -0.26502886 0.7266408
0.25313216 -0.10821738 0.2781925 -0.04609583 0.33095807 0.05486122 -0.34673327 -0.4206474
-0.6071348 -0.38935074 0.013295779 0.16652043 -0.33510965 -0.16323541 -0.38794902 0.3130479
-0.35104853 -0.6032022 0.522514 -0.5477839 -0.2735536 0.04425738 0.05286282 0.09527262
-0.14808425 0.5886053 -0.7176353 -0.12470566 0.46480966 -0.41028357 -0.04075623 0.1296801
-0.2994728 -0.403684 -0.3685638 0.542917 0.5316286 -0.24079129 -0.76501375 1.3725356
0.9390047 -0.5782862 0.23420979 -0.17677349 -0.17888059 -0.66366935 -0.17009412 -0.375766
-0.08447293 -0.0858691 -0.3908428 0.7583966 -0.18527545 -0.20865993 0.31620905 -0.30294096
-0.10887992 -0.15547577 -0.07388303 0.6028867 0.47374234 0.033106208 -0.03698311 -0.56071043
0.009432694 0.2967742 -0.2407252 0.621475 -0.44434497 -0.15452343 -0.11460541 -0.04917693
0.56797284 -0.101528205 -0.18386528 -0.04257434 0.34198326 0.5164129 -0.20437133 0.0008366428
-0.365204 0.002278293 -0.6305312 -0.272075 -0.06463346 -0.24142158 -0.07650723 -0.16974166
1.0287805 -0.15709698 0.24328947 -0.09946515 0.7683517 0.36799622 -0.13202846 -0.033097465
0.17679028 -0.36813882 0.0821131 0.44498262 0.70249957 -0.10749381 -0.07627927 -0.15954545
-0.11805331 0.42465574 -0.41610336 -0.04706059 -0.25543058 0.561985 -0.031314056 -0.3954227
-0.2627488 -0.17684859 -0.14162844 -0.1042208 -0.15354654 0.14081512 0.28548852 -0.5106114
-0.2661105 -0.37834024 -0.04273585 -0.1219643 -0.21356082 0.4251523 -0.2484802 0.32355237
-0.17640157 -0.32754052 -0.07308859 -0.15075758 -0.099122666 -0.18793975 0.46381402 -0.10595601
0.17824742 0.26828364 -0.062636316 -0.28650045 -0.27013373 -0.05469693 -0.22257239 -0.114909224

fc3.bias f4 [10]
00000000: 583c 72bf a005 1cbf d095 5d3e 6b3d 863f
00000010: 56bf a53f b388 72bf 4154 603f 42d0 6cbf
00000020: 8ab8 053f 7335 b8be
-0.9462333 -0.60946083 0.2163918 1.0487493 1.2949016 -0.94739836 0.8762856 -0.92505276
0.5223471 -0.3597828
